heat_eq_2d/outputs/silu_interior_2000_arch_64x1/heat_network.0.pth (torch, 4043 bytes, 4 tensors)

_impl.layers.0.linear.weight f4 [64, 2]
-0.26064157 0.11136006 -0.3182681 -0.16384342 -1.3141932 -0.036197327 -0.14783154 0.27065334
-0.25733262 -0.13278165 -0.3238689 -0.14009112 -0.31814525 -0.16463366 -0.88030463 0.03179322
0.30327538 -0.09790862 0.14587662 0.2242206 -0.9489721 0.03265044 -0.14477831 -0.24688718
0.11174876 0.21963048 -0.6641961 0.023179853 -0.842862 0.031030685 -0.16706519 0.32478458
-0.9391356 0.033786636 -0.6798678 0.024153719 -0.17575006 -0.11169826 -0.3671957 0.16678818
-0.72058815 0.025919894 -0.82536703 0.030718066 -0.3256963 0.13295244 -0.8325599 0.030270694
-0.19613743 0.12835355 0.08675922 -0.2437358 -0.91357493 0.03313843 -0.20024255 0.22774008
-1.0061314 0.03241079 -0.8395956 0.030485827 -0.8344693 0.030551566 -0.21916297 -0.112653375
-0.42152205 0.16116315 -0.7456831 0.026891647 -0.5526482 -0.30387378 -0.25138012 0.1038776
-0.048777513 -0.30257097 -0.80371916 0.03031881 -0.63865304 0.022043578 -0.815132 -0.25769004
-0.719637 0.027053129 -0.8314038 0.030880537 -0.9519259 0.033127125 -0.8076477 0.029398436
-0.15366621 -0.28129712 -0.24238054 0.11724119 -0.25377765 0.116142124 -0.23720531 0.11519429
-0.85151565 0.03125061 -0.19927755 -0.3153361 -0.14735015 0.28661478 0.528368 0.049565632
-1.4209032 -0.041879673 -0.9369751 0.027117655 -0.6901878 0.024366828 -0.90548617 0.03301194
-0.8736612 0.02691473 -0.70219654 0.025454445 -1.0090858 0.044677783 0.047449313 0.96192825
0.19794525 0.20377764 -0.2505375 -0.12883115 -0.12664558 0.2243423 -0.2066043 0.09513917
00000000: d072 85be be10 e43d 09f4 a2be 92c6 27be
00000010: 7c37 a8bf a643 14bd 2761 17be 1393 8a3e
00000020: 1ac1 83be eaf7 07be 25d2 a5be 0c74 0fbe
00000030: efe3 a2be ba95 28be a55b 61bf 9c39 023d
00000040: e946 9b3e 5184 c8bd ae60 153e 169a 653e
00000050: d6ef 72bf 78bc 053d c440 14be fecf 7cbe
00000060: 89dc e43d d0e6 603e c108 2abf ade3 bd3c
00000070: cec5 57bf 1034 fe3c 2313 2bbe 2a4a a63e
00000080: 316b 70bf db63 0a3d d10b 2ebf 05de c53c
00000090: d3f7 33be 0fc2 e4bd 1301 bcbe 85ca 2a3e
000000a0: 7778 38bf f555 d43c 414b 53bf 74a4 fb3c
000000b0: aac1 a6be af24 083e a522 55bf 3ffa f73c
000000c0: 40d8 48be 1d6f 033e d1ae b13d e195 79be
000000d0: 0ce0 69bf 2abc 073d 620c 4dbe b234 693e
000000e0: eac8 80bf 2dc1 043d bdef 56bf 6abd f93c
000000f0: c89f 55bf 4747 fa3c 426c 60be d0b6 e6bd
00000100: bdd1 d7be f407 253e 16e5 3ebf df4b dc3c
00000110: 5a7a 0dbf 5895 9bbe e5b4 80be c7bd d43d
00000120: eeca 47bd 95ea 9abe 8ac0 4dbf 275f f83c
00000130: c47e 23bf bc94 b43c 7eac 50bf f3ef 83be
00000140: 213a 38bf 869e dd3c e1d6 54bf 2ef9 fc3c
00000150: 6ab1 73bf 4fb0 073d 00c2 4ebf fdd4 f03c
00000160: ad5a 1dbe 2d06 90be 9b32 78be 261c f03d
00000170: 25ef 81be ecdb ed3d f3e5 72be fcea eb3d
00000180: eefc 59bf a400 003d 6a0f 4cbe bc73 a1be
00000190: f5e2 16be 2cbf 923e 2043 073f 5505 4b3d
000001a0: 28e0 b5bf 058a 2bbd 9add 6fbf d825 de3c
000001b0: 26b0 30bf f19c c73c f1cd 67bf 8737 073d
000001c0: 43a8 5fbf 487c dc3c 27c3 33bf d785 d03c
000001d0: b929 81bf 0d00 373d 365a 423d ee40 763f
000001e0: 29b2 4a3e 16ab 503e 7446 80be 50ec 03be
000001f0: 61af 01be fdb9 653e 1490 53be 53d8 c23d

_impl.layers.0.linear.weight_g f4 [64, 1]
5.0095162 4.611426 5.574923 5.7686462 4.768952 7.154074 4.5864816 3.306262
5.4383173 3.756668 3.2788978 3.0303652 5.020096 3.8149147 3.507912 7.502083
3.421867 3.7338946 4.1091294 4.5710645 3.6744936 3.4730148 5.368565 3.574323
4.2316494 4.4718103 3.40804 5.8082685 3.2409027 3.5739214 3.5431423 4.5941205
6.2293468 3.6570983 2.6875858 5.26171 4.453622 3.4406667 3.9840324 2.6748126
3.5387888 3.476859 3.307049 3.5885303 7.9558053 3.9607396 4.508111 3.9580393
3.5131593 5.460348 5.5220857 3.3336375 6.179875 5.1345563 3.7537882 3.4105864
3.1412342 3.6572025 4.6365004 5.471325 6.0203314 4.6853423 4.6950035 4.4506426
00000000: f54d a040 cd90 9340 c565 b240 c098 b840
00000010: 419b 9840 2dee e440 75c4 9240 cc99 5340
00000020: b206 ae40 406d 7040 76d9 5140 81f1 4140
00000030: a0a4 a040 9027 7440 a181 6040 1011 f040
00000040: deff 5a40 21f8 6e40 fd7d 8340 2946 9240
00000050: e72a 6b40 e045 5e40 49cb ab40 b5c1 6440
00000060: ac69 8740 1219 8f40 541d 5a40 56dd b940
00000070: f36a 4f40 21bb 6440 d8c2 6240 0903 9340
00000080: cf56 c740 e60d 6a40 6801 2c40 ee5f a840
00000090: 1284 8e40 e233 5c40 63fa 7e40 2130 2b40
000000a0: 847b 6240 dc84 5e40 b1a6 5340 7baa 6540
000000b0: f595 fe40 c27c 7d40 7242 9040 8450 7d40
000000c0: 9ad7 6040 2cbb ae40 edb4 b040 515a 5540
000000d0: 89c1 c540 494e a440 113e 7040 0c47 5a40
000000e0: fb09 4940 9b0f 6a40 365e 9440 1815 af40
000000f0: 8ea6 c040 53ee 9540 783d 9640 aa6b 8e40

_impl.layers.0.linear.bias f4 [64]
-2.1074288 -1.5155201 -2.8966782 -5.6851315 -1.6039323 -3.4211519 -1.4761581 -1.1352041
0.80319625 2.275482 -1.1187798 -4.3534493 1.6783521 -1.3897386 -1.252627 -5.4440026
-1.2035223 -1.3577538 0.97010773 -1.7632575 -1.3334581 -1.2330129 -2.3627386 -1.2857553
1.133324 1.1176217 -1.1956016 -0.56995946 -1.0937568 -1.2859466 -1.2708614 -1.5056715
-2.8823502 -1.3248233 -0.2932418 -2.2901342 3.918568 -1.2182423 -1.4474097 -0.46017852
-1.2694689 -1.2360095 -1.1352392 -1.2931701 -5.7943773 -1.20406 -1.7156976 -1.1918236
-1.255606 0.7011829 0.9308585 0.44103315 -3.3089526 -1.9573162 -1.3663919 -1.1990448
-1.0248576 -1.3253351 -1.6599507 0.12833187 0.72285867 -1.5649177 -5.193911 -1.6725534
00000000: 1de0 06c0 90fc c1bf 2d63 39c0 99ec b5c0
00000010: a74d cdbf 27f4 5ac0 c0f2 bcbf 5e4e 91bf
00000020: 459e 4d3f 7fa1 1140 2d34 8fbf 754f 8bc0
00000030: 3ed4 d63f f4e2 b1bf 1556 a0bf 4535 aec0
00000040: 050d 9abf e0ca adbf fb58 783f 6cb2 e1bf
00000050: c1ae aabf 5ed3 9dbf 1c37 17c0 a193 a4bf
00000060: c310 913f 3a0e 8f3f 7909 99bf dde8 11bf
00000070: 3900 8cbf e699 a4bf 96ab a2bf d8b9 c0bf
00000080: 6d78 38c0 cf93 a9bf ca23 96be 8f91 12c0
00000090: d1c9 7a40 5def 9bbf b944 b9bf 859c ebbe
000000a0: f57d a2bf 8f35 9ebf 854f 91bf 9986 a5bf
000000b0: 8a6b b9c0 a31e 9abf fb9b dbbf ad8d 98bf
000000c0: b3b7 a0bf b980 333f be4c 6e3f 19cf e13e
000000d0: e1c5 53c0 5689 fabf eee5 aebf 4d7a 99bf
000000e0: 892e 83bf 95a4 a9bf 4479 d4bf 6e69 033e
000000f0: 440d 393f 394f c8bf 8534 a6c0 3b16 d6bf

_impl.final_layer.linear.weight f4 [1, 64]
-4.534051 -5.27832 7.3165565 -6.8980184 -5.540002 -7.814223 -5.161588 3.0820785
-3.2685876 2.3128955 2.7948666 -4.825348 3.3032527 3.679068 3.11374 -7.680481
3.2302434 3.4863138 1.3685312 -4.1569324 3.328719 3.264978 -4.873083 3.239364
2.3638563 2.8367493 3.255739 -4.3640614 2.721844 3.149898 3.1206691 -5.19005
-5.3713403 3.4195805 2.178324 -4.7056212 3.1267445 3.0777502 4.0510845 2.2638807
3.2667735 3.1439478 3.0319993 3.2109537 -8.741046 -3.5816722 -4.204351 -3.8295102
3.0502763 -4.463055 -4.792496 -1.5434413 8.307193 6.0022216 3.5238483 2.9726768
2.596126 3.4399986 4.83622 5.025229 -3.2687478 -5.3978124 -5.662355 -4.0908194
00000000: f216 91c0 ffe7 a8c0 3b21 ea40 91bc dcc0
00000010: b247 b1c0 1d0e fac0 bb2b a5c0 c640 4540
00000020: 8a30 51c0 7b06 1440 18df 3240 4069 9ac0
00000030: 7e68 5340 da75 6b40 8447 4740 80c6 f5c0
00000040: 4fbc 4e40 c41f 5f40 082c af3f 9705 85c0
00000050: bb09 5540 66f5 5040 4cf0 9bc0 bd51 4f40
00000060: 6c49 1740 4d8d 3540 075e 5040 64a6 8bc0
00000070: b132 2e40 ee97 4940 0bb9 4740 e414 a6c0
00000080: 05e2 abc0 68da 5a40 a969 0b40 7394 96c0
00000090: 951c 4840 dcf9 4440 7ca2 8140 6ce3 1040
000000a0: d112 5140 7136 4940 470c 4240 4480 4d40
000000b0: 53db 0bc1 1e3a 65c0 0b8a 86c0 b216 75c0
000000c0: ba37 4340 59d1 8ec0 215c 99c0 7c8f c5bf
000000d0: 43ea 0441 3312 c040 bb86 6140 5640 3e40
000000e0: ee26 2640 f028 5c40 50c2 9a40 adce a040
000000f0: 2a33 51c0 e1ba acc0 0332 b5c0 fee7 82c0
