heat_eq_2d/outputs/silu_interior_2000_arch_128x2/heat_network.0.pth (torch, 72852 bytes, 7 tensors)

_impl.layers.0.linear.weight f4 [128, 2]
-0.0719426 0.26397303 -1.054125 -0.0020353026 -2.344054 -0.0010799322 -0.6712821 -0.002524048
0.00056856597 2.0287082 -2.2908473 -0.0001439195 0.049840543 0.40641358 -0.98408645 -0.0019044837
-0.3079944 0.01601156 -1.1405008 -0.0036494508 -1.2852066 -0.0014161288 -0.9401641 -0.004752927
0.89308465 -0.007326612 -0.035819095 -0.30301836 -0.994618 -0.0014354823 -1.4474607 -0.001745129
-0.9565121 -0.0016885675 -2.5681434 -0.0012093596 -0.031535976 0.3842117 -0.08726171 0.23900993
-0.04324226 -0.25064814 -1.8949012 -0.0021322104 -2.0725837 0.00062860147 -0.07394666 -0.2053422
-0.07741133 0.2083803 -0.6841979 -0.0032154687 -0.0089829955 1.0211186 0.02849167 -0.5928676
-0.7435015 -0.0035475492 1.033798 -0.0041555776 0.22181086 0.07761574 -1.3373821 0.00096115953
-0.016365033 0.5390513 -0.043518633 0.35211715 -0.021973057 0.3506299 0.9913624 -0.004222833
1.014532 -0.0015608972 -0.12316611 -0.3063602 -0.101161025 0.2512279 0.009108259 0.6095635
0.010404722 -0.6848547 -0.67187184 -0.0041612205 -0.0510918 0.28985134 -0.05552721 -0.23628065
-2.260194 -0.0009536938 -2.4862182 -0.0004486288 -1.8221935 -0.0011894987 -0.8034324 -0.002357115
-1.0417311 -0.00167371 -0.054645758 -0.24223931 -0.815886 -0.0032248527 -0.28935274 0.009889908
-0.7265601 -0.0039309766 -1.0582187 -0.0024142172 0.02163682 0.5069024 -0.78617364 -0.002023668
-1.2058134 -0.0014717631 -0.096535675 0.27535576 1.8967314 0.0035031512 -0.8154551 -0.0024392656
-1.0596131 -0.0024837565 1.121626 -0.0075454116 -1.3051715 -0.0020106733 -0.93658924 -0.0026953183
-0.069845065 -0.3400394 1.11335 -0.009440123 1.0481193 -0.0027056304 -1.000547 -0.0019317808
-0.03792429 -0.37632865 -0.0709983 -0.23213351 -0.024810772 0.47050428 -1.0033995 -0.0017971018
-0.03230706 0.37107164 0.89347786 -0.005275836 -0.053814996 0.32740402 -1.0658169 -0.0017654983
-0.0884543 0.19624543 -0.64063555 -0.0026748355 -1.3816283 -0.001239175 -0.07363769 -0.22772142
-0.07891887 0.19801065 -0.06889361 0.27303302 1.0310104 -0.0032398622 -0.088701494 0.21597444
0.868551 -0.00413748 -0.82360125 -0.0026076257 -2.1005428 -0.0014133746 1.1358091 -0.0014403037
-0.021387203 -0.40784487 -0.0119942995 -0.3732015 1.2761004 -0.0016792408 -2.291217 -0.0007710357
-0.008303204 -0.43939826 -0.048976857 0.3146501 -1.1327165 -0.0015429971 -0.6241596 -0.0032749197
-1.0315089 -0.0019836146 -0.019186089 -0.39286527 -0.05233303 -0.32015896 0.009898829 0.8487968
-0.003221164 1.2127278 -0.88975805 -0.0036418356 -0.9495704 -0.0018742447 -0.09068373 0.19753699
-1.2874779 -0.0019228255 -0.029680735 -0.27975327 0.9092784 -0.007815384 -0.036048777 -0.2658685
-0.04655816 0.3192202 -0.8706248 -0.0026797443 -0.059011813 0.24767298 -0.61581844 0.0023355468
-0.07969979 -0.21907654 -1.5810833 -0.0014760367 -0.091968186 -0.20163524 -0.8711172 -0.002839141
2.4060724 0.0004607238 0.9928378 -0.0018089599 -0.035945613 -0.24772517 -0.77788633 -0.0029028284
-1.0627644 -0.002335749 -1.1431715 -0.00183246 0.97854 -0.0031436915 -0.09063795 -0.27303034
-0.073978595 0.2037714 -0.06361351 0.28664508 -0.014344325 0.5893988 -0.08844961 -0.26672524
00000000: a456 93bd 7927 873e 91ed 86bf b662 05bb
00000010: fb04 16c0 838c 8dba 25d9 2bbf 806a 25bb
00000020: d10b 153a 5bd6 0140 3e9d 12c0 19e9 16b9
00000030: 9925 4c3d 7115 d03e 17ed 7bbf de9f f9ba
00000040: 71b1 9dbe ad2a 833c eefb 91bf a02b 6fbb
00000050: a681 a4bf 669d b9ba 98ae 70bf 71be 9bbb
00000060: 32a1 643f 1314 f0bb 0bb7 12bd 3925 9bbe
00000070: 499f 7ebf cb26 bcba 6446 b9bf d0bc e4ba
00000080: fadd 74bf ec52 ddba 765c 24c0 6083 9eba
00000090: de2b 01bd 65b7 c43e 44b6 b2bd 05bf 743e
000000a0: cc1e 31bd f454 80be 1f8c f2bf 8ebc 0bbb
000000b0: 36a5 04c0 bbc8 243a 5971 97bd 3a45 52be
000000c0: d589 9ebd a561 553e 9827 2fbf 9dba 52bb
000000d0: 6a2d 13bc 04b4 823f 5d67 e93c 2cc6 17bf
000000e0: 1d56 3ebf 007e 68bb 7e53 843f 832b 88bb
000000f0: 6322 633e 00f5 9e3d 562f abbf 53f6 7b3a
00000100: f60f 86bc 44ff 093f 9840 32bd b348 b43e
00000110: d700 b4bc c385 b33e edc9 7d3f b15f 8abb
00000120: 2fdc 813f 0597 ccba 833e fcbd 3edb 9cbe
00000130: 832d cfbd f1a0 803e cf3a 153c 5b0c 1c3f
00000140: 9178 2a3c a352 2fbf cbff 2bbf d95a 88bb
00000150: a345 51bd 6567 943e 8070 63bd 8ef3 71be
00000160: 05a7 10c0 4f01 7aba 331e 1fc0 f035 ebb9
00000170: a33d e9bf f4e8 9bba bfad 4dbf d479 1abb
00000180: 7257 85bf 6360 dbba 3bd4 5fbd 950d 78be
00000190: e8dd 50bf 0d58 53bb 0b26 94be 4809 223c
000001a0: d8ff 39bf 6ccf 80bb b673 87bf d837 1ebb
000001b0: b33f b13c 5bc4 013f ad42 49bf 849f 04bb
000001c0: 1858 9abf 2de8 c0ba 7fb4 c5bd 6efb 8c3e
000001d0: 18c8 f23f 2095 653b aac1 50bf 16dc 1fbb
000001e0: 67a1 87bf 85c6 22bb 7191 8f3f 803f f7bb
000001f0: dc0f a7bf 80c5 03bb 50c4 6fbf f0a3 30bb
00000200: ee0a 8fbd a519 aebe 4182 8e3f bfaa 1abc
00000210: c628 863f f250 31bb ed11 80bf cf33 fdba
00000220: 8056 1bbd 26ae c0be 8f67 91bd 68b4 6dbe
00000230: f63f cbbc f0e5 f03e 656f 80bf bb8c ebba
00000240: 6854 04bd 1afd bd3e f7ba 643f ece0 acbb
00000250: 1d6d 5cbd 80a1 a73e b06c 88bf 4b68 e7ba
00000260: 8727 b5bd 90f4 483e b100 24bf 4b4c 2fbb
00000270: 32d9 b0bf d06b a2ba 5bcf 96bd ce2f 69be
00000280: 37a0 a1bd 4ec3 4a3e 1818 8dbd fcca 8b3e
00000290: 26f8 833f de53 54bb 21a9 b5bd 6728 5d3e
000002a0: 5c59 5e3f b393 87bb 88d7 52bf b3e4 2abb
000002b0: 4b6f 06c0 fb40 b9ba 3162 913f 93c8 bcba
000002c0: 3734 afbc 0bd1 d0be bd83 44bc 4414 bfbe
000002d0: 4257 a33f f919 dcba 4da3 12c0 541f 4aba
000002e0: 290a 08bc cff8 e0be f59b 48bd d119 a13e
000002f0: dbfc 90bf 643e caba ecc8 1fbf 09a0 56bb
00000300: 7c08 84bf 88ff 01bb 252c 9dbc a325 c9be
00000310: 295b 56bd e0eb a3be b32e 223c bf4a 593f
00000320: 2a1a 53bb aa3a 9b3f 2fc7 63bf ddab 6ebb
00000330: 0c17 73bf 37a9 f5ba 64b8 b9bd 2347 4a3e
00000340: 13cc a4bf 5107 fcba 0325 f3bc d23b 8fbe
00000350: 78c6 683f 190c 00bc e2a7 13bd eb1f 88be
00000360: c5b3 3ebd d470 a33e 44e1 5ebf a69e 2fbb
00000370: 5fb6 71bd fc9d 7d3e 47a6 1dbf f90f 193b
00000380: a539 a3bd 9a55 60be f060 cabf 9377 c1ba
00000390: d159 bcbd 7879 4ebe 8901 5fbf e210 3abb
000003a0: 17fd 1940 4d8d f139 9e2a 7e3f 9f1a edba
000003b0: b53b 13bd abab 7dbe 8f23 47bf 613d 3ebb
000003c0: aa08 88bf 5e13 19bb 7253 92bf 282f f0ba
000003d0: 9981 7a3f 6406 4ebb 64a0 b9bd a2ca 8bbe
000003e0: 1782 97bd 73a9 503e cd47 82bd 25c3 923e
000003f0: 7604 6bbc d7e2 163f 1225 b5bd 3690 88be

_impl.layers.0.linear.weight_g f4 [128, 1]
2.6498725 1.5573945 1.4825069 1.5238326 2.1283884 1.5549288 1.9694581 1.4616435
1.6999395 1.5803343 1.6036655 1.5038445 2.308702 2.4988267 1.5241024 1.5093092
1.482506 1.5255613 2.418166 3.1038954 2.4264367 1.5260224 1.5127963 3.7421188
3.4834204 1.5801647 2.0930405 2.2833831 1.7404902 2.7937863 2.414381 1.4589984
2.5009341 2.2880642 1.6209502 2.5746958 2.7651267 3.1135066 3.0402086 2.2690296
2.3813782 1.6251398 2.4769142 2.5433772 1.4668525 1.5557501 1.5456896 1.5851237
1.4982595 2.5735033 1.4827731 1.5816026 1.5866383 1.5153304 2.0566406 1.505245
1.5113584 2.8431463 2.9175293 1.5311657 1.5311396 2.2431512 1.685052 1.6354023
2.8441417 2.1453338 2.6225975 1.5593486 2.6164625 2.7480536 2.576012 1.5112048
2.6519454 2.3454409 2.6107147 1.5479826 3.1562395 1.4507643 1.5292985 2.997862
3.4952855 2.521172 2.7684252 3.1324582 2.8288386 1.5905205 1.5500773 2.6317804
2.3341842 2.3510308 2.7009764 1.4797795 2.8700423 2.5327373 1.5326433 1.4820027
1.4855957 2.3080595 2.6706185 2.2777815 2.315041 1.5844866 1.609567 3.3116312
1.6099237 2.3644361 2.4095082 2.3662424 2.4100938 1.4727685 2.4752753 1.5177009
2.984481 1.5145361 3.5902 1.7624735 2.6988184 2.6179216 2.3375895 1.4801744
1.5205853 1.433913 2.6873505 3.3282962 3.678888 2.7496648 2.524423 3.1543193
00000000: 8397 2940 b458 c73f c9c2 bd3f f20c c33f
00000010: 8437 0840 e807 c73f 3417 fc3f 2217 bb3f
00000020: 9e97 d93f 6548 ca3f e944 cd3f fa7d c03f
00000030: c6c1 1340 c7ec 1f40 ca15 c33f 0b31 c13f
00000040: c2c2 bd3f 9845 c33f 3bc3 1a40 39a6 4640
00000050: bd4a 1b40 b454 c33f 4fa3 c13f e07e 6f40
00000060: 5cf0 5e40 d642 ca3f 60f4 0540 f322 1240
00000070: 62c8 de3f 65cd 3240 3885 1a40 76c0 ba3f
00000080: 4e0f 2040 a56f 1240 4c7b cf3f d1c7 2440
00000090: d6f7 3040 b143 4740 c792 4240 c837 1140
000000a0: 8068 1840 9504 d03f c385 1e40 b1c6 2240
000000b0: d3c1 bb3f d222 c73f 28d9 c53f 55e5 ca3f
000000c0: f8c6 bf3f 47b4 2440 82cb bd3f f471 ca3f
000000d0: f716 cb3f 59f6 c13f 00a0 0340 deab c03f
000000e0: 3174 c13f 1cf6 3540 cdb8 3a40 3dfd c33f
000000f0: 62fc c33f ca8f 0f40 c9af d73f dd54 d13f
00000100: 6b06 3640 264d 0940 a3d8 2740 bc98 c73f
00000110: 1f74 2740 1ce0 2f40 61dd 2440 296f c13f
00000120: 79b9 2940 b41b 1640 f315 2740 4b24 c63f
00000130: d4ff 4940 a5b2 b93f 0ec0 c33f f9dc 3f40
00000140: c2b2 5f40 e25a 2140 e12d 3140 327a 4840
00000150: b10b 3540 2d96 cb3f ef68 c63f 176f 2840
00000160: 4663 1540 4a77 1640 ccdc 2c40 6a69 bd3f
00000170: c6ae 3740 5e18 2240 a82d c43f 44b2 bd3f
00000180: 0028 be3f 3fb7 1340 6aeb 2a40 2cc7 1140
00000190: a229 1440 75d0 ca3f 4b06 ce3f c4f1 5340
000001a0: fb11 ce3f ec52 1740 6235 1a40 8470 1740
000001b0: fa3e 1a40 ae83 bc3f e96a 1e40 0644 c23f
000001c0: bd01 3f40 52dc c13f d6c5 6540 bb98 e13f
000001d0: 71b9 2c40 078c 2740 119b 1540 5b76 bd3f
000001e0: 8aa2 c23f 768a b73f 8dfd 2b40 ce02 5540
000001f0: e772 6b40 82fa 2f40 2590 2140 5ee0 4940

_impl.layers.0.linear.bias f4 [128]
-1.146499 -0.43554103 -0.38803598 -0.44539535 -0.6096545 -0.35095555 -0.31388748 -0.36842123
0.9689589 -0.5070379 -0.5010954 -0.41255778 1.0904572 -0.7848041 -0.4202337 -0.36520085
-0.37959388 -0.3966234 -0.7647486 -1.3865554 -0.8994145 -0.33501035 -0.40707216 -1.3792214
-1.4405963 -0.4743084 -0.66660607 -0.23130983 -0.63481313 0.9427193 -0.2583436 -0.36027783
-0.6411125 -0.8628554 0.78472805 0.84726006 0.7890134 -1.4213446 -1.4521787 -0.55171
-0.40921214 -0.52292424 -0.9489351 -1.0269959 -0.3572041 -0.44121143 -0.3904265 -0.52497697
-0.38307175 -1.0065792 -0.42849943 0.055650197 -0.49422115 -0.43140358 -0.45978305 -0.42811775
-0.40108544 -1.323343 0.7362809 -0.36387727 -0.53018403 1.0342451 -0.61195 -0.56821734
-0.95786273 1.0624155 0.8327395 -0.40488482 -0.72670233 -1.1876104 -0.68990606 -0.41342187
-0.78070396 0.91538376 -0.9376606 -0.4185741 -1.5753461 -0.3658458 -0.385005 -1.2381562
-1.510177 -1.0973712 0.8629222 -1.4911487 0.932373 -0.5060651 -0.42801976 0.80865943
-0.6399928 -0.5775955 0.81838286 -0.35548928 -0.44800493 -0.9171259 -0.3986927 -0.40048513
-0.4179773 -0.6356965 -0.8695796 -0.52102304 -0.57074744 -0.49152404 -0.542817 -1.6210995
-0.52731204 -0.7630217 1.3893955 -0.84122205 -0.89057034 -0.3688078 -1.0740079 -0.2531605
-1.3383673 -0.3669657 -1.6255455 -0.6952287 0.73117554 0.8127156 -0.8471885 -0.42170495
-0.39870286 -0.3727959 0.84362686 -1.2792033 -1.4413136 -1.0587666 -0.6226554 -1.2681023
00000000: 7bc0 92bf 3cff debe a7ac c6be dc0a e4be
00000010: 5112 1cbf 72b0 b3be dcb5 a0be b5a1 bcbe
00000020: b10d 783f 3ccd 01bf ca47 00bf c63a d3be
00000030: 1a94 8b3f ece8 48bf df28 d7be 9bfb babe
00000040: 215a c2be 3912 cbbe 90c6 43bf a67a b1bf
00000050: 0740 66bf 7a86 abbe c36b d0be 548a b0bf
00000060: 7665 b8bf 8dd8 f2be b2a6 2abf 7cdc 6cbe
00000070: 1d83 22bf 0d56 713f 9d45 84be 5676 b8be
00000080: f31f 24bf 17e4 5cbf f0e3 483f 09e6 583f
00000090: c8fc 493f 9fee b5bf fee0 b9bf de3c 0dbf
000000a0: 4184 d1be 5dde 05bf 69ed 72bf 9a74 83bf
000000b0: 75e3 b6be 77e6 e1be fbe5 c7be e464 06bf
000000c0: fb21 c4be 96d7 80bf 4764 dbbe 76f1 633d
000000d0: 8e0a fdbe eee0 dcbe af68 ebbe 4032 dbbe
000000e0: 125b cdbe 4e63 a9bf e87c 3c3f 1f4e babe
000000f0: 24ba 07bf 2562 843f c1a8 1cbf b176 11bf
00000100: 7e36 75bf 3bfd 873f 6a2e 553f 104d cfbe
00000110: 2a09 3abf 9e03 98bf af9d 30bf 08ac d3be
00000120: 37dc 47bf 9756 6a3f 860a 70bf 584f d6be
00000130: f1a4 c9bf 2450 bbbe 601f c5be e77b 9ebf
00000140: 7b4d c1bf a976 8cbf 78e8 5c3f f6dd bebf
00000150: ffaf 6e3f 7b8d 01bf 6825 dbbe 4e04 4f3f
00000160: 91d6 23bf 4cdd 13bf 8a81 513f b102 b6be
00000170: e760 e5be c3c8 6abf 7321 ccbe 630c cdbe
00000180: 1f01 d6be 01bd 22bf c59c 5ebf c461 05bf
00000190: 811c 12bf 0aa9 fbbe 0ef6 0abf 3080 cfbf
000001a0: ecfd 06bf 6455 43bf b6d7 b13f 545a 57bf
000001b0: 6bfc 63bf 60d4 bcbe 1779 89bf 419e 81be
000001c0: 9f4f abbf eee2 bbbe e011 d0bf 82fa 31bf
000001d0: 522e 3b3f 210e 503f 58e1 58bf b6e9 d7be
000001e0: c822 ccbe 1bdf bebe eef7 573f efbc a3bf
000001f0: f77c b8bf aa85 87bf 5866 1fbf 2d51 a2bf

_impl.layers.1.linear.weight f4 [128, 128]
0.15679021 0.08399336 0.0759512 0.088847615 0.116399825 0.054960344 0.06628571 0.060183678
-0.119819924 0.121330634 0.1193008 0.08279142 -0.099769324 0.13301001 0.08229448 0.05967598
0.065775946 0.06983739 0.12879981 0.19674742 0.14199758 0.055994805 0.075317666 0.2546928
0.24346247 0.103853926 0.116206534 0.08317745 0.15607944 0.046383437 0.18738784 0.05228195
0.12232319 0.13327204 -0.0732785 0.03729722 0.08476988 0.20611909 0.19421494 0.103791185
0.08795995 0.12591575 0.14431916 0.16230701 0.060553025 0.09111893 0.07107155 0.12510197
0.069563165 0.15255012 0.08729722 -0.055581033 0.11148923 0.08787879 0.100856684 0.084895834
0.07628057 0.17223236 0.12422062 0.06170427 0.12502946 -0.08171491 0.15030324 0.13939083
0.16994065 -0.11806794 0.05102991 0.07558739 0.14637718 0.17543648 0.1250472 0.08247883
0.13049057 -0.016774109 0.14514785 0.07959835 0.20682529 0.052033342 0.06916455 0.19519183
0.24138226 0.15033321 0.06590181 0.20171879 0.05686063 0.118712746 0.089018844 0.057746224
0.12525555 0.12127499 0.0684625 0.058263335 0.12127233 0.1409426 0.06921211 0.07295425
0.07842861 0.12543833 0.15607129 0.10755042 0.113457 0.112244554 0.13215116 0.22095042
0.12927589 0.14183262 -0.24751405 0.1340425 0.13777529 0.05882883 0.14359955 0.0141576165
0.20070197 0.06197075 0.25097683 0.16826314 0.08981422 0.053318296 0.14064598 0.08307045
0.07714107 0.06532699 0.05597265 0.22621061 0.25003117 0.154201 0.1200071 0.21243389
0.053886965 -0.09963628 -0.09091542 -0.093961805 0.04251914 -0.09462281 0.033250723 -0.08861277
-0.06442651 -0.10505384 -0.10545929 -0.09400037 -0.32359976 0.05251525 -0.09440423 -0.09489368
-0.08966149 -0.095270835 0.048677217 0.07663859 0.054240055 -0.09529918 -0.09625818 0.14101614
0.10644541 -0.1042535 0.0403481 0.04274792 -0.12679517 -0.38880616 -0.11989969 -0.08968517
0.05000757 0.046245094 0.024565151 -0.33218652 -0.33202353 0.07854633 0.071912006 0.039508212
0.04096713 -0.1071332 0.04883259 0.05875374 -0.09248313 -0.10197226 -0.10147211 -0.10327121
-0.092421226 0.0607329 -0.09243872 -0.07480551 -0.10411535 -0.094366156 0.0405403 -0.093752064
-0.09486395 0.06172635 -0.31437042 -0.09712104 -0.09721122 -0.3065363 -0.118814096 -0.11154961
0.074402966 -0.28608742 -0.33238685 -0.10015046 0.059268612 0.07056734 0.050814327 -0.09383747
0.048245713 -0.3143503 0.05273596 -0.09654991 0.07244024 -0.08490959 -0.09861484 0.08390012
0.10044084 0.053578854 -0.3581212 0.0754549 -0.3885447 -0.104173064 -0.10190959 -0.3270851
0.049539044 0.048409086 -0.3352748 -0.091240175 0.05801693 0.05269942 -0.097275674 -0.09131516
-0.09199438 0.04821713 0.06483127 0.047303088 0.04195923 -0.102496736 -0.10857348 0.07982481
-0.10853855 0.05040342 -0.3520556 0.048785396 0.047367167 -0.090273365 0.050458074 -0.09114161
0.08272947 -0.09440885 0.11627502 -0.13225353 -0.30716234 -0.3269595 0.050305534 -0.09141671
-0.09828353 -0.085476406 -0.34368783 0.11002882 0.12616752 0.056414627 0.050004836 0.09838225
00000000: 9d8d 203e b604 ac3d 4e8c 9b3d bdf5 b53d
00000010: 0863 ee3d 191e 613d cdc0 873d 2983 763d
00000020: 2664 f5bd 327c f83d fa53 f43d 8c8e a93d
00000030: dc53 ccbd c733 083e 028a a83d cd6e 743d
00000040: 8ab5 863d e806 8f3d 19e4 033e 2878 493e
00000050: d067 113e cf5a 653d 2640 9a3d 1867 823e
00000060: 3a4e 793e 5eb1 d43d b1fd ed3d f058 aa3d
00000070: 4ad3 1f3e 8ffc 3d3d 99e2 3f3e 9925 563d
00000080: 9584 fa3d 7778 083e 0a13 96bd f8c4 183d
00000090: d59b ad3d e210 533e 48e0 463e 7990 d43d
000000a0: 5924 b43d 0ff0 003e 67c8 133e cf33 263e
000000b0: 7306 783d 909c ba3d f68d 913d bb1a 003e
000000c0: 2277 8e3d 1936 1c3e e3c8 b23d f0a8 63bd
000000d0: 7754 e43d ccf9 b33d f38d ce3d dedd ad3d
000000e0: fd38 9c3d ae5d 303e 6167 fe3d 9ebd 7c3d
000000f0: b907 003e 265a a7bd 18e9 193e 78bc 0e3e
00000100: ec04 2e3e 9bcd f1bd bd04 513d 90cd 9a3d
00000110: e6e3 153e 9fa5 333e 600c 003e a9ea a83d
00000120: 529f 053e db69 89bc a3a1 143e 7604 a33d
00000130: 02ca 533e ea20 553d 25a6 8d3d 5ee0 473e
00000140: e92c 773e f3f0 193e 87f7 863d 5f8f 4e3e
00000150: b1e6 683d ab1f f33d 834f b63d 4e87 6c3d
00000160: fe42 003e 065f f83d 1136 8c3d 89a5 6e3d
00000170: a15d f83d 4253 103e 14bf 8d3d 0a69 953d
00000180: 2e9f a03d e872 003e 27d1 1f3e 6543 dc3d
00000190: 255c e83d 79e0 e53d a252 073e d440 623e
000001a0: e660 043e 923c 113e 5374 7dbe 7042 093e
000001b0: f714 0d3e 80f6 703d c30b 133e 59f5 673c
000001c0: d184 4d3e 0bd5 7d3d 0980 803e 2c4d 2c3e
000001d0: 85f0 b73d 4964 5a3d 8005 103e d720 aa3d
000001e0: 23fc 9d3d 28ca 853d 9443 653d c1a3 673e
000001f0: 1604 803e dee6 1d3e 48c6 f53d 4588 593e
00000200: 94b8 5c3d 1b0e ccbd dd31 babd 0c6f c0bd
00000210: 8d28 2e3d 9bc9 c1bd e931 083d 9d7a b5bd
00000220: 0cf2 83bd 7826 d7bd 0afb d7bd 4483 c0bd
00000230: deae a5be 3b1a 573d 0157 c1bd 9e57 c2bd
00000240: 71a0 b7bd 5b1d c3bd c361 473d b1f4 9c3d
00000250: d22a 5e3d 372c c3bd 0223 c5bd 8966 103e
00000260: 0d00 da3d dc82 d5bd 0d44 253d 7118 2f3d
00000270: 98d6 01be 9a11 c7be f88d f5bd dcac b7bd
00000280: bdd4 4c3d 7f6b 3d3d db3c c93c 5a14 aabe
00000290: fdfe a9be e6dc a03d 9a46 933d 5dd3 213d
000002a0: 26cd 273d a768 dbbd af04 483d c3a7 703d
000002b0: cc67 bdbd d5d6 d0bd 9cd0 cfbd db7f d3bd
000002c0: 5747 bdbd 10c3 783d 8350 bdbd a233 99bd
000002d0: 6e3a d5bd 0b43 c1bd 960d 263d 1501 c0bd
000002e0: 0848 c2bd c5d4 7c3d 29f5 a0be 65e7 c6bd
000002f0: ad16 c7bd 53f2 9cbe ce54 f3bd 1f74 e4bd
00000300: 9560 983d 0d7a 92be 9c2e aabe af1b cdbd
00000310: a5c3 723d 9c85 903d af22 503d dc2d c0bd
00000320: 4c9d 453d 86f2 a0be a901 583d f6bb c5bd
00000330: 8c5b 943d 14e5 adbd 94f6 c9bd d3d3 ab3d
00000340: edb3 cd3d 8075 5b3d a95b b7be 1988 9a3d
00000350: 55ef c6be b058 d5bd fab5 d0bd b377 a7be
00000360: 74e9 4a3d 9b48 463d 23a9 abbe 21dc babd
00000370: 29a3 6d3d 59db 573d 7838 c7bd 7103 bbbd
00000380: 8d67 bcbd 537f 453d 42c6 843d e2c0 413d
00000390: 71dd 2b3d cfe9 d1bd c65b debd 317b a33d
000003a0: 7649 debd d173 4e3d a240 b4be 32d3 473d
000003b0: 1304 423d 3ee1 b8bd 20ad 4e3d 74a8 babd
000003c0: 126e a93d 6d59 c1bd 9921 ee3d 786d 07be
000003d0: 6244 9dbe 3c67 a7be 2d0d 4e3d af38 bbbd
000003e0: e048 c9bd 410e afbd daf7 afbe ca56 e13d
000003f0: 0f32 013e 0613 673d dfd1 4c3d a27c c93d

_impl.layers.1.linear.weight_g f4 [128, 1]
2.1835518 3.1244595 2.4564383 1.7073467 1.5593387 1.9948506 4.9597754 2.6990616
1.8014197 1.6731098 6.9618998 2.1426175 1.6428341 1.7750832 2.455159 1.3944811
1.7771562 1.8049309 1.2552981 2.7900562 4.1430807 1.5792526 3.55401 1.6419101
1.6072015 1.8195512 1.7485316 1.9347856 4.6872325 1.3550171 1.3328265 2.7536807
1.8477268 3.5728595 1.8945471 1.5886807 8.310277 1.2920744 2.9673493 1.4390191
2.1380734 3.8230464 1.4738425 4.740917 2.4194634 2.1233866 2.878561 1.3965578
2.9659364 2.585148 1.7428274 1.4518484 1.5242932 2.1739426 4.7783375 1.7879441
3.222067 2.4818404 1.743748 1.5374694 1.700521 1.7638124 2.0386794 2.5106351
2.3932514 3.470467 5.341968 2.5418658 2.0173995 2.7393055 1.6385429 1.2227663
1.4188967 4.21511 1.3289965 1.6541333 1.3857698 1.6283315 1.8777609 1.37122
1.4352306 2.7267332 1.4565914 1.6553605 2.3606083 1.4854838 1.6790841 1.4298594
1.6599865 1.9090707 3.0053308 1.9581909 1.6941586 1.5217035 3.2424667 1.3039702
2.808123 3.9146457 2.0838163 3.0277607 1.3692153 2.4340374 1.64408 3.2683122
2.5516315 2.274741 2.3521261 2.639673 2.1855211 2.419626 2.0911362 1.5068113
2.3115864 2.4076567 1.4384539 1.8767993 1.3895833 3.242696 2.7902508 1.5735884
2.230634 1.6652066 1.2399526 1.3449807 2.358927 2.127279 1.491742 2.5345223
00000000: 50bf 0b40 25f7 4740 4936 1d40 568a da3f
00000010: 6998 c73f 4457 ff3f 7bb6 9e40 6dbd 2c40
00000020: ec94 e63f 7628 d63f e2c7 de40 a520 0940
00000030: 6348 d23f ed35 e33f 5321 1d40 5b7e b23f
00000040: db79 e33f fa07 e73f 9cad a03f 4890 3240
00000050: 1e94 8440 f324 ca3f e674 6340 1c2a d23f
00000060: c7b8 cd3f 0ee7 e83f e2cf df3f 0ea7 f73f
00000070: cffd 9540 3371 ad3f 0f9a aa3f 4e3c 3040
00000080: 5082 ec3f bba9 6440 8580 f23f e459 cb3f
00000090: e5f6 0441 b262 a53f 0de9 3d40 c731 b83f
000000a0: 32d6 0840 cbac 7440 dfa6 bc3f 98b5 9740
000000b0: 7dd8 1a40 91e5 0740 583a 3840 68c2 b23f
000000c0: e7d1 3d40 1173 2540 f814 df3f 2bd6 b93f
000000d0: 0a1c c33f e021 0b40 24e8 9840 5adb e43f
000000e0: 5936 4e40 79d6 1e40 2233 df3f cccb c43f
000000f0: acaa d93f 9bc4 e13f b979 0240 3fae 2040
00000100: 082b 1940 221c 5e40 67f1 aa40 eead 2240
00000110: 131d 0140 c850 2f40 c6bb d13f 9b83 9c3f
00000120: 689e b53f 2ee2 8640 8f1c aa3f a4ba d33f
00000130: e860 b13f 2b6d d03f 785a f03f 2384 af3f
00000140: a3b5 b73f cc82 2e40 9671 ba3f dae2 d33f
00000150: 3514 1740 5524 be3f 3aec d63f a205 b73f
00000160: 707a d43f 6e5c f43f 5757 4040 00a6 fa3f
00000170: 30da d83f 2ec7 c23f 9384 4f40 7fe8 a63f
00000180: 4ab8 3340 8e89 7a40 3f5d 0540 d5c6 4140
00000190: 7242 af3f 45c7 1b40 3771 d23f 072c 5140
000001a0: ee4d 2340 5b95 1140 3c89 1640 67f0 2840
000001b0: 94df 0b40 27db 1a40 2dd5 0540 31df c03f
000001c0: 08f1 1340 0c17 1a40 421f b83f f63a f03f
000001d0: dedd b13f 5588 4f40 7893 3240 586b c93f
000001e0: b5c2 0e40 7d25 d53f c4b6 9e3f 5428 ac3f
000001f0: a9f8 1640 5725 0840 67f1 be3f 9d35 2240

_impl.layers.1.linear.bias f4 [128]
-0.5249688 -0.15389566 0.16189905 -0.02069697 0.049484074 0.27805963 -0.39426878 -0.58972144
-0.29116994 -0.14615251 -0.5531117 -0.074184746 -0.32771733 -0.29361883 -0.106444925 0.048928574
-0.060897302 -0.037170064 -0.107328475 -0.1288577 -0.35029465 0.095461465 -0.23890233 -0.16935456
-0.33892253 0.10485323 -0.04478361 0.20104969 -0.44333124 -0.085420735 0.09090605 0.339989
-0.26240155 -0.9189523 -0.21880808 0.003041075 -0.7457953 -0.0018399645 -0.1935522 -0.2342812
-0.118154354 -0.27834576 0.0514249 -0.4581393 0.057955116 -0.1066318 -0.5070321 -0.012085248
-0.8091698 0.05977448 -0.28839037 0.00021647282 -0.29204133 -0.08006201 -0.43973497 0.11012971
0.16841863 -1.0960274 -0.08260829 -0.0016641365 -0.2943814 -0.049006637 -0.12673113 0.024929775
0.029257953 -0.28237653 -0.5159299 -0.10325873 -0.18228501 -0.60898274 -0.10565267 -0.05565642
0.05861266 -0.36746126 0.13493997 -0.00086940004 0.06031046 -0.21803136 -0.04768843 0.047170527
0.03336884 -0.11052254 0.04802224 -0.028096396 -0.06821385 -0.05551593 -0.24755473 0.023510234
-0.29323545 -0.073809505 -0.16652393 -0.1700294 0.08370779 0.059817925 -0.21142425 -0.074614316
-0.51342535 -1.9647641 -0.1393862 -0.16630486 -0.14730841 -0.10739668 -0.33494723 -0.2004049
-0.039125387 -0.55614734 0.020067645 -0.14633192 -0.57655346 0.2017201 0.40239727 0.15065113
-0.5634868 0.17585774 -0.023397347 -0.2648971 0.061636515 0.41239047 0.09959555 0.03592547
0.5223053 -0.028772876 -0.057548236 -0.022984903 -0.023856465 0.23148796 -0.10458381 0.27951998
00000000: 5b64 06bf d396 1dbe ddc8 253e b18c a9bc
00000010: d0af 4a3d d55d 8e3e 99dd c9be fcf7 16bf
00000020: 3a14 95be 01a9 15be ba98 0dbf 2cee 97bd
00000030: 91ca a7be 3555 96be ccff d9bd 5469 483d
00000040: 736f 79bd a33f 18bd 08cf dbbd 46f3 03be
00000050: d259 b3be 4d81 c33d d0a2 74be 486b 2dbe
00000060: 4187 adbe 4abd d63d 056f 37bd f8df 4d3e
00000070: 50fc e2be 11f1 aebd f32c ba3d 0a13 ae3e
00000080: 7f59 86be 7540 6bbf 3a0f 60be c64c 473b
00000090: 71ec 3ebf f72a f1ba 8c32 46be 69e7 6fbe
000000a0: e9fa f1bd 5683 8ebe eaa2 523d 3c91 eabe
000000b0: 5862 6d3d c661 dabd dbcc 01bf 3401 46bc
000000c0: c125 4fbf 16d6 743d e7a7 93be fbfc 6239
000000d0: 7186 95be 8df7 a3bd f124 e1be af8b e13d
000000e0: ef75 2c3e a04a 8cbf 892e a9bd 281f daba
000000f0: 29b9 96be 2fbb 48bd cec5 01be 8739 cc3c
00000100: 60ae ef3c a893 90be fb13 04bf 5079 d3bd
00000110: eca8 3abe 4be6 1bbf 6d60 d8bd fcf7 63bd
00000120: d413 703d e223 bcbe b42d 0a3e 73e8 63ba
00000130: 1a08 773d 9d43 5fbe f154 43bd e235 413d
00000140: c4ad 083d a459 e2bd f8b2 443d 6a2a e6bc
00000150: b4b3 8bbd ac64 63bd fd7e 7dbe 8998 c03c
00000160: f522 96be 7029 97bd 4085 2abe 301c 2ebe
00000170: fd6e ab3d a403 753d 997f 58be 64cf 98bd
00000180: d86f 03bf 647d fbbf 42bb 0ebe d24b 2abe
00000190: 04d8 16be caf2 dbbd 347e abbe f136 4dbe
000001a0: f141 20bd ac5f 0ebf e764 a43c 09d8 15be
000001b0: 0299 13bf b78f 4e3e 0407 ce3e 4a44 1a3e
000001c0: ac40 10bf 0d14 343e cbab bfbc 98a0 87be
000001d0: 9276 7c3d d824 d33e c0f8 cb3d 9626 133d
000001e0: cdb5 053f 18b5 ebbc b3b7 6bbd d64a bcbc
000001f0: a26e c3bc 2e0b 6d3e 0930 d6bd 3e1d 8f3e

_impl.final_layer.linear.weight f4 [1, 128]
1.5477457 -1.6329962 -1.2583705 -1.2967279 -1.5367384 0.9160356 -2.3632166 1.5726537
0.2629639 1.0768856 -3.1289237 0.3920321 0.21285835 0.3141338 -1.3957489 -1.4485934
-1.2905741 -1.206868 0.18122666 -1.5892711 -2.0485377 -1.4822127 -1.8302866 1.1341246
0.28385577 -1.4015279 -1.2148435 0.54075646 -2.2339258 -1.4505603 -1.076805 0.4326043
0.21482472 1.9734688 0.18215664 -1.2694105 -3.9745662 0.27584296 -1.6507727 0.17142619
0.41069207 -2.0114212 0.18334523 -2.2552562 -1.4131789 0.29937056 -0.99920815 0.346884
1.7602007 0.39305705 0.20869027 0.8616406 0.25237346 0.28833926 -2.2215567 0.44724196
0.5250252 -0.695668 -1.208917 -1.1007563 1.0291563 -1.3054477 0.25134942 -1.4416789
-1.5296015 -1.8084959 -2.3420668 -1.5151232 0.42948428 1.7073725 1.0358423 -1.3538632
0.79571486 -2.058976 -0.9148726 -1.2728027 0.24954188 0.97041535 -1.2710174 -1.3648142
-1.3249081 -1.5858687 0.25417936 -1.2834605 -1.49226 0.7954301 1.0745614 0.28880456
0.2244644 -1.2460457 -1.6470569 -1.2837727 -1.5804098 -1.4134332 -1.7779155 0.29149917
-1.2564036 -1.2364472 0.30130014 -1.6831087 0.14955355 -1.4074467 0.31237003 -1.7875662
0.45203707 1.5632432 -1.307848 -1.5206565 1.4055058 -1.4730244 0.667509 -1.2901511
1.5584323 -1.5244626 0.80176604 0.26635972 -1.1777883 0.47958297 0.44933712 -1.4991556
0.932245 -1.2559515 -1.3023177 0.21161997 0.37535453 -1.3452872 0.75962037 -1.3107437
00000000: 881c c63f 0506 d1bf 4912 a1bf 2efb a5bf
00000010: d8b3 c4bf 4f81 6a3f f13e 17c0 b74c c93f
00000020: 34a3 863e 63d7 893f 4940 48c0 6eb8 c83e
00000030: 8af7 593e 25d6 a03e e6a7 b2bf 826b b9bf
00000040: 8831 a5bf a77a 9abf 7b93 393e 3c6d cbbf
00000050: 3e1b 03c0 25b9 bdbf d546 eabf ff2a 913f
00000060: 8b55 913e 4465 b3bf fe7f 9bbf 046f 0a3f
00000070: a4f8 0ec0 f6ab b9bf bfd4 89bf 507e dd3e
00000080: 03fb 5b3e a09a fc3f 4587 3a3e 0b7c a2bf
00000090: 4b5f 7ec0 4a3b 8d3e 854c d3bf 598a 2f3e
000000a0: 3b46 d23e 20bb 00c0 dabe 3b3e 1e56 10c0
000000b0: 0ce3 b4bf 1947 993e 1bcc 7fbf c89a b13e
000000c0: 424e e13f c63e c93e e7b2 553e 7a94 5c3f
000000d0: 1837 813e 34a1 933e fc2d 0ec0 e6fc e43e
000000e0: 0d68 063f 4c17 32bf cbbd 9abf 95e5 8cbf
000000f0: 65bb 833f e918 a7bf dfb0 803e ef88 b8bf
00000100: fbc9 c3bf cb7c e7bf 6ce4 15c0 8fef c1bf
00000110: 5de5 db3e 2f8b da3f 7b96 843f 644b adbf
00000120: f8b3 4b3f 43c6 03c0 1735 6abf 33eb a2bf
00000130: e887 7f3e 246d 783f b3b0 a2bf 3bb2 aebf
00000140: 9796 a9bf bffd cabf cc23 823e 6f48 a4bf
00000150: 6002 bfbf 4fa1 4b3f 3a8b 893f 31de 933e
00000160: ffd9 653e 6d7e 9fbf c3d2 d2bf aa52 a4bf
00000170: de4a cabf 61eb b4bf bc92 e3bf 613f 953e
00000180: d5d1 a0bf e743 9ebf 0344 9a3e 1b70 d7bf
00000190: 9124 193e 3727 b4bf f7ee 9f3e f8ce e4bf
000001a0: 6771 e73e 5a18 c83f 9067 a7bf dfa4 c2bf
000001b0: 9de7 b33f 108c bcbf dfe1 2a3f ac23 a5bf
000001c0: b67a c73f 9721 c3bf 8a40 4d3f 4d60 883e
000001d0: c4c1 96bf e68b f53e 840f e63e 55e4 bfbf
000001e0: 9ca7 6e3f 05c3 a0bf 59b2 a6bf e8b2 583e
000001f0: 782e c03e 5f32 acbf 7b76 423f 73c6 a7bf
