3d_solid_solid/outputs/fourier_net/heat_net.0.pth (torch, 374498 bytes, 20 tensors)

fourier_layer_xyzt.frequencies f4 [3, 30]
000000 00 00 00 00 00 00 00 00 00 00 00 00 00 00 80 3f
       0.0 0.0 0.0 1.0
000010 00 00 00 00 00 00 00 00 00 00 00 40 00 00 00 00
       0.0 0.0 2.0 0.0
000020 00 00 00 00 00 00 40 40 00 00 00 00 00 00 00 00
       0.0 3.0 0.0 0.0
000030 00 00 80 40 00 00 00 00 00 00 00 00 00 00 a0 40
       4.0 0.0 0.0 5.0
000040 00 00 00 00 00 00 00 00 00 00 c0 40 00 00 00 00
       0.0 0.0 6.0 0.0
000050 00 00 00 00 00 00 e0 40 00 00 00 00 00 00 00 00
       0.0 7.0 0.0 0.0
000060 00 00 00 41 00 00 00 00 00 00 00 00 00 00 10 41
       8.0 0.0 0.0 9.0
000070 00 00 00 00 00 00 00 00 00 00 00 00 00 00 00 00
       0.0 0.0 0.0 0.0
000080 00 00 00 00 00 00 00 00 00 00 80 3f 00 00 00 00
       0.0 0.0 1.0 0.0
000090 00 00 00 00 00 00 00 40 00 00 00 00 00 00 00 00
       0.0 2.0 0.0 0.0
0000a0 00 00 40 40 00 00 00 00 00 00 00 00 00 00 80 40
       3.0 0.0 0.0 4.0
0000b0 00 00 00 00 00 00 00 00 00 00 a0 40 00 00 00 00
       0.0 0.0 5.0 0.0
0000c0 00 00 00 00 00 00 c0 40 00 00 00 00 00 00 00 00
       0.0 6.0 0.0 0.0
0000d0 00 00 e0 40 00 00 00 00 00 00 00 00 00 00 00 41
       7.0 0.0 0.0 8.0
0000e0 00 00 00 00 00 00 00 00 00 00 10 41 00 00 00 00
       0.0 0.0 9.0 0.0
0000f0 00 00 00 00 00 00 00 00 00 00 00 00 00 00 00 00
       0.0 0.0 0.0 0.0
000100 00 00 00 00 00 00 80 3f 00 00 00 00 00 00 00 00
       0.0 1.0 0.0 0.0
000110 00 00 00 40 00 00 00 00 00 00 00 00 00 00 40 40
       2.0 0.0 0.0 3.0
000120 00 00 00 00 00 00 00 00 00 00 80 40 00 00 00 00
       0.0 0.0 4.0 0.0
000130 00 00 00 00 00 00 a0 40 00 00 00 00 00 00 00 00
       0.0 5.0 0.0 0.0
000140 00 00 c0 40 00 00 00 00 00 00 00 00 00 00 e0 40
       6.0 0.0 0.0 7.0
000150 00 00 00 00 00 00 00 00 00 00 00 41 00 00 00 00
       0.0 0.0 8.0 0.0
000160 00 00 00 00 00 00 10 41
       0.0 9.0

fc.layers.0.linear.weight f4 [128, 63]
000000 57 2f d4 bd 4b a7 81 3e b4 b3 94 3e 64 d5 ca 3e
       -0.10360592 0.25322947 0.29043353 0.3961593
000010 8b bd 0a 3f 26 af fe 3e 65 cc eb 3d 6e e4 47 bd
       0.5419547 0.49743003 0.115135945 -0.048801832
000020 37 4e 49 bc 50 cd 12 bd 1f 7a 24 3e d5 75 f1 bc
       -0.012286714 -0.035840333 0.1606221 -0.029475132
000030 b7 ed 4b be ee 1e c5 3c bb 46 90 be f1 75 cc bc
       -0.199149 0.0240626 -0.28178963 -0.024958583
000040 af 42 74 3d 8c b6 33 3e f0 97 b9 3e c1 0f 8a be
       0.059633907 0.17550105 0.36248732 -0.26965144
000050 35 8f 91 3b e1 d2 10 3e 21 52 0c 3e a8 12 11 3d
       0.0044421204 0.14142944 0.13703205 0.035418183
000060 41 05 31 be 9b 78 3c 3c d8 34 74 be 0d 4c c6 3c
       -0.1728716 0.011503364 -0.23848283 0.024206186
000070 82 67 8d bd 52 9c 8a 3d 71 bc 93 bd bd cd 86 be
       -0.06904508 0.06768097 -0.07213677 -0.2632884
000080 e3 ae dd bb cb 3e 5e 3d c1 11 97 3c 74 3b 11 3e
       -0.006765233 0.054259103 0.018441083 0.14182836
000090 da 2b b8 3d d3 9a 9c bd 40 80 0b 3e 34 32 09 3e
       0.08992739 -0.07646718 0.13623142 0.13398057
0000a0 fe 49 cd bd ba 6d d3 3e 5b 19 b2 3d c5 72 8f 3d
       -0.100238785 0.41294652 0.086962424 0.070043124
0000b0 7e e3 c2 bd 98 3f 06 be d5 8d 41 be a3 06 63 3d
       -0.09516047 -0.13110197 -0.18901761 0.05542625
0000c0 a5 dd 1c be 28 a2 9c bd 2c b4 28 be 29 35 98 3d
       -0.15318926 -0.07648116 -0.1647498 0.074320145
0000d0 ba cb e9 3d fc 03 7b 3e ec 4d 07 bd b7 08 4c 3e
       0.11415811 0.24513239 -0.033033296 0.199252
0000e0 99 6f ba bd bc 02 c8 3d 96 72 44 3e de 66 61 3e
       -0.09103317 0.097661465 0.19184336 0.22011897
0000f0 ab 9e 5e 3e 9c f5 6f 3c 6f 71 4d bb 38 b1 15 3d
       0.21740215 0.01464596 -0.003134813 0.036545962
000100 0f a9 80 bc c1 3d 16 3e 3a 52 da 3e f6 41 c4 be
       -0.015705613 0.14671995 0.4264086 -0.38331574
000110 fd 27 a2 be 33 78 96 bd 3d a4 00 bd 6d 50 7f 3e
       -0.31671134 -0.07347145 -0.03140663 0.24933024
000120 ee 9d 46 bc 1c d1 f8 3d 78 b3 e4 bd 9e ee 8a 3d
       -0.012122614 0.121492594 -0.111670434 0.06783794
000130 61 f5 b4 3d 4a 4b a7 be 83 e6 af 3d 22 c8 a5 3d
       0.08835865 -0.32674628 0.085888885 0.08094813
000140 2c 0f 5e 3e 17 86 b8 be ea 17 82 3e 0c e8 06 be
       0.21685475 -0.36039802 0.2540887 -0.13174456
000150 7f 90 51 3d eb cc cf bd 89 90 84 3d 1f e2 fb bd
       0.051163193 -0.10146507 0.064728804 -0.122989886
000160 00 24 5d be 20 4d 0e be 4d 88 e7 3d 03 de 17 3e
       -0.21595764 -0.13896608 0.11305294 0.14830784
000170 1b 5e 49 3e d0 bb 4b 3e d6 72 df 3d 34 db 36 be
       0.19664805 0.19895864 0.10910575 -0.17857057
000180 de c6 9f 3d 97 35 4a be 89 cb 89 be df 6b 30 3e
       0.07801603 -0.19747005 -0.26913098 0.1722865
000190 e1 75 1a bc b9 2a 6d be 2b 61 c7 3d f0 35 c7 3d
       -0.009427519 -0.23160829 0.0973533 0.09727085
0001a0 20 2b c1 3e 53 87 6c bd de 4f 1f bd 5b 23 a3 bd
       0.37728214 -0.057746243 -0.038894527 -0.07965728
0001b0 7e f5 b9 3d 1d ca 81 3d 28 6f 2d be d4 68 94 bd
       0.09080027 0.06337378 -0.16936934 -0.07246557
0001c0 47 59 20 bd 7d 18 01 be c3 e6 0c bd f0 d7 83 3d
       -0.03914764 -0.12606998 -0.03439976 0.06437671
0001d0 ad 0a 16 3d d1 9c 0d 3e 0b 4b 0f be f3 af a4 bb
       0.036631275 0.13829352 -0.1399347 -0.0050258576
0001e0 16 e8 e3 bd cb 6a ca 3d 2d 2f 7b 3e be 0e cd 3d
       -0.11128251 0.098836504 0.24529715 0.100125775
0001f0 11 77 9f 3d ea 0b 42 3d f2 92 16 3c a7 ec 00 3e
       0.07786382 0.047374643 0.009190308 0.12590276
000200 3a 93 9b 3d b7 e5 ec 3b 72 ec 9c 36 4e 30 25 8c
       0.075964406 0.0072295326 4.676688e-06 -1.2725674e-31
000210 44 68 33 be 88 a6 a2 3c 9c db ee 3d 9b 2c cf b8
       -0.17520243 0.019854799 0.11662981 -9.8788376e-05
000220 e3 01 13 3d 7f 40 e5 bd e5 a6 1b bc 6c 30 d6 bd
       0.03589047 -0.11193942 -0.00950024 -0.104584545
000230 da 24 57 bd b8 f3 93 3b 06 df fc 3c 1f 0b 8e 3e
       -0.05252538 0.0045151375 0.030868065 0.2774286
000240 d3 e6 de 3d 6f 90 64 3d 68 b2 ef be a0 24 c9 3c
       0.1088387 0.055801805 -0.468158 0.024553597
000250 25 d2 9d bd ab e7 06 3f 21 2a 2d 3d 89 ed 6e 3d
       -0.077060975 0.5269725 0.042276505 0.058332
000260 21 41 a2 be 79 9d 7b bc c9 60 12 be 76 7e 02 3e
       -0.31690314 -0.015357369 -0.14294733 0.12743554
000270 91 36 24 3d 86 24 3b 3e 2f 22 4a be 51 f0 52 be
       0.0400911 0.18275651 -0.19739603 -0.20599486
000280 72 bb c3 3c c6 3e 17 be ea 4e 8e 3d 11 2d 9e 3d
       0.023893092 -0.1477004 0.069486454 0.077234395
000290 04 03 40 bd f1 93 e3 bb 22 64 a0 bd 23 45 95 3e
       -0.046877876 -0.006945126 -0.07831599 0.2915431
0002a0 bb aa 9a 3b 0e 6a 3f 3e 4d 6b ea be 3a 43 a8 bc
       0.0047200597 0.186928 -0.4578499 -0.020539869
0002b0 55 45 39 be 6e 34 a2 3e 40 8d 07 bd 84 a1 6d 3e
       -0.18092854 0.31680626 -0.03309369 0.23206145
0002c0 74 4f 1a be b6 4b 91 bd 07 18 64 bd c0 c2 de bd
       -0.15069371 -0.07094519 -0.055686977 -0.10876989
0002d0 11 7f 31 3d 9a f0 35 3b 0d a2 b5 3e 56 08 fb 3c
       0.04333407 0.0027761818 0.35475197 0.030643623
0002e0 e6 f4 5d be 59 56 c8 be 45 62 f6 3c ba 79 8d 3d
       -0.21675453 -0.39128378 0.030076155 0.06907983
0002f0 29 4e 8b 3e 87 f5 58 3d 8a 15 bb 3d 40 37 09 bd
       0.2720807 0.052968528 0.091349676 -0.033499956
000300 25 0c 00 80 6f 7d e4 b8 b9 b9 55 aa 4d f2 b3 bd
       -4.357e-42 -0.00010895251 -1.8982636e-13 -0.087864496
000310 f6 e7 1b bd b2 08 10 3e 1c 62 0b 3e 81 60 8b 3d
       -0.038063012 0.14065817 0.13611645 0.06805516
000320 43 fd 01 be 02 89 d4 3a 3c 13 67 3e 62 bf d2 bd
       -0.12694268 0.0016215148 0.22565931 -0.102904096
000330 cc a8 7e bc 43 06 45 be 70 56 04 3e aa 84 c1 bc
       -0.015543174 -0.1924067 0.12923598 -0.02362283
000340 2f 68 3e 3d d7 ab 20 be 0f a1 ae bc e0 ef 6d 3e
       0.046486076 -0.15690552 -0.021317033 0.23236036
000350 00 50 d7 3d 8c 19 9d bb 70 5d 9e be ce f4 03 be
       0.10513306 -0.004794305 -0.30930662 -0.12886354
000360 3b bc b9 bb d8 c9 94 bd cd 9c 79 3c 46 32 ad bc
       -0.005668191 -0.07265061 0.015235138 -0.021142136
000370 5f d5 27 3f 85 60 cc bd 23 cb d3 bd 9b b4 ac bb
       0.65559953 -0.09979347 -0.1034148 -0.0052705533
000380 c1 af 61 3d 7c c4 02 bc 72 38 4e 3e e6 49 39 bd
       0.055099253 -0.007981416 0.2013872 -0.04523649
000390 be f5 12 3c 54 cf 17 be 46 c4 35 3e a4 c6 09 3d
       0.008969722 -0.14825183 0.17750654 0.033636704
0003a0 35 63 8c 3e 91 47 31 be a8 0a 5c 3c 42 4c db 3d
       0.2741944 -0.17312457 0.013430275 0.107079044
0003b0 da db 72 3c 9c e9 db 3b 23 1e b4 be 26 84 4d 3c
       0.0148229245 0.006711198 -0.35179242 0.012543714
0003c0 3c 61 5b 3c 24 3d 86 3e bd ff 3f 3d 2d 20 61 bd
       0.013389882 0.26218522 0.04687475 -0.054962326
0003d0 9a a4 27 3e a9 c1 d8 3c 10 f9 47 3b d8 08 07 bf
       0.16371384 0.026459532 0.0030513443 -0.5274787
0003e0 63 e1 9d bd d1 75 58 bc 28 23 c6 3b 83 7f 27 3d
       -0.07709005 -0.013211683 0.0060466714 0.04089309
0003f0 92 1b e5 3a f4 81 46 3c 9c f2 90 3d be c9 58 af
       0.001747953 0.012115944 0.07077524 -1.9716759e-10

fc.layers.0.linear.weight_g f4 [128, 1]
000000 8b fb 14 3f 47 93 3b 3f 28 f3 bd 3f 46 5d bd 3f
       0.58196324 0.732716 1.483983 1.479409
000010 83 f8 50 3f 72 cb 11 3f ea 56 55 3f 93 0c 98 3f
       0.816292 0.5695106 0.83335745 1.1878837
000020 6b c2 2e 3f 75 52 a8 3e 76 31 b5 3f 83 44 37 3f
       0.6826541 0.3287541 1.4155719 0.71588916
000030 52 07 28 40 c3 fc ce 3f 8d 77 00 40 eb 78 ab 3f
       2.6254468 1.6170887 2.0072968 1.3396276
000040 34 4a 5d 3f ed 9a 8b 3f 7d 11 ad 3e 57 09 82 3f
       0.8644135 1.0906655 0.33802405 1.01591
000050 2e eb 40 40 6f d4 25 3f e8 44 15 40 cb c9 99 b9
       3.0143542 0.6477727 2.3323307 -0.00029332782
000060 94 c3 b5 3e 61 24 50 3f fe cd 91 3f 52 be 6e 3f
       0.35500777 0.8130551 1.1390989 0.93259156
000070 9d 8e 8e 3f 8c 05 87 3f c5 7c 57 3f 81 a3 92 3f
       1.1137272 1.0548568 0.8417476 1.1456147
000080 a0 13 33 3f e3 91 7e 3f 22 ee 05 3f 10 44 24 3b
       0.6995182 0.99441355 0.52316487 0.0025064982
000090 c1 3f 75 3f 8e 8d b5 40 c9 89 8a 3f ca 1e e9 3e
       0.95800406 5.6735296 1.0823299 0.45531303
0000a0 33 f7 3b 3f 89 93 81 3f 9c 86 57 40 18 b4 f6 3f
       0.7342407 1.0123149 3.367591 1.927371
0000b0 52 b7 45 3d c8 5e 82 3f 9a 50 09 40 97 ef ec 3f
       0.04827053 1.0185175 2.1455445 1.8510617
0000c0 c4 f9 b2 3f f0 b1 ff 3e f3 b4 3f 40 b9 6f 3e 40
       1.3982472 0.49940443 2.9954193 2.975569
0000d0 f6 14 20 3f eb 48 10 40 b8 38 4a 40 46 23 98 3f
       0.62531984 2.2544506 3.1597118 1.1885765
0000e0 e2 96 86 3f 6f db 85 3f ab de d1 3f 51 08 47 3f
       1.0514796 1.0457591 1.6396078 0.77747065
0000f0 ac 9b c1 3f a7 63 82 3f d8 1e 91 3e 0f 37 0a 3e
       1.5125632 1.0186661 0.28343844 0.13497566
000100 75 b4 50 3f c6 22 81 3c 25 50 a0 3f 6d 1e a5 3f
       0.81525356 0.015763652 1.2524458 1.289991
000110 b9 13 20 40 e8 22 3a 3f 64 52 aa 3f b6 02 5f 3f
       2.5012038 0.7270951 1.3306394 0.8711351
000120 69 10 50 3f 8b 2f 76 3f 74 7a 82 3f 7e f4 60 3f
       0.8127504 0.96166295 1.019362 0.87873065
000130 44 7b 1f 3e d8 c4 c7 3f ac c0 ab 3f e3 dd d6 3f
       0.15574366 1.5606947 1.3418174 1.6786464
000140 64 d6 c4 3f d4 32 84 3f 1a ff 8f 3f 51 33 81 3f
       1.5377927 1.0328012 1.1249726 1.0093786
000150 c6 a5 86 3f 82 c0 05 3e 02 87 9e 3f 88 93 91 3f
       1.051934 0.13061717 1.2384951 1.1373148
000160 b6 30 0c 40 ac 0f 0d 3f e3 a2 5c 3f 34 78 8c 3f
       2.190473 0.5510204 0.86186045 1.0974183
000170 50 41 7e 3f 0c 8b 91 3f b0 a4 a8 40 47 4e 67 3f
       0.9931841 1.1370559 5.2701035 0.90353817
000180 24 18 63 3f 5a 98 ac 3f 9e 88 0d 40 72 38 68 3f
       0.8870871 1.3483994 2.2114635 0.9071113
000190 f0 db a8 3f 90 58 b7 3f 20 ae 2c b9 8d e5 70 3f
       1.319212 1.4323902 -0.00016468065 0.94100267
0001a0 46 40 b7 3e b8 b9 16 3f f4 6f 6f 3f af d2 7a 3f
       0.35791224 0.58877134 0.935302 0.9797773
0001b0 5a 49 a3 3f f7 5f 3b 3f e5 0b 5f 3f 5a f9 de 3f
       1.275676 0.73193306 0.87127525 1.7419846
0001c0 cb 24 99 3f 3f 9b 2e 40 66 75 89 3f 83 65 ed 3f
       1.1964353 2.7282255 1.0738952 1.8546604
0001d0 85 f1 47 3f c5 26 d4 3f b2 90 b6 3f 08 00 35 3f
       0.78102905 1.6574332 1.4262908 0.7070317
0001e0 7d 30 a4 3f ab 77 8b 3f 95 9f 7e 3f f7 7d d6 3f
       1.2827297 1.0895895 0.9946225 1.6757191
0001f0 fb cb 38 3f 3a ad 81 3f bd 28 56 40 22 e8 ba 3f
       0.7218625 1.013099 3.3462365 1.4602091

fc.layers.0.linear.bias f4 [128]
000000 bb a0 4a bd d0 76 dd bd dd 0e e6 bd 78 01 1d bd
       -0.04946969 -0.10813677 -0.11233304 -0.03833148
000010 70 b7 3c bd c5 8e 1e 3d 1c 58 58 bd b4 f9 65 bd
       -0.046073377 0.038710374 -0.052818403 -0.05614634
000020 aa 14 c5 3d f0 17 bc bc 8b 51 79 bb 5d 93 e2 bd
       0.09623082 -0.022960633 -0.0038042988 -0.110632636
000030 95 c8 cd 3d 7c 29 23 be 40 16 09 be 4e 08 9c bd
       0.100480236 -0.15933794 -0.13387394 -0.076187715
000040 c4 81 b6 bd 94 ce c3 bd d5 af a6 bd 26 2b 66 3d
       -0.089114696 -0.09560886 -0.08139006 0.056193493
000050 b0 f8 14 be 28 43 9f bc ee f5 41 3d 92 53 50 38
       -0.14547992 -0.019441202 0.047353677 4.9668895e-05
000060 db 49 93 ba 21 d2 67 3c a4 45 f0 bd 39 2d e1 bd
       -0.0011237221 0.01414922 -0.11732033 -0.10994954
000070 02 6d 3c bd ba d9 0f be da e1 4f bd 7b a3 08 3e
       -0.046002395 -0.140479 -0.0507525 0.13343613
000080 82 d1 f0 bd 7d 46 55 bd be 39 1c 3c ec 4d f9 39
       -0.117587104 -0.052069176 0.009535251 0.00047551037
000090 a4 cd 0c 3d 17 f1 be bd b4 8e e9 bc 29 5a 28 bd
       0.0343758 -0.09323328 -0.028510429 -0.04110161
0000a0 3f 28 1c be f3 84 47 3c 48 8d d5 bd 90 f8 e4 bd
       -0.15249728 0.012177694 -0.10427338 -0.11180222
0000b0 68 a4 9f 3b ad 9a 8e bd 1d 0f 5b bd 5c c4 e7 bb
       0.0048718937 -0.06963096 -0.05348121 -0.0070729684
0000c0 a4 01 38 bd 03 ff 99 3d f9 25 15 be cc 42 a5 be
       -0.04492344 0.07519343 -0.14565267 -0.32277524
0000d0 ad ad 2b bd cb 7b 43 be 63 9b 0f 3e cf d9 80 3b
       -0.041913677 -0.19090192 0.14024119 0.003932215
0000e0 0d 5f ee bd 08 a2 22 3e 18 56 0a bd 2b 69 51 bd
       -0.11639223 0.15882123 -0.03377351 -0.051125687
0000f0 d1 40 a1 bc 97 2b 3b bc d6 7d 57 bd eb db 01 bc
       -0.019684227 -0.011423967 -0.05261024 -0.007925968
000100 4c 2d b9 bd 67 b4 cf ba 82 47 30 bc 4f 6e a3 3c
       -0.09041843 -0.0015846611 -0.010759236 0.01995006
000110 83 07 15 3d f3 75 e2 3d 50 53 c5 bb 2c f9 4a bc
       0.036384117 0.11057653 -0.0060218945 -0.012388509
000120 5f 32 7b 3c 6a c0 2d bd 33 8c cd bd 20 25 ff bc
       0.015331834 -0.04241983 -0.100365065 -0.031145632
000130 28 b7 1d bd 47 0a 03 bb c5 6a fb bd 59 a7 9f 3c
       -0.03850475 -0.001999514 -0.12276224 0.019488977
000140 93 bb a9 bd 45 bf 45 bc 65 cf b0 bd e5 33 0b be
       -0.0828773 -0.012069528 -0.08633307 -0.13594015
000150 97 1f f9 bc 84 19 03 3d 84 43 96 3e 9c ad 8c bd
       -0.030410571 0.032006755 0.29348385 -0.06869051
000160 bb 9f 39 3b bc 8c c0 bc bd 79 f9 bd 1c 88 05 be
       0.0028323967 -0.023504607 -0.12181423 -0.13040203
000170 c5 29 9d bd c5 5f 0e bc 16 c0 19 bd d2 80 87 bd
       -0.076739825 -0.008689825 -0.037536703 -0.066163674
000180 bf b9 8d 3c 78 b2 35 bd 3b cd c1 bd 5f 1c 90 3d
       0.017300485 -0.044359654 -0.09462973 0.07036661
000190 c4 19 02 bd cc 77 81 bd 93 f4 45 38 c6 38 80 bd
       -0.031762853 -0.063216776 4.7196238e-05 -0.06260829
0001a0 4c d4 4b bd d8 7f 0c 3d fa d6 4a bd 69 fa 73 bc
       -0.04976301 0.03430161 -0.049521424 -0.014891245
0001b0 c0 da bb 3b 6b 44 da bc 44 94 44 bd 1d 01 dc 3b
       0.005732864 -0.026643952 -0.04799296 0.006714
0001c0 7a f1 9c 3b c5 b3 c0 be de f3 04 be cf 34 e6 3c
       0.0047895284 -0.37637153 -0.12983653 0.028101353
0001d0 4f 76 a7 bd a8 8d a0 bd 22 18 04 be 35 a7 2f bd
       -0.081768624 -0.07839519 -0.12899831 -0.04288407
0001e0 37 18 24 bd 6d 99 a9 bd dd ae 3f bc 28 2f 15 bd
       -0.040062156 -0.08281217 -0.0116994055 -0.036421925
0001f0 31 62 8a bd e7 54 de bc a4 d9 d6 be d3 74 3d 3d
       -0.0675701 -0.027140094 -0.41962922 0.04625399

fc.layers.1.linear.weight f4 [128, 128]
000000 9b c0 85 bc 64 75 8b 3c fa 6c dc bd 5c fd 32 be
       -0.016327193 0.01702375 -0.10762973 -0.17479461
000010 8d 48 8c 3d a1 98 08 3c 96 ff 39 3d aa 81 bf 3c
       0.068497755 0.008337171 0.04540976 0.023377258
000020 81 b3 d0 3c 7b b7 7e bd b7 33 8b 3d fa 68 a6 3d
       0.02547622 -0.0621867 0.06796973 0.081254914
000030 75 62 d0 3e b8 4b 25 bd a2 cd 4a bc af 04 b0 bd
       0.40700117 -0.040355414 -0.012378128 -0.08594643
000040 e9 3c 81 3d 93 6a 57 bd 0e f0 87 bc 12 b7 49 bc
       0.06310446 -0.05259187 -0.01659396 -0.012311714
000050 7a 1d e8 3d 6f 43 f9 3c 34 ef 61 be 7d 31 d7 b9
       0.11333747 0.030427663 -0.22063905 -0.00041044867
000060 ce 2e 8d bc b0 4b db bd 93 5a 42 be 12 3b 01 bd
       -0.017234232 -0.107077956 -0.18979864 -0.031550474
000070 37 44 46 3d 35 81 d8 bd 30 2c a0 3d 81 c8 89 3d
       0.0484049 -0.10571519 0.07820928 0.06727696
000080 4a 5a 1f 3e ea fd cc 3d e0 7b e0 3d 4e de 92 39
       0.15561786 0.10009368 0.10961127 0.0002801292
000090 44 dc 62 bd aa bf 55 bc ff dc 32 3e d6 4f 91 bd
       -0.055385843 -0.013046185 0.17467116 -0.070953056
0000a0 2f 62 35 be 06 95 31 bc 7f ea b8 3c ad 57 32 bd
       -0.17713235 -0.010838753 0.022572754 -0.043540645
0000b0 ae 57 b1 3a d7 84 4a 3c a1 a6 c9 ba d2 a5 54 3e
       0.0013530159 0.012360773 -0.0015384742 0.2076638
0000c0 d6 87 0f bd 7b 04 80 bc 85 97 9c 3d 13 24 9f 3c
       -0.035041653 -0.015627136 0.076460876 0.019426381
0000d0 f0 e2 6b 3c e3 95 30 3c 78 96 16 bd 91 98 e3 bc
       0.014397368 0.010777923 -0.036764592 -0.02778271
0000e0 fa 4b 8e bd 52 ed e2 bd 62 01 05 3d 0a f2 9b 3c
       -0.06948085 -0.110804215 0.032472022 0.019036312
0000f0 d5 db 22 be 79 2e 90 3c 61 70 1c 3d e1 65 de 3a
       -0.15904172 0.017600285 0.03819311 0.0016967618
000100 6d 9c 9a bd 39 51 cc b9 db ae 32 3c ca 51 21 3e
       -0.07549367 -0.00038970428 0.010905947 0.15753856
000110 17 76 85 be 14 b4 1f 3d 10 01 45 bb a7 cd 01 bd
       -0.26066658 0.038990095 -0.0030060448 -0.031690266
000120 8b 5c 8b 3d 9a 66 ac 3d 15 22 5b 3d 65 db f0 bd
       0.068047605 0.08418007 0.0534993 -0.11760596
000130 d7 d5 56 bb 9f 9f b1 bd 18 d6 28 bc 75 c3 ec 3d
       -0.0032781267 -0.086730234 -0.01030495 0.11560718
000140 59 79 3e be ab 05 a7 3c 03 bb aa 3d 18 62 9d 3c
       -0.18600978 0.020388445 0.08336451 0.019211814
000150 e9 54 af bc 61 e9 08 3a 8f cd 81 bc 08 b3 32 ba
       -0.021402793 0.00052227644 -0.015845088 -0.0006816839
000160 88 f9 07 be d6 f8 ff bb f7 59 92 3d 01 1b 0e 3e
       -0.13278782 -0.007811646 0.07146066 0.13877489
000170 3d 69 50 bd 6e b3 8c bd df 43 c0 bd 47 2c 3e 3e
       -0.050881613 -0.06870161 -0.093879454 0.18571578
000180 09 fb ce 3c 47 da 21 3e 6a ec 21 3d 32 a5 ec bb
       0.025266187 0.15805922 0.039532103 -0.0072218413
000190 e2 5b 59 bd e8 55 d2 bd 00 d4 78 39 37 10 7f 3c
       -0.053066142 -0.102702916 0.00023730099 0.015567831
0001a0 ae 6f a6 3a 66 50 98 3a 91 a4 97 3c dd 03 02 be
       0.0012698078 0.001162064 0.018511089 -0.12696786
0001b0 c8 4c 9b bc b5 18 ae 3d 4b 5a f8 3d 1a 6c 86 be
       -0.01895751 0.08500806 0.12126597 -0.2625435
0001c0 c1 31 9d bd 0c 0c 48 3d 49 a3 e2 3c 4e 2e a1 be
       -0.076755054 0.048839614 0.027665751 -0.3148064
0001d0 7b f0 0e 3d 68 4e a1 bc 9a 2b cb bd 2d 23 b5 3d
       0.03489731 -0.019690707 -0.09920426 0.088446
0001e0 89 fe 07 3d 10 f9 71 bd bf ff 59 bd 35 60 2c be
       0.033201728 -0.059075415 -0.053222414 -0.16833575
0001f0 df f1 51 bd b9 c3 4f bd ea 61 fb 3c b7 bc e6 bc
       -0.051256057 -0.050723765 0.030686338 -0.028166158
000200 13 24 a1 bd 39 ff 00 bd cc 0b d9 3d 84 c0 ce 3d
       -0.07868209 -0.0314934 0.10597953 0.10095313
000210 53 63 d3 bc 2e 96 7c bb 4c 0e 16 bc 9a 33 53 3e
       -0.025804197 -0.0038541663 -0.009158682 0.20625153
000220 13 8e 5a 3d 37 e5 61 3c 41 c8 52 bb 6e 32 4a bd
       0.05335815 0.013787559 -0.0032162818 -0.0493645
000230 95 b1 91 be f5 bc c1 3c eb f8 49 3d 50 9e 99 3b
       -0.28455797 0.023649672 0.049309652 0.004688062
000240 48 5d ff 3d 40 ed 8e be 33 43 39 bc 80 a7 29 3d
       0.12468964 -0.27915382 -0.011307525 0.041419506
000250 f5 92 20 3e 90 e3 0b bd ed 17 02 bf ca 05 23 3a
       0.1568106 -0.034152567 -0.5081776 0.0006218819
000260 ff 41 d6 3c a2 02 1a be 82 bc 8a bc bf d4 1b bc
       0.026154516 -0.15040067 -0.01693559 -0.009511172
000270 8a 1c 69 3d 6a df 37 3e 24 1f a0 bd df ea 5f be
       0.056911983 0.1795632 -0.078184396 -0.2186694
000280 88 46 4f bd ea cc a1 bd 30 4d 01 3c ea 6c 36 3d
       -0.050604373 -0.079004124 0.007891938 0.044537462
000290 13 50 75 be 14 09 db 3c 1e 9f 58 be 9a 9e d9 3c
       -0.23956327 0.026737727 -0.21154448 0.026564885
0002a0 81 fb 33 be 1e 65 4a be ab 91 21 3e f5 dc 77 be
       -0.1757641 -0.19765136 0.15778224 -0.24205382
0002b0 5b 76 87 39 88 98 53 3c df 1d 01 3e 6f 73 0d 3e
       0.00025837388 0.012914784 0.12609051 0.13813566
0002c0 f6 87 24 3e 9d eb f0 bc 72 ac ab bd dc 3b 20 be
       0.1606749 -0.029409224 -0.08382501 -0.15647835
0002d0 f8 32 86 bd dd 58 6b bd 15 f3 43 3d 5e fa e2 bd
       -0.0655269 -0.057457794 0.047839243 -0.1108291
0002e0 c2 e3 ff 3d 60 76 7a 3d 9e b9 5c 3d cd bb 98 bd
       0.12494613 0.061148047 0.053887956 -0.07457695
0002f0 02 b3 ad bd 4a 4c 87 be f2 73 4a 3b c8 81 1f bb
       -0.08481409 -0.2642539 0.0030891863 -0.002433883
000300 64 4b 38 3d 2c a2 a3 b9 f8 33 dc bd ad f5 b6 be
       0.044993773 -0.0003121061 -0.107521 -0.3573431
000310 99 3a 55 3d 08 1a e8 bc 5a 2d 41 3d dc 9a 36 3e
       0.052057836 -0.028332725 0.04716239 0.17832512
000320 1b ce b3 3d c8 49 dc bd 22 d6 00 3e 42 c7 28 bd
       0.08779546 -0.1075626 0.12581685 -0.041205652
000330 bb 69 0f bb 73 cd a1 3d 7c 9a 2e 3d 78 21 22 bc
       -0.0021883089 0.079005145 0.042627797 -0.009895675
000340 84 2b 35 3d 88 c5 df 3c a6 ad e3 bc ee d0 2c 3e
       0.044230953 0.02731587 -0.027792763 0.16876575
000350 84 26 24 be f4 db 30 3b ee 4a a7 bd 7c 58 a7 bd
       -0.16030318 0.002698657 -0.081685886 -0.08171174
000360 25 9d 53 3e ce 59 67 3c 57 91 88 3d 59 67 2e 3e
       0.20665415 0.014120532 0.066683464 0.17031612
000370 c6 f3 3a 3e ca ac ca bd d5 80 d7 3d 64 6c 45 3c
       0.18257055 -0.09896238 0.1052262 0.012049768
000380 9b 44 84 be cc a5 0f be 08 f2 11 bd d3 61 c3 bd
       -0.25833592 -0.1402809 -0.03563121 -0.09540143
000390 7f ad 7e 3d ca 66 d9 3d 14 7e 90 bd c4 b3 af 3d
       0.062177178 0.106153086 -0.070552975 0.085792094
0003a0 ce 7a e7 bc 8d 18 bd ba 4f 6d b3 bd 9d a3 ad bc
       -0.0282568 -0.0014426872 -0.08761083 -0.021196181
0003b0 92 c0 5f 3d a8 7e 81 bc 33 9e bf 3d 79 ec 5f be
       0.05462701 -0.015807465 0.09356346 -0.21867551
0003c0 4b d9 a6 be b4 bc f4 bc e5 79 30 3e e8 97 a3 3d
       -0.32587656 -0.029875137 0.17233999 0.07987958
0003d0 e9 fb 6e bd 65 e8 ae bd 3b f1 b1 bc 01 62 55 3d
       -0.05834571 -0.085404195 -0.021721473 0.052095417
0003e0 c7 fd 40 bd f3 de d1 3d 91 e5 08 bd 05 78 66 bd
       -0.04711702 0.10247602 -0.033422057 -0.056266803
0003f0 c5 69 f3 bd 68 ea 27 be 33 42 ce bd f8 ed 5f 3e
       -0.11885408 -0.16398013 -0.1007122 0.21868122

fc.layers.1.linear.weight_g f4 [128, 1]
000000 4f c1 97 3f 1d 23 a5 3f 7a ac a0 3f a6 7e 9d 3f
       1.1855868 1.2901341 1.2552636 1.2304275
000010 7f 96 87 3f cb cc 9e 3f 43 9f 79 3f 0d d7 91 3f
       1.0592803 1.2406248 0.9750864 1.1393753
000020 7b b9 99 3f 97 8a 06 40 03 5c 57 3f b5 a9 6c 3f
       1.2009729 2.1022089 0.84124774 0.9244645
000030 b7 4c 0e 40 6f 3c 9a 3f 73 33 10 40 f1 dc 97 3f
       2.2234323 1.2049693 2.2531402 1.1864301
000040 c9 1b a8 3f ed 4d 8a 3f d4 e9 aa 3f f9 bc a7 3f
       1.3133479 1.0805031 1.3352609 1.3104545
000050 a3 6d cf 3f bb b3 02 40 02 f0 bf 3f 91 46 8c 3f
       1.6205333 2.0422199 1.499512 1.0959035
000060 b9 ba a0 3f 36 8b 0f 40 1f 1a 6f 3f 13 10 69 3f
       1.2556983 2.2428718 0.9339923 0.9104015
000070 10 1e 91 3f 58 95 a7 3f 0a ac 2f 3f 50 74 6a 3f
       1.1337299 1.3092451 0.68621886 0.9158373
000080 7a b7 e1 3f 4d cf 89 3f f3 d4 5d 3f 98 ff 62 3f
       1.7634118 1.0766388 0.8665306 0.88671255
000090 4e 29 89 40 3c b4 f6 3f e3 66 19 40 1a 31 7d 3f
       4.286292 1.9273753 2.3969047 0.9890305
0000a0 66 d0 56 3f 18 58 09 3f 3e d8 9c 3f c8 04 a0 3f
       0.8391174 0.53650045 1.2253492 1.2501459
0000b0 17 e5 69 3f 4d 37 de 3f f9 61 4e 3f 60 bc 7c 3f
       0.9136519 1.7360626 0.80618244 0.9872494
0000c0 5a d2 98 3f 7a 9a 9c 3f 5e 4b 7c 3f 2a 10 84 3f
       1.1939194 1.2234643 0.985525 1.0317433
0000d0 fc 85 a1 3f 1b 0e 95 3f 92 6f 6d 3f c7 41 2c 3f
       1.2619014 1.164493 0.9274837 0.6728787
0000e0 c9 e8 8f 3f 96 77 50 3f 76 2a 79 3f 93 3b 4b 3f
       1.1242915 0.81432474 0.97330415 0.7938778
0000f0 0c 56 df 3f 48 f3 22 40 42 eb 4a 3f f2 6c 81 3f
       1.7448134 2.5460987 0.79265225 1.0111372
000100 2e 46 9c 3f f6 25 82 3f aa eb 60 3f 9d be 2c 3f
       1.2208917 1.0167835 0.87859595 0.6747835
000110 7e fc bc 3f 58 4b be 3f 90 95 84 3f 20 e9 a1 3f
       1.4764555 1.4866743 1.0358143 1.2649269
000120 a7 9b 72 3f de 73 89 3f 0e 04 84 3f 1e f5 49 3f
       0.94768757 1.0738485 1.0313737 0.78889644
000130 a2 a1 1b 40 01 db 01 40 a1 21 9c 3f b2 9f 57 3f
       2.4317403 2.028992 1.2197763 0.8422805
000140 ae 74 8e 3f 6b d9 5e 3f fe cf 89 3f e1 39 81 3f
       1.1129358 0.87050503 1.0766599 1.0095788
000150 aa 4f a3 3f dc 21 f9 3f 7d 96 92 3f d2 2b 80 3f
       1.2758687 1.9463458 1.1452175 1.0013373
000160 c5 ef b7 3f f7 6b 64 3f a6 2f be 3f c3 99 62 3f
       1.4370047 0.8922724 1.4858291 0.8851587
000170 16 78 61 3f c7 1b b4 3f 71 bc a7 3f 01 62 9c 3f
       0.8807386 1.4070977 1.3104383 1.2217408
000180 41 1f 92 3f a9 ee 44 3f cf 08 49 3f bf 98 cf 3f
       1.1415788 0.76926666 0.78529066 1.621849
000190 a6 0d 53 3f 9c dd 9c 3f eb 45 a1 3f 24 fb 5c 3f
       0.824427 1.225513 1.2599462 0.8632071
0001a0 09 c7 8a 3f cb 2b 8a 3f 0d 6b 16 3f 53 11 e2 3f
       1.0841991 1.0794615 0.58757097 1.7661537
0001b0 81 4e 9d 3f 2a 33 94 3f 1d b8 86 3f 06 0d 47 3f
       1.2289582 1.1578114 1.0524937 0.7775425
0001c0 41 d3 39 3f 0c d5 75 3f 18 71 cd 3f f9 5c b0 3f
       0.7258797 0.9602821 1.6050138 1.3778373
0001d0 0d 25 57 3f 8d 3b 09 3f f7 b3 78 3f 81 cb 93 3f
       0.8404091 0.5360649 0.97149605 1.154648
0001e0 42 6f 76 3f bc fe 99 3f d1 70 81 3f db 5e 7c 3f
       0.96263516 1.2030864 1.0112554 0.9858224
0001f0 1b fb 55 3f 8e c8 96 3f be f3 ac 3f 43 71 45 3f
       0.8358628 1.1779954 1.3511884 0.7712595

fc.layers.1.linear.bias f4 [128]
000000 d6 8f 10 be 62 e1 3e be 27 35 6c bd 3a 03 13 3c
       -0.14117369 -0.18640664 -0.057667878 0.008972937
000010 ba 97 9d bd 94 3c c2 3b 8e 0d 10 be f8 99 12 be
       -0.07694955 0.0059276316 -0.1406767 -0.14316547
000020 3a bb ca bd c5 dd 3b bc 75 70 1e bd 80 ac 9a bd
       -0.09898992 -0.011466448 -0.038681466 -0.07552433
000030 8a e8 a0 be a3 2c 28 be 69 53 27 3c c9 28 22 be
       -0.31427413 -0.16423278 0.010212758 -0.15835871
000040 4c af 0f be b4 2e 57 3c bb e2 df bd 1d 17 98 bd
       -0.14031714 0.0131336935 -0.10931917 -0.074262835
000050 25 24 0c be 2a 19 41 be c9 24 45 bd 67 c4 10 bd
       -0.13685663 -0.18857256 -0.048130784 -0.035343554
000060 05 43 cf bd d3 8e 2c be 5e 85 5b bd bc 64 db bd
       -0.10120205 -0.16851358 -0.053593986 -0.10712573
000070 11 9b b4 3d 2d c5 83 bd f5 ab 6c bd d5 0e 7f bd
       0.08818639 -0.06434093 -0.05778118 -0.062270004
000080 60 33 ee bc ce a2 70 bd 47 eb ae bd 40 8d 7f 3c
       -0.029077232 -0.058749013 -0.08540969 0.0155976415
000090 9d ea eb be 1f 85 83 bd b7 64 a2 bd 64 9e 41 bd
       -0.46077433 -0.06421875 -0.07929366 -0.047270194
0000a0 a1 32 56 3d 12 81 e6 bd 1e 25 0f be 2f 51 ba bc
       0.052294377 -0.11255087 -0.13979003 -0.02274379
0000b0 16 f4 02 3c b3 c0 c8 bd 79 6a 98 bd 35 f5 53 3d
       0.007992765 -0.098023795 -0.07442183 0.05174752
0000c0 94 ca e5 3c 20 e4 d4 bc 98 79 8b bd d1 63 36 bd
       0.028050698 -0.025987685 -0.068103015 -0.044528786
0000d0 46 a2 49 bd 3a f5 89 bd 8b 5e f2 3d 8d df 0a bd
       -0.04922702 -0.067362264 0.11834439 -0.0339046
0000e0 82 5b ca 3c d4 aa 25 be ff 7b 59 bd fb 2c 36 3d
       0.024701837 -0.16178447 -0.053096768 0.04447649
0000f0 f5 2c 93 be 0b ee 59 be 30 1b 36 be 2e 2f 16 bd
       -0.28745237 -0.21282212 -0.17783809 -0.036666088
000100 3f c5 08 3a 29 96 01 be 4f 5f 18 bd cc 97 17 bd
       0.000521738 -0.12654938 -0.03720027 -0.03701
000110 49 88 97 bd 91 25 f5 3c d6 64 be bd 65 83 11 be
       -0.07399041 0.02992514 -0.09296577 -0.1421028
000120 05 68 31 be 3f 16 bf bd b7 89 30 be cd 3e c6 3c
       -0.17324837 -0.09330415 -0.17240034 0.024199868
000130 ab d1 8c bd a5 ee 0e be d7 9c 00 bd 9f ad 15 be
       -0.068759285 -0.13958223 -0.031399574 -0.14617012
000140 20 2e b6 bd 50 38 4f bd 0f 6b 89 bc 07 8f 21 3e
       -0.088955164 -0.050590813 -0.016774682 0.15777217
000150 dc f2 73 bd fc 86 78 bd 42 df 01 be b0 1a e0 bb
       -0.05955778 -0.060675606 -0.12682822 -0.006839119
000160 c2 b0 88 bb be 08 fe bd 39 27 11 be aa a3 ad bd
       -0.004171462 -0.12404011 -0.14175119 -0.08478482
000170 e5 fe 43 bd 2b 45 aa bd 66 e6 08 bd d6 1e fe bd
       -0.04785051 -0.08313974 -0.03342285 -0.12408225
000180 ce dc 92 bc 25 24 37 be 1e e3 d0 bd 42 49 1b be
       -0.017927554 -0.17884882 -0.10199569 -0.15164664
000190 61 a8 6d be c6 a4 fd bd fd 40 d0 bd 6c d1 12 be
       -0.23208763 -0.12384944 -0.101686455 -0.143377
0001a0 70 00 ab 3e 4a b2 d4 bd 3a 7a 1c 3d d7 56 37 3b
       0.3339877 -0.103855684 0.0382025 0.0027975345
0001b0 4c 4b 0e 3d f4 1f c5 bd f4 cf c2 3c 86 b2 b1 3b
       0.034739777 -0.09625235 0.0237808 0.005422893
0001c0 5a 55 05 3d e5 80 88 3d 7a be e3 3c 5c 60 23 be
       0.0325521 0.0666521 0.027800787 -0.15954727
0001d0 5a 1a c6 3a 07 9f 0f 3c d8 f0 1d bd 77 87 f1 bc
       0.0015114055 0.008765942 -0.038559765 -0.02948354
0001e0 91 b1 38 bd 7e 4b be bd 88 ae 81 3c 8e 8e f0 bd
       -0.045091216 -0.09291743 0.015830293 -0.1174594
0001f0 6b 97 af bd c9 1f c8 3e 52 7d 86 bd 98 8a 99 bd
       -0.085738026 0.3908675 -0.06566872 -0.07497138

fc.layers.2.linear.weight f4 [128, 128]
000000 cf f8 8d bc 08 35 c6 bc 3a 19 d3 3d 78 a8 48 bd
       -0.017330555 -0.02419521 0.10307546 -0.04898879
000010 bd ac 83 be 14 08 78 bc 50 36 ba 3d ae 1c c8 3d
       -0.25717726 -0.015138645 0.090923905 0.09771095
000020 b0 5c 43 3e b3 f4 73 3d c1 5b b3 be 47 fa 6f 3d
       0.19078326 0.059559535 -0.3503094 0.058588292
000030 c5 fb 8a bd 27 88 9b bd d9 5e 14 be 0f f6 11 be
       -0.067863025 -0.075943284 -0.14489307 -0.1425402
000040 33 dd 69 3d 1d ea 0c be fc 6c 2f 3e 5f 3a 1a 3e
       0.057095718 -0.13761182 0.17131418 0.1506133
000050 76 46 22 3d fd 22 87 3e 26 06 93 bd 53 aa 4b 3d
       0.039617978 0.2639388 -0.07178907 0.04972298
000060 a2 e6 36 3e 94 3b 41 bc 44 c4 7e be d6 75 15 3e
       0.17861417 -0.01179399 -0.24879557 0.14595732
000070 21 77 fb bd 3e 9d f0 3c 07 c3 b5 be 9a d8 33 3d
       -0.122785814 0.029371854 -0.35500357 0.04390774
000080 de e1 f8 3d 49 da d3 3b ef a9 27 3d 7b ed 81 be
       0.12152456 0.0064652306 0.040933546 -0.25376496
000090 30 db 08 3e 04 3f c4 3c e7 56 ae 3c 68 27 96 be
       0.13364863 0.02395583 0.021281673 -0.2932694
0000a0 28 bc 39 3e 59 81 87 be 1a ce 4b be f5 06 10 3e
       0.18138182 -0.26465872 -0.1990284 0.14065154
0000b0 0c 53 8c bd 3d 00 19 3e fc 9e 56 be b2 c3 04 3e
       -0.068517774 0.14941497 -0.20959085 0.12965277
0000c0 65 97 51 3d c6 07 92 bb c2 9a 4a bd 90 b2 08 3d
       0.05116977 -0.004456493 -0.049463995 0.033373415
0000d0 b3 62 8a be f4 02 2c 3e bc 01 78 3e a5 b8 4b 3e
       -0.27028427 0.16798002 0.24219412 0.19894655
0000e0 df 68 56 3d a0 1d a4 bd 2e 28 28 3d 70 e5 ea 3d
       0.052346107 -0.08013463 0.041053943 0.11469543
0000f0 d2 7e 99 bb 3f 0a 38 be 73 71 5d be e7 94 ce 3d
       -0.0046843076 -0.17972659 -0.21625309 0.100869946
000100 37 af c8 bd ec 6d 10 3e 68 f4 dc bd b1 6a 91 3e
       -0.097990446 0.14104432 -0.10788804 0.28401712
000110 5c af 04 3c 24 67 0d be 77 66 af bd 34 c1 83 bd
       0.00809845 -0.13808876 -0.085644655 -0.06433335
000120 24 2d 51 be d0 22 5d 3e 2e b0 88 be 94 2a 62 be
       -0.20427376 0.21595311 -0.26696914 -0.22086555
000130 df dd 64 3e b0 60 ab 3d a5 81 e8 3d fd 1f ba 3e
       0.22350262 0.08368051 0.11352853 0.3635253
000140 eb ba 87 3e ce 67 70 3d 1c 5b a0 bd cf 2b 89 b9
       0.26509795 0.058692746 -0.07829878 -0.00026163316
000150 df 51 9d 3d e5 89 42 bb d6 86 eb 3d f3 0a d5 bd
       0.07681631 -0.0029684242 0.11500327 -0.10402479
000160 62 0d cc 3d 76 3e 9b 3d cb a8 2b 3d 73 17 88 3c
       0.0996349 0.07580273 0.04190902 0.016612744
000170 68 9a 88 bd bc 35 70 be 72 37 1e bd cc fb 25 be
       -0.06670076 -0.23457998 -0.038627096 -0.16209334
000180 06 c5 71 3e 4e af c8 3d 20 99 34 3d 5e 06 90 bd
       0.23610315 0.09799062 0.044091344 -0.070324644
000190 c4 1f 3b 3d 6a 6d 8f 3e 0f 94 49 3e a7 b4 c1 3d
       0.04568459 0.28013164 0.19685386 0.09458285
0001a0 e7 7d c7 3c e5 83 3e 3e 8c 72 4e be 85 fb e5 bd
       0.024352027 0.18605001 -0.20160884 -0.11229614
0001b0 d3 d0 a5 bc db 33 e0 bc 67 41 ab bd 9b b5 17 3d
       -0.020241177 -0.027368477 -0.08362084 0.037038427
0001c0 27 cc ea 3d b5 2a 29 3d 81 c5 70 bd ba 04 bb 3d
       0.1146472 0.041300494 -0.058782104 0.09131761
0001d0 ed c1 f8 3d e7 ef 1e 3e e1 10 01 3e b9 05 9b 3d
       0.121463634 0.15521203 0.12604095 0.07569451
0001e0 14 7a e7 3d a2 dd 3a be 75 22 89 3e 1a 58 a8 3d
       0.113025814 -0.18248609 0.267841 0.08219929
0001f0 a7 da 8e bd 58 80 9a be e3 a6 63 3e 70 23 92 be
       -0.069752984 -0.30176044 0.22231631 -0.28542662
000200 ff c5 43 3d 0c 4c d3 bd 42 cc 81 be 66 20 21 3d
       0.047796246 -0.10317239 -0.2535115 0.03933754
000210 3d 01 d1 3d 67 57 ae bd 0a c7 0d 3d 1d 30 28 bd
       0.10205314 -0.085127644 0.034613647 -0.04106151
000220 9b 9f f6 3d f3 df 83 3d 1e 13 31 bc ce 64 28 3d
       0.12042161 0.06439199 -0.010807781 0.04111176
000230 b5 e8 6e be c1 3a 8d bc 84 71 2b be 42 b8 16 3d
       -0.23330958 -0.01723993 -0.16742522 0.036796816
000240 14 15 d7 bc 2a 72 20 3b 30 24 a6 bb 21 be f4 bc
       -0.026255168 0.002448211 -0.005070232 -0.029875817
000250 e2 a3 14 3d 88 ac 02 3d a3 a2 27 bd 29 d1 21 be
       0.036289103 0.03190282 -0.040926587 -0.15802445
000260 32 0d 71 be 8d a5 d1 bd 7e e8 09 3d 02 44 a2 3d
       -0.2354019 -0.102366544 0.033668987 0.07923128
000270 f4 d8 0d bb da ed 02 be 18 79 68 bd 2b 3a 06 3c
       -0.0021644207 -0.12786046 -0.05675611 0.008192579
000280 32 29 c2 be 69 de 84 bd 6c 93 f0 3d 12 7f a8 bd
       -0.37922055 -0.06487734 0.117468685 -0.08227362
000290 75 02 0b be 42 ca 7f bd 54 b6 f4 bd d5 ba 64 3d
       -0.13575156 -0.062448747 -0.11948839 0.05584224
0002a0 4a 2d 3d 3c 79 53 97 39 60 c3 5f 3e fb 0f 9a be
       0.011546442 0.00028863156 0.21851873 -0.30090317
0002b0 4d ac 7b bd 06 e4 a9 be 61 80 91 bd ab 1d e2 bd
       -0.061443616 -0.3318178 -0.071045645 -0.11040815
0002c0 48 ee 12 be 49 40 94 bd 5f 20 39 3d ff eb 77 bd
       -0.1434871 -0.07238824 0.045196887 -0.060527798
0002d0 86 bb 78 3b 6a 12 22 be 3d da b9 3d 8b ec 98 3c
       0.003795357 -0.15827337 0.09074829 0.01866748
0002e0 f7 01 7a be 77 82 ce 3d 70 ef c1 bd 49 5c be bc
       -0.24414812 0.10083478 -0.09469497 -0.023237364
0002f0 7e e0 61 3e 12 3e af 3d 5f 03 07 be 06 52 86 bd
       0.22058293 0.08556761 -0.1318488 -0.065586135
000300 67 66 12 be 3f d2 ef bc 10 56 68 bd 16 9f 44 bc
       -0.14296876 -0.029275058 -0.0567227 -0.01200082
000310 f5 3d 92 3e 6e ba 65 3e d4 63 c1 bd b6 a9 f8 3c
       0.28562894 0.22434399 -0.09442869 0.030354362
000320 ee 60 94 3c aa e9 26 3d 6e bb 97 bd fc cc 03 be
       0.018112626 0.040750183 -0.07408796 -0.12871164
000330 65 79 ce bb fe a2 7f bd 26 e6 90 bd ca 7a 0c 3e
       -0.0063010924 -0.0624113 -0.07075147 0.13718715
000340 6a 56 31 3e ee 10 b4 3d 18 43 a1 3d 91 59 09 bd
       0.1731812 0.087922916 0.07874125 -0.033532683
000350 6e bb 52 be 49 af 19 be a6 e6 d4 3c 91 cf 4a 3c
       -0.20579311 -0.15008272 0.025988888 0.012378589
000360 63 40 9e be 62 2e 9f bd 87 d2 5d be 3a fe 7f bd
       -0.30908498 -0.07772519 -0.21662341 -0.06249831
000370 2c cc 11 be 0a 22 9a 3d 5c 59 db 3d 9e a9 6c 3d
       -0.14238042 0.07526024 0.10710403 0.057778947
000380 a1 66 b7 bc 7d 41 12 3d 86 25 01 3c 1b a4 56 3c
       -0.022387804 0.035706986 0.007882481 0.013100649
000390 53 ae 30 3d 64 d0 15 bd a5 ab 09 be 8e f5 3e bd
       0.043135 -0.03657569 -0.13444383 -0.046620898
0003a0 9a ca 33 be f3 92 de bc 45 da 32 3c e7 41 3a bb
       -0.17557755 -0.02716968 0.010916297 -0.0028420629
0003b0 4c 5d 32 be 2b 4a 84 bc 7a a9 1d bb 06 11 68 3d
       -0.17418402 -0.016148647 -0.0024057315 0.05665686
0003c0 2a b2 f3 bc f7 db 7a bd 11 69 72 3c 4f 7d 4c bc
       -0.029748041 -0.06124493 0.014795558 -0.012481048
0003d0 2d f3 7b 3d 5e 3c 17 3d 60 f4 ae 3d 7e ee 79 3d
       0.061511207 0.036922805 0.085427046 0.06101846
0003e0 52 8a 1e bc 37 f8 42 3c cb 7d e5 bc d3 91 26 3e
       -0.009676533 0.011899999 -0.028014084 0.16266565
0003f0 4d 6e c6 bd ab 6f c0 3d 39 68 d8 bd 6b 10 ca bc
       -0.09689007 0.09396299 -0.10566754 -0.024666032

fc.layers.2.linear.weight_g f4 [128, 1]
000000 56 37 4a 3f 2b 38 8e 3f bb 27 8f 3f 65 81 a2 40
       0.78990686 1.1110891 1.1184 5.078295
000010 97 e6 c5 3f a5 6c 9b 3f 9b c6 a9 3f 54 36 b8 3f
       1.5460995 1.2142531 1.3263735 1.439158
000020 e2 53 96 3f 20 a3 1a 3f 31 96 86 3f bc db 9f 3f
       1.1744349 0.6040516 1.0514585 1.2488933
000030 e9 dd d0 3f 5a 5a 9a 3f 6a dc ae 3f a8 ae 76 3f
       1.6317722 1.2058823 1.3661015 0.96360254
000040 e1 d2 41 3f b3 e0 6a 3f ec f1 59 3f 8c 22 32 3f
       0.757124 0.91749114 0.8513477 0.69583964
000050 d0 6b 7f 3f f8 1d 1b 40 1b 49 2c 3f 73 ba 90 3f
       0.99773884 2.4237041 0.6729905 1.13069
000060 a4 36 67 3f c9 4f 5c 3f 96 5b 2d 3f fe 6f 4c 3f
       0.9031775 0.8605924 0.67717874 0.79858387
000070 24 2f 71 3f 62 3a 89 3f bb 59 28 3f 80 92 39 3f
       0.94212556 1.0720942 0.6576192 0.72489166
000080 48 ce 87 3f 01 4e 37 3f c7 d8 3b 3f fa f9 a1 3f
       1.0609827 0.716034 0.7337765 1.2654412
000090 35 2e 5a 3f 3f 28 85 40 e7 66 89 3f e9 78 55 3f
       0.85226756 4.161163 1.0734528 0.8338762
0000a0 45 2e 52 3f 10 df 8d 3f 48 1d 67 3f cd e9 8c 3f
       0.8210185 1.1083698 0.90279055 1.100885
0000b0 d3 37 29 3f 5c 32 21 3f 8d 3a 3b 3f 70 46 54 3f
       0.66100806 0.6296747 0.73136216 0.8291998
0000c0 23 5a 92 3f bb bd 58 3f 9a 8e 40 3f 97 78 58 3f
       1.1433758 0.84664506 0.7521759 0.84559005
0000d0 c7 7a 7b 3f ab 48 78 3f 32 34 68 3f 5c d3 28 3f
       0.9823422 0.9698588 0.90704644 0.6594751
0000e0 ca 90 47 3f 7c 1c 4f 3f e6 68 21 3f 5c e9 84 3f
       0.77955306 0.8090284 0.6305069 1.0383716
0000f0 ad 7b 31 3f 7c 9f 58 3f 07 d0 96 3f bf df a9 3f
       0.6932934 0.84618354 1.1782235 1.3271407
000100 b1 3d 8d 3f 6b 3d b3 3f 3a 33 9a 3f de 89 6c 3f
       1.1034452 1.4003118 1.2046883 0.9239787
000110 9e e9 8f 3f b9 69 a1 3f 09 c1 3f 3f 1f 1d 6d 3f
       1.1243169 1.2610389 0.74903923 0.9262256
000120 2c 16 01 3f 46 b6 0a 40 22 28 75 3f 7d 6f b9 3f
       0.50424457 2.167375 0.9576436 1.4487149
000130 18 c1 9d 3f 19 78 71 3f 4a 6b 53 3f 7c c7 78 3f
       1.2324553 0.9432388 0.82585585 0.9717939
000140 6f a6 85 3f fc 19 91 3f 55 b2 69 3f 7a 18 4d 3f
       1.0441417 1.1336055 0.9128774 0.80115473
000150 81 39 8d 3f 4d 50 4b 3f c6 f2 bb 3f f6 5b 61 3f
       1.1033174 0.79419404 1.4683464 0.88030946
000160 05 cd 81 3f 20 1d 0a 3f 46 25 44 3f 51 91 84 3f
       1.0140692 0.5395069 0.76619375 1.0356847
000170 56 ef 2a 3f 6e 80 08 40 10 7a 86 3f 79 72 92 3f
       0.6677145 2.1328387 1.0506 1.1441184
000180 44 7b 97 3f 0b 26 9e 3f bb 08 a4 3f 75 83 51 3f
       1.1834493 1.235536 1.2815164 0.8184121
000190 00 9c 2f 3f 87 3b 68 3f df 4a 4f 40 9a 61 72 3f
       0.6859741 0.9071583 3.2389448 0.9468018
0001a0 dd c1 76 3f 20 b3 1b 3f 0d b9 fb 3e 90 a0 06 40
       0.9638956 0.608202 0.4916462 2.10355
0001b0 d0 39 00 40 99 70 b6 3f 5b 91 a3 3f 24 73 c5 3f
       2.0035286 1.4253112 1.2778734 1.5425763
0001c0 b1 0e 6b 3f 0a 24 43 3f b7 5d 91 3f 1a a6 99 3f
       0.9181929 0.76226866 1.1356725 1.2003815
0001d0 ac 10 a5 3f c6 09 0d 40 56 3d 47 3f 61 e6 69 3f
       1.2895713 2.2037215 0.77827966 0.91367155
0001e0 3b d7 92 3f 3d 3a 6d 3f 0b a5 95 3f a5 93 8b 3f
       1.1471933 0.9266699 1.1690992 1.0904433
0001f0 dc b8 85 3f b3 67 15 3f 80 2a 00 40 b3 dc e0 3f
       1.044704 0.5836136 2.002594 1.7567352

fc.layers.2.linear.bias f4 [128]
000000 76 be 68 3c 74 87 3d bd 0a 43 48 bc d7 32 d0 bd
       0.014205566 -0.046271756 -0.012223015 -0.10165947
000010 6e 5e 5d be 04 68 67 bd ab bd ae be 6a 7b d9 bd
       -0.21618053 -0.05649568 -0.3412908 -0.106192425
000020 b7 79 06 be 29 59 52 3e b3 d5 08 3d b8 22 7b bd
       -0.13132368 0.20541824 0.033406924 -0.061312407
000030 fa b2 4e be 58 21 4f be d8 c9 6a bd 77 a0 20 be
       -0.20185462 -0.20227563 -0.0573214 -0.15686212
000040 d3 08 af bd b4 5a ad 3d 74 2a ad 3a b9 eb f4 bd
       -0.08546605 0.08464566 0.0013211505 -0.11959023
000050 3a dc 15 3e d6 5c 5f bd 2e ab 5c bd 21 12 24 bd
       0.14634791 -0.054531895 -0.053874187 -0.04005635
000060 30 9b 7f 3d 8b 25 b3 3d 14 8f 32 bd f8 b9 04 3d
       0.062403858 0.08747395 -0.04359348 0.032403916
000070 a3 00 29 bd 4f 82 70 bd b3 64 09 bd b5 b4 16 bd
       -0.041260373 -0.058718022 -0.0335433 -0.03679343
000080 92 a9 0a be e8 28 b9 bd 90 20 a4 bd df 57 e7 bd
       -0.13541248 -0.090410054 -0.08014023 -0.11296057
000090 16 9e ab 3e ab 72 6b be d2 cd b0 bd cc 4b 91 bd
       0.33519047 -0.22992961 -0.08633007 -0.07094535
0000a0 9a fe 82 bd 84 0e 46 bd 74 d8 3e bd bd 92 30 be
       -0.06396218 -0.048353687 -0.046593145 -0.17243476
0000b0 bf 4b 8a 3d ba 1e 89 bd 7f 28 2c 3d 76 26 3d bd
       0.06752729 -0.06695314 0.042030808 -0.046179257
0000c0 98 c3 17 be 3d 89 5f 3d ab 31 14 be ad f2 1d 3d
       -0.14820707 0.05457424 -0.14472072 0.03856151
0000d0 85 60 86 be f6 d7 90 3d 51 0e ed bb 4a 8d 89 bd
       -0.26245514 0.07072441 -0.0072343727 -0.06716402
0000e0 59 40 0c be 4b b7 df bd 92 74 9c bd b5 b4 ed bc
       -0.13696422 -0.10923632 -0.076394215 -0.029016832
0000f0 98 e9 9f bd 97 d2 8a bc ec fe d5 bc 69 2b 4e be
       -0.07808226 -0.01694612 -0.026122533 -0.20133747
000100 ae b1 c4 bd 22 f4 61 be aa 3e c6 bd c9 d6 ee bc
       -0.09604202 -0.22065786 -0.09679921 -0.029155152
000110 bd 83 93 bd da 04 49 be 2d 08 5a 3c ab 52 93 bc
       -0.072028615 -0.19630757 0.013307613 -0.017983755
000120 81 ad c2 bb 3a 6d 93 bb 76 a2 46 bd 59 07 4b bd
       -0.0059410934 -0.004499105 -0.04849478 -0.049567554
000130 76 b1 b2 3c 7f 14 94 be f0 e8 00 3c 1b 92 b6 bd
       0.021813136 -0.28921887 0.007868037 -0.08914586
000140 90 75 59 be ba 70 23 be b4 52 b8 bc 9f b6 a6 bd
       -0.21236253 -0.1596097 -0.022500373 -0.08140301
000150 68 cf 82 be fa 7f d8 bc 94 64 ed bd f2 d2 3a bd
       -0.25548863 -0.026428211 -0.115914494 -0.04561133
000160 f3 83 25 be 1d a6 aa bd 83 13 ca bd 7b dc 4b be
       -0.16163616 -0.08332465 -0.09867003 -0.19908325
000170 0f 43 f5 bd 9e d8 1c be 80 64 21 bd cc fe 8f be
       -0.11975681 -0.15317008 -0.039402485 -0.28124082
000180 bc 89 e8 bd 1a 89 19 be 4c 00 1f bb 94 9d 52 be
       -0.11354396 -0.14993706 -0.0024261652 -0.20567924
000190 75 66 32 bc 41 b2 1b bd 66 e7 c7 bd f8 85 e9 3e
       -0.0108886855 -0.038011793 -0.097609326 0.45610023
0001a0 ed df 6b 3c 16 ca 26 be c1 6c 8e bd 62 08 a7 be
       0.01439665 -0.16288027 -0.06954337 -0.32623583
0001b0 68 70 30 be 9c a8 26 be 69 69 3d bc 5c 40 4b be
       -0.1723038 -0.16275257 -0.011560776 -0.1984877
0001c0 a3 db 92 3d c5 02 b5 bc 66 07 48 bd 47 7a 88 bd
       0.07170799 -0.022096047 -0.04883518 -0.066639476
0001d0 d7 0a cc bc 2b ff c9 bd 12 74 87 bd 98 80 81 bc
       -0.024907513 -0.098631226 -0.066139355 -0.015808389
0001e0 ac a5 d0 bd 0e db 39 bd d4 b6 bb bc 13 5d c6 bd
       -0.101878494 -0.045374922 -0.022914328 -0.09685721
0001f0 17 14 93 bb 1b ac 26 bd d9 26 24 be 90 00 07 3d
       -0.004488479 -0.040691476 -0.16030444 0.03295952
