3d_solid_solid/outputs/fully_connected/heat_net.0.pth (torch, 343266 bytes, 19 tensors)

_impl.layers.0.linear.weight f4 [128, 3]
0.1435666 -0.19951737 -0.23648824 -0.02125526 0.19379039 -0.26682466 0.03179164 -0.15449686
0.22058395 -0.10072836 0.25275365 -0.0429138 -0.041090325 0.018349124 0.42714828 -0.07245712
0.3652802 -0.05542111 0.08352948 0.111368075 -0.29070485 0.2248387 0.16062364 0.11486008
-0.03153916 0.13582338 -0.3117351 0.055784497 0.11800352 -0.28446162 -0.07650489 -0.14850897
0.3084935 -0.027417904 -0.19024797 0.2634563 0.019213926 -0.57537335 -0.018872082 0.15005317
-0.24675398 -0.21684302 0.013798117 0.15251826 -0.2573244 0.009093022 -0.42801243 -0.13803051
-0.08521047 -0.03678397 0.27804372 -0.035721213 0.07622564 0.37360305 0.024779301 0.098411016
-0.31165013 0.22823822 0.1597383 0.11676634 -0.124244854 -0.26871082 -0.115480274 -0.068078145
0.2399189 -0.06183636 0.019466145 -0.13989696 0.24612775 -0.031803332 0.17380676 -0.30179536
0.2196837 0.16199914 0.11271933 -0.10673241 -0.24290219 -0.049103487 -0.06408734 -0.19001716
-0.05652496 0.07223507 -0.263616 -0.11382994 -0.007480151 -0.0781841 0.28056744 0.080690876
-0.14645667 -0.2691602 -0.093486115 0.047002908 0.41506305 -0.019260885 0.075192526 -0.288905
-0.022528116 0.21828389 -0.3001951 0.20697193 0.1494253 0.10621823 0.1530997 0.095779665
0.07799114 -0.07155938 -0.016413698 0.2844351 -0.15435909 0.19813575 0.2184271 0.18338369
0.12366718 0.09415033 -0.045800272 0.22821845 -0.22023526 -0.056732308 -0.08976519 0.2545007
-0.053165603 0.20021676 -0.11195608 -0.12713021 0.1536817 0.19833814 -0.12792136 -0.5912562
0.14670534 -0.071983695 0.097891994 0.300186 0.163476 -0.24827425 -0.2550892 -0.029949438
-0.10116227 0.26814812 -0.19662285 0.13958636 0.088459395 0.23955472 0.18781453 0.123374425
-0.14884374 -0.26193157 -0.0795384 -0.09025481 0.26174086 -0.25217345 -0.03040158 -0.87687653
0.047338754 0.03680515 -0.76403314 -0.10220171 -0.10605063 0.3050452 -0.09208637 -0.12923177
0.27660263 -0.08215695 0.016083911 -0.46720833 -0.12318654 0.18610962 0.12689403 0.09546916
-0.050586194 -0.23008357 -0.18847954 -0.109979205 0.23436272 0.15677795 -0.084055215 0.2693155
-0.081838936 0.22857824 0.16087613 0.11679716 -0.0683432 -0.19520752 0.2556014 0.15342644
0.096333586 0.07824332 -0.04278648 -0.17421485 -0.07137064 0.22140206 0.16212809 0.113542624
-0.11355108 0.2453438 -0.10209576 0.011134014 -0.42295536 -0.12478377 0.19899982 0.14690079
0.1028925 -0.17098208 0.16499995 0.14944644 -0.05880044 0.22960839 -0.16347851 -0.06501101
0.23268718 -0.12723023 -0.08972799 -0.18558513 0.2616049 -0.048043504 -0.16663283 0.22499958
0.20477359 0.14881165 0.10553707 0.028616156 -0.257528 0.2070584 -0.052975576 0.22483736
-0.24572966 -0.025933739 0.2075233 -0.20025487 0.090063885 0.10793941 -0.31984574 -0.13340038
0.1551316 0.24760409 0.026707744 -1.3010402 -0.06361406 -0.117848225 0.26217264 -0.09361273
-0.031473935 0.1747514 -0.32198852 -0.13085236 0.2748333 -0.13811474 -0.01496254 -0.029736497
0.37474483 0.18314329 0.12345917 0.09405424 5.6905814e-05 -0.6079441 -0.03090027 -0.09497703
00000000: 1f03 133e 484e 4cbe f929 72be 831f aebc
00000010: fd70 463e 3e9d 88be f337 023d 6d34 1ebe
00000020: c2e0 613e ac4a cebd ed68 813e 61c6 2fbd
00000030: 544e 28bd e750 963c 2eb3 da3e 6664 94bd
00000040: 0206 bb3e 3f01 63bd 8111 ab3d f214 e43d
00000050: 44d7 94be 1e3c 663e 867a 243e c33b eb3d
00000060: 352f 01bd 4915 0b3e be9b 9fbe 497e 643d
00000070: d4ab f13d f4a4 91be 99ae 9cbd bc12 18be
00000080: dcf2 9d3e 839b e0bc 5dd0 42be bfe3 863e
00000090: 8666 9d3c ab4b 13bf a099 9abc 8aa7 193e
000000a0: 13ad 7cbe 190c 5ebe 7f11 623c bf2d 1c3e
000000b0: 06c0 83be e6fa 143c 7224 dbbe df57 0dbe
000000c0: d482 aebd caaa 16bd bf5b 8e3e 6850 12bd
000000d0: 301c 9c3d e648 bf3e f6fd ca3c b78b c93d
000000e0: 9b90 9fbe 48b7 693e 7092 233e 3123 ef3d
000000f0: 1674 febd 7794 89be ec80 ecbd 8e6c 8bbd
00000100: 4dad 753e 1f48 7dbd 7777 9f3c 2641 0fbe
00000110: ea08 7c3e 3644 02bd 66fa 313e ec84 9abe
00000120: c4f4 603e 1ae3 253e 64d9 e63d 8696 dabd
00000130: 5abb 78be bd20 49bd 3940 83bd dc93 42be
00000140: b786 67bd fbef 933d adf8 86be ac1f e9bd
00000150: 0e1c f5bb fc1e a0bd 89a6 8f3e 4241 a53d
00000160: bdf8 15be 5ecf 89be a675 bfbd 1f86 403d
00000170: 2583 d43e 01c9 9dbc 8afe 993d 5beb 93be
00000180: e28c b8bc d085 5f3e 2cb3 99be 73f0 533e
00000190: f202 193e f288 d93d 2bc6 1c3e 2128 c43d
000001a0: d2b9 9f3d b98d 92bd 0576 86bc 7aa1 913e
000001b0: 4f10 1ebe 19e4 4a3e 5bab 5f3e efc8 3b3e
000001c0: 3845 fd3d e3d1 c03d 1199 3bbd 19b2 693e
000001d0: 5a85 61be 2360 68bd d0d6 b7bd ea4d 823e
000001e0: 2dc4 59bd 9f05 4d3e 3b49 e5bd 6c2e 02be
000001f0: bc5e 1d3e 2719 4b3e d1fd 02be 915c 17bf
00000200: ed39 163e 306c 93bd 997b c83d fbb1 993e
00000210: 4166 273e 9b3b 7ebe 0d9b 82be 8658 f5bc
00000220: 2a2e cfbd b64a 893e 8057 49be baef 0e3e
00000230: 332a b53d d54d 753e 7452 403e bbab fc3d
00000240: 7e6a 18be e51b 86be 07e5 a2bd 84d7 b8bd
00000250: e602 863e e11c 81be bc0c f9bc fb7a 60bf
00000260: 48e6 413d ffc0 163d ad97 43bf 214f d1bd
00000270: 1331 d9bd e22e 9c3e c797 bcbd 5555 04be
00000280: dc9e 8d3e e741 a8bd 68c2 833c ee35 efbe
00000290: 3a49 fcbd 8593 3e3e 82f0 013e 5685 c33d
000002a0: 7833 4fbd 079b 6bbe c800 41be c73c e1bd
000002b0: c8fc 6f3e 668a 203e 2425 acbd b9e3 893e
000002c0: 2c9b a7bd 6a10 6a3e b6bc 243e 5933 ef3d
000002d0: 85f7 8bbd 7be4 47be 30de 823e d21b 1d3e
000002e0: 8b4a c53d 093e a03d e040 2fbd 6165 32be
000002f0: c52a 92bd 39b7 623e e804 263e 0989 e83d
00000300: 788d e8bd 683b 7b3e 9517 d1bd 716b 363c
00000310: 9b8d d8be a28e ffbd 9cc6 4b3e 296d 163e
00000320: 4eb9 d23d ed15 2fbe bff5 283e 7d08 193e
00000330: bbd8 70bd 761e 6b3e e966 27be 7e24 85bd
00000340: 8c45 6e3e a448 02be 4fc3 b7bd 070a 3ebe
00000350: 14f1 853e 44c9 44bd cca1 2abe 4a66 663e
00000360: 2bb0 513e 1562 183e d223 d83d 6e6c ea3c
00000370: b6da 83be 1e07 543e ebfc 58bd c43b 663e
00000380: 8ea0 7bbe fe72 d4bc fd80 543e 9d0f 4dbe
00000390: 6a73 b83d 560f dd3d d2c2 a3be 1c9a 08be
000003a0: d1da 1e3e ed8b 7d3e 33ca da3c 7c88 a6bf
000003b0: 1748 82bd 695a f1bd 7e3b 863e 08b8 bfbd
000003c0: d0ea 00bd 08f2 323e aedb a4be 29fe 05be
000003d0: f3b6 8c3e f36d 0dbe 7125 75bc f499 f3bc
000003e0: 8ede bf3e ea89 3b3e 29d8 fc3d 829f c03d
000003f0: 27ae 6e38 39a2 1bbf 9022 fdbc 5183 c2bd

_impl.layers.0.linear.weight_g f4 [128, 1]
1.1961311 1.2400134 1.292983 1.9019926 1.0920444 1.1010246 1.4315882 1.5953535
1.149068 1.6291213 1.309715 1.5539123 1.3290101 1.2152586 1.3424319 1.089125
1.2784536 0.88555604 1.2011352 1.55698 1.078789 1.3248819 1.4989737 1.1166258
1.6525652 1.0534729 1.0722262 1.2412465 1.5742421 1.1251221 1.0129132 0.96918505
1.2045906 1.6794689 1.6903837 1.2972988 1.3328643 1.6892132 1.341588 1.5023254
1.5838094 1.3716996 0.9970111 1.1404114 1.2516838 1.6099463 1.1179966 1.6924579
1.0690001 1.177453 1.4449993 1.1923425 1.2745556 1.3933718 1.1099459 1.5811483
0.99572986 1.1859701 1.6412787 1.5486082 1.3103552 1.6777155 1.050374 1.6009496
1.161649 1.1334758 1.6896343 1.2347139 1.7215635 1.9441538 1.1768717 1.3467535
1.6634207 1.4552734 1.2019273 1.7768582 1.9228798 1.3105798 1.3545648 1.9249644
1.0908396 1.1957053 1.4030769 1.6500617 1.4056935 1.3276691 1.2039737 1.3492578
1.5262924 1.4115921 1.3967034 1.4631419 1.2095829 1.1759387 1.2679099 1.1600722
1.1512165 1.166798 1.3047 1.0651077 1.6633413 1.4668461 1.2916893 1.0183384
1.2495964 1.0789174 1.3040702 1.0988429 1.4866861 1.0398254 1.5115321 1.1665196
1.2689383 1.0846158 1.105438 1.1082458 1.6371129 1.703193 1.2653432 1.4467543
1.062457 1.2206117 1.2276478 1.1265624 1.0395992 1.0955713 1.7125491 1.5590407
00000000: d31a 993f c2b8 9e3f 7880 a53f 7e74 f33f
00000010: 1cc8 8b3f 60ee 8c3f 483e b73f 8b34 cc3f
00000020: a914 933f 0c87 d03f bea4 a73f 99e6 c63f
00000030: 011d aa3f 988d 9b3f cfd4 ab3f 7368 8b3f
00000040: 5ea4 a33f cdb3 623f ccbe 993f 1f4b c73f
00000050: c215 8a3f bb95 a93f 5fde bf3f 98ed 8e3f
00000060: 4287 d33f 33d8 863f b53e 893f 2ae1 9e3f
00000070: c480 c93f 0004 903f 24a7 813f 831c 783f
00000080: 0630 9a3f d6f8 d63f 7e5e d83f e30d a63f
00000090: 4c9b aa3f 2338 d83f 28b9 ab3f 334c c03f
000000a0: 44ba ca3f da93 af3f 1f3c 7f3f 00f9 913f
000000b0: 2d37 a03f b812 ce3f 831a 8f3f 76a2 d83f
000000c0: ffd4 883f c8b6 963f bdf5 b83f ae9e 983f
000000d0: a324 a33f 025a b23f b512 8e3f 1163 ca3f
000000e0: 27e8 7e3f decd 973f 6c15 d23f cb38 c63f
000000f0: b8b9 a73f 62bf d63f a872 863f ebeb cc3f
00000100: eab0 943f bc15 913f f045 d83f 1b0b 9e3f
00000110: 315c dc3f 08da f83f bba3 963f 6b62 ac3f
00000120: f8ea d43f 6646 ba3f c1d8 993f 1770 e33f
00000130: ed20 f63f 14c1 a73f 6162 ad3f 3c65 f63f
00000140: a2a0 8b3f df0c 993f 0698 b33f 3935 d33f
00000150: c4ed b33f 10f1 a93f cf1b 9a3f 7bb4 ac3f
00000160: 8d5d c33f 0daf b43f 2dc7 b23f 3c48 bb3f
00000170: 9dd3 9a3f 2985 963f df4a a23f 3f7d 943f
00000180: 105b 933f a359 953f 6900 a73f 7355 883f
00000190: 5ee8 d43f 9dc1 bb3f 1356 a53f ea58 823f
000001a0: c6f2 9f3f f719 8a3f c6eb a63f e2a6 8c3f
000001b0: bb4b be3f 0019 853f e279 c13f 8450 953f
000001c0: 926c a23f b1d4 8a3f fe7e 8d3f 00db 8d3f
000001d0: ea8c d13f 3a02 da3f c4f6 a13f 3f2f b93f
000001e0: 97fe 873f 013d 9c3f 9023 9d3f 3233 903f
000001f0: 9611 853f ae3b 8c3f cf34 db3f a58e c73f

_impl.layers.0.linear.bias f4 [128]
-0.19778574 -0.10996015 0.15702595 0.36777404 0.31028357 0.20245083 -0.003709446 -0.5240314
-0.24389116 -0.06831472 0.028233437 0.07105382 -0.11788753 -0.17671773 -0.08610369 -0.19080652
0.10541095 0.30037588 -0.18867077 -0.502908 -0.18240023 0.12803662 0.2089052 -0.17750087
-0.52623314 -0.13692695 -0.13589576 -0.16880901 0.31298897 -0.17372103 0.22743554 -0.26032
-0.10411537 -0.52511424 -0.52958614 0.18485542 0.18828511 -0.5315265 -0.029897202 0.07180714
0.043199796 0.20838211 -0.06147467 0.3158759 -0.14663902 0.16884974 -0.19273679 -0.53355217
-0.13325834 -0.05904012 -0.04128039 -0.13319309 0.06146015 0.006176433 -0.153025 -0.55413467
-0.1893169 0.24696761 0.23261012 -0.5084071 0.021933058 -0.5191736 -0.14430714 -0.53117836
-0.0015791021 -0.13337055 -0.5377386 0.013046963 0.039392263 0.13993543 0.0013367869 0.031827066
-0.53150004 0.054944564 -0.04944436 0.0014149385 -0.038013667 0.22567034 -0.18786427 0.21950875
-0.18609074 0.00060194556 0.38579366 -0.546894 -0.17074199 0.27356586 0.15438569 -0.1775251
-0.15111594 0.34379402 0.050110556 0.27387354 0.28139523 0.056411956 -0.03920631 -0.016492391
-0.06700981 -0.15187398 0.06818863 -0.1879894 -0.53055984 -0.1678538 -0.15375696 -0.18322414
-0.14672568 -0.15341735 0.24425343 -0.21779913 -0.18693432 -0.1416995 -0.49326643 0.3191591
0.23547855 -0.20401977 -0.09582406 -0.17102143 -0.5215712 -0.5244876 0.15488906 -0.15918155
-0.19701953 -0.050294243 -0.17559487 0.23297745 -0.15344828 -0.1374509 -0.4794195 0.23120166
00000000: 5888 4abe ca32 e1bd 69cb 203e e14c bc3e
00000010: 7ddd 9e3e 454f 4f3e 2d1a 73bb ec26 06bf
00000020: 9bbe 79be 97e8 8bbd cf49 e73c aa84 913d
00000030: 046f f1bd 7ef5 34be 2257 b0bd c962 43be
00000040: b2e1 d73d deca 993e e932 41be 94be 00bf
00000050: 20c7 3abe 081c 033e 3feb 553e cac2 35be
00000060: 37b7 06bf 9436 0cbe 4228 0bbe 45dc 2cbe
00000070: 1740 a03e ede3 31be dde4 683e aa48 85be
00000080: 703a d5bd e36d 06bf f592 07bf bd4a 3d3e
00000090: d0cd 403e 1f12 08bf faea f4bc 9f0f 933d
000000a0: 45f2 303d 1f62 553e ddcc 7bbd 7cba a13e
000000b0: 8a28 16be f2e6 2c3e cb5c 45be e096 08bf
000000c0: e074 08be 0ed4 71bd a015 29bd c563 08be
000000d0: a3bd 7b3d ad63 ca3b 96b2 1cbe c5db 0dbf
000000e0: 4adc 41be 14e5 7c3e 5931 6e3e f826 02bf
000000f0: f5ac b33c 90e8 04bf 40c5 13be 4efb 07bf
00000100: e0f9 ceba 4a92 08be 3da9 09bf eec2 553c
00000110: c859 213d 3c4b 0f3e 2037 af3a 195d 023d
00000120: 6310 08bf 8d0d 613d 2b86 4abd 7575 b93a
00000130: 38b4 1bbd 2016 673e 7e5f 40be e7c6 603e
00000140: 928e 3ebe e2cb 1d3a bf86 c53e 3f01 0cbf
00000150: fdd6 2ebe d310 8c3e 4817 1e3e 24c9 35be
00000160: 23be 1abe c505 b03e ba40 4d3d 2739 8c3e
00000170: 0913 903e 3910 673d cc96 20bd 0d1b 87bc
00000180: 703c 89bd da84 1bbe 7ba6 8b3d 4b80 40be
00000190: c5d2 07bf dee1 2bbe 7772 1dbe 1c9f 3bbe
000001a0: 423f 16be 7019 1dbe 921d 7a3e bc06 5fbe
000001b0: b66b 3fbe ac19 11be 6b8d fcbe d268 a33e
000001c0: 4a21 713e 8fea 50be 683f c4bd 3e20 2fbe
000001d0: b185 05bf d244 06bf 3d9b 1e3e 7d00 23be
000001e0: 7dbf 49be 5601 4ebd 24cf 33be a491 6e3e
000001f0: 8c21 1dbe eebf 0cbe 7976 f5be 21c0 6c3e

_impl.layers.1.linear.weight f4 [128, 128]
-0.06235636 -0.042700198 -0.024291694 0.18470283 0.0073659266 0.19287364 0.07554645 0.11778522
0.011898384 0.03581815 -0.06138506 -0.20310357 -0.046857294 0.022033079 0.020927448 -0.15978436
-0.17126274 0.012107012 0.0057028467 -0.025380585 -0.29661468 0.2086199 -0.09077253 0.016505636
0.001004111 -0.26322633 -0.08041717 -0.08652226 -0.1492038 -0.007146936 0.057199504 -0.039961744
-0.055945534 0.10276877 -0.043798015 -0.068996035 0.046216093 0.032686107 0.035752002 -0.15516347
0.13153312 0.035918277 -0.131309 0.016342925 0.031166513 -0.15474243 -0.28526545 0.08973012
-0.24408448 -0.01278061 -0.032655876 -0.24293716 0.12099253 0.12516361 0.002926193 0.05682205
-0.4007922 0.11594148 0.24685456 0.13842766 -0.24343014 0.031006817 -0.047676742 0.121444695
0.0105319945 -0.015606498 0.052275654 -0.07649118 0.16655083 0.21130793 -0.06846831 -0.35563126
0.07027208 -0.06063446 -0.028038206 0.14553005 0.10627723 0.034694504 -0.001607874 0.12961383
-0.24100967 -0.008056463 -0.13962846 0.10811671 0.018295242 0.03397814 -0.012959159 -0.012636213
0.010280351 -0.08031465 0.19091304 -0.08362746 0.086515605 -0.06760317 0.03611598 -0.24369158
0.17666009 -0.013791649 0.21195832 -0.22427358 0.06893038 -0.15155458 0.049168248 -0.40062675
-0.11901525 -0.26021257 0.11366252 0.015140402 -0.025799999 -0.35908782 0.1161969 0.0024490566
0.09641605 0.0046933834 -0.030791081 0.023335151 0.07113093 0.057721093 0.00020866914 -0.0083197495
-0.25549364 -0.4781128 -0.10234785 0.071604125 -0.062380567 -0.06961814 0.0761591 -0.03331134
-0.1426584 -0.15025984 0.05078323 -0.101339206 -0.016023478 0.12717433 -0.21762663 0.15919921
-0.071560636 -0.24848226 0.32404017 0.19226526 -0.037788004 -0.13262548 -0.12940016 0.045896057
0.19561486 0.6210013 -0.17788325 0.03627116 0.10656454 -0.16685271 0.12452378 -0.023365816
0.089921884 0.10665466 0.12654924 -0.14416239 0.21262513 -0.04750917 -0.024609076 0.27714446
-0.12962508 0.14440401 -0.01806982 -0.08685942 0.72394496 -0.1314367 -0.2108521 0.47691286
0.02109509 0.06320507 0.03839876 0.182128 -0.14782347 0.23033585 -0.015911145 -0.09207318
0.09134642 -0.08556815 -0.08368373 -0.045106903 0.14343402 0.13356839 -0.09083589 -0.1445214
0.08938233 0.34135503 0.110992044 -0.09142918 0.14158976 0.104808114 0.04906165 -0.098161444
-0.052237958 0.08254805 0.18076469 0.18050738 -0.13375255 0.108234845 0.08697357 0.19894549
0.019060245 -0.028649703 -0.047984228 -0.0211215 -0.33255184 0.8211193 -0.18286534 0.07169861
-0.007903755 0.07744417 0.45499244 0.13321577 0.043635186 0.5765145 0.15358178 0.30357498
-0.012263718 0.6578441 -0.18676634 -0.083975226 0.73973465 -0.017727384 0.046680197 0.07220725
-0.0010651365 0.06408514 -0.033020448 -0.12388453 0.17069857 -0.0032238776 -0.18487357 0.07863585
0.08373439 0.15194015 0.17179292 -0.15058461 -0.039656527 0.08765489 -0.089993216 0.33952564
0.21355037 -0.08239162 0.09613373 0.16094711 0.028105626 -0.037811667 0.19047837 -0.022081962
-0.091452666 0.03671658 -0.12691079 0.7471895 -0.023541188 0.046448868 0.09490252 1.0527236
00000000: 6269 7fbd 67e6 2ebd 60ff c6bc bd22 3d3e
00000010: df5d f13b ab80 453e 19b8 9a3d 6139 f13d
00000020: 71f1 423c 0db6 123d e76e 7bbd 62fa 4fbe
00000030: 6fed 3fbd b77e b43c 0a70 ab3c 839e 23be
00000040: 805f 2fbe 7d5c 463c f2de ba3b f2ea cfbc
00000050: e1dd 97be 74a0 553e f3e6 b9bd d436 873c
00000060: 609c 833a 9ac5 86be c2b1 a4bd 9532 b1bd
00000070: e2c8 18be d830 eabb 074a 6a3d edae 23bd
00000080: 2527 65bd 6f78 d23d 8c65 33bd cb4d 8dbd
00000090: 164d 3d3d dee1 053d b170 123d 2ce3 1ebe
000000a0: 9eb0 063e 0b1f 133d de75 06be 99e1 853c
000000b0: ea50 ff3c cd74 1ebe 500e 92be 6dc4 b73d
000000c0: 48f1 79be c365 51bc 2bc2 05bd 85c4 78be
000000d0: eeca f73d e42a 003e 5fc5 3f3b 3dbe 683d
000000e0: a334 cdbe ba72 ed3d 71c7 7c3e fbbf 0d3e
000000f0: c045 79be 0202 fe3c b048 43bd ffb7 f83d
00000100: 638e 2c3c 66b2 7fbc ff1e 563d 68a7 9cbd
00000110: 4d8c 2a3e 1b61 583e 1d39 8cbd 4d15 b6be
00000120: cfea 8f3d d75b 78bd 61b0 e5bc d405 153e
00000130: e0a7 d93d d31b 0e3d 4cbf d2ba 7db9 043e
00000140: 3dcb 76be 41ff 03bc c3fa 0ebe 4b6c dd3d
00000150: e7df 953c aa2c 0b3d a752 54bc 1e08 4fbc
00000160: eb6e 283c 027c a4bd b57e 433e e044 abbd
00000170: 182f b13d 8873 8abd 5aee 133d 498a 79be
00000180: 62e6 343e 5ef6 61bc 9a0b 593e f9a7 65be
00000190: 5f2b 8d3d 2031 1bbe a564 493d f31e cdbe
000001a0: 44be f3bd 953a 85be e5c7 e83d 730f 783c
000001b0: 855a d3bc 5cda b7be a4f8 ed3d 5a80 203b
000001c0: c775 c53d f4ca 993b 943d fcbc 5c29 bf3c
000001d0: 18ad 913d f46c 6c3d 32ce 5a39 8f4f 08bc
000001e0: 10d0 82be 33cb f4be c09b d1bd 2fa5 923d
000001f0: c482 7fbd f593 8ebd 4df9 9b3d 7971 08bd
00000200: 0b15 12be b7dd 19be 1402 503d ee8a cfbd
00000210: ab43 83bc fd39 023e 84d9 5ebe 1e05 233e
00000220: 628e 92bd 2272 7ebe 98e8 a53e 2fe1 443e
00000230: 98c7 1abd f9ce 07be 7a81 04be 81fd 3b3d
00000240: 434f 483e f1f9 1e3f 0727 36be 1191 143d
00000250: 823e da3d 70db 2abe 5306 ff3d ab69 bfbc
00000260: f728 b83d c26d da3d 2096 013e 4e9f 13be
00000270: 67ba 593e fa98 42bd f998 c9bc e1e5 8d3e
00000280: 70bc 04be a5de 133e 2907 94bc 5ae3 b1bd
00000290: 7554 393f 5897 06be 9de9 57be ec2d f43e
000002a0: 9ccf ac3c a971 813d 0548 1d3d c37f 3a3e
000002b0: 095f 17be 29dd 6b3e 1758 82bc dd90 bcbd
000002c0: d513 bb3d 5b3e afbd 6062 abbd 04c2 38bd
000002d0: 5ee0 123e 27c6 083e 2b08 babd 6bfd 13be
000002e0: 150e b73d 16c6 ae3e cc4f e33d 393f bbbd
000002f0: e8fc 103e a3a5 d63d def4 483d de08 c9bd
00000300: 78f7 55bd f40e a93d 611a 393e edd6 383e
00000310: 6ef6 08be 3baa dd3d 331f b23d 5eb8 4b3e
00000320: 3b24 9c3c c8b2 eabc 1c8b 44bd ff06 adbc
00000330: 3c44 aabe e034 523f 0d41 3bbe b9d6 923d
00000340: c07e 01bc 0d9b 9e3d c5f4 e83e b769 083e
00000350: cfba 323d 7496 133f 8b44 1d3e 2e6e 9b3e
00000360: c3ed 48bc 7968 283f ad3f 3fbe 34fb abbd
00000370: 405f 3d3f 0539 91bc bc33 3f3d 65e1 933d
00000380: 0d9c 8bba 123f 833d 7340 07bd 2cb7 fdbd
00000390: 9bcb 2e3e b147 53bb 7f4f 3dbe d50b a13d
000003a0: f07c ab3d 3396 1b3e 7cea 2f3e da32 1abe
000003b0: e26e 22bd 6884 b33d 5d4e b8bd 4ed6 ad3e
000003c0: f3ac 5a3e f0bc a8bd c3e1 c43d 52cf 243e
000003d0: c53d e63c 68e0 1abd c30c 433e 3be5 b4bc
000003e0: 894b bbbd 2064 163d e7f4 01be d047 3f3f
000003f0: 73d9 c0bc 2b41 3e3d 415c c23d a6bf 863f

_impl.layers.1.linear.weight_g f4 [128, 1]
1.1928796 0.8639861 1.5154239 1.2150869 1.256427 1.359519 1.6130815 1.0124773
1.650065 0.0051623653 2.1211064 0.6939155 1.2618681 1.0537535 1.3115613 1.4194558
1.501554 1.2854894 1.6530991 0.36690962 2.2320106 1.1543187 1.5944555 1.3678781
1.4987121 0.6914994 1.5674616 1.4443702 1.0311816 1.4491968 1.1294235 1.234574
1.5270697 1.4531013 1.5526965 1.8712764 2.1349108 1.2328587 1.5938675 1.8874464
2.8008797 -0.0025752478 1.4394542 1.3216313 0.9985668 1.151814 0.73367536 1.310645
0.80071115 1.0307915 1.0963025 1.6718317 -0.0041925553 1.7172319 1.2134702 1.2613899
2.173386 0.85201216 2.6708016 1.3845011 1.1757594 1.2871078 1.8242524 1.0006224
1.0332495 1.7104675 0.17054388 1.7955698 1.3272791 2.798913 1.0691121 1.4611794
1.4704592 1.5980958 1.3485036 1.3805535 1.3285352 1.0490679 1.447078 1.9253289
1.4845682 1.8989701 1.821825 1.8736194 1.2509519 1.3325164 1.0791544 1.6149884
1.374507 1.303769 1.0209212 1.403839 0.9712507 1.9377586 1.3257653 0.787449
1.3893636 1.2926623 1.0552373 1.1601739 1.6598734 0.63878095 1.5838035 1.5706528
1.2102981 1.3284236 1.2080628 1.080012 2.530994 1.453063 1.2118763 1.6661664
2.0330908 1.4740416 1.1318829 1.1562219 1.1514399 3.389054 1.4661089 1.4174131
2.7683194 1.286964 1.1966529 1.9163213 1.4044396 1.2669251 0.4665499 1.9074163
00000000: 47b0 983f 312e 5d3f 69f9 c13f f887 9b3f
00000010: 9ad2 a03f b804 ae3f 7479 ce3f db98 813f
00000020: 5435 d33f 0f29 a93b 35c0 0740 72a4 313f
00000030: e584 a13f 65e1 863f 3ee1 a73f bab0 b53f
00000040: ec32 c03f eb8a a43f c098 d33f 94db bb3e
00000050: 43d9 0e40 b7c0 933f 1e17 cc3f a116 af3f
00000060: ccd5 bf3f 1b06 313f 95a2 c83f 1fe1 b83f
00000070: c2fd 833f 487f b93f f390 903f 8506 9e3f
00000080: 0577 c33f 39ff b93f c2be c63f fc85 ef3f
00000090: 61a2 0840 50ce 9d3f da03 cc3f d897 f13f
000000a0: 9d41 3340 7dc5 28bb 0940 b83f 372b a93f
000000b0: 13a2 7f3f a46e 933f 26d2 3b3f 37c3 a73f
000000c0: 68fb 4c3f faf0 833f a453 8c3f 95fe d53f
000000d0: b461 89bb 41ce db3f fe52 9b3f 3975 a13f
000000e0: c218 0b40 781d 5a3f 6aee 2a40 5537 b13f
000000f0: 497f 963f f3bf a43f 1a81 e93f 6514 803f
00000100: 8541 843f 99f0 da3f 0ea3 2e3e 3bd5 e53f
00000110: 48e4 a93f 6421 3340 aad8 883f ed07 bb3f
00000120: 0238 bc3f 678e cc3f c49b ac3f fab5 b03f
00000130: 710d aa3f db47 863f da39 b93f 2d71 f63f
00000140: 5506 be3f 7411 f33f 9031 e93f c3d2 ef3f
00000150: 311f a03f e68f aa3f bb21 8a3f f1b7 ce3f
00000160: d8ef af3f e7e1 a63f 8cad 823f ffb0 b33f
00000170: e3a3 783f 7908 f83f adb2 a93f 4296 493f
00000180: abd6 b13f f575 a53f 0412 873f 9480 943f
00000190: bb76 d43f 2687 233f 13ba ca3f 270b c93f
000001a0: 0ceb 9a3f c909 aa3f cda1 9a3f d53d 8a3f
000001b0: cefb 2140 f8fd b93f c31e 9b3f f144 d53f
000001c0: 291e 0240 65ad bc3f 8ae1 903f 14ff 933f
000001d0: 6262 933f 43e6 5840 75a9 bb3f cb6d b53f
000001e0: 252c 3140 3dbb a43f ec2b 993f 044a f53f
000001f0: adc4 b33f 9a2a a23f a1df ee3e 3826 f43f

_impl.layers.1.linear.bias f4 [128]
-0.10336909 -0.00235428 0.1513137 0.018866446 0.12656695 0.15645918 -0.14593714 -0.10618861
0.014312935 -0.0004868831 0.24290356 -0.015731633 -0.12837918 -0.11852523 -0.10532422 0.18029359
-0.20367338 0.120886296 -0.10360473 0.010163966 -0.17100985 -0.15042728 -0.20795591 -0.013523654
-0.09504931 -0.053806663 -0.08720618 0.18959619 0.022796258 0.19833173 -0.12996072 0.12520391
-0.12656134 -0.13828905 -0.1242812 0.095734306 0.1503078 -0.12527676 0.26076925 0.11465613
0.15772916 1.4343046e-05 0.224804 0.040647198 -0.071906105 0.07051206 0.056125317 -0.13592844
0.08422161 -0.11585705 -0.11814078 -0.17129008 0.00057014474 0.052744687 0.12945637 -0.14954846
0.09640395 0.09501233 0.16768664 0.16235024 0.089629374 0.109670654 -0.1797842 0.06550947
-0.10832415 -0.16454916 -0.0047798674 -0.13556841 -0.11843369 0.14276056 0.10619754 0.018043207
-0.1441208 0.113569915 0.2333134 0.06618239 0.13557695 -0.058743447 0.097914085 -0.18078278
0.06749773 0.18699567 0.047258213 0.2103172 0.18291001 -0.05268158 -0.12936102 -0.001953021
-0.037199553 -0.10594455 -0.121984035 0.26739362 0.046850696 0.079323 0.14844081 -0.006579176
-0.1195738 0.09747013 0.12125409 0.1244554 0.0076507404 0.055176802 0.14536428 -0.08538992
0.14469762 -0.02001684 -0.0705109 0.020924317 0.16211386 -0.12396797 -0.006790327 0.2335735
-0.16098464 0.07981171 0.11906309 -0.10244526 0.24507584 0.17852193 -0.09608774 0.15727824
0.265587 -0.13563699 0.022646684 -0.157821 0.022871213 -0.23308575 -0.044737954 -0.19836827
00000000: 2cb3 d3bd 444a 1abb fbf1 1a3e ce8d 9a3c
00000010: c49a 013e d636 203e 8c70 15be 6a79 d9bd
00000020: cd80 6a3c 5844 ffb9 b6bb 783e a0df 80bc
00000030: d575 03be 5bbd f2bd 3ab4 d7bd e29e 383e
00000040: c18f 50be 3c93 f73d b72e d4bd c386 263c
00000050: 351d 2fbe 9c09 1abe 65f2 54be 5192 5dbc
00000060: 36a9 c2bd 6064 5cbd 2799 b2bd 8125 423e
00000070: 38bf ba3c 7917 4b3e 6c14 05be 7435 003e
00000080: 4c99 01be a59b 0dbe 2487 febd 5910 c43d
00000090: 4aea 193e 8d48 00be 8c83 853e d5d0 ea3d
000000a0: c183 213e eaa2 7037 0533 663e ad7d 263d
000000b0: 8243 93bd a068 903d a9e3 653d d330 0bbe
000000c0: 617c ac3d 7646 edbd cbf3 f1bd ab66 2fbe
000000d0: c475 153a d00a 583d 3690 043e 3b23 19be
000000e0: 6f6f c53d d395 c23d 0cb6 2b3e 243f 263e
000000f0: 9b8f b73d 029b e03d 5919 38be d429 863d
00000100: 0dd9 ddbd 937f 28be 6fa0 9cbb 72d2 0abe
00000110: 5d8d f2bd d32f 123e 197e d93d 59cf 933c
00000120: 6794 13be 5897 e83d b5e9 6e3e a28a 873d
00000130: afd4 0a3e f89c 70bd 2e87 c83d 1f1f 39be
00000140: 403c 8a3d cb7b 3f3e d491 413d 645d 573e
00000150: c34c 3b3e a4c8 57bd 3777 04be 83fc ffba
00000160: 8f5e 18bd 75f9 d8bd c4d2 f9bd d1e7 883e
00000170: 84e6 3f3d 1974 a23d de00 183e 2196 d7bb
00000180: 1ce3 f4bd 6b9e c73d 1054 f83d 79e2 fe3d
00000190: 10b3 fa3b 1201 623d 60da 143e e9e0 aebd
000001a0: 9d2b 143e 5bfa a3bc 0568 90bd 7969 ab3c
000001b0: 2d01 263e ebe2 fdbd 6481 debb e42d 6f3e
000001c0: 28d9 24be 5274 a33d 59d7 f33d d2ce d1bd
000001d0: 29f5 7a3e 74ce 363e a6c9 c4bd 8c0d 213e
000001e0: 05fb 873e 6ce4 0abe 8a85 b93c d49b 21be
000001f0: 695c bb3c 08ae 6ebe 253f 37bd 0d21 4bbe

_impl.layers.2.linear.weight f4 [128, 128]
-0.10637715 -0.00018563605 0.066725165 -0.09410728 0.036699787 0.07970747 -0.19246763 -0.069453724
-0.072247036 -6.710622e-05 0.14786997 0.0006936425 -0.1450694 0.015524466 -0.0008756369 0.074750915
-0.118651986 0.058771644 0.14932624 -0.0012299321 -0.31709385 -0.040512852 -0.19789405 -0.10305158
-0.14849955 0.016400963 -0.18006878 0.070700906 0.091815315 0.06849583 -0.034789916 0.040988464
-0.16882508 -0.13193734 0.018278532 -0.09133069 0.07568946 -0.13401173 0.15237609 0.031008918
0.047498055 0.0004021388 0.1402362 -0.08711412 0.040173084 0.1726208 -0.0024375657 -0.10531844
0.020430481 -0.022471936 -0.08754862 -0.21550772 0.0004650099 -0.044708636 0.034821805 -0.13386889
0.001083591 0.027318463 0.071141034 0.05551894 -0.019471942 0.010777434 -0.24343155 0.12118713
-0.022150012 -0.20458491 0.00056665443 -0.23233674 -0.09816463 -0.02892183 0.026834115 -0.10921302
-0.14493273 -0.030792583 0.23955157 -0.07084236 0.013818556 -0.08658777 -0.047894403 -0.28228334
-0.09527879 0.10813647 -0.10176478 0.12970488 0.04437144 0.16607529 0.000118708405 -0.08151576
-0.040114943 -0.04277976 -0.06372984 0.16654879 0.11716309 -0.0053071105 0.035417173 0.042881254
0.027170753 0.037331797 0.030049993 0.031825036 -0.12505351 -0.010890161 0.07706059 0.1864587
0.03993325 -0.07881931 -0.106556624 -0.049672987 0.09704414 0.11322757 -0.09701349 0.122713625
-0.2868519 -0.014997039 0.03575088 -0.022339825 0.093163595 0.10835241 -0.15020555 0.095817044
-0.15275334 -0.14401872 -0.060454637 -0.24807762 -0.06658217 -0.09313947 -0.009412892 -0.25472298
0.14438634 0.08094739 0.010313726 0.16825207 -0.20095372 -0.15501043 0.161176 -0.06386189
-0.13557126 -0.45729917 0.14224249 -0.12728414 -0.0032274413 0.099054866 0.15279059 0.07784614
0.16408256 0.15248397 -0.09909797 0.1564721 0.110294625 0.016396048 0.18484397 -0.013635127
-0.072623335 -0.20383915 0.116153605 0.0629567 0.121013224 -0.04038441 0.16976322 0.18873116
-0.07530976 -0.17686234 0.055724226 -0.15288633 -0.35196933 -0.19780944 -0.13925461 0.09872213
-0.13296188 0.34247926 0.10290332 0.1174921 0.0911953 0.13169073 0.14324377 -0.08848126
-0.14863923 0.027783925 0.06451581 -0.11305038 -0.3314939 -0.048474893 -0.047330484 -0.007325327
0.15894859 -0.6587526 0.21930856 -0.05416064 -0.25918058 -0.052388906 0.029643772 -0.20194927
-0.22047286 -0.2535605 -0.24115863 0.109980084 -0.20503278 -0.21981755 0.2596148 -0.124247245
0.08210933 -0.032755863 0.11181742 -0.09374948 -0.09843754 -0.09852693 0.13946374 0.004840246
-0.026217852 -0.1436241 0.1466701 -0.25515646 0.18368691 -0.15232192 -0.46067658 0.019192876
-0.15997578 -0.13222037 -0.3120714 0.063638344 -0.112527154 0.103886895 0.2266059 0.14186363
-0.035440683 0.036498245 -0.18658489 0.14338501 0.1886183 0.11371224 0.038488895 0.2032064
0.27404687 0.13910377 -0.079426534 -0.034078978 0.17869388 -0.07169011 -0.031155774 -0.16185197
-0.036722917 -0.16078196 -0.008401976 0.15379375 -0.11856265 0.1373129 0.13039638 0.07147072
-0.14131337 -0.12265013 0.09007869 -0.06396177 0.11767302 -0.18354756 0.36257088 -0.01844657
00000000: 43dc d9bd 4ca7 42b9 34a7 883d 51bb c0bd
00000010: 8452 163d ac3d a33d 3c16 45be c13d 8ebd
00000020: 41f6 93bd 61bb 8cb8 3a6b 173e 8fd5 353a
00000030: 138d 14be 545a 7e3c ff8a 65ba 0217 993d
00000040: d0ff f2bd 89ba 703d fae8 183e ac35 a1ba
00000050: 205a a2be cef0 25bd bda4 4abe b50c d3bd
00000060: 4410 18be 505b 863c f363 38be a3cb 903d
00000070: ab09 bc3d 8b47 8c3d df7f 0ebd 85e3 273d
00000080: 7be0 2cbe 951a 07be dcbc 953c 960b bbbd
00000090: 1303 9b3d 5f3a 09be 7a08 1c3e 6a06 fe3c
000000a0: 528d 423d 28d6 d239 149a 0f3e e368 b2bd
000000b0: 888c 243d 82c3 303e 91bf 1fbb 32b1 d7bd
000000c0: d35d a73c 1117 b8bc b14c b3bd 0eae 5cbe
000000d0: 93cc f339 6720 37bd 4fa1 0e3d ed14 09be
000000e0: 4807 8e3a f8ca df3c 64b2 913d d467 633d
000000f0: 9f83 9fbc d693 303c 1f46 79be f530 f83d
00000100: f173 b5bc b57e 51be 898b 143a afe9 6dbe
00000110: 8a0a c9bd 79ed ecbc 38d3 db3c 13ab dfbd
00000120: 3f69 14be ba40 fcbc 024d 753e cd15 91bd
00000130: 3a67 623c ee54 b1bd ec2c 44bd 7187 90be
00000140: 8721 c3bd a776 dd3d 0e6a d0bd 5bd1 043e
00000150: d4be 353d a40f 2a3e 17f3 f838 bcf1 a6bd
00000160: 914f 24bd d439 2fbd ca84 82bd c48b 2a3e
00000170: 34f3 ef3d 45e7 adbb 9911 113d 41a4 2f3d
00000180: 3395 de3c 3ae9 183d 672b f63c f85a 023d
00000190: 070e 00be a56c 32bc f1d1 9d3d 08ef 3e3e
000001a0: 0c91 233d 056c a1bd 5c3a dabd e775 4bbd
000001b0: 14bf c63d dbe3 e73d 02af c6bd 4851 fb3d
000001c0: 41de 92be 24b6 75bc 846f 123d 0202 b7bc
000001d0: 8ecc be3d dee7 dd3d 7ccf 19be ba3b c43d
000001e0: 5f6b 1cbe a579 13be 489f 77bd 0f08 7ebe
000001f0: 3c5c 88bd e8bf bebd 8838 1abc 0d6b 82be
00000200: 03da 133e bfc7 a53d e7fa 283c 454a 2c3e
00000210: d0c6 4dbe 0ebb 1ebe 520b 253e 06ca 82bd
00000220: 31d3 0abe 1e23 eabe 04a8 113e c656 02be
00000230: 7b83 53bb 47dd ca3d 2375 1c3e cc6d 9f3d
00000240: 4205 283e c224 1c3e e0f3 cabd 393a 203e
00000250: 26e2 e13d 0151 863c bd47 3d3e de65 5fbc
00000260: 8bbb 94bd 36bb 50be f1e1 ed3d 71ef 803d
00000270: c8d5 f73d 206a 25bd 69d6 2d3e be42 413e
00000280: 013c 9abd 671b 35be 163f 643d 3c8e 1cbe
00000290: 5335 b4be 8f8e 4abe c398 0ebe d42e ca3d
000002a0: 2927 08be 7159 af3e fabe d23d b39f f03d
000002b0: 9ac4 ba3d efd9 063e 7fae 123e aa35 b5bd
000002c0: e234 18be 1d9b e33c dd20 843d f586 e7bd
000002d0: 92b9 a9be 9c8d 46bd 9cdd 41bd 4c09 f0bb
000002e0: 6bc3 223e 03a4 28bf 6c92 603e 8cd7 5dbd
000002f0: 51b3 84be c095 56bd 7fd7 f23c cacb 4ebe
00000300: a3c3 61be afd2 81be 4af2 76be 3d3d e13d
00000310: 1df4 51be da17 61be 3bec 843e 5775 febd
00000320: f028 a83d 032b 06bd 8800 e53d baff bfbd
00000330: 9f99 c9bd 7dc8 c9bd 95cf 0e3e ed9a 9e3b
00000340: d2c6 d6bc 3212 13be b030 163e dea3 82be
00000350: 6c18 3c3e 47fa 1bbe cddd ebbe 613a 9d3c
00000360: b1d0 23be c764 07be d3c7 9fbe d254 823d
00000370: a374 e6bd a7c2 d43d 610b 683e b344 113e
00000380: 402a 11bd 2f7f 153d 1c10 3fbe 85d3 123e
00000390: 2825 413e f6e1 e83d 88a6 1d3d 5715 503e
000003a0: df4f 8c3e 3871 0e3e 61aa a2bd 6696 0bbd
000003b0: 87fb 363e 44d2 92bd 653a ffbc 86bc 25be
000003c0: c56a 16bd 07a4 24be 71a8 09bc 1c7c 1d3e
000003d0: fad0 f2bd c19b 0c3e a186 053e 3e5f 923d
000003e0: 74b4 10be fe2f fbbd 2d7b b83d 63fe 82bd
000003f0: 8dfe f03d e4f3 3bbe e4a2 b93e 431d 97bc

_impl.layers.2.linear.weight_g f4 [128, 1]
1.794343 -0.00030725732 1.2396517 0.87499577 0.8745231 0.75279224 2.184442 0.9310005
1.1654766 1.2279067 1.0365281 1.7484524 1.3277637 1.213357 1.4713172 1.5264335
1.452791 1.4222157 1.0393622 1.8248931 1.6571168 1.0983064 1.0112152 0.42950293
0.94503105 1.3049315 1.6033975 0.6322616 1.3122478 1.2611809 1.2567617 0.924735
1.0281795 1.0418445 1.2290597 1.3817148 1.382398 0.5001479 1.2634445 1.400551
0.12750562 0.6491451 1.5850824 0.9401316 1.1372269 1.1452221 1.1018724 1.3425208
0.63583696 1.0012072 1.5310898 1.251455 -0.0044113626 1.4479767 0.89185965 0.85627687
0.4958536 1.1457615 1.0380934 1.303956 0.24534093 0.9714567 1.3294213 1.1449953
1.1398827 1.5213414 1.533602 1.7306638 1.0791777 0.993569 0.924983 1.5865257
0.31279147 1.1371603 1.4907348 1.2779546 1.314326 1.3262554 1.7589148 1.3079612
1.2714741 1.3978864 1.1517161 0.9779648 1.2695471 2.040804 1.4993646 0.70591325
0.41254425 1.1783037 -0.00023310156 1.5272081 0.3595382 2.1568992 2.0545828 1.1033124
3.4265943 2.4286065 1.4557581 0.89509666 1.1347057 1.3012036 1.0656693 1.1887592
1.164101 1.287734 1.6604675 1.7153988 1.3295856 1.1105043 1.0712664 1.1663845
1.212423 1.4184002 0.95394504 0.58337444 1.1841695 0.117531404 1.2524097 1.0468163
1.0645984 0.4968702 0.9731371 2.1890855 1.2401307 1.1889796 1.5597485 1.3089176
00000000: 08ad e53f 6117 a1b9 e8ac 9e3f b9ff 5f3f
00000010: bfe0 5f3f feb6 403f e6cd 0b40 0c56 6e3f
00000020: 562e 953f 0c2c 9d3f f4ac 843f 4acd df3f
00000030: 29f4 a93f 484f 9b3f 1f54 bc3f 2c62 c33f
00000040: 0ef5 b93f 2a0b b63f d209 853f 1996 e93f
00000050: 671c d43f 4e95 8c3f 806f 813f cfe7 db3e
00000060: 8eed 713f ff07 a73f 213c cd3f e5db 213f
00000070: bcf7 a73f 606e a13f 91dd a03f 6fbb 6c3f
00000080: 639b 833f 295b 853f d451 9d3f 08dc b03f
00000090: 6bf2 b03f b109 003f 8db8 a13f 4145 b33f
000000a0: d590 023e 602e 263f fbe3 ca3f 77ac 703f
000000b0: a790 913f a396 923f 280a 8d3f b9d7 ab3f
000000c0: 36c6 223f 8f27 803f c0fa c33f ad2f a03f
000000d0: 318d 90bb 4d57 b93f ea50 643f f634 5b3f
000000e0: 86e0 fd3e 50a8 923f 3fe0 843f 08e8 a63f
000000f0: a73a 7b3e 63b1 783f 7a2a aa3f 358f 923f
00000100: ade7 913f 51bb c23f 124d c43f 6486 dd3f
00000110: 7f22 8a3f 8a5a 7e3f b0cb 6c3f 4613 cb3f
00000120: 3426 a03e 788e 913f 66d0 be3f 0494 a33f
00000130: d63b a83f bdc2 a93f 1f24 e13f 466b a73f
00000140: aabf a23f f1ed b23f 6f6b 933f e75b 7a3f
00000150: 8580 a23f 889c 0240 2eeb bf3f bbb6 343f
00000160: 0039 d33e a8d2 963f b96c 74b9 8e7b c33f
00000170: 6415 b83e a30a 0a40 497e 0340 5739 8d3f
00000180: 524d 5b40 4a6e 1b40 4856 ba3f 0e25 653f
00000190: 093e 913f d78d a63f da67 883f 4329 983f
000001a0: 4301 953f 78d4 a43f 338a d43f 3092 db3f
000001b0: dc2f aa3f 0125 8e3f 421f 893f 164c 953f
000001c0: ad30 9b3f 238e b53f be35 743f 0758 153f
000001d0: de92 973f 4eb4 f03d f64e a03f 14fe 853f
000001e0: c344 883f c565 fe3e 831f 793f fa19 0c40
000001f0: 9abc 9e3f 7c30 983f d7a5 c73f 9d8a a73f

_impl.layers.2.linear.bias f4 [128]
0.26014054 0.0026812726 -0.05830432 0.02354015 -0.063478835 -0.08728124 -0.08611782 0.027472248
-0.024582477 -0.012284694 -0.01882302 -0.008751927 -0.10214036 0.10785047 0.10057234 -0.013524289
-0.09621919 -0.07907443 0.054764118 0.21472338 -0.060389664 -0.08416068 0.026328264 0.0035347643
-0.015057979 0.019442018 -0.094556056 -0.0204784 0.034682382 0.09303845 -0.07134633 -0.10513792
0.04229674 -0.087680675 -0.021555979 -0.01465771 -0.13047439 -0.0771203 -0.09732297 -0.011285353
-3.0659787e-05 0.03354916 0.15927367 0.001495762 -0.07779773 -0.12122729 -0.1468548 -0.053790342
-0.00170965 -0.01930132 -0.018354947 0.0023234778 0.0033817992 0.11722 -0.05699833 -0.023950294
-0.03825605 -0.15909134 -0.01728654 -0.105282895 0.022111034 -0.06962637 -0.12850346 -0.10040565
-0.09453329 0.23670748 -0.13362762 -0.13583392 0.03206994 -0.005964429 -0.04285329 0.057244852
-0.019250078 -0.10955324 0.14476663 -0.10152429 0.1535666 -0.092088714 -0.020339984 -0.09711879
-0.07371013 0.10170309 -0.065674834 -0.05011567 -0.07067559 -0.21503672 -0.077450536 0.031343944
0.038087547 -0.1503402 -0.0053031016 0.04289723 0.00057222444 0.075468004 0.33122674 0.057097454
0.032361753 0.0658406 0.15489393 0.06198423 0.11142764 -0.04689391 -0.074749425 0.12340951
-0.024860667 -0.03914762 0.10006501 -0.033770677 0.0006369907 -0.1932897 -0.060951676 -0.079061
0.054655306 0.012116285 -0.03469875 -0.020421717 0.027762674 -0.0018175326 0.039119598 -0.13314588
-0.0930839 0.031147484 0.020125994 -0.15028451 -0.1080256 0.032989673 -0.067562394 0.005399202
00000000: 2431 853e 4ab8 2f3b 83d0 6ebd 46d7 c03c
00000010: 3101 82bd 82c0 b2bd 8a5e b0bd 7b0d e13c
00000020: 3161 c9bc be45 49bc bc32 9abc 3e64 0fbc
00000030: f72e d1bd b5e0 dc3d dff8 cd3d fb94 5dbc
00000040: 910e c5bd c6f1 a1bd 5750 603d 72e0 5b3e
00000050: 275b 77bd 6f5c acbd 5fae d73c 81a7 673b
00000060: beb5 76bc de44 9f3c 9ba6 c1bd 51c2 a7bc
00000070: 1d0f 0e3d f18a be3d 061e 92bd 8d52 d7bd
00000080: 593f 2d3d ed91 b3bd 2a96 b0bc e426 70bc
00000090: 149b 05be 3ff1 9dbd 4451 c7bd 34e6 38bc
000000a0: b298 00b8 d86a 093d a318 233e 720d c43a
000000b0: 6b54 9fbd 0346 f8bd 1b61 16be 4353 5cbd
000000c0: 5616 e0ba cd1d 9ebc 1d5d 96bc 7d45 183b
000000d0: 2da1 5d3b 0a11 f03d 1577 69bd 6833 c4bc
000000e0: 60b2 1cbd d7e8 22be 809c 8dbc 8f9e d7bd
000000f0: 3322 b53c 4598 8ebd 6996 03be 7aa1 cdbd
00000100: ab9a c1bd 7263 723e aed5 08be 0c18 0bbe
00000110: c55b 033d 4271 c3bb ee86 2fbd 9479 6a3d
00000120: 57b2 9dbc 735d e0bd b43d 143e f8eb cfbd
00000130: 9040 1d3e 0299 bcbd 0aa0 a6bc 37e6 c6bd
00000140: 56f5 96bd b649 d03d 8780 86bd 1746 4dbd
00000150: 5dbe 90bd 9632 5cbe 639e 9ebd 8262 003d
00000160: b001 1c3d c8f2 19be a4c5 adbb 01b5 2f3d
00000170: 5501 163a f88e 9a3d 8d96 a93e 05df 693d
00000180: c28d 043d 70d7 863d 849c 1e3e 2de3 7d3d
00000190: 2d34 e43d d413 40bd 3a16 99bd 20be fc3d
000001a0: 99a8 cbbc 4159 20bd e2ee cc3d 1f53 0abd
000001b0: b9fb 263a bced 45be 77a8 79bd bcea a1bd
000001c0: 3ede 5f3d 6283 463c 4720 0ebd 724b a7bc
000001d0: 8c6e e33c 463a eeba df3b 203d 6557 08be
000001e0: c6a2 bebd 0229 ff3c 45df a43c 2fe4 19be
000001f0: 873c ddbd 2e20 073d 275e 8abd caeb b03b

_impl.layers.3.linear.weight f4 [128, 128]
0.10769972 0.0027116796 -0.23870052 0.08425348 0.070662595 -0.08109529 -0.25409204 0.06336584
0.10759188 -0.13226275 -0.015007161 0.043479387 -0.01656045 -0.11370547 0.020947661 0.03346114
0.056234147 0.21023723 0.13389175 -0.0053213737 -0.15467893 -0.1666109 -0.019672917 -0.0014931117
0.10336129 0.050076965 -0.35504043 0.10842508 -0.0021596777 -0.043765582 0.10236021 -0.029032337
0.008732599 0.07741059 -0.14619826 0.059987806 -0.06603368 -0.006599138 0.06278157 -0.32357654
-0.0008545254 -0.022287153 0.04006318 0.13084471 -0.17943004 -0.12127655 -0.16980878 0.09593211
0.14160275 -0.04697549 0.44100174 0.08998541 0.0014786603 -0.08968931 0.06763744 0.24546154
0.0017197522 -0.0032533857 -0.058240667 0.02750085 0.0047272 0.0018636513 -0.13700788 -0.1281537
-0.14414746 0.57260925 -0.16005124 -0.15430701 -0.19298805 -0.04656644 0.1239812 0.1836324
-0.0022282735 0.12159086 0.06454867 -0.3291032 0.07252237 0.075495645 0.025106743 -0.10496639
-0.24035366 -0.14489195 0.098063126 0.15446478 -0.19064175 -0.24908935 0.10618207 -0.042962074
-0.00046938934 0.042415068 -0.06919611 -0.11197717 -0.12155229 0.16554327 0.6150133 0.019460898
0.024257924 -0.05975176 0.07147045 -0.09387179 -0.15432009 0.056240212 -0.048156522 0.051754124
0.032821618 -0.20982422 0.07369374 -0.0485183 0.08180469 -0.15697809 0.2510674 0.104942486
0.042703964 -0.08583068 0.13292564 0.09836935 0.13254428 0.09702593 -0.03673406 -0.048289068
-0.10209155 -0.008673846 -0.02269118 -0.37978482 -0.130279 -0.29017487 0.17761432 -0.12707008
0.009539524 0.1831326 0.060302716 0.00050844497 0.16496776 0.04751159 0.21769978 -0.06028211
0.06016416 0.1763675 0.1627206 -0.12796302 -0.05322708 0.022694398 0.13425209 -0.25952193
0.17307852 -0.08906708 -0.08237864 -0.15996498 0.10464293 -0.03285451 -0.12500486 0.11300081
0.14899081 -0.038674325 0.03791581 0.047939815 -0.10254074 -0.10871644 -0.22880656 0.09927353
-0.08384379 -0.3301445 0.016438074 0.05904516 0.04839936 -0.15898156 0.07846976 -0.13667163
-0.034547053 -0.24383013 0.02357496 0.20430566 -0.025554707 -0.4260539 -0.18966852 0.029044287
-0.113191254 -0.059005834 0.04391149 0.08251578 -0.22587453 -0.037863612 0.11924169 -0.01744442
0.12019601 -0.39339867 -0.14950415 -0.24840403 -0.015712343 0.20720637 -0.4451911 0.07848358
-0.26818496 0.19291009 -0.032387845 0.19471602 0.073754214 -0.069686905 0.04479418 0.2841568
-0.24837606 -0.28987685 -0.06316854 -0.021182666 0.06696443 0.101550296 -0.17664333 -0.04822827
-0.075868785 -0.14849779 0.14768448 0.18588687 -0.025813913 0.09331949 -0.25193286 0.11716534
0.04137892 -0.039800514 0.14205688 0.008459158 -0.028671842 0.32036367 0.084747784 0.08826984
0.33293572 0.35228854 -0.06963058 0.0049725473 -0.08076204 -0.056639034 0.00078553916 0.041060396
0.086975425 -0.0055016237 -0.09276586 0.21484789 -0.06154032 -0.45922297 0.15840949 -0.22567113
0.086483255 -0.06828919 -0.03191336 -0.12427752 -0.13279724 -0.148905 0.1586783 -0.5469233
-0.46031713 0.06929345 -0.038656235 0.11437516 -0.30274153 -0.08299323 0.07325923 -0.015072947
00000000: ac91 dc3d 6fb6 313b e96d 74be 178d ac3d
00000010: 8db7 903d 4a15 a6bd 5a18 82be f3c5 813d
00000020: 2259 dc3d e36f 07be 98e0 75bc 7117 323d
00000030: c8a9 87bc 6ade e8bd 6e9a ab3c 8c0e 093d
00000040: c755 663d 6e48 573e eb1a 093e eb5e aebb
00000050: 2764 1ebe 0c9c 2abe 1929 a1bc 84b4 c3ba
00000060: 16af d33d 811d 4d3d dcc7 b5be f80d de3d
00000070: 6189 0dbb 8a43 33bd 3ba2 d13d 39d5 edbc
00000080: 2d13 0f3c 7289 9e3d ffb4 15be c6b5 753d
00000090: ab3c 87bd 953d d8bb a093 803d d3ab a5be
000000a0: 3b02 60ba 8c93 b6bc 4a19 243d 28fc 053e
000000b0: 82bc 37be d75f f8bd 5ae2 2dbe 0e78 c43d
000000c0: 5000 113e 5f69 40bd fbca e13e 454a b83d
000000d0: 9bcf c13a 07af b7bd 8085 8a3d 455a 7b3e
000000e0: 4f69 e13a c136 55bb c48d 6ebd 7649 e13c
000000f0: a1e6 9a3b c345 f43a cb4b 0cbe b93a 03be
00000100: 649b 13be 8596 123f 79e4 23be a802 1ebe
00000110: a99e 45be 74bc 3ebd dbe9 fd3d 220a 3c3e
00000120: 3a08 12bb a104 f93d 1832 843d 3780 a8be
00000130: 9c86 943d 769d 9a3d a8ac cd3c 9ef8 d6bd
00000140: 451f 76be 8e5e 14be 52d5 c83d 042c 1e3e
00000150: 9737 43be 4711 7fbe fc75 d93d 00f9 2fbd
00000160: 5f18 f6b9 6cbb 2d3d b1b6 8dbd 4954 e5bd
00000170: 68f0 f8bd 2d84 293e 8371 1d3f 766c 9f3c
00000180: 8eb8 c63c 43be 74bd 195f 923d da3f c0bd
00000190: 1606 1ebe 235c 663d c63f 45bd 22fc 533d
000001a0: f66f 063d 29dc 56be beec 963d 20bb 46bd
000001b0: 3889 a73d ddbe 20be e88b 803e 16ec d63d
000001c0: 5aea 2e3d ffc7 afbd a91d 083e df75 c93d
000001d0: b0b9 073e 88b5 c63d 7476 16bd c2ca 45bd
000001e0: 6015 d1bd bf1c 0ebc dbe2 b9bc 2873 c2be
000001f0: dc67 05be cd91 94be 87e0 353e a91e 02be
00000200: aa4b 1c3c 1d87 3b3e fbff 763d 2a49 053a
00000210: 4fed 283e 839b 423d b1ec 5e3e 60ea 76bd
00000220: b26e 763d af99 343e 3ba0 263e bd08 03be
00000230: a304 5abd 9ae9 b93c 6179 093e 0fe0 84be
00000240: 7f3b 313e cd68 b6bd 22b6 a8bd dccd 23be
00000250: 084f d63d 7392 06bd 4601 00be f86c e73d
00000260: 0c91 183e f868 1ebd 9c4d 1b3d 8a5c 443d
00000270: e100 d2bd baa6 debd 444c 6abe ec4f cb3d
00000280: 4bb6 abbd b308 a9be 24a9 863c 56d9 713d
00000290: 683e 463d 10cc 22be c1b4 a03d a6f3 0bbe
000002a0: 3681 0dbd 9bae 79be 4620 c13c 8135 513e
000002b0: 1b58 d1bc bd23 dabe 7738 42be 49ee ed3c
000002c0: d1d0 e7bd 1ab0 71bd 89dc 333d 09fe a83d
000002d0: a74b 67be e016 1bbd fd34 f43d 9ae7 8ebc
000002e0: 5329 f63d 8d6b c9be 9e17 19be a05d 7ebe
000002f0: 2cb7 80bc e82d 543e 16f0 e3be 00bc a03d
00000300: 8a4f 89be 398a 453e 1ea9 04bd a363 473e
00000310: 730c 973d 02b8 8ebd 1a7a 373d 007d 913e
00000320: 4b56 7ebe bd6a 94be 825e 81bd 4587 adbc
00000330: a624 893d 9af9 cf3d fde1 34be 028b 45bd
00000340: 1861 9bbd ce0f 18be 9a3a 173e 2159 3e3e
00000350: b377 d3bc 4a1e bf3d 58fd 80be 62f4 ef3d
00000360: f17c 293d dd05 23bd 5c77 113e 4898 0a3c
00000370: 36e1 eabc b506 a43e 3f90 ad3d d1c6 b43d
00000380: 8d76 aa3e 2a5f b43e 7a9a 8ebd c0f0 a23b
00000390: 9266 a5bd 55fe 67bd a4ec 4d3a f22e 283d
000003a0: 2c20 b23d f746 b4bb 07fc bdbd 1601 5c3e
000003b0: b411 7cbd 461f ebbe 1936 223e 5516 67be
000003c0: 221e b13d 34db 8bbd 95b7 02bd 3685 febd
000003d0: 00fc 07be 8d7a 18be 907c 223e 2a03 0cbf
000003e0: b0ae ebbe b9e9 8d3d 0056 1ebd 863d ea3d
000003f0: f000 9bbe 5bf8 a9bd ef08 963d 86f4 76bc

_impl.layers.3.linear.weight_g f4 [128, 1]
0.9859591 0.9508672 0.43889382 0.7677986 0.75962883 0.7888878 1.2476505 1.5474261
0.6316089 1.0125966 1.2630595 1.567645 0.4790784 1.0373645 0.7690296 4.5066495
1.0519923 0.9020946 0.37891608 1.346745 1.0088104 1.02365 0.6740641 1.0110421
0.053836375 0.8602987 1.2621279 0.2553841 1.2809544 1.4168756 0.5063603 0.4105541
1.223408 1.0422021 0.9119073 0.5575503 0.694456 0.65817213 0.41044912 1.1585147
0.50942737 0.10126774 0.8250431 1.2267145 1.0350593 0.59270054 0.72120357 1.2576199
1.5972699 0.5002983 0.8403192 0.391604 0.68383694 0.79636806 1.3162471 0.9336488
1.1237658 0.79850477 1.1295363 1.5415866 1.1511748 0.2668532 0.83350223 0.50714
0.9617156 1.4696184 1.8652669 1.3486667 1.2145959 1.0433402 2.1660657 0.9265206
0.83651567 1.7056721 1.4986598 1.1954881 1.0393199 1.0450069 0.7897102 1.099747
1.3097683 0.42389756 0.8534989 1.3619965 3.0638056 1.149645 1.2332295 1.1019981
0.46480536 4.723242 0.9519696 0.98778903 0.937219 0.7006813 0.33624092 0.5827192
1.3559488 1.3086289 1.059734 1.2737582 0.7773208 1.4756306 0.84625685 1.4326522
1.0678654 1.3293993 0.3423799 1.3242863 1.7975076 0.95723575 1.1342765 0.32542452
0.7220287 0.2874038 1.063981 0.8012747 1.0406414 0.91412306 2.279463 0.9421168
1.6628255 0.9012059 0.6591155 1.0644448 0.9710259 0.93464506 1.6243544 -0.00037414595
00000000: d167 7c3f 086c 733f b1b6 e03e 738e 443f
00000010: 0977 423f 8df4 493f 03b3 9f3f 0f12 c63f
00000020: 1fb1 213f c49c 813f efab a13f 97a8 c83f
00000030: c449 f53e 5cc8 843f 20df 443f 7936 9040
00000040: afa7 863f acef 663f 4a01 c23e 2462 ac3f
00000050: b320 813f f706 833f 778f 2c3f d469 813f
00000060: 8883 5c3d 893c 5c3f 688d a13f b4c1 823e
00000070: 50f6 a33f 2e5c b53f d4a0 013f 2634 d23e
00000080: a298 9c3f e166 853f c272 693f 9ebb 0e3f
00000090: dec7 313f f87d 283f 6326 d23e 364a 943f
000000a0: d569 023f 7665 cf3d 0636 533f fb04 9d3f
000000b0: d37c 843f 39bb 173f cca0 383f b0f9 a03f
000000c0: 5773 cc3f 8d13 003f 291f 573f 5280 c83e
000000d0: f00f 2f3f c7de 4b3f c97a a83f 9c03 6f3f
000000e0: 8fd7 8f3f cf6a 4c3f a594 903f b652 c53f
000000f0: b259 933f fca0 883e 6760 553f edd3 013f
00000100: fe32 763f 751c bc3f 11c1 ee3f 1ca1 ac3f
00000110: e177 9b3f 2c8c 853f d2a0 0a40 7430 6d3f
00000120: e425 563f 7753 da3f 16d4 bf3f c105 993f
00000130: 6f08 853f c9c2 853f 732a 4a3f 82c4 8c3f
00000140: 7da6 a73f 1a09 d93e e77e 5a3f e755 ae3f
00000150: 6415 4440 9127 933f 77da 9d3f 460e 8d3f
00000160: f8fa ed3e cc24 9740 48b4 733f bedf 7c3f
00000170: 96ed 6f3f da5f 333f c527 ac3e 162d 153f
00000180: bb8f ad3f 2781 a73f 5da5 873f 820a a33f
00000190: 7ffe 463f 77e1 bc3f 4aa4 583f 2661 b73f
000001a0: d0af 883f c229 aa3f 6b4c af3e 3782 a93f
000001b0: bb14 e63f 670d 753f f92f 913f 0b9e a63e
000001c0: dfd6 383f 9726 933e 8830 883f 5720 4d3f
000001d0: bd33 853f f803 6a3f b9e2 1140 912e 713f
000001e0: 77d7 d43f 6eb5 663f cbbb 283f ba3f 883f
000001f0: 2795 783f e644 6f3f d8ea cf3f 0529 c4b9

_impl.layers.3.linear.bias f4 [128]
0.13282774 0.12886856 -0.026371604 0.047580242 -0.003987039 -0.2693036 -0.13217117 -0.107572
-0.12802796 -0.14548814 -0.17094542 -0.3350109 0.07141831 -0.059825458 0.051749837 -0.06640599
0.42437148 -0.16069384 -0.0493953 0.030761173 0.036089726 -0.18124923 0.06988902 0.15843642
-0.019828701 -0.10392023 -0.25899628 -0.024057405 -0.26506206 0.14639269 -0.032547217 -0.047623143
-0.22045822 -0.060738683 0.061342128 0.018735155 0.089669436 0.0018646965 -0.07680493 -0.22051577
0.0024682432 -0.028246934 0.059642233 -0.22471344 -0.1703869 0.042528927 -0.01877489 -0.03927011
-0.2372352 0.047761366 -0.019994443 -0.059362706 0.07606842 -0.18487264 -0.2201075 0.1440976
-0.205277 0.00014758208 0.10065865 -0.17046525 0.10022398 -0.096095935 -0.03686145 -0.019000145
-0.034251664 0.030658582 -0.0064673675 0.10520542 -0.26573038 -0.18220279 -0.07512994 0.05463458
0.04786155 -0.03585464 -0.12796073 0.113188036 -0.17385787 -0.08720794 -0.03902661 0.23809013
-0.24856745 0.058914747 -0.03537982 -0.16250192 0.10306857 -0.085331224 -0.06897218 -0.055867516
0.0002112252 -0.072026566 0.13908476 -0.0356161 -0.05449256 0.2805544 -0.04434117 0.15547793
-0.29901364 -0.21266353 0.015204031 -0.27596587 0.0036608367 -0.0173554 0.033054743 -0.09833527
-0.20333214 -0.19691269 -0.034870453 -0.16553386 -0.13742624 -0.1173124 0.16070083 0.026356118
0.20538592 -0.02924182 -0.18440859 -0.118928775 0.01893471 0.045442317 -0.1572166 0.03518531
-0.29092476 0.26877883 -0.06811483 -0.15674695 -0.011536934 -0.015081166 -0.1508282 -0.005383051
00000000: ff03 083e 1ff6 033e 4309 d8bc 80e3 423d
00000010: b5a5 82bb 29e2 89be e157 07be b54e dcbd
00000020: c319 03be d8fa 14be 510c 2fbe 8c86 abbe
00000030: c343 923d 8a0b 75bd a3f7 533d ddff 87bd
00000040: 3847 d93e ed8c 24be ba52 4abd dbfe fb3c
00000050: d2d2 133d 6699 39be f921 8f3d 283d 223e
00000060: cd6f a2bc 21d4 d4bd 299b 84be 0914 c5bc
00000070: 37b6 87be f7e7 153e 3b50 05bd 7c10 43bd
00000080: cdbf 61be 20c9 78bd e241 7b3d 787a 993c
00000090: 9ca4 b73d d568 f43a e74b 9dbd e3ce 61be
000000a0: 40c2 213b 1d66 e7bc 6a4b 743d 481b 66be
000000b0: e779 2ebe d032 2e3d cccd 99bc b2d9 20bd
000000c0: c9ed 72be 6ca1 433d 63cb a3bc 4f26 73bd
000000d0: c3c9 9b3d 414f 3dbe dc63 61be 528e 133e
000000e0: 2234 52be 43c0 1a39 1f26 ce3d 718e 2ebe
000000f0: 3b42 cd3d f2cd c4bd 08fc 16bd 31a6 9bbc
00000100: 794b 0cbd b527 fb3c 36ec d3bb f075 d73d
00000110: d00d 88be 5e93 3abe badd 99bd 82c8 5f3d
00000120: 790a 443d 51dc 12bd 2308 03be 21cf e73d
00000130: cc07 32be 149a b2bd 5eda 1fbd e6cd 733e
00000140: 7788 7ebe 9750 713d 6eea 10bd e766 26be
00000150: 9d15 d33d 23c2 aebd 4941 8dbd 56d5 64bd
00000160: 557c 5d39 aa82 93bd 3c6c 0e3e 30e2 11bd
00000170: 9733 5fbd d4a4 8f3e 169f 35bd 9b35 1f3e
00000180: 5118 99be 78c4 59be 541a 793c 664b 8dbe
00000190: a6ea 6f3b e92c 8ebc 6964 073d 0164 c9bd
000001a0: 4d36 50be 7ba3 49be 52d4 0ebd b581 29be
000001b0: 77b9 0cbe 7c41 f0bd c28e 243e c9e8 d73c
000001c0: b050 523e 8b8c efbc 9bd5 3cbe ee90 f3bd
000001d0: f71c 9b3c b921 3a3d 63fd 20be 791e 103d
000001e0: 17f4 94be 619d 893e ca7f 8bbd 4682 20be
000001f0: 6905 3dbc ff16 77bc b572 1abe 4e64 b0bb
