3d_solid_solid/outputs/fully_connected/heat_net.0.pth (torch, 343266 bytes, 19 tensors)

_impl.layers.0.linear.weight f4 [128, 3]
-0.077437885 -0.034521665 0.33975255 0.01550844 -0.061521117 0.5057516 0.1802955 0.14262068
0.094307564 0.20805508 0.16611873 0.10871725 0.012276639 0.0025078699 1.0042971 0.08638148
-0.3730134 -0.06006034 -0.032542307 -0.08352493 0.21309696 -0.10118102 -0.12812936 -0.28825065
-0.02335789 0.1425688 -0.14032476 0.13105972 -0.18306276 -0.16220886 -0.15618835 -0.23191401
-0.10270362 -0.076989256 0.111764565 0.28956297 0.027260564 0.47088167 -0.2241544 -0.025116013
0.57029444 -0.09706153 -0.07799207 0.05772919 0.49374998 0.1712604 0.12741154 0.08938291
-0.0021072647 0.5167668 -0.1068038 -0.015926074 -0.08738175 0.3092733 -0.047671657 0.20769724
-0.3313922 -0.0138778 -0.004876829 0.46298203 -0.07227591 -0.00944396 0.26265538 -0.08222109
0.19358431 0.20406963 0.106361 -0.2467441 -0.11733056 0.12176967 -0.0774635 -0.24337953
0.23822854 0.19372652 0.121681854 0.040172048 1.0052631 -0.061281897 -0.032613374 -0.05654664
0.36235303 -0.05319365 -0.056494646 0.33533412 -0.056911882 -0.033677418 0.27930313 0.11435733
-0.30025792 -0.14444683 0.057854693 0.067041 -0.41549066 0.18137972 0.13361585 0.09438811
-0.06876326 -0.08031894 -0.3243154 -0.11626091 -0.24690855 -0.027848937 -0.3915854 0.07098903
0.015108903 -0.03631385 -0.055768088 0.32492954 -0.17174007 0.2648548 0.12625174 0.08976875
0.07382021 -0.37996852 0.0047520013 -1.0713216 -0.03008956 0.034436636 -0.25748798 0.13058865
0.07747427 0.042971104 -0.56769884 0.050234176 -0.23600943 0.15224142 0.02556134 -0.16565928
0.2286866 -0.034716025 -0.09601058 0.3180794 0.14727147 -0.09191796 -0.3288488 0.029821483
-0.15571533 -0.23832634 -0.032980476 -0.09742012 0.24244022 -0.01650999 -0.122640975 0.1900915
0.090110965 -0.060303878 -0.2533584 0.040016744 0.09534825 -0.45899025 -9.48782e-05 -0.17113689
0.30527005 -0.086112626 -0.20832096 -0.021492355 -0.018951515 0.3071069 -0.06186287 -0.087091796
0.28195554 -0.06945659 0.058275383 0.061338313 -0.26890656 -0.055009946 -0.08004816 0.35240147
-0.15696698 -0.33550444 0.124250405 -0.034079984 -0.03403742 0.3645777 0.1302431 -0.12830748
-0.21411854 -0.08676688 -0.15204445 0.33549476 -0.13151726 0.22925302 0.18161348 -0.122498505
-0.26652953 -0.10715778 -0.089779995 0.07837674 0.29748583 -0.055952042 -0.09871209 0.28729177
0.16340172 0.11262613 0.084481314 -0.10711095 0.11710262 0.26498842 0.20213312 0.16182473
0.10484226 -0.1036037 0.2062204 0.13607691 0.065643266 -0.30113277 0.016012276 -0.19132856
-0.24044913 -0.08249634 -0.050448265 0.16173755 -0.16700348 -0.075875744 -0.07943334 0.31170398
-0.04473019 0.00888805 0.29328188 -0.081159845 -0.015917253 0.31198928 -0.09751879 0.19590655
0.1837622 -0.094544046 0.113814734 0.2035071 0.084624656 -0.3093204 0.06797164 -0.089632206
0.048952542 0.25070375 0.05698842 -0.19038707 0.17060713 0.14774464 0.10659559 0.07688036
-0.05045154 0.050790638 0.25579292 0.06273189 -0.25703675 0.21464798 0.012794781 0.5778891
-0.16106732 0.059141383 0.025250716 -0.40806228 -0.06887358 -0.24357662 -0.11921842 0.19489574
00000000: c197 9ebd 9766 0dbd 0cf4 ad3e 1d17 7e3c
00000010: 91fd 7bbd f078 013f 629f 383e 280b 123e
00000020: 5324 c13d 640c 553e 071b 2a3e 26a7 de3d
00000030: f523 493c 135b 243b cf8c 803f c6e8 b03d
00000040: 9dfb bebe d501 76bd 154b 05bd 1e0f abbd
00000050: 1736 5a3e ff37 cfbd 5834 03be 9795 93be
00000060: 0c59 bfbc 8efd 113e 4bb1 0fbe 8534 063e
00000070: ce74 3bbe 141a 26be d7ef 1fbe de7a 6dbe
00000080: 4756 d2bd 8bac 9dbd d2e4 e43d 9941 943e
00000090: 8c51 df3c 6717 f13e bb88 65be 19c0 cdbc
000000a0: d1fe 113f 32c8 c6bd 4eba 9fbd 7175 6c3d
000000b0: cccc fc3e e35e 2f3e 2c78 023e 630e b73d
000000c0: 091a 0abb d44a 043f f3bb dabd 6677 82bc
000000d0: 34f5 b2bd 1259 9e3e 5b43 43bd 96ae 543e
000000e0: 3dac a9be b65f 63bc cfcd 9fbb fb0b ed3e
000000f0: 6405 94bd d7ba 1abc c47a 863e 8863 a8bd
00000100: f73a 463e a1f7 503e ccd3 d93d 7caa 7cbe
00000110: 014b f0bd 6062 f93d 2fa5 9ebd 7c38 79be
00000120: 2ff2 733e 3f60 463e 5634 f93d 728b 243d
00000130: 76ac 803f ba02 7bbd 9a95 05bd 739d 67bd
00000140: 5686 b93e 96e1 59bd ee66 67bd eab0 ab3e
00000150: 6f1c 69bd 55f1 09bd d200 8f3e 2d34 ea3d
00000160: 68bb 99be dfe9 13be 0bf9 6c3d cb4c 893d
00000170: 31bb d4be 9bbb 393e 98d2 083e 8e4e c13d
00000180: c1d3 8cbd 427e a4bd ab0c a6be 331a eebd
00000190: 98d5 7cbe 7423 e4bc e27d c8be b262 913d
000001a0: 558b 773c d5bd 14bd 146d 64bd 2a5d a63e
000001b0: a1dc 2fbe 0c9b 873e 2348 013e aed8 b73d
000001c0: 0d2f 973d 3c8b c2be adb6 9b3b 1121 89bf
000001d0: 627e f6bc 6e0d 0d3d 77d5 83be 08b9 053e
000001e0: d4aa 9e3d 7802 303d b654 11bf 5ac2 4d3d
000001f0: 75ac 71be 2de5 1b3e 0466 d13c 96a2 29be
00000200: d22c 6a3e 6432 0ebd 32a1 c4bd 4edb a23e
00000210: 55ce 163e 7c3f bcbd df5e a8be 2f4c f43c
00000220: d773 1fbe d20b 74be 8916 07bd 3384 c7bd
00000230: 4042 783e f53f 87bc 312b fbbd 59a7 423e
00000240: 198c b83d 3301 77bd 31b8 81be 99e8 233d
00000250: f145 c33d c500 ebbe 59f9 c6b8 823e 2fbe
00000260: 5b4c 9c3e d15b b0bd 1752 55be bc10 b0bc
00000270: 3540 9bbc 1e3d 9d3e ec63 7dbd 2f5d b2bd
00000280: 7a5c 903e 423f 8ebd 2bb2 6e3d e23d 7b3d
00000290: 1fae 89be 1c52 61bd 4af0 a3bd f76d b43e
000002a0: f4bb 20be 3dc7 abbe ff76 fe3d 7497 0bbd
000002b0: d26a 0bbd eea9 ba3e 725e 053e 0963 03be
000002c0: e441 5bbe d5b2 b1bd 8ab1 1bbe f8c5 ab3e
000002d0: 76ac 06be 4ec1 6a3e e2f8 393e 7fe0 fabd
000002e0: 8f76 88be 8a75 dbbd 93de b7bd fc83 a03d
000002f0: 1050 983e f82d 65bd 9029 cabd e817 933e
00000300: c852 273e 87a8 e63d 8a04 ad3d fc5c dbbd
00000310: 80d3 ef3d 90ac 873e fcfb 4e3e 62b5 253e
00000320: 8ab7 d63d 2d2e d4bd 712b 533e bf57 0b3e
00000330: fa6f 863d 132e 9abe 2d2c 833c a2eb 43be
00000340: 4c38 76be d7f3 a8bd d7a2 4ebd 879e 253e
00000350: f602 2bbe be64 9bbd f2ad a2bd aa97 9f3e
00000360: 0137 37bd 2f9f 113c 0b29 963e 2237 a6bd
00000370: e664 82bc 0fbd 9f3e eeb7 c7bd ba9b 483e
00000380: 282c 3c3e 4fa0 c1bd b317 e93d 2a64 503e
00000390: b14f ad3d 3e5f 9ebe b734 8b3d 1791 b7bd
000003a0: 7682 483d 3e5c 803e b16c 693d d4f4 42be
000003b0: a3b3 2e3e 5f4a 173e ca4e da3d 7373 9d3d
000003c0: 46a6 4ebd d809 503d 4af7 823e 9479 803d
000003d0: 529a 83be aecc 5b3e 33a1 513c 8af0 133f
000003e0: d5ee 24be 3c3e 723d 97da ce3c 8aed d0be
000003f0: 970d 8dbd 266c 79be c928 f4bd c092 473e

_impl.layers.0.linear.weight_g f4 [128, 1]
1.3107338 0.9547626 1.6356735 1.5187376 0.91482615 1.3868208 1.1042806 1.0318148
1.4365332 1.2285819 1.0267103 1.1712116 1.1598985 1.2878087 0.9401279 1.6465738
1.3497555 1.1621176 1.1844745 1.0633134 1.0117747 1.0346057 1.2667395 1.2682052
1.5392567 1.375225 1.0129418 1.2467567 1.1254603 1.2396102 1.1141049 1.607407
1.1193109 1.0274292 0.9168273 1.1578755 1.3480204 1.2862215 1.3285754 1.4080298
1.1316501 1.4125377 1.2882982 1.3307797 1.3270227 1.0316955 1.285923 1.2090815
1.1577965 1.0860076 1.4647679 1.0495539 2.7681582 1.5618074 1.3100828 1.1041472
0.9969004 1.170813 1.2221575 1.3589654 1.0468494 1.0145817 1.1784256 1.3812982
1.6426557 1.096608 1.6509567 1.1186758 1.4359134 1.0328778 1.1372598 1.2981902
1.0048013 1.3080583 1.0272299 1.1590428 1.3546923 1.2820274 1.3943154 1.6828312
0.8893691 1.5137023 1.5047702 1.1350186 0.9570813 1.6217036 1.4400796 1.6128184
1.1463737 1.4556692 0.9856813 0.9729973 1.4889398 1.0579115 1.0515907 0.98154104
1.7116501 1.3944051 0.96579856 0.98504835 1.6410748 1.0058947 1.6026115 1.1342301
1.517196 1.2473339 1.0987777 1.5782361 1.530046 1.6056029 1.186226 0.9926093
1.4362512 1.6250445 1.140959 1.210911 1.0075729 1.2250007 1.1139661 1.0752822
1.6070086 1.0498289 1.0431254 1.264951 1.5388142 1.0009145 1.115857 1.1625618
00000000: 20c6 a73f 526b 743f c05d d13f fe65 c23f
00000010: 0c32 6a3f 5883 b13f 1159 8d3f 8212 843f
00000020: 52e0 b73f 2c42 9d3f 3e6b 833f 43ea 953f
00000030: 8e77 943f ead6 a43f 39ac 703f eec2 d23f
00000040: cac4 ac3f 45c0 943f dc9c 973f a71a 883f
00000050: d581 813f f66d 843f 8524 a23f 8c54 a23f
00000060: 5d06 c53f 5f07 b03f 14a8 813f b995 9f3f
00000070: 150f 903f 8cab 9e3f fd9a 8e3f 83bf cd3f
00000080: 9445 8f3f cd82 833f 32b5 6a3f 4435 943f
00000090: ef8b ac3f e8a2 a43f c20e aa3f 523a b43f
000000a0: e9d9 903f 09ce b43f f5e6 a43f fd56 aa3f
000000b0: e1db a93f 990e 843f 2099 a43f 2fc3 9a3f
000000c0: ad32 943f 4c02 8b3f 847d bb3f c857 863f
000000d0: 8129 3140 4ee9 c73f cbb0 a73f b254 8d3f
000000e0: dd34 7f3f 33dd 953f a86f 9c3f 94f2 ad3f
000000f0: 29ff 853f d0dd 813f a6d6 963f 61ce b03f
00000100: 8b42 d23f a75d 8c3f 8d52 d33f c530 8f3f
00000110: 03cc b73f 5735 843f bb91 913f 192b a63f
00000120: 549d 803f 746e a73f 457c 833f 845b 943f
00000130: 8f66 ad3f 7919 a43f ed78 b23f 0367 d73f
00000140: b1ad 633f ffc0 c13f 4f9c c03f 4a48 913f
00000150: 4803 753f fc93 cf3f 8754 b83f d570 ce3f
00000160: 60bc 923f 5e53 ba3f 9c55 7c3f 5a16 793f
00000170: 9495 be3f a569 873f 869a 863f 4646 7b3f
00000180: 5a17 db3f de7b b23f 933e 773f 212c 7c3f
00000190: bd0e d23f 28c1 803f 6022 cd3f 742e 913f
000001a0: 7b33 c23f a3a8 9f3f bfa4 8c3f a403 ca3f
000001b0: 8cd8 c33f 6584 cd3f 41d6 973f a51b 7e3f
000001c0: 14d7 b73f 7501 d03f f20a 923f 22ff 9a3f
000001d0: 26f8 803f d3cc 9c3f 7196 8e3f d9a2 893f
000001e0: 75b2 cd3f cb60 863f 2285 853f eae9 a13f
000001f0: ddf7 c43f f71d 803f 67d4 8e3f d3ce 943f

_impl.layers.0.linear.bias f4 [128]
0.18934451 0.2922296 -0.56761104 -0.5695712 0.31596714 -0.12623411 0.08295453 -0.16867967
-0.03441037 -0.1693918 -0.1459573 0.3226112 -0.06549658 0.032157745 0.25564924 -0.55390835
-0.020435425 0.21333233 -0.10226037 0.33270717 0.14149164 0.27944466 -0.17655219 -0.15530185
-0.57986975 -0.1530724 0.2180102 0.20395227 0.17215407 -0.15741552 -0.18826452 -0.48670813
-0.17405231 -0.18373767 -0.210628 0.22342394 0.18891336 -0.12700024 -0.21153907 0.066582665
-0.21572466 0.10535837 0.13355052 0.18699414 -0.18038335 -0.19077145 0.10380168 0.014739076
-0.21285808 -0.20099689 0.1561683 -0.16660048 -0.024469072 0.20116319 -0.13031745 0.15697858
-0.30232906 0.27924046 -0.17966442 0.022162676 0.19676419 -0.16360581 0.26425534 0.09940878
-0.4997013 0.23082359 -0.5413609 0.21091375 0.020577673 -0.14980814 -0.05870209 0.095582016
0.24877422 0.18832009 0.23109497 0.24227276 0.07912351 0.21613991 0.1406307 -0.5460604
0.2459956 0.13197082 0.019044863 -0.2293343 -0.21845654 -0.578329 -0.017465705 -0.13566962
0.2557433 -0.035820466 -0.18143892 -0.2245299 0.08468702 -0.24214959 -0.21901286 -0.1661777
0.04415107 -0.13194431 -0.20047742 -0.17702897 -0.5513631 -0.17757778 -0.533379 0.2509891
-0.5511349 -0.094077066 -0.032939784 -0.5002098 -0.5498916 -0.30236173 -0.19390687 0.10703711
0.051485796 -0.029881595 -0.12877111 -0.186607 -0.17444104 0.047172535 -0.22822471 -0.19288164
-0.5446106 -0.16545752 -0.248462 0.17923392 0.07911327 0.35926518 -0.058845945 -0.19839579
00000000: 87e3 413e 1e9f 953e f54e 11bf 6bcf 11bf
00000010: 72c6 a13e 8443 01be 11e4 a93d 5dba 2cbe
00000020: e3f1 0cbd 0b75 2dbe d575 15be 4c2d a53e
00000030: 1223 86bd d7b7 033d 75e4 823e f0cc 0dbf
00000040: 3168 a7bc ca73 5a3e e36d d1bd 9858 aa3e
00000050: 2fe3 103e 5f13 8f3e 19ca 34be 7307 1fbe
00000060: 5872 14bf 03bf 1cbe 113e 5f3e ddd8 503e
00000070: 2849 303e 8931 21be 6ac8 40be cf31 f9be
00000080: c53a 32be ba25 3cbe deae 57be 3fc9 643e
00000090: 8172 413e 5a0c 02be b39d 58be 7e5c 883d
000000a0: ede6 5cbe 21c6 d73d 78c1 083e 647b 3f3e
000000b0: 6ab6 38be 9759 43be fa95 d43d 2a7c 713c
000000c0: 78f7 59be 21d2 4dbe 95ea 1f3e 5199 2abe
000000d0: 5d73 c8bc b9fd 4d3e f071 05be febe 203e
000000e0: e0ca 9abe 9bf8 8e3e f3f9 37be 808e b53c
000000f0: 8d7c 493e 4888 27be 7a4c 873e d596 cb3d
00000100: d9d8 ffbe 055d 6c3e a196 0abf c6f9 573e
00000110: 8292 a83c 4e67 19be 9a71 70bd 81c0 c33d
00000120: abbe 7e3e fbd6 403e 29a4 6c3e 5a16 783e
00000130: 820b a23d c853 5d3e 7f01 103e 9dca 0bbf
00000140: 45e6 7b3e 5c23 073e f903 9c3c 9cd6 6abe
00000150: 12b3 5fbe 5f0d 14bf 3d14 8fbc faec 0abe
00000160: c9f0 823e 7bb8 12bd 20cb 39be 2beb 65be
00000170: 6370 ad3d 10f6 77be e844 60be 7d2a 2abe
00000180: c1d7 343d 691c 07be f449 4dbe 1547 35be
00000190: 2226 0dbf f3d6 35be 878b 08bf a581 803e
000001a0: 2d17 0dbf 7aab c0bd deeb 06bd c00d 00bf
000001b0: b2c5 0cbf 28cf 9abe 868f 46be 4636 db3d
000001c0: c5e2 523d 3fca f4bc 93dc 03be e815 3fbe
000001d0: aca0 32be fd37 413d bdb3 69be c482 45be
000001e0: 9a6b 0bbf b26d 29be d36c 7ebe 1989 373e
000001f0: 2306 a23d 9bf1 b73e 7208 71bd 4428 4bbe

_impl.layers.1.linear.weight f4 [128, 128]
-0.000588966 -0.00018525695 0.069472276 0.06700253 0.0030004452 -0.2109416 -0.008648308 -0.27427796
-0.054354385 -0.03678071 -0.43167457 0.018733233 0.17174193 0.18230878 0.006331638 0.030764911
0.18590075 -0.0031921458 -0.06466281 0.0028900371 -0.00085810607 0.044270836 -0.10424944 -0.009379899
0.055027504 0.20818974 -0.002839306 -0.00250862 -0.0025926465 -0.13623248 -0.09945652 0.10566007
-0.22087483 -0.33685324 -0.095510915 -0.0027657803 0.022815738 -0.06270189 -0.26150757 -0.15762505
-0.111482464 -0.09623462 0.0024079995 -0.0035195202 -0.013953866 -0.1452708 -0.0027758535 0.016828546
-0.009395925 -0.028713526 2.0172374e-05 -0.1854068 0.1249112 0.051859442 -0.00071396964 -0.0046161427
-0.14537007 -0.0005508093 -0.010865107 -0.022526395 0.03599832 -0.38385656 0.010820818 -0.0044090706
0.03207236 0.014305936 0.07414523 0.046039663 -0.25062093 -0.43888283 -0.09870663 -0.0035246154
0.001780839 -0.0013955948 0.041971214 0.013641275 -0.18366387 0.005978905 -0.017442705 0.018041955
0.0061869468 -0.06092087 0.18800089 -0.022066155 -0.2825387 0.060207814 0.17263423 -0.24323939
0.010080261 -0.16179578 -0.00982984 -0.014638412 -0.0022702494 -0.06276793 -0.053888127 -0.005528397
0.17408888 -0.06831101 -0.033052195 -0.15905543 0.076932706 -0.001009502 0.07791228 0.021346167
0.09439471 -0.056776688 -0.086467475 0.109916076 0.0969152 0.1278649 -0.07682144 -0.0027667175
-0.06253988 -0.11896419 -0.06196025 -0.068066716 -0.36787903 0.017227907 -0.21048038 -0.27484113
0.08176512 -0.32729137 -0.13388522 0.039739557 0.14978412 0.03739652 0.0033101002 -0.013382331
0.19068174 0.12465599 0.080304086 -0.058535006 -0.0004705088 -0.16859499 0.051143225 0.20648813
-0.15825923 -0.26594836 0.0038091603 0.1828058 -0.13940762 -0.278216 0.16297622 -0.05523818
0.046547193 0.1085557 -0.029416462 0.0033720848 0.20655942 0.07467768 -0.23195553 -0.04943541
0.03413809 0.028786007 0.10181946 0.105241984 -0.013455278 -0.15414464 0.17687081 -0.029312469
0.048491735 0.30999887 0.2819794 0.19166954 0.04227478 0.11018149 0.2736085 0.44697782
-0.04634632 0.38750312 0.17874436 0.20791681 -0.20943536 -0.05657944 0.009319529 0.10650202
-0.09924469 -0.07711612 0.1619835 0.16959706 -0.08634689 -0.2158905 -0.054190524 0.14301601
0.5843907 0.17065124 -0.26617935 0.2981738 0.2223098 0.029748026 0.26808214 0.22379722
-0.061324522 0.22685581 -0.009043716 0.101215 0.07083235 0.17017104 0.15014848 0.23040286
0.08938768 0.09959264 -0.03633574 0.20951091 -0.058788814 0.3100987 0.15508121 0.16476433
0.02995943 -0.014671065 0.0044156886 0.09873349 0.15660733 0.09080532 -0.043296196 -0.037421133
0.14064005 -0.058730762 -0.20434257 0.19958371 0.18065341 -0.11584238 -0.090439186 -0.30618173
0.005757125 -0.12139179 0.182781 0.25472292 0.09929784 -0.20803441 -0.015636558 0.085349075
-0.060681727 0.14187592 0.024917826 0.06204522 -0.047660913 0.08608342 -0.03839213 0.21277991
0.32201642 -0.036720302 -0.07079039 -0.14997679 0.1423151 0.12518306 0.15037815 0.064307995
-0.0061942795 0.10028853 -0.003583363 0.2432657 -0.4451466 -0.22074537 -0.29752314 -0.21523295
00000000: d764 1aba 8941 42b9 7b47 8e3d 9f38 893d
00000010: 1ea3 443b 1301 58be a2b1 0dbc 296e 8cbe
00000020: b4a2 5ebd 5fa7 16bd 7304 ddbe 7076 993c
00000030: 1edd 2f3e 27af 3a3e a179 cf3b b206 fc3c
00000040: c45c 3e3e 5233 51bb ef6d 84bd c766 3d3b
00000050: 86f2 60ba 5655 353d bb80 d5bd 26ae 19bc
00000060: 8564 613d b12f 553e a613 3abb a967 24bb
00000070: 64e9 29bb 8780 0bbe dcaf cbbd 4f64 d83d
00000080: 032d 62be 0778 acbe 3a9b c3bd 1842 35bb
00000090: 12e8 ba3c d969 80bd 52e4 85be 7668 21be
000000a0: eb50 e4bd a816 c5bd 87cf 1d3b c0a7 66bb
000000b0: c29e 64bc dec1 14be 18eb 35bb 05dc 893c
000000c0: 5ef1 19bc a138 ebbc d837 a937 48db 3dbe
000000d0: 71d1 ff3d 916a 543d b129 3bba 0343 97bb
000000e0: e4db 14be 3064 10ba 9003 32bc 4689 b8bc
000000f0: f972 133d d988 c4be cd49 313c f779 90bb
00000100: 4f5e 033d 7263 6a3c 74d9 973d 1694 3c3d
00000110: 6351 80be 40b5 e0be b426 cabd 3cfd 66bb
00000120: 0b6b e93a 64ec b6ba 02ea 2b3d a87f 5f3c
00000130: 6212 3cbe b1ea c33b 01e4 8ebc b9cc 933c
00000140: dfbb ca3b 2a88 79bd 4e83 403e 15c4 b4bc
00000150: eaa8 90be 789c 763d 07c7 303e bf13 79be
00000160: ae27 253c cbad 25be 560d 21bc f3d5 6fbc
00000170: 77c8 14bb 798c 80bd ccb9 5cbd 8e27 b5bb
00000180: 5b44 323e a5e6 8bbd bd61 07bd 6ddf 22be
00000190: e58e 9d3d 4451 84ba 7990 9f3d 28de ae3c
000001a0: 0452 c13d ac8e 68bd dc15 b1bd ae1b e13d
000001b0: 7a7b c63d 04ef 023e 8f54 9dbd d151 35bb
000001c0: e914 80bd 7fa3 f3bd 08ca 7dbd 9066 8bbd
000001d0: a45a bcbe 8a21 8d3c 2b88 57be fab7 8cbe
000001e0: 7974 a73d bc92 a7be 3519 09be f2c5 223d
000001f0: 0261 193e 182d 193d 44ee 583b 9041 5bbc
00000200: 1342 433e a44b ff3d 7876 a43d 67c2 6fbd
00000210: 9fae f6b9 2aa4 2cbe 8f7b 513d a071 533e
00000220: b50e 22be 622a 88be 1ba3 793b 7231 3b3e
00000230: dfc0 0ebe 5472 8ebe 3de3 263e 6e41 62bd
00000240: 45a8 3e3d 7352 de3d cbfa f0bc 32fe 5c3b
00000250: 5084 533e 9df0 983d c085 6dbe c97c 4abd
00000260: 62d4 0b3d a2d0 eb3c b986 d03d 1c89 d73d
00000270: 8773 5cbc 18d8 1dbe 9f1d 353e b420 f0bc
00000280: 459f 463d 2cb8 9e3e 9b5f 903e 0545 443e
00000290: 5228 2d3d d5a6 e13d 6a16 8c3e 47da e43e
000002a0: a4d5 3dbd cf66 c63e c308 373e 25e8 543e
000002b0: 3976 56be d8bf 67bd f0b0 183c bb1d da3d
000002c0: cd40 cbbd 0eef 9dbd 01df 253e daaa 2d3e
000002d0: a3d6 b0bd 6612 5dbe e2f6 5dbd ca72 123e
000002e0: a19a 153f 33bf 2e3e a948 88be 3caa 983e
000002f0: 2ea5 633e 22b2 f33c 1042 893e 192b 653e
00000300: 6c2f 7bbd e44c 683e 182c 14bc cf49 cf3d
00000310: 8d10 913d 5141 2e3e 86c0 193e baee 6b3e
00000320: e310 b73d 3af7 cb3d c9d4 14bd 078a 563e
00000330: 8acc 70bd 42c5 9e3e 9ccd 1e3e fbb7 283e
00000340: 7b6d f53c e85e 70bc 7bb1 903b c934 ca3d
00000350: ac5d 203e 24f8 b93d 5a57 31bd e746 19bd
00000360: f203 103e ab8f 70bd 2e3f 51be ac5f 4c3e
00000370: 35fd 383e c53e edbd 2e38 b9bd dac3 9cbe
00000380: 44a6 bc3b 429c f8bd f12a 3b3e 0b6b 823e
00000390: aa5c cb3d f906 55be 3d18 80bc 7fcb ae3d
000003a0: 678d 78bd ec47 113e 7820 cc3c 2123 7e3d
000003b0: 1738 43bd 814c b03d 1141 1dbd fae2 593e
000003c0: 56df a43e 0768 16bd 8dfa 90bd 8493 19be
000003d0: 0dbb 113e fd2f 003e bbfc 193e e9b3 833d
000003e0: 62f9 cabb 1364 cd3d dbd6 6abb a51a 793e
000003f0: 41ea e3be 130b 62be f454 98be 0766 5cbe

_impl.layers.1.linear.weight_g f4 [128, 1]
1.3006668 1.0320442 0.9063261 1.1964642 1.3688669 1.4655032 0.96870154 1.1475531
0.16123964 1.3559513 0.8583236 1.2140208 1.3461227 1.3664204 1.244383 0.87391824
1.3919703 1.7964926 1.7995586 1.3624755 1.1995488 1.4774392 1.5289917 1.3235267
1.1740383 1.5870457 1.2108288 1.1519307 1.2904177 1.3386202 0.97498053 1.2787968
1.9284248 0.0065713786 1.0281197 1.0327652 1.1085429 1.7120701 4.1016645 1.1219851
0.33384252 1.1864053 1.1441033 0.9398415 1.3622236 0.987991 0.9932225 1.3167534
0.90511084 1.5486482 0.99484336 1.3355639 1.5291085 1.1685313 1.4214754 1.0909493
1.5180244 1.1494586 1.9104174 1.2863381 1.3953629 1.24084 1.3063594 1.361773
1.3277595 1.0577939 1.0397328 1.0503277 1.0561782 1.4887835 0.22002943 1.3093632
1.289331 1.0485615 1.132037 1.3824109 1.6051097 0.83460426 1.2256256 1.4210948
1.3614258 1.0342854 1.3747885 0.9431141 1.2744662 0.46263134 1.5478128 1.2482545
0.32249817 1.3005412 1.3448147 0.5763409 1.0483462 1.1581113 1.3085499 1.3737378
1.1325238 1.0765022 0.41340032 1.3906479 1.0201042 0.8791672 1.0132453 0.86691797
1.3695076 1.212301 1.4641289 1.4947108 1.3031684 1.2140843 1.0180188 1.5895486
1.1585413 1.0181136 0.7381999 1.438828 1.1551478 1.3592888 1.1261083 0.861161
1.858703 1.4930725 0.9069474 1.1292275 1.370237 0.89683235 1.2430989 1.5384437
00000000: 407c a63f 061a 843f fd04 683f bd25 993f
00000010: 0837 af3f 9c95 bb3f d3fc 773f 05e3 923f
00000020: 011c 253e d08f ad3f 18bb 5b3f 0965 9b3f
00000030: c04d ac3f dde6 ae3f f147 9f3f 1bb9 5f3f
00000040: 152c b23f 78f3 e53f f057 e63f 9965 ae3f
00000050: d18a 993f ba1c bd3f 00b6 c33f 5369 a93f
00000060: e346 963f 5024 cb3f 70fc 9a3f 7772 933f
00000070: 682c a53f e857 ab3f 5398 793f 9daf a33f
00000080: a0d6 f63f b854 d73b 6d99 833f a631 843f
00000090: bce4 8d3f 1d25 db3f d640 8340 359d 8f3f
000000a0: 68ed aa3e 21dc 973f fa71 923f 7499 703f
000000b0: 585d ae3f faec 7c3f d443 7e3f 608b a83f
000000c0: 58b5 673f 1b3a c63f 0eae 7e3f c2f3 aa3f
000000d0: d4b9 c33f 6f92 953f e8f2 b53f 3aa4 8b3f
000000e0: a04e c23f 7621 933f 8f88 f43f baa6 a43f
000000f0: 409b b23f d8d3 9e3f c936 a73f 944e ae3f
00000100: 06f4 a93f ca65 873f f715 853f 2371 863f
00000110: d930 873f 7590 be3f 654f 613e 3799 a73f
00000120: cc08 a53f 4337 863f 97e6 903f d7f2 b03f
00000130: 3c74 cd3f a0a8 553f 4de1 9c3f 6fe6 b53f
00000140: 3343 ae3f 7763 843f 12f9 af3f ed6f 713f
00000150: b521 a33f 04de ec3e bb1e c63f cec6 9f3f
00000160: 7b1e a53e 2278 a63f e322 ac3f 148b 133f
00000170: 3530 863f fe3c 943f 907e a73f a4d6 af3f
00000180: 8af6 903f d3ca 893f 35a9 d33e c000 b23f
00000190: c692 823f 1a11 613f 06b2 813f 56ee 5d3f
000001a0: 064c af3f ae2c 9b3f 9368 bb3f af52 bf3f
000001b0: 39ce a63f 1d67 9b3f 714e 823f 5476 cb3f
000001c0: 154b 943f 8c51 823f abfa 3c3f 842b b83f
000001d0: e2db 933f 2dfd ad3f 5124 903f 0c75 5c3f
000001e0: fbe9 ed3f 001d bf3f b42d 683f 878a 903f
000001f0: ed63 af3f ce96 653f dd1d 9f3f b9eb c43f

_impl.layers.1.linear.bias f4 [128]
-0.11758495 -0.023365373 -0.10918191 0.08654103 -0.11962129 0.15033014 -0.040036593 -0.11572127
-0.012509858 -0.042934425 0.15533163 -0.115947954 -0.16251475 -0.0222319 -0.15121783 -0.10869405
0.012004985 -0.19879036 0.15790899 -0.019550892 -0.17533234 -0.15240821 -0.14557683 -0.1306732
-0.29089978 0.020544076 0.038658462 0.0065745967 0.03690647 0.1576469 0.15352032 -0.18888584
0.1216589 -0.00031441223 0.16878489 -0.07642138 -0.079114944 0.1423114 0.2348434 -0.07201524
-0.03601205 -0.23383583 -0.019485299 -0.13217443 -0.06484056 -0.16989674 0.10660747 -0.17104721
-0.00688305 -0.02972579 -0.06202844 0.020000348 -0.15266243 -0.13492899 -0.16269083 -0.14323172
-0.10404949 -0.1399878 0.19532304 -0.16120759 -0.048116907 -0.15965158 -0.118080474 -0.18598497
-0.15249845 0.16047971 0.0963586 -0.10224743 -0.042843398 -0.18829189 0.017173829 -0.22168477
-0.10478292 -0.086718455 -0.09954351 -0.04552367 0.13373992 -0.05208885 -0.12828638 -0.04285601
-0.116700545 -0.12541412 -0.05581861 0.113520235 -0.056668315 0.03798448 -0.13413897 -0.1559405
0.030475792 -0.18784104 -0.16560677 -0.09279831 -0.09427428 -0.096373305 -0.14019267 0.1009741
0.012296699 0.197871 -0.06683005 -0.046458285 0.14904717 0.08351352 -0.13718517 -0.05480314
-0.0014207192 -0.14090484 0.16682494 -0.1551518 -0.1670933 0.05273484 0.05123632 -0.19063178
-0.14538778 -0.15980037 -0.106804274 0.21104266 0.033178683 -0.1652905 -0.12678151 0.07325233
-0.121817276 -0.094891705 0.016725762 0.14142148 -0.13179748 -0.09225746 -0.1411766 0.11414288
00000000: 61d0 f0bd bd68 bfbc c49a dfbd 6c3c b13d
00000010: 02fc f4bd 25f0 193e 69fd 23bd 46ff ecbd
00000020: 26f6 4cbc 02dc 2fbd 410f 1f3e 1f76 edbd
00000030: 446a 26be ac1f b6bc d9d8 1abe fc9a debd
00000040: 8eb0 443c b38f 4bbe e5b2 213e 3129 a0bc
00000050: 528a 33be e610 1cbe 1812 15be 32cf 05be
00000060: d1f0 94be 0d4c a83c 5658 1e3d b76f d73b
00000070: 3d2b 173d 306e 213e 6e34 1d3e 4a6b 41be
00000080: 4d28 f93d b2d7 a4b9 f2d5 2c3e d082 9cbd
00000090: 0407 a2bd 14ba 113e ca7a 703e ba7c 93bd
000000a0: 5f81 13bd a972 6fbe a29f 9fbc bc58 07be
000000b0: 21cb 84bd 69f9 2dbe 0455 da3d 0027 2fbe
000000c0: 358b e1bb 8083 f3bc 8911 7ebd c5d7 a33c
000000d0: 8a53 1cbe d32a 0abe 6d98 26be 56ab 12be
000000e0: e617 d5bd f658 0fbe c302 483e 9a13 25be
000000f0: 3c16 45bd b47b 23be 2dd4 f1bd d872 3ebe
00000100: 8e28 1cbe cb54 243e a857 c53d 1a67 d1bd
00000110: 8f7c 2fbd 97cf 40be 21b0 8c3c 5501 63be
00000120: 6d98 d6bd 7299 b1bd 78dd cbbd 0777 3abd
00000130: 1ef3 083e 1e5b 55bd 815d 03be c989 2fbd
00000140: b200 efbd 8f6c 00be 0ea2 64bd 4c7d e83d
00000150: 091d 68bd 9d95 1b3d ba5b 09be deae 1fbe
00000160: 5ea8 f93c 6759 40be d294 29be 0a0d bebd
00000170: e012 c1bd 5e5f c5bd ab8e 0fbe 82cb ce3d
00000180: 1878 493c b29e 4a3e 31de 88bd 0b4b 3ebd
00000190: d29f 183e 2309 ab3d 457a 0cbe 4279 60bd
000001a0: 6d37 baba 5c49 10be 28d4 2a3e 1de0 1ebe
000001b0: 821a 2bbe 7d00 583d 2ddd 513d fa34 43be
000001c0: 89e0 14be b5a2 23be 33bc dabd 911b 583e
000001d0: 5fe6 073d ea41 29be 03d3 01be 5105 963d
000001e0: 567b f9bd 9556 c2bd 7704 893c cbd0 103e
000001f0: ebf5 06be 7bf1 bcbd 9990 10be bec3 e93d

_impl.layers.2.linear.weight f4 [128, 128]
-0.037855268 -0.07906527 -0.3082884 0.4165431 -0.12709062 -0.12401055 -0.017249266 0.1237492
0.54151773 -0.22797844 0.15386152 -0.061831336 0.100005254 -0.24368425 0.06555885 0.19961956
-0.089155436 -0.15743631 -0.43203056 -0.26203558 0.030566273 -0.07276293 -0.012609307 -0.04231782
0.04782757 -0.2723398 -0.021779679 -0.054603115 -0.1884318 -0.031608794 0.07203411 -0.11683877
-0.28518268 -0.3481818 -0.16231154 -0.084067985 -0.09085543 -0.06567801 0.032783385 -0.20269467
0.3050583 -0.053478863 -0.20507406 -0.2352852 -0.10945005 -0.20032333 0.117236994 0.033567566
-0.15792453 -0.14716196 -0.16386786 -0.172664 -0.21269052 -0.2626092 -0.38417277 0.030893348
0.13135153 -0.25910914 0.025999175 -0.003762126 -0.079982676 -0.14607999 0.013203859 0.0850293
0.0780005 0.12532265 0.10588042 0.053806074 0.2345541 -0.05087957 -0.48114508 -0.0087337615
-0.17913687 -0.1440613 0.1631246 -0.21361493 -0.0045806076 -0.019929323 0.061681934 -0.33478743
-0.12204482 -0.19843325 -0.07212204 -0.29096127 -0.12287675 -0.15783302 -0.18363236 -0.056376632
-0.4449272 0.1432679 -0.110392205 -0.2986195 0.08587268 -0.37860018 0.033436093 -0.022432312
-0.15993829 0.11132516 -0.41811487 -0.03387834 -0.12076896 -0.03184263 0.18793032 -0.013997661
-0.093083404 0.0040257876 -0.033364575 0.015843082 0.11404984 -0.032913003 0.04604488 -0.109127566
-0.032398045 -0.32575664 0.09792336 -0.06387656 -0.10505906 -0.066377856 -0.5387812 0.0077447444
-0.2652037 -0.17409654 -0.15331538 0.11049746 0.19842903 0.003436649 -0.095695555 -0.3186372
0.069491506 -0.11381921 0.018999962 -0.036151003 0.071334325 -0.06356762 -0.036192983 0.004913414
-0.00040085067 0.07321217 -0.034365166 0.0542017 0.26293322 0.06364366 0.21289946 0.009996612
0.042603813 0.4487217 0.01824047 0.07613591 0.08622418 0.29849836 0.06315298 0.24189669
0.040112197 0.069454275 -0.001031734 -0.025770545 0.017227946 -0.07126307 -0.07548327 0.10165529
0.05174014 -0.00022915548 -0.08088128 0.102711044 -0.02636668 -0.0754636 -0.03509349 0.0355502
-0.0002647494 0.03794204 0.12444487 0.030433854 0.04474039 0.031537455 -0.033736225 0.044299178
-0.005579229 -0.07814104 0.06413195 0.0016395053 0.36644262 0.26411176 0.08940972 0.20858335
0.2942839 0.059764702 -0.067979366 0.06256311 -0.07237228 0.23301579 0.23387834 -0.012034827
0.029908884 -0.06497179 -0.021483336 0.0138118295 0.0886485 0.31358194 -7.3812735e-05 0.051837713
0.059235133 0.003556084 0.019607501 0.07475589 -0.06905024 0.038719594 0.22942875 0.07165062
0.009104495 0.14463563 0.25973922 -0.025566516 0.06214683 0.0016656282 0.11460804 -0.0052814484
-0.0005812921 0.2170933 0.300505 0.0197592 0.1586342 0.044753112 0.28929532 -0.0282032
0.04490825 -0.064475894 0.010148946 0.07249327 -0.06571257 -0.013260913 0.03581247 0.017313095
0.027332494 0.2702296 -0.06780862 0.020846624 0.03979276 0.04214017 -0.10374888 0.2524581
-0.024602786 0.030607764 0.016398508 -0.08971414 -0.10117741 0.3066212 0.047442652 -0.037026767
0.17539127 -0.050658967 -0.038146976 -0.040550675 0.23247921 0.101387665 0.07982984 0.02704258
00000000: 200e 1bbd f9ec a1bd fad7 9dbe 2345 d53e
00000010: 0b24 02be 3ef9 fdbd 554e 8dbc 3870 fd3d
00000020: e8a0 0a3f 2e73 69be e08d 1d3e db42 7dbd
00000030: 8ecf cc3d 5d88 79be b843 863d 1269 4c3e
00000040: 2097 b6bd fc36 21be 1c33 ddbe 8729 86be
00000050: 1f66 fa3c bb04 95bd 4497 4ebc 7355 2dbd
00000060: d8e6 433d 1f70 8bbe 4c6b b2bc 84a7 5fbd
00000070: 44f4 40be 3978 01bd 9f86 933d 2a49 efbd
00000080: 7703 92be e344 b2be ff34 26be d62b acbd
00000090: 6912 babd 3182 86bd df47 063d 318f 4fbe
000000a0: 9a30 9c3e a70c 5bbd effe 51be 9aee 70be
000000b0: 5927 e0bd 8f21 4dbe f319 f03d 257e 093d
000000c0: f8b6 21be a0b1 16be facc 27be d5ce 30be
000000d0: 8bcb 59be b774 86be 4bb2 c4be 0c14 fd3c
000000e0: 0481 063e f4a9 84be 39fc d43c 008e 76bb
000000f0: f5cd a3bd fe95 15be 0055 583c d723 ae3d
00000100: babe 9f3d 9554 003e d5d7 d83d c263 5c3d
00000110: f32e 703e 1967 50bd a658 f6be 0d18 0fbc
00000120: a86f 37be ce84 13be 230a 273e dfbd 5abe
00000130: ec18 96bb d242 a3bc 32a6 7c3d 4269 abbe
00000140: a2f2 f9bd 1632 4bbe b8b4 93bd e0f8 94be
00000150: cea6 fbbd fb9e 21be 1f0a 3cbe 2feb 66bd
00000160: 7fcd e3be d2b4 123e 4f15 e2bd a8e4 98be
00000170: 04de af3d e2d7 c1be 49f4 083d f8c3 b7bc
00000180: ddc6 23be 72fe e33d 2713 d6be 04c4 0abd
00000190: b755 f7bd 6b6d 02bd ce70 403e 7256 65bc
000001a0: 83a2 bebd c1ea 833b 4ba9 08bd 5ac9 813c
000001b0: f692 e93d c9cf 06bd 8e99 3c3d 467e dfbd
000001c0: d0b3 04bd 93c9 a6be 0b8c c83d b7d1 82bd
000001d0: 3429 d7bd 1df1 87bd 91ed 09bf a0c7 fd3b
000001e0: c8c8 87be 5d46 32be b5fe 1cbe 7e4c e23d
000001f0: fb30 4b3e 6739 613b 08fc c3bd 6a24 a3be
00000200: 9051 8e3d 0c1a e9bd cfa5 9b3c 1313 14bd
00000210: bb17 923d be2f 82bd 183f 14bd b400 a13b
00000220: 4429 d2b9 43f0 953d 7dc2 0cbd 9a02 5e3d
00000230: 2f9f 863e 9b57 823d 5102 5a3e d4c8 233c
00000240: 5681 2e3d dabe e53e 0a6d 953c 25ed 9b3d
00000250: 4e96 b03d c7d4 983e 5956 813d c4b3 773e
00000260: b04c 243d 0b3e 8e3d 403b 87ba c01c d3bc
00000270: 9f21 8d3c 5ff2 91bd f996 9abd a630 d03d
00000280: 78ed 533d 7549 70b9 16a5 a5bd 2b5a d23d
00000290: f0fe d7bc a98c 9abd 31be 0fbd 169d 113d
000002a0: 10ce 8ab9 1d69 1b3d f4dc fe3d 6b50 f93c
000002b0: b341 373d 6b2d 013d ff2e 0abd 0e73 353d
000002c0: f7d1 b6bb 6908 a0bd 9d57 833d abe4 d63a
000002d0: 5e9e bb3e a839 873e 711c b73d e096 553e
000002e0: 61ac 963e d5cb 743d c438 8bbd 1621 803d
000002f0: eb37 94bd b19b 6e3e ce7d 6f3e b92d 45bc
00000300: 7a03 f53c ee0f 85bd d2fd afbc 034b 623c
00000310: 588d b53d d08d a03e e9cb 9ab8 c853 543d
00000320: 8aa0 723d 300d 693b e99f a03c 9e19 993d
00000330: 366a 8dbd 7098 1e3d 5fef 6a3e 8fbd 923d
00000340: 052b 153c 5d1b 143e 8afc 843e df70 d1bc
00000350: ad8d 7e3d 3551 da3a 9fb7 ea3d 0010 adbb
00000360: da61 18ba b54d 5e3e cbdb 993e 0cde a13c
00000370: 0171 223e 0a4f 373d 841e 943e 660a e7bc
00000380: b7f1 373d f00b 84bd c447 263c 5a77 943d
00000390: 5094 86bd 4d44 59bc 19b0 123d 31d4 8d3c
000003a0: 65e8 df3c 895b 8a3e 3fdf 8abd 8ac6 aa3c
000003b0: bcfd 223d 2c9b 2c3d 4b7a d4bd 3042 813e
000003c0: c88b c9bc 22bd fa3c 2a56 863c 0cbc b7bd
000003d0: 1a36 cfbd 74fd 9c3e 3a53 423d 61a9 17bd
000003e0: c599 333e c77f 4fbd 0140 1cbd 7718 26bd
000003f0: 080f 6e3e 56a4 cf3d d47d a33d 6788 dd3c

_impl.layers.2.linear.weight_g f4 [128, 1]
0.5182792 1.8154781 0.9263819 1.5653185 1.1432488 1.4553964 1.2449462 1.6175926
1.1121361 1.6757753 1.6460259 1.7418182 1.2850064 1.5852727 1.4733574 1.0577835
1.4675958 1.0245095 1.1057477 1.196861 1.1756289 1.028777 1.6019915 1.2885112
1.3747375 1.5305632 1.2126338 1.7012712 0.78922033 1.2972562 1.2536085 1.096919
0.99473137 1.4067925 1.6811773 1.3660892 1.051009 1.3162107 0.983564 1.3897085
1.7261081 0.8435819 1.234937 0.99450254 1.6385132 1.461882 1.1290101 1.066651
1.4329138 1.16085 1.7454176 1.0687565 1.0700856 0.8322098 1.5005616 1.4685822
1.1939316 1.2292975 1.131382 1.2572252 0.9175301 1.1392907 1.5520785 1.3671091
0.75414723 1.7566161 1.1274999 1.6221455 2.1377497 0.3617265 1.3240417 1.3867235
1.5749578 1.109683 1.2359204 1.5543596 2.4398825 1.3760738 1.0196538 1.8444302
1.2585572 1.8480483 1.4972388 1.3960575 1.3575993 1.1563656 1.6085453 1.8002199
0.96594054 1.4437749 2.3402402 1.1212592 1.626946 2.3931513 1.0810685 1.283084
1.8719321 1.3719993 1.3777528 1.4685856 1.2175012 1.179275 1.4762788 1.4143995
3.44963 1.2362113 1.4945971 1.5913054 1.2801569 1.7576889 0.8340462 1.1626636
1.1974585 1.6418264 0.8021794 1.2207508 1.2762913 1.2576603 1.285081 1.0357776
1.4419225 2.7077591 1.4830498 1.0434643 1.0508081 2.0287013 1.3426262 1.5250727
00000000: f2ad 043f 9661 e83f 5d27 6d3f 5b5c c83f
00000010: fa55 923f 6e4a ba3f 665a 9f3f 460d cf3f
00000020: 7a5a 8e3f ce7f d63f fab0 d23f e6f3 de3f
00000030: 177b a43f 37ea ca3f fa96 bc3f 7365 873f
00000040: 2eda bb3f 2123 833f 2489 8d3f be32 993f
00000050: 027b 963f f7ae 833f 0f0e cd3f efed a43f
00000060: 66f7 af3f 7fe9 c33f 9637 9b3f 41c3 d93f
00000070: 580a 4a3f 7e0c a63f 3e76 a03f d767 8c3f
00000080: b7a6 7e3f c711 b43f d130 d73f 03dc ae3f
00000090: 7787 863f 9879 a83f daca 7b3f f8e1 b13f
000000a0: 1cf1 dc3f fcf4 573f 6a12 9e3f b897 7e3f
000000b0: cdba d13f f31e bb3f 6783 903f 0588 883f
000000c0: b869 b73f bc96 943f d869 df3f 03cd 883f
000000d0: 91f8 883f b40b 553f 6712 c03f 80fa bb3f
000000e0: c0d2 983f 9f59 9d3f 20d1 903f c1ec a03f
000000f0: 41e3 6a3f 47d4 913f 82aa c63f 6efd ae3f
00000100: cb0f 413f ccd8 e03f eb51 903f 77a2 cf3f
00000110: e4d0 0840 3734 b93e 337a a93f 2880 b13f
00000120: 3898 c93f 180a 8e3f a432 9e3f 41f5 c63f
00000130: 0927 1c40 3023 b03f 0484 823f 4a16 ec3f
00000140: 6718 a13f d98c ec3f 85a5 bf3f 03b2 b23f
00000150: d0c5 ad3f ca03 943f d0e4 cd3f 9b6d e63f
00000160: e147 773f 9ecd b83f 7fc6 1540 6c85 8f3f
00000170: c43f d03f 6429 1940 7460 8a3f 193c a43f
00000180: 799b ef3f ac9d af3f 345a b03f 9dfa bb3f
00000190: 14d7 9b3f 7cf2 963f b4f6 bc3f 0b0b b53f
000001a0: bdc6 5c40 2c3c 9e3f f54e bf3f e5af cb3f
000001b0: 2edc a33f f3fb e03f 0d84 553f 29d2 943f
000001c0: 5246 993f 5e27 d23f a15b 4d3f 9041 9c3f
000001d0: 835d a33f 03fb a03f 897d a43f 5c94 843f
000001e0: eb90 b83f ed4b 2d40 93d4 bd3f 3d90 853f
000001f0: e180 863f 3ed6 0140 2ddb ab3f 9535 c33f

_impl.layers.2.linear.bias f4 [128]
-0.007990049 -0.1502824 -0.12262331 -0.019978613 -0.073864244 0.17768836 -0.03664532 0.10305752
-0.0042220014 -0.13654664 0.010969746 0.30212662 -0.005836591 -0.02012427 -0.11693159 0.024154425
0.08765941 0.16772522 -0.016250443 -0.02652492 0.20104763 -0.0150569705 0.03565895 -0.10254546
-0.06277125 0.025698535 -0.14012083 0.03852037 -0.11425631 0.032281063 -0.051115073 -0.0028891538
-0.14203832 0.009480455 0.09921916 -0.038261615 0.0043569575 -0.033588655 -0.02150917 -0.0805413
0.35540384 0.09278378 0.08780051 0.066232994 -0.13859947 -0.018108044 -0.012209167 0.011698897
0.2503377 0.19695011 0.015136309 -0.024802923 -0.0072295787 0.04777289 0.15450187 -0.05544684
0.005229676 0.01518307 0.024427582 0.009230101 -0.02933977 -0.01412899 -0.09096309 -0.0673219
-0.09034864 0.08673883 -0.06191141 0.16207425 0.06405189 -0.010673091 0.10300402 0.023814226
0.018352823 0.0048291916 0.17492181 0.055517476 0.115187325 0.07836855 -0.03675041 0.2269902
-0.12071171 -0.009354262 -0.06514296 0.16750911 -0.006594418 0.097604275 -0.022701697 0.09667349
-0.014407183 0.07753396 0.48955107 -0.047532734 -0.03258195 0.12342458 -0.16635825 -0.0960251
-0.09788432 -0.06691928 0.037248664 0.041899722 -0.047893424 0.13254124 0.065174624 0.17579848
0.056926966 -0.01699704 -0.044053327 0.015168474 0.103426 -0.12332537 0.040087882 0.06596799
0.01090712 -0.005604891 -0.06822389 -0.014957928 0.020465624 0.02351137 -0.06596732 -0.028715104
0.04834434 0.14797708 -0.087606855 -0.032753974 -0.046308983 0.1569852 0.2093469 0.010347007
00000000: b2e8 02bc a1e3 19be ee21 fbbd 30aa a3bc
00000010: 2346 97bd f0f3 353e 6719 16bd d20f d33d
00000020: b758 8abb e2d2 0bbe 73ba 333c 57b0 9a3e
00000030: e040 bfbb a7db a4bc d479 efbd 80df c53c
00000040: c786 b33d 29c0 2b3e a61f 85bc ca4a d9bc
00000050: 6edf 4d3e 83b1 76bc 1f0f 123d 5b03 d2bd
00000060: 378e 80bd bc85 d23c d67b 0fbe 89c7 1d3d
00000070: 36ff e9bd 2639 043d 0a5e 51bd f557 3dbb
00000080: 7e72 11be e953 1b3c 6a33 cb3d 36b8 1cbd
00000090: cfc4 8e3b 4294 09bd 0034 b0bc d6f2 a4bd
000000a0: 7ef7 b53e 6c05 be3d c1d0 b33d 2aa5 873d
000000b0: 05ed 0dbe 5257 94bc f508 48bc bbac 3f3c
000000c0: 432c 803e 4aad 493e 48fe 773c 802f cbbc
000000d0: 1ae6 ecbb 82ad 433d bd35 1e3e 3a1c 63bd
000000e0: b45d ab3b 69c2 783c 5a1c c83c d939 173c
000000f0: f559 f0bc 477d 67bc db4a babd 10e0 89bd
00000100: b508 b9bd 21a4 b13d d296 7dbd cbf6 253e
00000110: a32d 833d 30de 2ebc c6f3 d23d 0d16 c33c
00000120: a958 963c 323e 9e3b b41e 333e 4b66 633d
00000130: 55e7 eb3d b17f a03d 9987 16bd 1e70 683e
00000140: b337 f7bd 9e42 19bc ac69 85bd 8287 2b3e
00000150: fd15 d8bb c0e4 c73d e9f8 b9bc c0fc c53d
00000160: 1b0c 6cbc 20ca 9e3d 70a6 fa3e afb1 42bd
00000170: a774 05bd 07c6 fc3d d159 2abe cfa8 c4bd
00000180: 9377 c8bd fa0c 89bd 0e92 183d 0b9f 2b3d
00000190: e52b 44bd e4b8 073e 467a 853d 8404 343e
000001a0: 402c 693d 603d 8bbc 4371 34bd 3185 783c
000001b0: 03d1 d33d 0392 fcbd 3133 243d 3a1a 873d
000001c0: c7b3 323c 3ca9 b7bb f8b8 8bbd 1912 75bc
000001d0: 86a7 a73c eb9a c03c e019 87bd f03b ebbc
000001e0: b704 463d 4e87 173e 396b b3bd 0829 06bd
000001f0: 7dae 3dbd bac0 203e 095f 563e 7e86 293c

_impl.layers.3.linear.weight f4 [128, 128]
-0.34997785 -0.03695417 -0.060763072 0.09194643 0.087684475 -0.025579227 -0.1316329 -0.025885956
-0.46529916 0.003808113 -0.46762577 0.019757217 -0.09276578 -0.006180391 -0.10250734 -0.2423723
0.573155 -0.0882858 -0.14094374 -0.1640469 0.07473346 -0.1384252 -0.0059407065 -0.1933532
0.07800531 -0.571468 0.21778636 0.2584158 0.24288993 0.20401321 -0.10605994 0.020003404
0.03183355 -0.2960589 0.20704558 0.20515856 0.28206435 -0.09521053 -0.2342698 0.58259207
-0.13312791 -0.26369154 -0.07374119 -0.039098643 0.097550385 0.44035083 -0.06138499 0.02048404
-0.1875039 0.14970309 0.010136445 -0.051493984 -0.024076285 0.01019307 -0.113140754 0.12315448
-0.15830828 -0.06456619 -0.29311737 0.020423356 -0.15238255 0.009947822 -0.052066784 -0.07696024
0.1449472 0.08855789 -0.2548007 -0.09622515 0.24318285 -0.5866272 0.15711813 -0.029019695
-0.23386006 -0.19097047 -0.39767292 0.31415 -0.29691145 0.109915756 -0.05219892 -0.18737881
-0.11991207 -0.30221134 0.16958393 -0.074567914 -0.17433001 0.16365746 0.16958067 0.11519435
-0.09345619 0.20138398 0.0340136 -0.02949982 -0.32854775 -0.02455193 0.52220684 0.3691116
0.11541331 0.096264996 0.59465146 0.10499786 0.20570336 -0.27651778 0.02164807 0.006689045
0.6378996 -0.18808717 0.06973035 0.009255802 -0.063744254 -0.02845151 -0.0037203263 -0.04822844
0.16610277 0.18179351 0.34050995 -0.026089972 -0.10228667 -0.23079069 0.16036133 -0.07214709
-0.120832615 0.19363678 -0.14342332 -0.040670414 0.15605511 0.24715124 0.15167215 0.2892425
0.15542254 -0.18047054 -0.10395066 -0.1840588 0.06728622 0.14673086 0.10246213 -0.13727432
0.21837598 -0.1870485 -0.13559999 -0.09750253 0.044240452 -0.04238665 -0.19027609 -0.16730703
0.6242513 0.00016948451 -0.22684653 0.067444734 0.10773784 -0.12545091 -0.14580227 0.067645945
0.107284546 0.65167373 -0.009675935 -0.32002878 -0.3513264 -0.486879 -0.023597889 0.07664968
-0.12372079 -0.081754774 -0.02135188 -0.38102686 -0.21124302 -0.21694635 -0.07874537 -0.22950777
0.08848102 0.10885231 0.081570685 -0.055891797 0.12195013 -0.14087985 -0.45814133 0.05442975
-0.056025557 -0.060839146 -0.001886688 0.009521135 0.056855056 0.03671591 0.0765912 0.2361608
-0.2264613 0.10277501 -0.024214296 0.09238295 0.18021657 0.17621814 -0.14849956 0.15304632
0.22031866 -0.041518595 0.0056189424 0.27907777 -0.12462513 0.28334823 0.109444536 -0.08063862
0.00086409773 -0.13737214 -0.091474466 -0.3652576 0.1541731 0.041636497 -0.17545144 0.12939698
0.07781413 0.19544323 0.20699498 -0.1358135 -0.3258967 0.054686736 -0.049185675 0.6008959
0.13901366 0.21180852 -0.049047578 0.19834962 0.17016026 0.07986091 0.3147457 0.057977244
0.06341897 -0.030660713 -0.27331328 -0.16514684 -0.06992929 -0.006231559 0.03467694 -0.5815436
0.0499424 -0.042234693 0.0778602 0.10365615 -0.10815144 -0.2597048 0.027674474 0.16608188
0.08985636 -0.5666533 0.3896375 0.11125599 -0.3455818 -0.27573353 -0.12712862 -0.04208933
-0.07631097 0.08940514 0.11560178 -0.017423103 0.2600663 0.15703131 -0.098863296 0.053202868
00000000: 4c30 b3be 415d 17bd b3e2 78bd 694e bc3d
00000010: eb93 b33d 878b d1bc c6ca 06be c90e d4bc
00000020: b13b eebe 8991 793b a56c efbe e3d9 a13c
00000030: fcfb bdbd e184 cabb 5eef d1bd 7230 78be
00000040: 49ba 123f 2fcf b4bd 8e53 10be e9fb 27be
00000050: db0d 993d 56bf 0dbe 42aa c2bb 62fe 45be
00000060: 3fc1 9f3d ba4b 12bf 6303 5f3e 134f 843e
00000070: 23b8 783e d7e8 503e f435 d9bd 2ede a33c
00000080: e663 023d 0895 97be c203 543e 1615 523e
00000090: bd6a 903e bdfd c2bd 6ce4 6fbe c124 153f
000000a0: af52 08be 9402 87be 9f05 97bd e625 20bd
000000b0: 7fc8 c73d aa75 e13e d46e 7bbd 25ce a73c
000000c0: 0601 40be c44b 193e 5513 263c 5beb 52bd
000000d0: a13b c5bc d600 273c 57b6 e7bd 6a38 fc3d
000000e0: 911b 22be 473b 84bd 7b13 96be e24e a73c
000000f0: 2c0a 1cbe 31fc 223c fb43 55bd 559d 9dbd
00000100: 0a6d 143e d75d b53d 3d75 82be b111 c5bd
00000110: ed04 793e 332d 16bf 93e3 203e b6ba edbc
00000120: 0379 6fbe c38d 43be c99b cbbe 45d8 a03e
00000130: c704 98be 831b e13d 89ce 55bd 3be0 3fbe
00000140: 7694 f5bd 72bb 9abe 69a7 2d3e 10b7 98bd
00000150: 9183 32be d295 273e 8ea6 2d3e 04eb eb3d
00000160: f565 bfbd 9a37 4e3e d851 0b3d 9ba9 f1bc
00000170: 6937 a8be 2121 c9bc 59af 053f 32fc bc3e
00000180: d05d ec3d 9526 c53d 143b 183f 1e09 d73d
00000190: e7a3 523e bd93 8dbe 4b57 b13c c72f db3b
000001a0: 634d 233f ec99 40be c9ce 8e3d a6a5 173c
000001b0: 598c 82bd 2413 e9bc b8d0 73bb 2f8b 45bd
000001c0: d816 2a3e 1428 3a3e 5257 ae3e a3ba d5bc
000001d0: ac7b d1bd 6554 6cbe c335 243e dbc1 93bd
000001e0: 1777 f7bd b848 463e 90dd 12be 0596 26bd
000001f0: e9cc 1f3e 3715 7d3e f24f 1b3e 9817 943e
00000200: 1627 1f3e 45cd 38be 15e4 d4bd e979 3cbe
00000210: 5ccd 893d 9d40 163e aad7 d13d a491 0cbe
00000220: f49d 5f3e a489 3fbe b9da 0abe 68af c7bd
00000230: 7a35 353d a09d 2dbd bcd7 42be 8952 2bbe
00000240: efce 1f3f a7b7 3139 754a 68be 7720 8a3d
00000250: a8a5 dc3d 3476 00be 314d 15be f589 8a3d
00000260: 00b8 db3d 17d4 263f d087 1ebc d0da a3be
00000270: 0ee1 b3be 3448 f9be 5c50 c1bc 82fa 9c3d
00000280: 5361 fdbd 0c6f a7bd 23ea aebc f415 c3be
00000290: 1750 58be 2f27 5ebe 4145 a1bd 1604 6bbe
000002a0: 8935 b53d f6ed de3d 880e a73d ccee 64bd
000002b0: fdc0 f93d cf42 10be 8091 eabe bbf1 5e3d
000002c0: 0e7b 65bd 7832 79bd bf4a f7ba 89fe 1b3c
000002d0: d9e0 683d 6c63 163d d9db 9c3d 23d4 713e
000002e0: 79e5 67be b47b d23d 0f5d c6bc 4633 bd3d
000002f0: b18a 383e 8772 343e 4510 18be 2db8 1c3e
00000300: 379b 613e 670f 2abd 1b1f b83b 48e3 8e3e
00000310: 763b ffbd 0513 913e 7524 e03d dc25 a5bd
00000320: 9e84 623a 48ab 0cbe f756 bbbd 0b03 bbbe
00000330: 8edf 1d3e 088b 2a3d 8ba9 33be a480 043e
00000340: 045d 9f3d 4522 483e 7ef6 533e b212 0bbe
00000350: efdb a6be 33ff 5f3d eb76 49bd 50d4 193f
00000360: 9959 0e3e 55e4 583e 1de6 48bd 2a1c 4b3e
00000370: 7e3e 2e3e 1e8e a33d 5926 a13e 8c79 6d3d
00000380: cee1 813d 2d2c fbbc b8ef 8bbe 411c 29be
00000390: 1637 8fbd 1b32 ccbb 6809 0e3d 0be0 14bf
000003a0: 6790 4c3d 49fe 2cbd 2b75 9f3d ad49 d43d
000003b0: 817e ddbd 07f8 84be 94b5 e23c 5e11 2a3e
000003c0: 9c06 b83d 3110 11bf 917e c73e 2eda e33d
000003d0: 19f0 b0be f22c 8dbe 012e 02be dc65 2cbd
000003e0: ed48 9cbd 0b1a b73d a0c0 ec3d e5ba 8ebc
000003f0: 6927 853e d1cc 203e d778 cabd 40eb 593d

_impl.layers.3.linear.weight_g f4 [128, 1]
-0.0019394524 0.0151684275 1.0711571 0.9211699 0.15565163 0.31548807 1.9265312 1.4463358
1.1698809 0.2671188 0.19014554 0.2182239 1.5082735 0.9311344 0.016387125 1.309382
0.8034332 0.20931005 1.1873205 1.9635471 0.67946184 0.6282114 1.2317419 0.92253214
1.0524533 3.666443 1.0825694 1.6927236 0.8567098 1.2313106 1.2457621 1.3820703
0.848437 0.36342528 1.6823053 0.7288465 0.06486161 0.54391587 1.2637438 1.2600385
0.012997555 0.14783597 1.2516251 1.0675732 1.2898998 0.7957698 1.2142218 1.2691681
0.0106598595 0.8220152 1.1481665 1.1797564 1.21253 0.22364424 1.1606742 1.0232422
1.6319803 1.1352949 1.3180327 1.0672517 2.245011 1.3814816 1.2428787 0.55560565
0.19107541 0.65443796 1.9159534 1.5427035 1.7687062 1.8342441 -7.435178e-05 1.2136574
0.07340027 0.92858565 1.2610306 1.0667484 1.479173 0.88003254 8.677098e-05 1.0019633
0.0009836595 0.6796116 0.6024597 0.80839634 1.2049177 0.010710032 0.24798076 0.36518824
0.94628716 0.82299334 1.0707136 0.8484541 1.094621 0.95989746 1.2441232 0.31077707
0.97134465 0.23534316 0.8843246 1.0598279 1.2286085 1.2360594 0.8103225 1.132304
1.1081489 1.1103753 1.2142866 0.82352155 0.839878 1.0453092 1.1735002 1.2245291
0.89232105 0.7812436 1.1591513 0.73343116 0.3232755 -0.010717457 0.8182831 0.8547727
0.87394947 1.0779966 0.64847744 1.9037728 0.0069224164 1.1854315 -0.0003869616 0.6882901
00000000: 3935 feba ff84 783c ad1b 893f cad1 6b3f
00000010: 2463 1f3e a787 a13e 9398 f63f 8821 b93f
00000020: a8be 953f ccc3 883e 83b5 423e 1676 5f3e
00000030: 1b0f c13f d35e 6e3f 4b3e 863c d499 a73f
00000040: ccad 4d3f 6055 563e 1efa 973f 8355 fb3f
00000050: 36f1 2d3f 76d2 203f b8a9 9d3f 112b 6c3f
00000060: cab6 863f 01a7 6a40 a291 8a3f 2bab d83f
00000070: 5551 5b3f 969b 9d3f 2275 9f3f aee7 b03f
00000080: 2b33 593f e112 ba3e c855 d73f af95 3a3f
00000090: 2ad6 843d 123e 0b3f 5bc2 a13f f148 a13f
000000a0: b2f3 543c 5062 173e 4035 a03f 3da6 883f
000000b0: 701b a53f 92b7 4b3f 9f6b 9b3f 1a74 a23f
000000c0: b1a6 2e3c 976f 523f 1ff7 923f 4202 973f
000000d0: 2f34 9b3f ff02 653e f990 943f 9af9 823f
000000e0: bbe4 d03f 5851 913f 4cb5 a83f b49b 883f
000000f0: 43ae 0f40 64d4 b03f a616 9f3f 2c3c 0e3f
00000100: 46a9 433e 3f89 273f f63d f53f 4f77 c53f
00000110: f764 e23f 83c8 ea3f 4fed 9bb8 2059 9b3f
00000120: e152 963d cab7 6d3f 7369 a13f 368b 883f
00000130: 8a55 bd3f d049 613f d1f8 b538 5540 803f
00000140: 23ee 803a 07fb 2d3f cd3a 1a3f 10f3 4e3f
00000150: be3a 9a3f 2179 2f3c abee 7d3e f4f9 ba3e
00000160: e03f 723f b1af 523f 250d 893f 4a34 593f
00000170: 8a1c 8c3f d7bb 753f 6e3f 9f3f 2c1e 9f3e
00000180: 0baa 783f ccfd 703e 1963 623f 71a8 873f
00000190: 0b43 9d3f 3237 9e3f 4c71 4f3f 56ef 903f
000001a0: d3d7 8d3f c720 8e3f be6d 9b3f 4fd2 523f
000001b0: 3f02 573f b1cc 853f 4135 963f 5fbd 9c3f
000001c0: 276f 643f 95ff 473f 125f 943f 25c2 3b3f
000001d0: 5e84 a53e 4698 2fbc 007b 513f 62d2 5a3f
000001e0: 27bb 5f3f cbfb 893f 9e02 263f d4ae f33f
000001f0: 70d5 e23b 38bc 973f 1be1 cab9 c833 303f

_impl.layers.3.linear.bias f4 [128]
-0.00040230667 -0.0025979024 0.022207653 0.012989965 -0.055224635 -0.028500067 -0.057273045 -0.2237021
-0.14298859 0.11967313 0.008903821 -0.10679296 -0.011519197 0.15345344 0.00871009 -0.16613916
-0.13877697 0.13623473 -0.12664123 0.040574785 -0.049091797 -0.031808835 -0.111828804 -0.010957952
-0.023854632 -0.24430905 -0.011865263 -0.12371472 -0.15089576 0.079817384 -0.12723872 -0.13205342
-0.1538981 -0.04202321 0.025502944 -0.1076741 -0.042112436 0.034321334 -0.14543013 -0.17040806
0.006129436 0.02563906 -0.18690985 -0.1886211 -0.12523618 0.011830765 -0.14862959 -0.16669239
-0.0020267228 0.024862723 -0.10244579 -0.0510857 -0.03349927 0.04357349 0.075865135 -0.12513362
-0.14279276 -0.12747133 -0.07890941 -0.009929404 -0.21221398 -0.025954468 0.03791718 0.054528274
-0.06677348 -0.09360772 -0.11560078 0.1447566 -0.18311071 0.14089592 0.0005232332 0.15041529
-0.055649273 -0.19066888 -0.023646394 0.051082976 -0.19891459 -0.065112114 0.0021181921 -0.15736417
0.0007061111 0.0075866515 -0.108752385 0.014095181 -0.1378441 0.004543483 0.108810745 0.022871977
-0.20117581 -0.1365495 -0.08230127 0.0029615758 -0.23463446 0.19719125 -0.0029920987 -0.10608314
-0.06722164 -0.017943311 -0.15738802 -0.07370952 -0.030618306 -0.28223372 0.10594625 -0.09502886
0.0047811973 -0.14507589 -0.1315542 -0.0353577 0.101478465 0.14958511 0.18005005 0.095617324
-0.10465082 -0.011643332 -0.14878564 -0.10327187 -0.010797252 -0.0010487717 0.006963604 -0.12304314
-0.11426505 -0.19140467 -0.011068749 0.06467397 0.0006443818 -0.07046039 -0.00095164735 -0.08641553
00000000: b0ec d2b9 9241 2abb d3ec b53c ddd3 543c
00000010: 3a33 62bd f978 e9bc 2497 6abd 2a12 65be
00000020: 9a6b 12be 3017 f53d 55e1 113c 44b6 dabd
00000030: 04bb 3cbc e622 1d3e c4b4 0e3c 6220 2abe
00000040: 8d1b 0ebe 1e81 0b3e 3dae 01be bf31 263d
00000050: 7b14 49bd fb49 02bd 8006 e5bd fb88 33bc
00000060: ca6a c3bc 272c 7abe 8566 42bc 255e fdbd
00000070: 6b84 1abe 4c77 a33d de4a 02be 0339 07be
00000080: 7797 1dbe 8820 2cbd 8deb d03c 3d84 dcbd
00000090: 177e 2cbd 8794 0c3d a3eb 14be 737f 2ebe
000000a0: 70d9 c83b 0209 d23c 4c65 3fbe e425 41be
000000b0: ea3d 00be d3d5 413c 5b32 18be 69b1 2abe
000000c0: c4d2 04bb e9ac cb3c 19cf d1bd 3d3f 51bd
000000d0: 8836 09bd 1e7a 323d 2e5f 9b3d 0723 00be
000000e0: 4438 12be d887 02be 429b a1bd f0ae 22bc
000000f0: 9f4e 59be 779e d4bc 0c4f 1b3d 0a59 5f3d
00000100: 89c0 88bd 68b5 bfbd 1ac0 ecbd 133b 143e
00000110: 6081 3bbe 0547 103e 9629 093a 7706 1a3e
00000120: 7ef0 63bd b43e 43be 15b6 c1bc 623c 513d
00000130: 44b0 4bbe 8059 85bd 5ed1 0a3b 1324 21be
00000140: 501a 393a 7299 f83b 92b9 debd 79ef 663c
00000150: 0127 0dbe 7fe1 943b 2bd8 de3d 035e bb3c
00000160: 0801 4ebe a2d3 0bbe 918d a8bd ff16 423b
00000170: 0444 70be 81ec 493e 1617 44bb 1e42 d9bd
00000180: 80ab 89bd dafd 92bc 532a 21be 04f5 96bd
00000190: 3ed3 fabc f080 90be 59fa d83d 7e9e c2bd
000001a0: 97ab 9c3b c68e 14be 25b6 06be 3cd3 10bd
000001b0: f1d3 cf3d d72c 193e 0a5f 383e 04d3 c33d
000001c0: 2b53 d6bd adc3 3ebc 435b 18be 3480 d3bd
000001d0: f5e6 30bc f076 89ba f22e e43b 0bfe fbbd
000001e0: cb03 eabd 96ff 43be b359 35bc c973 843d
000001f0: bbeb 283a 894d 90bd f977 79ba a0fa b0bd
