heat_eq_2d/outputs/tanh_interior_2000_arch_64x1/heat_network.0.pth (torch, 4043 bytes, 4 tensors)

_impl.layers.0.linear.weight f4 [64, 2]
0.13102809 -0.24526882 -0.07956518 0.21654436 -0.101210974 0.2927701 1.0740594 -0.008242821
1.1900055 -0.007592276 0.34379464 -0.116047844 1.1243892 -0.008653139 -0.17753704 0.13295431
0.014436635 0.41613334 -0.31929532 -0.1287226 0.24774921 0.19304311 -0.13677697 0.10708212
-0.226192 -0.07764708 -0.2756603 0.141944 0.12501034 0.12699905 -0.0025957485 -0.56607306
0.11674909 0.31217492 -0.13533601 -0.3217488 -1.0755572 0.008674339 0.4959211 0.20785978
0.095100395 -0.25159436 0.32136413 0.14092882 -0.12751777 0.26842558 -0.019082354 -0.38992816
1.1347132 -0.006559813 0.20038626 -0.08660143 0.95869285 -0.007544457 0.1744842 -0.22956693
0.18240005 -0.17410575 -0.21453789 0.11863725 0.17588735 -0.086451136 0.18244247 0.28231663
0.20498356 -0.20486616 0.14156121 -0.20148191 0.100217566 -0.36842385 0.24961215 0.09614322
0.24137962 0.09537045 -1.0804839 0.008819393 -0.09952405 0.32262444 -0.0885176 0.27532443
0.0036290793 0.46538472 -0.23495579 0.07783722 0.1565954 0.23014326 -0.09693876 -0.16530854
-0.22801441 0.07091938 0.13514194 0.26456374 -0.100382596 -0.22232231 -1.0534497 0.00736663
0.14547467 0.33684012 1.1554567 -0.008812981 0.16884044 0.385689 -0.09065976 0.16173738
-0.09367448 0.29984036 -0.73814946 0.016497359 -0.23109479 -0.2166171 0.07859583 -0.2227255
-0.097423375 0.23679572 -0.16055943 0.2154516 -0.32682902 -0.11365135 0.31357437 -0.009171952
-0.30286554 -0.12034285 -1.112981 0.006560976 -0.35038498 0.13579288 1.114248 -0.008401165
00000000: 3a2c 063e c027 7bbe 12f3 a2bd cebd 5d3e
00000010: b347 cfbd f6e5 953e c77a 893f e60c 07bc
00000020: 1a52 983f a1c8 f8bb da05 b03e 7eaa edbd
00000030: fceb 8f3f e5c5 0dbc 45cc 35be 2d25 083e
00000040: a387 6c3c 6e0f d53e ad7a a3be dbcf 03be
00000050: f8b1 7d3e 18ad 453e 430f 0cbe df4d db3d
00000060: e09e 67be 6f05 9fbd 5923 8dbe c559 113e
00000070: b602 003e 0a0c 023e 6f1d 2abb 2aea 10bf
00000080: 261a ef3d 64d5 9f3e 8695 0abe 42bc a4be
00000090: dcab 89bf d11e 0e3c 5fe9 fd3e 32d9 543e
000000a0: ffc3 c23d fad0 80be d789 a43e a54f 103e
000000b0: 0594 02be 146f 893e 9952 9cbc aaa4 c7be
000000c0: 483e 913f b3f3 d6bb 0e32 4d3e 175c b1bd
000000d0: e56c 753f 7e37 f7bb fcab 323e 9813 6bbe
000000e0: 14c7 3a3e c748 32be d2af 5bbe 16f8 f23d
000000f0: d01b 343e 4b0d b1bd 33d2 3a3e ce8b 903e
00000100: 36e7 513e 6fc8 51be 6cf5 103e 4651 4ebe
00000110: de3e cd3d 0da2 bcbe 549a 7f3e bde6 c43d
00000120: 382c 773e 9551 c33d 4c4d 8abf 377f 103c
00000130: 44d3 cbbd 082f a53e b748 b5bd 53f7 8c3e
00000140: d9d5 6d3b e846 ee3e 4098 70be 1f69 9f3d
00000150: 8b5a 203e adaa 6b3e d487 c6bd a446 29be
00000160: 9c7c 69be 2e3e 913d a662 0a3e e674 873e
00000170: 6495 cdbd 76a8 63be 71d7 86bf c563 f13b
00000180: 50f7 143e 4f76 ac3e 01e6 933f 5264 10bc
00000190: 82e4 2c3e 0779 c53e d3ab b9bd 7c9e 253e
000001a0: 68d8 bfbd ad84 993e 5df7 3cbf 7825 873c
000001b0: 1da4 6cbe e0d0 5dbe daf6 a03d 2712 64be
000001c0: e885 c7bd 947a 723e b169 24be 589f 5c3e
000001d0: 2256 a7be 0ac2 e8bd d28c a03e f445 16bc
000001e0: 3111 9bbe 5076 f6bd 2976 8ebf 75fd d63b
000001f0: a965 b3be 4a0d 0b3e ae9f 8e3f 0aa5 09bc

_impl.layers.0.linear.weight_g f4 [64, 1]
5.905132 5.992969 5.6122055 3.732387 3.8321507 5.1774974 3.72751 4.972842
3.5117147 3.8809502 4.162497 4.149723 6.232652 2.894053 4.6079473 6.0643177
6.1092515 5.9060965 3.6986017 3.198921 6.220213 5.483602 3.968441 6.1046987
3.88176 4.4303946 3.7230566 3.3884163 5.0184665 4.7167296 4.4306555 4.076275
4.1631966 3.9272153 6.1742992 4.7084394 4.3182735 3.689732 5.0402575 5.242421
3.218393 5.3232756 4.8662543 3.8764338 5.8018 5.6703672 7.533283 3.790194
6.2900944 3.7315307 6.5890274 4.4801617 5.102599 3.3083236 3.0032423 5.727146
6.1948056 5.0333357 6.0162034 4.6580315 4.5167747 3.8740382 3.0083532 3.7413957
00000000: d7f6 bc40 67c6 bf40 3097 b340 6edf 6e40
00000010: f541 7540 0fae a540 868f 6e40 8621 9f40
00000020: efbf 6040 7d61 7840 2d33 8540 88ca 8440
00000030: e371 c740 2a38 3940 4e74 9340 e40e c240
00000040: fd7e c340 befe bc40 e4b5 6c40 1fbb 4c40
00000050: fc0b c740 ab79 af40 f0fa 7d40 b159 c340
00000060: c16e 7840 cbc5 8d40 8f46 6e40 d0db 5840
00000070: 4797 a040 73ef 9640 eec7 8d40 d870 8240
00000080: e838 8540 7f57 7b40 dc93 c540 89ab 9640
00000090: 4c2f 8a40 9224 6c40 ca49 a140 eac1 a740
000000a0: 27fa 4d40 4658 aa40 5bb8 9b40 7e17 7840
000000b0: 58a8 b940 a673 b540 a810 f140 8a92 7240
000000c0: 7448 c940 66d1 6e40 50d9 d240 7c5d 8f40
000000d0: 7e48 a340 93bb 5340 1f35 4040 c844 b740
000000e0: d93b c640 1611 a140 bd84 c040 980e 9540
000000f0: 6b89 9040 3ef0 7740 dc88 4040 0773 6f40

_impl.layers.0.linear.bias f4 [64]
-1.4331982 -4.6694293 -4.4178085 2.3225055 2.3748016 3.008575 2.3198798 -0.60165876
0.96897054 -2.1140263 0.5395444 -1.5678599 -3.688789 0.1431696 -0.080929734 -3.4571521
-2.4947934 -4.8089867 -2.3046367 0.06131533 4.813878 2.3640482 -0.019581074 3.0601008
2.400727 2.3566766 2.3176951 -1.0575713 -0.046182506 -1.2389596 2.195169 2.4701023
1.1481087 2.4269557 -2.8470702 2.482578 2.2837434 -2.2999365 -4.0300465 -4.167965
-0.6060707 -3.0999773 -0.7698104 -0.62362164 -3.3822367 -1.6177406 -5.75168 -2.35293
5.0337267 2.3219798 5.2066417 -0.71645886 -4.072599 -0.690297 0.7810146 4.4955773
2.1729844 0.65647185 -3.5483744 2.43113 -2.309373 -2.3967254 -0.1684268 2.3272252
00000000: 0a73 b7bf f76b 95c0 b05e 8dc0 eea3 1440
00000010: c0fc 1740 7e8c 4040 e978 1440 4f06 1abf
00000020: 740e 783f 354c 07c0 951f 0a3f a2af c8bf
00000030: 1e15 6cc0 0d9b 123e 7dbe a5bd fb41 5dc0
00000040: b2aa 1fc0 38e3 99c0 2b7f 13c0 c925 7b3d
00000050: 4a0b 9a40 914c 1740 7d68 a0bc b1d8 4340
00000060: 83a5 1940 cad3 1640 1e55 1440 7f5e 87bf
00000070: de29 3dbd 3a96 9ebf a67d 0c40 2816 1e40
00000080: 3af5 923f 3e53 1b40 6636 36c0 8fe2 1e40
00000090: da28 1240 2932 13c0 24f6 80c0 f85f 85c0
000000a0: 7327 1bbf 0766 46c0 4b12 45bf aba5 1fbf
000000b0: 9176 58c0 2012 cfbf c30d b8c0 6896 16c0
000000c0: 4a14 a140 519b 1440 cf9c a640 d969 37bf
000000d0: bb52 82c0 4eb7 30bf 93f0 473f c5db 8f40
000000e0: 2d12 0b40 8a0e 283f 9118 63c0 a297 1b40
000000f0: c4cc 13c0 f363 19c0 1378 2cbe 42f1 1440

_impl.final_layer.linear.weight f4 [1, 64]
-2.3963814 -3.7127051 -3.3349028 -5.393757 -5.5143743 4.1339607 -5.4415026 3.644681
-4.6811185 -1.61394 -5.032639 -1.9880761 -5.7608395 -1.9405994 -3.333438 -2.5943255
-2.0128472 -3.3105488 5.49876 4.8215995 4.077729 2.8547463 -2.9500742 1.8510131
-5.5169587 3.0127714 -5.318009 3.385747 -3.3958788 4.4258065 2.9041803 -9.445434
1.9111612 -8.702246 -2.184178 3.187403 2.2065141 5.448578 -2.6745353 -2.894269
4.8448663 -4.3846607 -4.2630577 -2.5258064 -5.0657344 -2.8740377 -5.5333395 5.491291
3.6419199 -5.5184712 4.1193724 -1.8024229 -2.6983194 -4.731043 -6.2667575 3.4315133
2.519639 3.5105438 -5.50998 -3.6228998 -2.3593957 5.498217 -1.5170785 -5.4633904
00000000: 505e 19c0 f69c 6dc0 0c6f 55c0 a899 acc0
00000010: c175 b0c0 6849 8440 ca20 aec0 7442 6940
00000020: b9cb 95c0 9695 cebf 610b a1c0 4779 febf
00000030: cc58 b8c0 9065 f8bf 0c57 55c0 6e09 26c0
00000040: 7dd2 00c0 08e0 53c0 d8f5 af40 8b4a 9a40
00000050: c27c 8240 2ab4 3640 04ce 3cc0 ffed ec3f
00000060: ed8a b0c0 3fd1 4040 212d aac0 14b0 5840
00000070: 1456 59c0 35a0 8d40 17de 3940 7f20 17c1
00000080: eea0 f43f 663c 0bc1 93c9 0bc0 69fe 4b40
00000090: 8737 0d40 c05a ae40 962b 2bc0 b43b 39c0
000000a0: 2509 9b40 244f 8cc0 f86a 88c0 d0a6 21c0
000000b0: 7f1a a2c0 3cf0 37c0 1e11 b1c0 a8b8 af40
000000c0: 3715 6940 5197 b0c0 e6d1 8340 cbb5 e6bf
000000d0: 44b1 2cc0 b464 97c0 4789 c8c0 ea9d 5b40
000000e0: c441 2140 c0ac 6040 c251 b0c0 97dd 67c0
000000f0: 5700 17c0 65f1 af40 a12f c2bf 18d4 aec0
