3d_solid_solid/outputs/heat_net.0.pth (torch, 443234 bytes, 26 tensors)

fourier_layer_xyzt.frequencies f4 [3, 30]
0.0 0.0 0.0 1.0 0.0 0.0 2.0 0.0
0.0 3.0 0.0 0.0 4.0 0.0 0.0 5.0
0.0 0.0 6.0 0.0 0.0 7.0 0.0 0.0
8.0 0.0 0.0 9.0 0.0 0.0 0.0 0.0
0.0 0.0 1.0 0.0 0.0 2.0 0.0 0.0
3.0 0.0 0.0 4.0 0.0 0.0 5.0 0.0
0.0 6.0 0.0 0.0 7.0 0.0 0.0 8.0
0.0 0.0 9.0 0.0 0.0 0.0 0.0 0.0
0.0 1.0 0.0 0.0 2.0 0.0 0.0 3.0
0.0 0.0 4.0 0.0 0.0 5.0 0.0 0.0
6.0 0.0 0.0 7.0 0.0 0.0 8.0 0.0
0.0 9.0
00000000: 0000 0000 0000 0000 0000 0000 0000 803f
00000010: 0000 0000 0000 0000 0000 0040 0000 0000
00000020: 0000 0000 0000 4040 0000 0000 0000 0000
00000030: 0000 8040 0000 0000 0000 0000 0000 a040
00000040: 0000 0000 0000 0000 0000 c040 0000 0000
00000050: 0000 0000 0000 e040 0000 0000 0000 0000
00000060: 0000 0041 0000 0000 0000 0000 0000 1041
00000070: 0000 0000 0000 0000 0000 0000 0000 0000
00000080: 0000 0000 0000 0000 0000 803f 0000 0000
00000090: 0000 0000 0000 0040 0000 0000 0000 0000
000000a0: 0000 4040 0000 0000 0000 0000 0000 8040
000000b0: 0000 0000 0000 0000 0000 a040 0000 0000
000000c0: 0000 0000 0000 c040 0000 0000 0000 0000
000000d0: 0000 e040 0000 0000 0000 0000 0000 0041
000000e0: 0000 0000 0000 0000 0000 1041 0000 0000
000000f0: 0000 0000 0000 0000 0000 0000 0000 0000
00000100: 0000 0000 0000 803f 0000 0000 0000 0000
00000110: 0000 0040 0000 0000 0000 0000 0000 4040
00000120: 0000 0000 0000 0000 0000 8040 0000 0000
00000130: 0000 0000 0000 a040 0000 0000 0000 0000
00000140: 0000 c040 0000 0000 0000 0000 0000 e040
00000150: 0000 0000 0000 0000 0000 0041 0000 0000
00000160: 0000 0000 0000 1041

fc_u.linear.weight f4 [128, 63]
0.13036834 -0.23690717 0.15048291 0.46453965 0.44882506 -0.40984803 0.02769219 0.31282356
-0.099007435 0.087009065 -0.1525478 -0.23964062 0.14539093 -0.25094682 0.08116224 0.1357054
0.3066557 -0.017425435 -0.035973057 0.011998969 0.0331588 0.09141749 -0.093145385 -0.13834913
-0.10501779 -0.01784146 -0.046341036 -0.2238084 0.22795202 0.3373973 -0.009649159 -0.2565201
-0.015440743 -0.023039052 0.039269004 0.05132728 -0.02587385 -0.06955747 0.059929527 0.09784646
0.5397142 -0.02954542 0.11725823 -0.36398098 0.094618484 0.01002242 0.15343128 0.0067208325
-0.06250074 0.19478627 0.06255837 0.054307863 -0.09021297 0.09998599 0.2074095 -0.054528017
-0.02252578 0.009511325 0.22236486 0.09479288 -0.06791048 0.14998728 -0.069914766 -0.15264061
-0.27771023 -0.2587741 -0.070287146 -2.00994e-40 2.1475173e-19 0.38671014 -0.28602466 -0.40189314
-0.35253048 0.35418612 0.32918483 -0.020426068 -0.13886015 -0.0857798 0.11185627 0.048758347
0.16106899 -0.05079096 0.012110738 -0.014431872 -0.15692347 -0.0018261942 0.009684547 0.14830773
-0.17082898 -0.06939588 0.18765791 0.0009001109 0.15384172 -0.30970198 0.0037356894 -0.02306737
0.4256054 0.44426316 0.42718458 -0.18423411 -0.18695714 -0.16903552 -0.03154653 0.091276914
-0.15414809 0.27603525 0.18768296 0.01465413 -0.0016152138 -0.1884493 0.07297168 0.018549636
-0.0598584 0.068996355 -0.09616882 0.23131385 0.029322559 0.107636094 0.005491664 -0.01667978
-0.15233654 0.040645145 0.07003629 0.003794182 -0.18694046 0.063115336 -0.14955206 0.15703887
-0.0339129 4.666492e-39 3.463969e-39 4.500532e-39 -0.0948219 0.09923085 -0.12097703 -0.2300934
-0.12486904 0.25295222 0.08238195 0.198288 -0.0068933466 0.27775434 -0.20257573 -0.17414811
-0.76340145 -0.1273636 0.065714106 0.26047686 0.020815361 -0.08289359 0.21705407 -0.08819966
-0.18129338 -0.34712493 -0.15339518 0.08568848 0.12903191 0.06290622 -0.026060522 -0.08154609
0.22912963 0.00021192749 -0.1529256 -0.09328372 -0.21541065 -0.12906045 0.030754378 0.016269656
0.3800881 0.01624584 0.038833797 -0.48301312 0.004669665 -0.011861147 -0.038399387 -0.18408494
-0.15149577 0.46350208 0.07669368 0.11547409 -0.5571742 -0.033751655 0.030558355 0.32417935
-0.031831447 -0.12353259 0.22862402 -0.08418575 -0.12847474 0.20359042 0.29997918 -0.22226354
1.4208248 1.5192819 1.4279342 -0.068354465 -0.11181593 -0.16645315 0.027170656 0.079100244
0.12293505 -0.2681884 -0.08891093 0.0071631786 0.12502164 0.10359911 0.12273551 0.12252479
0.15435873 -0.12533748 0.0062505747 0.021685375 0.05526924 0.19390288 0.0051230434 0.09965622
-0.05489882 -0.11097251 -0.14676978 -0.027106686 -0.060393408 -0.09400979 -0.0945678 -0.10669376
-0.13945965 0.006508049 -0.20895092 -0.089108594 0.15272741 -0.011880997 -0.1628338 0.11460663
-0.015430417 -0.035629544 -0.12222295 0.039328903 -0.057490375 0.24635454 -0.12424431 0.019468835
-0.074476734 0.05522786 0.19775139 0.059166018 0.08888909 -0.107649 0.08189459 0.03550066
-0.14320768 -0.024854116 0.043775525 0.0124895815 -0.046212982 -0.13702668 0.14652115 -0.46179363
00000000: 477f 053e cb97 72be 3118 1a3e 24d8 ed3e
00000010: 66cc e53e 9ad7 d1be bbda e23c 692a a03e
00000020: 69c4 cabd cf31 b23d 7e35 1cbe 5a64 75be
00000030: 5ce1 143e 1a7c 80be 6338 a63d 5bf6 0a3e
00000040: fa01 9d3e c9bf 8ebc 7c58 13bd 5397 443c
00000050: 86d1 073d 1839 bb3d 02c3 bebd 65ab 0dbe
00000060: 9113 d7bd 4128 92bc 19d0 3dbd 072e 65be
00000070: 416c 693e 57bf ac3e 8217 1ebc 9a56 83be
00000080: 2cfb 7cbc 65bc bcbc 89d8 203d 8e3c 523d
00000090: 65f5 d3bc 2674 8ebd aa78 753d ba63 c83d
000000a0: b62a 0a3f 3d09 f2bc 1525 f03d b75b babe
000000b0: 56c7 c13d 1435 243c 171d 1d3e 6e3a dc3b
000000c0: 6300 80bd 0d76 473e 9a1e 803d ec71 5e3d
000000d0: 94c1 b8bd 74c5 cc3d 2863 543e c558 5fbd
000000e0: fc87 b8bc 63d5 1b3c 9db3 633e c522 c23d
000000f0: a614 8bbd 4496 193e 792f 8fbd d24d 1cbe
00000100: 0930 8ebe 0a7e 84be b5f2 8fbd 4a30 0280
00000110: ba88 7d20 dffe c53e d371 92be f0c4 cdbe
00000120: e07e b4be e257 b53e ea8a a83e 9254 a7bc
00000130: 5b31 0ebe 52ad afbd e614 e53d d5b6 473d
00000140: 45ef 243e 2f0a 50bd 1e6c 463c a973 6cbc
00000150: 8cb0 20be e95c efba efab 1e3c fbdd 173e
00000160: cbed 2ebe 6d1f 8ebd 6529 403e 6cf5 6b3a
00000170: af88 1d3e 4291 9ebe 78d2 743b c8f7 bcbc
00000180: f3e8 d93e 7676 e33e f0b7 da3e dea7 3cbe
00000190: b171 3fbe a617 2dbe ef36 01bd 64ef ba3d
000001a0: ffd8 1dbe 7e54 8d3e f62f 403e e017 703c
000001b0: 95b5 d3ba daf8 40be 2d72 953d 68f5 973c
000001c0: 152e 75bd f64d 8d3d 29f4 c4bd 8add 6c3e
000001d0: dd35 f03c 5070 dc3d 6bf3 b33b 09a4 88bc
000001e0: 1cfe 1bbe 867b 263d 306f 8f3d d0a7 783b
000001f0: 526d 3fbe 9d42 813d 2d24 19be ccce 203e
00000200: 41e8 0abd 48d0 3200 23b8 2500 a701 3100
00000210: fc31 c2bd 8b39 cb3d cec2 f7bd 9b9d 6bbe
00000220: 57bb ffbd f482 813e deb7 a83d 020c 4b3e
00000230: 95e1 e1bb d135 8e3e 0370 4fbe e253 32be
00000240: 476e 43bf 9b6b 02be 1e95 863d 395d 853e
00000250: fa84 aa3c 1dc4 a9bd 6c43 5e3e 06a2 b4bd
00000260: f9a4 39be 5cba b1be a013 1dbe 717d af3d
00000270: f120 043e fad4 803d e07c d5bc a301 a7bd
00000280: f5a0 6a3e da38 5e39 8798 1cbe 890b bfbd
00000290: 9c94 5cbe 6c28 04be 9bf0 fb3c f147 853c
000002a0: e89a c23e ff15 853c 3010 1f3d 7f4d f7be
000002b0: fd03 993b 4255 42bc ad48 1dbd c380 3cbe
000002c0: b521 1bbe 2550 ed3e 9311 9d3d ae7d ec3d
000002d0: f8a2 0ebf 2d3f 0abd 8455 fa3c d6fa a53e
000002e0: b161 02bd a8fe fcbd 6a1c 6a3e 9469 acbd
000002f0: e28e 03be 027a 503e df96 993e 0e99 63be
00000300: 96dd b53f d477 c23f 8cc6 b63f 6dfd 8bbd
00000310: c0ff e4bd b272 2abe ff94 de3c 4fff a13d
00000320: 5fc5 fb3d fd4f 89be ef16 b6bd 19b9 ea3b
00000330: ac05 003e c52b d43d c15c fb3d 47ee fa3d
00000340: 3710 1e3e 7858 00be 9fd1 cc3b 87a5 b13c
00000350: 0062 623d 7a8e 463e 34df a73b 8f18 cc3d
00000360: 96dd 60bd 8e45 e3bd d14a 16be d70e debc
00000370: 145f 77bd 3488 c0bd c3ac c1bd 4282 dabd
00000380: 83ce 0ebe 7941 d53b 3bf7 55be 917e b6bd
00000390: 9364 1c3e 83a8 42bc e7bd 26be e1b6 ea3d
000003a0: dccf 7cbc 49f0 11bd 0750 fabd 5817 213d
000003b0: 077b 6bbd 5d44 7c3e cd73 febd 1b7d 9f3c
000003c0: 4287 98bd 9c36 623d 577f 4a3e 1158 723d
000003d0: 7c0b b63d 1477 dcbd 5ab8 a73d 2469 113d
000003e0: 09a5 12be dc9a cbbc f74d 333d 1aa1 4c3c
000003f0: d349 3dbd b950 0cbe a409 163e 3770 ecbe

fc_u.linear.weight_g f4 [128, 1]
0.6765655 1.070051 1.4412414 0.0012187621 0.63871104 0.20513779 0.6467798 0.82981366
1.2454789 0.0030360164 1.3094791 0.9681073 0.55259347 0.49426717 1.5994685 0.84206265
0.17609443 0.5850727 1.0394819 1.6247197 0.97651255 0.57175344 0.82762927 0.7435979
0.71300215 0.81325126 0.11766256 0.6977437 0.24358565 0.88700265 1.1499066 0.74263436
0.69541174 0.3762564 0.7784244 0.41516036 0.5451887 0.7016513 0.58914113 1.2061441
0.79686093 0.9134034 0.1995418 1.2155374 1.0030911 0.53030217 0.15976062 0.54985887
0.49570316 0.6330886 1.2091683 0.43577018 0.6278332 1.0263149 0.7235794 0.7279893
0.43208355 0.7809956 0.6475994 1.0461254 0.54335576 0.9436927 0.099835336 2.5786788
0.029542757 0.6200287 0.80852556 0.84364146 0.67673814 0.46818078 0.038977813 0.60710216
0.76652074 0.7596575 0.53389835 0.53569585 1.0014904 0.813744 0.6791124 0.6343738
5.6367946e-05 0.8672603 1.3058928 0.90165216 0.5178567 0.11456068 0.5703488 0.8815215
0.8395951 0.86925465 1.000664 1.2805057 0.22430754 1.0946041 0.4493765 1.4525214
0.83499885 1.0365367 1.096443 0.7164143 0.3144267 0.9446349 0.5977312 0.64296824
0.9120091 0.5029011 0.7279222 0.706012 0.0005290173 0.91350436 0.7059541 0.21880476
0.3976474 1.0747734 0.10616848 0.5978902 0.6217476 0.95302594 0.7469311 0.62753814
0.5256242 1.1652409 0.8232381 1.0500152 0.60595036 0.7528048 0.85672444 0.48517525
00000000: 6633 2d3f 6ef7 883f 997a b83f dfbe 9f3a
00000010: 9182 233f a40f 523e 5c93 253f ab6e 543f
00000020: da6b 9f3f e7f7 463b 039d a73f e1d5 773f
00000030: c476 0d3f 9610 fd3e 62bb cc3f 6b91 573f
00000040: 1952 343e 53c7 153f be0d 853f d1f6 cf3f
00000050: bafc 793f 6f5e 123f 83df 533f 6f5c 3e3f
00000060: 4f87 363f 3c31 503f 11f9 f03d 559f 323f
00000070: 846e 793e 9b12 633f 2430 933f 491d 3e3f
00000080: 8106 323f aea4 c03e d246 473f e68f d43e
00000090: 7d91 0b3f 6b9f 333f f4d1 163f ee62 9a3f
000000a0: 14ff 4b3f ced4 693f b054 4c3e bb96 9b3f
000000b0: 4a65 803f e2c1 073f 4a98 233e 8dc3 0c3f
000000c0: cecc fd3e 1812 223f 07c6 9a3f 451d df3e
000000d0: adb9 203f 495e 833f 803c 393f 825d 3a3f
000000e0: 0e3a dd3e 54ef 473f 13c9 253f 70e7 853f
000000f0: 5d19 0b3f d895 713f 7876 cc3d 1309 2540
00000100: a703 f23c 33ba 1e3f 88fb 4e3f e3f8 573f
00000110: b63e 2d3f 64b5 ef3e 33a7 1f3d 0c6b 1b3f
00000120: b43a 443f ea78 423f 90ad 083f 5d23 093f
00000130: d630 803f 8751 503f 4fda 2d3f 5266 223f
00000140: 9f6c 6c38 c504 5e3f 7f27 a73f add2 663f
00000150: 4292 043f ca9e ea3d 6102 123f 65ab 613f
00000160: b4ef 563f 7987 5e3f c215 803f 9ce7 a33f
00000170: e0b0 653e fd1b 8c3f ad14 e63e 39ec b93f
00000180: 7cc2 553f 3cad 843f 3f58 8c3f ed66 373f
00000190: 89fc a03e 98d3 713f e904 193f 9199 243f
000001a0: 6e79 693f 20be 003f 1c59 3a3f 34bd 343f
000001b0: c0ad 0a3a 6cdb 693f 68b9 343f 5b0e 603e
000001c0: 7198 cb3e 2d92 893f dc6e d93d 550f 193f
000001d0: da2a 1f3f 82f9 733f e036 3f3f 57a6 203f
000001e0: 4f8f 063f 9d26 953f bbbf 523f e666 863f
000001f0: 901f 1b3f d1b7 403f 4b52 5b3f e468 f83e

fc_u.linear.bias f4 [128]
-0.039457217 0.2723418 0.04733026 0.012572634 0.04375063 -0.041349344 0.04423795 -0.024907345
0.19315986 0.26683122 -0.04509751 0.2842864 -0.029758077 0.04572246 -0.47960818 0.09661077
0.08064798 -0.16163105 0.32107443 -0.3752807 -0.33656383 0.07169718 0.03153335 0.11917031
-0.032650664 -0.00033447193 -0.038387466 0.14314976 -0.06403255 0.021896368 0.3573371 -0.20993587
-0.054398354 0.022804793 0.093754895 -0.100213975 -0.015537233 -0.03707101 -0.11091473 -0.112309545
-0.05686889 -0.09279551 0.058315866 -0.4710341 0.3410517 0.02704705 -0.074008316 0.055122104
-0.0025089937 0.0030023379 -0.13176349 0.056445252 0.06659758 -0.24761751 0.044931676 -0.19625734
0.022447128 0.12964645 0.03843434 -0.32236552 0.034430645 -0.22344923 0.014977551 -0.07211165
-0.006985772 0.014489425 -0.13798833 -0.11767819 -0.06740965 0.004325827 -0.04016381 0.076314524
-0.02054373 0.046616588 0.023714397 -0.021524293 0.10901732 0.027567927 0.006761161 -0.07667857
-0.055854853 -0.01091377 -0.37518382 -0.16464216 0.028372847 -0.052297816 0.083654076 0.04444412
-0.1115918 -0.11378229 -0.22950438 -0.39353472 -0.019821905 -0.38753334 0.025082348 0.36312792
-0.1383976 0.21536706 0.059692625 -0.36877137 0.11678356 -0.06306018 0.02073565 0.064253904
0.047423862 0.03049748 -0.14397527 0.029192382 0.021178653 -0.025488531 0.08815306 -0.120497964
0.010265199 0.19601913 0.007850943 -0.065193534 0.10577412 0.0109423045 -0.26510423 -0.050242275
-0.05038962 0.3185053 0.023313617 -0.31024176 0.077310495 0.014822105 0.21249504 0.02116663
00000000: e49d 21bd 6270 8b3e 60dd 413d 73fd 4d3c
00000010: dc33 333d ee5d 29bd da32 353d 7d0a ccbc
00000020: b3cb 453e 1a9e 883e 2bb8 38bd fd8d 913e
00000030: 36c7 f3bc 7947 3b3d 348f f5be dedb c53d
00000040: c52a a53d 9c82 25be de63 a43e cb24 c0be
00000050: 1852 acbe f9d5 923d 1d29 013d 900f f43d
00000060: b4bc 05bd 105c afb9 2d3c 1dbd da95 123e
00000070: 7f23 83bd 0360 b33c e3f4 b63e 6ef9 56be
00000080: cfd0 5ebd 1ed1 ba3c 9102 c03d fc3c cdbd
00000090: e18f 7ebc c5d7 17bd 4327 e3bd 8c02 e6bd
000000a0: 5aef 68bd 930b bebd 9edc 6e3d 622b f1be
000000b0: 549e ae3e c691 dd3c ac91 97bd b7c7 613d
000000c0: ee6d 24bb dfc2 443b 02ed 06be 2333 673d
000000d0: 5064 883d 728f 7dbe 470a 383d aff7 48be
000000e0: 0ae3 b73c 0ac2 043e 546d 1d3d 180d a5be
000000f0: 2607 0d3d e0cf 64be 6764 753c 46af 93bd
00000100: e7e8 e4bb 0e65 6d3c d04c 0dbe 4301 f1bd
00000110: 120e 8abd abbf 8d3b cf82 24bd ca4a 9c3d
00000120: 534b a8bc 09f1 3e3d b244 c23c b753 b0bc
00000130: 7944 df3d 22d6 e13c bb8c dd3b a709 9dbd
00000140: 0fc8 64bd abcf 32bc 1818 c0be f497 28be
00000150: 2c6e e83c 3c36 56bd d452 ab3d 0a0b 363d
00000160: 3e8a e4bd b006 e9bd 3203 6bbe 627d c9be
00000170: 8c61 a2bc c56a c6be 7f79 cd3c e7eb b93e
00000180: 1ab8 0dbe 2f89 5c3e 4180 743d 9acf bcbe
00000190: 382c ef3d b225 81bd cfdd a93c 8d97 833d
000001a0: 863f 423d dad5 f93c 416e 13be dd24 ef3c
000001b0: db7e ad3c 53cd d0bc 9789 b43d a3c7 f6bd
000001c0: 5d2f 283c 3db9 483e 3ea1 003c 3084 85bd
000001d0: 1aa0 d83d 5a47 333c bebb 87be d8ca 4dbd
000001e0: 5965 4ebd 2013 a33e 33fc be3c 02d8 9ebe
000001f0: f754 9e3d 6ad8 723c 4d98 593e a465 ad3c

fc_v.linear.weight f4 [128, 63]
-0.26282886 -0.37866285 -0.5769831 -0.4021228 -0.35591277 0.35336858 0.06717591 -0.016136091
-0.35279614 -0.32662904 -0.102141105 0.11063781 -0.13751468 0.0169688 0.100794785 0.014564709
-0.26674086 0.10324485 -0.09656459 0.21960855 -0.17679021 -0.07472374 0.25702748 -0.06809809
0.17311656 -0.16299836 -0.13686694 -0.11640093 -0.25410384 0.009972785 0.0009809451 0.01147296
0.06420949 -0.004296183 -0.02520757 0.36789304 -0.21473396 -0.13807113 0.05347941 0.16682135
-0.2263055 -0.2643767 0.19757752 0.29329902 0.15297692 0.10275941 -0.00924125 0.07444063
0.043372694 0.08003752 0.0011279712 -0.28335387 0.16201647 0.029556701 -0.09344051 0.12887628
0.18920429 0.080998786 -0.15108624 0.08298892 -0.020753603 -0.19995674 -0.061100934 0.09104266
0.047261957 -0.18603213 1.373664 -1.4948568 1.3932548 0.1368554 -0.1874313 0.04492773
0.08490264 -0.15298982 0.19659147 -0.019365769 -0.14125745 0.044958733 -0.081265286 -0.113257945
-0.055202987 -0.029944051 0.10274125 0.022371525 -0.1897993 0.038098987 0.06316294 -0.03445551
-0.07157001 0.1369116 -0.027687619 0.0038205888 -0.12582399 0.097749576 0.013588105 0.06676698
0.17009696 0.060422413 -0.19982721 0.14578345 0.21340026 -0.18146716 -0.08142726 0.030908579
-0.009912334 -0.077691026 -0.16635703 -0.13226049 -0.29844826 -0.014624412 0.14710154 -0.023430461
0.045574646 -0.019945305 -0.07877239 -0.09099451 0.07986229 -0.06974239 -0.005994044 -0.20956893
-0.14604515 0.032302644 -0.00852773 -0.07577475 -0.0036921566 0.11564209 0.089114234 -0.23199464
-0.023977818 -1.0716648 -1.0917814 -1.0754733 0.0104844645 0.10898909 -0.105978176 -0.13221996
-0.06634658 -0.16056533 0.20880347 -0.07875087 -0.09312934 0.1738476 0.19946264 -0.1086266
-0.17386875 0.12750585 0.19202937 0.39117712 0.1674145 0.12164287 -0.0828097 0.10352516
0.15845476 0.0022936545 -0.08179082 0.03801396 -0.22008249 -0.078101374 0.052889924 -0.16071324
-0.102404796 0.21265502 -0.17249984 0.06351689 -0.24973828 -0.3163108 0.059954166 0.13550359
-0.15694793 0.2122165 -0.23149942 0.070182465 0.09651923 -0.17964981 0.05705787 0.21363667
-0.2097665 0.18110561 0.050948057 -0.055047076 0.065819204 -0.10688253 -0.08198352 -0.31387523
-0.030719735 0.105863295 -0.3893189 0.07716552 -0.021070579 -0.0040363693 -0.16396494 0.20351309
-0.56047094 -0.4993407 -0.56786346 0.07196663 -0.032463115 -0.25684747 -0.19952722 -0.12967998
-0.17841043 0.20039524 0.12601355 0.29370177 0.06848916 0.07604553 -0.31128657 0.070296116
-0.18344541 0.20945264 0.05137559 0.1321965 -0.077708535 0.13819253 0.018170679 0.14648058
0.07713893 0.001883144 -0.21390559 -0.1715522 -0.07773036 0.05564036 0.108526096 -0.17630105
-0.17668074 0.14389606 -0.1039995 0.15141997 -0.02921747 0.090165265 -0.18746048 0.16719773
-0.43734032 0.20553486 0.009360037 0.18297641 0.016490648 -0.09916239 0.21827763 -0.09384042
-0.07776651 0.089911655 0.15238442 -0.21058147 -0.23332071 0.025426222 0.058668148 0.41632342
0.15776847 -0.077880494 -0.15654683 -0.31432313 0.29493695 0.08229271 -0.04673265 1.0075276
00000000: 8191 86be 19e0 c1be 2ab5 13bf 0ae3 cdbe
00000010: 333a b6be baec b43e 8693 893d d62f 84bc
00000020: b2a1 b4be ec3b a7be 5b2f d1bd 1396 e23d
00000030: a6d0 0cbe 2702 8b3c 7f6d ce3d d1a0 6e3c
00000040: 4292 88be 0972 d33d a8c3 c5bd 10e1 603e
00000050: 7e08 35be c308 99bd 1b99 833e 0377 8bbd
00000060: 7845 313e 0be9 26be d926 0cbe 9c63 eebd
00000070: e619 82be e464 233c 0e93 803a 15f9 3b3c
00000080: 4480 833d ffc6 8cbb 1b80 cebc 7a5c bc3e
00000090: 38e3 5bbe 8562 0dbe 3a0d 5b3d 37d3 2a3e
000000a0: a1bc 67be 625c 87be c351 4a3e 4a2b 963e
000000b0: fba5 1c3e 8773 d23d 9d68 17bc 5474 983d
000000c0: 91a7 313d b6ea a33d 6fd8 933a c213 91be
000000d0: a5e7 253e e520 f23c bd5d bfbd 25f8 033e
000000e0: c5be 413e b1e2 a53d 5ab6 1abe 18f6 a93d
000000f0: 7603 aabc 76c1 4cbe f944 7abd 9374 ba3d
00000100: c195 413d 357f 3ebe 39d4 af3f 7857 bfbf
00000110: 2c56 b23f d223 0c3e feed 3fbe 2406 383d
00000120: 6fe1 ad3d 5da9 1cbe 464f 493e f6a4 9ebc
00000130: cba5 10be a626 383d 6a6e a6bd c8f3 e7bd
00000140: 871c 62bd 3a4d f5bc 016a d23d 7d44 b73c
00000150: bf5a 42be af0d 1c3d 925b 813d 3921 0dbd
00000160: 4c93 92bd 8e32 0c3e 25d1 e2bc d862 7a3b
00000170: 01d8 00be ee30 c83d a5a0 5e3c 20bd 883d
00000180: e62d 2e3e 7e7d 773d 819f 4cbe 4248 153e
00000190: 9985 5a3e 87d2 39be 56c3 a6bd fd33 fd3c
000001a0: 5867 22bc 791c 9fbd 7f59 2abe 4b6f 07be
000001b0: 36ce 98be 3b9b 6fbc c9a1 163e 3df1 bfbc
000001c0: 7bac 3a3d 5664 a3bc 6b53 a1bd 545b babd
000001d0: d78e a33d 19d5 8ebd af69 c4bb 3d99 56be
000001e0: dc8c 15be c74f 043d e4b7 0bbc cb2f 9bbd
000001f0: 1cf8 71bb c3d5 ec3d 8681 b63d 0190 6dbe
00000200: 216d c4bc 502c 89bf 7ebf 8bbf 1ca9 89bf
00000210: 08c7 2b3c ac35 df3d 160b d9bd ab64 07be
00000220: b7e0 87bd 3d6b 24be 94d0 553e 2348 a1bd
00000230: 98ba bebd 1b05 323e ef3f 4c3e 9f77 debd
00000240: a60a 32be e590 023e 59a3 443e 5e48 c83e
00000250: b56e 2b3e e61f f93d 2298 a9bd 0005 d43d
00000260: f741 223e 2351 163b f281 a7bd 87b4 1b3d
00000270: 4e5d 61be 9df3 9fbd 1ba3 583d 0392 24be
00000280: 9bb9 d1bd 3dc2 593e cca3 30be 2515 823d
00000290: 64bb 7fbe 7df3 a1be 8092 753d 74c1 0a3e
000002a0: f5b6 20be 484f 593e 2f0e 6dbe d3bb 8f3d
000002b0: e0ab c53d 1ff6 37be 83b5 693d 92c3 5a3e
000002c0: 08cd 56be c073 393e e9ae 503d 0b79 61bd
000002d0: 38cc 863d 3ae5 dabd fae6 a7bd 41b4 a0be
000002e0: f4a7 fbbc dbce d83d cf54 c7be f508 9e3d
000002f0: 359c acbc 8543 84bb 6de6 27be bc65 503e
00000300: 067b 0fbf 96a9 ffbe 805f 11bf 3e63 933d
00000310: 0bf8 04bd 8381 83be dd50 4cbe d4ca 04be
00000320: 39b1 36be 6934 4d3e b209 013e 1460 963e
00000330: 0b44 8c3d c2bd 9b3d f460 9fbe 69f7 8f3d
00000340: 1dd9 3bbe c17a 563e 366f 523d 855e 073e
00000350: a725 9fbd 5882 0d3e adda 943c 01ff 153e
00000360: 04fb 9d3d d4d3 f63a 110a 5bbe 61ab 2fbe
00000370: 1831 9fbd 25e7 633d ee42 de3d 4388 34be
00000380: cceb 34be 7d59 133e b1fd d4bd d60d 1b3e
00000390: 7a59 efbc 91a8 b83d a4f5 3fbe e235 2b3e
000003a0: 12eb dfbe bb77 523e d75a 193c 2b5e 3b3e
000003b0: 6517 873c a715 cbbd 2c84 5f3e 682f c0bd
000003c0: 0c44 9fbd 9a23 b83d a90a 1c3e aba2 57be
000003d0: a0eb 6ebe a74a d03c 034e 703d 5828 d53e
000003e0: 0f8e 213e cf7f 9fbd d04d 20be f6ee a0be
000003f0: fa01 973e 1589 a83d bc6a 3fbd aaf6 803f

fc_v.linear.weight_g f4 [128, 1]
0.70076925 0.00038438276 -0.04075431 0.5969475 0.14947335 0.75172806 0.31218633 0.32981062
1.2625084 0.92907095 0.5706442 0.07329007 1.2728035 0.41539508 0.3532793 0.6640572
0.5782179 1.4153354 1.0458033 0.7620062 1.3552672 0.0038226522 1.1110569 -9.755131e-05
0.04977767 -0.02464108 0.6818779 0.6295099 0.5756675 0.22905067 0.45087108 0.53979874
-8.112411e-05 0.58943075 0.78941613 0.41959715 0.56910324 0.19860639 1.3741665 0.22472973
0.5248617 -0.0026085244 0.043693826 0.4905257 0.49841574 0.85134894 0.9829309 -3.600123e-05
0.5469378 1.2498366 0.2917133 0.49360862 0.59134173 0.8654251 0.24689424 0.30521697
0.78417546 0.2459457 0.113380276 0.827263 -0.0004682481 0.23936802 0.5236549 -0.07341108
0.8572928 0.44274148 0.66295236 0.30257598 0.32567152 0.34141824 0.6521544 0.39976543
0.33169013 0.24099019 0.08885374 1.1623175 0.8647691 0.19623092 1.667285 0.37003815
0.6129582 2.8467932e-05 0.76452935 7.4625397 0.45013314 0.6425731 0.82385427 0.6748901
0.43780562 1.1405472 0.51267594 0.7595161 0.7032688 0.385571 0.22116739 0.60735154
0.527115 0.24312755 1.02108 0.7686024 0.76239645 0.9596805 -0.00011227179 0.3260627
0.15960436 0.09423461 0.5531857 0.69818443 0.71767426 0.05706214 0.79830927 0.58758384
0.58735865 0.48911119 0.324852 0.029489141 0.7297156 0.5629519 0.7942347 -0.0005850572
0.88822365 0.4485508 0.3063877 0.50232244 0.73129994 0.46411282 0.8363888 0.72009665
00000000: 9d65 333f fb86 c939 feed 26bd 8dd1 183f
00000010: 8b0f 193e 4071 403f e3d6 9f3e f0dc a83e
00000020: e099 a13f 98d7 6d3f bd15 123f 1b19 963d
00000030: 3aeb a23f aaae d43e 06e1 b43e a7ff 293f
00000040: 1706 143f b629 b53f e2dc 853f d712 433f
00000050: 6579 ad3f 7685 7a3b 1d37 8e3f 7694 ccb8
00000060: ace3 4b3d 17dc c9bc 8d8f 2e3f 9027 213f
00000070: f25e 133f 428c 6a3e 93d8 e63e 4030 0a3f
00000080: 2d21 aab8 efe4 163f 2d17 4a3f 70d5 d63e
00000090: c0b0 113f 795f 4b3e b0e4 af3f 8d1f 663e
000000a0: 565d 063f c7f3 2abb 4cf8 323d 2f26 fb3e
000000b0: 5930 ff3e 01f2 593f 5ca1 7b3f 0700 17b8
000000c0: 1e04 0c3f a5fa 9f3f 725b 953e 45ba fc3e
000000d0: 2c62 173f 808c 5d3f d8d1 7c3e 6645 9c3e
000000e0: b9bf 483f 31d9 7b3e eb33 e83d 82c7 533f
000000f0: 327f f5b9 e41c 753e 3f0e 063f 8c58 96bd
00000100: 8a77 5b3f 03af e23e 3fb7 293f 3deb 9a3e
00000110: 6bbe a63e 5fce ae3e 97f3 263f 0eae cc3e
00000120: 4ad3 a93e 22c6 763e f3f8 b53d d2c6 943f
00000130: 8261 5d3f c2f0 483e 9869 d53f a475 bd3e
00000140: d4ea 1c3f 6bce ee37 32b8 433f 20cd ee40
00000150: da77 e63e ac7f 243f 1de8 523f 99c5 2c3f
00000160: 0f28 e03e 73fd 913f bb3e 033f a66f 423f
00000170: 6d09 343f 9069 c53e b479 623e 647b 1b3f
00000180: 02f1 063f 6ef6 783e c0b2 823f 20c3 443f
00000190: 6a2c 433f 9fad 753f 7573 ebb8 b1f1 a63e
000001a0: 536f 233e 13fe c03d 949d 0d3f 37bc 323f
000001b0: 80b9 373f feb9 693d ff5d 4c3f e56b 163f
000001c0: 235d 163f c86c fa3e 0053 a63e 3693 f13c
000001d0: a4ce 3a3f 9e1d 103f f752 4b3f 865e 19ba
000001e0: a062 633f 73a8 e53e d9de 9c3e 3498 003f
000001f0: 7936 3b3f 32a0 ed3e 941d 563f 4158 383f

fc_v.linear.bias f4 [128]
0.13050914 -0.10433848 0.119610555 0.017696792 -0.07701387 0.11021987 -0.12141294 0.22269027
0.32215893 -0.059110712 0.10470437 -0.061378725 -0.28742048 -0.060144145 0.10925026 0.12048875
0.1619996 0.5784627 0.21397093 -0.0466417 0.106443405 -0.025093775 -0.21269788 -0.060734916
0.053390574 0.04132406 0.036393445 -0.18003002 0.18940327 0.0764771 0.04263518 0.06393389
0.10259518 -0.020357491 -0.06521659 0.04417451 0.11042208 -0.055320278 -0.5659291 0.077301726
-0.18109906 0.026967999 -0.15526612 0.08597382 -0.15394089 -0.2167882 -0.24967968 -0.088693
-0.16384386 -0.43233737 0.035228092 -0.052990407 0.12645416 -0.04330762 -0.03795737 0.017419094
0.11815443 0.060835537 -0.028183112 0.31207433 -0.025883628 0.025665484 -0.06363825 -0.16355643
0.032954674 -0.01526128 0.058760736 0.13124064 0.03936033 -0.03904264 -0.10405176 0.03590583
0.023085874 -0.14873256 -0.042007413 -0.40668207 -0.16011587 0.04861748 -0.51836944 0.07275499
0.07623118 -0.070191026 -0.19734828 -0.43857297 -0.057040233 -0.2552371 0.18469363 0.20422621
-0.04360372 -0.30629015 -0.09146336 -0.16839622 -0.057181213 -0.0360813 -0.0063917553 0.069178544
-0.0826421 -0.0940451 -0.030816874 -0.15372433 -0.040455587 0.32868785 -0.025602117 -0.061287116
0.040411867 -0.03440946 -0.116255626 0.17208451 0.042987123 0.079140894 -0.2174331 0.15441132
-0.10172097 -0.08241369 -0.035058405 0.034076266 -0.13192102 0.18339789 0.15818745 0.028635025
-0.29412806 -0.009670158 0.11498839 0.047647577 0.15883124 -0.16511086 0.211535 -0.17479311
00000000: 30a4 053e 6aaf d5bd 61f6 f43d ddf8 903c
00000010: 73b9 9dbd f5ba e13d 59a7 f8bd eb08 643e
00000020: 04f2 a43e 131e 72bd 3f6f d63d 4268 7bbd
00000030: c728 93be b559 76bd 9abe df3d cec2 f63d
00000040: 39e3 253e 2216 143f 321b 5b3e 5e0b 3fbd
00000050: 00ff d93d 7691 cdbc 79cd 59be 2dc5 78bd
00000060: 13b0 5a3d 6b43 293d 4b11 153d ca59 38be
00000070: eef2 413e 07a0 9c3d 3aa2 2e3d c5ef 823d
00000080: 6c1d d23d c1c4 a6bc 4790 85bd 55f0 343d
00000090: f924 e23d 8497 62bd bbe0 10bf 5e50 9e3d
000000a0: 0872 39be feeb dc3c 15fe 1ebe 0b13 b03d
000000b0: aea2 1dbe bafd 5dbe 08ac 7fbe ada4 b5bd
000000c0: afc6 27be 535b ddbe 554b 103d 780c 59bd
000000d0: 337d 013e 5563 31bd 3079 1bbd 7db2 8e3c
000000e0: f3fa f13d af2e 793d 45e0 e6bc 35c8 9f3e
000000f0: e709 d4bc 6c40 d23c c554 82bd 567b 27be
00000100: 7bfb 063d 730a 7abc 19af 703d f263 063e
00000110: 4c38 213d 2deb 1fbd 1719 d5bd fe11 133d
00000120: 961e bd3c 594d 18be f70f 2cbd a238 d0be
00000130: 6af5 23be 1f23 473d dcb3 04bf 9100 953d
00000140: 181f 9c3d 50c0 8fbd ab15 4abe a38c e0be
00000150: 05a3 69bd 70ae 82be 5420 3d3e ad20 513e
00000160: d099 32bd 10d2 9cbe 2451 bbbd 0f70 2cbe
00000170: d936 6abd fcc9 13bd ee71 d1bb 7bad 8d3d
00000180: 4340 a9bd b89a c0bd ab73 fcbc e969 1dbe
00000190: c2b4 25bd c649 a83e 88bb d1bc 3308 7bbd
000001a0: ea86 253d eff0 0cbd 6e17 eebd ec36 303e
000001b0: 4413 303d 9f14 a23d c8a6 5ebe 001e 1e3e
000001c0: 1553 d0bd 82c8 a8bd 6799 0fbd 8e93 0b3d
000001d0: 4e16 07be a8cc 3b3e e4fb 213e 0094 ea3c
000001e0: f497 96be 956f 1ebc 087f eb3d 1b2a 433d
000001f0: a8a4 223e d212 29be a29c 583e f7fc 32be

fc_0.linear.weight f4 [128, 63]
0.17884679 0.063583 0.09684576 6.368e-42 -6.389e-42 -5.906e-42 -0.0894142 0.16678822
0.14732233 0.09140092 -0.022080379 0.024744017 -0.030742146 -0.14442337 -0.1702123 0.076171726
0.0074540293 -0.06876723 -0.09877471 0.0027543367 -0.11950185 0.10744327 -0.03793128 0.1745359
-0.06493971 0.15589459 0.061076187 0.0661993 0.0038564925 0.12522264 0.0081474995 0.54999965
-0.11977302 0.030304419 -0.08039627 0.10028308 0.09038901 -0.12077145 0.047917254 0.030067714
-0.041362908 0.14958738 -0.103464656 0.1808769 0.02916713 -0.0031564482 -0.11371127 0.12024658
-0.0042913756 0.29640874 0.015187325 0.055188876 -0.03707776 0.051085807 0.0024840038 0.23839077
-0.056023493 -0.10334697 -0.39338827 -0.019649476 0.019682264 0.5360966 -0.06267038 -0.15477566
-0.124217145 0.14203298 -3.3592e-41 -7.301e-42 -3.353e-41 0.1328232 -0.16524291 -0.12269729
-0.08161727 0.11265319 -0.05974638 0.086885564 0.19365215 0.30846503 -0.097952306 -0.18074505
-0.04835782 0.03956686 0.034040753 0.15935661 0.03454376 0.0264937 -0.19310562 0.025727892
-0.12072528 0.4099592 0.09175155 0.020117285 -0.2775982 -0.03193063 -0.09481439 0.5585029
0.04254379 -0.0038667081 0.111905165 0.08530412 -0.10148262 0.13722052 -0.012929679 -0.16644043
-0.22403616 0.030683078 0.18965276 0.25428215 0.03786424 0.12273906 -0.25340596 -0.08888459
-0.32502872 0.18680803 0.044056248 0.23814952 -0.048367728 -0.07970858 -0.091083206 -0.17584132
-0.0019311138 0.1742861 -0.084575325 0.0070278724 -0.2428598 -0.057760216 0.063795365 0.052163057
0.08005244 -2.047e-42 1.8329e-41 -1.8335e-41 -0.01325398 0.045815684 0.17017548 0.11372885
-0.027992604 -0.01775627 0.03179038 0.19465435 0.041032974 -0.02379892 -0.10424302 -0.030845592
-0.07170842 -0.0075776493 0.011620136 0.035011474 0.18680884 -0.016534958 0.025421 -0.6130106
-0.07664087 0.043795727 0.52707696 0.036372487 -1.2187013e-06 -0.17091845 0.048684977 0.01808287
-0.03064341 -0.021332635 0.13041376 0.050253004 0.073849805 0.022707736 -0.11465766 0.056137346
-0.035053562 -0.1176904 -0.071268186 -0.0019576715 0.20563686 -0.011251459 -0.013283384 -0.35616276
0.011633775 0.029335378 0.39472336 -0.0062969318 0.04993145 -0.09376508 0.0125144245 0.027188273
-0.1160406 0.05569861 0.02377714 0.2800664 -0.038144287 0.13090532 0.08043387 -0.030976675
-1.7725e-41 -1.7726e-41 1.3415e-41 -0.06616951 0.14007749 0.11200005 -0.023603426 -0.087310694
0.065019645 -0.025759038 0.16677868 -0.028147085 -0.014839154 0.010578965 -0.011536704 -0.09522032
0.11566722 -0.059956484 -0.033017743 0.029066816 0.017048135 0.054729626 -0.3851038 0.03775831
0.057447195 0.2760632 0.11138165 -0.044335034 0.17307639 0.03107018 -0.094968095 0.018690951
-0.021850063 0.037220445 0.14168896 0.08826887 -0.01849375 0.12891296 0.06241908 -0.024234029
-0.051355787 -0.10665844 0.07108712 -0.03736647 -0.065907836 0.064142615 -0.2528777 -0.10842517
-0.015207131 0.4405268 0.037156563 -0.07063741 -0.18431734 -0.003709038 0.035029437 -0.33441338
0.038865473 0.007899235 0.5682018 -0.056754973 0.08873604 -0.0012263429 -0.031280264 3.043e-41
00000000: 9d23 373e ce37 823d 1257 c63d c011 0000
00000010: cf11 0080 7710 0080 cb1e b7bd 88ca 2a3e
00000020: aadb 163e 6830 bb3d e9e1 b4bc f7b3 ca3c
00000030: f4d6 fbbc b8e3 13be 224c 2ebe ecff 9b3d
00000040: ee40 f43b d5d5 8cbd 654a cabd 1a82 343b
00000050: 63bd f4bd 380b dc3d d45d 1bbd 8ab9 323e
00000060: 1cff 84bd d5a2 1f3e 062b 7a3d 8093 873d
00000070: 35bd 7c3b 5d3a 003e 177d 053c c7cc 0c3f
00000080: 8f4b f5bd f940 f83c cda6 a4bd 3761 cd3d
00000090: e01d b93d 0657 f7bd e244 443d 9150 f63c
000000a0: 276c 29bd 6f2d 193e 47e5 d3bd cb37 393e
000000b0: e8ef ee3c 6adc 4ebb 74e1 e8bd d743 f63d
000000c0: ab9e 8cbb e3c2 973e 42d4 783c bb0d 623d
000000d0: d9de 17bd 5a3f 513d abca 223b b61c 743e
000000e0: e478 65bd 94a7 d3bd 306a c9be f0f7 a0bc
000000f0: b33c a13c a03d 093f 5459 80bd 837d 1ebe
00000100: 8f65 febd 1871 113e a45d 0080 5a14 0080
00000110: 785d 0080 ce02 083e 7035 29be b748 fbbd
00000120: f526 a7bd b7b6 e63d 9fb8 74bd 0ff1 b13d
00000130: c04c 463e 21ef 9d3e 389b c8bd 3b15 39be
00000140: d912 46bd dc10 223d 516e 0b3d 612e 233e
00000150: c27d 0d3d 5109 d93c 7bbd 45be 4dc3 d23c
00000160: d13e f7bd 2ce6 d13e 3de8 bb3d 01cd a43c
00000170: 5a21 8ebe b1c9 02bd 0c2e c2bd 0cfa 0e3f
00000180: 6642 2e3d 9968 7dbb 892e e53d edb3 ae3d
00000190: 1fd6 cfbd 8983 0c3e 01d7 53bc 5c6f 2abe
000001a0: bc69 65be 145b fb3c 5534 423e 4531 823e
000001b0: 8917 1b3d 9e5e fb3d 6dbe 81be 2009 b6bd
000001c0: 2a6a a6be 9b4a 3f3e 5374 343d 78dd 733e
000001d0: 3d1d 46bd 413e a3bd d589 babd bf0f 34be
000001e0: 6d1d fdba 0e78 323e d435 adbd 114a e63b
000001f0: 3db0 78be fa95 6cbd 25a7 823d eea8 553d
00000200: 89f2 a33d b505 0080 1833 0000 1c33 0080
00000210: 3927 59bc 3aa9 3b3d 7b42 2e3e acea e83d
00000220: bf50 e5bc 9975 91bc a136 023d 7853 473e
00000230: 3112 283d f4f5 c2bc 5d7d d5bd e5af fcbc
00000240: dddb 92bd ee4d f8bb 6262 3e3c 3168 0f3d
00000250: d14a 3f3e 5274 87bc b33f d03c 43ee 1cbf
00000260: e3f5 9cbd 2663 333d 84ee 063f 51fb 143d
00000270: 4292 a3b5 3f05 2fbe e669 473d 8722 943c
00000280: e307 fbbc c7c1 aebc 2f8b 053e 18d6 4d3d
00000290: 913e 973d 9305 ba3c a3d1 eabd 46f0 653d
000002a0: 5394 0fbd aa07 f1bd 0ef5 91bd 474c 00bb
000002b0: 7892 523e 0a58 38bc 8da2 59bc f75a b6be
000002c0: 979b 3e3c bf50 f03c 2e19 ca3e 7e56 cebb
000002d0: ec84 4c3d e807 c0bd 4d09 4d3c f1b9 de3c
000002e0: b2a6 edbd 3a24 643d 47c8 c23c dd64 8f3e
000002f0: 2f3d 1cbd 0b0c 063e 83ba a43d ccc2 fdbc
00000300: 6931 0080 6a31 0080 6525 0000 e183 87bd
00000310: 7970 0f3e 4860 e53d f95b c1bc f3cf b2bd
00000320: 0529 853d 9e04 d3bc 08c8 2a3e b794 e6bc
00000330: ec1f 73bc 6553 2d3c 7204 3dbc df02 c3bd
00000340: efe2 ec3d ee94 75bd 9d3d 07bd 881d ee3c
00000350: 88a8 8b3c 2c2c 603d 532c c5be 75a8 1a3d
00000360: c04d 6b3d 2858 8d3e 101c e43d a798 35bd
00000370: f03a 313e e486 fe3c a27e c2bd c41d 993c
00000380: e7fe b2bc 7774 183d e916 113e 4fc6 b43d
00000390: 3480 97bc c201 043e 26ab 7f3d 7186 c6bc
000003a0: 725a 52bd bd6f dabd 2096 913d 950d 19bd
000003b0: b0fa 86bd 345d 833d 3079 81be 040e debd
000003c0: 5527 79bc bb8c e13e 7b31 183d 59aa 90bd
000003d0: afbd 3cbe 5513 73bb 077b 0f3d 3b38 abbe
000003e0: 6731 1f3d cb6b 013c ac75 113f e777 68bd
000003f0: 3ebb b53d 3dbd a0ba bc1f 00bd d454 0000

fc_0.linear.weight_g f4 [128, 1]
1.4386367 1.2890812 3.7081277 2.6028886 1.8300442 1.7492664 1.1294999 2.8539197
2.9414718 1.839961 1.6329869 4.3044424 1.4722358 2.9763577 1.0730782 1.5153532
1.3880761 3.4490232 3.5214448 1.5156562 6.5855165 1.6952049 1.4100025 2.2146015
0.8595321 1.5165752 2.1003487 1.7849026 2.1157646 3.0784998 2.191443 2.2976031
2.1394663 1.7738152 2.5171576 11.110833 3.9126415 0.8373031 1.5859967 1.7098231
2.5244966 2.395131 1.542577 2.7296793 1.2236377 1.9247015 2.8215082 2.580818
1.5954354 0.99929553 1.393499 2.0514448 3.974283 2.6142354 1.9643612 2.5336344
2.1993382 2.5990899 1.973405 1.5556115 1.2006212 2.2088792 2.0655115 1.6857226
1.3263512 0.85913527 1.2244385 1.8951955 1.3559113 0.78111625 1.7218347 1.7286199
3.3217506 8.777038 1.7338305 1.9347996 2.6017642 2.0744154 0.8460666 2.8375916
1.6958156 2.338372 1.0882199 2.6776304 1.6072104 2.7144496 1.4875374 10.453577
2.3609052 2.0247982 1.1792631 6.317884 0.16874391 1.2764491 2.0212831 1.2547659
0.8854697 3.464366 1.8447858 1.942271 4.6929684 1.669226 1.299838 6.3359313
7.560415 5.2370095 5.0816 1.3044554 2.0706234 1.4690337 0.9861875 2.359778
2.3652215 9.321258 2.507953 2.365595 1.6070473 0.621272 0.7287426 9.638719
1.2576983 1.4177086 4.2444687 2.0743365 2.3193324 2.2225635 2.3159907 1.5167994
00000000: 3f25 b83f 9d00 a53f f751 6d40 ba95 2640
00000010: e33e ea3f f6e7 df3f 7493 903f 9fa6 3640
00000020: 1341 3c40 d883 eb3f b705 d13f febd 8940
00000030: 3972 bc3f a57c 3e40 a05a 893f 18f7 c13f
00000040: 7aac b13f ccbc 5c40 5a5f 6140 0601 c23f
00000050: 8dbc d240 79fc d83f f67a b43f 08bc 0d40
00000060: 4c0a 5c3f 231f c23f 1d6c 0640 b077 e43f
00000070: b068 0740 2406 4540 9a40 0c40 ee0b 1340
00000080: 04ed 0840 600c e33f 1c19 2140 f9c5 3141
00000090: b868 7a40 7f59 563f f101 cb3f 7cdb da3f
000000a0: 5a91 2140 d449 1940 2a73 c53f 11b3 2e40
000000b0: 29a0 9c3f 9e5c f63f 9793 3440 1f2c 2540
000000c0: 3a37 cc3f d5d1 7f3f 2d5e b23f df4a 0340
000000d0: a75a 7e40 a24f 2740 3070 fb3f 1127 2240
000000e0: f5c1 0c40 7d57 2640 8998 fc3f 471e c73f
000000f0: f5ad 993f 475e 0d40 5731 0440 c2c5 d73f
00000100: e0c5 a93f 4af0 5b3f 67ba 9c3f c495 f23f
00000110: 808e ad3f 3cf7 473f 1465 dc3f 6b43 dd3f
00000120: 9097 5440 bf6e 0c41 28ee dd3f 83a7 f73f
00000130: 4e83 2640 39c3 0440 d297 583f 1a9b 3540
00000140: 7c10 d93f e3a7 1540 ca4a 8b3f 4c5e 2b40
00000150: 12b9 cd3f 8bb9 2d40 a067 be3f da41 2741
00000160: 1219 1740 4b96 0140 18f2 963f 1b2c ca40
00000170: 34cb 2c3e af62 a33f b45c 0140 2b9c a03f
00000180: 24ae 623f 2cb8 5d40 f121 ec3f 569c f83f
00000190: cc2c 9640 33a9 d53f 1761 a63f f3bf ca40
000001a0: ebee f140 9595 a740 789c a240 65f8 a63f
000001b0: 1885 0440 4c09 bc3f c976 7c3f 9a06 1740
000001c0: ca5f 1740 df23 1541 4d82 2040 e965 1740
000001d0: bab3 cd3f af0b 1f3f e08e 3a3f 3138 1a41
000001e0: 42fc a03f 7a77 b53f b0d2 8740 eec1 0440
000001f0: f16f 1440 7b3e 0e40 3139 1440 7c26 c23f

fc_0.linear.bias f4 [128]
-0.017084511 0.03661334 -0.09629659 -0.061447337 -0.009755007 0.0053654457 0.073453926 -0.061287608
0.050690625 -0.056550104 0.006129916 0.031776506 -0.013062093 -0.088319354 -0.066535436 0.037974954
0.020491652 -0.082654774 0.025272015 0.031042643 -0.12660682 -0.011881643 -0.049676362 0.09776281
0.016598424 0.014320211 0.027771734 0.031916354 -0.013199353 0.1277155 0.08989177 0.006530696
0.09616406 -0.046858873 -0.06981131 -0.015290699 0.055114597 0.025635557 0.04667226 -0.0069979443
-0.061270073 -0.06880041 -0.031334203 -0.07024568 -0.07016377 0.063696824 0.002348809 -0.039870784
-0.020148052 -0.0040337928 0.038896192 -0.06512043 -0.067510895 0.11309516 0.083840236 0.0908256
0.02396586 -0.0083348965 0.057692267 0.03192324 0.04392264 0.03661192 0.013233697 -0.07674296
0.05619666 0.003148301 0.07152402 0.044825703 -0.078989476 -0.010986069 -0.07655038 -0.06661984
0.08197621 -0.05226712 -0.059002846 -0.056412406 0.037572727 -0.010211194 0.05206884 -0.07255039
0.035762455 0.040601447 -0.02962722 -0.10124402 -0.061191957 -0.004150457 0.012174741 0.16975005
-0.05845389 0.04377825 0.03146278 -0.12119507 -0.0021407316 0.0072144805 0.02170545 -0.004708592
-0.02884844 0.04362015 -0.11057922 0.04998145 0.013669158 -0.051333427 0.09104557 0.07038044
-0.058482457 -0.0657487 0.08689268 0.04543296 0.09164727 0.016113358 0.032141414 -0.061154556
0.09452176 0.12500373 -0.031074855 0.06518388 -0.0061620995 0.033757925 -0.009926577 0.011698478
0.06707566 -0.0011256532 0.0484878 0.093272135 0.04547092 0.048422437 0.02154337 0.009390596
00000000: d1f4 8bbc dff7 153d 2637 c5bd 34b0 7bbd
00000010: 77d3 1fbc 9fd0 af3b 036f 963d b708 7bbd
00000020: f9a0 4f3d 15a1 67bd 76dd c83b 1528 023d
00000030: 6402 56bc c7e0 b4bd bb43 88bd a08b 1b3d
00000040: 1cde a73c e846 a9bd 4207 cf3c 244d fe3c
00000050: 38a5 01be 39ab 42bc 7179 4bbd de37 c83d
00000060: 6bf9 873c 519f 6a3c 8c81 e33c b9ba 023d
00000070: 1942 58bc dac7 023e 2d19 b83d 73ff d53b
00000080: aaf1 c43d 17ef 3fbd 3bf9 8ebd d785 7abc
00000090: d8bf 613d a901 d23c 692b 3f3d 034f e5bb
000000a0: 54f6 7abd 3be7 8cbd 4b58 00bd f8dc 8fbd
000000b0: 06b2 8fbd 7b73 823d 7aee 193b 8c4f 23bd
000000c0: 870d a5bc e82d 84bb 9d51 1f3d dc5d 85bd
000000d0: 2743 8abd 6f9e e73d 6eb4 ab3d c602 ba3d
000000e0: 0d54 c43c 178f 08bc ba4e 6c3d f1c1 023d
000000f0: 3ae8 333d 61f6 153d 26d2 583c 6a2b 9dbd
00000100: 782e 663d ba53 4e3b 2f7b 923d 289b 373d
00000110: 3cc5 a1bd eafe 33bc 72c6 9cbd fc6f 88bd
00000120: 25e3 a73d 0c16 56bd f8ac 71bd b210 67bd
00000130: dce5 193d da4c 27bc 2346 553d 4d95 94bd
00000140: a77b 123d b44d 263d c9b4 f2bc 0659 cfbd
00000150: 6ba4 7abd 8f00 88bb 9178 473c f5d2 2d3e
00000160: 596d 6fbd d350 333d 1edf 003d 1f35 f8bd
00000170: 844b 0cbb 7367 ec3b a1cf b13c 884a 9abb
00000180: 9053 ecbc 0bab 323d 5c77 e2bd 59b9 4c3d
00000190: 9bf4 5f3c 0043 52bd 1a76 ba3d 9f23 903d
000001a0: 4d8b 6fbd 41a7 86bd caf4 b13d e917 3a3d
000001b0: 90b1 bb3d 2900 843c b7a6 033d 337d 7abd
000001c0: a094 c13d fa00 003e b290 febc 207f 853d
000001d0: 70eb c9bb c045 0a3d 15a3 22bc f9aa 3f3c
000001e0: f75e 893d a78a 93ba 259b 463d 7605 bf3d
000001f0: b73f 3a3d 9b56 463d b97b b03c 04db 193c

fc_layers.0.linear.weight f4 [128, 128]
-0.13108301 0.059865333 0.1102037 -0.20631674 0.29535812 -0.13954175 0.0990094 0.012271405
0.11753867 0.1029698 -0.07296413 -0.17225029 -0.06948036 -0.24195534 -0.04471941 0.051372275
0.0750318 -0.07061464 -0.37440115 0.13419217 -0.00013008784 0.17178293 -0.12582172 0.21582402
-0.15178917 -0.03202499 -0.12663548 -0.2513683 -0.097804956 0.07376241 0.2174441 0.16933219
0.12559654 -0.14947425 0.03394315 1.1666065 0.0009909794 0.08654264 -0.091407895 0.11228036
-0.10261303 -0.2807556 0.14547229 0.0007974089 -0.10263276 -0.06316136 0.089022696 0.025055112
-0.09885992 0.07821233 -0.070686534 -0.20782715 0.1903194 -0.05597332 0.023787245 -0.14244431
-0.019442199 0.23018815 0.17258061 -0.19343086 0.08438331 -0.03111691 0.18064566 -0.06259883
-0.0010766863 -0.06620257 0.06317688 0.13642946 0.033216745 -0.039253287 -0.15745251 0.0108319465
0.17548153 0.08924883 0.0665517 -0.07105099 0.03642394 0.0096131 -0.058785997 -0.10476837
0.045692965 0.17199007 0.2140725 0.020154335 0.005106899 0.15845239 0.005416095 0.2592452
0.35108024 0.13485748 0.04572312 -0.10437474 0.052592184 -0.015496237 -0.034274716 -0.09946953
0.1845913 -0.102464534 0.045512732 -0.027506657 0.2089381 -0.06881939 0.12605546 0.033531733
-0.0445851 -0.21590994 -0.07347387 0.12228583 0.10757695 0.1954912 -0.006848174 0.0021178636
0.10626321 0.12082787 -0.01996494 -0.13029042 -0.0063827205 0.08820911 -0.15894727 0.24907726
0.20931831 0.13947316 -0.45892808 0.11075904 0.22802804 0.16066599 0.1426807 -0.040743858
0.032713264 0.19262302 -0.08621628 0.06488479 -0.14106604 0.009400875 -0.09444224 -0.26311594
0.029750835 -0.1856777 0.22755067 -0.025667975 -0.27870607 -0.12062748 0.24174178 -0.10367982
-0.04750888 -0.1972114 0.020425078 -0.04260343 -0.17619956 -0.55259085 -0.011736245 0.007982331
0.11960565 -0.20003182 -0.16144201 -0.033470858 0.19781588 -0.11142737 0.014489785 0.15891354
0.06302235 -0.1493032 0.13271134 -0.00058416364 0.35652375 -0.07753793 -0.38001508 0.2138341
-0.122469254 0.171332 -0.21963702 -0.17318372 0.03493719 0.3253822 0.10245876 0.19445665
0.05936198 -0.16485186 0.39411095 -0.12899113 -0.144681 0.4028996 -0.16630384 0.00039801045
-0.07482293 -0.101235874 0.0011858296 0.5092552 0.29286608 -0.10006584 0.03503085 -0.3942119
0.012105784 0.235598 0.12513296 0.18857518 0.3394867 -0.0052466355 0.100181445 0.053939126
-0.060188357 -0.071205005 -0.28729585 -0.010710512 -0.1657895 -0.16661373 -0.11317058 0.04305258
-0.101786874 -0.0393045 -0.3543677 0.11460486 -0.3521394 -0.24453846 0.019900618 0.055661287
-0.34188443 0.06593727 0.0363064 -0.30316362 0.07259566 0.23767674 0.2354915 0.15122478
-0.13497368 0.24566256 -0.138682 0.07335055 -0.012629425 0.1285358 -0.23768102 -0.06051314
0.082417175 -0.049792394 -0.031098742 0.1442506 -0.0127586275 -0.09365232 -0.18264177 -0.08289919
-0.11752626 -0.0054385453 -0.23664321 0.24387324 0.44957858 -0.011142571 0.009923326 0.0387788
0.09392846 -0.10208962 0.3875265 0.30464923 -0.23244247 -0.14167 0.089775495 0.10704794
00000000: a03a 06be 5a35 753d 7ab2 e13d b244 53be
00000010: 2e39 973e 08e4 0ebe 71c5 ca3d 010e 493c
00000020: 1db8 f03d d5e1 d23d 386e 95bd 6162 30be
00000030: b84b 8ebd 24c3 77be b32b 37bd bc6b 523d
00000040: 46aa 993d 699e 90bd 82b1 bfbe ac69 093e
00000050: 3068 08b9 dde7 2f3e 69d7 00be f900 5d3e
00000060: 9f6e 1bbe a32c 03bd bbac 01be 59b3 80be
00000070: f74d c8bd bf10 973d aba9 5e3e 6b65 2d3e
00000080: 619c 003e c70f 19be f907 0b3d 5d53 953f
00000090: c0e3 813a 453d b13d 1034 bbbd 3ff3 e53d
000000a0: c826 d2bd 33bf 8fbe b0f6 143e 3509 513a
000000b0: 2031 d2bd be5a 81bd 8851 b63d 6140 cd3c
000000c0: 1277 cabd c92d a03d 1ac4 90bd a4d0 54be
000000d0: 17e3 423e 4844 65bd 78dd c23c ecdc 11be
000000e0: 3f45 9fbc 71b6 6b3e f9b8 303e bd12 46be
000000f0: 28d1 ac3d e4e8 febc 2dfb 383e d133 80bd
00000100: 991f 8dba 3795 87bd e162 813d 2ab4 0b3e
00000110: 480e 083d 0ec8 20bd 3b3b 21be 7a78 313c
00000120: 6eb1 333e 17c8 b63d 424c 883d 2e83 91bd
00000130: 4531 153d 4480 1d3c 96c9 70bd cd90 d6bd
00000140: 8c28 3b3d 2a1e 303e d235 5b3e b41a a53c
00000150: c657 a73b 5841 223e 7f79 b13b c9bb 843e
00000160: cac0 b33e 1418 0a3e 2b48 3b3d 6cc2 d5bd
00000170: e76a 573d eee3 7dbc a563 0cbd aeb6 cbbd
00000180: 8005 3d3e edd8 d1bd 8f6b 3a3d a455 e1bc
00000190: dff3 553e 2ef1 8cbd af14 013e 9258 093d
000001a0: de9e 36bd 7f17 5dbe 7879 96bd fe70 fa3d
000001b0: 4e51 dc3d d82e 483e a666 e0bb dbcb 0a3b
000001c0: 87a0 d93d 9a74 f73d 848d a3bc da6a 05be
000001d0: 2426 d1bb faa6 b43d 13c3 22be 1c0e 7f3e
000001e0: 8a57 563e 0dd2 0e3e 9ff8 eabe a3d5 e23d
000001f0: 2f80 693e a085 243e e41a 123e 08e3 26bd
00000200: 58fe 053d f83e 453e 2992 b0bd 51e2 843d
00000210: 9e73 10be 2106 1a3c ef6a c1bd 22b7 86be
00000220: 06b8 f33c 4c22 3ebe 0b03 693e a545 d2bc
00000230: 90b2 8ebe 8a0b f7bd 288b 773e 1656 d4bd
00000240: ac98 42bd c9f1 49be 7e52 a73c ef80 2ebd
00000250: a86d 34be 9876 0dbf 6149 40bc 53c8 023c
00000260: cff3 f43d 24d5 4cbe 0e51 25be bd18 09bd
00000270: 3f90 4a3e 0834 e4bd 9066 6d3c 3bba 223e
00000280: dd11 813d f0e2 18be 7be5 073e 8f22 19ba
00000290: 488a b63e 35cc 9ebd 5691 c2be 54f7 5a3e
000002a0: 29d1 fabd a871 2f3e 87e8 60be 1357 31be
000002b0: 4d1a 0f3d 7f98 a63e e6d5 d13d a51f 473e
000002c0: 8c25 733d edce 28be e9c8 c93e 4016 04be
000002d0: 4227 14be db48 ce3e 8e4b 2abe 0fac d039
000002e0: c43c 99bd c154 cfbd d76d 9b3a 8c5e 023f
000002f0: 8bf2 953e 52ef ccbd 827c 0f3d 24d6 c9be
00000300: 5757 463c 9a40 713e db22 003e da19 413e
00000310: 33d1 ad3e f8eb abbb ee2b cd3d 46ef 5c3d
00000320: 1188 76bd eed3 91bd 7118 93be 257b 2fbc
00000330: b9c4 29be ca9c 2abe fac5 e7bd e757 303d
00000340: a375 d0bd c1fd 20bd af6f b5be f4b5 ea3d
00000350: 9e4b b4be 4a68 7abe 9f06 a33c 17fd 633d
00000360: 7a0b afbe 1f0a 873d 05b6 143d 4338 9bbe
00000370: 09ad 943d 8861 733e af24 713e abda 1a3e
00000380: 8a36 0abe f78e 7b3e a702 0ebe d038 963d
00000390: a6eb 4ebc e49e 033e a762 73be a0dc 77bd
000003a0: 56ca a83d 1cf3 4bbd cac2 febc 6eb6 133e
000003b0: 9009 51bc cacc bfbd 7206 3bbe 0dc7 a9bd
000003c0: 9cb1 f0bd d335 b2bb 9952 72be e8b9 793e
000003d0: 2a2f e63e 558f 36bc 7295 223c 85d6 1e3d
000003e0: 905d c03d 5d14 d1bd e069 c63e fcfa 9b3e
000003f0: 6605 6ebe f111 11be 37dc b73d f33b db3d

fc_layers.0.linear.weight_g f4 [128, 1]
2.078293 1.4751095 1.1403711 1.3986806 1.2432309 1.5299804 1.3890705 1.3060746
1.6807988 2.6446524 1.9591532 1.2509373 0.9104526 1.6831787 2.0028646 2.078844
2.5355916 1.0390502 2.6821973 7.8862786 3.1059763 1.5063126 3.686138 0.8819486
1.3616403 1.7638216 1.0486854 2.4867039 1.3628076 1.1172831 1.9105073 1.2283006
1.6666747 1.162087 3.6126115 1.7948569 1.5272813 1.7762082 1.6849176 1.1346167
1.7908477 1.30374 2.249621 1.0013183 1.0307643 1.0263579 4.3241096 1.394006
2.2893 2.3508716 1.0852859 1.7353834 1.1202226 1.2457237 1.3296809 1.4760727
10.493037 1.5130756 1.098068 3.2291384 2.8604255 1.3961306 1.6592767 1.1558212
1.5793632 5.9368944 1.4975433 1.4983441 1.2516243 1.2626761 1.4894298 7.337256
2.831464 1.3715881 1.147902 1.2305843 3.8987744 1.2148969 5.2115397 1.1978555
1.5327913 1.1077901 6.338211 2.27589 2.4388814 1.1766914 1.1588664 1.3480542
5.413036 2.4821455 5.1997714 1.7391546 1.4701493 1.3301783 1.580444 5.949048
1.2532239 1.10523 3.7954605 2.1497743 4.213017 2.2539928 1.7100645 1.7746177
1.1019143 1.4509932 1.2665429 1.5765404 1.0038879 0.9282065 5.2817016 0.8499769
1.6931666 1.4291818 1.0744699 1.9619535 0.9977925 2.5435996 2.4929767 1.4051148
1.2490785 5.821302 1.2953181 5.9281373 1.5683514 1.6768553 1.8737501 5.0002713
00000000: c102 0540 63d0 bc3f aef7 913f f707 b33f
00000010: 3122 9f3f 66d6 c33f 10cd b13f 742d a73f
00000020: 6a24 d73f fc41 2940 88c5 fa3f b71e a03f
00000030: 6c13 693f 6672 d73f ef2e 0040 c80b 0540
00000040: 2247 2240 99ff 843f 1fa9 2b40 655c fc40
00000050: 51c8 4640 dace c03f afe9 6b40 62c7 613f
00000060: 3b4a ae3f e8c4 e13f 533b 863f 2826 1f40
00000070: 7b70 ae3f 2203 8f3f 818b f43f f438 9d3f
00000080: 9955 d53f 44bf 943f 0735 6740 dfbd e53f
00000090: f47d c33f ca5a e33f 61ab d73f 1f3b 913f
000000a0: 7f3a e53f f4e0 a63f caf9 0f40 332b 803f
000000b0: 16f0 833f b25f 833f 1b5f 8a40 ca6e b23f
000000c0: e483 1240 ae74 1640 a6ea 8a3f 0b21 de3f
000000d0: 7463 8f3f e073 9f3f fc32 aa3f f3ef bc3f
000000e0: 7be3 2741 76ac c13f 7e8d 8c3f 34aa 4e40
000000f0: 3611 3740 68b4 b23f 2e63 d43f f3f1 933f
00000100: 9328 ca3f 0afb bd40 80af bf3f bdc9 bf3f
00000110: 3a35 a03f 5f9f a13f a3a5 be3f cdca ea40
00000120: b536 3540 3390 af3f 74ee 923f c983 9d3f
00000130: 8585 7940 be81 9b3f efc4 a640 5453 993f
00000140: 8132 c43f 11cc 8d3f a0d2 ca40 2fa8 1140
00000150: a216 1c40 d39d 963f bc55 943f 0a8d ac3f
00000160: 9737 ad40 79db 1e40 8764 a640 9e9c de3f
00000170: da2d bc3f 4843 aa3f fd4b ca3f 9a5e be40
00000180: a469 a03f 2d78 8d3f d3e8 7240 e795 0940
00000190: 09d1 8640 6b41 1040 65e3 da3f ac26 e33f
000001a0: 870b 8d3f 25ba b93f 141e a23f 13cc c93f
000001b0: 667f 803f f19e 6d3f b303 a940 1698 593f
000001c0: afb9 d83f 6eef b63f 3b88 893f 4b21 fb3f
000001d0: 546f 7f3f 56ca 2240 ee8c 1f40 cdda b33f
000001e0: cee1 9f3f 1b48 ba40 fccc a53f 4db3 bd40
000001f0: bdbf c83f 32a3 d63f 0bd7 ef3f 3902 a040
