3d_solid_solid/outputs/heat_net.0.pth (torch, 443234 bytes, 26 tensors)

fourier_layer_xyzt.frequencies f4 [3, 30]
00000000: 0000 0000 0000 0000 0000 0000 0000 803f
00000010: 0000 0000 0000 0000 0000 0040 0000 0000
00000020: 0000 0000 0000 4040 0000 0000 0000 0000
00000030: 0000 8040 0000 0000 0000 0000 0000 a040
00000040: 0000 0000 0000 0000 0000 c040 0000 0000
00000050: 0000 0000 0000 e040 0000 0000 0000 0000
00000060: 0000 0041 0000 0000 0000 0000 0000 1041
00000070: 0000 0000 0000 0000 0000 0000 0000 0000
00000080: 0000 0000 0000 0000 0000 803f 0000 0000
00000090: 0000 0000 0000 0040 0000 0000 0000 0000
000000a0: 0000 4040 0000 0000 0000 0000 0000 8040
000000b0: 0000 0000 0000 0000 0000 a040 0000 0000
000000c0: 0000 0000 0000 c040 0000 0000 0000 0000
000000d0: 0000 e040 0000 0000 0000 0000 0000 0041
000000e0: 0000 0000 0000 0000 0000 1041 0000 0000
000000f0: 0000 0000 0000 0000 0000 0000 0000 0000
00000100: 0000 0000 0000 803f 0000 0000 0000 0000
00000110: 0000 0040 0000 0000 0000 0000 0000 4040
00000120: 0000 0000 0000 0000 0000 8040 0000 0000
00000130: 0000 0000 0000 a040 0000 0000 0000 0000
00000140: 0000 c040 0000 0000 0000 0000 0000 e040
00000150: 0000 0000 0000 0000 0000 0041 0000 0000
00000160: 0000 0000 0000 1041
0.0 0.0 0.0 1.0 0.0 0.0 2.0 0.0
0.0 3.0 0.0 0.0 4.0 0.0 0.0 5.0
0.0 0.0 6.0 0.0 0.0 7.0 0.0 0.0
8.0 0.0 0.0 9.0 0.0 0.0 0.0 0.0
0.0 0.0 1.0 0.0 0.0 2.0 0.0 0.0
3.0 0.0 0.0 4.0 0.0 0.0 5.0 0.0
0.0 6.0 0.0 0.0 7.0 0.0 0.0 8.0
0.0 0.0 9.0 0.0 0.0 0.0 0.0 0.0
0.0 1.0 0.0 0.0 2.0 0.0 0.0 3.0
0.0 0.0 4.0 0.0 0.0 5.0 0.0 0.0
6.0 0.0 0.0 7.0 0.0 0.0 8.0 0.0
0.0 9.0

fc_u.linear.weight f4 [128, 63]
00000000: d77c c9bc b166 953d 49b1 4f3e f43e 18bf
00000010: 497a 1bbf b5a0 f8be 9401 05bd d639 363e
00000020: 7484 52be 9d9c e7bd 0fba 643b 0114 0e3d
00000030: 6959 b2bd 3f32 a9bd f61a 9c3e 2bc8 323e
00000040: 54e3 83be 73f5 10be e18d 91be 7afb 363e
00000050: 4308 0ebe ec19 bb3d 4119 5a3e 593b 1dbe
00000060: 984c 3bbc 739d e23c e84a 56bc bee2 abbe
00000070: b67e bf3d c454 6ebe 0341 3d3f 508c 053e
00000080: f186 633e eb6d 143e 6128 54bd 0ef5 03be
00000090: 4f74 ba3d 8727 f2bd aaba b93b fae5 bc3d
000000a0: 8239 e8bc bdd5 d2bd caf2 ba3d e0c4 973c
000000b0: c0d0 943e 2bdc 45be cc5f 043e 9505 80bb
000000c0: 9d8c ed3d 9979 7f3d 5be3 e6bc 0728 be3e
000000d0: 27d9 b23c b1b2 8abb 3685 ffbe 5860 c03d
000000e0: e98f 103e 7918 ab3d 2459 1abd 9372 dbbd
000000f0: 7257 183f ce50 20be bda4 fabd dbd9 03bc
00000100: 6928 efbb 4d25 d4bc 1db0 2ebf 0729 0dbf
00000110: af05 1cbf a722 85be 0832 94bc a948 8fbd
00000120: 535d cbbc 7708 76bd a833 b4bd 971a 93be
00000130: 0354 58be b3cc 743e 2ad7 b3be dc7d 4e3e
00000140: c471 f33c 4419 e93e 69e3 4c3d e55d 9d3d
00000150: 2234 7dbe bcfe 3abe 9acd d93c 2943 dbbd
00000160: f99c ec3d cf14 6d3e 1f24 e53e 2691 d63c
00000170: 0405 e63b 17d4 87be 387a a7be b2e7 b33d
00000180: 89ab 893d d407 bdbd f679 2c3d ad9f 3f3d
00000190: e8c2 b03d c0fe 80bd a567 d3bd 6a77 9bbe
000001a0: b2b8 c13d 4914 c4be 039f 1b3e 7872 63be
000001b0: 5219 eabc 7899 88be 3784 10be e2db e0bd
000001c0: 4687 813e 0009 babd a380 57be eeab 4abd
000001d0: ab91 183e 5360 e33e e6d2 493d 61fe f9bd
000001e0: 08fa 903d c2ee 64be 88d2 0ebe e450 f5bc
000001f0: fffa ca3e 0137 fc3d ba4e 38bf 6e3b ffbe
00000200: 7f83 e5be 96e9 8a3e 56d7 cf3e 0d53 d43e
00000210: f18f 043f 59ff 01be aab4 62be d326 91be
00000220: 4936 553e f61a 4f3e 82fd 2c3d 0ce1 9c3d
00000230: 49b9 c5bd 67ee c03d 3d1d 623d a3b2 a3bd
00000240: 41ea d13d b3d4 f8bd d0fc 853d 7193 7cbc
00000250: 068a f13c 3cdb 2ebe 49ce 283d 1031 c03d
00000260: 18ef e9bd 9a02 d13d fb28 61be ac16 293e
00000270: 9157 6fbe e198 c5bc baa3 23bd 7020 a53e
00000280: 1158 b53e 008e 083f 0a28 b2bd 50c3 bfbe
00000290: cef0 7abc b816 89bc 116f 40bd 5810 89be
000002a0: a078 b23c a956 d4bd e1ff abbd 8990 79bd
000002b0: 8522 963c 7655 af3d 551c 24be 6b8e 4fbd
000002c0: 47f6 2bbe 056b b23d 8083 9c3d 87b5 213e
000002d0: 8475 5e3d 08dc 563e 7817 28bd f971 833d
000002e0: 79a0 7d3d 1a64 433e cf5f 0a3d b322 923d
000002f0: 4976 51be e31e b7bd 3e07 f93d 3e9a 763e
00000300: cef6 f53e 1705 febe 9046 083f 8754 74be
00000310: 8dfd 953e b830 53bb 2e42 9bbc 01fb ad3b
00000320: a77d 00be d12f c43c 2e98 b2bd b5a5 293f
00000330: 3a86 853e d95d 7a3c 6b50 98be db94 d83d
00000340: 1b33 653e e370 da3e 3c11 653b 492e 623e
00000350: b1f6 633d 21ce a2be 2da6 a93d 321f a9bd
00000360: fc40 ae3d 7dbf 54bd aee3 f23c a4ae d9bd
00000370: 8095 f8bd f78e 7bbd 2bfa b2be dca2 f7bc
00000380: 8a33 5bbe 1b99 f23e 3f9b d0bd a4b7 e23e
00000390: 03dd 043e 44ff 863e 61d1 06bf 2b39 bb3d
000003a0: a14b 1c3e d09b bf3d 299b 1cbe 3866 22bd
000003b0: a32c babd 7cc3 89bc f136 a0bc ca17 80be
000003c0: f44f 2e3e 8545 8a3d 558b c53e abc3 d83b
000003d0: 6f4f b73d e18d e43d 5fb2 56bd 1c87 14be
000003e0: 6e7b 0d3d b659 133d e10b 00be a830 383e
000003f0: 6536 83bd 0286 f3bd 0adc 863e 4e74 7e3e
-0.024595661 0.072949775 0.20282473 -0.5947106 -0.6073347 -0.4856011 -0.03247221 0.177955
-0.2055834 -0.113091685 0.0034900939 0.034687046 -0.0870846 -0.08261537 0.3048932 0.1745917
-0.25759375 -0.14156131 -0.28428558 0.17869368 -0.13870339 0.091358036 0.21298696 -0.1535467
-0.011431836 0.027662968 -0.0130793825 -0.33571428 0.0935034 -0.23274523 0.73927325 0.13041806
0.22219445 0.14495055 -0.05179632 -0.1288645 0.09104215 -0.118239455 0.005668004 0.09223552
-0.028347734 -0.102946736 0.091283396 0.018526495 0.29065514 -0.19322269 0.12927169 -0.0039069154
0.115990855 0.062371824 -0.028184583 0.37139913 0.021832062 -0.0042327275 -0.4990632 0.09393376
0.14117397 0.08354277 -0.037682667 -0.10715213 0.5950843 -0.15655825 -0.122384526 -0.008047546
-0.0072985184 -0.025896693 -0.6823748 -0.5514073 -0.6094617 -0.26003 -0.018090263 -0.06996281
-0.024824774 -0.060066666 -0.08798915 -0.28731224 -0.21125798 0.23906212 -0.35125095 0.20165199
0.029717334 0.4552709 0.050021563 0.076839246 -0.24726918 -0.18261236 0.026587296 -0.10706169
0.11553378 0.23152469 0.4475412 0.026192259 0.007019641 -0.26529 -0.32710433 0.08784427
0.06722171 -0.09230009 0.0421085 0.046783138 0.086309254 -0.0629859 -0.10322503 -0.30364543
0.09459056 -0.38296726 0.15197377 -0.22211635 -0.028576527 -0.26679587 -0.14112936 -0.10979439
0.25298518 -0.09083748 -0.21045165 -0.04948037 0.14899318 0.44409427 0.049273394 -0.12206722
0.0707894 -0.22356704 -0.13947499 -0.029945798 0.3964462 0.12315179 -0.7199513 -0.4985003
-0.44826886 0.27131337 0.40593976 0.41469613 0.5178214 -0.12695064 -0.2213923 -0.28349933
0.2082149 0.20225129 0.04223395 0.07660112 -0.09654481 0.09420472 0.055203665 -0.079930566
0.102497585 -0.12149944 0.06542361 -0.015416012 0.02948476 -0.17075819 0.041212354 0.09384358
-0.11422557 0.10205574 -0.21988289 0.16512555 -0.23373248 -0.02412075 -0.039951064 0.3225131
0.35418752 0.53341675 -0.08699043 -0.374537 -0.015316201 -0.016734466 -0.04698092 -0.26770282
0.021786034 -0.103680916 -0.083984144 -0.060928855 0.018327007 0.08561222 -0.16026433 -0.05067293
-0.16793166 0.087118186 0.07642269 0.15791903 0.05431129 0.20982373 -0.041038007 0.06418223
0.061920617 0.19081154 0.033782776 0.071355246 -0.20455278 -0.08941438 0.121595845 0.24082276
0.4803986 -0.49613258 0.5323267 -0.2386037 0.29295006 -0.0032225084 -0.018952455 0.005309463
-0.12547933 0.023948582 -0.08720432 0.66268474 0.2607897 0.015281164 -0.29748854 0.10575267
0.22382776 0.4266425 0.00349529 0.22087969 0.055655185 -0.3179789 0.08283649 -0.08257903
0.085084885 -0.05194043 0.029649582 -0.10629013 -0.1213789 -0.06141564 -0.34956488 -0.030229025
-0.2140638 0.47382435 -0.10185861 0.44280732 0.12974934 0.26366627 -0.52663237 0.09141763
0.15263225 0.09355891 -0.15293564 -0.039648265 -0.09090545 -0.016816847 -0.019557448 -0.2501815
0.17022687 0.06751541 0.38582864 0.0066151223 0.08950698 0.11159874 -0.0524162 -0.14504665
0.03454154 0.035974227 -0.12504531 0.17987311 -0.06406859 -0.11890794 0.2633975 0.24849054

fc_u.linear.weight_g f4 [128, 1]
00000000: 345d 0a3f 677f f93e 6ad3 373f b330 203f
00000010: b2ed 5e3f 999d 903f aea6 813f fafa 9b3f
00000020: ae08 643f 1a8c e83f 6e20 263c 5491 2d3f
00000030: bd40 833f f77e 6a3f 9565 4d3f 2c21 fb3e
00000040: a18a 193f 0c30 503f 0ef8 913f 4967 c83e
00000050: e651 1a3f 7b7f 483f 94c2 033f 6e0b 913e
00000060: 6ac8 b43f 72d5 793f 8f1f 2f3e c222 113f
00000070: a70f 3b3f 383a 433f 9392 de3f 46d1 173f
00000080: 4853 223f bde5 753f e439 323f c55d ad3e
00000090: c7ff 0940 e44a 493f eb45 383f 667a 603f
000000a0: 8d82 333f cf78 063f 6042 393f 3e93 653f
000000b0: 5e2c ae3f b76b 5f3f 7b82 9e3f 170c bf3f
000000c0: 3ba1 313f 4bd9 823f 78f1 263f ff0d 583f
000000d0: 435e 0f3f d256 683f c9c7 573f a9ec 953f
000000e0: 6f73 783f ad14 803f df93 5d3f 5c0b d53e
000000f0: a8c8 143f 14f8 7b3e 5cf3 003b be1f e83a
00000100: 3821 9d3f 734a 2f3f 57a5 023f fee7 573f
00000110: 4ad9 e23e 907b 0740 91a6 bf3e 93b3 113f
00000120: f91f 523f 8438 143f ed35 513f 0d72 103f
00000130: ed1b aa3e 31c4 453f 2f37 5e3f 042a 143f
00000140: e9c0 653f ab85 4a3f 3767 07bb dbbf 833f
00000150: c3dd 873f a12e 2e3f 6801 373f 2b17 e43e
00000160: 8508 0d3f c64b 6f3f 7134 4b3f 5a65 6c3f
00000170: b9e6 7c3f 24a7 573f 638d 2f3f 5659 e43e
00000180: 8e20 2b3f 3d1f d33f 4b97 8d3f 4026 533f
00000190: ee02 1c3f 7698 713f 83bf 303f df2e 4d3f
000001a0: 9a58 333f 0c2d 173f 8b73 e23d 0ccc 5c3f
000001b0: e80a 3d3f 0eea bb3e 3bd9 343f e6f5 5c3f
000001c0: fb23 2a3e e8dc 1f3f a0e2 bc3e 2076 293f
000001d0: 9eda 2a3f 942c 11bb 6d4e 8a3e ec4d 0a3b
000001e0: 5d89 803f dc2f 823f 829f 583f 3469 4e3f
000001f0: 3a20 4c3f bc87 0c3f dbea 833f ab11 4d3f
0.54048467 0.48730013 0.7180697 0.6257431 0.87081444 1.1298095 1.0128992 1.2185967
0.89075744 1.8167756 0.010139568 0.6779988 1.0254132 0.9159998 0.80233127 0.49048746
0.59977156 0.81323314 1.1403825 0.391413 0.6028122 0.7831952 0.5146878 0.28329033
1.4123662 0.97591317 0.17101882 0.5669366 0.7307076 0.7626071 1.7388481 0.593037
0.6340833 0.9605368 0.69619584 0.33860603 2.1562364 0.786299 0.71981686 0.87686765
0.7012108 0.5252809 0.72366905 0.896778 1.360729 0.87273735 1.238357 1.4925565
0.69386643 1.0222563 0.652122 0.84396356 0.56003207 0.9075748 0.8428922 1.1712848
0.9705114 1.000631 0.8655376 0.4161023 0.5811868 0.24606353 0.0019676303 0.0017709655
1.2275763 0.68472975 0.5103354 0.84338367 0.44306403 2.1169167 0.37431768 0.56914634
0.82080036 0.57898736 0.8172291 0.5642403 0.3322443 0.7725249 0.86802953 0.5787661
0.8974748 0.7911021 -0.0020660886 1.0292925 1.0614551 0.680399 0.7148652 0.44548926
0.55091125 0.93474996 0.79376894 0.9234215 0.98789555 0.8423941 0.68575114 0.44599408
0.6684655 1.6493908 1.1061796 0.8248024 0.6094197 0.9437326 0.69042224 0.80149645
0.7005707 0.5905311 0.11057194 0.8624885 0.73844767 0.36702007 0.7064397 0.8631271
0.16615288 0.6244645 0.3689165 0.6619587 0.66739833 -0.0022151815 0.2701296 0.0021103574
1.004192 1.0170856 0.8461839 0.8062928 0.79736674 0.54894614 1.0306047 0.80105084

fc_u.linear.bias f4 [128]
00000000: 1e66 16bc 58a4 c9bc ff61 773e 2668 0dbe
00000010: 4316 d7bd d318 a0be 366c cd3e 8065 313e
00000020: 2748 d83d f393 923d 1c46 14bc 7e53 fdbd
00000030: cca2 9fbe 2b3b 74be c761 1ebd 8dab 31bc
00000040: 6be1 3cbd a95c 40be 3a4a 083f 3a33 b93c
00000050: 216c 45bd 1a2a 9c3e 1aa5 cbbd bbd0 bfbd
00000060: 7cde 0bbf 6d18 39bd 51b9 753e d7df 0b3d
00000070: ebf1 3abb 43c2 933d 30a7 1cbe 3c64 9ebd
00000080: a6be d03d dea6 4a3b a7b9 d6bd 2e5d 4fbc
00000090: 080c a93f 04fd 3f3e fb56 7dbd 1433 8cbe
000000a0: 6c06 54be db5e dabd c741 2abd ca63 4cbc
000000b0: f5dc 383f a665 9e3d 26d6 c03e 21b8 0bbf
000000c0: 2886 a93c d7f3 83be a14b 76be 11f5 db3c
000000d0: 9833 df3d 9f91 843e 3785 04be e2eb 33be
000000e0: 91fb 403e e26c 6f3d c599 3bbe 8359 63bb
000000f0: d529 923d 0bb6 723d 773e 7f3c 4dc3 523d
00000100: d1c1 1fbe 0e23 6b3c 19aa 8e3d 98de e53e
00000110: 845a 86bd c1dd 9dbf 7cf3 b3bc 971b 95bc
00000120: b3df 33be 3bba 93bc 0bac b13d 960f 943d
00000130: b13e 77bc e29e 823d 55f3 55be 621c b93c
00000140: 5bb6 c6bc d828 6c3e 900c 29b9 192c a63e
00000150: 5514 c7be 8f41 5cbd c424 de3d e7c0 7ebd
00000160: 3595 00be ed88 6f3e 0722 483e 440b dcbd
00000170: 62b9 9f3e f3a2 263e 53e7 bbbc 42a6 12bd
00000180: f3ea bcbd d7ba 41bf 33ff ccbe 6399 383e
00000190: 73fa ac3b 9ae7 233d 6176 36be d7d2 5dbd
000001a0: 4620 383e 5e3d a2ba 8c9a 803d 0acb 563e
000001b0: 398e 8abe 434e 91bd 0470 a7bb 29cc 103e
000001c0: 2122 2f3c cd13 8ebc 5c12 df3c 4975 0ebe
000001d0: 98d8 443e b384 c138 56e4 e7bb c477 6abd
000001e0: 059a ee3d 5a80 8fbe e0a4 bdbe 4e72 793e
000001f0: 94da 3a3e 83e8 b03b 6c74 b13e 7116 a8bd
-0.00917962 -0.024614498 0.24158476 -0.1380926 -0.10502293 -0.3126894 0.4012162 0.17323875
0.10560637 0.07157125 -0.0090499185 -0.123694405 -0.31178892 -0.23850696 -0.038667466 -0.010844124
-0.046113413 -0.18785347 0.5323826 0.022607435 -0.048198823 0.3050087 -0.099436 -0.09365984
-0.5463636 -0.04518931 0.23996474 0.034149017 -0.0028525542 0.07214787 -0.15298152 -0.07733962
0.10192613 0.0030922215 -0.10484629 -0.012656493 1.3206797 0.18748862 -0.06185053 -0.2738272
-0.20705575 -0.106626235 -0.041566636 -0.012474963 0.72212154 0.07734232 0.37663382 -0.54577833
0.020693853 -0.25771973 -0.24052288 0.026850255 0.108985126 0.2589235 -0.12941442 -0.17570451
0.18845965 0.058453448 -0.18320377 -0.0034690804 0.07136885 0.05925564 0.015578858 0.051455785
-0.15601279 0.014351619 0.06966037 0.44896388 -0.06560233 -1.2333299 -0.021966688 -0.018201632
-0.17565803 -0.018033138 0.08675393 0.07229535 -0.01509063 0.06377961 -0.20893605 0.022596542
-0.024256876 0.23062456 -0.00016121776 0.3245552 -0.388827 -0.05377346 0.10846856 -0.062195685
-0.12556918 0.23392077 0.1954423 -0.10744336 0.31196123 0.16273098 -0.022937452 -0.035803087
-0.092245005 -0.7567572 -0.40038452 0.18027262 0.0052788793 0.040015794 -0.17818595 -0.05415615
0.17981061 -0.0012377908 0.062794775 0.20975891 -0.27061632 -0.07095005 -0.005109789 0.14140381
0.010689289 -0.017343426 0.027230434 -0.13911928 0.19223249 9.227674e-05 -0.0070767803 -0.057243124
0.11650471 -0.28027612 -0.37039852 0.2436001 0.18247443 0.0053988113 0.34659135 -0.08207405

fc_v.linear.weight f4 [128, 63]
00000000: b58b 603e 569e 173e 0ba6 5f3e ec3d c33f
00000010: f777 bcbf e4ff b03f feb7 57bd 49cc 09be
00000020: ac8b 14bd 7e1c 17be 9024 2d3e ed0d d73d
00000030: 2bdf 54be 0156 983d b721 913c 0f8f 333e
00000040: d8cc fa3d a039 663c 63f0 793e dc89 803d
00000050: fa93 2abd 51be 5cbe db53 05be fa60 9dbd
00000060: 742e f23d 003e 8cbd 5a96 a5bc 4d2c 21be
00000070: ed3c 1a3d 16a2 8d3d 8917 50be 6c93 063d
00000080: 7b9d 8abd 1a51 2fbc 9162 293e c883 d23c
00000090: b817 603e f189 423e e06b abbe 3585 5d3e
000000a0: 2a58 933d ab5d f9bd 7e5f 6dbe 4acb e6bc
000000b0: a20f 713c 6d96 00be 225e 023e 9272 093e
000000c0: a629 b73e acf8 0cbb 3d61 e43d 71ad 8a3e
000000d0: ed72 833c 789f 48be 7503 62bd ac69 0d3e
000000e0: 91de 71be 6852 613e 7d97 1a3e d503 0fbe
000000f0: a7e9 11be e409 833d dc9e 86bd 90ed 0cbe
00000100: 4e51 903e 7afc 23be db5f be3f fd59 b2bf
00000110: 7962 bdbf aa7b 013d 4b9c 233e 399d 973d
00000120: e6c9 39be 0d67 ae3c 86f3 1dbe 55bb 27be
00000130: 3aa0 713d 9b0f ea3c 7f22 98be ceaa 10bd
00000140: 337c d33c 242e 043e cebe 1dbe b0c1 06bd
00000150: 909d 9bbe da84 993d 393b 39be d716 81be
00000160: 9209 953d 2280 4bbb 9620 323e 8fdc 77bd
00000170: f78f 873d 34c2 0c3c 7571 a7bb ab78 833d
00000180: 7f5b 4d3e 25a3 21be ae5a c0bd 1790 0d3e
00000190: cbff eabd 0607 c1bd 5802 a43d d78a 303e
000001a0: 6b50 b039 1ba9 2b3e 0901 8f3e f67c 4639
000001b0: 2693 8bbd 3395 2f3c ba23 8fbd 402e 513d
000001c0: 657e 7b3d 2008 8ebd a3a3 a63e 42f6 cc3d
000001d0: d710 f13d 0698 84be c954 50bd b7e0 603e
000001e0: 4031 a3bd 9b8d 013d 104c 053e 3f88 9b3d
000001f0: f3d7 3e3d 0bde 1a3c 8daf 41be b564 d0be
00000200: e9de cb3e c6c9 863f fa22 80bf bf5b 8a3f
00000210: ef8e 9fbe d81b 2a3e 656d 00be b9cc 74be
00000220: 41f3 db3d cf6a 133e ffe8 733e 0eca 39bd
00000230: 1fe9 01bf 8ef5 5b3e 4e45 3dbe e8e5 9fbe
00000240: c8d5 963e 6dc6 c7bd b1d8 d73d 0ffc d33d
00000250: 84e5 d53d f362 003d 8ac9 d13c 78da 87bd
00000260: 1038 8dbd 7d60 843e 2989 10be 295b c53d
00000270: 0d6e 653d 0b5a abbc 74ba 6f3c c2b2 50be
00000280: eda1 06be 58dc 85be 7ca3 33be 2d3f 973d
00000290: 3816 e2be 8834 12be 55e1 6d3d a87f 933e
000002a0: 027b a2bd 49d0 753b cff1 72bd 2231 7fbe
000002b0: 617e 2abe decf 673e 34cc c8bd 96c5 dcbd
000002c0: b49a 253e 26b2 1a3d 9611 27be 4c41 3cbe
000002d0: df07 903d 933a 31be d467 30bd 0cbe 153e
000002e0: 7c59 5f3d cfa6 37bd 405d 483e 0721 8d3d
000002f0: bc16 adbd dbaa 943e 8d80 08be 0aee 6bbe
00000300: f98e 8b3f 199f 89bf 09d9 8fbf 4d03 04bd
00000310: c219 14be b60b ab3d d3f5 a83e 97f5 82be
00000320: 2809 3abe 6ec4 843e 07c4 64bc cda5 e03d
00000330: 1ba4 8abb 979c 8dbd a118 c53e 03a4 8d3e
00000340: 76b9 a1bd 22ac 87be 2e9d bfbe d175 45bd
00000350: 80c9 c3bc f530 11be 1846 4cbd f0da 80be
00000360: 46c2 723e 0b98 493d bb46 3ebe 0d2a 923d
00000370: 18b0 513d 8681 79bd 42d6 cdbc 196b fbbc
00000380: ae34 aabd e593 3f3e 1eb9 d1bd 97bc 01be
00000390: 8776 3fbe b5df 90bd 2b3e 3bbe 5948 28bd
000003a0: 6ad3 9d3d da7b 10bd b18f 093e b399 ad3d
000003b0: 2d0b d1bd d904 d03d fd7d 3b3e 3ed3 693e
000003c0: c53b 373e 3267 0f3d 9aa0 1ebd eea4 1ebc
000003d0: b66a 893b 5280 453d e4e2 b13e 8ac7 193d
000003e0: 2c3f 3a3e b5d7 c13e edf0 1b3b edc9 4f3b
000003f0: a2ee 88be 34dd 0cbf 089a 643e 04b7 1dbf
0.21928294 0.14806494 0.21840684 1.5253272 -1.472411 1.3828092 -0.052665703 -0.13456835
-0.036266014 -0.14756963 0.16908479 0.10500703 -0.20788257 0.07438279 0.017716272 0.17535041
0.12246102 0.014051825 0.24408107 0.062762946 -0.041645028 -0.21556975 -0.1302027 -0.076845124
0.118252665 -0.06847763 -0.020213295 -0.15739556 0.03765576 0.06915681 -0.20321478 0.032855436
-0.06768318 -0.010700488 0.16541506 0.025697604 0.21884048 0.18997933 -0.3348074 0.21632846
0.0719455 -0.12176069 -0.23180959 -0.028173108 0.0147132 -0.12557383 0.12731221 0.13422611
0.35773963 -0.0021510525 0.11151359 0.2708545 0.016046012 -0.19592083 -0.055179078 0.13809842
-0.23620059 0.22004092 0.1509685 -0.13966306 -0.14249288 0.06398371 -0.06573269 -0.13762498
0.2818703 -0.16014281 1.4873003 -1.3933712 -1.4795676 0.031612076 0.1597759 0.07403035
-0.18143424 0.021289373 -0.15424928 -0.16380055 0.058990695 0.028571894 -0.29713818 -0.035319142
0.025816059 0.12908226 -0.15404817 -0.03289956 -0.30393648 0.074960425 -0.18088998 -0.25212738
0.07277216 -0.0031051715 0.17395243 -0.060513075 0.06619256 0.0085912235 -0.0051099607 0.064195
0.20054434 -0.15784891 -0.09392296 0.13824497 -0.1147457 -0.09425168 0.080082595 0.17240463
0.00033629252 0.16763727 0.27930477 0.00018929303 -0.06815176 0.010716724 -0.06989236 0.051069498
0.061399836 -0.069351435 0.3254672 0.100079075 0.1177079 -0.25897235 -0.050862107 0.21960722
-0.07968378 0.031629186 0.13017297 0.07594346 0.046592664 0.009452353 -0.18914624 -0.40701833
0.39818504 1.0530326 -1.0010674 1.0809249 -0.31163737 0.16612184 -0.1254173 -0.2390622
0.107397564 0.14396213 0.2381935 -0.04535871 -0.5074634 0.2148039 -0.18483469 -0.31230092
0.29459977 -0.097546436 0.105393775 0.10350811 0.10444167 0.031344365 0.025608797 -0.066334665
-0.06895459 0.25854865 -0.14114822 0.09636528 0.056013156 -0.02091696 0.014631856 -0.2038069
-0.13147707 -0.2614467 -0.17542833 0.07385097 -0.44157577 -0.14277852 0.05807622 0.2880833
-0.07933618 0.003750818 -0.059312638 -0.24921086 -0.16649772 0.22637889 -0.09804574 -0.10779874
0.16172296 0.03776755 -0.16315302 -0.18384284 0.07032751 -0.173075 -0.04306777 0.14623278
0.0545287 -0.044836815 0.19566822 0.06891065 -0.08451602 0.29036602 -0.13330288 -0.23040023
1.0903007 -1.0751678 -1.1238109 -0.03222971 -0.14462951 0.08351843 0.3300005 -0.25577995
-0.18167555 0.25931114 -0.013962752 0.10969124 -0.0042309887 -0.06914633 0.38495353 0.27664194
-0.07896702 -0.26498514 -0.37424606 -0.04820806 -0.023899794 -0.14178832 -0.049871534 -0.25167036
0.23706922 0.049217265 -0.18581669 0.07136927 0.051193327 -0.06091454 -0.02512658 -0.030690717
-0.08310829 0.18708761 -0.102403864 -0.12669598 -0.18697558 -0.07073919 -0.18285434 -0.04108462
0.0770634 -0.035274364 0.1343372 0.084765814 -0.1020721 0.101571746 0.1830978 0.22834489
0.17893894 0.035010524 -0.03872738 -0.009682877 0.004193629 0.04821808 0.34743416 0.03754381
0.1818816 0.37859884 0.0023794726 0.003170605 -0.26744562 -0.5502503 0.22324383 -0.61607385

fc_v.linear.weight_g f4 [128, 1]
00000000: f5c3 dbb9 86e4 bd38 be56 c23c 5c5b c23c
00000010: c4fc d63e 1eda 143f f329 903f 9955 233f
00000020: 5d49 8f3e 964a 183e cab2 9c3e 297b 913f
00000030: c582 6a3e 8266 2b3f d533 0eba 4064 7e3a
00000040: c9d3 793a c965 133e 2d72 5f3f 5fd7 fcb6
00000050: ff63 9a3e 57d2 0f3b e599 e23c 94de 0f3f
00000060: adda 553f 4999 c03e 9dac 463f 2f40 9e3e
00000070: 1235 9b39 4ae0 f9b9 ec43 6e3f 6d3e b038
00000080: 27b8 2c3c 6a4e 3b39 f9ce 2cb9 c049 c03e
00000090: 52d2 6c3f b10c 893e 538f 5439 c209 dd3e
000000a0: 7d2f 233f 4c78 913e 4764 2e3b ca26 4638
000000b0: d123 053f 2d69 8ab9 d8b2 483f 6da4 4240
000000c0: b7cf 853a 1541 22ba e790 823f 0d69 3a3e
000000d0: 7d61 fc3c 2de3 1f3f 2a0a c53f 99b4 b63f
000000e0: 0288 093f d947 5c3f e066 b63b bcbe b7b9
000000f0: 195e 283f 699f 8d3f b73b 3a3f da74 573f
00000100: c329 4e3f 3ccd 363f 62a5 323f c98b 163f
00000110: 2290 073f 1b77 7a3f 3902 25b9 d4fd 4e3e
00000120: 277e 153f 3ad1 103a 26ef 8539 81d8 20ba
00000130: b860 503e 9a5b eb39 456d f13e 4551 bb3a
00000140: 2f81 9c37 94c4 f43e 2b6c 103f c071 f1b9
00000150: 538c aa3e be03 5b3f 4334 de3e 85c4 f63e
00000160: b1f0 b23e 6896 3f3f eb5f 843b 5604 493e
00000170: 2a6c 8539 7ad3 e53f 8ec9 a8b8 3b6a ce3d
00000180: 9a75 af3e 8aa1 573f 07a5 113f 085a aa3f
00000190: 5ded 323a 9f6c 3a38 9faa f03e 12f4 463e
000001a0: 2a53 0a3f 0eb4 4c39 639e 183f 1ce1 0140
000001b0: a92e 1d3a 00d8 1f3d ca41 d7b8 e3e3 49b9
000001c0: e2f8 163f d336 14ba 250f 003f 74d6 a33b
000001d0: f1c4 323b e619 573f 163b d93e ce0e 253f
000001e0: 7202 d6b9 7735 183f 3506 0740 bd61 273f
000001f0: 2251 2b3f d653 253f cf9e be39 0d58 363a
-0.00041916934 9.054788e-05 0.023723003 0.023725204 0.4198972 0.5814532 1.1262802 0.63802487
0.2798566 0.14872202 0.30605155 1.136571 0.22901447 0.6695329 -0.00054245937 0.00097042695
0.00095301546 0.14394297 0.87283593 -7.5352577e-06 0.30154416 0.002194544 0.027661273 0.56199
0.835368 0.37616947 0.77607137 0.30908343 0.00029603444 -0.0004766009 0.9307239 8.403962e-05
0.010541952 0.00017862921 -0.00016480302 0.37556267 0.92508423 0.26767495 0.00020271288 0.43171507
0.63744336 0.28412092 0.0026610063 4.7243004e-05 0.52007776 -0.00026399773 0.78397894 3.0412858
0.0010208999 -0.00061895075 1.0200471 0.18204136 0.030808205 0.6245602 1.5393727 1.4273864
0.53723156 0.8604713 0.005566463 -0.00035046588 0.6576858 1.1064273 0.7274737 0.84162676
0.80532473 0.7140691 0.69783604 0.58807045 0.52954304 0.9783799 -0.00015736454 0.20214015
0.5839562 0.0005524341 0.00025545916 -0.0006135777 0.20349395 0.0004489094 0.4715368 0.0014291188
1.8656805e-05 0.47806227 0.5641505 -0.00046051852 0.33310184 0.85552585 0.43399248 0.48196808
0.34949258 0.74838877 0.0040397546 0.1963056 0.00025448325 1.7955163 -8.048407e-05 0.100788556
0.3426941 0.84230864 0.56892437 1.3308725 0.0006825531 4.4447017e-05 0.47005174 0.19429043
0.5403315 0.00019522032 0.5961668 2.0293646 0.00059960276 0.039024353 -0.00010264253 -0.00019253748
0.58973515 -0.00056539214 0.5002311 0.00499993 0.002727803 0.8402389 0.42427891 0.64475715
-0.00040819083 0.5945658 2.1097538 0.6538351 0.66920674 0.6458105 0.00036357946 0.00069558696

fc_v.linear.bias f4 [128]
00000000: ebe5 473d 1f55 2d3a e2a9 5cbd 04d4 09bd
00000010: 1f53 8c3d eedb 90bd 4988 00bf d8b8 6a3e
00000020: 368f 1fbe f856 533e 9bfa 2d3d 4ff4 f2be
00000030: e3f9 74bc 4f52 f83d 8191 1fba 0d33 b93a
00000040: d1d0 78b8 005d 313d 13ae 7fbd 1d2b dd39
00000050: 746b e13d 9079 44bd ee40 3a3d b540 c53d
00000060: 3635 10be e49b 243e 6b13 8a3e 5045 eabd
00000070: 68bd feb9 4d40 f6b8 d616 86be 9596 ad39
00000080: 5e9b 00bc 1ebb d939 bfcf e4b9 0be6 d9bd
00000090: 44df 8c3e 8eb0 03be 4650 57b8 8fad 143a
000000a0: d027 00bd 3e2d cabd 8dd7 81ba 2735 7eb9
000000b0: a8f1 68be ece6 28ba a08f 1f3e 5fdf 94be
000000c0: b21e 92ba 1c18 2639 809a e53e cda9 123d
000000d0: b9c2 cd3c 3d48 32be 0e33 373f 948e 12bf
000000e0: 421f d6bc b645 8fbe 6a97 2f3c 3959 9c39
000000f0: 5a5d 3e3e 268d b83e 27f7 ebbc 586b a73c
00000100: ec77 a5be 4226 1abe ca05 823e 8724 20be
00000110: 71c0 b6bd 5018 aabe 9766 adb8 6f81 0f3d
00000120: 7d11 373e 6abf 4b38 976c 3bbb 08bd 63ba
00000130: 7540 d2ba 8ed7 47b9 9469 96bd 844a f73a
00000140: be5b 1bba 5522 723d c805 9cbd ffa8 a53c
00000150: d59b 293d ad3e 91be 26a9 44bc 54ad fd3d
00000160: 2d89 a73d 8b5f 4d3e 39a7 79bc 5257 5f3d
00000170: 9815 083d 39ac 833f 4bf9 913a 3fff 283d
00000180: dddb c03d 5b2c 473e 9511 aabd ac13 c9be
00000190: edff 8ab9 90f3 3f39 8299 2f3e 2867 1abd
000001a0: 6da9 ddbd 3cc2 363a 4e82 b53d ffea 5d3f
000001b0: d478 8639 d56e 48bc eb4e 023a 915d 8eba
000001c0: 0799 0abc 279e 4139 f374 d33d 2579 863d
000001d0: f4b5 30bb 18f6 513e b1d6 8d3d 5a86 583c
000001e0: 4c8c 7639 327c 08be cabd 6d3e 3a4d 32be
000001f0: 7683 d13d e552 a1bd 92c3 21ba 3ecb 4fba
0.04880325 0.00066121103 -0.05387295 -0.03364946 0.068517916 -0.07073198 -0.50207955 0.22922075
-0.15581974 0.20638645 0.042475324 -0.47452018 -0.014952156 0.12125074 -0.00060870504 0.0014129594
-5.9322283e-05 0.043301582 -0.06242187 0.00042184527 0.11006823 -0.047967494 0.045472078 0.096314825
-0.14082798 0.16075093 0.2696794 -0.114390016 -0.00048587774 -0.00011742171 -0.26189297 0.00033109324
-0.007849542 0.00041528879 -0.00043642332 -0.1063958 0.27514088 -0.12860319 -5.1334755e-05 0.0005671614
-0.03128797 -0.098719105 -0.0009906158 -0.00024243128 -0.22748435 -0.00064431014 0.15582132 -0.2907667
-0.0011148064 0.00015839975 0.44844437 0.035806466 0.025117265 -0.17410369 0.7156228 -0.57248807
-0.026137952 -0.27982873 0.010717252 0.00029821115 0.18590298 0.36045188 -0.028804375 0.020436928
-0.32318056 -0.15053657 0.25395042 -0.15638934 -0.08923424 -0.33221674 -8.268392e-05 0.035035547
0.17877765 4.857724e-05 -0.002859866 -0.00086875306 -0.0016040938 -0.0001905842 -0.07344356 0.0018866812
-0.00059264514 0.059114773 -0.0761829 0.020222185 0.04140838 -0.2836813 -0.012003219 0.12386575
0.08180461 0.20055978 -0.015237623 0.054526635 0.03322372 1.0286933 0.0011136917 0.041259047
0.094169356 0.19450514 -0.08304135 -0.3927282 -0.0002651209 0.00018305914 0.17148402 -0.037696034
-0.10823331 0.0006971692 0.08862744 0.866867 0.00025648496 -0.012233456 0.0004970866 -0.0010861625
-0.008459336 0.0001846483 0.10325041 0.06566075 -0.0026963921 0.20504034 0.06925715 0.013215626
0.00023512653 -0.13328627 0.2321693 -0.17412272 0.10230152 -0.07877139 -0.0006170805 -0.0007926709

fc_0.linear.weight f4 [128, 63]
00000000: c11a 53be 94a7 de3d 5a7d e43c 966b 0300
00000010: 0502 90b7 130b 4286 ee7a e6bc 2852 75bd
00000020: 45cd f13d 6bd1 493c 075d a3bd b49b f83d
00000030: 21a0 ebbd 5ca6 e53d 2f45 0f3d 0aea 7f3b
00000040: 0d00 06be a0d8 90be 4e65 523d 9d9f 8e3e
00000050: 67e6 3e3d dee7 1dbe 5564 79bc f266 ec3c
00000060: 1f67 56bc a1a7 493e 7011 853e 1f5f 1abe
00000070: 96d3 aa3d 51db 47be 7abf 39be 5b30 dcbe
00000080: 280b 2fbd 5faa bfbd abfd c0bd ba4b 2e3e
00000090: 75f4 09be fb9a 4bbd 9857 1e3e 6e7b b83d
000000a0: e0ea d93c d010 0abe 749b 10bb 3e57 d13d
000000b0: 6eaa 733e aca7 f1bd 05c3 78bb fdc6 31be
000000c0: e8d6 8ebd 7a5a ffbd 9f75 3cbe 244f 9bbd
000000d0: 4489 953e 71a1 8c3d 5ac8 a7bd 7d97 aabd
000000e0: 96cb 52be 407e 123e 4a79 003f af22 813e
000000f0: 0a21 e5bd 548c d6bd 3fa0 0dbe cc39 663d
00000100: 21d7 ac3d 8954 9d3d 0ab9 b938 5077 f630
00000110: 81d2 f214 3164 b9bb b4ec e33d 2d56 b83b
00000120: ce52 67bd c90a ec3c 0ead e53c 1840 de3a
00000130: 535a 47bc 2f7b e0bd bf6d 75bd 3c56 5e3d
00000140: 75d1 703c dbf9 fabc 0ff2 203b abc7 9b3c
00000150: f82d 4e3c 4673 3a3e 8ab8 dd3a 2a6c 373d
00000160: ae07 27bd 45dc aebd 2cbb f43c fde1 aebe
00000170: 9cd5 b7bd 6ea5 aabc 20a4 493f 46a8 0dbe
00000180: a775 e5bd 60fb 7c3d fc93 1ebe d5b9 0d3e
00000190: e621 333d 4354 06bd fb33 2dbd 57fa 2c3c
000001a0: 9d10 2c3e 73b2 cdbd 68b3 b83d 41cd 40be
000001b0: aa71 a83b 8b6c 9abc 92da c83d 14ce a4bc
000001c0: 5dc0 7dbd 45dd 90bd bba0 4ebb 5176 95be
000001d0: ffe5 8bbd 3eec 7dbd 7135 033f d065 1b3d
000001e0: 2029 203c 0151 d4be df69 bdbd f4ff 5bbc
000001f0: 3c76 313e 6142 d63d aaf3 efbd a51c dc3d
00000200: 2d4f b3bd 1c7f 8704 c09f 649a 3e9a 7b9d
00000210: e757 11bd 6063 9dbd 7c4e 4c3d 639b 09be
00000220: 4337 093e 855e bbbd ff46 a5bc a6ae a9bc
00000230: a7c7 37bd 497c 77bd 488e 973e 6669 91bd
00000240: 17c5 4dbe 1d07 193d fb1d 2f3d e098 91bd
00000250: 8c06 ae3d cfd3 743b 121b 01be 9829 0e3e
00000260: 8266 20bd 93a6 d43d e6e3 9b3e 54f6 f63d
00000270: 1fad 463d 14ac 4fbf 916d 34bd badf 21be
00000280: 8ad0 35be 36d6 28be d193 db3d 6afb 04be
00000290: 050d f23d fcf2 2f3d e3ac 773e 34e6 2ebd
000002a0: d1b1 16bd ba02 89bc 04dd ebbd 9d27 c63c
000002b0: 261b 2cbc 6644 f43d 8b9c a5bd 87de 433e
000002c0: 3045 b4bd 714f 2e3b 05e8 2cbe 26f1 9a3d
000002d0: 1477 a33d 7547 09ba e18a 2ebe b4d4 9d3c
000002e0: 3ee9 d93e 2477 43bd 91d0 fb3d 29bb 85be
000002f0: 12a9 43be 1aea 3e3e 906c e9bd fdce 82be
00000300: cb04 85bf 5d43 0180 8512 87bf b2c5 ed3c
00000310: d739 7abe ed6b 573e c4c7 dc3d 883e 843c
00000320: e211 60be 0e53 803d 6c34 a1be 6f35 31bd
00000330: 4804 093c e218 893e 4f8e 28bd 1e9c a2bd
00000340: 120b 4e3e 8d49 61be 36ab 70be 14c4 1e3e
00000350: 9cbf d33d da08 20be 7747 88be e430 023e
00000360: 9524 30be 6070 74bd 9fd0 1f3d d855 0d3e
00000370: 96ef d4bd 277d 133d b7f6 cebc a4fd 15be
00000380: 76e6 84bc fd74 e6bd c0ee e9bd 74d9 34bd
00000390: 5bcd 3ebe 8ad5 1abd f511 5a3d 7f83 97bd
000003a0: 1433 863e 7ea9 3fbd 7224 3abe 781e 003e
000003b0: e437 9bbd 2280 c63c f6ec 25be 3e77 8ebd
000003c0: ffef f73d 2845 48bd 2058 513e 996b 293e
000003d0: 3a52 803d 1b91 5ebe 2fd2 12be 5831 073e
000003e0: b424 9cbd d4f3 0abe 1156 82be 9458 19be
000003f0: 0e83 7ebd 9165 29bd 5f7b 88bd 1f37 4e9e
-0.20615675 0.10871807 0.027891804 3.14101e-40 -1.7167078e-05 -3.649548e-35 -0.02813479 -0.059892803
0.1180673 0.012317996 -0.07976728 0.12139073 -0.115051515 0.11213371 0.034978088 0.003904941
-0.13085957 -0.28290272 0.051366143 0.2785615 0.046606448 -0.15420482 -0.015221675 0.028857682
-0.013086109 0.19692852 0.25989866 -0.15075348 0.08341138 -0.19517256 -0.18139449 -0.43005642
-0.04273525 -0.093586676 -0.09423383 0.17021075 -0.13472159 -0.049708348 0.15463102 0.09007917
0.026601255 -0.13482976 -0.0022065314 0.10221718 0.23795483 -0.11799559 -0.0037958038 -0.17361064
-0.06974584 -0.12468429 -0.18404244 -0.07583454 0.29206288 0.0686673 -0.08192511 -0.08329675
-0.20585474 0.14305973 0.5018507 0.25221774 -0.11187942 -0.10475984 -0.1383066 0.056207463
0.0843947 0.076821394 8.855954e-05 1.7932766e-09 2.4518785e-26 -0.0056576957 0.11129132 0.0056255073
-0.056475453 0.028813737 0.02803662 0.0016956357 -0.012167531 -0.109609954 -0.059919115 0.05428146
0.014698376 -0.030636718 0.002455834 0.019016108 0.012584202 0.18208036 0.0016915959 0.044780888
-0.04077881 -0.08538107 0.029874407 -0.3415679 -0.0897629 -0.020830836 0.7876606 -0.13833722
-0.11204081 0.061763167 -0.15486139 0.1384042 0.0437335 -0.032795202 -0.0422859 0.010557733
0.16803212 -0.10043802 0.09018594 -0.18828298 0.005140503 -0.018850585 0.09807314 -0.020117797
-0.06195103 -0.07073454 -0.0031528908 -0.2919183 -0.06830978 -0.061992876 0.5125342 0.037938893
0.00977543 -0.4146805 -0.09248709 -0.013427723 0.17330259 0.104618795 -0.11716397 0.10747651
-0.08755336 3.185508e-36 -4.727834e-23 -3.3299315e-21 -0.03548422 -0.0768497 0.049879536 -0.13438182
0.13399987 -0.091488875 -0.020175455 -0.020713162 -0.044868138 -0.060421262 0.2960074 -0.07100181
-0.20094715 0.0373603 0.0427532 -0.07109237 0.084973425 0.0037357693 -0.12607983 0.13883054
-0.03916026 0.10383334 0.3044731 0.12058702 0.048504945 -0.81121945 -0.044049803 -0.15808001
-0.17755333 -0.16487965 0.10721553 -0.12986532 0.118188895 0.042956337 0.24187045 -0.042700008
-0.036790673 -0.016724933 -0.11516765 0.024188811 -0.01050452 0.119271085 -0.08086499 0.19127856
-0.08802259 0.0026597644 -0.16885383 0.07565527 0.07981697 -0.0005236783 -0.17045166 0.019266464
0.42560762 -0.047721043 0.1229564 -0.26119354 -0.19107464 0.1864399 -0.1139766 -0.25548545
-1.0392088 -1.16001e-40 -1.0552527 0.029024933 -0.24436127 0.21037264 0.1078029 0.016143098
-0.21881822 0.062658414 -0.31485307 -0.04326385 0.008362837 0.26776797 -0.04115134 -0.07939933
0.2012141 -0.22000714 -0.23502812 0.15504485 0.10339281 -0.15628377 -0.26617023 0.12713963
-0.17201455 -0.05967748 0.039017316 0.13802278 -0.1039726 0.036008026 -0.025264127 -0.14647537
-0.016223174 -0.112527825 -0.11422491 -0.044152692 -0.18633024 -0.037801303 0.05323978 -0.07398128
0.26210845 -0.0467925 -0.18177965 0.12511623 -0.0757902 0.02423102 -0.16203675 -0.069563374
0.121063225 -0.048894078 0.20443773 0.16544951 0.062656835 -0.21735041 -0.14337991 0.13202417
-0.07624188 -0.13569576 -0.25456288 -0.14975196 -0.062136702 -0.041356627 -0.06664156 -1.0916948e-20

fc_0.linear.weight_g f4 [128, 1]
00000000: 43f4 6d3f d43a fa3f 3212 ad3f 2b61 783b
00000010: 203e 3540 d665 cf3f 26a1 d13f 5021 f13f
00000020: a7ac 3340 f865 a43f 5fc0 c83f 57d6 6f3f
00000030: 09ec a73f a368 1440 4cae c73f b3ae 8e3f
00000040: f455 bf3f 1820 073f 8889 963f 27d4 2240
00000050: d217 a13f 38b3 b03f 4287 8840 f425 1940
00000060: 7a9b 1340 9d9f ca3f 5733 9c3f f603 c83f
00000070: b03a 9e3f c0d2 ed3f 699a ba3f 67e8 d940
00000080: f3b4 8a3f bae4 373f 2579 dc3f 4514 8d3f
00000090: 1c86 313f 5b78 c13f 2c5c 8b3f 2deb d33f
000000a0: b612 9a3f aabd b23f a6cd a43f 4411 d43f
000000b0: 1be9 c43f 28ba f840 8bf3 003f 05ee f73f
000000c0: 4abf a340 8be6 fd40 fcf0 0e40 2e6e 9d40
000000d0: 5396 cb3f d319 0b40 10f5 903f 93e3 0640
000000e0: 0454 d43f 99c8 ae3f 254a c43f f956 243f
000000f0: 5226 a43f 4a3d 0840 5318 3541 51fd d73f
00000100: 2d08 6541 01eb 593f 9666 8240 f623 a13f
00000110: f651 1340 c913 8f3f ee16 b13f ff06 9a3f
00000120: ead1 1a40 d428 0b40 4dcd 2640 de09 6340
00000130: ffcd aa3f 72d4 cd3f 6b49 1440 2a65 2340
00000140: 376d 3a40 5a79 c33f 0646 c83f d91c 9940
00000150: 58ea 6a3f d4a2 793f 4054 9a3f 6079 1240
00000160: 6574 d43f bfbb 5940 9e09 0a40 dff6 d13f
00000170: 124a d53f 6830 bf3f b4a8 9f3f 2ec0 933f
00000180: 2a17 2c40 31e8 b23f 40db f53f fa3a c63f
00000190: 9ad1 fc3f 157d eb3f d48d 8e3f 6b17 0d40
000001a0: c560 e23f fa34 1840 4204 a33f 5dc8 ab3f
000001b0: 3d55 1040 4177 c13f ea62 0840 c2a5 933f
000001c0: e41b af3f f55b 5940 c45a 983f 1939 8b3f
000001d0: 0870 bc3f 7c42 4440 59e5 e63f 7533 f53f
000001e0: ac73 eb3f 7a71 2f40 ac72 e93f 83eb d93f
000001f0: 6ba2 b33f 1568 aa3f a706 3440 f6f9 b83f
0.9295084 1.9549203 1.3521178 0.0037899713 2.8319168 1.6202953 1.6377304 1.8838291
2.8074129 1.2843618 1.5683707 0.9368643 1.3118907 2.3188865 1.5600066 1.1147064
1.4948106 0.52783346 1.1760721 2.5441988 1.2585394 1.3804693 4.266511 2.3929415
2.3063645 1.582996 1.2203168 1.5626209 1.236166 1.8579941 1.4578372 6.8096194
1.0836471 0.71833384 1.722447 1.1021811 0.6934526 1.5114855 1.0887504 1.6556145
1.203696 1.3964131 1.2875259 1.6567769 1.5383638 7.772724 0.5037162 1.9369513
5.1171007 7.9343925 2.2334585 4.9196997 1.590525 2.1734512 1.1324787 2.10764
1.658814 1.3654968 1.5335127 0.6419521 1.2824194 2.1287408 11.318439 1.6874181
14.314496 0.8512421 4.0750227 1.25891 2.3018775 1.1177913 1.3835123 1.2033385
2.4190621 2.174367 2.6062806 3.5474772 1.3344115 1.6080458 2.316981 2.5530496
2.912916 1.5271409 1.564637 4.7847714 0.9176383 0.9751408 1.2056961 2.2886581
1.6598021 3.402084 2.156837 1.6403464 1.666323 1.4936647 1.2473359 1.1543024
2.6889138 1.3977109 1.9207535 1.5486748 1.9751465 1.8397547 1.1137033 2.2045543
1.7685782 2.3782334 1.2735674 1.3420521 2.2552025 1.5114518 2.1310372 1.153496
1.3680387 3.3962376 1.19027 1.08768 1.4721689 3.066558 1.8038741 1.9156328
1.8394675 2.741301 1.823812 1.7024997 1.4033941 1.3313013 2.812906 1.4451282

fc_0.linear.bias f4 [128]
00000000: aa13 cb3c 39ea 46bd dfbe 18bd 80d0 683a
00000010: cad1 0f3d fdbd 6bbe 803c 9abd 3f9e 58bd
00000020: 01c2 c8bd 8c80 cf3d 31df 3cbb b9fe 61bc
00000030: c562 6bbd cf4f d83d 75b0 993d aef2 3e3d
00000040: 0994 08bd e651 263c c6f2 da3c e385 a73d
00000050: 97b1 433d 0511 463d ea40 f13c 91ce 92bd
00000060: b3a8 ec3c 0cb1 443d f523 3e3d 47ce 843a
00000070: 7d60 03bd 2b7f 003e d185 073e ae31 c9bd
00000080: 7afe c3bc 759c 1c3d 63b0 623d 1cb7 013d
00000090: 07cc cb3b baea 49bd 952d 8f3d eace 7b3d
000000a0: 249e 493d aef5 f83b 7d5a a53d fae3 323d
000000b0: d284 923d ba12 d3bd 1f45 5ebc 3558 913c
000000c0: c3e7 ebbd 0f63 e4bd c2b5 843d 9ca8 da3c
000000d0: 38b5 a6bd 8245 34bd 1732 0ebc 71ff 183d
000000e0: 63e7 6bbd 7d37 86bd 076a 9dbd 2c3f 0bbd
000000f0: 65c0 183c 8f91 9dbd 5015 073e b6c9 51bd
00000100: 87f6 cb3d 0ce5 f53b fa1e da3d 29ea 4f3d
00000110: 047f 66bc b5cc 75bd 6214 533d 63cc 8d3d
00000120: 7083 d83d d657 ce3d 2e0f 86bc b1ab e7bd
00000130: 84f4 9f3c a874 8cbd 43bf 93bd 4c32 cbbd
00000140: 2b63 7ebc 6fa0 d03d d587 753c b2f5 013e
00000150: fd60 b1bc 9d3d bf3c 7a31 773b 8c5b ab3d
00000160: ea3d 02bd 93cf a7bd 4555 19be e735 0e3d
00000170: a428 083e d282 0cbd 1640 b1bc 8ae4 583d
00000180: 5a24 853c c17f 073d cc0f 98bd cbe6 293b
00000190: 3932 293d a48f 9fbd f97d d9bd 9791 99bd
000001a0: 5ae3 23be c254 e63c 1f4d ae3d 5414 173d
000001b0: cb72 9c3c 3b71 63bc aa8c 6cbd a501 b63c
000001c0: f2a1 593d cd56 9a3d f505 083d 5dc8 103d
000001d0: b212 6dbc 80d0 a83d 3f06 43bc f5e3 aabd
000001e0: 6fe0 8e3d ae87 a83b aedf 8e3c 4e99 cbbc
000001f0: 3529 48bd b18e 483d 1c30 b63d f7b3 82bd
0.02478965 -0.048563216 -0.037291404 0.00088811666 0.03511218 -0.23021694 -0.07531071 -0.05288529
-0.09802628 0.1013194 -0.0028819556 -0.013793641 -0.05746724 0.10562097 0.0750436 0.046618156
-0.033344302 0.010151362 0.026727092 0.08179834 0.047776785 0.048356075 0.029449899 -0.07168306
0.028889036 0.048020408 0.04642101 0.0010132276 -0.03207444 0.1254851 0.1323464 -0.09823929
-0.023925055 0.038235147 0.055343997 0.031668767 0.0062193903 -0.04929612 0.06991116 0.061476626
0.04922308 0.0075976467 0.080739 0.043674447 0.0715424 -0.10306306 -0.013566284 0.017742256
-0.115188144 -0.111517064 0.0647998 0.026691727 -0.081400335 -0.0440116 -0.008678935 0.037352983
-0.057593714 -0.06553552 -0.07686239 -0.033995792 0.009323214 -0.07693779 0.13191724 -0.051217757
0.09959131 0.007504111 0.106504396 0.050760422 -0.014068369 -0.060009677 0.05153311 0.06923749
0.10571945 0.10075347 -0.01636466 -0.113120444 0.019525774 -0.06858188 -0.07214215 -0.09921703
-0.015526573 0.1018685 0.014985998 0.12691382 -0.021652693 0.02334481 0.00377187 0.083670706
-0.031797327 -0.081938885 -0.14973934 0.034719374 0.13296753 -0.034304447 -0.021637004 0.052952327
0.016252685 0.03308082 -0.07424888 0.0025924917 0.04130766 -0.07791069 -0.106197305 -0.07498472
-0.16004696 0.028116588 0.085108034 0.03688462 0.019097706 -0.013881977 -0.057751335 0.022217581
0.05313296 0.07536087 0.033208806 0.03534733 -0.014469789 0.08242893 -0.011903345 -0.083442606
0.06976401 0.0051431274 0.017440643 -0.024853375 -0.048867423 0.048964206 0.08895895 -0.06381982

fc_layers.0.linear.weight f4 [128, 128]
00000000: 1c60 943e 2615 a83e 4b9a e73d b68b 5b3d
00000010: 90a5 743e 23ab 89be 1d0b a8bd 5bc3 8dbc
00000020: f142 e2bd c542 0a3e 94db dcbc a19d 0fbe
00000030: d9ce 2e3e a35d 05bd 1a2f 68bd 7d2c 6fbe
00000040: f0d2 523e f75a 013f 6206 863e 839f 2fbd
00000050: 9c40 5b3d 056e adbd 3fa2 57be 3ff9 2c3d
00000060: 4557 e9bd 7e7a c9bd 0e2b afbd 304d 1bbe
00000070: 7868 de3d 3c03 ff3e 77d5 32be c0f4 03be
00000080: dbbd e83b b44b 013e d7d6 76bb 7e01 513e
00000090: cd4a 3e3d 7f48 873e 5b68 f53d 5a54 adbe
000000a0: 098a 4ebd 3e91 7ebe f5a8 85bd 941e 9f3b
000000b0: debc 9bbd e42c c4bd 1e36 cdbe cf9f 963f
000000c0: 1c06 353e 864e a0bd 10a0 57be 1089 2bbe
000000d0: 34cc d53b 8552 85bc 2f3f aabe d744 db3d
000000e0: bd6d 7a3d a877 87be bb75 0a3d 9c75 75bd
000000f0: b325 85bd e4f4 dfbd 7fd1 d7bc c8eb 98be
00000100: 9032 6f3d 1c70 6e3e fcc7 77bd 9d06 7bbc
00000110: 859a e1bb 9a3b 18bc ec11 d4bd bce3 863e
00000120: 8df2 c13d 5e31 163e 308e d63e eb87 0e3e
00000130: 38ba cc3d c54c 503d 5629 a63c 68aa c8bd
00000140: 5659 043d ef35 f8b9 8d70 4ebe 365e 983e
00000150: e006 c13d 6041 be3d 109e 20be d96c 96be
00000160: 40da 2f3d af25 30be a2a7 4fbe ce4a 8cbe
00000170: 51a7 b5bd be62 853d 8814 6c3e bc3c 833e
00000180: f90f 183e cb9a 983e ede1 603d 002a 0b3e
00000190: 6d57 753d 02c2 02be 7858 7bbe a8f7 1a3e
000001a0: 34c1 3f3e 06ad 86be 11b3 acbe 92fa 3b3d
000001b0: ee67 96bd a173 213e aa8d b8bd 2a6b d7be
000001c0: b722 8fbd b002 debc 3546 ddbe f223 7a3e
000001d0: d3ee ae3d 3dfd 6abe 90e8 abbe 3be8 cebd
000001e0: 477c 5dbe d3dc 273e f00c 70be 9613 633e
000001f0: f714 fb3e 40ba c93d 247f b1be 9e5b a73e
00000200: 0407 043d 60ef cebb 88a2 723e b0fd d4ba
00000210: 4d72 893d a8d7 5e3e 3a88 7bbe 9cbe 9dbd
00000220: 08b6 e0bd ecd4 e63e db1b 133d 8a3b b8be
00000230: c26a e1be 9968 b83d 9290 013d 41c3 49be
00000240: 141b 03bd 4683 edbc 9568 aabd f46f 51be
00000250: 17ff 4dbe c210 f83c e7d2 cabe 0d73 453e
00000260: 2ba7 5c3e 8244 3e3e 2ae4 41be a2da d3bd
00000270: 4d77 363e e5ea 1fbd 44b2 c13e 3a63 42bc
00000280: 0409 e33e 19e1 b03d 9a24 c33d 3347 ff3d
00000290: 17f6 193e 2f3e 2fbe 35e5 803e e9e0 cebe
000002a0: 7f89 723e 3846 dd3d a1ad ddbd c914 9f3d
000002b0: 4ee1 bf3e da70 53be 07dd cd3e 2438 60bf
000002c0: 1249 44be 44a0 563e 4855 c3bc c6cb cf3e
000002d0: d7c5 eabc 74b9 7b3d 8202 05be a5ee 13be
000002e0: 6b4c 783d b82f 50be d6f4 77be d19b 9b3d
000002f0: 9683 d9bd fa21 c33d 72b3 633e 83bd 21be
00000300: 9dd3 1ebe 6686 593c e01a c6bd 9f69 36bd
00000310: e0b0 a53e b1cf 26bd 9ecb 47be 086c 0c3f
00000320: 815e 51be 0f33 c9bb bce1 8f3d 7656 593c
00000330: 5ddc d33d 3641 793d fa35 e03d a3bc 243e
00000340: 4a3d a63e 31fa f03c d3fe 293e f602 d7bd
00000350: 00a7 5a3d 17d7 6ebe 2d0e 073e f2b0 153e
00000360: 66f0 02bd 0235 813e 5eca 3cbe c2d5 f6bd
00000370: 1add 9bbd 2675 70be b0f3 be3e a7e8 683e
00000380: 4052 13be 4b8d 093d dc8a 03be fe37 8bbe
00000390: c514 d8bd 24e7 8e3e f2d1 acbe cd89 75bd
000003a0: 9aa8 403e f47c 1d3e 5dfd 143d da56 07be
000003b0: dd70 3c3e 68ab fcbc 5c1c 8ebd ac09 4d3e
000003c0: 5922 f7bd 0e3b 113a 7338 1bbe 9240 3a3d
000003d0: cf61 a3bb 4166 8cbd 755c 2b3d f4ea 7a3e
000003e0: fd32 ca3d cc94 bfbe bbe2 e43e 2c12 64bd
000003f0: 0380 23be ff4e 593e 9857 c2bc 9fdc 35bd
0.28979576 0.32828635 0.11308726 0.053600036 0.23891282 -0.2688838 -0.08205245 -0.017305067
-0.11047924 0.13502033 -0.026960172 -0.14024974 0.17071094 -0.032560002 -0.056685545 -0.23356815
0.20588279 0.50529426 0.26176745 -0.04287673 0.053528413 -0.0846825 -0.21057986 0.042229887
-0.113935985 -0.09837817 -0.08553134 -0.15166163 0.108597696 0.49807155 -0.17464243 -0.12886333
0.0071027107 0.12626535 -0.0037664676 0.20410725 0.046458054 0.26422498 0.11982795 -0.33853418
-0.05042461 -0.24860093 -0.065263666 0.00485594 -0.07604383 -0.09578875 -0.4008035 1.176752
0.17678112 -0.07827477 -0.21057153 -0.16751504 0.006524587 -0.0162747 -0.3325133 0.107064895
0.06113981 -0.26458478 0.033803683 -0.059926614 -0.06501331 -0.10935381 -0.026345013 -0.29867387
0.05839783 0.23284954 -0.060493454 -0.015321401 -0.0068848752 -0.009291554 -0.10354981 0.26345623
0.09470091 0.1466727 0.41905355 0.13919036 0.09996456 0.050854463 0.020283382 -0.097981274
0.03231176 -0.0004734243 -0.20160122 0.29759377 0.094251394 0.09289813 -0.15685296 -0.2937992
0.04293275 -0.17201875 -0.2027879 -0.2740082 -0.08869804 0.06512974 0.23054707 0.25632274
0.14849843 0.29805598 0.05490296 0.1359024 0.05989783 -0.1276932 -0.24545467 0.15133536
0.18726045 -0.2630388 -0.33730367 0.04589326 -0.07344042 0.15766765 -0.09011395 -0.42073947
-0.06989043 -0.02710089 -0.43217626 0.24427775 0.08541646 -0.22948165 -0.3357587 -0.10102888
-0.2162944 0.16392832 -0.23442435 0.2217544 0.49039432 0.098499775 -0.34667313 0.32687086
0.032233253 -0.006315157 0.23694813 -0.0016249921 0.06711254 0.21761954 -0.24563685 -0.077023715
-0.1097222 0.45084321 0.035915237 -0.35982925 -0.44026762 0.090043254 0.031632014 -0.1970339
-0.032008246 -0.02899326 -0.08320729 -0.20452863 -0.2011684 0.030281428 -0.3961403 0.1928217
0.21548145 0.18580821 -0.18934694 -0.10344435 0.17818947 -0.039042372 0.37831318 -0.011864478
0.44342816 0.08636684 0.095284656 0.12464752 0.15035282 -0.17113565 0.2517487 -0.40405968
0.23685263 0.10804409 -0.10824133 0.07767636 0.3747658 -0.20648518 0.40207693 -0.87585664
-0.19168499 0.20959574 -0.023844376 0.40585154 -0.02865879 0.06145616 -0.12989238 -0.14446504
0.060619753 -0.20330703 -0.24214491 0.07598079 -0.10620801 0.09527965 0.22236422 -0.15794949
-0.15510412 0.013276672 -0.09673095 -0.044534322 0.32361507 -0.040725414 -0.19511268 0.5485234
-0.20446207 -0.00614012 0.07025477 0.013265243 0.10344765 0.060853206 0.10947795 0.16087584
0.32468635 0.029416176 0.16601114 -0.10498612 0.05338192 -0.23324238 0.13189001 0.1461828
-0.031967543 0.25235754 -0.18436572 -0.1205249 -0.07610531 -0.23482189 0.37295294 0.22745
-0.14386845 0.033582013 -0.1284594 -0.27191156 -0.105508365 0.2791072 -0.33753926 -0.05994587
0.18814316 0.15379697 0.03637444 -0.13216725 0.18402429 -0.030843452 -0.06939003 0.20023221
-0.12067098 0.0005540111 -0.15158252 0.045471735 -0.004986025 -0.06855441 0.04183622 0.2450369
0.098730065 -0.3741821 0.44704232 -0.055681393 -0.15966801 0.21221541 -0.023723409 -0.044399854

fc_layers.0.linear.weight_g f4 [128, 1]
00000000: a208 a53f 7299 0140 0c05 5f3f a3eb ce3f
00000010: b6f2 a940 b555 1840 d975 513f f4cf 873f
00000020: 4791 5c3f 113c b93f 54d4 db3f 20ea 1541
00000030: 4f0a 0b40 1c5a 9e40 c9fa da3f ddc5 c03f
00000040: defe c13f b4b3 503f c6d0 e43f 92ba a73f
00000050: 2137 4740 39b2 7640 756d b23f 5b25 cd40
00000060: 2e72 0640 64ef 833f 4a55 573f 6b7d 6f40
00000070: 7793 c13f c820 683f d6ba c83f b1f8 9d3f
00000080: f767 863f 5577 af3f 4d1f a73f fc76 b13f
00000090: 0756 bb3f 0bb3 a840 b562 da3f 77ed a240
000000a0: af04 603f 85f9 9b3f 74fb 553f 4ac6 a03f
000000b0: 4b8f b03f af7c 873f 33b8 4940 2293 aa3f
000000c0: bf60 aa3f 4bf2 653f 6a8c 823f 8b67 8e3f
000000d0: d681 e13f 99ad 2e40 82a6 3d40 dad9 0440
000000e0: 796b 9240 fa88 6940 d045 a33f 2f38 9e3f
000000f0: 3d07 3c3f d84d 8c3f 9419 ed3f faf5 ea3f
00000100: ee63 9e3f 6a31 b13f 0fb1 9d3f f2fc 513f
00000110: a1d7 aa3f 7638 e63f c8d2 9b3f e2f4 b43f
00000120: a16a 4240 8157 0d40 9889 cf3f f887 bb3f
00000130: cecc da40 69cc 0240 5799 b040 1cb7 d83f
00000140: cdff 6d3f dbab b43f 2b7d 2740 ea36 9f3f
00000150: 40b0 3a3f b707 823f 3c11 aa40 48db d53f
00000160: 095f 883f bcb2 0f40 f4e1 933f 5d04 0740
00000170: d7c9 4940 035d 863f 48dd 8c3f a8dd 1b40
00000180: feee 8a3f 4acd 803f 4a8f 643f 5992 8c40
00000190: 60da ad3f f194 0140 17e8 5d40 7902 893f
000001a0: d4b7 343f 9032 a83f 3af5 f23f 31a7 2140
000001b0: 2cad ad3f d362 543f 29f4 c03f e5a0 873f
000001c0: 7f1c 973f 719e cd3f 8174 b03f b703 a43f
000001d0: 54f3 933f 0278 d23f 025d b83f f528 c53f
000001e0: 5607 ac3f a323 0540 42fc 693f f9eb 3440
000001f0: 81b4 8c3f ad44 a63f 609a 773f bb1e ba3f
1.289326 2.0249906 0.87117076 1.6165661 5.310878 2.3802311 0.81820446 1.0610337
0.86159176 1.4471456 1.7174172 9.369659 2.1725042 4.9484997 1.7107784 1.5060383
1.5155904 0.81524205 1.7876213 1.3103812 3.1127398 3.8546278 1.3939654 6.41081
2.100719 1.0307431 0.84114516 3.74203 1.5123128 0.9067502 1.5682018 1.234152
1.0500478 1.3708292 1.3056427 1.3864436 1.4635628 5.271856 1.7061373 5.0914874
0.87507147 1.2185522 0.8358681 1.2560513 1.379373 1.0584925 3.1518676 1.3326151
1.3310775 0.89822835 1.0199101 1.1125349 1.7617748 2.7293456 2.9632878 2.0757966
4.575619 3.6489854 1.275568 1.2360896 0.73448545 1.0961256 1.8523431 1.8356316
1.2374246 1.3843205 1.2319659 0.8202659 1.3347055 1.798598 1.21737 1.4137232
3.037758 2.2084658 1.6213865 1.4650869 6.8375006 2.0437262 5.5187182 1.693088
0.92968446 1.4114946 2.6170146 1.2438633 0.72925186 1.0158604 5.314604 1.6707544
1.0654002 2.245284 1.155333 2.1096413 3.1529443 1.0497135 1.100503 2.4354038
1.0854185 1.0062649 0.8928114 4.3928647 1.3582268 2.0247157 3.4672906 1.070388
0.70593 1.314043 1.8981087 2.5258296 1.3568473 0.82963294 1.5074512 1.0595976
1.1805571 1.6063977 1.3785554 1.2813634 1.1558633 1.6442873 1.4403384 1.5403124
1.3439739 2.0803 0.9140054 2.8269026 1.0992585 1.2989708 0.9671993 1.4540628
