heat_eq_2d/outputs/relu_interior_2000_arch_128x3/heat_network.0.pth (torch, 140446 bytes, 10 tensors)

_impl.layers.0.linear.weight f4 [128, 2]
00000000: af25 e1be 2642 cebc 77f0 203e f572 24be
00000010: d649 c23e 7251 05bd ccc1 37be a486 b53d
00000020: 9394 1dbf 0181 2f3c 8a8c 3a3e 453c 3abe
00000030: de08 333e 5a0c f13d cb39 86be f379 27be
00000040: 308a 313d f6df 89be a2db 87bf 8506 f8bb
00000050: ed57 77be 9202 d83d 059d a4bc 9443 8abe
00000060: cd68 213e ec54 20be 311c 1a3e 9093 c23d
00000070: 2654 7fbe 9bbd 343d 7f05 743e 8359 75be
00000080: c65f 0dbf f7f8 54bc 026b 5b3e d59b 5cbe
00000090: b4a5 96be 08ce 95bd 966a 0c3e 8e3f 033e
000000a0: 768e 023e 15f5 363e cccc 97bd 73b7 86be
000000b0: d7c3 183e 354d 1abe 7889 cc3e ab70 f9bb
000000c0: a610 37bf 92a9 7f3b c357 0e3e bb51 f13d
000000d0: 896b be3c 2718 b13e 5a3a b2bd 83c6 80be
000000e0: f699 1a3e 169b 1c3e 47f0 393e 8df7 39be
000000f0: 7914 083f 87bb 89bc f689 2c3e 5ddc 203e
00000100: 99db 53be 8ba2 cf3d fc1d 18bf 9eaa 54bc
00000110: 0dd6 a53c 599e b33e 00e9 21bf 46af 8cbc
00000120: 2bda 163e bb7a 253e c9ad 2e3f ef5f 16bb
00000130: a826 033e 5786 f83d c7f1 de3d 7f4e 39be
00000140: 42aa 45be 3753 2a3e 9b0c 0c3e 56bb 0f3e
00000150: ce20 ee3b e112 d33e cb3d 9dbe 1056 06bd
00000160: 9026 353d d267 7e3e b90e 59be 2989 8abd
00000170: 07fe bc3d f018 f4bd 6e0a 403e 16ba d13d
00000180: 6011 133e 676b 13be 9e0a 2fbf c155 5abc
00000190: f3af 72bf 74e9 cc3c 480e 5abe a4cd 0c3e
000001a0: 2760 573e 7455 57be adb1 543e 98ce 4fbd
000001b0: 53e6 453e 28f1 463e b430 05be 2307 243e
000001c0: da4f 07bd f83a 94be 1f45 413d 7315 a33e
000001d0: ffe5 d23c 1836 d6be df6c 233e 01f3 be3d
000001e0: 8178 0a3d 1b74 8e3e 00b5 573e 7a2d b9bd
000001f0: 0e20 19be 2adb 513e 2ab4 38be f4a2 763e
00000200: 70fe 62be 3c08 05be c721 88be fc39 f73c
00000210: 4e11 f5be d18a 973c b6d2 043c a880 c63e
00000220: 3219 2b3c 637e e8be a056 67be 29bd 0d3e
00000230: c694 123d d8ef 9c3e f137 673e 9d31 67be
00000240: b37e dbbe 21cd 82bc 2245 92be 07cd 8cbd
00000250: f671 12bf d2f9 c8bb dd44 0a3e 9895 f73d
00000260: 2377 613f 08fb 3cbc 89bd 3bbe fe6e 583e
00000270: 1f22 74c0 30ed 5639 1482 ed3e d384 3ebc
00000280: e87e 163e de39 17be 68f2 86bc 5559 9ebe
00000290: 1f9d 163e 6f0d e9bd f255 163e e506 223e
000002a0: f331 03be 91c4 a53e a4ec 2abe 952a d7bd
000002b0: a7d4 4b3c 6a11 c3be b111 1c3e 6710 1b3e
000002c0: 274f 223e 1c25 293e 5bad 563e a58a 573e
000002d0: 113a 9d3e 1be9 843c ab86 3c3e 70bd 39be
000002e0: 2ae7 8c3c 9934 b83e aa10 683e 1b7c 693e
000002f0: c0c6 2b3e b614 2cbe 77ad 7bbe a48a 8cbd
00000300: a4e8 003e 643e 023e d2bd 763c 6d05 b93e
00000310: f364 1b3d 3353 94be 9956 353e e0a0 3e3e
00000320: a8c9 d93c 2ffe 8ebe d1ff 393e d1e7 413e
00000330: 9a4e 953e c6bb 423d 7aed 93bc 35c9 96be
00000340: b660 2cbf f976 363c e267 ec3a 8de4 c4be
00000350: daad b3be fa7e 8abc 0515 2e3e b37b 39be
00000360: 10ab 513e 7d9c 403e 7256 133e 7977 1c3e
00000370: 3b4b 0d3e 17b2 cfbd 3b91 93be 8461 00bd
00000380: 1e64 5f3d af05 6ebe 4a7e 0e3e c1c2 153e
00000390: cbb0 2e3e 2eea 2cbe 4629 a23e 35a6 5dbd
000003a0: aea0 80be 5f82 d63d dc7c 8c3e 298b 503c
000003b0: 94ee b6ba aabb b8be 3956 3cc0 70e1 0c3b
000003c0: baf3 96be 6777 e13d ebc3 b9be 32cc 9bbc
000003d0: a677 6dbe a78f 81bd 605c 93be bbbd 7abd
000003e0: 28d6 77be f38f 04be 3d16 2a3e 7a02 2abe
000003f0: 6caf f3bf ab69 0c3b 0e99 0c3d f2b1 f43e
-0.43974063 -0.025178026 0.1571673 -0.16059478 0.37946957 -0.032548375 -0.17945021 0.08863571
-0.6155483 0.010711909 0.18217674 -0.18187054 0.17483851 0.11769934 -0.26215968 -0.16355114
0.043344676 -0.2692868 -1.0613902 -0.0075691366 -0.24154635 0.10547365 -0.020094404 -0.27004683
0.15762635 -0.15657395 0.15049817 0.095008016 -0.24934444 0.044126134 0.23830222 -0.23959927
-0.55224264 -0.012998811 0.21427539 -0.2154382 -0.29423296 -0.07314688 0.13712534 0.12817213
0.12749657 0.17866929 -0.07412109 -0.26311836 0.14918457 -0.15068515 0.3994863 -0.007612308
-0.7150978 0.0039010984 0.13900666 0.11783167 0.023244636 0.3458874 -0.08702536 -0.25151452
0.15097794 0.15293536 0.18158065 -0.1816084 0.5315624 -0.016813053 0.16849503 0.15709062
-0.20689239 0.101384245 -0.5942075 -0.012980131 0.020243669 0.35081747 -0.63246155 -0.01717342
0.14731662 0.16160099 0.68233925 -0.0022945364 0.12807715 0.12134998 0.10885959 -0.1809635
-0.1930323 0.16633306 0.13676684 0.14036307 0.007267094 0.4122534 -0.30711207 -0.03279692
0.04422623 0.24844292 -0.21197022 -0.067644425 0.09228139 -0.11918819 0.18753979 0.10240571
0.14362097 -0.1439644 -0.68375576 -0.013326109 -0.9479973 0.025013663 -0.2129451 0.1375032
0.21032773 -0.21028692 0.20770903 -0.050734133 0.19326143 0.19427931 -0.1300686 0.16018347
-0.033035137 -0.2895124 0.04718506 0.31852302 0.025744436 -0.41838145 0.159595 0.09323693
0.033806328 0.27822956 0.2106514 -0.09041877 -0.14953634 0.2049376 -0.18037477 0.24085599
-0.22167373 -0.12991422 -0.2658827 0.030179016 -0.47864765 0.01849881 0.008106878 0.38770032
0.010443019 -0.45408925 -0.22591639 0.1384169 0.035786413 0.30651736 0.22579934 -0.2257752
-0.428701 -0.015966954 -0.2856837 -0.06875043 -0.5720514 -0.0061332965 0.13502832 0.120890796
0.88072413 -0.01153446 -0.1833402 0.2113609 -3.8145826 0.0002049699 0.46388304 -0.011628347
0.14696848 -0.14768168 -0.01647301 -0.3092753 0.14708374 -0.113795154 0.14681223 0.15822943
-0.12812023 0.3237653 -0.16691834 -0.10506169 0.012440837 -0.38099223 0.15241124 0.15142976
0.15850507 0.16518062 0.20964567 0.21048982 0.30708364 0.016224435 0.18410747 -0.18138671
0.017200071 0.3597763 0.22662607 0.22801249 0.16775036 -0.16804776 -0.2457789 -0.06862381
0.12588745 0.12719113 0.015059905 0.36136952 0.03793807 -0.28969726 0.17708816 0.18616056
0.026585415 -0.27928302 0.18163992 0.18936087 0.2916153 0.047542356 -0.018057574 -0.29450384
-0.6733507 0.011136764 0.0018036331 -0.3845562 -0.35093576 -0.01690625 0.17000206 -0.18113594
0.20475411 0.18809696 0.14388445 0.1527995 0.1379823 -0.1014139 -0.2882174 -0.031343
0.05453884 -0.23244356 0.13915363 0.14625074 0.17059629 -0.16886207 0.31672114 -0.054113586
-0.2512259 0.10474085 0.2743901 0.012728491 -0.00139566 -0.36080676 -2.9427626 0.0021496676
-0.29482824 0.11009102 -0.36282286 -0.019018266 -0.23190174 -0.06326228 -0.28781414 -0.061216097
-0.24202788 -0.12945537 0.16610046 -0.16602507 -1.903791 0.0021425288 0.03432565 0.47792011

_impl.layers.0.linear.weight_g f4 [128, 1]
00000000: 2b65 753f 31ab c43f 125e 963f 9552 5e3f
00000010: 1baa 7f3f d8f1 0841 c5b4 0f3f a01c 653f
00000020: 5ac3 543f 13d3 7f3f 3d9b 773f fec8 763f
00000030: 796f 2a40 1157 f03f 6773 6e3f 1664 c440
00000040: 825e 843f bbc9 bd40 497b 803f 0bc9 4740
00000050: c51e 763f 8773 443f e7c1 3b40 a649 d73f
00000060: 2511 803f 71eb 3e40 c5f8 833f 54cf 3d3f
00000070: d1df 9740 b17d fd40 281f 993f 8f3a c73f
00000080: ba61 7a3f 2d2a 843f f723 7f3f a2ec 803f
00000090: d0b4 db3f 7386 8d3f e6a5 5b40 7ec1 2d40
000000a0: 6342 6e3f 1b97 ca3f d277 823f a141 7d3f
000000b0: 4961 823f bf0f 7e3f ad31 393f 4d58 7e3f
000000c0: f361 2f40 6aa1 743f 51e7 803f 0653 753f
000000d0: 7978 b140 7d44 c93f fc06 d840 65a3 6f3f
000000e0: e8bd 763f 3946 6e3f 17a7 6b3f 8fec 603f
000000f0: c8a1 523f e12c 7a3f 6e82 643f ba21 6b3f
00000100: 2069 803f c3e3 693f 8ad7 803f 8e65 803f
00000110: f263 7d3f 2c39 7e3f 9942 853f 7df8 d640
00000120: a016 7b3f 1ca3 743f 576d 723f a060 7c40
00000130: 4738 953f ef77 703f 1d4c 823f 2b83 9b3f
00000140: 6543 d13f ff3b 4a3f c21f 1740 9ed3 2340
00000150: b6b5 433f cf1b 7b3f 99b4 763f 329c 8a40
00000160: e030 2b40 fcd0 1741 1ac6 903f d05b 9f40
00000170: 9bc3 853f 49be 0841 a638 1440 fbad 813f
00000180: 09c8 c03f 8490 7b3f 98c2 813f 4777 2940
00000190: cd9d 4d3f 59bc 3640 a243 933f 1d9d 773f
000001a0: 46de 803f 7c0f 7c3f 494a 7f3f f359 0440
000001b0: c639 a23f 149c 1940 e7dc c03f f4e4 813f
000001c0: cfbd 813f d824 a43f 0e7d 8140 4fb4 8a3f
000001d0: fbaa 763f c456 ae3f 525f 813f 4eea 823f
000001e0: 2f79 7d3f 406d 803f e993 6d3f 333e 7e3f
000001f0: b4fb 643f c97e 5440 3692 7c3f a83d 473f
0.95857495 1.5364743 1.1747458 0.8684476 0.99868935 8.559044 0.5613521 0.89496803
0.8311058 0.9993145 0.9672125 0.9640044 2.6630538 1.877657 0.9314484 6.1372175
1.0341341 5.9308753 1.0037624 3.1216457 0.961407 0.7673878 2.9337099 1.6819351
1.0005232 2.9831202 1.0310293 0.7414448 4.7460713 7.921593 1.1962633 1.5564746
0.9780537 1.0325371 0.99664253 1.0072215 1.7164555 1.1056656 3.4320006 2.7149348
0.9307005 1.5827364 1.0192816 0.98928267 1.0185939 0.99242777 0.72341424 0.99353486
2.7403533 0.955588 1.0070592 0.9582981 5.545956 1.5724026 6.7508526 0.93608695
0.96383524 0.930759 0.92051834 0.8786096 0.8227811 0.9772473 0.8926152 0.9184834
1.0032082 0.9136316 1.0065777 1.0030992 0.9898063 0.9930599 1.0410949 6.717833
0.980814 0.95561385 0.9469809 3.9433975 1.16578 0.93933004 1.0179478 1.2149404
1.6348692 0.78997797 2.3613133 2.559791 0.76449144 0.9808931 0.9636932 4.331567
2.674858 9.488522 1.1310456 4.9799576 1.0450319 8.546456 2.3159575 1.013122
1.5061046 0.9826739 1.013751 2.647905 0.8031891 2.8552458 1.1505015 0.9672411
1.0067832 0.9846113 0.99722725 2.06799 1.2673881 2.4001513 1.5067414 1.0147996
1.013605 1.2823744 4.0465155 1.0836276 0.96354645 1.3620229 1.0107214 1.0227754
0.99013036 1.003334 0.9280382 0.9931366 0.8944657 3.3202384 0.986606 0.77828455

_impl.layers.0.linear.bias f4 [128]
00000000: 703d 57be 3b7c 99bc 4096 8cbc f7f4 5abe
00000010: aa40 34be a999 843c 88ec b5bb 8355 10be
00000020: ebe7 1abe 8028 32be 3afa 29be a956 4c3d
00000030: bff4 18bc 81b3 143c edec 58be 1024 463b
00000040: 5bbd f2bd ad09 1dbb d1ff 12be d9e1 5fbd
00000050: 9e37 4cbe 7f23 44be d1b0 86bc bcf6 5abe
00000060: 9fb6 1abe 6596 4b3d d95d 683d 7940 42be
00000070: d212 50bb 7dea 633c 7ee5 5fbb 2ba9 3a3d
00000080: 84a0 02be 8d9d 07be 6bf2 d13c 34c7 1bbe
00000090: dbdf 9cbd 5115 9f3b 034a 463c 2d5d 803d
000000a0: ffc4 b3bd ea18 dabc 4529 443d b642 26be
000000b0: 8ef0 293d 8d29 17be 80e8 4bbe 130c 443d
000000c0: 73cf e2bc 1704 70be 9418 13be 7f46 0abe
000000d0: 4e2f 0c3c 6b2c 30be 5510 1c3c 1250 8abd
000000e0: 9825 5d3d e287 c83c 09f8 933d 9bae 163d
000000f0: 14ef 43be 690d ff3c 4fc0 5cbe fa5a b3bd
00000100: 54fb 09be d067 34be 064c 19be f055 683d
00000110: bc81 823d 7ac8 f0bd a678 b03d 17cd 473c
00000120: db06 42be 98b2 46be 513d 46be e2ae 6f3b
00000130: 7259 18bd 8e32 5abd 6dad 19be 0c7a da3c
00000140: 75b1 7fbc 6b6a 20be ad1b 463e a6d5 b4bc
00000150: 6e37 2dbe 6479 9fbd dae2 7c3d fa65 cf3c
00000160: 276b fcbc 7cd3 9d3c 2790 4a3d 9d5e 053d
00000170: 919c e63d 016b 243c 84a2 e2bc 9ac6 d4bd
00000180: 7ddf 1fbd 1ecf 6b3d 5373 1e3d 95f0 1cbd
00000190: 5e02 39be 502f 05bd 9489 8d3d b939 973d
000001a0: 9ad1 1cbe 6c9b 803d 9a32 1abe 0f1f 37bd
000001b0: a875 3e3d 8154 b1bc 7c8f 653d c00d 0fbe
000001c0: 4f95 dd3b 0b73 c9bd 4956 8c3c e079 3fbd
000001d0: afb9 1ebe 819a 31be 9e93 ae3d fd82 01be
000001e0: c960 0bbe 2b72 20be f9a9 1fbe 3ddc 03be
000001f0: a70d 1abe 376d 583b 3b47 3ebe 6ecb 34be
-0.2101953 -0.018735996 -0.017161489 -0.21382509 -0.17602792 0.016186552 -0.0055518784 -0.1409512
-0.15127532 -0.17398262 -0.1659936 0.049887333 -0.009335696 0.009076 -0.2118413 0.0030233897
-0.11852523 -0.0023962066 -0.14355399 -0.054658744 -0.19943091 -0.19154166 -0.016441735 -0.21383184
-0.15108727 0.049703974 0.056730125 -0.18969907 -0.00317495 0.013910887 -0.0034163888 0.045571487
-0.12756544 -0.13243695 0.02562829 -0.15212709 -0.076598845 0.004854836 0.012102607 0.06267772
-0.087778084 -0.026623208 0.04789092 -0.16236386 0.041489176 -0.14761944 -0.1991291 0.047863077
-0.02768681 -0.2343906 -0.14364845 -0.13503455 0.0085562 -0.17204444 0.009525378 -0.067535535
0.05399093 0.024478856 0.07225043 0.03678761 -0.1913417 0.031134324 -0.21557735 -0.08757587
-0.1347478 -0.17617726 -0.14970407 0.05672258 0.06372401 -0.11756988 0.08616762 0.012194893
-0.18947928 -0.19404066 -0.19359328 0.0036572744 -0.037194677 -0.05327087 -0.15007563 0.026669525
-0.015606274 -0.15665595 0.19346495 -0.022074532 -0.16915676 -0.07786825 0.06173978 0.02531718
-0.030812813 0.019265883 0.04945388 0.032560933 0.112603314 0.010035277 -0.027665384 -0.10389443
-0.039031494 0.05757057 0.0386842 -0.038315374 -0.1806731 -0.032515824 0.069110066 0.073840566
-0.15314332 0.06279644 -0.15058365 -0.044707354 0.046498924 -0.02164674 0.05604504 -0.13970089
0.0067621837 -0.09836396 0.017130988 -0.04674709 -0.1550052 -0.17344095 0.085242495 -0.12647624
-0.1361114 -0.15668552 -0.15592183 -0.12876983 -0.1504427 0.0033024081 -0.1858186 -0.17655727

_impl.layers.1.linear.weight f4 [128, 128]
00000000: 87bd 893c 6a85 593d 3a69 261d bc2c 32bd
00000010: c085 1f3e 4dd3 45bf ef42 339d e817 6abd
00000020: 49c1 f2bd 32a6 a93d d496 8f3d 269d 4bbd
00000030: 3413 d6bc eedf 1c9d 683b 93bd a1b1 76bf
00000040: 60f5 a33d cf98 58bf 1ad6 19bd 8f26 3e3c
00000050: fcef 409a e557 193d a7ed 02be 12bc 189d
00000060: ed90 163e 00e8 993d 82e0 e5bd 03f2 07bd
00000070: 808f 0abf fb91 57bf 897d 601b 0ba3 3dbe
00000080: 0520 183d a0c8 833c 5876 8fbd fda9 673d
00000090: ade3 edbd 1052 221d 9157 873d 49d0 fd3b
000000a0: ab9a 0d3d e24a a83c 5ccd f5bd 23e4 243e
000000b0: dd0b 87bd 49dd 4e3d 153f 1f80 e317 ea8e
000000c0: 3506 853d fc50 8b3c bbab fa3d b09b 983d
000000d0: 9f23 41bf 75c4 4f0e 8466 89bf 7446 a63c
000000e0: 0a47 923c 94b0 133c 4933 e3bd f05f 219c
000000f0: ba96 03be b3b2 229d ad1f e4bd 9fed d0bd
00000100: 2ec7 f83c 3e5d bebd 0add 103d 25ce aebd
00000110: ddcd d8bd d653 8c3d 3b2d 19be 612d 71bf
00000120: 8cde 033c de9b 043e 1e09 163e 566a 163d
00000130: 67e7 2a9d 19a9 cebc 7818 3a3c 6f8a 511c
00000140: 8c06 833c cbcc 043d ada9 593d fd1d f4bc
00000150: 4845 c03c 1e9b 36bc fa68 7dbd 0522 03bf
00000160: 12a6 cebe a77f abbf 56d1 2f9d 26e1 1abf
00000170: 4df4 1abe 7b30 b6bf 0e86 2fbe 07cd 143e
00000180: f035 a7bb de32 f3bb 5797 30be 4f70 04bf
00000190: 7c9c 163d 7452 11bf 7557 2f19 3a9f 12be
000001a0: 941b 053e b056 d6bd 2409 70bc 89b6 1fbe
000001b0: b2e7 5dbe bcff c1bd 915d 1d3c eeda f43d
000001c0: f149 2fbe f79b d43c ad74 b8be af4f 471a
000001d0: 3508 da3d d504 0719 33e4 49bd 6f75 8f3d
000001e0: fecf 033e aff4 183e 9a1e 50bc f73a 7fbd
000001f0: f9fe f93d dafe 95be 9d1d e23d 7558 a2bd
00000200: dd5f 00b1 3a4d 64be ebc1 663e 052c ecbd
00000210: 5ec4 cf3d 2ac1 42be 4fd7 c43b 3a0d 81b2
00000220: ec41 65bc 84c3 80b7 af54 37be d0f9 7abd
00000230: da1a 5abe 4cd6 23bd a928 cb3d e252 77be
00000240: be05 d1b1 9674 81be 3206 1033 8a4f 8039
00000250: 5631 9f3e 464a 1aae 695e 3abe 7e83 5cbd
00000260: 8711 65b8 fd05 393e 8ba6 88be adcf a4b4
00000270: c7ec c23d 538c 61be b5d0 113f 6dec 843d
00000280: 2f9d 67be de67 4830 8d88 8dbe 6e6d 423d
00000290: ed6e 92bb 28ef e23d 2fb3 873d c4bb ffbc
000002a0: 2877 57be 2fb0 443d 86eb c1bd f04b c73d
000002b0: e0a2 aebd 7b46 f936 f358 54bd d787 1d3e
000002c0: baca 45be 4afc 083e 1ac5 103e 7677 40be
000002d0: c6ab 7dbe 0a47 83bd 9103 163e bef0 83be
000002e0: 1273 cebb 08be 19be 3559 403c f7ac bf3d
000002f0: 4b2a 76be 0c97 c83e 7c68 4abe 0cae 80be
00000300: 6ade 9e3d 78e0 85b5 bc79 9b3d e45b a1be
00000310: 4aa1 7fb6 b327 55be a0e0 01be c583 45be
00000320: 81a4 89b5 37fd 2db2 18b3 9db6 645e e53d
00000330: 1b30 b13e 92e9 a9be e935 5c36 27cb 553f
00000340: 6e14 2abe c5f3 8caf 9c90 843e ee6e 5f3c
00000350: 3b52 92be cf55 d0b6 a080 a3bd 2d63 d83d
00000360: 1b09 f3bd c5e2 a23d 68d2 5f3e d032 0abe
00000370: 616f 9dbd 7751 ab3d 974f 1cbe b51b 64b6
00000380: d763 e73d e0c1 89be 38a2 87bd 9671 d03d
00000390: b021 8b3d f477 bf3d 0bdc 973c 7f43 3fbe
000003a0: deb7 e7b5 f7bf 0c38 4d3b fc38 53eb a2bd
000003b0: 6bc9 0d3e ec88 4a3d ac87 8f3d b841 5336
000003c0: 0e2e 483c 6659 4c3b 07bd 32be 2c50 0d3f
000003d0: e047 f6bd 2ddd 223d 0326 b6bd 30e4 7cbd
000003e0: 34af cfbd 0d64 fe3d 9338 edb6 5b9f f937
000003f0: 31e0 2f34 214f 54be c6e8 e636 cec6 53be
0.016814006 0.05310575 2.2024318e-21 -0.043499693 0.15578365 -0.77275544 -2.3725057e-21 -0.057151705
-0.118532725 0.08283652 0.0701119 -0.049710415 -0.026132204 -2.0762197e-21 -0.07189065 -0.9636479
0.08005786 -0.8460817 -0.0375577 0.011605873 -3.9898527e-23 0.03743734 -0.1278597 -2.0214263e-21
0.14703722 0.075149536 -0.11224462 -0.033189785 -0.54125214 -0.84207124 1.8569408e-22 -0.18519227
0.03713991 0.016086876 -0.07004994 0.056558598 -0.11615691 2.1482947e-21 0.06608499 0.007745777
0.03457133 0.02054352 -0.1200206 0.16102652 -0.065940596 0.050504003 -2.86953e-39 -5.7708456e-30
0.064953245 0.01700639 0.12239786 0.0745157 -0.7544498 2.560931e-30 -1.073441 0.020297267
0.01785614 0.0090142675 -0.11093766 -5.339443e-22 -0.12850466 -2.1532907e-21 -0.11138854 -0.102015726
0.030368414 -0.09295128 0.03536705 -0.08535413 -0.1058614 0.06851928 -0.1495866 -0.9420987
0.008048665 0.12950084 0.14651915 0.036722504 -2.2618945e-21 -0.025227116 0.011358373 6.933122e-22
0.015994333 0.03242187 0.05314033 -0.029799456 0.023470536 -0.011145381 -0.06186769 -0.51223785
-0.40361077 -1.3398331 -2.3269281e-21 -0.604998 -0.15132256 -1.4233545 -0.17140982 0.14531337
-0.0051028654 -0.0074218353 -0.17245232 -0.5173387 0.03677033 -0.5676644 9.06495e-24 -0.14318553
0.12998801 -0.10465753 -0.014650617 -0.15596975 -0.21670416 -0.094726056 0.0096048275 0.1195582
-0.1711805 0.025953276 -0.36026517 4.1216603e-23 0.106460966 6.980312e-24 -0.049289893 0.070048206
0.12872311 0.1493709 -0.0127026085 -0.062312093 0.12206835 -0.29296 0.110408045 -0.07927028
-1.8680943e-09 -0.22295085 0.22534911 -0.115318336 0.10144876 -0.19018999 0.006007112 -1.5023591e-08
-0.013992768 -1.5349833e-05 -0.17903398 -0.061273396 -0.21299306 -0.03999929 0.09919865 -0.24152711
-6.0833534e-09 -0.2528426 3.3533247e-08 0.00024473324 0.31092328 -3.5081514e-11 -0.18200077 -0.05383634
-5.461418e-05 0.1806869 -0.26689562 -3.0698484e-07 0.09517818 -0.22026186 0.56959087 0.06490407
-0.22618555 7.290718e-10 -0.27643242 0.04746764 -0.00446879 0.11080772 0.066259734 -0.031217463
-0.21041548 0.048019584 -0.09468751 0.09731281 -0.0852716 7.4289833e-06 -0.05184264 0.1538385
-0.19315615 0.1337749 0.14137688 -0.1879557 -0.24772558 -0.06410034 0.14649798 -0.2576961
-0.0063003385 -0.15013897 0.011740019 0.09359162 -0.24039571 0.3917774 -0.1976642 -0.25132787
0.07757266 -9.974601e-07 0.07591578 -0.3151542 -3.8091844e-06 -0.20815925 -0.12683344 -0.19288547
-1.0255172e-06 -1.01275e-08 -4.699814e-06 0.11199644 0.34607014 -0.33186013 3.2813934e-06 0.8351311
-0.16609356 -2.563906e-10 0.25891578 0.013637288 -0.28578362 -6.2088725e-06 -0.07983518 0.10565791
-0.11866971 0.07953409 0.21857607 -0.13495946 -0.076872595 0.083651476 -0.15264736 -3.3990775e-06
0.1129834 -0.26905727 -0.06622738 0.10177915 0.06793535 0.09349051 0.018537542 -0.18678091
-1.7264354e-06 3.3557382e-05 0.00012027342 -0.07955041 0.13846366 0.049446985 0.07008299 3.1479703e-06
0.012218012 0.0031181215 -0.1745492 0.5520046 -0.12025428 0.03976171 -0.08893969 -0.061741054
-0.10140839 0.12421427 -7.0697365e-06 2.9757319e-05 1.6379705e-07 -0.2073331 6.8816325e-06 -0.20681307

_impl.layers.1.linear.weight_g f4 [128, 1]
00000000: 292b 1b40 fc2c 933f 30b6 d53f da63 7c3f
00000010: a1a8 873f 986a 873f fc8a 803f 2939 0040
00000020: 3854 793f 0743 7c3f 2ca8 7d3f 24f8 f83f
00000030: 85fc f43f a606 cc3f 9193 883f 8383 ae3f
00000040: eaa2 7b3f 8098 763f ab6a 7b3f 4b9a 743f
00000050: 69b4 1340 5c51 7d3f 1ba2 7d3f 19ae 8b3f
00000060: 4cc2 763f a237 6e3f 9810 7f3f b535 873f
00000070: 0c23 2d40 b215 813f 436c 883f d518 853f
00000080: a76a 7d3f 841d 963f 1211 d83f 1720 f03f
00000090: 2c7d d93f 2cda 7a3f be30 693f 3446 cd3f
000000a0: 2dfe 723f c3c9 743f 5b18 653f 5693 7c3f
000000b0: d0ca 503f 0000 803f 493b 1440 2f64 813f
000000c0: 550d e33f 41e2 d33f 4fd4 803f 3cc4 2e40
000000d0: 8712 7a3f 7596 a73f 229a 0940 95cb e33f
000000e0: c470 4f3f db0d ee3f cd5a db3f 913e 613f
000000f0: af51 793f 0f6c 833f 79e1 7d3f 6d88 7d3f
00000100: 8870 7d3f d23b 973f 8ea9 ee3f ad1f 763f
00000110: a8ef 7b3f 84fc 7c3f f3fe 7b3f 36e8 4b3f
00000120: 86c5 ff3f 2492 773f 72ff 853f cc58 7b3f
00000130: 3787 9c3f baf3 0540 687c 7c3f 69bb 7c3f
00000140: bbe1 7c3f bc5d eb3f 3130 af3f 4f12 943f
00000150: 0c46 903f 5a8f e53f 84e9 db3f 1f07 e73f
00000160: 91e0 ae3f 2edb 813f d134 783f ae3c 7c3f
00000170: a7e4 0e40 3069 f03f 5547 7c3f 99b4 7c3f
00000180: 2c3c 7d3f 3d5b 863f ce74 703f dc9c 723f
00000190: 0000 803f 1704 953f 9a77 8240 a1a1 703f
000001a0: ac14 0b40 2112 7a3f 9c63 763f c2f9 0040
000001b0: 27b4 7b3f f794 843f b688 0a40 be23 7c3f
000001c0: e178 603f cf81 753f 0000 803f e00e 7b3f
000001d0: 6096 7f3f a477 1c40 ffca 833f 2034 4b3f
000001e0: ef05 e03f 3f21 8e3f 0cf7 a23f 1779 4140
000001f0: aa46 833f a2ab 7c3f 1ac6 fc3f 79a7 753f
2.4245093 1.1498103 1.6696224 0.9858986 1.0598336 1.0579405 1.0042415 2.0034888
0.9739413 0.98539776 0.99084735 1.9450727 1.9139563 1.5939529 1.0670034 1.3633884
0.9829546 0.96326447 0.9820964 0.9554793 2.3078864 0.9895227 0.9907548 1.0912505
0.96390224 0.9305364 0.99634695 1.0563265 2.705264 1.0084746 1.0658039 1.0398203
0.98990864 1.1727757 1.688021 1.8759793 1.6991324 0.97989154 0.9109 1.6037049
0.9491909 0.95620364 0.8949029 0.98662317 0.8155947 1.0 2.3161185 1.0108699
1.7738444 1.6553422 1.0064791 2.7307272 0.9768452 1.3092791 2.1500325 1.7796503
0.8103144 1.8597978 1.7137085 0.87986094 0.97390264 1.0267352 0.9917217 0.99036294
0.98999834 1.1815131 1.8645494 0.96142083 0.9841256 0.9882281 0.98435897 0.796512
1.9982154 0.9670737 1.0468581 0.9818237 1.2228764 2.093001 0.9862733 0.98723465
0.9878194 1.838798 1.3686582 1.1568087 1.1271377 1.7934372 1.7180638 1.8049048
1.3662282 1.0145013 0.9695559 0.9853009 2.2327058 1.8782101 0.98546344 0.9871307
0.9891994 1.0496594 0.9392823 0.947706 1.0 1.1641873 4.0771 0.93996626
2.1731367 0.9768391 0.9624574 2.015244 0.98321766 1.035796 2.1645942 0.9849204
0.87684447 0.959012 1.0 0.9806957 0.9983883 2.4448023 1.0296324 0.7937641
1.7501811 1.1103896 1.2731643 3.0230157 1.025594 0.9869939 1.9747956 0.9595867

_impl.layers.1.linear.bias f4 [128]
00000000: bece 86bd 5087 92bd 1ab5 65bd 00c7 82bc
00000010: 0186 c13c fe3b bf3d 44f1 8c3d 2417 87bd
00000020: 4be2 3fbd fdd0 90bc 2dc8 1ebc de15 8bbd
00000030: 3fca 90bd 33fb 0cbd 340e 8b3c e038 f33b
00000040: 6f8b a0bc 7cd9 0bbd fff0 fbbc 2cad 0ebd
00000050: fb2b 47bd 2ff0 47bc acba 50bc 002a 7f3d
00000060: 43eb b0bb 9ab5 8c3d 4494 5ebc 8ace 253e
00000070: edb1 4abd 9c57 d7bc 8c2f b63b 88c7 c73d
00000080: 136a 37bc 7284 433e 71f8 96bd e896 59bd
00000090: 8b87 07bd 3dd0 14bd 6921 f4bc 8908 83bd
000000a0: 8c4f f4bc 6bcd 7dbc 4193 68bc 0312 8dbc
000000b0: f61a 823b 0000 0000 c556 a5bd bddf 00bd
000000c0: a4b0 92bd 758f 6ebd 63fe c5bd a9ce aebd
000000d0: 0cd9 5bbd d8f5 84bc a220 53bd 85fb 86bd
000000e0: b401 8abd 2c69 16bd 1d23 10bd 8477 823d
000000f0: 49ad 97bc b0fe 883d 42f4 70bc 5077 49bc
00000100: 0f36 3dbc 3e87 0a3d 723b 5abd 3a9e 0fbd
00000110: 6c0b a9bc 32ab 8cbc bb50 95bc f22f e6bd
00000120: 150c 85bd 4335 cabc 2c7b 2dbd 056a a9bc
00000130: dd42 87bc 4e13 8ebd 2f99 94bc 4914 8ebc
00000140: 75c9 a9bc 31b9 71bd ad92 a7bd ab59 5f3e
00000150: 39c0 bb3c 7d22 20bd 5227 82bd 1d57 37bd
00000160: 1018 a9bc 868a 8e3d a866 f7bc 0c80 97bc
00000170: 66a9 6fbd 80f4 6ebd f33b 82bc a64d 5dbc
00000180: fea2 48bc 86ce 4fbc 3e90 843c ed25 6d3d
00000190: 0000 0000 d1bd 8b3d bd62 fbbc 40b8 413d
000001a0: 38a8 64bd 4aa4 ed3c 10ed 2ebd 5c40 7dbd
000001b0: 313c a6bc 8a85 1f3e 8af0 cebc 8521 8f38
000001c0: 4836 90ba 154a 0cbd 0000 0000 249e b9bc
000001d0: 2a90 f03d ac60 6ebd c8f0 3b3c a14b 0d3d
000001e0: 1922 f3bc 682d 1c3e 87a3 98bd e46b 2dbd
000001f0: a4a4 be3d 3ac2 7cbc 3ce6 9ebd a1de c23d
-0.06582402 -0.07154715 -0.056080915 -0.015964031 0.023623468 0.093376145 0.06881955 -0.065962106
-0.04684667 -0.017677778 -0.00969128 -0.0679128 -0.070698254 -0.03441925 0.016974546 0.0074225515
-0.019597737 -0.034142956 -0.030754564 -0.03483312 -0.048625927 -0.01220326 -0.012739819 0.062295914
-0.005399139 0.06870575 -0.013585154 0.1619207 -0.04948609 -0.026286893 0.0055598672 0.097548544
-0.011194724 0.19093493 -0.07371605 -0.05312243 -0.03308825 -0.036331404 -0.029801087 -0.06398112
-0.029823087 -0.01549087 -0.014195264 -0.017220503 0.003970499 0.0 -0.080731906 -0.031463373
-0.07162598 -0.05824228 -0.09667661 -0.08535511 -0.05367379 -0.016230509 -0.051544793 -0.06590942
-0.06738606 -0.036721393 -0.035189737 0.06370452 -0.018515246 0.06689203 -0.014706673 -0.012296513
-0.011548533 0.033820383 -0.053279348 -0.035063006 -0.02063533 -0.017171476 -0.018226972 -0.112396136
-0.06496445 -0.0246836 -0.042353794 -0.020680437 -0.016511375 -0.06937276 -0.01813945 -0.017343657
-0.020725945 -0.059014503 -0.08182273 0.2181155 0.022918807 -0.03909539 -0.06355156 -0.044760812
-0.020641357 0.06960015 -0.030200318 -0.018493675 -0.05851116 -0.058338642 -0.015897727 -0.013507282
-0.012245892 -0.012683516 0.016182061 0.057897497 0.0 0.06823314 -0.03068673 0.047294855
-0.05582449 0.029009003 -0.04270655 -0.061828956 -0.020292373 0.15578285 -0.025261182 6.825015e-05
-0.0011002505 -0.034250338 0.0 -0.022658415 0.11746247 -0.058197662 0.011470981 0.034495953
-0.029679345 0.15251696 -0.07453065 -0.04233922 0.093087465 -0.015427167 -0.077587575 0.09515119

_impl.layers.2.linear.weight f4 [128, 128]
00000000: 2c6b cbbc 2f21 c6bd dc51 5c3e 55ab aab5
00000010: 1c9c c63d 6bec 703e 5694 b63c bd39 493e
00000020: 4b3f ecaf e115 22bb 17a1 48b9 2697 493e
00000030: fbc2 353e e7e6 433e 2255 2f3e db94 2bbe
00000040: 9f47 d4bb 9bd8 d739 6a82 403a a045 b5a8
00000050: 0f56 f0bd c249 b2ba 0ed2 54bb 8116 a53c
00000060: 6663 c8bb edc6 2e3b 5ffe 043e f3db 3ebd
00000070: c462 30bd 2ad6 6c3c 3f1c a33d 1e8a e93d
00000080: 6497 5cb9 3a7f 09be b7eb 543e 6b29 823e
00000090: bb1d 3c3e ed63 0f3b 5ceb 44b8 28c0 f73d
000000a0: 5bf6 51bc 4097 083e a27e 03be f2fb 0aba
000000b0: 2387 073e d79b 2039 d3fa 693e 1353 89af
000000c0: 5438 543e e2a0 813e dd48 28be ea15 e4bd
000000d0: 9c11 d3bc 4765 393e e2f0 92bd c115 333e
000000e0: db96 b930 5849 073e 0e9c fa3d fa0b 4c3e
000000f0: 3ad2 fe3b 1291 a43d ed51 a3b9 ca41 01bb
00000100: 8a14 44a1 f4e2 3f3e 93ab e53c 8864 c83c
00000110: 05a4 bfaf 34a5 fe3b 30c0 1a3c 0a8b dd35
00000120: 2291 2a3e f9c5 71b7 7c90 9c3c 8fd0 be38
00000130: 79f6 b6bd 0185 033e 5deb 37bc 216c 4835
00000140: a100 483a d73b 153e 1eb6 6dbe f238 20be
00000150: e8be 383e c163 0d3e eb17 b73d 6964 5f3e
00000160: 71fe 19be 662e e03d 74bc bd3c 6901 7b37
00000170: 6b84 433e 36aa fdbd 1cdd 19b8 f7ae 7fb7
00000180: 0f75 13ba 357a 053e d1f5 1f3e d96a 303d
00000190: baa9 363a f408 413e a202 9b3d b9ca 3835
000001a0: 3813 413e cc2b fb3d 386f 43bb 9196 533e
000001b0: 75ea 3d3b 23b8 f4bd 067d 063e f8a1 59bd
000001c0: 7ed5 283d 9e48 bbbc 17d6 96b4 5a92 02bc
000001d0: eafd 18be 30aa 693e b17d cb3d ceb0 87bd
000001e0: d019 283e 3611 27be 68cd 7bbe 9c20 5b3e
000001f0: 0b6f 84bd 3492 b8ba fc74 91bd 47de 083e
00000200: c17d 083e 81d7 fbbd 8867 053d b6f9 0a3e
00000210: 80fe 28bd bf62 853d cf70 c03d 0972 aa3d
00000220: c782 e73d f159 bc3d d1fc a13d 28d1 db3d
00000230: 5ca0 10be fb59 0fbe f1ad 8a3d dc2a d2bd
00000240: b44a a2bc 6244 b8bd e5d8 063e 1362 223e
00000250: 0cd4 fd3d 9c07 1cbd c601 76bc 44be 3c3d
00000260: 3ae2 1dbd 6739 b3bc 2c76 d43d a14f a23d
00000270: 0576 1fbe 110e a9bd 4f1a 0dbd 5fd8 af3c
00000280: 0c3d 473b da27 10be 66e3 3f3d 8c5e 893d
00000290: dc78 b6bd 65d0 efbd 5b4c 8abd 3aa0 1bbd
000002a0: ddd8 3ebd 884d 993c b609 5e3b 52f4 413d
000002b0: fd68 20be 6e2a a23d 7354 d3bc e94a 1fbe
000002c0: 58a6 fe3b 8e8a 103e f3aa ef3d 2d55 1fbe
000002d0: 111d 2dbe 85a8 0b3e 3d3a 3a3d 6678 b03d
000002e0: 3829 75bd 2b92 56bd 056b 8e3b 26ef b03d
000002f0: c094 ef3d fb02 04be 31c7 39bd c9e5 a6bd
00000300: 59fc 8a3d 3486 64bd 87bf b53d eabe 0dbe
00000310: d6d4 32bd 5e5a 1ebe af69 6bbd d3f1 5cbd
00000320: bce1 5abd 9acf fa3d 080e d738 403a d9bd
00000330: 045b 8b3c 7555 20be 3527 5fbc a250 083e
00000340: 779f 1f3d df8b 1dbe 6932 2dbb 3454 18be
00000350: b469 c0bd 8a88 0e3e b72c cabd d1aa 11be
00000360: 8f28 bf3d 6ab7 9ebc a837 d1bd d76f fabc
00000370: b092 e4bd d568 fcbd 7e05 113d 6018 8cbc
00000380: 179f e73d 6945 b2bd 7499 cabd 1f49 fcbd
00000390: e10a 46bc c9a5 bbbd 5974 acbb 0794 96bd
000003a0: a7b6 94bd 58c9 8bbd 8e53 03be 71e3 003e
000003b0: 2b4b b73d 2a7d 86bd 6891 cc3c 06d4 16be
000003c0: 67b5 a4bd d2c6 e73d 80ca ffbc ad95 3abd
000003d0: 6f86 77bd 0a88 783d 3b7c 0b3d fda0 273c
000003e0: 5303 643d cc68 bf3d d4f6 10be bff1 ad3d
000003f0: f76b d83b cf24 e7bd 554d 0b3d c9dd 333b
-0.024831377 -0.09674298 0.21515602 -1.2715851e-06 0.09697744 0.23527686 0.022287529 0.19650932
-4.2973122e-10 -0.002473228 -0.00019133497 0.19686565 0.1775016 0.19131051 0.1712232 -0.16756003
-0.0064782645 0.0004116938 0.0007343652 -2.0125232e-14 -0.117351644 -0.0013602304 -0.0032473835 0.020152332
-0.006115365 0.0026668862 0.1298766 -0.04659648 -0.04306294 0.014455358 0.07964372 0.11403297
-0.00021037232 -0.1342744 0.20793043 0.25422224 0.18370716 0.0021879629 -4.6949237e-05 0.12097198
-0.012815083 0.13338947 -0.12841275 -0.0005301825 0.13235144 0.00015316844 0.22849588 -2.4979183e-10
0.20724612 0.25318056 -0.16434045 -0.11136992 -0.025765233 0.1810504 -0.07174851 0.17488767
1.3503397e-09 0.13211572 0.12236796 0.19926444 0.007776526 0.080354825 -0.00031150822 -0.0019723051
-6.6434566e-19 0.1873892 0.028035915 0.024462 -3.485924e-10 0.0077711586 0.009445235 1.6506249e-06
0.16656926 -1.44108135e-05 0.019111864 9.098753e-05 -0.0893373 0.12843706 -0.011225549 7.4663154e-07
0.0007629488 0.14573608 -0.23214003 -0.15646723 0.18041575 0.13807584 0.08940109 0.21815647
-0.15038468 0.1094635 0.02316115 1.4961094e-05 0.19093482 -0.12385981 -3.6683967e-05 -1.5239922e-05
-0.0005625048 0.130349 0.15621115 0.043070648 0.000696804 0.18851072 0.075688615 6.884034e-07
0.18854988 0.12264213 -0.002982093 0.20662905 0.0028978859 -0.11949184 0.1313363 -0.05313298
0.041219227 -0.022861775 -2.8095448e-07 -0.007969463 -0.1494061 0.22818828 0.09936083 -0.0662552
0.16416097 -0.16315159 -0.24590075 0.21399158 -0.06466492 -0.0014081658 -0.07102391 0.13366042
0.13329221 -0.122969635 0.03256944 0.1357182 -0.041258335 0.06512975 0.093965165 0.08322532
0.11304241 0.091968425 0.07909549 0.10733253 -0.14123672 -0.13999169 0.06771458 -0.10262081
-0.019811012 -0.08997418 0.13168676 0.15857725 0.1239396 -0.038093194 -0.015015071 0.04607989
-0.038545825 -0.021877958 0.10374102 0.07925344 -0.15572365 -0.08254636 -0.034448918 0.021465478
0.0030401377 -0.14077702 0.046847723 0.067074865 -0.08909771 -0.1170967 -0.06752845 -0.0379946
-0.046593536 0.018713728 0.00338803 0.047352143 -0.1566505 0.07918249 -0.025797104 -0.1555592
0.0077712946 0.14115354 0.11702528 -0.15559836 -0.16905619 0.13638504 0.045465697 0.08616714
-0.059853762 -0.05238549 0.004346254 0.08639364 0.11698294 -0.12891762 -0.04535598 -0.08149297
0.06786413 -0.05579205 0.088744216 -0.13842359 -0.043660007 -0.1546416 -0.057473835 -0.05394156
-0.053437933 0.12246628 0.000102546124 -0.106068134 0.017011173 -0.156576 -0.0136201875 0.13312009
0.038970437 -0.15385388 -0.0026427752 -0.14875871 -0.09395161 0.13919273 -0.0987181 -0.14225318
0.09333908 -0.019374568 -0.10215694 -0.030570908 -0.11160791 -0.123246826 0.03540563 -0.017101467
0.11309641 -0.08704645 -0.0989255 -0.12318634 -0.012087555 -0.091624804 -0.005262893 -0.07352453
-0.07261401 -0.06825513 -0.12824842 0.12586762 0.08949884 -0.06566842 0.024971679 -0.14729318
-0.08042412 0.11317219 -0.03122449 -0.0455529 -0.06043094 0.060676612 0.034054022 0.010231254
0.055667233 0.0934616 -0.14156657 0.08493375 0.0066046673 -0.112863176 0.034009296 0.0027445427

_impl.layers.2.linear.weight_g f4 [128, 1]
00000000: 46c0 a53f 2831 7d3f 45af 703f dc30 8f3f
00000010: b4b7 7c3f 09b9 693f 4ddf 8e3f 02b3 8a3f
00000020: 079c 8f3f 9c3f 9c3f 031f 7c3f ddbb a03f
00000030: 6453 753f e2d6 753f a143 783f 05d0 783f
00000040: c0bb 9a3f 1d31 643f 3867 983f 1a8f 1a3f
00000050: d1bd 8c3f cbdb 5d3f 8a40 733f dc39 6e3f
00000060: 6b9b 5b3f a690 963f aba1 9a3f f9fb 7c40
00000070: 97c7 7b3f bff0 8f3f 2e53 973f c650 a43f
00000080: 2126 7e3f c421 993f f433 903f 4fb0 6b3f
00000090: f146 923f 6a5d 953f 31f6 743f 2a77 8e3f
000000a0: 2507 773f e9d1 743f 220f 7b3f 428e bc40
000000b0: 0000 803f 0000 803f 4375 833f 6d4f 7e3f
000000c0: 59c6 903f 22e8 553f 11bc 9b3f 5e4f 8c3f
000000d0: 6ce4 963f 2a12 533f 38e1 7b3f a339 7a3f
000000e0: 8135 903f 159e a13f db94 623f cb2b b140
000000f0: 7e6c 7b3f ab21 7d3f 119a 753f 23d9 8f3f
00000100: 5065 943f 77ca 893f b4b2 7c3f 189e 6d3f
00000110: a3f6 843f 939b 7f3f d877 7a3f 6dbe 783f
00000120: 4dbf 7340 6564 943f 6bb0 6b3f 13e4 7b3f
00000130: 838a 7b3f d300 783f 1819 963f 9a6a 8f3f
00000140: 96b4 833f f945 733f 2d6f 973f fea7 7c3f
00000150: 1a70 7c3f f828 953f 8e21 7d3f a452 923f
00000160: da25 a33f 92a6 743f d425 8e3f 262d 9b3f
00000170: b96c 6b3f 46f5 793f 059c 7c3f 9c41 7a3f
00000180: 3b13 983f 3dbe 983f 11b7 a43f 918e 723f
00000190: f1c1 4a3f 8611 7a3f c17f 7b3f a303 9b3f
000001a0: 6a53 793f b639 7d3f 5fa7 653f 5eb4 8b3f
000001b0: 2b43 a63f 5e33 9e3f 17d5 5d3f bb5b 5b3f
000001c0: 64f2 903f 6542 963f a063 9e3f 848b 9c3f
000001d0: 8f39 943f 96f9 723f 6581 ee40 c57b 933f
000001e0: 469f a23f 14e5 7d3f 4798 733f e2f2 933f
000001f0: 9814 773f 76a1 7b3f bb60 953f 9eb2 6c3f
1.2949302 0.9890313 0.9401744 1.1186786 0.9871781 0.91297966 1.1161896 1.0835879
1.1219491 1.2206912 0.9848482 1.2557331 0.9583037 0.9603101 0.96978194 0.9719241
1.2088547 0.8913744 1.19065 0.60374606 1.0995427 0.866635 0.95020354 0.93057036
0.85784024 1.1762893 1.2080587 3.9528792 0.98351425 1.1245345 1.182226 1.283715
0.9927693 1.196343 1.1265855 0.920659 1.14279 1.1669133 0.9568816 1.1130116
0.96495277 0.956328 0.98069966 5.8923655 1.0 1.0 1.027016 0.99339944
1.1310531 0.8355733 1.2166768 1.0961721 1.1788459 0.8244959 0.9839053 0.97744197
1.1266328 1.2626368 0.88508385 5.536596 0.9821242 0.988795 0.9593821 1.123814
1.1593418 1.0764912 0.9871018 0.92819357 1.0387768 0.9984676 0.9783912 0.97165567
3.808551 1.1593138 0.9206607 0.9839489 0.9825823 0.9687626 1.1726408 1.1204407
1.0289485 0.95028645 1.1830803 0.98693836 0.98608553 1.1653128 0.98879325 1.143147
1.2745926 0.95566666 1.1105294 1.2123153 0.9196277 0.9763988 0.98675567 0.9775636
1.1880869 1.1933056 1.2868367 0.9474879 0.7920218 0.9768299 0.9824181 1.2110485
0.97392905 0.98916185 0.89708513 1.0914419 1.2989248 1.2359426 0.86653274 0.85686845
1.1323972 1.1739012 1.2374153 1.2230077 1.1580065 0.9491209 7.453295 1.1522146
1.2704856 0.9917767 0.9515423 1.1558497 0.965158 0.98293245 1.1670145 0.9246005

_impl.layers.2.linear.bias f4 [128]
00000000: d37b 5e3e 767e 05bd a0b7 28bc 1530 873e
00000010: cbc5 03bd ba76 1a3e 3d8d 553d c5d2 893e
00000020: 7b94 713e aadc 813e 25b2 18bd b6bf 623e
00000030: 0a14 87bd b21c 3ebd b25e 4bbd 65e5 2abd
00000040: d6a9 533e 7298 b23d ac06 5d3e 799c 193e
00000050: 918f 473d 8a51 39be 2f4a 0bbd 25c0 29bd
00000060: ff0c f0bd 3792 523e 5438 553e c9f9 16bd
00000070: 38a3 15bd 5e72 543e 3523 87bd fc1d 613e
00000080: 7355 0ebc 1080 513e 020f 653d 4702 af3d
00000090: afb1 503e 02fc 373e f4fe 09bd 17b6 6a3e
000000a0: 321e 86bd 6c44 a4bd 2268 9abc 4b9a 24bc
000000b0: 0000 0000 0000 0000 4d28 29b9 3cf0 02bc
000000c0: eeab 663e 2f69 44be bce9 5a3e b9e1 893e
000000d0: aa34 6c3e f59b 50be 8d26 d1bc 9e83 2fbd
000000e0: 3caa 353e e336 3b3e b19d 21be 2dfb 19bd
000000f0: 102f a8bc 24e1 62bd a06f 1bbd f846 433e
00000100: 9f66 5b3e 0bc9 8c3e bdd4 6bbc cbf3 c4bc
00000110: b57a 233d 87d8 ddbc 7e82 94bc 727f 2fbd
00000120: 5826 2ebd f141 6c3e 3780 5f3e 5ab4 0fbd
00000130: 4365 cebc 55cd 1fbd b384 7c3e 15e5 923e
00000140: 9922 6bbc e387 2dbd 8bd4 613e a96e 77bc
00000150: cbe3 13bd 8e38 a73e b0b0 dabc 5bcb 553e
00000160: 94d6 51bc ba27 31bd 085f a13e 4722 513e
00000170: b374 7ebd 3715 11bd 07ee 08bd 0013 24bd
00000180: 69d8 703e bd83 533e b67d 5e3e 36aa 1dbd
00000190: 540a f33d 92e5 b8bc 0df8 a6bc 6ddb 563e
000001a0: 8754 f4bc 0d2d 0b3c c527 073e e9b2 1e3e
000001b0: ce29 5c3e 40c8 3b3e fb89 b6bd f5d8 2fbe
000001c0: fc3c 5f3e 5e35 1f3e 1db4 4d3e d2b6 543e
000001d0: c948 563e f5f6 2bbd d9b9 a83d 6a01 603e
000001e0: b2d4 283e f136 cfbc e5a7 eabc 8ab0 073c
000001f0: 9159 3dbd c651 c9bc 8d3d 8b3e 2bd0 18be
0.21726923 -0.032591306 -0.010297686 0.2640387 -0.032171052 0.15084353 0.05213665 0.26918617
0.23591797 0.25363666 -0.037279267 0.22143444 -0.06595619 -0.046414085 -0.049650855 -0.041722674
0.20670256 0.08720483 0.21584576 0.15001096 0.0487209 -0.18097511 -0.034006294 -0.04144301
-0.11721229 0.20563589 0.20822269 -0.036859307 -0.03653261 0.20746753 -0.06598512 0.21984094
-0.008687365 0.20459008 0.055922516 0.08545356 0.20380281 0.17967227 -0.033690408 0.22921024
-0.06548728 -0.08020863 -0.018848483 -0.010046552 0.0 0.0 -0.00016132109 -0.007991847
0.22526523 -0.1918075 0.21378225 0.26930025 0.23066965 -0.20371993 -0.025531078 -0.04285013
0.1774072 0.18282656 -0.15782811 -0.037593056 -0.020530254 -0.055390492 -0.03794825 0.19070041
0.21425866 0.27497134 -0.0143939825 -0.02404203 0.039911944 -0.027080787 -0.01812863 -0.04284615
-0.042517036 0.2307203 0.21826254 -0.035084106 -0.02519477 -0.03901418 0.24659996 0.286904
-0.01435151 -0.04236592 0.22053735 -0.015102067 -0.036105912 0.32660335 -0.02669558 0.20878355
-0.012807507 -0.043250777 0.31517816 0.20423232 -0.06212301 -0.035420623 -0.033430126 -0.040057182
0.23520054 0.20655723 0.21727642 -0.038492404 0.11867204 -0.022570405 -0.020381952 0.20982142
-0.029825462 0.008494628 0.13198765 0.15497936 0.21500322 0.18338108 -0.089130364 -0.17172606
0.21800607 0.15547702 0.20088239 0.20772865 0.20926203 -0.041983563 0.082385726 0.2187554
0.16487387 -0.025294753 -0.028644511 0.008281836 -0.046227995 -0.024575125 0.27195397 -0.1492316

_impl.final_layer.linear.weight f4 [1, 128]
00000000: 93cc a53e 66d3 51bd b327 1ebe c4eb 933e
00000010: dc66 19be 219a 703e 0eed 1d3b 6bb5 793e
00000020: 4e01 8f3e a6b1 323e 8455 a6bd 33ee ab3e
00000030: a56b 34be 61f4 35bd e18a 08be 7c22 1fbe
00000040: a1b5 be3e 25db 8b3d a982 533e ee06 083e
00000050: 03fe c83d 0c2d 8bbc 7704 213c 207a e7bc
00000060: a873 05bd 89e7 533e 3cdb 833e 3993 24c0
00000070: d621 2abd d97a aa3e 6c8a 80be cc94 993e
00000080: 001b 42be 5f58 943e 3b09 1dbd 0439 fc3d
00000090: 6a64 823e 76d8 5b3e d740 0dbe ccbe 753e
000000a0: 87a3 ebbb 8635 f7bc 8691 bdbc 4407 95c0
000000b0: c495 1a3a 6ede f63d 46f8 613e 513d eabc
000000c0: ed3a 4b3e 0c8a 92bd 4d4f b83e 5f27 643e
000000d0: 4a9a 9b3e 252b 50bc ff4a 593c 5151 f7bc
000000e0: e7d1 3a3e 98fb 9c3e 167c a4bd f4b6 87c0
000000f0: 591b d0bd e4ba 52be 12e0 4b3c e0a1 893e
00000100: 3b1b bc3e 9ecd 8c3e 02ec 00be 29a3 413d
00000110: a27a 84bc a691 3ebe 8428 873a 539f 1abe
00000120: dc0c 23c0 c246 223e 18a9 5b3e 69ab 01be
00000130: 7b04 cdbd 7365 60bd 5bcb 7a3e 6f90 ad3e
00000140: 0bdd 5dbe 3e1e d2bc 23af 873e 619d ffbd
00000150: 274e 1abe 09fa b83e 2f5b 01bb 7bec a63e
00000160: 5c9b ffbc 7de1 9bbc 8f74 623e 5bb7 993e
00000170: 63e4 dbbc 74d9 53bc 0e9c 1dbe 3b32 0ebe
00000180: 5f5e 443e 6738 463e 7437 8b3e 31a4 ebbc
00000190: 7a6d a83d 228e 80bc cc56 48be 4bab c53e
000001a0: 38c4 82bd a87a b23d c23d 483e cdae b83e
000001b0: 98ed 813e 3f1c 8d3e ffca 2bb9 3ec1 a8bc
000001c0: ee19 7e3e 40b9 163e dba2 123e 1de6 b03e
000001d0: f2f5 583e 4d6e 24be 250a b5c0 21dc 863e
000001e0: 4849 5d3e f59a 19be afae 6fbc bb04 003d
000001f0: dc4d 9dbc 691b 0abd 24ae 383e c60f e7bd
0.3238264 -0.051226996 -0.15444832 0.28890812 -0.14980644 0.23496296 0.0024097594 0.24385612
0.27930683 0.1745058 -0.081217796 0.3358017 -0.17619188 -0.04442251 -0.13334228 -0.15540498
0.37247947 0.06828908 0.20655312 0.13283893 0.09814074 -0.016989253 0.009827725 -0.028256476
-0.032581 0.20693792 0.257532 -2.5714858 -0.041536175 0.3329685 -0.25105608 0.29996336
-0.18955612 0.28973672 -0.03833888 0.12315562 0.25467235 0.21469292 -0.13794266 0.23998564
-0.007191125 -0.03017689 -0.02314068 -4.657137 0.00058969506 0.12054144 0.22067365 -0.028593691
0.19846697 -0.071552366 0.35998002 0.22280644 0.3039115 -0.012705599 0.013262509 -0.030190142
0.18244134 0.306607 -0.0803148 -4.241083 -0.10161466 -0.20579106 0.012443559 0.26881313
0.36739525 0.27500623 -0.1259003 0.047274742 -0.016171757 -0.18610248 0.0010311757 -0.1509984
-2.5476599 0.15847304 0.21451223 -0.12663044 -0.1001062 -0.05478425 0.24491636 0.33899257
-0.21666352 -0.025649186 0.26500806 -0.124811895 -0.15068875 0.36128262 -0.0019738188 0.32602295
-0.03120201 -0.01902842 0.22114776 0.30022702 -0.026842302 -0.012930263 -0.15391561 -0.13886349
0.19176625 0.19357453 0.27190745 -0.028764816 0.08224006 -0.015692774 -0.1956436 0.3860725
-0.06385082 0.08714801 0.19554809 0.36070862 0.25376582 0.27560613 -0.00016383453 -0.020599958
0.24814579 0.14719105 0.14319937 0.34550563 0.2118757 -0.16057701 -5.6574883 0.2633982
0.21609986 -0.15000518 -0.01462905 0.03125451 -0.019202165 -0.033717547 0.1803518 -0.112823054
