heat_eq_2d/outputs/silu_interior_4000_arch_128x2/heat_network.0.pth (torch, 72852 bytes, 7 tensors)

_impl.layers.0.linear.weight f4 [128, 2]
000000 14 69 0a bf f1 be 03 3c 38 65 4c bf f8 30 aa 3b
       -0.54066586 0.008041129 -0.7984195 0.005193826
000010 e6 d2 81 bf 11 03 87 3b 6c 62 44 bd 22 22 51 3e
       -1.0142486 0.0041202386 -0.047945425 0.20423177
000020 7a ad a7 bd 66 79 64 3e d1 4a b4 3f 94 17 3f 3b
       -0.08187385 0.22311935 1.4085332 0.002915834
000030 2d b3 ee bc 18 d4 ac 3e d6 5b 58 c0 79 e7 02 3b
       -0.029138172 0.33755565 -3.3806052 0.0019974394
000040 10 12 7c bf 1a ff ab 3b ce 75 94 bc a5 82 a8 be
       -0.9846506 0.0052489163 -0.01812258 -0.32912174
000050 7f 92 4f bf 65 4e 88 3b d0 87 87 bd cb a0 30 be
       -0.8108291 0.004159736 -0.06617701 -0.17248838
000060 20 92 2b bf c9 5b 92 3b 22 77 97 bd cd 6b 89 3e
       -0.67019844 0.004466508 -0.0739577 0.26840058
000070 64 fc 43 bf e1 6b 94 3b a0 c8 a5 bd fe 8d 23 be
       -0.7655699 0.0045294617 -0.08094907 -0.15972134
000080 c4 af 47 bf 56 bb bf 3b f8 1d 27 bf d2 87 b7 3b
       -0.7800257 0.0058511896 -0.65280104 0.005600908
000090 4d 18 2e bf cf 1a a9 3b 68 48 19 bd e4 68 b6 3e
       -0.6800583 0.0051606665 -0.037422568 0.356269
0000a0 7a a8 af bc 8d 32 ce be 9a b7 05 bf 93 79 b6 3b
       -0.02144264 -0.40272942 -0.5223328 0.005568692
0000b0 2e db 07 bf 8c a0 a7 3b b3 45 62 bf 86 fe bb 3b
       -0.53068817 0.005115574 -0.883876 0.0057371287
0000c0 ec a8 55 bf 29 4d 90 3b 69 96 a1 bd 68 77 56 be
       -0.8346088 0.0044037295 -0.078900166 -0.20943987
0000d0 1f 49 04 bf 2a a7 23 3c b0 0e a6 3f f9 6b 49 3b
       -0.51674074 0.0099885855 1.2973232 0.0030734523
0000e0 4c ed f8 be 5f 2d ae 3b 14 9b e5 bc 88 95 a5 3e
       -0.48618543 0.0053154672 -0.028028049 0.32340646
0000f0 ea ef 82 3f d6 8a 89 3b 68 da c5 3f e7 74 3d 3b
       1.0229466 0.0041974587 1.5457277 0.002890879
000100 36 a9 f2 bf d3 15 d7 3a ee 3c ae bd c5 de 6a be
       -1.8957889 0.0016409702 -0.08507715 -0.22936542
000110 c1 33 2f bd ef 1d 6f be 52 a6 a7 bd 3f df 47 3e
       -0.042773966 -0.23351263 -0.0818602 0.19518755
000120 e4 41 48 bf 05 68 f0 3b f3 03 37 bc 5f 8e c2 3e
       -0.7822554 0.007336619 -0.011170375 0.37999246
000130 70 8f e1 3f 72 d5 1b 3b 09 4f 27 bf 9e b8 6e 3b
       1.7621899 0.0023778346 -0.65354973 0.0036425958
000140 0b 83 c7 bf 1e 86 ac 3a 5e 11 0b c0 6d 3f ff 3a
       -1.5586866 0.0013162529 -2.172935 0.0019473858
000150 2d d3 51 40 2f 89 02 3b ee dc 95 bd 66 69 52 3e
       3.2785141 0.0019918194 -0.073175296 0.20548019
000160 8f 77 7f ba 5c a4 11 bf 68 48 2e bf 82 d9 ba 3b
       -0.00097452936 -0.5689142 -0.68079233 0.0057021985
000170 d7 6c ba bc 27 31 78 be 76 65 d3 bc 58 aa 89 be
       -0.022756977 -0.242375 -0.025805216 -0.26887774
000180 94 e3 92 bd 51 34 35 3e 4c 91 43 bf 2b ae 69 3b
       -0.07172313 0.17695738 -0.7639358 0.003565679
000190 d2 ac 93 bf 2b b9 75 3b 40 c1 56 bf 11 07 b8 3b
       -1.1537116 0.0037494402 -0.83888626 0.0056160768
0001a0 a6 3f 16 bf fb 52 bb 3b 7a 64 32 bf 12 60 c0 3b
       -0.5869087 0.005716679 -0.69684565 0.0058708275
0001b0 da 27 0b 40 82 ff 7f 39 7a 86 d8 be d6 ec ac 3b
       2.1743073 0.00024413879 -0.42290097 0.0052772565
0001c0 29 62 af bd ad 58 52 be 3e 87 df bc 2a e8 93 3e
       -0.085636444 -0.2054164 -0.027286168 0.28888065
0001d0 fb 68 26 bd 9a 7b 55 3e 08 20 32 40 76 b5 00 3b
       -0.04062746 0.20847932 2.783205 0.001963941
0001e0 67 c1 11 bd 6b f8 61 be b9 d9 47 bd 53 15 a1 3e
       -0.035584833 -0.2206742 -0.04879162 0.31461582
0001f0 3d 73 3a bd 57 38 8a be 6c 08 a2 bd 6c d8 47 be
       -0.045520056 -0.2699611 -0.079117626 -0.19516152
000200 21 f9 28 bd 2c e3 88 be 19 d9 5f bc ae 90 a9 be
       -0.041253213 -0.26735818 -0.0136626 -0.33118194
000210 20 91 b2 bd 61 8e 5d be 5b e0 47 bf 53 96 5e 3b
       -0.08719087 -0.21636344 -0.78076714 0.0033964112
000220 78 28 22 3f 46 fd b7 3b 71 d5 6d bd 7a b6 3d be
       0.63343 0.0056149093 -0.05806488 -0.1852664
000230 6a 65 01 bf c0 49 9e 3b ed a8 18 bf cb dd a6 3b
       -0.5054537 0.004830569 -0.5963276 0.0050923578
000240 73 7d 24 bf a9 76 a6 3b 29 e7 c4 bc 98 ab 94 be
       -0.6425392 0.0050800634 -0.024036007 -0.29037166
000250 43 3f a9 bf 7d 2e 51 3b e8 df 0d 40 a8 82 10 3b
       -1.3222431 0.0031918578 2.2167912 0.0022050533
000260 c7 6a e9 bd 83 b3 8f 3e 3b 56 cc be b5 70 07 bc
       -0.11397319 0.28066644 -0.3990954 -0.008266618
000270 b3 b0 5b bd 27 86 a0 3e 9c 66 a6 bd 60 61 4e 3e
       -0.05363531 0.3135235 -0.0812504 0.20154333
000280 66 a7 08 bf 27 90 c3 3b f4 8c 2b bf c4 4f 9c 3b
       -0.5338043 0.005968112 -0.6701195 0.004770251
000290 08 92 07 bf 7e b1 a0 3b 39 97 8b bd c6 dd 3c be
       -0.529572 0.004903971 -0.06815953 -0.18443975
0002a0 0d d9 36 bf e9 6d 76 3b a9 f8 7d bf ed 71 8a 3b
       -0.71424943 0.0037602133 -0.9920755 0.004225007
0002b0 20 1c 54 bf fb 9f b3 3b b5 72 8b 3f 4b bf 3d ba
       -0.82855415 0.0054817176 1.0894381 -0.00072382827
0002c0 f9 71 bd bd cc 18 5f 3e 3c 08 10 bf 79 4e a8 3b
       -0.09250254 0.21786803 -0.56262565 0.005136308
0002d0 8a d8 a2 bd e2 cd 3a be 82 47 9e bd 9a 45 af be
       -0.07951458 -0.182426 -0.07728483 -0.3423279
0002e0 0d b7 97 bf 5f 71 4e 3b 18 f1 48 bf 27 27 8c 3b
       -1.1852738 0.003150068 -0.7849288 0.0042771283
0002f0 0f ac fa be 6a d1 06 3c 09 93 31 40 20 6a 14 3b
       -0.48959395 0.008228639 2.7745993 0.0022646263
000300 68 cd a3 bd ef 80 3b 3e b7 1c 65 bd 8e 77 9a 3e
       -0.079981625 0.18310903 -0.055935588 0.30169338
000310 bb 75 2a bf a7 9f 79 3b e1 fe 10 bd f8 3e 93 3e
       -0.6658589 0.0038089545 -0.03539932 0.2875898
000320 1f 89 f0 be 10 22 bd 3b 64 b8 6a bf 62 49 86 3b
       -0.46979615 0.005771883 -0.9168761 0.0040981034
000330 1b d4 f5 bc 93 6f a9 3e b6 65 e7 bc 9a 1c a8 be
       -0.030008366 0.33092937 -0.028246742 -0.3283432
000340 f9 87 15 bd 13 5f a5 3e b0 59 ba bc 87 a7 af be
       -0.036506627 0.32299098 -0.022747844 -0.343075
000350 75 d1 03 bd 24 e7 9a 3e 81 b1 e3 bc eb 59 8b be
       -0.032182176 0.3025447 -0.027794601 -0.2721704
000360 61 3a 0e bf 64 03 a4 3b 4b ee 3c bd 8d 8c 5b 3e
       -0.5555783 0.005005287 -0.04612569 0.21440335
000370 bb 4b 9c bd a8 62 83 be b9 0a 76 bd 17 44 34 be
       -0.07631632 -0.25661206 -0.06006882 -0.17604099
000380 27 2a 6c bd 49 50 ab 3e 08 dc 44 bf 3c 44 72 3b
       -0.057657387 0.3345969 -0.7689824 0.003696694
000390 1c c2 0e bf 2d 90 d6 3b 3c 91 9d bd f5 d4 43 be
       -0.5576494 0.006547949 -0.07693717 -0.19124205
0003a0 73 44 de 3f 70 f7 10 3b 9a 69 2b bf a7 c9 b6 3b
       1.7364639 0.002212014 -0.6695801 0.005578238
0003b0 be b7 ce bf 01 96 26 3b d5 9c 39 bf 0a af ae 3b
       -1.6149824 0.0025419 -0.7250493 0.005330925
0003c0 a8 63 0d bd 59 c2 64 be 47 a1 da bc 7a dd 79 be
       -0.034518868 -0.22339763 -0.026688231 -0.24400893
0003d0 d7 b7 07 bf 1b 03 43 bd cb 72 7f c0 a9 ec 12 3b
       -0.5301489 -0.047610383 -3.9913814 0.0022418892
0003e0 9f 73 0e bf a6 69 90 3b c8 17 45 bf f6 5c a5 3b
       -0.55645174 0.0044071255 -0.7698941 0.005046482
0003f0 12 ff 14 bd 1f 44 99 3e 33 e4 86 bf 4b 6d 72 3b
       -0.036376067 0.29934785 -1.0538391 0.0036991413

_impl.layers.0.linear.weight_g f4 [128, 1]
000000 4a ef ca 3f db 3d d2 3f c8 0d d3 3f 75 59 2a 40
       1.5854275 1.6425127 1.6488581 2.66171
000010 bb 2b 57 40 80 41 34 40 34 e1 1e 40 d7 4e c5 3f
       3.362044 2.8164978 2.4824953 1.5414685
000020 fe 7c c4 3f 31 e5 0c 40 a0 b3 c6 3f ea 82 37 40
       1.5350645 2.2014887 1.5523567 2.8673654
000030 5c 5e ce 3f cb 2d 41 40 fb cb c6 3f 40 28 53 40
       1.6122546 3.01842 1.5531 3.2993317
000040 3f e8 c7 3f f2 9a cb 3f 71 27 c8 3f f1 ae b1 3f
       1.5617751 1.590666 1.5637037 1.3881513
000050 c4 82 16 40 4a db bf 3f b8 7f c8 3f 1e b3 c5 3f
       2.3517313 1.4988797 1.5663977 1.5445287
000060 77 d4 c4 3f 86 71 3a 40 37 af c4 3f aa ae 2e 40
       1.5377339 2.913179 1.5365971 2.7294106
000070 16 d2 c0 3f 79 86 14 40 5b bf 2e 40 58 cc 2c 40
       1.5064113 2.3207076 2.7304294 2.6999722
000080 e6 97 c6 3f c5 52 52 40 1c 52 24 40 df c0 4a 40
       1.5515106 3.2863019 2.5675116 3.168022
000090 8c df cc 3f d2 07 b4 3f 21 55 2b 40 11 bc ea 3f
       1.6005721 1.4064887 2.6770709 1.8338643
0000a0 6a d6 c0 3f 25 00 c6 3f f2 8b 28 40 df 83 3d 40
       1.5065434 1.5468794 2.6335416 2.9611738
0000b0 45 c4 15 40 9f 39 c4 3f 48 00 0b 40 0b 9a 08 40
       2.3401043 1.5330085 2.1718922 2.134402
0000c0 cc 84 3d 40 8b c8 e9 3f d6 c7 c3 3f 31 45 cf 3f
       2.9612303 1.8264326 1.529536 1.619299
0000d0 d0 23 d6 3f 19 59 c1 3f c8 cb 16 40 db 85 c1 3f
       1.6729679 1.5105315 2.3561878 1.5118974
0000e0 4a 91 43 40 42 cb 1a 40 17 ec 1e 40 52 ef 25 40
       3.0557427 2.4186559 2.4831598 2.592732
0000f0 14 ba 18 40 9f f2 37 40 72 b0 20 40 4e 72 50 40
       2.3863573 2.8741834 2.5107694 3.2569766
000100 a7 c4 23 40 fb eb 14 40 17 96 45 40 36 c2 d7 3f
       2.5588777 2.326903 3.0872858 1.6856143
000110 b6 cc 32 40 86 c9 29 40 f5 bd c4 3f 0e 16 d1 3f
       2.7937446 2.652925 1.537047 1.6334856
000120 da 6f c5 3f 16 6f 0e 40 12 cc ce 3f 0e b7 26 40
       1.5424759 2.2255301 1.6156027 2.6049228
000130 4f 31 5b 40 81 40 d2 3f 53 e0 35 40 35 d0 80 40
       3.4248846 1.6425935 2.8418167 4.025416
000140 f5 26 cd 3f 99 27 dc 3f 27 3d cc 3f 37 2a 78 40
       1.6027514 1.7199584 1.5956162 3.8775766
000150 db cb c9 3f 6a c9 c7 3f 6a 4c c5 3f b2 6e 13 40
       1.5765337 1.5608342 1.5413945 2.3036313
000160 a6 5a 59 40 c5 9e c9 3f d7 c2 48 40 ca fa b0 3f
       3.3961577 1.5751578 3.136892 1.3826535
000170 eb 8a c4 3f 29 9e c1 3f 04 62 c7 3f a9 83 2a 40
       1.5354894 1.5126392 1.5576787 2.664286
000180 12 db 4e 40 99 0d 38 40 4d 44 cd 3f da 9a 30 40
       3.232121 2.87583 1.6036469 2.7594514
000190 79 19 c7 3f d4 34 d3 3f b7 91 1d 40 57 ae 1e 40
       1.5554649 1.6500497 2.4620187 2.4793909
0001a0 8a 41 15 40 61 ce 15 40 c1 90 15 40 6f a6 1f 40
       2.3321252 2.3407214 2.33696 2.4945333
0001b0 2a bf d0 3f a8 f8 22 40 d7 a5 46 40 ac 14 33 40
       1.6308339 2.5464268 3.103872 2.7981367
0001c0 ef 2f 34 40 bb 1d c3 3f b6 31 c8 3f ee 5b 66 40
       2.8154256 1.5243448 1.564017 3.599361
0001d0 bc 87 22 40 21 41 d4 3f d2 af cd 3f 10 81 c7 3f
       2.5395346 1.6582376 1.6069281 1.5586262
0001e0 16 0e 17 40 93 a4 10 40 d9 45 b9 3f 8b 1d cb 3f
       2.3602347 2.2600448 1.4474441 1.5868391
0001f0 c1 2f cb 3f f1 4b c0 3f d2 82 18 40 f9 bc ca 3f
       1.5873948 1.5023175 2.3829846 1.583892

_impl.layers.0.linear.bias f4 [128]
000000 0d 1b da be 0d c0 06 bf 9d c8 08 bf aa 96 79 bf
       -0.42598763 -0.52636796 -0.5343111 -0.9749552
000010 de c5 a6 bf 18 19 7b 3f 3a 13 33 bf 7a 4b b5 be
       -1.3029134 0.98085165 -0.6995121 -0.35409147
000020 1a 88 c0 be 02 d1 18 bf 60 02 d4 be 0a 43 aa bf
       -0.37603837 -0.5969392 -0.41408062 -1.3301709
000030 cb b9 ec be 30 8a 8a bf 42 dc c6 be 2f d7 d4 bf
       -0.462355 -1.0823421 -0.38839918 -1.6628169
000040 8f c3 da be 86 dc e7 be ce 17 c5 be 0d 83 9d 3f
       -0.42727324 -0.45285434 -0.38494724 1.2305619
000050 78 cd 0b bf 01 21 be be 65 20 df be fc e2 d1 be
       -0.54610395 -0.37134555 -0.43579403 -0.40993488
000060 ef f3 c3 be de c9 aa bf b5 c9 c1 be 00 ed 76 3f
       -0.38272044 -1.3342855 -0.37849203 0.96455383
000070 c1 ef dc be 1e a1 31 bf 21 2f 5f 3f ce f1 6d 3f
       -0.43151668 -0.6938647 0.8718129 0.9294709
000080 be 4d c4 be aa b3 ab bf 2e 29 68 bf 45 a6 b1 bf
       -0.38340563 -1.3414204 -0.90687835 -1.3878866
000090 d0 44 df be 95 cd 6c 3f d9 b9 65 3f a0 da 26 bf
       -0.43607187 0.92501193 0.89736706 -0.65177345
0000a0 09 3c ac be 10 05 c3 be 13 9b 65 3f 4c c7 9d bf
       -0.33639553 -0.380898 0.8968975 -1.2326446
0000b0 dc 1a bd be 66 13 c0 be 2c 97 32 bf ed cd 31 bf
       -0.36934555 -0.375148 -0.6976192 -0.6945484
0000c0 2d b1 a9 bf 68 cf 30 bf b6 fb aa be df 8b f2 be
       -1.3257195 -0.69066477 -0.33395165 -0.47372338
0000d0 21 aa 04 bf cb bb ca be 2f 06 89 3f 84 70 c0 be
       -0.51822096 -0.395964 1.0705012 -0.37585843
0000e0 1f 99 b7 bf b5 ad 35 bf 25 2b 63 bf 9d 8f 77 3f
       -1.4343604 -0.7096818 -0.8873771 0.9670351
0000f0 41 9e 58 bf fa db 57 bf da 3d 5b bf d6 c1 b8 bf
       -0.84616476 -0.8432003 -0.85641253 -1.4434154
000100 d9 47 56 bf 3f 75 0e bf 63 bf b4 bf 63 e4 12 bf
       -0.8370338 -0.55647653 -1.4120907 -0.5737974
000110 b8 76 4c 3f 6f b8 97 bf 0f d4 d2 be 48 73 f0 be
       0.7986865 -1.185316 -0.41177413 -0.46962953
000120 81 e5 c4 be 72 e3 26 bf 6a b5 f2 be 9a 31 65 3f
       -0.38456348 -0.65190804 -0.47404033 0.8952881
000130 33 c7 b1 bf 7e d9 23 be a0 27 5e bf a1 f0 ba bf
       -1.3888916 -0.16000935 -0.8677921 -1.4604684
000140 45 b7 e6 be e2 bd 1d bf f2 56 eb be 16 3f b1 bf
       -0.450617 -0.61617863 -0.45964772 -1.3847377
000150 a2 f4 df be 4f 98 cc be 0a 3a d0 be a7 05 90 3f
       -0.43741328 -0.39959952 -0.4066928 1.1251725
000160 01 e6 b6 bf f4 0a b0 be a9 59 bd bf 9b ed ac 3f
       -1.4288942 -0.34383357 -1.4792987 1.3510011
000170 1c 33 c2 be 6f 20 be be 39 a6 c5 be 0b 9b 31 3f
       -0.37929618 -0.3713412 -0.3860338 0.693772
000180 95 2f b6 bf 12 de 68 bf 11 fb de be 3f 7f 48 bf
       -1.4233271 -0.9096385 -0.43550923 -0.7831916
000190 06 91 d1 be b0 54 f0 be cb b7 35 bf 51 e1 26 bf
       -0.40930957 -0.4693961 -0.7098357 -0.65187556
0001a0 d8 23 3e bf 76 07 1b bf 7c 76 3b bf 5f 1b 37 bf
       -0.74273443 -0.6055826 -0.7322767 -0.7152614
0001b0 18 c8 00 bf 73 57 6c bf 96 29 98 bf d5 01 9e bf
       -0.5030532 -0.92320937 -1.1887691 -1.2344309
0001c0 94 a5 5e bf 3a b8 a8 be 9b b4 cf be df 0f b9 bf
       -0.869714 -0.32953054 -0.4056748 -1.4457968
0001d0 f1 e9 60 3f a5 97 11 bf 8b db e6 be 3e a8 d2 be
       0.87856966 -0.56872016 -0.45089373 -0.41143984
0001e0 37 2a 56 bf 8b ac 3a bf f1 c4 5c 3f d4 86 c3 be
       -0.83658165 -0.7291953 0.8623801 -0.38188803
0001f0 0c d0 f1 be 11 05 b8 be 48 59 42 bf 8b 57 e3 be
       -0.4722904 -0.35941365 -0.7591748 -0.44402727

_impl.layers.1.linear.weight f4 [128, 128]
000000 83 af aa bd ca a3 cb bd a5 2c cf bd f3 02 77 3d
       -0.083342575 -0.0994335 -0.10115937 0.060305547
000010 ac 4d d6 3d 0b 84 00 bf 9d 78 53 3d f6 4b 98 bd
       0.104640335 -0.5020148 0.051628698 -0.074363634
000020 1b fc 9d bd 11 0f 2e 3d 88 3a a5 bd 27 1e 85 3d
       -0.07714101 0.042494837 -0.080678046 0.06499892
000030 10 3a b8 bd 83 54 a6 3d db 92 a2 bd 78 32 a9 3d
       -0.089954495 0.08121588 -0.07938167 0.08261579
000040 d7 7a ac bd 19 13 b4 bd 4f 08 a4 bd af cd 65 bc
       -0.08421867 -0.08792705 -0.08009397 -0.01402609
000050 5a 76 45 3d 91 ff 8f bd c5 5f a6 bd 3c 80 a5 bd
       0.048208572 -0.07031167 -0.08123735 -0.080810994
000060 9b fc 9b bd 03 db 92 3d 22 c4 9c bd 3b 5a f7 be
       -0.0761654 0.071706794 -0.07654597 -0.48311028
000070 e8 3c 9b bd 1c 30 51 3d cb 8b e1 be fb 49 ed be
       -0.07579976 0.05107127 -0.44051966 -0.46345505
000080 c9 e0 a3 bd bc 8d cf 3d c1 e3 5f 3d 93 9c b1 3d
       -0.08001859 0.101344556 0.054660562 0.08672442
000090 4a f6 b4 bd c7 46 70 ba af 87 e4 be be 2d 08 be
       -0.088360384 -0.000916582 -0.44634768 -0.132987
0000a0 9a 2f 91 bd e8 68 a4 bd 25 8f e1 be ad 9e 98 3d
       -0.070891574 -0.08027822 -0.44054523 0.0745214
0000b0 e7 ee 2b 3d c0 bd 9e bd fd b0 2e 3d 2c c6 2f 3d
       0.041975882 -0.07751036 0.042649258 0.0429136
0000c0 93 b5 9e 3d 54 70 09 be 47 56 97 bd 8d 32 c1 bd
       0.07749476 -0.13421756 -0.07389503 -0.0943347
0000d0 12 3e d0 bd 15 15 9e bd 08 3a d6 be 5f ed 8c bd
       -0.10168089 -0.07718865 -0.4184115 -0.068812124
0000e0 f2 38 9c 3d d8 d1 57 3d 4b 54 65 3d 8e cb ed be
       0.07628049 0.052690357 0.05598859 -0.46444362
0000f0 85 0c 46 3d 64 ea 8b 3d fd 33 5c 3d b2 26 b9 3d
       0.048351783 0.06831816 0.053760517 0.09040584
000100 43 4d 65 3d 65 06 2e 3d 2d cf 9e 3d 64 7b dc bd
       0.055981886 0.042486567 0.077543594 -0.107657224
000110 1b f5 cc be 86 45 7b 3d 7e 74 9f bd 1c 0f bf bd
       -0.4003075 0.0613456 -0.07785891 -0.09329054
000120 26 03 9f bd 5a f5 31 3d 54 c4 bd bd ab 2d df be
       -0.077642724 0.043446876 -0.09265962 -0.4358953
000130 3b d8 e4 3d b1 9c 86 bd 4d 11 89 3d 98 c1 35 3e
       0.11174055 -0.06572855 0.06692753 0.17749631
000140 66 bd b3 bd b2 8f ea bd 46 9f b2 bd ce 86 2a 3e
       -0.08776359 -0.11453189 -0.08721785 0.16652986
000150 dc 37 ad bd 75 13 a6 bd e3 9e a6 bd 2f cc ce be
       -0.0845792 -0.0810918 -0.08135774 -0.40390155
000160 a5 6a cf 3d 1d 21 9d bd f1 cb 99 3d db e9 67 bc
       0.10127763 -0.076723315 0.07509602 -0.014154877
000170 9e 7b a1 bd 0b d7 98 bd a2 a8 9d bd e7 36 b2 be
       -0.07884906 -0.07462891 -0.0769818 -0.34807512
000180 e9 43 bf 3d 4f 31 91 3d 75 82 b3 bd 8f 46 7e 3d
       0.09339125 0.07089483 -0.08765117 0.06207901
000190 33 e5 a2 bd 67 84 c5 bd 2c 29 68 3d 1d ae 45 3d
       -0.079538725 -0.09644394 0.05667989 0.04826175
0001a0 7c 4c 46 3d 8a aa 3d 3d 29 d4 4e 3d 14 be 4d 3d
       0.048412785 0.046305217 0.0504953 0.0502301
0001b0 e9 10 c2 bd 6a 07 75 3d a3 37 ac 3d 16 01 80 3d
       -0.094758816 0.059821524 0.08409049 0.06250207
0001c0 3e 11 8f 3d 5b a6 90 bd d6 9d a3 bd 45 3f 04 3e
       0.069857106 -0.0706298 -0.07989089 0.1291476
0001d0 94 b8 d6 be 75 01 d3 bd 35 e9 b9 bd bc 59 a7 bd
       -0.41937697 -0.10303012 -0.09077684 -0.08171412
0001e0 4f d9 4c 3d bc db 37 3d bc 5a 1e bd 6f 12 af bd
       0.05001193 0.04488729 -0.03866075 -0.08548438
0001f0 12 32 b3 bd b3 3f 99 bd 1e 79 4b 3d e5 e1 b3 bd
       -0.087497845 -0.07482853 0.049676053 -0.0878332
000200 3f 52 8d bd 13 ca 81 bd f7 40 7f bd 9a 21 c6 bd
       -0.06900453 -0.06337371 -0.062317815 -0.09674378
000210 45 67 ee bd 3b 92 f1 bc 9a 7b c6 bd 6d 0d 74 bd
       -0.11640791 -0.029488673 -0.09691544 -0.059583116
000220 bf 0b 7e bd c5 fe 04 3e 1e 0d 82 bd 3c 17 6b 3e
       -0.06202292 0.12987812 -0.06350158 0.22958082
000230 3f a4 86 bd ce d6 e2 bd 28 bc 81 bd 93 69 98 3e
       -0.06574296 -0.11076127 -0.06334716 0.29768047
000240 75 83 84 bd 49 3a 87 bd 97 bf 83 bd 1b 71 1c be
       -0.06470386 -0.06602914 -0.06433027 -0.15277521
000250 4e c8 12 3e 89 b5 82 bd ac 9f 88 bd 14 9c 82 bd
       0.14334223 -0.06382281 -0.0667108 -0.06377426
000260 2c e7 7f bd 0c 7d 82 3e d9 0e 8d bd 95 47 dc bc
       -0.062476322 0.25486028 -0.068875976 -0.026889602
000270 4c a2 85 bd 34 2d c3 bd 37 cf 17 bd a6 ce ff bc
       -0.06525096 -0.09530106 -0.03706285 -0.031226467
000280 42 53 78 bd 7d e4 bb 3e c4 bd 35 3e 60 48 d7 bd
       -0.060626276 0.3669776 0.17748171 -0.10511851
000290 14 63 88 bd 49 a6 06 be 66 a1 0a bd 48 b0 7b bd
       -0.06659523 -0.1314937 -0.033845328 -0.06144741
0002a0 c8 3e 66 bd ac 32 79 bd ee ae 06 bd 7a b1 cf bd
       -0.056212217 -0.06083934 -0.03288167 -0.10141273
0002b0 8b b5 12 3e 1e 80 81 bd cf 37 09 3e c3 83 01 3e
       0.14327066 -0.063232645 0.13400196 0.1264792
0002c0 3a 6e d0 bd ae ae 63 bd 78 04 71 bd 77 b1 85 bd
       -0.10177274 -0.05558651 -0.058842152 -0.06527989
0002d0 02 9f 89 bd 46 a6 81 bd 93 9b 7f bc ac 1d 89 bd
       -0.067197815 -0.06330542 -0.015601057 -0.066951126
0002e0 3d 3a 8c 3e 53 d5 c0 bd 26 0a be bd 46 93 d4 bc
       0.27388182 -0.09415688 -0.092792794 -0.025949132
0002f0 0e ce 1f 3e 95 63 e0 bd a6 36 32 3e 84 2d ad 3e
       0.15605947 -0.10956494 0.17403659 0.33823788
000300 41 d5 30 3e ac aa 0a 3e 8f e0 8e 3e bc 59 79 bd
       0.1726885 0.13541669 0.279057 -0.060876593
000310 25 50 31 bd 02 0b 5a 3e 08 0b 87 bd cd 32 8a bd
       -0.043289322 0.21293262 -0.06593901 -0.06747971
000320 a0 0b 83 bd 36 f1 0a 3e 3a 98 82 bd 82 2f 06 bd
       -0.06398702 0.13568577 -0.06376691 -0.03276015
000330 8b b0 e3 bd ef 70 01 bd cb bd d5 bd cd 09 dc bd
       -0.11117657 -0.031601842 -0.10436591 -0.10744057
000340 25 3d 8c bd 42 49 74 bd e4 a7 89 bd a7 a4 00 3f
       -0.068476 -0.059640177 -0.06721476 0.5025124
000350 4b 36 84 bd 9b 3d 81 bd 94 76 82 bd 77 f2 94 bc
       -0.06455668 -0.063105784 -0.06370273 -0.018182022
000360 5a 96 dd bd 92 e0 83 bd 36 d0 90 3e db b7 2f 3e
       -0.10819693 -0.06439318 0.28283852 0.17159979
000370 1a fc 7a bd ba 1e 7c bd 34 c6 8d bd 0b 6d 66 bd
       -0.06127558 -0.06155274 -0.0692257 -0.056256335
000380 a6 ed d9 bd 2c a4 e0 bd 73 0d 87 bd 5d 03 dc bd
       -0.10641031 -0.10968813 -0.06594362 -0.10742829
000390 d0 e5 8a bd da ae 86 bd fb 00 cd bd c4 c8 1a 3e
       -0.067821145 -0.06576319 -0.10009953 0.15115649
0003a0 ab 31 b9 bd 64 d2 10 3e f5 a3 bd bd c4 bf 1e 3e
       -0.090426765 0.14142758 -0.09259788 0.1550284
0003b0 01 cf 87 bd 27 f8 c3 bd c4 39 99 3e 95 68 66 3e
       -0.0663128 -0.09568816 0.29926884 0.22500832
0003c0 7f eb de bd 66 9a 74 bd 0f af 88 bd 9f e9 e4 3e
       -0.10884761 -0.05971756 -0.06674015 0.4470949
0003d0 8a 6d 04 bd 75 8c 7d bd 7c 0d 82 bd fa cd 83 bd
       -0.032331027 -0.06190153 -0.06350228 -0.06435771
0003e0 25 35 1a 3e 5d 67 10 3e 6f 21 f3 bc b4 06 7e bd
       0.15059336 0.1410193 -0.029679028 -0.06201811
0003f0 6e e7 86 bd 21 9d 79 bd b0 04 bf bd 0c 85 82 bd
       -0.065871105 -0.060940865 -0.09327066 -0.06373033

_impl.layers.1.linear.weight_g f4 [128, 1]
000000 0e 7a 7d 40 0f a9 f9 3f 18 df d2 3f ca b1 fa 3f
       3.9605746 1.9504718 1.6474333 1.9585507
000010 21 d8 c7 3f 60 d4 14 40 0c 43 f1 3f 40 6d 6f 40
       1.5612832 2.3254623 1.8848586 3.741043
000020 d7 4a fe 40 87 a4 f2 3f 83 bd 09 40 51 8e 2b 40
       7.9466357 1.895646 2.1521919 2.6805613
000030 10 b1 75 40 13 23 05 40 8a d8 df 3f 05 40 cd 3f
       3.838932 2.0802658 1.7487957 1.6035162
000040 aa df 43 40 2f de ec 3f a1 12 50 40 ca 3e d4 3f
       3.0605264 1.8505305 3.251137 1.6581662
000050 f7 fb b1 3f 34 b2 2a 40 1e bf d0 3f 66 23 6d 40
       1.3905019 2.6671267 1.6308324 3.7052855
000060 71 1c e2 3f 98 87 08 40 93 91 0a 40 b8 b2 ef 3f
       1.766493 2.133276 2.1651351 1.8726416
000070 15 b7 eb 3f d9 e2 ee 3f e8 e6 ec 3f 19 c6 24 40
       1.8415247 1.8662978 1.8507967 2.574591
000080 13 07 83 40 3c f9 ae 3f 8d 7d e2 3f f1 00 ea 3f
       4.0946136 1.366981 1.7694565 1.8281537
000090 f9 63 d0 3f b2 37 40 40 81 d8 cd 3f 09 95 53 40
       1.6280509 3.0033994 1.6081697 3.3059714
0000a0 f8 11 ad 3f 68 46 04 40 b0 cc 07 40 f8 24 dd 3f
       1.3521109 2.0667973 2.1218681 1.7276907
0000b0 00 de d0 3f d9 ea 12 40 e8 a4 b7 3f d9 db 82 40
       1.6317749 2.295584 1.43472 4.089337
0000c0 bf b0 e2 3f ca 5e dd 3f ac d1 0b 40 fe 27 d1 3f
       1.7710189 1.7294552 2.1846724 1.634033
0000d0 57 ff a3 3f 56 6c ae 3f 06 f5 de 3f 0c 9e 39 40
       1.2812299 1.3626812 1.7418525 2.9002714
0000e0 1e 47 d6 3f ca 49 71 40 86 84 95 3f 88 2f f2 3f
       1.6740453 3.7701287 1.1681068 1.8920755
0000f0 61 4b 24 40 17 98 19 40 0e da 1c 40 5e 8c e9 3f
       2.5671008 2.3999078 2.450809 1.8245962
000100 e4 e2 31 40 c5 6d 14 40 2c 16 c5 3f 13 d5 64 40
       2.7794733 2.3191998 1.5397391 3.575505
000110 6d e7 37 40 43 5a 12 40 e1 66 dc 3f 9d c5 ed 3f
       2.8735 2.2867591 1.7218896 1.8575932
000120 87 37 c2 3f 64 44 cb 40 6d 75 f3 3f 5e 71 d8 3f
       1.5173196 6.3520985 1.902021 1.6909597
000130 d5 57 e2 3f 7b 96 e6 3f b9 a4 9b 3f e7 6d 2a 40
       1.7683054 1.8014673 1.2159644 2.662958
000140 ce 9f 05 40 29 a6 6c 40 11 6e 15 40 ec 3b 56 40
       2.0878787 3.6976416 2.334843 3.3474073
000150 9c 9c d9 3f 1a e3 1f 40 3b f0 c7 3f da 3e cb 3f
       1.7000918 2.4982362 1.5620188 1.5878556
000160 27 e7 d8 3f ad e4 16 40 b5 01 b4 3f a2 41 79 40
       1.6945542 2.3577073 1.4063021 3.894631
000170 3e 6d 10 40 2b ac e1 3f 11 88 d9 3f 90 cc f1 3f
       2.2566676 1.7630666 1.6994649 1.8890553
000180 d4 cc d8 3f f7 c7 07 40 07 a0 de 3f c9 2a 0b 40
       1.6937509 2.12158 1.7392586 2.1744864
000190 2c 02 fa 3f 11 83 01 40 46 2e cf 40 18 42 37 40
       1.9531913 2.0236247 6.4743986 2.863409
0001a0 1c 21 d6 3f bf 3d 95 40 6f 3f be 3f 50 e5 0e 40
       1.6728854 4.6637874 1.4863108 2.2327461
0001b0 30 85 f6 3f e1 b3 9f 40 af 1b b7 3f 2f 38 82 40
       1.9259396 4.990708 1.4305323 4.0693583
0001c0 f6 f9 d4 3f 7b ac 16 40 3b 57 81 40 17 86 0a 40
       1.6638782 2.3542774 4.0418983 2.1644342
0001d0 a2 d7 2b 40 cf cd d3 3f 91 39 ca 3f 9a 0b 04 40
       2.6850362 1.6547183 1.5798818 2.063208
0001e0 f0 d6 03 40 b5 3f c5 3f 65 81 ae 3f de 02 fe 3f
       2.0599937 1.5410067 1.3633238 1.9844625
0001f0 87 47 d0 3f 53 ca 36 40 18 29 fe 3f fd 99 c2 3f
       1.6271828 2.856099 1.9856291 1.5203243

_impl.layers.1.linear.bias f4 [128]
000000 72 f2 c2 be 2f b3 c9 3d 47 28 bd be a9 42 cd be
       -0.38075596 0.0984863 -0.36944792 -0.4008992
000010 4a a9 b0 be 9d 24 e4 be 24 9b dc be ba d1 12 3f
       -0.34504157 -0.44559184 -0.43087113 0.5735127
000020 32 49 31 bf da 9d ac be 89 5b ca bc 2e 39 d1 bc
       -0.6925231 -0.3371418 -0.02470185 -0.02553996
000030 0c ad b4 be 23 47 b5 bd cf 90 db be 0b 3f fb bc
       -0.35288274 -0.08851459 -0.42883918 -0.03066971
000040 3e 6b 74 be 2f 58 1d bd 51 23 98 be 02 c0 c2 be
       -0.23869035 -0.038414177 -0.29714444 -0.38037115
000050 ba cb 13 3d ec 00 d9 3d 27 dd 7b be 67 96 a9 be
       0.03608296 0.10595879 -0.24596082 -0.3312256
000060 84 34 af be 20 62 aa bd dc a7 d1 bd 77 49 16 3e
       -0.34219754 -0.08319497 -0.10237095 0.14676462
000070 88 a3 c9 be d8 85 eb be e2 13 e1 be d2 9c 3f 3e
       -0.39382577 -0.46000552 -0.43960482 0.18712166
000080 5d 6e d0 be 06 2c 6b bd 0f f8 c5 be 9c f5 d3 be
       -0.407092 -0.05741503 -0.38665816 -0.41398323
000090 f0 e5 86 be e1 1a 60 be c0 e1 be be d0 0c 00 bf
       -0.26347303 -0.21885253 -0.3728161 -0.5001955
0000a0 4d 8e fa 3c c2 de b5 bd 07 6a c9 bd 8b 0c cd be
       0.030585432 -0.08880378 -0.09834676 -0.40048632
0000b0 47 cc cc be 09 c7 a7 3f b0 a1 bc bb 4b 29 df be
       -0.399996 1.3107616 -0.0057565793 -0.43586192
0000c0 84 5a a8 be 93 2d ee be e8 5a 1b bf 76 ce 79 3d
       -0.32881558 -0.46519145 -0.60685587 0.060987912
0000d0 58 9f 45 3e 66 92 fb bd d8 b3 b6 be 2f b8 4e be
       0.19299066 -0.12283783 -0.35684085 -0.20187448
0000e0 60 12 ff 3c 32 e4 bb be 36 11 b3 bd c6 2d d8 be
       0.031136692 -0.36697537 -0.08743517 -0.42222422
0000f0 7b a9 a2 3e 71 84 2d 3e 32 7c ba bb cf 43 a2 be
       0.31769928 0.16945054 -0.0056910748 -0.3169236
000100 f3 e6 ad 3f 0d 17 19 3e c0 78 4f be 66 29 01 3f
       1.3586105 0.149502 -0.20260906 0.50453794
000110 4d df e4 bd db 21 ca bd b0 f1 a9 be ad 23 ba be
       -0.11175404 -0.09869739 -0.33192205 -0.36355343
000120 d8 62 a2 bd ab e2 0b bf ba 98 b8 3d 9e 5d ba be
       -0.07929009 -0.5464274 0.09013505 -0.3639955
000130 39 20 8f be 40 45 c9 be 37 00 9f bd c2 19 bd 3d
       -0.2795427 -0.39310646 -0.07763713 0.092334285
000140 e3 14 e2 bd 8e 42 f0 bf 72 c9 ba bd 4f e9 95 be
       -0.1103914 -1.8770311 -0.09120454 -0.29279563
000150 d1 8a a6 be e3 3b 05 3e 3c 39 b6 be d4 db b4 be
       -0.32527784 0.13011126 -0.3559054 -0.35323966
000160 41 ba 95 be ba 10 10 3c c6 96 47 be 3d 62 cd be
       -0.29243663 0.00879305 -0.19491109 -0.40114012
000170 bd 78 c5 bc 8c a9 d8 3c c4 b8 54 3d 83 c9 ca be
       -0.024105424 0.026448034 0.05193402 -0.39606866
000180 92 16 c9 be f5 6b 7a bf 56 f4 b1 3d 19 83 61 bd
       -0.39275032 -0.9782098 0.086891815 -0.055056665
000190 dd 6f 9e bd 54 c4 d5 bd 1e 37 1b bf 3b e9 73 bf
       -0.0773618 -0.10437837 -0.6063098 -0.95277756
0001a0 ee 2a 17 3d 6f 84 dc be 25 d7 16 bc 9e 3c 94 bd
       0.036906175 -0.4306979 -0.009206568 -0.07238124
0001b0 17 c4 67 be f6 81 ff be e7 0a f3 3d b0 5c 77 bf
       -0.22633396 -0.4990384 0.11867314 -0.96625805
0001c0 b7 27 d3 be cc 50 cb 3d 11 27 d0 be 6f a2 bc bd
       -0.41241238 0.0992752 -0.40654805 -0.09210669
0001d0 1e 12 47 bf c2 8f b1 be 7a bc 6d be ce 49 d3 bd
       -0.7776202 -0.3467999 -0.2321643 -0.103168115
0001e0 a9 7b 12 be fe 39 44 bc 35 a5 7a bd 0c de 97 bb
       -0.14304985 -0.011976717 -0.06119271 -0.0046346243
0001f0 d7 53 84 3d 5e 53 1f be f8 fb 9d bc ef dd aa bd
       0.06461304 -0.15559146 -0.019285187 -0.08343112

_impl.final_layer.linear.weight f4 [1, 128]
000000 54 fa ff bf ea a9 a1 3f ba 11 8b 3e d4 65 82 3f
       -1.9998269 1.2629979 0.27161962 1.0187325
000010 9e a2 fd 3e f3 82 9d 3f 53 53 68 3e d0 90 0b 3f
       0.4953813 1.2305588 0.22688036 0.5451784
000020 23 3f 55 c0 c8 47 b3 3e 87 26 b3 bf 93 38 8b 3f
       -3.3319786 0.35015702 -1.3996133 1.087664
000030 d8 e8 00 c0 5a c1 bc bf dd 3f e9 3e d2 33 bb bf
       -2.0142117 -1.4746506 0.45556536 -1.4625189
000040 53 43 d7 bf 0c fc b2 bf fc af e3 bf 02 dd a0 3e
       -1.6817421 -1.3983169 -1.7788081 0.31418616
000050 1d 1e c1 bf 9c f2 ae bf 2b 68 81 3f 51 3f f9 bf
       -1.5087315 -1.3667789 1.0109915 -1.9472448
000060 41 36 91 3f db 3a dd 3e c5 df b3 bf eb 36 b6 bf
       1.1344682 0.43208966 -1.4052664 -1.423551
000070 e0 dd 96 3e 19 c2 8c 3f 79 30 ac 3e df 37 a5 bf
       0.29466152 1.0996734 0.33630732 -1.2907676
000080 68 2c 02 c0 68 97 06 3f 23 64 90 3e 30 a0 ac 3e
       -2.0339603 0.5257478 0.28201398 0.33715963
000090 99 5d 71 3f 2a 7d ca bf a4 69 05 3f 57 a3 b3 3f
       0.94283444 -1.5819447 0.5211432 1.4034222
0000a0 d5 04 b7 bf 4b 23 c3 bf 38 54 b9 bf 6a af af 3e
       -1.429835 -1.5245146 -1.4478827 0.34313518
0000b0 f8 33 75 3e 84 0f ec 3e a7 e2 c3 bf e7 f7 00 c0
       0.23945606 0.46105587 -1.5303544 -2.0151308
0000c0 3f 91 95 3e 8f 6f c3 3e 7f a4 10 bf 7d b9 bc bf
       0.29212376 0.3817105 -0.56501 -1.4744107
0000d0 3a 42 82 bf 47 0e ff 3e 0f cf 7d 3f 65 fb cb bf
       -1.0176461 0.4981558 0.9914407 -1.5936095
0000e0 e8 20 c6 bf 19 59 fc bf ce b2 d2 bf 6f 6c 74 3e
       -1.5478792 -1.971469 -1.6460817 0.23869489
0000f0 38 d5 a6 bf 25 e0 95 bf e0 ab b7 bf af 66 89 3e
       -1.3033819 -1.1709028 -1.4349327 0.26836154
000100 00 48 29 3f 63 61 95 bf 50 b7 78 3f 4a 68 42 3f
       0.6612549 -1.1670345 0.9715471 0.7594038
000110 f1 d0 cc bf d7 b6 c6 bf 20 63 90 3f 35 c7 82 3f
       -1.6001264 -1.5524548 1.128025 1.0217043
000120 42 e6 53 3f 89 db 33 c0 82 8b 85 3f ec 0d a1 3e
       0.8277322 -2.8102744 1.04332 0.31455934
000130 cd 00 a0 3e c7 8b 3d 3e 8f e1 d6 bf af d5 e4 3e
       0.3125061 0.18510352 -1.6787585 0.44694278
000140 a3 bc cb 3e 50 45 9f bf ab 9f c2 bf c5 b4 eb bf
       0.39792356 -1.2443027 -1.5204977 -1.8414541
000150 f6 b1 83 3f fb 78 ac bf 77 86 8a 3e f0 5c ec 3e
       1.0288684 -1.347442 0.27055714 0.46164656
000160 de 37 02 3f c3 cf 0d 3f 97 a3 bc 3e 82 d4 f7 bf
       0.50866497 0.55395144 0.3684356 -1.9361727
000170 34 29 0d 3f 07 d2 a2 bf 48 aa b7 bf 11 99 91 3f
       0.55140996 -1.2720345 -1.4348841 1.1374837
000180 12 ac 18 3f 2d 78 07 bf 78 aa 0e 3f ad 92 90 3e
       0.5963756 -0.5291775 0.55728865 0.28236905
000190 2b d3 ba bf 16 e8 ad bf 55 ac 38 c0 d0 66 4b bf
       -1.4595693 -1.3586452 -2.8855183 -0.79453754
0001a0 9f d0 32 bf 8f f2 0d c0 ca 1c ce bf 07 f2 97 bf
       -0.6984958 -2.2179296 -1.6102536 -1.1870736
0001b0 36 0e 8e 3e 65 d9 15 c0 d5 3e 8f bf b6 91 08 40
       0.27745217 -2.3413937 -1.119105 2.1338935
0001c0 c2 7b a7 3e 19 ca a5 bf 5b 2f 02 c0 35 0d b0 bf
       0.32711607 -1.29523 -2.0341403 -1.375403
0001d0 52 b0 d1 3f 0e 7e 10 3f d0 1e 6e 3f 28 14 95 3e
       1.6381934 0.56442344 0.93015766 0.2911694
0001e0 24 05 a0 bf ac 15 a5 bf 48 0e 09 3f 63 12 a4 bf
       -1.2501569 -1.2897239 0.53537416 -1.2818111
0001f0 dd 2f c0 bf 3a 48 cc bf 9d 7c 94 bf 17 73 7f 3f
       -1.5014607 -1.5959542 -1.1600529 0.9978499
