3d_solid_solid/outputs/fourier_net_128/heat_net.0.pth (torch, 374498 bytes, 20 tensors)

fourier_layer_xyzt.frequencies f4 [3, 30]
000000 00 00 00 00 00 00 00 00 00 00 00 00 00 00 80 3f
       0.0 0.0 0.0 1.0
000010 00 00 00 00 00 00 00 00 00 00 00 40 00 00 00 00
       0.0 0.0 2.0 0.0
000020 00 00 00 00 00 00 40 40 00 00 00 00 00 00 00 00
       0.0 3.0 0.0 0.0
000030 00 00 80 40 00 00 00 00 00 00 00 00 00 00 a0 40
       4.0 0.0 0.0 5.0
000040 00 00 00 00 00 00 00 00 00 00 c0 40 00 00 00 00
       0.0 0.0 6.0 0.0
000050 00 00 00 00 00 00 e0 40 00 00 00 00 00 00 00 00
       0.0 7.0 0.0 0.0
000060 00 00 00 41 00 00 00 00 00 00 00 00 00 00 10 41
       8.0 0.0 0.0 9.0
000070 00 00 00 00 00 00 00 00 00 00 00 00 00 00 00 00
       0.0 0.0 0.0 0.0
000080 00 00 00 00 00 00 00 00 00 00 80 3f 00 00 00 00
       0.0 0.0 1.0 0.0
000090 00 00 00 00 00 00 00 40 00 00 00 00 00 00 00 00
       0.0 2.0 0.0 0.0
0000a0 00 00 40 40 00 00 00 00 00 00 00 00 00 00 80 40
       3.0 0.0 0.0 4.0
0000b0 00 00 00 00 00 00 00 00 00 00 a0 40 00 00 00 00
       0.0 0.0 5.0 0.0
0000c0 00 00 00 00 00 00 c0 40 00 00 00 00 00 00 00 00
       0.0 6.0 0.0 0.0
0000d0 00 00 e0 40 00 00 00 00 00 00 00 00 00 00 00 41
       7.0 0.0 0.0 8.0
0000e0 00 00 00 00 00 00 00 00 00 00 10 41 00 00 00 00
       0.0 0.0 9.0 0.0
0000f0 00 00 00 00 00 00 00 00 00 00 00 00 00 00 00 00
       0.0 0.0 0.0 0.0
000100 00 00 00 00 00 00 80 3f 00 00 00 00 00 00 00 00
       0.0 1.0 0.0 0.0
000110 00 00 00 40 00 00 00 00 00 00 00 00 00 00 40 40
       2.0 0.0 0.0 3.0
000120 00 00 00 00 00 00 00 00 00 00 80 40 00 00 00 00
       0.0 0.0 4.0 0.0
000130 00 00 00 00 00 00 a0 40 00 00 00 00 00 00 00 00
       0.0 5.0 0.0 0.0
000140 00 00 c0 40 00 00 00 00 00 00 00 00 00 00 e0 40
       6.0 0.0 0.0 7.0
000150 00 00 00 00 00 00 00 00 00 00 00 41 00 00 00 00
       0.0 0.0 8.0 0.0
000160 00 00 00 00 00 00 10 41
       0.0 9.0

fc.layers.0.linear.weight f4 [128, 63]
000000 85 ff 49 3e 34 a0 e2 3d 3d 15 f1 3d d6 c5 0c 00
       0.19726379 0.110657126 0.11771629 1.172996e-39
000010 51 13 1c 00 3d 7b 13 00 b2 88 23 be af 39 c6 3d
       2.578323e-39 1.789084e-39 -0.15970114 0.09678971
000020 2b 1a aa 3e 44 c5 bb 3d eb f2 0f be 8d 86 c9 bd
       0.3322309 0.09168485 -0.1405751 -0.09840117
000030 63 0c 42 bd b4 19 5b 3e 06 16 4d be 6f 12 89 3c
       -0.047375094 0.21396524 -0.20027933 0.016732423
000040 0b ee ca bd 59 9f f7 3d a2 fa b0 bd 95 d8 23 bd
       -0.09908684 0.1209094 -0.086415544 -0.04000147
000050 ee 86 99 bd 4b 0d 74 3d 05 d5 08 be 16 3b 5f bc
       -0.07496439 0.05958299 -0.1336251 -0.013624927
000060 63 1d 2f 3c da 97 12 3e a3 e8 ed 3d 76 48 5d 3d
       0.010688159 0.1431574 0.116166376 0.054024182
000070 71 78 a1 bb 16 d4 bc be cd d2 8e bd ef 74 3a be
       -0.004927688 -0.3688056 -0.06973801 -0.18208669
000080 17 79 6c 3f cd dc 92 be 6c 7f 15 be a0 13 41 be
       0.9237227 -0.28684083 -0.14599389 -0.18855143
000090 3f 94 41 3e d7 58 83 3e 81 38 7b 3c 7f 39 de 3d
       0.18904208 0.25653717 0.015333296 0.1085081
0000a0 eb 64 15 bd aa 0c 7a 3e 46 6e 9f bd d8 57 87 bc
       -0.036473196 0.24418893 -0.07784705 -0.01652138
0000b0 15 54 ae be c4 da 05 bd b0 38 d3 3d 57 70 cb bd
       -0.34048524 -0.032679334 0.10313547 -0.099335365
0000c0 21 d2 77 bb 54 45 5f 3d 2f a7 6b 3e 63 26 cb 3d
       -0.0037814456 0.054509476 0.23012994 0.09919431
0000d0 c9 26 b9 bd 04 22 1e be 3a 8d 86 bc b2 97 2d 3b
       -0.09040601 -0.15442663 -0.016424764 0.0026488123
0000e0 ca ba 22 3e 0a dc 0b bc 7c a7 7c bd 7f 80 04 bf
       0.15891567 -0.008536348 -0.061683163 -0.5175857
0000f0 e9 d4 78 bd 9d ac 3e 3e f6 05 d1 3e 0b 12 86 3e
       -0.060749922 0.18620534 0.4082486 0.2618564
000100 ac 35 01 3e f1 9c 38 be 50 ec a2 3f 1d 7a 9b bf
       0.1261813 -0.18028618 1.2728367 -1.2146641
000110 fc f4 a4 3f e7 bf 92 3e 0b da 9a 3d dd 93 2c be
       1.2887263 0.28662035 0.0756112 -0.1685328
000120 6c 4b f2 bd 9f cf 1f bc 0b 18 90 3d 35 fc 32 be
       -0.11830792 -0.009754091 0.07035836 -0.17479022
000130 18 ca df bd 73 e5 31 3e 2a 65 49 be f3 8a 83 bd
       -0.10927218 0.17372684 -0.19667497 -0.06422987
000140 5a 28 0d 3e ac 8e 39 3e d4 f7 04 bc 77 2b 1e 3e
       0.13784924 0.18120831 -0.008115727 0.15446268
000150 aa 2a b4 3e 17 17 08 be 79 ce e8 3d bc 2a ee 3e
       0.351888 -0.13290058 0.113675065 0.4651698
000160 a8 fc 14 bc be b1 c8 bb 3e d2 fd 3d 5d 45 d1 3d
       -0.009093441 -0.006124704 0.12393616 0.10218308
000170 05 a4 bc 3d 7c 18 99 3d ca a6 70 3c bf 3a 3c 3d
       0.09210972 0.07475373 0.014688203 0.045954462
000180 36 e0 47 be 82 b5 00 3e f5 59 d0 3d fa 60 78 3e
       -0.19519123 0.1256924 0.10173408 0.24255744
000190 43 de 37 bd 77 6f 39 3d 32 7e 53 3d 9c b0 5b be
       -0.0448897 0.045272317 0.05163402 -0.2145409
0001a0 00 1c b5 3d 4e 43 6b bd d5 a7 2c be b9 43 9a 3c
       0.08843231 -0.057437234 -0.16860898 0.01883112
0001b0 37 c6 f0 bd 8e 25 1c bc 02 4a 18 bd fe b0 71 bd
       -0.117565565 -0.009530438 -0.037179954 -0.059006684
0001c0 8e 64 f8 bd 1f 3d 8f 3d 03 98 5f bd 74 6a 38 be
       -0.12128554 0.0699408 -0.05458833 -0.18009359
0001d0 bb 82 40 3c 19 e9 c9 bc 22 cc 8d bd bd fb 22 3e
       0.011749919 -0.024647282 -0.06923701 0.15916343
0001e0 b5 32 34 bd df 48 01 be 94 49 19 3e 14 7a 0a be
       -0.04399367 -0.12625454 0.14969474 -0.13523132
0001f0 6f 8d 9c bd 55 73 de 3c 4f f2 86 bd a2 ca c7 3d
       -0.07644164 0.027154604 -0.065891854 0.09755446
000200 d2 d2 01 bd c9 00 00 80 a9 d5 5d 3e 0a 7e 83 be
       -0.031695195 -2.82e-43 0.21663536 -0.25682098
000210 39 b3 93 bd 73 97 89 3d cf 08 52 3e 9d 5c 8a 3d
       -0.072119184 0.0671834 0.20511173 0.06755946
000220 64 4e 46 be e4 54 03 bd 5f f5 0f bd 0e ef 61 be
       -0.19365841 -0.03206338 -0.035146113 -0.22063848
000230 0a 36 18 be e6 30 45 be 02 40 99 bd a9 1e 4c 3e
       -0.14864364 -0.19256935 -0.07482912 0.19933571
000240 f0 35 39 be 54 01 1f 3a 51 be 04 3e 7a a9 5d be
       -0.18086982 0.00060655666 0.12963225 -0.21646681
000250 3f 4a 3d 3e 4d 3a fc 3d 1e 47 12 bc 8b b1 08 be
       0.18485354 0.123158075 -0.0089280885 -0.13348977
000260 8e 0c 96 3d 57 d3 b5 bd 83 f2 6d 3e 57 59 0b be
       0.07326613 -0.088782005 0.23237042 -0.13608299
000270 70 14 a5 3c fc 21 ef be b2 92 38 be 90 cf 4f bd
       0.020151347 -0.46705616 -0.1802471 -0.050735056
000280 d3 e6 e9 3c c0 4d 1f 3d 44 65 f7 3d d6 b9 93 3d
       0.028552448 0.038892508 0.12079862 0.0721318
000290 f6 a9 70 3e 66 5c c0 bd 70 3d 24 be 6c bc e7 3c
       0.23502335 -0.093926236 -0.16039062 0.028288089
0002a0 c9 0a f4 bc 1d 45 af 3d 5d 9b 8d 3d ab cc e9 39
       -0.029790299 0.08558104 0.06914399 0.00044593713
0002b0 3e 1a d8 bb 5b 16 81 3d 95 e2 a1 3d f9 f6 7e 3e
       -0.006594925 0.06303092 0.07904545 0.248989
0002c0 57 19 5e bc 1b cd 11 3c f4 b2 24 be 91 77 3c 3c
       -0.013555846 0.008898999 -0.1608389 0.011503116
0002d0 de 65 c0 bd 99 d7 75 3d 47 0f b6 bd 85 c0 84 bb
       -0.093944296 0.060020063 -0.08889633 -0.0040512704
0002e0 73 94 cc 3d e9 7c 22 be a5 ea 9e bd 56 43 0d 3f
       0.09989252 -0.15867962 -0.07759599 0.5518087
0002f0 60 e9 29 3e e7 28 02 3e 9b 7b 80 3e a2 98 37 bd
       0.16592932 0.12710916 0.25094303 -0.044823296
000300 2b eb 84 3f 6d 45 86 3f 7b e0 92 3f 1b 2e 92 bb
       1.0384268 1.0489937 1.1474756 -0.0044610626
000310 b7 7f 16 3e e6 85 33 be b7 f5 27 be 2b c4 3d 3e
       0.14697157 -0.17531547 -0.16402327 0.18531863
000320 26 d5 8d 3e c0 70 b7 bd 5b c9 b7 bd 2b 73 cf bd
       0.27701682 -0.08957052 -0.089739524 -0.101293884
000330 b7 cc 66 be a6 d8 f9 3d 3b 55 f6 bd 8a 33 14 be
       -0.2253903 0.121995255 -0.12027975 -0.14472786
000340 6e 79 3e 3e 25 c7 a7 be 54 1e a2 be c5 c0 a3 bc
       0.18601009 -0.32769123 -0.31663764 -0.01998938
000350 c7 ad c1 bd 3c 28 9f be c1 c9 99 3d b0 75 a6 bd
       -0.094569735 -0.31085384 0.07509185 -0.08127916
000360 2d e0 f9 bd 56 ed 16 3e 4e f9 41 3e f6 32 eb 3d
       -0.12200961 0.14738974 0.18942758 0.114843294
000370 81 83 75 3d f0 3e ca 3d ef 2a 57 bd d6 4a 88 be
       0.059939865 0.098752856 -0.05253118 -0.26619595
000380 0f 85 a8 3d 37 eb 9c bc 9f 61 83 3e ce f3 2e 3e
       0.08228504 -0.019155128 0.25660416 0.17085192
000390 e7 b0 a1 be 19 b1 a5 bd 86 93 37 3e df e7 fc bc
       -0.31580278 -0.08090419 0.1792737 -0.030872284
0003a0 8d e5 2b bd fe 87 9f 3e e3 dd 8f be 41 d3 37 3e
       -0.041966964 0.3115844 -0.28098974 0.1795168
0003b0 b0 cc 10 3e 30 fd 6b 3d cb 2e e4 bd 81 ab b7 3c
       0.14140582 0.057614505 -0.111417376 0.022420647
0003c0 8d d6 11 3e 11 20 f3 bd ca dc f4 bd 44 e3 6e 3e
       0.14242001 -0.118713506 -0.11956175 0.23328882
0003d0 57 fe be 3c 93 38 78 bd ee 16 91 bd 8f 75 41 bb
       0.023314638 -0.06060083 -0.070844516 -0.0029519533
0003e0 dd 13 0f 3d cb 22 10 3d fb e1 cc bc 40 57 98 bd
       0.034931052 0.03518943 -0.0250101 -0.074385166
0003f0 2d d5 76 3e 9e ed 4e 3e f6 fc c1 be 29 7d 92 bf
       0.24104758 0.20207831 -0.37888306 -1.1444446

fc.layers.0.linear.weight_g f4 [128, 1]
000000 a1 e6 c9 3f d0 84 57 39 c6 5e 57 3f 34 d0 62 3b
       1.5773507 0.00020553474 0.8412899 0.0034608962
000010 9d aa cf 39 f0 85 dd 3e dc c0 a9 3f 11 2a 89 3d
       0.00039609233 0.4326625 1.3261981 0.06697477
000020 6a b3 13 ba 4d cc 9f 3e a0 1c 12 3f 4d 39 a6 3f
       -0.000563434 0.31210557 0.5707493 1.2986237
000030 ad 34 90 3f 0f 57 1e 37 02 1e 14 3d 05 d5 8d 3f
       1.1266075 9.437804e-06 0.03616143 1.1080633
000040 98 9e d8 b9 0f cb c0 3f 4b 5d 5e 3f ed b0 82 3f
       -0.00041316892 1.5061969 0.86861104 1.0210243
000050 46 d4 30 3f 2d f3 0c 40 21 94 c6 3f b4 a5 e0 3f
       0.69073904 2.2023423 1.5513955 1.7550569
000060 48 11 a9 3f 66 4a 8b 39 f7 61 95 3f a2 79 fc 3e
       1.3208399 0.00026567577 1.1670521 0.49311548
000070 d8 5e 37 40 b2 3d 58 40 86 f6 3a 41 44 d0 2b 3f
       2.8651638 3.3787656 11.685186 0.67114663
000080 b0 ff 86 3f 04 22 1d 40 bd 40 b2 3f 90 e0 ac 3f
       1.054678 2.4552011 1.3926007 1.3506031
000090 81 f2 81 3f be 3c 6a 3f ab 62 c2 3f 51 b1 b6 3f
       1.0152131 0.91498935 1.5186361 1.4272863
0000a0 fb 06 8b 3f 1f ae 2b 3a 50 6d bb 40 91 d0 2f 3f
       1.0861505 0.00065490784 5.857094 0.6867762
0000b0 04 15 3a 3f bf a1 6d 3f 10 64 8b 3f 32 32 ab b9
       0.7268832 0.9282493 1.0889912 -0.0003265306
0000c0 90 a0 41 39 71 61 26 40 08 ec b3 3e 2f a4 b6 3f
       0.00018465728 2.5996974 0.35141015 1.4268855
0000d0 ae 8a 17 3a a9 c5 53 40 33 d7 b3 3a 81 bf c9 3f
       0.0005780858 3.3089392 0.001372075 1.5761567
0000e0 a0 e0 e6 3d a3 ac 08 3d cd 86 30 3a 78 31 32 3f
       0.112733126 0.033367764 0.0006733954 0.69606733
0000f0 b3 9e 4e 3f 8a d9 84 3f 0f ae 82 3f 0f af e2 3f
       0.80710906 1.0378888 1.0209368 1.7709674
000100 e6 a4 ba 3e 53 55 b6 39 d3 dd 1e 38 b4 be bb 3f
       0.36453933 0.00034777317 3.7876725e-05 1.4667573
000110 e2 32 d2 3f 9e 39 1e 3e 7e 0c 2e 3f 92 01 b2 3c
       1.6421778 0.15451667 0.6798781 0.021729264
000120 2a 4e d2 3f e3 0b 8b 40 3a 6e b7 40 fe 28 47 3f
       1.6430104 4.345201 5.7322054 0.77796924
000130 0a ad 3a 3f f1 ad 00 3e c7 ac 48 3e 90 41 84 3f
       0.72920287 0.12566353 0.1959716 1.0332508
000140 65 b3 03 40 3b ac a6 3b e4 2e a8 3f 74 d7 c4 3f
       2.0578244 0.0050864494 1.313931 1.5378251
000150 7c 97 62 3f 68 f0 86 3f 1d 7d b2 40 1c 2e c6 3a
       0.88512397 1.0542116 5.5777726 0.0015119943
000160 9e e9 34 3a a3 5e fa 36 3b 79 ce 3f 3d a3 32 40
       0.0006901267 7.4615978e-06 1.6130747 2.7912133
000170 08 c4 5f 3f bd fc c3 3f 19 12 30 3f 4f c6 42 b9
       0.87408495 1.5311505 0.68777615 -0.00018575157
000180 32 35 8d 3a 77 a2 85 3f 1a b6 2e 40 82 9f 28 3f
       0.00107733 1.0440205 2.7298646 0.6586839
000190 e1 af a1 3f d4 fc a2 39 18 87 a4 3f 10 61 7b 3f
       1.2631799 0.0003108742 1.2853727 0.9819498
0001a0 3f 0c db 3f db 0c 96 39 12 34 ec 37 47 f1 49 3f
       1.7113112 0.00028619808 2.815764e-05 0.78883785
0001b0 92 3c 8a 3f e5 5d b1 3f dc 4e d5 3f 1f 78 39 40
       1.0799735 1.3856779 1.6664691 2.8979566
0001c0 9c 40 82 3f 86 08 ef 3f b0 75 50 3f b4 e4 e0 3f
       1.0175967 1.8674476 0.81429577 1.7569795
0001d0 43 ff f3 3f c1 26 d6 40 92 ee a6 39 de 7a e4 3f
       1.9062275 6.6922307 0.00031839736 1.7849996
0001e0 15 d1 85 40 c6 a4 11 3f dd 50 2f 3f c9 6d a5 3f
       4.1817727 0.5689205 0.6848276 1.2924129
0001f0 fe ca 53 3f 06 8b 81 3f 59 c8 6d 3f 79 18 ca 3f
       0.82731616 1.0120552 0.9288383 1.5788718

fc.layers.0.linear.bias f4 [128]
000000 95 b3 5f be 8f 2d d5 38 52 09 e5 bd 9d 63 47 38
       -0.21845849 0.000101651174 -0.11183418 4.753807e-05
000010 38 18 ff b8 d7 6f a4 3d 28 e9 30 bd bf ca 8d bc
       -0.000121638586 0.08029144 -0.043191105 -0.017308591
000020 0a 6b dd 38 50 f3 52 bd 2c e9 4d 3c be f5 1f be
       0.00010558039 -0.051501572 0.0125678 -0.15621087
000030 90 9d aa bb 01 71 ba 38 28 a6 cf 3b e1 38 f9 bd
       -0.005206771 8.89022e-05 0.006336946 -0.12169052
000040 53 75 7e b8 08 f7 be bd 3e 5d 4f be 52 bb 58 bc
       -6.0667586e-05 -0.09324461 -0.20250413 -0.013228254
000050 65 0d 9e bd 79 8a 47 be de b4 24 be 19 e5 86 be
       -0.077173986 -0.19486417 -0.1608462 -0.26346663
000060 95 1c f8 3a bf d0 74 38 e6 a3 56 3e a1 4c aa 3d
       0.0018929417 5.8368543e-05 0.2096096 0.08315397
000070 00 2a 8b bd d6 25 0a 3d 06 99 c4 bd 60 ef a7 3d
       -0.0679512 0.03372749 -0.095994994 0.08199954
000080 f2 c8 f6 bb a8 77 b8 bc 85 f5 ee bd a3 fa 53 be
       -0.0075312788 -0.022517994 -0.11667923 -0.20701079
000090 de 10 96 bd 74 33 a2 bd 95 c3 74 bd 50 c0 2f be
       -0.07327436 -0.0791997 -0.059756834 -0.17163205
0000a0 3d d8 dd bd 47 d5 2d b8 73 4d e3 be 92 3d 57 bd
       -0.1083226 -4.1445044e-05 -0.44395027 -0.052548952
0000b0 fd d5 a3 bc fd 16 1e bd 3e b2 70 bd ff e1 d3 38
       -0.019999499 -0.038596142 -0.058763735 0.00010103359
0000c0 77 2c ec 38 de 61 1a 3d c3 98 07 3d 6f 24 82 3e
       0.00011261639 0.03769099 0.03310467 0.25418422
0000d0 fd f3 2e 36 49 19 7d be d2 4e 72 38 34 97 2d 3d
       2.607004e-06 -0.24716677 5.7770703e-05 0.042380527
0000e0 57 de 2e 3c a8 f0 0e bc 27 7a 96 38 e5 f7 e3 bd
       0.010673127 -0.008724369 7.17531e-05 -0.111312665
0000f0 4f 61 de bd a6 21 7a bb 14 fe 81 bd 4f 50 ad 3b
       -0.10858404 -0.0038167029 -0.0634729 0.0052891145
000100 d0 49 8a bd a0 5f a0 38 60 8c 6c 37 cf 8d a4 bd
       -0.0675236 7.647206e-05 1.409938e-05 -0.0803486
000110 64 50 c3 be cf 58 10 3b 6c b7 04 be c3 0d f1 bb
       -0.3814727 0.002202559 -0.12960595 -0.007356377
000120 a1 71 cf bd f8 36 aa bd b6 d5 91 be 8c 01 2f be
       -0.10129095 -0.08311266 -0.2848336 -0.17090434
000130 66 96 38 be 93 75 0e 3c 32 0b 18 bd 1d 79 d2 bd
       -0.18026122 0.008695024 -0.03712005 -0.10277007
000140 b3 90 0b be 97 c4 ec b8 14 9e 6f be 9e eb 89 bd
       -0.13629417 -0.00011289975 -0.23400146 -0.067343935
000150 e7 b8 d6 bc 2c 49 7e bd 8a 43 b1 be a1 bb a3 37
       -0.026211215 -0.0620815 -0.3462184 1.9518486e-05
000160 27 80 90 b8 3f 34 99 37 7f a5 2e 3c 28 47 f3 bc
       -6.890325e-05 1.826335e-05 0.0106595745 -0.029697016
000170 b9 0b e9 bd b7 e9 65 3d db 51 0d bd 6d 27 9a 38
       -0.11379189 0.05613109 -0.03450189 7.350636e-05
000180 03 9b be b8 ef d2 2b 3e 50 28 ad bd 1f c1 84 bd
       -9.088779e-05 0.16779684 -0.084549546 -0.064821474
000190 cf 24 5e be 7e 4a ec b8 56 eb c6 3d 67 75 17 be
       -0.21693729 -0.00011267232 0.097128555 -0.14790879
0001a0 b1 43 6d bd 33 23 d9 38 95 ce 98 b8 6c 5f 5a bd
       -0.057925884 0.00010353923 -7.286404e-05 -0.053313658
0001b0 a8 68 c5 bd 4c 14 5c bc 2e dc 8d bd 6f 01 ee bd
       -0.09639102 -0.0134325735 -0.069267616 -0.11621367
0001c0 e4 73 79 bd 36 22 15 bd ec 65 29 bd 4c e2 91 bb
       -0.060901538 -0.03640958 -0.041356966 -0.0044520255
0001d0 a9 39 31 bd 84 77 9f bd 5c f8 4e b8 79 d5 32 3c
       -0.04326788 -0.07786468 -4.934553e-05 0.010915154
0001e0 82 73 19 bf e7 9b d2 bc 7d b2 2d 3d 40 d5 dd bd
       -0.59941876 -0.025709106 0.042406548 -0.1083169
0001f0 37 c4 f8 3b d9 d1 d8 bd 08 b9 0d 3e a0 71 f8 bc
       0.00759175 -0.105869 0.13840115 -0.030327618

fc.layers.1.linear.weight f4 [128, 128]
000000 6f 07 48 be 51 9f 0c be 93 f8 7e 3e cd 51 a3 3a
       -0.19534086 -0.1373265 0.24899511 0.0012460292
000010 60 a3 6c 3a 05 fb 3c 3d f2 05 08 be f6 95 53 3b
       0.00090270303 0.04613783 -0.13283518 0.0032285429
000020 48 f5 3b be a7 3b 95 bc 32 a6 9d 3a f0 58 da bd
       -0.18355286 -0.018216921 0.001202768 -0.10661495
000030 78 e0 a2 3c a1 eb 11 bd eb 04 88 bd b4 b9 ed bd
       0.019882426 -0.035625104 -0.06641563 -0.11607686
000040 f5 ea 0d be 82 d8 62 3e 7a 0d e3 3d 67 43 75 3e
       -0.1385916 0.22152904 0.11086555 0.23951493
000050 f8 e3 54 bd b3 02 9d bd e3 d9 d5 bd 17 29 2d be
       -0.05197522 -0.076665305 -0.10441949 -0.16910206
000060 19 87 18 3e 3e 44 d7 b9 22 15 02 bf 7e 5b 33 be
       0.14895286 -0.0004105884 -0.50813496 -0.1751537
000070 38 6c 9e 3d 96 26 40 3e bd eb e6 3d 3e c2 91 bd
       0.07735485 0.1876472 0.11275432 -0.07117127
000080 bc 59 99 3e 11 2e d6 bd bc 28 32 be b8 fa ed 3c
       0.29951274 -0.10458005 -0.17398351 0.029050216
000090 72 4f c3 bc 7a 61 0c 3e 2c 95 df b9 8d 5e e1 bd
       -0.023841593 0.1370906 -0.00042645016 -0.11004362
0000a0 50 13 69 3e 3a 44 ed 39 4a ca 8f bc 14 94 19 be
       0.22761273 0.00045254995 -0.017552514 -0.14997894
0000b0 0f f9 ff 3c 4c 28 8d be 56 d7 20 3e 39 32 34 be
       0.03124669 -0.27569807 0.15707144 -0.17597283
0000c0 b0 1f b6 3d f0 ee c3 3c e4 f7 84 bd b1 ad e3 be
       0.08892763 0.023917645 -0.06492594 -0.44468454
0000d0 7e f9 a7 3c 47 ee 1a be 69 4a c1 bd da db 8c b9
       0.02050471 -0.15129958 -0.09438021 -0.00026866683
0000e0 81 03 13 be ab fa 97 bd c4 75 67 39 f5 5b c1 3b
       -0.14356805 -0.07420858 0.00022073748 0.0059008547
0000f0 2a ad 43 bd 6e 7e 7a 3e 71 6b 71 3c c8 1f bf bd
       -0.047772564 0.24462292 0.014735089 -0.09332234
000100 6e 9b 1e 3c 51 e6 c9 3d 42 72 13 be 1e fd 49 3c
       0.009680612 0.098583825 -0.14399055 0.012328414
000110 db a6 38 3e 5d 27 4e be 3c 71 1d 3e f2 6b 60 38
       0.180324 -0.20132203 0.15375227 5.3506294e-05
000120 71 1e 51 be cb d2 14 3e be b8 1d 3d c3 cd 8f 3e
       -0.20421769 0.14533536 0.038506262 0.2808667
000130 14 f6 5d 3e 44 ee 8c be 27 86 8c bd 56 de 98 3e
       0.21675903 -0.27525532 -0.06861525 0.2985713
000140 d1 38 de bc 4d b7 c6 39 48 97 19 3e 18 50 18 bd
       -0.027126702 0.00037902073 0.14999115 -0.03718576
000150 88 b9 2a be fc 01 09 be 18 fb 00 3e 57 cb bf 39
       -0.16672337 -0.13379663 0.12595785 0.0003658186
000160 6c 3b 4c bd c7 0e e8 37 d4 de b9 bc 96 c5 bf bd
       -0.049861357 2.7663436e-05 -0.02268926 -0.093638584
000170 c8 0f 8c bd e9 17 e9 3d 17 49 f5 bd b1 98 49 3d
       -0.068389475 0.113815136 -0.119768314 0.049217883
000180 db 9c 13 be 33 20 1f bf 1a a8 6c 3d 74 36 26 3e
       -0.14415304 -0.6215851 0.0577775 0.1623171
000190 5f fd a7 3e 62 7d fa bd 22 06 80 3e fb d6 6b 3c
       0.32810494 -0.12230946 0.2500468 0.014394517
0001a0 60 10 82 3b 84 60 da 3d 87 1c 78 38 6a d1 3e 3e
       0.003969237 0.1066294 5.9154376e-05 0.18634573
0001b0 c3 4a 6e 3e 8a cf d0 bd 89 ef b8 bd 3a b2 b2 bd
       0.23270707 -0.10195835 -0.09030063 -0.087254
0001c0 21 a3 3c 3e b4 83 fb 3d 27 98 a2 bd b9 a8 de bd
       0.18421604 0.1228098 -0.07939177 -0.10872025
0001d0 11 49 0a 3e 0e df 26 bb 00 e3 12 be 80 6f 2c 3e
       0.13504435 -0.002546254 -0.14344406 0.16839409
0001e0 f6 da 08 bd 25 52 f2 bd 3e c1 88 be de 63 01 bd
       -0.033411942 -0.11832074 -0.26709932 -0.03158938
0001f0 48 21 a3 bd 0c 44 58 be f9 cd 49 3d be 6a 5d 3e
       -0.07965332 -0.21119708 0.049268696 0.2162275
000200 ec ba 42 3e 48 cc 13 3d 61 e5 6b bc 9b 23 a3 b9
       0.19016618 0.03608349 -0.01439795 -0.0003111631
000210 79 32 2f 3d ac ff 9a 3b 28 7a 1a 3e ca ca 88 b8
       0.042772744 0.0047301855 0.15085661 -6.522758e-05
000220 36 45 48 39 34 a7 f1 bc f9 c6 a6 3d b0 34 0a bf
       0.0001909927 -0.029498674 0.0814342 -0.53986645
000230 ca 02 31 3f c1 89 89 38 2d d2 0d 39 40 fa f4 3e
       0.6914488 6.558328e-05 0.00013525104 0.47847176
000240 42 fd ea b8 3d f0 15 be 40 49 db be 30 32 66 bd
       -0.000112051624 -0.14642425 -0.42829323 -0.056200206
000250 e2 aa 9f 3e 1a f7 62 bc bb f8 e3 bc 4f 59 ca be
       0.3118506 -0.013852859 -0.027828565 -0.39521262
000260 3d ac d0 bb 57 b8 c2 38 0d d9 cf bd 65 d5 26 3d
       -0.0063681887 9.284977e-05 -0.10148821 0.040730853
000270 3e 21 a5 3e d2 19 0a 3d 0c f3 d1 bc 15 75 c7 3c
       0.32251924 0.03371603 -0.02562859 0.024347821
000280 c0 4e db bd 4c 29 90 3d 22 fa 85 3e 4f 2e 38 be
       -0.1070838 0.07039127 0.261674 -0.17986415
000290 5a 35 f8 3b c9 1b 1f 3d 00 a5 94 3d 57 23 22 3c
       0.0075747194 0.038844857 0.07258034 0.009896121
0002a0 0f b0 93 3d bb 08 bc b9 e7 3e 7b be 83 c3 ba bd
       0.07211315 -0.0003586466 -0.24535714 -0.09119322
0002b0 f5 82 0b be 0e 4a 11 3e 4d ce a8 bd 4e c5 5c 38
       -0.13624175 0.14188406 -0.08242474 5.263584e-05
0002c0 67 31 9d b8 f2 d6 6b 3e ad cb d1 bc 1a aa 58 3e
       -7.495545e-05 0.23031214 -0.025609815 0.21158639
0002d0 a3 73 0f be 79 f5 81 bd 73 c4 47 38 de 9d 4d 3c
       -0.14008956 -0.06345648 4.7628255e-05 0.0125498455
0002e0 fd d2 bd 3b f9 3c ad 3e 72 4d 9f bc b6 2f 5e 3d
       0.005792974 0.3383558 -0.019446108 0.05424472
0002f0 3b 14 3f 3e 51 c1 fe 3d 35 f6 f6 3d 07 a6 5a 3e
       0.18660061 0.12439216 0.12058679 0.21352397
000300 c1 a5 6f 3c 61 2d 6e bd bb 5c 39 38 38 5f d6 bd
       0.014626921 -0.058148745 4.41938e-05 -0.1046738
000310 be c6 4d be e3 64 d4 bc 92 49 24 be 2c 04 11 ba
       -0.20095345 -0.025927013 -0.1604369 -0.00055319327
000320 2d 60 56 bd d7 55 bd 3b 2a 93 a8 3d e2 1f ce be
       -0.052337814 0.005778055 0.08231194 -0.402587
000330 1d 4e ae bd 00 8b eb bd c7 1e 8e 3e d6 41 0c bd
       -0.08510993 -0.115011215 0.27757856 -0.034242474
000340 f7 a9 0a 3e d9 4f be b9 81 bc 12 bf a3 45 07 bd
       0.13541399 -0.00036299115 -0.57318884 -0.033025395
000350 84 70 43 bd a1 60 30 bc 4a 6b 0a 3d 82 4b 94 b8
       -0.047714725 -0.010765226 0.033793725 -7.0712544e-05
000360 57 74 ab 38 55 ba 18 3e f3 31 b3 3c 10 3f 8f 3d
       8.1755854e-05 0.1491483 0.021874404 0.0699445
000370 41 29 22 3e 28 b5 d6 bd fe c2 a9 bd c6 4b 18 b9
       0.1583605 -0.104837716 -0.08289145 -0.00014524077
000380 5d 3d b1 39 06 19 88 be 55 d4 60 3e 2a 0e 07 3e
       0.0003380579 -0.2658159 0.21955998 0.13188997
000390 ca 33 8b 3c 72 72 d7 3d f3 6f a1 3d 0f 2d 91 3e
       0.016992468 0.105198756 0.07882681 0.2835469
0003a0 35 79 b4 bc 8a a4 42 b8 bc a4 d8 bd 2b 5d 9a 3e
       -0.022030452 -4.6406443e-05 -0.105782956 0.30149207
0003b0 16 5f d0 bc a6 76 e2 3d f3 4d 81 bd ec ae 4b 3d
       -0.025435966 0.11057787 -0.06313696 0.049727365
0003c0 a5 9b c6 bc 79 5e de 3d 5b e0 e1 3e 1e 60 3a 3e
       -0.024244139 0.10857863 0.44116482 0.18200728
0003d0 5c 49 9d 3e 89 7d 89 3e 77 bc 0f 39 27 55 19 be
       0.3072003 0.26853588 0.00013707751 -0.1497389
0003e0 ee df 75 3e 83 ba 26 3e 85 39 07 3e c6 69 25 3e
       0.24011204 0.16282086 0.13205536 0.1615363
0003f0 91 d9 f5 3d b3 c9 e6 bd 41 fa c8 ba 7d 57 89 3e
       0.12004388 -0.1126894 -0.001533337 0.2682456

fc.layers.1.linear.weight_g f4 [128, 1]
000000 52 3c 71 3f ae a3 a7 3f e1 31 02 40 36 b8 b1 3f
       0.94232666 1.3096826 2.0342944 1.3884342
000010 f6 c7 85 3f 25 aa 88 3f 10 61 7b 3f a9 a1 78 3f
       1.0451648 1.0676924 0.9819498 0.97121674
000020 4e 53 7a 3f d8 1d eb 3f aa e1 89 3f f5 9f 07 40
       0.9778336 1.8368483 1.0771992 2.119138
000030 53 98 de 3f fd e5 85 3f ba ed ba 3f 6d d3 b1 3f
       1.7390236 1.0460812 1.4603798 1.3892647
000040 45 53 2a 40 82 ed 90 3f 6a c4 b0 3f 30 e3 89 3f
       2.6613324 1.1322482 1.3809941 1.0772457
000050 9d b9 48 40 4c fd 2a 40 ec 56 81 3f 98 36 96 3f
       3.136329 2.67171 1.0104651 1.1735411
000060 e6 03 0a 40 0f 13 8b 3f 5f 8f 69 3f 82 01 9a 3f
       2.156488 1.0865191 0.9123439 1.203171
000070 70 b2 6a 3f ff 50 70 3f f0 dc 66 3f 0c 13 39 3f
       0.91678524 0.9387359 0.90180874 0.7229469
000080 fb a8 92 3f d2 b2 7f 3f 96 bb f7 3f b9 88 8a 3f
       1.1457819 0.99882233 1.9354122 1.0822974
000090 ca b8 86 3f f8 ac 35 3f e3 91 8a 3f b1 d4 98 3f
       1.0525143 0.70967054 1.0825771 1.1939908
0000a0 40 02 c0 3f a9 8e 83 3f 78 70 a5 3f f0 55 8e 3f
       1.5000687 1.0277911 1.2924948 1.1119976
0000b0 0e c9 5d 3f 3a 6c 36 3f b1 4b 7b 3f 43 6f 81 3f
       0.8663491 0.7125889 0.9816237 1.0112079
0000c0 f1 8d 8a 3f f5 24 54 3f 12 71 b6 3e 81 67 2a 40
       1.0824567 0.8286889 0.3563314 2.6625674
0000d0 27 b5 8f 3f 5b 0e d6 3f 05 a4 74 3f ae c7 d6 3f
       1.1227158 1.6723131 0.95562774 1.6779687
0000e0 b1 42 b5 3f 00 7a 80 3f cd 68 ed 3f 21 bf a2 3f
       1.4160978 1.0037231 1.8547608 1.2714578
0000f0 b8 78 90 3f d3 99 99 3f 59 92 81 3f 3e 72 f1 3f
       1.128684 1.2000068 1.0122787 1.8862989
000100 b6 6b 12 40 f7 d8 81 3f 6b 38 74 3f d8 f1 72 3f
       2.2878242 1.0144337 0.95398587 0.94900274
000110 0f af 9f 3f 2d a4 40 3f 91 f4 74 3f 13 2e e1 3f
       1.2475299 0.7525051 0.9568568 1.7592186
000120 88 95 b1 3f d4 c7 9d 3f fc 5e 8e 3f 35 eb 74 3f
       1.3873758 1.2326608 1.1122737 0.956714
000130 da 57 75 3f 10 1d 99 3f 95 5b 66 3f ba 21 72 3f
       0.95837176 1.1961994 0.89983493 0.9458271
000140 9a 9c a4 3f 51 67 7c 3f 26 73 62 3f ce d5 81 3f
       1.2860291 0.9859515 0.8845695 1.0143373
000150 70 45 89 3f 2c 4d cd 3f f7 9a 88 3f 1f 4e 7b 3f
       1.0724316 1.6039176 1.0672292 0.9816608
000160 e1 16 96 3f a6 51 9f 3f 5b d5 a4 3f a9 3d 44 3f
       1.1725732 1.2446792 1.2877611 0.76656586
000170 0f 52 f2 3e 5d 74 93 3f 21 e7 79 3f c6 35 85 3f
       0.4732823 1.1519886 0.976183 1.0407035
000180 b2 9a 85 3f 29 28 ae 3f f8 b9 85 3f 16 92 95 3f
       1.0437834 1.3606006 1.0447378 1.1685207
000190 89 b0 7f 3f e9 03 58 3f 51 4a 8c 3f d1 97 8b 3f
       0.99878746 0.84380966 1.096018 1.0905706
0001a0 58 43 bd 3f 20 18 c1 3f 54 84 87 3f 4d 5e a6 3f
       1.4786177 1.5085487 1.0587258 1.2997528
0001b0 1f e4 7c 3f 2d 71 95 3f 7e 61 64 3f 2f 96 ed 3f
       0.98785585 1.1675164 0.8921126 1.8561457
0001c0 92 a4 9d 3f 4d 06 9a 3f a5 84 58 3f 0b c7 84 3f
       1.2315848 1.2033173 0.845774 1.0373243
0001d0 b9 07 6e 3f ef 7a 89 3f 01 49 f4 3f a7 2a a4 3f
       0.92980534 1.0740641 1.9084779 1.2825516
0001e0 c7 3c 7d 3f bf c7 ae 3f 9a c7 58 40 28 89 6c 3f
       0.98920864 1.3654708 3.3871827 0.92396784
0001f0 ff 1e 95 3f e9 2d 63 3f f5 8f 89 3f c3 7d a1 3f
       1.1650084 0.8874193 1.0747057 1.2616504

fc.layers.1.linear.bias f4 [128]
000000 5e af df bd c6 db 8e bd b1 a7 c0 bd 31 76 22 bd
       -0.109221205 -0.06975512 -0.094069846 -0.039663497
000010 ea 4b 41 3d f2 21 3e 3e 49 9d 6c 3e 7d e8 43 3c
       0.047191538 0.18567637 0.23106875 0.011957285
000020 7d bf f4 3d ce bb 34 3d 70 3d cc bd e3 9b ae be
       0.11950586 0.044124417 -0.09972656 -0.34103307
000030 a3 da 2a 3b e5 4d d0 bd b0 13 2c be bc 67 62 bc
       0.002607026 -0.10171107 -0.16804385 -0.0138186775
000040 c3 10 ae bc 11 ab 5e bb 6f bb 7c bb 8c 01 56 be
       -0.021248227 -0.0033976475 -0.0038563868 -0.20899028
000050 bc 85 74 be 35 ec 89 bd 0a c1 d7 3a 16 08 05 3d
       -0.2387914 -0.06734506 0.0016460728 0.032478414
000060 5e 9a 13 bd 0f 2a a2 be 44 16 36 be 42 76 c6 bd
       -0.036035888 -0.31672713 -0.17781931 -0.09690525
000070 59 80 9e 3c b9 10 00 be d4 18 a5 bc 3e b7 b5 3b
       0.01934831 -0.12506379 -0.02015344 0.005545526
000080 23 66 d4 3e 47 e5 d4 3d 6c 56 a0 bd 57 43 42 be
       0.41484174 0.10395294 -0.07828984 -0.18971
000090 63 2b d2 bc 9d a0 42 bd e1 4b 9d bc d4 2a 41 be
       -0.025655454 -0.047516454 -0.019201221 -0.18863994
0000a0 88 c7 91 3c 2e 26 4f bd 27 aa b2 bd 04 59 ba 3c
       0.01779534 -0.05057352 -0.0872386 0.022747524
0000b0 a5 e4 18 be e2 9e eb 3c f6 66 19 3d 74 11 a3 bc
       -0.14930971 0.028762285 0.037451707 -0.019905783
0000c0 5a 91 5c be 8c bf 34 be fa c0 28 3d eb ec 8e bd
       -0.21539822 -0.17651194 0.04119966 -0.06978782
0000d0 45 05 d4 bc 4c a9 79 bc b4 46 ee bc 8e 21 b4 be
       -0.025881419 -0.015238117 -0.029086448 -0.3518185
0000e0 4e 26 57 be a2 6a 21 3e ca 2a c8 bd 6c 49 b3 3c
       -0.21010706 0.15763333 -0.09773786 0.021885596
0000f0 3e df a8 3c c6 ca 68 be 0a 47 bc 3c 3f 9d 9f 3d
       0.020614263 -0.22733602 0.022983093 0.07793664
000100 b2 71 43 be fa eb 63 3d 11 db 16 b9 22 44 14 3d
       -0.1908634 0.055644967 -0.00014386723 0.03619779
000110 87 a7 db bd 0b 41 bd bd 28 9d f3 bc d2 10 c4 be
       -0.10725313 -0.092409216 -0.029738024 -0.38294083
000120 23 af aa 3c 1c d2 57 bd fc 26 74 3c 65 a9 55 be
       0.020835465 -0.05269061 0.014901873 -0.208654
000130 c0 8b 8a bd 5e 5f cd 3d 14 da b5 bc 59 63 79 bd
       -0.067649364 0.100279555 -0.022198714 -0.06088576
000140 ab 10 00 be 9b 1e 65 be 62 ca 7d be 64 70 13 3c
       -0.12506358 -0.22374956 -0.24784234 0.008998964
000150 04 f4 b6 be 6b 0c e3 be 94 95 b5 bc dd 7f b2 3d
       -0.35733044 -0.44345412 -0.022166051 0.08715794
000160 ce 37 bc bc b0 c2 13 be 1b 6b bf 3a e7 28 24 bd
       -0.022975828 -0.14429736 0.0014604063 -0.04007807
000170 18 be 9b bd 5f 29 a4 3b 11 35 94 be 60 95 0d bd
       -0.07604617 0.0050098146 -0.28946736 -0.034566283
000180 08 51 b5 3d 3e b5 ab bc df bf 3d 3d cb a2 86 bc
       0.08853346 -0.020960446 0.04632556 -0.016435048
000190 00 8d 27 be b9 26 b8 3c cf f4 6d be d0 ae 56 3c
       -0.16362381 0.022479402 -0.23237918 0.013103202
0001a0 c8 b1 8d bd d9 79 cb bd 20 29 57 be 35 e5 22 be
       -0.06918675 -0.0993535 -0.21011782 -0.15907748
0001b0 99 0d fd bd 4f b3 0d be 49 f7 71 be f1 8f a9 bd
       -0.12356109 -0.13837932 -0.23629488 -0.08279408
0001c0 b7 fd 0b 3f 7f b1 60 be 45 98 ac 3d a0 7e a7 bd
       0.54684013 -0.2194271 0.084274806 -0.08178449
0001d0 13 17 b5 bd bf 2f 95 bd 39 a4 1a bd 59 b1 c1 3c
       -0.08842292 -0.072844975 -0.03775427 0.023644136
0001e0 10 95 66 bd b7 7e 8c bd 30 07 71 be b2 a6 88 bd
       -0.0562945 -0.068601064 -0.23537898 -0.066724196
0001f0 49 4f bc be 2e 70 a0 3d 59 c7 12 bd d9 c3 47 be
       -0.3677924 0.078338966 -0.035834644 -0.19508304

fc.layers.2.linear.weight f4 [128, 128]
000000 07 f9 93 be 22 a2 3b be 43 98 70 bd f5 9c f0 bd
       -0.2890093 -0.18323568 -0.058738958 -0.11748687
000010 c3 1a 12 bf c2 cd e9 3d d1 14 ce 3d 35 f0 61 be
       -0.57072085 0.11416198 0.10062564 -0.22064288
000020 a8 0b 6b b9 34 93 c0 bc 31 6b e7 bd 95 7f ee bd
       -0.00022415689 -0.023507692 -0.11299742 -0.11645428
000030 cf a6 eb be 0d 5f 4d bc b1 63 c3 bd 45 55 c7 3d
       -0.46025702 -0.012534869 -0.09540499 0.09733061
000040 86 db 1e be 54 90 a1 be be 36 6e 3d e2 f2 a4 3e
       -0.15513429 -0.31555426 0.058157675 0.32216555
000050 77 dd 8e be 8e 99 02 3e 2c dd 78 3e e2 20 6c 3d
       -0.2790334 0.12753889 0.2430312 0.057648547
000060 fb 3e 30 be a0 42 7f be 90 fd 4b 3b c2 95 59 be
       -0.17211525 -0.24927759 0.0031126477 -0.21248534
000070 d4 3c 3f be ba 54 31 bd f0 37 a9 3b df 15 d9 bd
       -0.18675548 -0.043293692 0.005164139 -0.10599875
000080 89 54 66 3e bb 6c af bd d8 7a 85 bd 17 8d ed 3d
       0.22493185 -0.085656606 -0.06517571 0.115991764
000090 c3 53 c8 be 1f 27 5a bd 17 fb fa bd 55 c9 34 3e
       -0.39126405 -0.053259965 -0.12254923 0.17654927
0000a0 f0 ec b0 bc 2c 41 8b 3d f5 de b4 bc 3a 22 3d 3c
       -0.021597356 0.0679954 -0.02207897 0.011543805
0000b0 17 2d 8e 3e b8 13 a9 3d a1 3d c0 be 19 18 64 be
       0.27768776 0.08255714 -0.3754702 -0.22274818
0000c0 3f 9e 82 be 1c 39 67 3e 35 03 dd bd 6c 13 4a 3d
       -0.25511357 0.22580379 -0.10791627 0.04933493
0000d0 b6 ce 0b 3e 9c 51 aa bd 2e ef c0 bd ca 52 2f 3c
       0.13653073 -0.08316347 -0.0942062 0.010700891
0000e0 ee 4b 02 be 89 a2 b2 bd b8 4e a8 bd 9d 1e 00 bf
       -0.12724277 -0.08722407 -0.082181394 -0.5004671
0000f0 d7 75 ba 3c 71 e7 1d 3e a5 98 32 3d 81 51 20 bd
       0.022761269 0.15420319 0.043602604 -0.03914023
000100 8f ab e1 bd 22 b5 2b 3e 6e cd d0 be f1 20 05 3d
       -0.1101905 0.16768315 -0.4078173 0.03250212
000110 47 35 d9 bd 11 41 35 be 10 7c 76 be 45 77 90 be
       -0.10605865 -0.17700602 -0.24070764 -0.28215995
000120 73 0a db 3c f8 b2 f7 bc 70 a9 68 3e 60 70 03 be
       0.026738381 -0.030236706 0.22720885 -0.12835836
000130 c6 ef 5f 3d 76 43 42 3c e2 9c a1 bd b7 3c 92 3d
       0.054672025 0.011856904 -0.07891251 0.07140487
000140 79 cd f8 3d 37 de 53 bd 4a 32 89 3e fc 41 d6 3d
       0.12148566 -0.051725592 0.2679618 0.10461804
000150 82 f7 b3 3d e8 40 84 be fb 3d cd 3d 9c 66 3c 3e
       0.08787443 -0.2583077 0.100215875 0.18398517
000160 5c 91 a1 bd 88 20 43 3d c6 9f b7 3d eb e0 02 3e
       -0.07889053 0.047638446 0.08966021 0.12781112
000170 fa 2d 24 be 5b de 2a bb ba c2 40 3d ac 2f 3c bc
       -0.16033164 -0.0026072476 0.047060706 -0.011485975
000180 05 a7 b4 3d 5d 36 34 3e fa 81 54 3e 3f b6 3f bd
       0.08820919 0.17598863 0.20752707 -0.046804663
000190 e0 cf 67 be 22 c7 7c bd 05 c0 cd be f8 b1 6e 3e
       -0.22637892 -0.061713345 -0.40185562 0.23310077
0001a0 b9 22 2c 3e 7b 6f 1e 3d fd 94 fe bd 81 73 01 bf
       0.1681012 0.038680535 -0.12430761 -0.5056687
0001b0 c4 3f 3b 3d 83 9e 23 be 4d 61 42 be ff b3 3f be
       0.04571511 -0.15978436 -0.1898243 -0.18721007
0001c0 d6 c5 ad 3d 0d b9 c5 bc b3 e0 6c 3e 68 10 49 3e
       0.08485 -0.02413609 0.23132591 0.19635165
0001d0 cb 41 3b be 99 22 3d be 93 b6 50 be a7 43 56 3e
       -0.18286817 -0.18470229 -0.20382147 0.20924245
0001e0 ad 5e 43 bc e5 22 75 bc b8 40 99 3e 32 cd a0 39
       -0.011924428 -0.014961933 0.2993219 0.0003067046
0001f0 40 da 12 3d 7d 45 72 3e c7 41 27 be 93 ae a3 be
       0.03585267 0.2365932 -0.16333686 -0.31969127
000200 81 63 a8 be 6f 05 ce 3d b4 25 b4 bd 51 9a b4 3c
       -0.32888415 0.1005963 -0.08796254 0.02204624
000210 46 9b 67 be 41 4b 2b 3f f0 96 23 3f f1 75 0a be
       -0.22617826 0.66911703 0.6390219 -0.13521554
000220 da e6 db bc a5 e0 df bd 6b 94 bc bd 58 9e 87 be
       -0.026843477 -0.109315194 -0.09207996 -0.26487994
000230 8f da 61 be 84 34 56 be ce 5e ac be 4c 0b e8 3d
       -0.2205603 -0.2091847 -0.3366608 0.1133028
000240 1b 39 d8 3d 65 be 0e 3e 8a 10 03 3e 60 46 5a bd
       0.10557767 0.13939817 0.12799278 -0.05328977
000250 0d ba c1 bd 2e 00 cf bd 95 2e 0a 3e 7f d4 13 3d
       -0.094593145 -0.10107456 0.13494332 0.036091324
000260 ce 8f 66 bd 0f 51 b0 be ca d6 54 bd 79 98 9c 3d
       -0.056289487 -0.34436843 -0.05196265 0.07646269
000270 ef d8 3c 3d 40 16 20 be c0 af d3 bd 6d 39 84 3d
       0.04610532 -0.15633488 -0.10336256 0.064562656
000280 e0 b7 c2 3f 24 79 85 bd 62 d0 10 3d cb 67 31 be
       1.5212364 -0.06517246 0.03535498 -0.1732475
000290 9d d5 ac be ce 02 9f 3d 2d 9d 97 3d 15 f4 cf bd
       -0.33756724 0.07764207 0.07403026 -0.10153977
0002a0 6d 6e f3 bd fe 73 71 be eb 19 53 be 7a 1a d2 3d
       -0.118862964 -0.23579404 -0.20615356 0.10258956
0002b0 1f f1 d5 bd e4 9b a1 3c 28 60 37 bd 49 23 af 3a
       -0.10446381 0.019727655 -0.044769436 0.0013361956
0002c0 64 8c 98 be 85 19 a2 be 98 05 12 bc 0d b1 36 3c
       -0.2979461 -0.31660095 -0.0089124665 0.011150611
0002d0 b8 d8 ba 3d 8a bd 04 be 87 a1 06 be f4 18 53 bd
       0.09123367 -0.12962928 -0.13147555 -0.05153747
0002e0 07 2e 29 bd 96 11 a5 3e 82 10 10 be 8f 03 89 bd
       -0.04130366 0.3223998 -0.14068797 -0.06690132
0002f0 18 70 59 be b1 ee ac 3b ea ef b4 bd d0 42 bc 3d
       -0.21234167 0.0052774777 -0.088348225 0.09192431
000300 3d 53 d4 bd 1e 9d 95 3e fa 41 57 bd e8 7a d0 3e
       -0.10367439 0.29221433 -0.052553155 0.4071877
000310 2f 59 4a bd e5 e5 48 be cb 17 8e be b4 55 e2 bd
       -0.04940146 -0.19618948 -0.27752528 -0.11051503
000320 bc 2f 18 3d 57 5a 2b bd 3d ea 00 be 47 17 0f 3c
       0.037154898 -0.0418342 -0.12589355 0.008733577
000330 20 85 e2 bd 1f ee 9e be 23 26 1e 3e 7c e9 1d bd
       -0.11060548 -0.31041047 0.15444236 -0.038552746
000340 ff 29 f1 bd e8 fe 42 be f2 d6 05 3e 8f da c7 3d
       -0.11775588 -0.19042552 0.13070276 0.097584836
000350 10 4f 1f 3d aa b2 41 be 27 9a b9 3d 47 6e e9 3e
       0.03889376 -0.18915811 0.09062605 0.45591947
000360 56 9e 0b be be 3f fa bd 6a c2 01 be 67 15 b1 bd
       -0.13634619 -0.12219189 -0.1267182 -0.0864666
000370 1c a0 92 3b f4 69 09 be 6d 51 36 be 19 57 e8 3b
       0.004474653 -0.13419324 -0.17804499 0.007090461
000380 e3 26 8e bc 86 d9 95 bc 0f 10 d6 bd 89 14 04 3e
       -0.017352527 -0.0182922 -0.10452282 0.12898459
000390 41 f7 d0 3d a2 10 f2 3d e2 ee 17 be 8c 85 88 bd
       0.1020341 0.11819579 -0.1483722 -0.06666097
0003a0 51 57 0d 3e 30 96 50 3e 1b c4 d4 be 76 d1 70 be
       0.1380284 0.20369792 -0.41555867 -0.23517403
0003b0 9c 0f ba be dd 80 60 be 55 9d 49 be 2b 02 5f 3e
       -0.36340034 -0.21924157 -0.19688924 0.21778171
0003c0 2c a2 14 3f e3 55 36 3e 8e ee 37 3e 56 c2 f3 3d
       0.58059955 0.178062 0.17962095 0.11902301
0003d0 5e c5 d3 bd 5a 87 a0 bc 07 09 0b be 3a 81 9c 3d
       -0.10340379 -0.01959579 -0.13577662 0.076418355
0003e0 91 b9 2b be 37 39 a7 bd a0 b5 c6 bd 5b d8 a3 bc
       -0.16770007 -0.0816521 -0.09702611 -0.020000627
0003f0 ac 3b ef be a6 f3 ab 3e 52 de 81 be 7d 18 89 bd
       -0.46725214 0.33584327 -0.2536493 -0.06694124

fc.layers.2.linear.weight_g f4 [128, 1]
000000 49 8c 31 3f a1 f6 6e 3f f1 8a a1 3f ef 69 44 3f
       0.69354683 0.93345076 1.2620527 0.7672414
000010 34 82 79 3f 81 63 b5 3f f5 4d 1a 3f 11 8d c5 3f
       0.974643 1.4170991 0.60275203 1.5433675
000020 1c 9e 7e 3f 7f ee a6 3f f7 ab bc 3f 93 c5 53 3f
       0.99460006 1.3041533 1.473998 0.8272335
000030 19 aa 7c 3f 6c 7d 40 3f ab 3f 96 3f e0 54 c0 3f
       0.9869705 0.7519138 1.173818 1.5025902
000040 ef 9d 8b 3f 1a 62 4e 3f c8 d7 c4 3f 4c 6a 42 3f
       1.0907573 0.8061844 1.5378351 0.75943446
000050 84 1c b2 3f bd a0 4d 3f 16 56 69 3f 98 8f 31 3f
       1.3914952 0.8032339 0.9114698 0.6935973
000060 3d 44 5b 3f 25 2c 47 3f ba fd 98 3f ea 27 b8 3f
       0.85651 0.77801734 1.1952431 1.4387181
000070 73 16 84 3f 60 bb e1 3f ee 56 50 3f 40 3b ff 3f
       1.0319351 1.7635307 0.81382644 1.9939957
000080 09 f7 02 40 74 84 d3 3f cd 6a 71 3f 0f 1b 21 3f
       2.0463278 1.6524796 0.9430359 0.62931913
000090 9e 2a 58 3f ee 35 8a 3f b0 43 8c 3f fe f7 92 3f
       0.8444003 1.0797708 1.0958157 1.1481931
0000a0 38 4d 76 3f ab 6e 99 3f 1a d4 76 3f 72 40 73 3f
       0.96211576 1.1986898 0.9641739 0.9502021
0000b0 c3 c0 b2 3f 4c 7b b1 3f b5 f0 c5 3f fe 73 19 40
       1.3965076 1.3865752 1.5464083 2.3977046
0000c0 d0 ca 9c 3f ea 4a cd 40 45 2e 4b 3f 29 44 61 3f
       1.2249393 6.415395 0.79367477 0.8799463
0000d0 a2 f4 b3 40 bf 1a a1 3f 95 5b 83 3f 05 4d a8 3f
       5.6236124 1.2586287 1.0262324 1.3148504
0000e0 06 b8 a4 3f b0 5d 76 3f 08 0f 3f 3f dd 09 57 3f
       1.286866 0.96236706 0.7463231 0.83999425
0000f0 0d 07 98 3f 5e 96 4a 3f 43 36 8e 3f c8 e3 1d 3f
       1.1877152 0.7913569 1.1110309 0.6167569
000100 29 95 72 40 14 2d 0b 40 9a 6a 27 3f 0e 97 65 3f
       3.790354 2.1746264 0.65397036 0.89683616
000110 3c 8f 96 3f ef 38 67 3f 02 77 d9 40 8b 01 8d 3f
       1.1762462 0.9032125 6.7957773 1.1016096
000120 27 2e b9 3f 1f d9 cc 3f cd b5 c0 3f 4b e8 97 3f
       1.446721 1.600376 1.5055481 1.1867765
000130 0b 3d c7 3f f4 fd 50 3f 89 98 77 3f 00 22 64 3f
       1.5565504 0.816375 0.96717125 0.8911438
000140 a6 59 61 3f 68 58 2f 3f 3b 50 62 3f 2c 31 8d 3f
       0.8802742 0.6849427 0.8840367 1.1030631
000150 21 fb 68 3f 8f e3 35 3a 6b 6b 4c 3f 3e 79 56 3f
       0.9100819 0.0006938511 0.79851407 0.8377875
000160 a7 86 40 3f b5 4e 82 3f 23 22 62 3f f8 cb 55 3f
       0.75205463 1.018027 0.8833334 0.83514357
000170 d4 64 62 3f 1d 03 ca 3f df 75 65 3f ea 7a cb 3f
       0.884351 1.57822 0.8963298 1.5896885
000180 ea 45 00 40 69 c1 bd 3f 11 3e 81 3f a5 93 27 3f
       2.0042672 1.4824649 1.0097066 0.6545966
000190 51 d1 88 3f d1 29 30 3f 7a 3b d5 3f 5e cc db 3f
       1.0688878 0.68813807 1.6658776 1.7171743
0001a0 fe 0a a5 3f 42 72 b9 3f 82 ba f9 3f 18 cc 89 3f
       1.289398 1.4487994 1.9510043 1.076541
0001b0 7f 65 84 3f 4a 09 6f 3f 90 d2 f9 3f f7 65 55 3f
       1.0343474 0.9337355 1.9517384 0.8335871
0001c0 62 40 f2 3f 32 13 78 3f 5d 45 51 3f 4f 69 8c 3f
       1.8925898 0.9690429 0.81746465 1.0969638
0001d0 10 03 d1 3f dd 6d 6d 3f ba f5 c2 3f d3 a6 54 3f
       1.632906 0.92745763 1.523124 0.83067054
0001e0 26 d8 e3 3f b6 3d 86 3f 61 bb 68 3f f0 bf dc 40
       1.7800338 1.0487583 0.9091092 6.89843
0001f0 5d 44 5b 3f de 51 56 3f 35 10 5f 3f b3 cf e4 3f
       0.8565119 0.8371867 0.87134105 1.7875885

fc.layers.2.linear.bias f4 [128]
000000 89 b0 fb 3c 1c 3c e7 3e 2f 0a 7f be 89 80 d2 bc
       0.030723827 0.45163047 -0.24906228 -0.025696056
000010 64 4c 91 bd 2e 38 70 be 9e 8e 17 be 63 1b b4 be
       -0.070946485 -0.23458931 -0.14800498 -0.35177144
000020 82 a2 2e 3c 0c c7 9a bc 30 95 3b bc 7f b0 07 be
       0.010658862 -0.018893741 -0.011449143 -0.13250922
000030 30 07 85 3c 75 72 9c 3d 5c 83 5d be 89 c3 59 be
       0.016238779 0.076390184 -0.21632141 -0.21265997
000040 33 22 9a bd 69 a9 b4 3b 14 ff a1 be 4e cb 37 3e
       -0.07526054 0.0055133593 -0.31639922 0.17948648
000050 3d 70 89 bd 53 4f b4 bd 2d 1e c7 be 9d 28 cb 3c
       -0.06710861 -0.088041924 -0.3889021 0.02479964
000060 a3 be dc bd 10 58 45 bd 21 d1 01 be 39 34 21 be
       -0.107785486 -0.048179686 -0.12677433 -0.15742578
000070 02 26 20 3e 68 97 9d bb 2a eb fc bb 90 42 89 be
       0.15639499 -0.004809309 -0.0077184634 -0.26808596
000080 31 77 a3 3c c3 3e 17 3c 3f a1 08 be b5 11 12 bc
       0.019954296 0.009231272 -0.1334276 -0.0089153545
000090 0b 76 6a bd 8f 5e 32 bd 93 41 04 be 1d cc 0d be
       -0.05724148 -0.04354721 -0.1291564 -0.13847394
0000a0 f2 d8 55 be 75 05 c3 bc 12 4f bf bd ae e3 00 be
       -0.2088354 -0.023806313 -0.09341253 -0.12586853
0000b0 7f f2 2c be 04 0e aa bd df e2 ec bd 4f 98 e8 3c
       -0.1688938 -0.083034545 -0.1156671 0.028392939
0000c0 45 25 02 be 88 c4 13 3e 41 8c 7e bd 59 0e 18 bc
       -0.1270953 0.1443044 -0.062145475 -0.0092807645
0000d0 31 23 5e be f1 e3 a8 bd 99 64 80 bd 14 76 88 be
       -0.21693112 -0.082466014 -0.062691875 -0.26652586
0000e0 7e bb 42 3d b6 4b ab 3d f4 30 74 be 5c 1b 31 be
       0.047542088 0.0836405 -0.23846799 -0.17295593
0000f0 ba 13 2e bd 23 f7 1e bc 38 35 e6 bd c4 f6 0a bd
       -0.04249928 -0.009702477 -0.112406194 -0.03392674
000100 24 55 d8 be 58 02 93 3c 4c b9 22 3d dd 03 96 bd
       -0.42252457 0.017945454 0.039727494 -0.073249556
000110 9c 32 21 bd 83 43 98 3d 5e 4c 81 be 04 bd 95 3d
       -0.039354905 0.07434752 -0.25253576 0.073114425
000120 38 73 ef bc 72 aa 30 be e9 b1 91 be 27 0e 10 be
       -0.029229745 -0.1725252 -0.28456047 -0.14067899
000130 0e c3 0d be ac a8 bb bd 77 93 1a be b3 36 ec bc
       -0.13843939 -0.09163031 -0.15095316 -0.028834676
000140 ae 45 75 bd fc 31 1e bd 32 6e 09 be 5e 7f fc 3c
       -0.059880905 -0.038621888 -0.13420942 0.030822452
000150 d3 cf 37 be b3 32 9e b9 08 a2 0b 3e c8 25 22 bc
       -0.17950372 -0.00030173882 0.13636029 -0.009896703
000160 aa da 4f 3d 47 f1 38 bd 91 72 e5 bc aa 31 0f 3b
       0.050745644 -0.045151975 -0.028008731 0.002184967
000170 f0 7b 55 be e1 5e 78 be a0 a2 ae bd fc e6 8f be
       -0.2084806 -0.24254943 -0.08527112 -0.28105915
000180 7b c1 a5 bd 65 7b 56 bd f5 f0 96 be 1d 2f 22 be
       -0.08093544 -0.052363772 -0.2948071 -0.15838285
000190 82 f5 fe bd c0 11 15 be e9 9d ff bd 27 83 f8 bc
       -0.12449171 -0.14557552 -0.12481291 -0.030335976
0001a0 78 d5 09 be ea 74 ce bd 80 ee 93 3c d9 ad 0b 3e
       -0.13460338 -0.10080893 0.018058062 0.13640536
0001b0 68 a3 af be d4 a3 2d be 3f d5 2d be fc 89 57 3c
       -0.34304357 -0.16957027 -0.16975878 0.013155457
0001c0 ca 86 e4 bb b2 36 c2 bd 5d e3 f9 3c 80 ab 8e bc
       -0.006974076 -0.094830886 0.030503923 -0.017415762
0001d0 3f 94 89 be e3 b8 8c bd e0 aa 9a 3f ba 8b 94 be
       -0.26870915 -0.06871202 1.2083397 -0.29012853
0001e0 17 a8 42 bd 21 ae 2b be bc 73 11 be 4a bb 7b 3d
       -0.047523584 -0.16765644 -0.14204305 0.06145791
0001f0 fe 88 64 bd b9 73 fb 3e 22 3f c2 be 56 25 7d 3c
       -0.05579471 0.49111727 -0.37938792 0.015450796
