3d_solid_solid/outputs/fully_connected_128/heat_net.0.pth (torch, 343266 bytes, 19 tensors)

_impl.layers.0.linear.weight f4 [128, 3]
0	0xbd95f643	-0.07322361
1	0xbd2261d0	-0.039644063
2	0x3ebdf3d9	0.37100103
3	0x3d03ce77	0.032179322
4	0xbd80d237	-0.06290095
5	0x3f1a12f5	0.60185176
6	0x3e3d7f47	0.18505584
7	0x3e1d5612	0.15364864
8	0x3dce8cfd	0.10085485
9	0x3e55745e	0.20845172
10	0x3e36de79	0.17858304
11	0x3dec76dc	0.11546108
12	0x3cdbf146	0.026848447
13	0x3c54275c	0.012948837
14	0x3f8a4492	1.0802176
15	0x3d9eeb75	0.077597536
16	0xbed55052	-0.41662842
17	0xbd6dc5b7	-0.058049884
18	0xbd0b5273	-0.034014177
19	0xbdb5fbe9	-0.08885939
20	0x3e761815	0.24032624
21	0xbdb29d92	-0.087214604
22	0xbe6142cd	-0.21998139
23	0xbe954d21	-0.29160407
24	0xbcd8098b	-0.026371738
25	0x3e21f76a	0.15817037
26	0xbe1bafe9	-0.15203823
27	0x3e093aa7	0.1340128
28	0xbe52fabc	-0.2060346
29	0xbe20e18f	-0.15711044
30	0xbe1a3465	-0.1505905
31	0xbe807a00	-0.2509308
32	0xbdc14a39	-0.09437985
33	0xbd9911bf	-0.07474088
34	0x3df5fac2	0.12010719
35	0x3eaaca3a	0.33357412
36	0xbca2d7b2	-0.019878242
37	0x3edb49aa	0.4282964
38	0xbe90757f	-0.28214642
39	0xbd5886a6	-0.052862786
40	0x3f0f1b4e	0.5590104
41	0xbe0689f5	-0.13138564
42	0xbd8502d9	-0.06494684
43	0x3d6bee09	0.057600055
44	0x3f0f4fa0	0.55980873
45	0x3e3424e3	0.17592196
46	0x3e0fda6b	0.14048164
47	0x3dc46ace	0.09590684
48	0xbce98b7f	-0.0285089
49	0x3f029a31	0.5101653
50	0xbe0f290f	-0.13980506
51	0xbc019ed5	-0.007911404
52	0xbdc57ddf	-0.09643149
53	0x3eacaab2	0.3372398
54	0xbd1b5235	-0.037920196
55	0x3e6c6063	0.23083644
56	0xbea5e6d3	-0.32402667
57	0xb9a8452c	-0.00032094994
58	0xbbaf8e9a	-0.0053575756
59	0x3f402b31	0.75065905
60	0xbd90e483	-0.07074835
61	0xbbfdff3b	-0.007751373
62	0x3e9a759a	0.30167848
63	0xbda9d715	-0.08292977
64	0x3e7503a6	0.23927173
65	0x3e3dcac1	0.18534376
66	0x3dd046ad	0.1016973
67	0xbe924db0	-0.28574896
68	0xbdde34bc	-0.10849902
69	0x3df42462	0.11921002
70	0xbd83b5a0	-0.064311266
71	0xbe928591	-0.28617528
72	0x3e73927d	0.2378635
73	0x3e518469	0.20460667
74	0x3e03e199	0.12879027
75	0x3d3ed14a	0.046586312
76	0x3fb4f21c	1.4136386
77	0xbd69f8a6	-0.057121895
78	0xbcb4b65b	-0.02205961
79	0xbd7add6e	-0.061246328
80	0x3ecf2f2f	0.40465686
81	0xbd3edb53	-0.046595883
82	0xbd837c1a	-0.06420155
83	0x3ebbe0e4	0.36695015
84	0xbd5bead1	-0.053690735
85	0xbd15bcca	-0.036556996
86	0x3ea2bf9e	0.31786817
87	0x3ddf2fad	0.10897765
88	0xbeae93ea	-0.34097224
89	0xbe09166c	-0.1338746
90	0x3d4b208b	0.049591582
91	0x3d97f986	0.0742064
92	0xbee30840	-0.44342232
93	0x3e3c3595	0.18379815
94	0x3e173688	0.14766896
95	0x3dd019c0	0.101611614
96	0xbd538ec0	-0.05164981
97	0xbdc89286	-0.09793572
98	0xbeb1b6c7	-0.3470976
99	0xbde7ccfd	-0.11318395
100	0xbe89bb8e	-0.26900905
101	0xbcc7c784	-0.024387129
102	0xbeb035c2	-0.34416014
103	0x3e131e1f	0.14366959
104	0x3d954130	0.07287824
105	0xbce6912f	-0.0281454
106	0xbd802eb2	-0.062589064
107	0x3eba040b	0.3633121
108	0xbe2deeb6	-0.16985592
109	0x3e93b960	0.28852367
110	0x3df2272c	0.11823878
111	0x3daa431a	0.0831358
112	0x3da8086b	0.082047306
113	0xbecd9788	-0.40154672
114	0xba343b96	-0.0006875334
115	0xbf9b2218	-1.211978
116	0xbceff5f7	-0.02929209
117	0x3d0dc706	0.03461363
118	0xbe8dc629	-0.27690247
119	0x3e06be6e	0.1315858
120	0x3d913592	0.07090296
121	0x3d689bd5	0.056789238
122	0xbf17d5b8	-0.59310484
123	0x3d58ea72	0.05295796
124	0xbe7fe218	-0.24988592
125	0x3e201925	0.15634592
126	0x3cfb7d5f	0.03069943
127	0xbe3676bc	-0.17818731
128	0x3e71e45f	0.23622273
129	0xbcec7776	-0.028865557
130	0xbdda28e7	-0.10652333
131	0x3ead8eba	0.33897954
132	0x3e10580f	0.14096092
133	0xbda663f7	-0.081245355
134	0xbebc428e	-0.36769527
135	0x3d21cb68	0.039500624
136	0xbe5c3d55	-0.21507771
137	0xbe3227c2	-0.17397979
138	0xbd016c61	-0.0315975
139	0xbddc29c3	-0.10750153
140	0x3e867d08	0.26267266
141	0xbc81e5f0	-0.015856713
142	0xbe0c03d9	-0.13673343
143	0x3e505b8f	0.20347427
144	0x3dad3e27	0.0845912
145	0xbd582401	-0.05276871
146	0xbe9c59d2	-0.30537277
147	0x3cf2a93b	0.029621711
148	0x3dd392c8	0.10330731
149	0xbef728af	-0.48273227
150	0x3b6662ab	0.0035154026
151	0xbe3e5c53	-0.18589906
152	0x3e9e7346	0.30947322
153	0xbdad0b1e	-0.08449386
154	0xbe6fed60	-0.23430395
155	0xbc99a635	-0.018756012
156	0xba7bd056	-0.00096059346
157	0x3ebb7237	0.36610577
158	0xbd48defa	-0.049040772
159	0xbdb906c0	-0.090344906
160	0x3e970f8d	0.29504052
161	0xbd9d92ba	-0.076940015
162	0x3d5e0d4b	0.054211896
163	0x3d902a72	0.07039346
164	0xbe97942f	-0.29605243
165	0xbd45aaab	-0.048258465
166	0xbdb11535	-0.08646623
167	0x3ec19818	0.3781135
168	0xbe1f2436	-0.15541157
169	0xbeda8c2e	-0.42685074
170	0x3dfb8887	0.122819
171	0xbcbe29c9	-0.023213284
172	0xbd25819b	-0.040406805
173	0x3ed696c9	0.41911915
174	0x3e030f4b	0.12798803
175	0xbde9935e	-0.11405061
176	0xbe85ccbc	-0.26132762
177	0xbda33b8b	-0.07970341
178	0xbe2abb7e	-0.16673085
179	0x3eb0204d	0.34399644
180	0xbe05c510	-0.13063455
181	0x3e85d4d5	0.2613894
182	0x3e2ec501	0.17067339
183	0xbdf3cd07	-0.1190434
184	0xbe91ea66	-0.28499144
185	0xbdc987a6	-0.09840326
186	0xbdab3cd2	-0.0836121
187	0x3d937e0e	0.072017774
188	0x3eb2f7a6	0.34954566
189	0xbd58786d	-0.052849222
190	0xbddedd15	-0.10882012
191	0x3e9c3b56	0.3051402
192	0x3e2cdefd	0.16881938
193	0x3e026fc5	0.12737949
194	0x3dbca304	0.0921078
195	0xbdd0d161	-0.10196186
196	0x3deb0bd8	0.114768684
197	0x3e9e6302	0.30934912
198	0x3e518844	0.20462137
199	0x3e30fab0	0.1728313
200	0x3de4326f	0.11142432
201	0xbdd53e63	-0.1041229
202	0x3e766f89	0.24065985
203	0x3dff99b5	0.12480489
204	0x3d7ce7e7	0.061744597
205	0xbea99603	-0.33122262
206	0x3c94cede	0.018165048
207	0xbe3dfb52	-0.18552902
208	0xbe84576e	-0.25847954
209	0xbd9fee84	-0.07809165
210	0xbd3ca559	-0.046056125
211	0x3e38c159	0.18042506
212	0xbe30d09f	-0.17267083
213	0xbd9575a3	-0.07297828
214	0xbdb58464	-0.08863142
215	0x3ea99d91	0.33128026
216	0xbd130a4f	-0.035898503
217	0x3be159a5	0.0068771415
218	0x3ebe5c5d	0.37179843
219	0xbd9eb1b1	-0.07748736
220	0xbca0d4b7	-0.01963268
221	0x3eb18dd2	0.34678513
222	0xbdc9f05e	-0.098602995
223	0x3e6f737d	0.23383899
224	0x3e2d966a	0.1695191
225	0xbdb9e966	-0.0907772
226	0x3dd8fa0a	0.10594566
227	0x3e83a423	0.25711164
228	0x3da7cd19	0.08193416
229	0xbea8397c	-0.32856357
230	0x3d8f3930	0.069933295
231	0xbdb23f0f	-0.08703434
232	0x3d2e7e6e	0.04260104
233	0x3e97510a	0.29554015
234	0x3d784861	0.0606159
235	0xbe4ff3c4	-0.20307833
236	0x3e34bc50	0.1764996
237	0x3e1e3054	0.15448123
238	0x3df96b67	0.121786885
239	0x3daad536	0.08341448
240	0xbd25a5e0	-0.040441394
241	0x3d440786	0.047858737
242	0x3eba0d4c	0.3633827
243	0x3d7ae46c	0.061252996
244	0xbe8ba16b	-0.2727159
245	0x3e5a64cd	0.21327515
246	0xbbe423fb	-0.006962297
247	0x3f12bd1a	0.57319796
248	0xbe3f951e	-0.18709227
249	0x3d472d13	0.04862697
250	0x3d0d2edc	0.034468517
251	0xbee67809	-0.45013455
252	0xbd7f3835	-0.062309463
253	0xbe8b307c	-0.27185428
254	0xbdd8e5a6	-0.10590677
255	0x3e4b62d5	0.1986192

_impl.layers.0.linear.weight_g f4 [128, 1]
0	0x3fa8bc8e	1.3182542
1	0x3f77fd07	0.96870464
2	0x3fd4a482	1.6612704
3	0x3fc6800b	1.5507826
4	0x3f6d674d	0.9273575
5	0x3fb46313	1.4092735
6	0x3f8c20b4	1.094748
7	0x3f82337a	1.0171959
8	0x3fc3f591	1.5309316
9	0x3f9ca4f9	1.2237846
10	0x3f83658d	1.0265366
11	0x3f94db27	1.162938
12	0x3f8dcc7d	1.107803
13	0x3fa03d25	1.251866
14	0x3f72589a	0.94666445
15	0x3fd63649	1.6735317
16	0x3fa893db	1.3170122
17	0x3f9606b6	1.1720798
18	0x3f9cd172	1.2251418
19	0x3f893590	1.0719471
20	0x3f80590a	1.0027173
21	0x3f841657	1.0319318
22	0x3fa38d34	1.2777467
23	0x3fa9e4e4	1.3272977
24	0x3fc903e4	1.5704312
25	0x3fb0b2f4	1.3804612
26	0x3f82c28e	1.0215623
27	0x3fa09467	1.2545289
28	0x3f8ffa4b	1.1248258
29	0x3fa06c68	1.2533083
30	0x3f94cf47	1.1625756
31	0x3fd21fb3	1.6415924
32	0x3f8cd5ce	1.1002748
33	0x3f841f49	1.0322047
34	0x3f5800c7	0.84376186
35	0x3f94db48	1.1629419
36	0x3faf456d	1.3693062
37	0x3fad4e20	1.3539467
38	0x3fad8386	1.3555763
39	0x3fb7ed30	1.4369259
40	0x3f966cda	1.1751969
41	0x3fbcd2d3	1.4751838
42	0x3fac450a	1.3458569
43	0x3fac5e33	1.3466247
44	0x3fafa9ec	1.3723731
45	0x3f825f7f	1.0185393
46	0x3fa60cc0	1.2972641
47	0x3f9d301e	1.2280309
48	0x3f97c715	1.185763
49	0x3f919727	1.1374253
50	0x3fc2d8f7	1.5222462
51	0x3f86d81a	1.0534699
52	0x4033de8e	2.8104587
53	0x3fcbfd3e	1.5936658
54	0x3fae35f5	1.3610216
55	0x3f8e9e56	1.114207
56	0x3f818d4d	1.0121247
57	0x3f969c47	1.1766442
58	0x3fa113db	1.2584184
59	0x3fb9c1d6	1.4512279
60	0x3f86a0f4	1.0517869
61	0x3f822fae	1.0170801
62	0x3f972f50	1.1811314
63	0x3fb3a701	1.403534
64	0x3fd6311e	1.6733739
65	0x3f8c6428	1.0968065
66	0x3fd6caf7	1.678069
67	0x3f8f69ad	1.1204125
68	0x3fba5940	1.4558487
69	0x3f848c6f	1.0355357
70	0x3f9709df	1.1799887
71	0x3fa837de	1.3142049
72	0x3f8094f4	1.0045457
73	0x3fa811ad	1.3130394
74	0x3f833b97	1.025256
75	0x3f93cfac	1.1547751
76	0x3fb152de	1.3853414
77	0x3fa42c84	1.2826085
78	0x3fc0c238	1.5059271
79	0x3fda7df5	1.7069689
80	0x3f62e280	0.8862686
81	0x3fe1462f	1.7599543
82	0x3fbe31e1	1.4858972
83	0x3f963e6a	1.1737797
84	0x3f751179	0.95729786
85	0x3fd333cf	1.6500186
86	0x3fb5592f	1.4167842
87	0x3fccea06	1.6008918
88	0x3f92f58d	1.1481186
89	0x3fbcf290	1.4761524
90	0x3f80ffb7	1.0078038
91	0x3f77e47d	0.9683302
92	0x3fcb9028	1.5903368
93	0x3f8c5468	1.0963259
94	0x3f86a82e	1.0520074
95	0x3f806542	1.0030901
96	0x3fd9f514	1.7027917
97	0x3fbbe682	1.467972
98	0x3f7d57bc	0.98962
99	0x3f7d03d6	0.9883398
100	0x3fd5adfc	1.6693721
101	0x3f843830	1.0329647
102	0x3fd0d0cf	1.6313723
103	0x3f9036bb	1.1266702
104	0x3fc67639	1.5504829
105	0x3faa45e5	1.330258
106	0x3f8ea107	1.1142892
107	0x3fce7d8c	1.6132064
108	0x3fc7f81f	1.5622596
109	0x3fd3a81e	1.653568
110	0x3f94bbd5	1.1619822
111	0x3f7b7582	0.9822618
112	0x3fbfdfda	1.4990189
113	0x3fd31f5f	1.6493949
114	0x3f9bed3b	1.2181772
115	0x3f9ba2c0	1.2159042
116	0x3f814f3b	1.0102304
117	0x3f9df5aa	1.2340596
118	0x3f9118d2	1.13357
119	0x3f8a20cc	1.0791259
120	0x3fd135d1	1.6344548
121	0x3f87098e	1.0549791
122	0x3f8a07df	1.0783652
123	0x3fa2688c	1.2688155
124	0x3fc59ee5	1.5439116
125	0x3f822dfd	1.0170285
126	0x3f94b6da	1.1618302
127	0x3f986ead	1.1908776

_impl.layers.0.linear.bias f4 [128]
0	0x3e611535	0.21980746
1	0x3ea4344c	0.3207115
2	0xbf1483d9	-0.58013684
3	0xbf16c9e6	-0.5890182
4	0x3eab019f	0.33399674
5	0xbe08607f	-0.1331806
6	0x3dde269c	0.10847208
7	0xbe4bcbc3	-0.19901948
8	0xbceff7cd	-0.029292965
9	0xbe409528	-0.18806899
10	0xbe275514	-0.16341048
11	0x3eb2b871	0.34906343
12	0xbba264e4	-0.0049558748
13	0x3d9d2b2e	0.076742515
14	0x3e90e704	0.2830125
15	0xbf1161d7	-0.56789917
16	0x3cb112a9	0.021615343
17	0x3e796cc9	0.24357904
18	0xbde37b1e	-0.11107467
19	0x3eb95223	0.36195478
20	0x3e326360	0.17420721
21	0x3e983e44	0.29735005
22	0xbe4187cf	-0.18899463
23	0xbe3d2611	-0.18471552
24	0xbf191636	-0.59799516
25	0xbe21e9ba	-0.15811816
26	0x3e7fef64	0.24993664
27	0x3e7058cc	0.23471373
28	0x3e529a70	0.20566726
29	0xbe2cb85a	-0.168672
30	0xbe5f8bba	-0.21830645
31	0xbf024f7c	-0.50902534
32	0xbe543846	-0.20724592
33	0xbe498f6c	-0.19683617
34	0xbe9b3cd9	-0.3031986
35	0x3e836a0c	0.25666845
36	0x3e4c6274	0.19959432
37	0xbe195ad9	-0.14976062
38	0xbe5cb4a3	-0.21553282
39	0x3d5e6f46	0.054305337
40	0xbe80fed9	-0.25194433
41	0x3dbc1efd	0.09185598
42	0x3e0514c6	0.12996206
43	0x3e586e1a	0.2113575
44	0xbe5a4e5b	-0.21318953
45	0xbe634ff3	-0.22198467
46	0x3e004f87	0.12530337
47	0x3cc05c55	0.023481527
48	0xbe801e5d	-0.25023165
49	0xbe688c40	-0.22709751
50	0x3e1dbc8d	0.15403958
51	0xbe38336b	-0.17988364
52	0xbcbd8a88	-0.023137346
53	0x3e5ea120	0.21741152
54	0xbe248c21	-0.1606908
55	0x3e3c3857	0.18380867
56	0xbe9ea8e3	-0.30988225
57	0x3ea0cf6a	0.31408244
58	0xbe4d5c2d	-0.20054694
59	0x3c1b095d	0.009462682
60	0x3e573f67	0.2102028
61	0xbe377272	-0.17914751
62	0x3e965b78	0.2936666
63	0x3deee0b6	0.11663954
64	0xbf04a8b9	-0.5181995
65	0x3e835d5b	0.25657162
66	0xbf0e2f73	-0.5554115
67	0x3e683c5d	0.22679277
68	0x3c16486b	0.009172539
69	0xbe27ef4a	-0.16399875
70	0xbd7c37b7	-0.06157657
71	0x3df0cf5a	0.11758299
72	0x3e91c8ab	0.2847341
73	0x3e627796	0.22115931
74	0x3e7e5364	0.24836498
75	0x3e898d47	0.268656
76	0x3d8afa6d	0.06786046
77	0x3e7ce32e	0.24696037
78	0x3e05c865	0.13064726
79	0xbf0eb106	-0.55738866
80	0x3e8e9b99	0.27853087
81	0x3dfba5d0	0.122874856
82	0x3d62536b	0.055255335
83	0xbe876cbd	-0.26450148
84	0xbe72c35d	-0.23707338
85	0xbf17e175	-0.59328395
86	0x3c755b5a	0.014975393
87	0xbe26e64a	-0.16298786
88	0x3e9204e8	0.28519368
89	0xbd3492e8	-0.044085413
90	0xbe5ceab4	-0.21573907
91	0xbe73838c	-0.2378065
92	0x3da14a93	0.07875552
93	0xbe8c4f1d	-0.2740411
94	0xbe8efaa6	-0.27925605
95	0xbe4cf333	-0.20014648
96	0x3d90fc81	0.07079411
97	0xbe1a35a9	-0.15059532
98	0xbe7983bd	-0.2436666
99	0xbe440089	-0.19140829
100	0xbf10f17b	-0.5661847
101	0xbe5b8ef5	-0.21441253
102	0xbf0cca64	-0.54996324
103	0x3e8c3f47	0.27392027
104	0xbf1275d7	-0.5721106
105	0xbddb22c3	-0.1069999
106	0xbd1a474b	-0.037665647
107	0xbf06045b	-0.52350396
108	0xbf11e8fa	-0.5699612
109	0xbeaf1ca5	-0.34201542
110	0xbe82f3c3	-0.255766
111	0x3e0f448f	0.13990997
112	0x3d1cca02	0.038278587
113	0xbd1ddf1d	-0.038542856
114	0xbe0ce50c	-0.1375925
115	0xbe4e3a29	-0.20139374
116	0xbe429007	-0.19000255
117	0x3d769fbb	0.060210925
118	0xbe70a540	-0.23500538
119	0xbe57314c	-0.21014899
120	0xbf0f4a6d	-0.5597294
121	0xbe3914d9	-0.18074359
122	0xbe9087c5	-0.28228584
123	0x3e46d02f	0.19415353
124	0x3dd62abe	0.10457371
125	0x3ec017ad	0.37518063
126	0xbdb0ed9a	-0.08639069
127	0xbe66e5ce	-0.22548601

_impl.layers.1.linear.weight f4 [128, 128]
0	0x3a783337	0.0009468081
1	0x3a20b20f	0.00061300484
2	0x3d6f2f10	0.05839449
3	0x3d6af796	0.057365023
4	0x3bdfcf66	0.0068301437
5	0xbe93fd0c	-0.28903997
6	0xbc34c37c	-0.011032935
7	0xbe8d0aff	-0.27547452
8	0xbd05c5f5	-0.03265949
9	0xbd5f5daf	-0.054532703
10	0xbedecce6	-0.435157
11	0x3cf11e06	0.029433262
12	0x3e306570	0.17226195
13	0x3e46fe9a	0.1943306
14	0x3c2b2141	0.01044494
15	0x3cbe50de	0.02323192
16	0x3e490938	0.19632423
17	0xbc166d8e	-0.009181393
18	0xbc6030aa	-0.013683477
19	0x3bb94581	0.0056540375
20	0x3b56c79f	0.0032772792
21	0x3d916a0a	0.071003035
22	0xbe1f0fea	-0.15533414
23	0xbc991305	-0.018685827
24	0x3d3cf872	0.046135373
25	0x3e6504eb	0.22365157
26	0xbb2eb030	-0.002665531
27	0xbb6ed3e9	-0.0036442226
28	0xb98eb5ab	-0.00027219704
29	0xbe40f307	-0.18842708
30	0xbda69d19	-0.08135433
31	0x3dba79c1	0.09105254
32	0xbe3be2e0	-0.18348265
33	0xbeb70c0c	-0.3575138
34	0x3c14eb4b	0.009089301
35	0xbb776671	-0.0037750269
36	0x3d8900a4	0.06689575
37	0xbd187b12	-0.037226744
38	0xbeac52fa	-0.33657056
39	0xbe5b193a	-0.21396342
40	0xbdbe93ff	-0.09305572
41	0xbe1117c9	-0.1416923
42	0xbcd7bab7	-0.02633415
43	0xbc3cc5cb	-0.011521767
44	0xbcc05d4f	-0.023481993
45	0xbe2b7e99	-0.16747512
46	0xbc6b2ad1	-0.01435347
47	0xbc9bf7b1	-0.019039007
48	0xbc8b7d38	-0.017027482
49	0xba81b445	-0.0009895643
50	0xbd02cae9	-0.03193179
51	0xbe5b303a	-0.21405116
52	0x3e0281ac	0.12744778
53	0x3dbfc5be	0.09363888
54	0x3b22404a	0.0024757558
55	0xbbc34a6b	-0.005959799
56	0xbe415709	-0.18880858
57	0xb9f34ae4	-0.0004640437
58	0xbcccd0c8	-0.025001898
59	0xbcdcc367	-0.026948644
60	0x3d844232	0.06457938
61	0xbecd4782	-0.4009362
62	0x3c9160c6	0.01774634
63	0xbc5c5314	-0.013447542
64	0x3ccb6daa	0.024832565
65	0x3cd1367f	0.025538681
66	0x3d800136	0.06250231
67	0x3d9b7676	0.07590954
68	0xbea5d8c1	-0.32391933
69	0xbee2f9bf	-0.44331166
70	0xbd9abc8e	-0.07555495
71	0xbbe692fc	-0.007036565
72	0x3ba82241	0.0051310365
73	0x3b4f7241	0.0031653794
74	0x3d88efd8	0.066863716
75	0x3cd3da6d	0.02586099
76	0xbe799d93	-0.24376516
77	0x3c544222	0.01295522
78	0xbd72939b	-0.0592228
79	0x3c384221	0.011246235
80	0x3c171e9b	0.0092236055
81	0xbdffe67a	-0.12495132
82	0x3e5043c1	0.20338346
83	0xbc1c467f	-0.009538292
84	0xbe9718a6	-0.29510993
85	0x3d4d5f21	0.05013955
86	0x3e3e5939	0.18588723
87	0xbe74bcbc	-0.23900121
88	0x3c90eb95	0.01769046
89	0xbe5359c4	-0.20639712
90	0xbc87fce1	-0.016600074
91	0xbce6b823	-0.028163975
92	0xbd00e663	-0.031469714
93	0xbd0a2df7	-0.03373524
94	0xbc683f7d	-0.014175293
95	0xbc3905e3	-0.011292907
96	0x3e4748ce	0.19461367
97	0xbd35b091	-0.04435784
98	0x3b0dc674	0.002163318
99	0xbe3dc170	-0.18530822
100	0x3d84ce09	0.064846106
101	0xbb927028	-0.0044689365
102	0x3d88b0c1	0.06674338
103	0x3d13fb51	0.036128346
104	0x3da7c59b	0.08191987
105	0xbcf0537d	-0.029336685
106	0x3b837fc0	0.0040130317
107	0x3dc2769d	0.0949528
108	0x3dac3dbd	0.08410213
109	0x3de55d04	0.11199382
110	0xbc8cdb23	-0.017194336
111	0x3a8a2540	0.0010539666
112	0xbdbf66d5	-0.093457855
113	0xbe2e17f9	-0.17001332
114	0xbcffa2e5	-0.031205604
115	0xbdc7fc5c	-0.097649306
116	0xbec63b0a	-0.38716918
117	0xbca40cae	-0.020025577
118	0xbe8710b6	-0.26379937
119	0xbe97e49f	-0.29666612
120	0x3d8f3e3e	0.06994294
121	0xbeb41dff	-0.35179135
122	0xbdf1664d	-0.117870905
123	0x3d90ffc2	0.07080032
124	0x3e2d9073	0.16949634
125	0x3d8bdc46	0.06829123
126	0x39ea9954	0.00044746196
127	0xbcc02de2	-0.023459379
128	0x3e47337a	0.1945323
129	0x3e0d7c48	0.13816941
130	0x3dcc29ab	0.09968885
131	0xbd213427	-0.039356377
132	0x3d0307a7	0.03198972
133	0xbe180435	-0.14845355
134	0x3d6ad1c5	0.057328958
135	0x3e509184	0.2036801
136	0xbe1cce09	-0.15312971
137	0xbe781d28	-0.24229872
138	0x3bd5f291	0.0065291603
139	0x3e287c8a	0.16453758
140	0xbe250aac	-0.16117352
141	0xbe9f2887	-0.31085607
142	0x3e24190e	0.16025183
143	0xbd106550	-0.03525287
144	0x3d223183	0.039598
145	0x3dfe4755	0.12415949
146	0xbd30337e	-0.043017857
147	0x3ce66d75	0.028128365
148	0x3e505ce1	0.2034793
149	0xbcb8c2da	-0.02255385
150	0xbe598426	-0.21241817
151	0xbd28f3ba	-0.04124806
152	0x3d59d4e4	0.053181544
153	0x3cffa627	0.031207157
154	0x3de9b484	0.11411384
155	0x3dea889a	0.11451836
156	0xbbfe9d8c	-0.007770246
157	0xbe092f55	-0.13396962
158	0x3e305fb8	0.17224014
159	0xbc27a7ed	-0.010232908
160	0x3d1a2937	0.03763696
161	0x3ea39944	0.3195287
162	0x3e5f168d	0.21785946
163	0x3e4e988a	0.20175377
164	0x3b00ef69	0.001967395
165	0x3dd1ebde	0.10250066
166	0x3ea6b248	0.32557893
167	0x3efcd5b5	0.49381796
168	0xbd49efa3	-0.0493008
169	0x3f11bb11	0.56926066
170	0x3e487a2e	0.19577858
171	0x3e61d2ad	0.22053023
172	0xbe457b00	-0.19285202
173	0xbd58a3cd	-0.052890588
174	0x3c8e7d3e	0.017393705
175	0x3dfcd70e	0.12345706
176	0xbda18510	-0.07886708
177	0xbdbce5a7	-0.0922349
178	0x3e3a92c8	0.18220055
179	0x3e33c148	0.175542
180	0xbda4bdf8	-0.08044046
181	0xbe8301a7	-0.25587198
182	0xbd84a17d	-0.06476114
183	0x3e1c9bd1	0.15293814
184	0x3f5102c8	0.8164487
185	0x3e3a1023	0.18170218
186	0xbe759d1e	-0.23985717
187	0x3ea14053	0.31494388
188	0x3e353cc0	0.17698956
189	0x3d0c9294	0.034319475
190	0x3e8599e7	0.2609398
191	0x3e6f409d	0.23364492
192	0xbd2b3ee1	-0.041808013
193	0x3e586687	0.21132861
194	0x3c300c5a	0.010745132
195	0x3ca8e429	0.020616608
196	0x3dab31f3	0.083591364
197	0x3e31e26e	0.17371532
198	0x3e409189	0.18805517
199	0x3e71af5a	0.23602048
200	0x3dbdfe99	0.09277076
201	0x3dc51d37	0.09624713
202	0xbdd77403	-0.10520174
203	0x3e32e73c	0.17471021
204	0xbd3e65ae	-0.046483688
205	0x3e993cf8	0.29929328
206	0x3e3630d4	0.17792064
207	0x3e3c556f	0.18391965
208	0x3d334d4d	0.04377489
209	0x3d2554ef	0.040364202
210	0xbbd43578	-0.0064761005
211	0x3dbf4335	0.093389906
212	0x3e2c4a41	0.168252
213	0x3de19571	0.11014832
214	0xbd6280b2	-0.055298515
215	0xbd3f0203	-0.046632778
216	0x3dfe5029	0.12417633
217	0xbd387ee7	-0.0450429
218	0xbe4333b6	-0.19062695
219	0x3e5f084b	0.21780507
220	0x3e491669	0.19637455
221	0xbdfd8f51	-0.12380851
222	0xbdb8b9f3	-0.09019842
223	0xbe9a677a	-0.3015707
224	0xbc4ffc8f	-0.012694492
225	0xbe0874c9	-0.133258
226	0x3e4f2dcd	0.20232315
227	0x3e865e67	0.26243898
228	0x3df301e0	0.11865592
229	0xbe575480	-0.21028328
230	0x3b6b3eca	0.003589558
231	0x3d871739	0.06596226
232	0xbd2ad082	-0.041702755
233	0x3e0a0c4e	0.13481256
234	0x3c54042e	0.01294045
235	0x3da4ff40	0.080564976
236	0xbceb69a2	-0.028736893
237	0x3dd3e051	0.10345519
238	0xbd4442bb	-0.0479152
239	0x3e585da8	0.21129477
240	0x3ed01322	0.40639597
241	0xbc949949	-0.018139498
242	0xbdb7bea5	-0.089719094
243	0xbdfc9cc1	-0.12334586
244	0x3e17fc87	0.14842425
245	0x3e140b30	0.14457393
246	0x3e44138f	0.19148086
247	0x3da1bb64	0.0789707
248	0x3c56dec0	0.013114631
249	0x3de1ddb6	0.11028616
250	0xbcd93437	-0.026514156
251	0x3e4f021b	0.20215647
252	0xbf02a0e6	-0.5102676
253	0xbe84f9c5	-0.2597181
254	0xbe98b1e9	-0.29823235
255	0xbe3f4bad	-0.18681212

_impl.layers.1.linear.weight_g f4 [128, 1]
0	0x3fa81aaa	1.3133137
1	0x3f83b060	1.02882
2	0x3f8082fa	1.0039971
3	0x3fab2f3f	1.3373793
4	0x3fc2c48d	1.5216233
5	0x3fc0adfb	1.5053095
6	0x3f933a33	1.1502136
7	0x3f980f2b	1.1879629
8	0x3a41dfe1	0.0007395726
9	0x3fae9d59	1.3641769
10	0x3f62a05b	0.88525933
11	0x3fa15f9a	1.26073
12	0x3fc3d2ce	1.5298707
13	0x3fb01fdb	1.3759722
14	0x3fb399cb	1.4031309
15	0x3f2e75e6	0.6814865
16	0x3fbc9425	1.473271
17	0x40023679	2.0345747
18	0x3ff25969	1.8933536
19	0x3fafe514	1.3741784
20	0x3fa324a9	1.2745563
21	0x3fd8d11b	1.6938814
22	0x3fc86f32	1.5658934
23	0x3fc18ddd	1.5121418
24	0x3f974bb1	1.1819974
25	0x3fd65f2a	1.6747792
26	0x3fab4039	1.3378974
27	0x3f831460	1.0240593
28	0x3fb0a2d6	1.3799694
29	0x3fb8e0e9	1.4443637
30	0x3f73166b	0.9495608
31	0x3fab834d	1.3399445
32	0x400927d4	2.143056
33	0xba4e3266	-0.00078657863
34	0x3f90bd63	1.1307796
35	0x3f88b129	1.0679065
36	0x3f91dcd2	1.1395514
37	0x3fe80ae3	1.8128322
38	0x408a9fea	4.3320208
39	0x3fc2297f	1.5168914
40	0x3e39e351	0.1815312
41	0x3f9954d5	1.1979014
42	0x3f987e97	1.1913632
43	0x3f7cb50b	0.9871375
44	0x3faf5a55	1.3699442
45	0x3f83721f	1.0269202
46	0x3f8f0f06	1.117646
47	0x3faa33b6	1.3297031
48	0x3f5fc2c2	0.8740655
49	0x3fca4244	1.5801473
50	0x3f7eece6	0.9958023
51	0x3fb15176	1.3852985
52	0x3fdf0b73	1.7425369
53	0x3fa5e376	1.296004
54	0x3fc1eb58	1.5149946
55	0x3f9e9596	1.23894
56	0x3fe263f8	1.7686758
57	0x3f99ffa2	1.2031138
58	0x4000058e	2.000339
59	0x3fa63efd	1.2987972
60	0x3fb68f26	1.4262435
61	0x3fb24e3f	1.3930129
62	0x3fbebf6d	1.4902169
63	0x3fb2ed55	1.3978678
64	0x3fae904a	1.3637784
65	0x3f947576	1.1598346
66	0x3f8cc211	1.0996724
67	0x3f8df360	1.1089897
68	0x3f86b5e4	1.0524259
69	0x3fd7688e	1.6828783
70	0x3d85b3e9	0.06528456
71	0x3fa952f1	1.3228437
72	0x3fc3ded7	1.530238
73	0x3f8ef705	1.1169134
74	0x3f96b093	1.1772636
75	0x3fb25e1e	1.3934972
76	0x3fe23952	1.7673743
77	0x3f47ef73	0.78099746
78	0x3fafcc6a	1.3734257
79	0x3fb74357	1.4317425
80	0x3fb46b8a	1.4095318
81	0x3f923203	1.1421512
82	0x3fce09fb	1.6096796
83	0x3f82bb85	1.0213476
84	0x3fa4ea3a	1.288398
85	0x3e8b222f	0.27174518
86	0x3fd53faa	1.6660054
87	0x3fa5dc08	1.2957773
88	0x3e30b337	0.17255865
89	0x3fb685d0	1.4259586
90	0x3fc480d5	1.5351816
91	0x3f1b921e	0.6076983
92	0x3f93b324	1.1539044
93	0x3fa7cccf	1.3109378
94	0x3fbe26ef	1.4855632
95	0x3fbbac8e	1.4662035
96	0x3f98f5bd	1.1949993
97	0x3f915bcf	1.1356143
98	0x3ed234e2	0.4105597
99	0x3fb37b98	1.4022093
100	0x3f858b69	1.043317
101	0x3f419469	0.7561708
102	0x3f883048	1.0639734
103	0x3f8447b1	1.0334378
104	0x3fbc0919	1.4690276
105	0x3facb61e	1.3493078
106	0x3fbf54e4	1.4947782
107	0x3fc6610e	1.5498369
108	0x3fa89ba1	1.3172494
109	0x3fa1b16b	1.2632269
110	0x3f812b57	1.0091351
111	0x3fdf5cdc	1.7450213
112	0x3f98c01b	1.1933626
113	0x3f88db4a	1.0691922
114	0x3f45b607	0.77230877
115	0x3fc53e75	1.5409685
116	0x3f962941	1.173134
117	0x3fc5743a	1.5426095
118	0x3fa043b5	1.2520663
119	0x3f33f17a	0.7029034
120	0x40039946	2.05623
121	0x3fc31778	1.5241537
122	0x3f6bb56f	0.9207372
123	0x3f9b33f4	1.212523
124	0x3fc936c4	1.5719838
125	0x3f647189	0.8923574
126	0x3fa47fe8	1.2851534
127	0x3fcec4ea	1.6153843

_impl.layers.1.linear.bias f4 [128]
0	0xbdeb7dcf	-0.114986055
1	0xbd123ce7	-0.035702612
2	0xbddb7553	-0.10715737
3	0x3dbc56f8	0.091962755
4	0xbdf5e8e0	-0.12007308
5	0x3e2e24c3	0.17006211
6	0xbd612211	-0.05496413
7	0xbdfa988d	-0.12236128
8	0xb883ff38	-6.294105e-05
9	0xbd308360	-0.04309404
10	0x3e1eec11	0.1551974
11	0xbdf25803	-0.11833193
12	0xbe32833f	-0.17432879
13	0xbc88faf8	-0.016721234
14	0xbe273407	-0.1632844
15	0xbda1dfee	-0.07904039
16	0x3cf55fd3	0.02995292
17	0xbe5afbf5	-0.21385176
18	0x3e2d92d4	0.16950542
19	0xbc8233b7	-0.0158938
20	0xbe46b542	-0.19405082
21	0xbe1df2f8	-0.15424716
22	0xbe1a7b60	-0.15086126
23	0xbe12f116	-0.1434978
24	0xbe929ebb	-0.28636727
25	0x3d739212	0.059465475
26	0x3d691b39	0.056910727
27	0x3ca0a079	0.01960777
28	0x3d5dfaeb	0.054194372
29	0x3e35571d	0.17709012
30	0x3e1d2638	0.1534661
31	0xbe40683d	-0.18789764
32	0x3e0bf056	0.136659
33	0xb75cb130	-1.31542765e-05
34	0x3e378fc1	0.17925932
35	0xbd98967c	-0.074505776
36	0xbdae6978	-0.0851621
37	0x3e273d0a	0.16331878
38	0x3e7dada5	0.24773271
39	0xbd968559	-0.07349653
40	0xbc620273	-0.013794529
41	0xbe6b96e7	-0.23006783
42	0xbbc1ade3	-0.0059106215
43	0xbe057f20	-0.13036776
44	0xbd708a59	-0.05872569
45	0xbe3255ea	-0.17415586
46	0x3ddfcae0	0.10927367
47	0xbe2d60db	-0.16931479
48	0xbb9369e2	-0.004498706
49	0xbd1b290c	-0.037880942
50	0xbdad55ce	-0.084636316
51	0x3d202eef	0.03910726
52	0xbe2a09a1	-0.16605236
53	0xbe151649	-0.14559282
54	0xbe239a0d	-0.15976734
55	0xbe1e5c7a	-0.15464965
56	0xbdf5b263	-0.11996915
57	0xbe0e83be	-0.13917443
58	0x3e5b7825	0.2143255
59	0xbe22de71	-0.15905167
60	0xbd636dca	-0.055524625
61	0xbe2b3357	-0.16718803
62	0xbdf7e7e2	-0.12104775
63	0xbe45236b	-0.19251792
64	0xbe1a16db	-0.15047781
65	0x3e341416	0.17585787
66	0x3de51fbb	0.11187693
67	0xbdd88777	-0.10572713
68	0xbcf56357	-0.029954595
69	0xbe4a2597	-0.19740902
70	0x3b3f238c	0.0029165475
71	0xbe63a00f	-0.22229026
72	0xbdc39a19	-0.09550876
73	0xbdbd57d8	-0.092452705
74	0xbdd95187	-0.10611253
75	0xbd3951d7	-0.045244064
76	0x3e1c4a1c	0.15262645
77	0xbd4fdbf1	-0.05074686
78	0xbe08890d	-0.1333353
79	0xbd25d3c7	-0.04048517
80	0xbdf495f8	-0.11942667
81	0xbe088b45	-0.13334377
82	0xbd733c08	-0.059383422
83	0x3de383d4	0.111091286
84	0xbd6d34d7	-0.05791172
85	0x3c8c0785	0.01709343
86	0xbe09cb26	-0.13456401
87	0xbe21c0f0	-0.15796256
88	0x3ca093f4	0.0196018
89	0xbe46c072	-0.1940935
90	0xbe35988e	-0.17733976
91	0xbdbf392a	-0.09337075
92	0xbdd4df5b	-0.10394164
93	0xbdc6c3fe	-0.09705351
94	0xbe193afc	-0.14963907
95	0x3deebcc7	0.116571
96	0x3d0d485b	0.03449283
97	0x3e575022	0.21026662
98	0xbd798e71	-0.06092686
99	0xbd362f48	-0.044478685
100	0x3e2317e3	0.15927081
101	0x3d9c22f5	0.07623855
102	0xbe0a20ba	-0.13489047
103	0xbd7c012a	-0.061524548
104	0x3c9e9cb4	0.019361831
105	0xbe1b7c60	-0.15184164
106	0x3e3e669f	0.18593834
107	0xbe20998b	-0.15683572
108	0xbe2b6469	-0.16737522
109	0x3d88a81b	0.066726886
110	0x3d380944	0.04493071
111	0xbe4dfe42	-0.20116523
112	0xbe1c5ab0	-0.1526897
113	0xbe2542cd	-0.16138764
114	0xbdd5d8c7	-0.104417376
115	0x3e70483d	0.23465057
116	0x3ce993c1	0.028512837
117	0xbe3319fe	-0.17490384
118	0xbe03203e	-0.12805268
119	0x3d6e68ed	0.058205534
120	0xbdf26a6f	-0.11836707
121	0xbdd176f5	-0.102277674
122	0x3c5b77ee	0.013395293
123	0x3e1365bb	0.14394276
124	0xbe10af19	-0.14129294
125	0xbdc98642	-0.09840061
126	0xbe157d95	-0.14598687
127	0x3e019ac8	0.126567

_impl.layers.2.linear.weight f4 [128, 128]
0	0xbd4644a9	-0.048405323
1	0xbd16e94b	-0.03684358
2	0xbe936976	-0.28791398
3	0x3ef3da69	0.4762757
4	0xbc507fe7	-0.012725807
5	0xbdebb1bb	-0.11508509
6	0x3d77fda0	0.06054461
7	0x3dff84fa	0.12476535
8	0x3f4b5d4b	0.7943923
9	0xbe7c145b	-0.2461714
10	0x3e20d49d	0.15706106
11	0xbc224c0c	-0.009905826
12	0x3dc6342a	0.09677918
13	0xbe869a23	-0.26289472
14	0x3d83b83e	0.06431626
15	0x3ed3f2e3	0.41396245
16	0xbda328be	-0.07966755
17	0xbe283abe	-0.16428658
18	0xbee6e229	-0.45094422
19	0xbe9090c8	-0.2823546
20	0x3cf90c67	0.030401422
21	0xbd8edfff	-0.069763176
22	0xbcd825fd	-0.026385302
23	0xbd4e82e3	-0.050417792
24	0x3d25ca2c	0.04047601
25	0xbe940954	-0.28913367
26	0xbc539e61	-0.012916178
27	0xbcd173a3	-0.025567835
28	0xbe41173b	-0.18856518
29	0xbcc0a417	-0.023515744
30	0x3dac0004	0.083984405
31	0xbd6f233e	-0.05838322
32	0xbe91bf93	-0.28466472
33	0xbf1251ed	-0.5715626
34	0xbe29154d	-0.16512032
35	0xbd9013b5	-0.07035009
36	0xbda89f81	-0.08233548
37	0xbd85c7e2	-0.06532265
38	0x3d69862c	0.057012722
39	0xbd65f7ea	-0.056144632
40	0x3f022527	0.5083794
41	0xbd842844	-0.064529926
42	0xbe60d885	-0.21957596
43	0xbe573ed1	-0.21020056
44	0xbdfd5bef	-0.123710506
45	0xbe42b7dc	-0.1901545
46	0xbcc43f66	-0.023956012
47	0x3cdbde0d	0.02683928
48	0xbe1c7a86	-0.15281114
49	0xbe1d35c1	-0.15352537
50	0xbe10412a	-0.14087358
51	0xbe4cf7de	-0.20016429
52	0xbe623cb4	-0.22093469
53	0xbe930cdb	-0.28720745
54	0xbeafd7d7	-0.3434436
55	0x3cba7ce1	0.022764625
56	0x3e02c3ac	0.12769955
57	0xbe5591ef	-0.2085645
58	0x3cf24d56	0.029577892
59	0xbc47a77e	-0.012185929
60	0xbdaa9ea4	-0.083310395
61	0xbe1df635	-0.15425952
62	0x3c441bf2	0.011969553
63	0x3db53ad1	0.08849109
64	0x3d99d60f	0.075115316
65	0x3e0844cb	0.13307492
66	0x3dddf5fa	0.10837932
67	0x3dd87362	0.105688825
68	0x3e6d096f	0.2314813
69	0xbd5550d4	-0.052079037
70	0xbf38a2ae	-0.7212323
71	0xbc93ecf9	-0.018057333
72	0xbde94876	-0.11390774
73	0xbe0e4e11	-0.13896967
74	0x3e7d41ce	0.24732134
75	0xbe6d1da9	-0.23155846
76	0xbc11c566	-0.008897161
77	0xbd40561e	-0.046957128
78	0x3d8f0a5b	0.06984397
79	0xbeb6fa1f	-0.35737702
80	0xbdc00ad0	-0.09377062
81	0xbe64a2e6	-0.22327766
82	0xbd98b6eb	-0.07456764
83	0xbf0c7db5	-0.54879314
84	0xbe0e09f9	-0.13870992
85	0xbe91dd19	-0.28488997
86	0xbe044120	-0.12915468
87	0xbcd8a16d	-0.026444161
88	0xbf2f7f31	-0.68553454
89	0x3e1902b6	0.1494244
90	0xbe02cef6	-0.12774262
91	0xbed014cd	-0.4064087
92	0x3dbd528c	0.0924426
93	0xbeb58565	-0.35453334
94	0x3d0c345a	0.034229614
95	0xbcb5e8f8	-0.022205815
96	0xbe2780eb	-0.16357772
97	0x3dde8b9a	0.10866471
98	0xbf1b3c4e	-0.6063889
99	0xbd37cfd7	-0.044875946
100	0xbe12169d	-0.14266439
101	0xbdf9cfe8	-0.12197858
102	0x3eca9b6c	0.39571702
103	0x3e3767cc	0.17910689
104	0xbdb24aef	-0.08705699
105	0x3b9b558e	0.0047404235
106	0xbcace549	-0.021105425
107	0x3cd43ded	0.025908435
108	0x3de3daaf	0.11125695
109	0xbcad5f07	-0.021163477
110	0x3d9e662e	0.07734333
111	0xbe17da39	-0.14829339
112	0xbc33e965	-0.010980939
113	0xbea343bc	-0.31887615
114	0x3eabb348	0.33535218
115	0xbd77117b	-0.060319405
116	0xbdba352e	-0.090921745
117	0xbd8c5ae1	-0.06853271
118	0xbf1781ae	-0.5918225
119	0xbbc21acd	-0.005923605
120	0xbe6e202e	-0.23254463
121	0xbe379109	-0.1792642
122	0xbe0e45ee	-0.13893864
123	0x3cec9415	0.028879205
124	0x3e441428	0.19148314
125	0xbac25a31	-0.0014827905
126	0xbd81833e	-0.063238606
127	0xbea5e2c0	-0.3239956
128	0x3da89430	0.082313895
129	0xbdbe14f0	-0.09281337
130	0x3ca11f39	0.019668208
131	0xbd05092e	-0.032479458
132	0x3d80a630	0.06281698
133	0xbe08ffe3	-0.13378863
134	0x3c2d4852	0.010576325
135	0xbcdfdee5	-0.027327964
136	0x399cdc96	0.00029918988
137	0x3dd05213	0.101719044
138	0xbcac87e4	-0.021060891
139	0x3d4916db	0.049094062
140	0x3e84fe8f	0.25975463
141	0x3dcc4258	0.099735916
142	0x3e6cac8f	0.23112701
143	0x3aa2ba94	0.0012415224
144	0x3ce7660e	0.028246906
145	0x3ed6cc38	0.41952682
146	0x3c6ceacb	0.014460276
147	0x3dd21896	0.10258596
148	0x3df3d8f3	0.11906614
149	0x3e96ef43	0.29479417
150	0xbcb67efb	-0.022277346
151	0x3e8294af	0.25504062
152	0x3d99bbb4	0.07506505
153	0x3d89d8ba	0.067307904
154	0xbc8d7c9b	-0.01727133
155	0xbd2345cf	-0.039861497
156	0x3b58835a	0.0033037276
157	0xbdedb669	-0.116070576
158	0xbd410c57	-0.04713091
159	0x3da80918	0.082048595
160	0x3d5b4779	0.05353496
161	0xb7d6f20a	-2.5623496e-05
162	0xbdacff13	-0.08447089
163	0x3d94db13	0.072683476
164	0xbd86fe04	-0.065914184
165	0xbe029ff5	-0.12756331
166	0xbd485068	-0.048904806
167	0x3d313405	0.0432625
168	0x38255eff	3.9427538e-05
169	0x3d993d01	0.07482339
170	0x3ddadad7	0.10686272
171	0x3cb28de7	0.02179618
172	0x3d9ce006	0.076599166
173	0x3ca82571	0.020525666
174	0xbd0c2211	-0.034212176
175	0x3d98f48f	0.07468521
176	0xbbdc7ed5	-0.0067289867
177	0xbdda9074	-0.106720835
178	0x3cbe8207	0.023255361
179	0xbc502ad5	-0.012705524
180	0x3ead93ed	0.3390192
181	0x3e685dc2	0.22692016
182	0x3d81f550	0.06345618
183	0x3e4fec96	0.20305094
184	0x3ea063b7	0.31326076
185	0x3d2a4476	0.041569196
186	0xbe106f13	-0.14104871
187	0x3da24297	0.07922857
188	0xbdc41d86	-0.09575944
189	0x3e69b683	0.22823529
190	0x3e6b4967	0.2297722
191	0xbc4d7acf	-0.012541487
192	0x3d8ad650	0.06779158
193	0xbd83bc9c	-0.06432459
194	0xbcbeba88	-0.023282304
195	0x3c62efaf	0.01385109
196	0x3d8426c4	0.064527065
197	0x3ea0ef75	0.3143269
198	0x399e2187	0.00030161088
199	0x3da270dd	0.07931683
200	0x3ce63aff	0.028104303
201	0x3b44f5ad	0.003005366
202	0x3cb27d50	0.02178827
203	0x3dcc1c1a	0.099662974
204	0xbdc9cde9	-0.09853727
205	0x3cb1b3c0	0.021692157
206	0x3e5f183b	0.21786587
207	0x3db177e4	0.086654454
208	0x3a29e552	0.000648101
209	0x3e1bf26a	0.15229192
210	0x3e82fd5a	0.25583917
211	0xbccf51f0	-0.025307626
212	0x3dc384e9	0.09546835
213	0x3a8d0994	0.0010760301
214	0x3dfef34a	0.124487475
215	0xbc7d7cd9	-0.0154716605
216	0xb9e69a75	-0.00043984098
217	0x3e670c4e	0.22563288
218	0x3e906efc	0.28209674
219	0x3c531cc0	0.0128852725
220	0x3e22a518	0.15883291
221	0x3d188595	0.03723677
222	0x3e879fcc	0.26489103
223	0xbd2c8763	-0.042121302
224	0x3c89398a	0.01675107
225	0xbd5c135a	-0.053729393
226	0x3bd492e8	0.006487239
227	0x3dbb75c2	0.0915332
228	0xbd4169a2	-0.04721988
229	0xbac88ee7	-0.0015301377
230	0x3cc7fd5f	0.024412809
231	0x3cb146e1	0.021640243
232	0x3bd37d9b	0.0064541823
233	0x3e73caa5	0.23807772
234	0xbe08ae20	-0.13347673
235	0x3cb58595	0.022158423
236	0x3d99bbc8	0.075065196
237	0x3caa2078	0.020767435
238	0xbdf7e85e	-0.121048674
239	0x3e8ca600	0.27470398
240	0xbc8ffed8	-0.017577574
241	0x3ccfadd9	0.025351452
242	0x3c814146	0.015778195
243	0xbe0502a4	-0.12989289
244	0xbe46c4cb	-0.19411008
245	0x3e906804	0.28204358
246	0x3d248874	0.040169194
247	0xbb3dfc3a	-0.002898945
248	0x3e6b1350	0.22956586
249	0xbdab4708	-0.083631575
250	0xbc8f0638	-0.01745902
251	0xbd08142d	-0.033222366
252	0x3e845272	0.2584415
253	0x3da23adb	0.07921382
254	0x3d886aa2	0.066609636
255	0x3bb433a9	0.0054993224

_impl.layers.2.linear.weight_g f4 [128, 1]
0	0xb997c918	-0.0002895079
1	0x40357f8e	2.8359103
2	0x3f52ec12	0.82391465
3	0x3ff6ab02	1.9270937
4	0x3f9f525a	1.2447007
5	0x3fc14dd2	1.5101874
6	0x3fd175a2	1.6364024
7	0x3fdb7b4e	1.7147005
8	0x3f985cdd	1.190334
9	0x401e5e65	2.4745114
10	0x3fda4f1d	1.7055393
11	0x3fe99ed7	1.8251599
12	0x3fc2f327	1.5230454
13	0x400bc295	2.1837513
14	0x40022d02	2.033997
15	0x3f89dca6	1.0770462
16	0x4002b351	2.0421946
17	0x3f83ff5b	1.0312303
18	0x3f924d5c	1.1429858
19	0x3f98d281	1.1939241
20	0x3f9723e6	1.180783
21	0x3f8486ef	1.0353678
22	0x3fd50cb3	1.66445
23	0x3faf39e5	1.3689543
24	0x3fafba71	1.3728772
25	0x4023995f	2.556236
26	0x3fa73a1b	1.3064607
27	0x3fdf3828	1.7439013
28	0x3f2d1018	0.6760268
29	0x3fa58111	1.2930013
30	0x3faab597	1.3336667
31	0x3fab5dbc	1.338798
32	0x3f8562d2	1.0420783
33	0x3fb84c4d	1.4398285
34	0x3fd8ea7c	1.6946559
35	0x3fb27318	1.3941374
36	0x3f87e1b3	1.0615753
37	0x3fa82452	1.3136084
38	0x3f7b9687	0.9827656
39	0x3fc9215a	1.5713303
40	0x3fe4071a	1.7814667
41	0x3f43183f	0.7620887
42	0x3fa03b0c	1.251802
43	0x3f7b2de6	0.9811691
44	0x4004cfaa	2.0751748
45	0x3fbf5c17	1.4949979
46	0x3f8a76b0	1.081747
47	0x3f837904	1.0271306
48	0x3fbd9dd7	1.4813794
49	0x3f979276	1.1841571
50	0x3fe89d35	1.8172976
51	0x3fae80d7	1.3633069
52	0x3f8b52c9	1.0884639
53	0x3f4da390	0.803277
54	0x3fc5d3e3	1.5455288
55	0x3fc1b7a2	1.5134165
56	0x3f9b2be6	1.2122772
57	0x3fa3090e	1.2737138
58	0x3f6ff773	0.9373695
59	0x3fad7ee7	1.3554353
60	0x3f59436e	0.84868515
61	0x3f99e1d8	1.2022047
62	0x401548f8	2.3325787
63	0x3fb4d7f4	1.4128404
64	0x3f11b51d	0.5691698
65	0x3fe2b248	1.7710657
66	0x3f983034	1.188971
67	0x3fd5640f	1.667116
68	0x400d5342	2.2082067
69	0x3dc998d6	0.09843604
70	0x3faf4bf6	1.3695056
71	0x3fbcc692	1.4748099
72	0x3fce5818	1.6120634
73	0x3f92c315	1.1465784
74	0x3fa11430	1.2584286
75	0x3fd5b50f	1.669588
76	0x4022e7f5	2.5454075
77	0x3faaf626	1.3356369
78	0x3f6248ec	0.8839252
79	0x3ff16d08	1.8861399
80	0x3f9aeab1	1.2102872
81	0x3ff6425e	1.9239004
82	0x3fc5ce1b	1.5453523
83	0x3fb8653a	1.4405892
84	0x3fd27f81	1.6445161
85	0x3f96f613	1.1793846
86	0x3fd201b1	1.6406766
87	0x402f189e	2.7358775
88	0x3f65adfc	0.89718604
89	0x3fc0cf90	1.5063343
90	0x401c92d8	2.4464626
91	0x3f93c79e	1.1545293
92	0x3fd7ad77	1.6849812
93	0x402e2cd6	2.7214866
94	0x3f86f3b3	1.0543121
95	0x3fa904fd	1.3204647
96	0x4040cc4c	3.0124693
97	0x3fb862be	1.4405134
98	0x3fb1ee64	1.3900876
99	0x3fc4d96b	1.5378851
100	0x3fa3393c	1.2751842
101	0x3f9917b9	1.1960365
102	0x3fc5a049	1.543954
103	0x3fb709a8	1.4299822
104	0x408055b8	4.0104637
105	0x3fb01fc0	1.3759689
106	0x3fc62e40	1.5482864
107	0x3fcd57db	1.6042436
108	0x3faad3df	1.3345908
109	0x402de770	2.7172508
110	0x3f16e3d8	0.5894141
111	0x3f9a19b2	1.2039092
112	0x3fd05dc1	1.6278611
113	0x3ff35488	1.9010172
114	0x3f0befc4	0.5466273
115	0x3fb0874f	1.3791293
116	0x3fa969fd	1.323547
117	0x3fa65e37	1.2997502
118	0x3facd4e7	1.3502473
119	0x3f85ffaf	1.0468653
120	0x40012243	2.0177162
121	0x4032394f	2.7847478
122	0x3fc3f150	1.5308018
123	0x3f973ee5	1.1816069
124	0x3f8ebc65	1.1151243
125	0x400448a1	2.066933
126	0x3fae90f5	1.3637987
127	0x3fd3ddb9	1.6552039

_impl.layers.2.linear.bias f4 [128]
0	0x39e446b5	0.0004354023
1	0xbe9d17c9	-0.3068221
2	0xbdc58e91	-0.09646333
3	0xbcb55dfb	-0.02213954
4	0xbd67157d	-0.056416977
5	0x3e5edcdc	0.21763939
6	0xbe12c181	-0.14331628
7	0x3e33e97f	0.1756954
8	0x3a70f9f0	0.0009192517
9	0xbe8a3973	-0.26996955
10	0xbc15f4e4	-0.009152625
11	0x3ec04aa4	0.37556946
12	0xbdba61e9	-0.09100706
13	0xbd86153f	-0.06547021
14	0xbe6d6971	-0.23184754
15	0x3bb4affe	0.005514144
16	0x3d9c8681	0.07642842
17	0x3e4497df	0.19198559
18	0xbd25b558	-0.040456146
19	0xbc80f850	-0.015743405
20	0x3e68cf54	0.2273534
21	0xbd3b133f	-0.04567265
22	0x3cefae4f	0.029257922
23	0xbdec4d83	-0.11538222
24	0xbd5fb1db	-0.054612976
25	0x3cdcbea4	0.026946373
26	0xbe170a00	-0.14749908
27	0x3cdb259b	0.02675133
28	0xbdc68de1	-0.0969503
29	0x3d019268	0.031633765
30	0xbd866426	-0.065620705
31	0xbd9ddeaa	-0.077084854
32	0xbe20bc1e	-0.15696761
33	0xbc508781	-0.012727619
34	0x3d9b7dad	0.0759233
35	0xbd6ffcdc	-0.058590755
36	0x3c9bbed0	0.019011885
37	0xbd6426c4	-0.055701032
38	0xbc2316c6	-0.00995416
39	0xbdb09608	-0.08622366
40	0x3ecca8e6	0.3997261
41	0x3da1f253	0.07907548
42	0x3d8d6134	0.06903306
43	0x3d5336ed	0.051566053
44	0xbe56e99d	-0.20987554
45	0xbcc03031	-0.02346048
46	0xbd1450b5	-0.03620978
47	0x3c4339c8	0.011915632
48	0x3e9f6886	0.31134433
49	0x3e656908	0.22403347
50	0x3cc2ac3e	0.023763772
51	0xbe027c88	-0.12742817
52	0xbccf3d00	-0.025297642
53	0x3ce5f782	0.028072122
54	0x3e4b1796	0.19833216
55	0xbd9d3023	-0.07675197
56	0x3d2b4293	0.041811537
57	0xbb636139	-0.00346954
58	0x3cc8d00e	0.02451327
59	0xbcfa760d	-0.03057387
60	0xbc7fb5be	-0.015607296
61	0x3ca36675	0.019946316
62	0xbe618a87	-0.220255
63	0xbdb19194	-0.08670345
64	0xbd67a546	-0.0565541
65	0x3dce47dc	0.100723
66	0xbdac2696	-0.08405797
67	0x3e50dae7	0.20396005
68	0x3d86c24a	0.065800264
69	0x38ca1e4a	9.6377524e-05
70	0x3e0ad991	0.13559557
71	0x3c934a6c	0.017979823
72	0x3c877eec	0.016540013
73	0x3ca8794d	0.020565653
74	0x3e3fe2e2	0.18738893
75	0x3db4b94e	0.088244066
76	0x3e0186d1	0.12649085
77	0x3d5ee5b0	0.054418266
78	0xbcf2333c	-0.029565446
79	0x3e8584f7	0.26078007
80	0xbe084a78	-0.13309658
81	0xbb8b9475	-0.004259641
82	0xbdb406b8	-0.08790344
83	0x3e4c6126	0.19958934
84	0xbb68c4c8	-0.0035517681
85	0x3e060188	0.13086522
86	0xbd22c420	-0.03973782
87	0x3db45cf4	0.08806792
88	0xbc5d09a2	-0.013491066
89	0x3de07a22	0.10960795
90	0x3f0eec18	0.55829
91	0xbd80282b	-0.062576614
92	0xbd2d3afc	-0.04229258
93	0x3dd34577	0.10315984
94	0xbe20c686	-0.1570073
95	0xbdf4b9e8	-0.11949521
96	0xbe8542fe	-0.26027673
97	0xbda3d610	-0.079998136
98	0x3d6dc5d5	0.058049995
99	0x3da574c5	0.08078913
100	0xbd860ac1	-0.0654502
101	0x3e2fed8c	0.1718046
102	0x3d8355e9	0.064128704
103	0x3e4e8ab8	0.20170105
104	0x3c65b8dc	0.014021125
105	0xbc95c72b	-0.018283447
106	0xbd80518b	-0.06265553
107	0xbc0ff8ab	-0.008787314
108	0x3e09052f	0.13380884
109	0xbe8caa55	-0.27473703
110	0x3d254bd2	0.04035551
111	0x3dbfcebc	0.09365603
112	0xbdb60271	-0.088871844
113	0x3cacea30	0.021107763
114	0xbd647930	-0.055779636
115	0xbcaf4a38	-0.021397695
116	0x39ec728c	0.00045098772
117	0x3ba45da0	0.005016044
118	0xbda6a59e	-0.08137058
119	0xbca8d234	-0.020608045
120	0x3d770a46	0.060312532
121	0x3e1738aa	0.1476771
122	0xbddc71b8	-0.10763878
123	0xbd5ac750	-0.053412735
124	0xbd8b0038	-0.06787151
125	0x3e463c54	0.19358951
126	0x3e79b6f4	0.24386197
127	0x3c3b3054	0.011425097

_impl.layers.3.linear.weight f4 [128, 128]
0	0xbec16955	-0.37775674
1	0x3c658a7d	0.014010069
2	0xbdb5a23a	-0.08868833
3	0x3da610c6	0.08108668
4	0x3d9873fb	0.074439965
5	0xbd1d0a4d	-0.0383399
6	0xbde24c85	-0.11049751
7	0xbc9cadcc	-0.019125842
8	0xbf0562e2	-0.5210401
9	0x3d60fa43	0.05492617
10	0xbef60bfb	-0.48056015
11	0x3d4fb573	0.050710153
12	0xbd8254b8	-0.06363815
13	0xbce184fb	-0.02752923
14	0xbd7bfe93	-0.061522078
15	0xbe7e6d0f	-0.2484629
16	0x3f17e4ea	0.5933367
17	0xbd9c28c2	-0.076249614
18	0xbe1e45a4	-0.15456253
19	0xbe50611a	-0.20349541
20	0x3dc5285f	0.09626841
21	0xbdc2856a	-0.09498103
22	0x3c550171	0.013000832
23	0xbe5f6f7f	-0.21819876
24	0x3d5a5dfe	0.053312294
25	0xbf0f7630	-0.56039715
26	0x3e583ef9	0.21117772
27	0x3e8eba05	0.27876297
28	0x3e83bc91	0.25729802
29	0x3e9d9ccc	0.3078369
30	0xbde65016	-0.11245744
31	0x3d1af46e	0.037830763
32	0x3cc07666	0.023493957
33	0xbe84b0cb	-0.25916132
34	0x3e7a6ace	0.24454805
35	0x3e5a4547	0.2131549
36	0x3e8d2fa8	0.2757542
37	0xbdf49716	-0.1194288
38	0xbe7df46b	-0.2480027
39	0x3f168318	0.58793783
40	0xbdd5527f	-0.104161255
41	0xbe9061b5	-0.28199545
42	0xbda68615	-0.08131043
43	0xbd0bb38d	-0.03410678
44	0x3dc82175	0.097720064
45	0x3ee0b56a	0.43888408
46	0xbc32b28c	-0.010906827
47	0x3cff4f8a	0.031165857
48	0xbe2e5378	-0.17024028
49	0x3e139d52	0.14415482
50	0x3c807932	0.01568279
51	0xbd161378	-0.03663966
52	0xbcdac3ca	-0.026704688
53	0x3c6b55d5	0.014363726
54	0xbe06f03f	-0.13177584
55	0x3e064406	0.13111886
56	0xbe25744e	-0.16157648
57	0xbd57f98d	-0.052728225
58	0xbea985de	-0.33109945
59	0x3d21afea	0.039474405
60	0xbe305e51	-0.17223479
61	0x3c48ef33	0.012264061
62	0x3b54132a	0.0032360055
63	0xbda0092a	-0.07814248
64	0x3e1bd63c	0.15218443
65	0x3d99a653	0.07502427
66	0xbe8e9462	-0.27847582
67	0xbddaffb1	-0.106933005
68	0x3e68e19a	0.2274231
69	0xbf222ccb	-0.633496
70	0x3e188e63	0.14898066
71	0xbc47b743	-0.012189689
72	0xbe8abbac	-0.27096307
73	0xbe44e89e	-0.19229361
74	0xbecf95d2	-0.4054399
75	0x3e9de3e1	0.3083792
76	0xbe9e3693	-0.30901012
77	0x3dd7b0c8	0.10531765
78	0xbd6226a3	-0.055212628
79	0xbe3011ff	-0.17194365
80	0xbe110284	-0.14161116
81	0xbe98be5c	-0.29832733
82	0x3e341954	0.17587787
83	0xbdaa563b	-0.083172284
84	0xbe581964	-0.21103436
85	0x3e2ba047	0.1676036
86	0x3e10a37a	0.14124861
87	0x3df90b77	0.1216039
88	0xbda3c123	-0.07995822
89	0x3e44276c	0.19155663
90	0x3d8f6619	0.070018955
91	0xbca39968	-0.01997061
92	0xbea4894b	-0.32135996
93	0xbd395106	-0.045243286
94	0x3f09de7c	0.5385511
95	0x3ec4fe95	0.3847548
96	0x3e382bbd	0.17985435
97	0x3dbe3b0c	0.09288606
98	0x3f18e2d0	0.5972109
99	0x3dc4ddbe	0.096126065
100	0x3e634a23	0.2219625
101	0xbe989395	-0.29800096
102	0x3ce9e8ed	0.02855345
103	0x3da96948	0.08272034
104	0x3f1bcd51	0.6086016
105	0xbe337ddc	-0.1752848
106	0x3d9b4428	0.07581359
107	0x3d49c6a3	0.0492617
108	0xbd9c3c87	-0.07628732
109	0x3cb81a62	0.022473518
110	0x3c074d01	0.008258105
111	0xbd8a3dc9	-0.06750066
112	0x3e4fdbc7	0.20298682
113	0x3e2ea225	0.1705404
114	0x3eb6cc20	0.3570261
115	0xbd23ad56	-0.039960228
116	0xbdb8e8cb	-0.09028777
117	0xbe661904	-0.2247048
118	0x3e241b26	0.16025981
119	0xbdd27c82	-0.10277654
120	0xbe11c7ee	-0.14236423
121	0x3e2767bf	0.1634817
122	0xbe0e4720	-0.1389432
123	0xbd066899	-0.032814596
124	0x3e1737a4	0.14767319
125	0x3e7ea1f8	0.24866474
126	0x3e4758ad	0.19467421
127	0x3e97c9dc	0.29646194
128	0x3e565bfc	0.20933527
129	0xbe288562	-0.16457132
130	0xbdf9bb4a	-0.12193926
131	0xbe2f8458	-0.17140329
132	0x3e2b2a9f	0.16715477
133	0x3e14eff4	0.1454466
134	0x3ca640fd	0.02029466
135	0xbe0f164f	-0.13973354
136	0x3e989024	0.2979747
137	0xbe658d1e	-0.22417113
138	0xbe130f61	-0.14361335
139	0xbdcc991b	-0.0999014
140	0xbd3baada	-0.045817234
141	0xbc4cbc95	-0.012496133
142	0xbe8c4481	-0.27396014
143	0xbe3bca50	-0.18338895
144	0x3f2be77c	0.6715009
145	0x3bec276a	0.007206847
146	0xbe6b0008	-0.2294923
147	0x3d8b83e2	0.06812264
148	0x3e01898c	0.12650126
149	0xbe1a82e6	-0.15088996
150	0xbe1338ca	-0.14377132
151	0x3d93ff4d	0.07226429
152	0x3de1574d	0.110029794
153	0x3f3892d6	0.72099054
154	0xbc0ac0a6	-0.0084687825
155	0xbea7062f	-0.32621905
156	0xbee298ac	-0.44257104
157	0xbf1ac64a	-0.60458815
158	0xbce6d26f	-0.028176514
159	0xbc879652	-0.01655117
160	0xbdf612dc	-0.12015316
161	0xbdf63eea	-0.12023719
162	0xbcd38a5c	-0.02582281
163	0xbec99a47	-0.39375517
164	0xbe535fd3	-0.20642023
165	0xbe59ea76	-0.21280846
166	0xbe1599df	-0.14609478
167	0xbe57c50e	-0.21071264
168	0x3df23748	0.1182695
169	0x3e2e370d	0.17013188
170	0x3d6177b7	0.05504581
171	0xbc2c8523	-0.010529789
172	0x3d66ceea	0.056349672
173	0xbe532a2c	-0.20621556
174	0xbf124818	-0.57141256
175	0x3d9673ae	0.07346283
176	0xbd7c17e0	-0.061546206
177	0xbd565123	-0.05232347
178	0x3bd5caa0	0.006524399
179	0xbd970b55	-0.07375208
180	0x3b526c81	0.003210813
181	0x3d96b310	0.07358372
182	0x3dac92a5	0.08426408
183	0x3e6d6dc0	0.23186398
184	0xbe8c61a8	-0.27418256
185	0x3dc8f1ba	0.09811731
186	0xbd363252	-0.044481583
187	0xbc9fe231	-0.019517036
188	0x3e23a90b	0.15982454
189	0x3de8ed5d	0.113733985
190	0xbe10d18c	-0.14142436
191	0x3e19d24e	0.15021631
192	0x3e89c99a	0.26911622
193	0xbd984892	-0.07435717
194	0x3bcf6a14	0.006329784
195	0x3e88f8c4	0.26752293
196	0xbe09a7aa	-0.13442865
197	0x3ebeaa57	0.37239334
198	0x3dd6e9f3	0.10493841
199	0xbda3a678	-0.07990736
200	0xbc8f837e	-0.017518755
201	0xbe6be77d	-0.23037525
202	0xbdf26d8c	-0.11837301
203	0xbeb7da78	-0.35908866
204	0x3e0cc21a	0.13745919
205	0x3d6981f6	0.057008706
206	0xbe7f18dd	-0.24911828
207	0x3e2f6930	0.1712997
208	0x3da1f0de	0.0790727
209	0x3e454edf	0.19268368
210	0x3e4fd3f1	0.20295693
211	0xbe201c43	-0.15635781
212	0xbe90ffd2	-0.28320175
213	0x3d88f76d	0.06687818
214	0xbc889fd1	-0.016677769
215	0x3f252c29	0.6452051
216	0x3e205a68	0.15659487
217	0x3e4aff0b	0.19823854
218	0xbc485eaa	-0.012229601
219	0x3e556847	0.2084056
220	0x3e316c79	0.17326535
221	0x3cb41f2e	0.021987524
222	0x3ed95552	0.42447907
223	0x3d5729d5	0.05253013
224	0x3e31edd8	0.17375886
225	0xbd12d225	-0.03584494
226	0xbe8fafed	-0.28063908
227	0xbe62199d	-0.22080083
228	0xbda073af	-0.07834565
229	0xbaa2882f	-0.0012400205
230	0x3d0a1f5d	0.033721317
231	0xbf1bdaed	-0.6088093
232	0x3cb1ace4	0.021688886
233	0xbd36d51e	-0.04463684
234	0x3d910a2c	0.07082018
235	0x3dd85565	0.10563163
236	0xbe0af654	-0.13570529
237	0xbe8c2f4a	-0.2737983
238	0x3ce2068f	0.027591018
239	0x3e1d4c1e	0.15361068
240	0x3b94a46f	0.0045362036
241	0xbf0ffd66	-0.5624603
242	0x3ef59cb9	0.47971132
243	0x3ded65e8	0.11591703
244	0xbebd8e4d	-0.3702263
245	0xbe93939b	-0.28823552
246	0xbe0967b6	-0.13418469
247	0xbd1d201c	-0.0383607
248	0xbb1e7c25	-0.0024182883
249	0x3d92d2bd	0.071691014
250	0x3dda941f	0.10672783
251	0xbde8641f	-0.113472216
252	0x3e8f18f5	0.27948728
253	0x3dcfa5eb	0.10139068
254	0xbdce6c08	-0.10079199
255	0x3d6a5c74	0.057217076

_impl.layers.3.linear.weight_g f4 [128, 1]
0	0xba006925	-0.000489848
1	0x3ac3bd0e	0.0014933662
2	0x3f951ae9	1.1648837
3	0x3f77074c	0.9649551
4	0x3dbb825e	0.09155725
5	0x3ed415c1	0.41422847
6	0x4008a9c8	2.1353626
7	0x3fbe1db4	1.4852815
8	0x3f9a97c9	1.2077571
9	0x3e364c63	0.17802577
10	0xbb34a950	-0.0027566738
11	0x3df256a7	0.11832934
12	0x403b4f7f	2.926727
13	0x3f4feffb	0.81225556
14	0x3ad270eb	0.0016055381
15	0x3fee9799	1.8640014
16	0x3f4bb32c	0.7957027
17	0x3df024b6	0.11725752
18	0x3f97eb57	1.1868695
19	0x4008b022	2.1357503
20	0x3f3a96dc	0.72886443
21	0x3f24877e	0.64269245
22	0x3fa8acd0	1.3177738
23	0x3f68fed8	0.9101386
24	0x3f8cfa3e	1.1013868
25	0x407a79f5	3.9136937
26	0x3f8cc05f	1.0996207
27	0x3fe58eb8	1.7934179
28	0x3f5f9955	0.8734334
29	0x3fa7dbf9	1.3114005
30	0x3fb49cd2	1.4110358
31	0x3fbb9a69	1.4656497
32	0x3f608fd4	0.87719464
33	0x3ec8f9b8	0.3925302
34	0x3fef79be	1.8709028
35	0x3f50a2cd	0.81498414
36	0x3ca42a89	0.020039814
37	0x3f378dcd	0.71700746
38	0x3fa13b23	1.2596172
39	0x3fac5d25	1.3465925
40	0x3a0c020b	0.00053408806
41	0x3e3dbc7e	0.18528935
42	0x3fa21073	1.266127
43	0x3f87ab8f	1.059923
44	0x3fadebbb	1.3587564
45	0x3f687724	0.90806794
46	0x3fa44f88	1.2836771
47	0x3fb2deb2	1.3974211
48	0x3a6d171c	0.0009044276
49	0x3f73ea98	0.95279837
50	0x3f996846	1.1984947
51	0x3fa89770	1.3171215
52	0x3fde9a80	1.73909
53	0x3d683fe6	0.056701563
54	0x3f9770f2	1.1831343
55	0x3f822d87	1.0170144
56	0x3fd67eef	1.6757487
57	0x3f948bc2	1.1605151
58	0x3fa7d394	1.3111444
59	0x3ff1b063	1.8881954
60	0x4020b8cb	2.5112789
61	0x3fd8c942	1.6936419
62	0x3fb1422d	1.384832
63	0x3f3c89e9	0.73647934
64	0x3e2f8cb7	0.17143522
65	0x3f2b5c5d	0.6693781
66	0x408ec202	4.4611826
67	0x3fcda628	1.6066332
68	0x3ff7239b	1.9307741
69	0x4004a34c	2.0724669
70	0xb9bf1fe1	-0.0003645411
71	0x3ff9c407	1.9512948
72	0x3ccf5783	0.025310284
73	0x3f714ebc	0.94260764
74	0x3fd9c96b	1.7014593
75	0x3f956095	1.16701
76	0x3fe3e6da	1.7804825
77	0x3f83c9b7	1.0295933
78	0x3acbb4a4	0.0015541506
79	0x3f81ec9a	1.015033
80	0xb94b342b	-0.00019379023
81	0x3f2ca236	0.67435014
82	0x3f0837e3	0.53210276
83	0x3f66ecc4	0.90205026
84	0x3f9a8acf	1.2073611
85	0x3ab7e9e8	0.0014031501
86	0x3dc6d447	0.097084574
87	0x3ec02c9c	0.37534034
88	0x3f85ad45	1.0443503
89	0x3f74e4c1	0.9566155
90	0x3f8a90dd	1.0825459
91	0x3f68f619	0.91000515
92	0x3fb9fa72	1.4529555
93	0x3f7c998f	0.9867181
94	0x3fb105ef	1.3829936
95	0x3e65c8a4	0.2243982
96	0x3f7fdee3	0.99949473
97	0x3ddc8315	0.107671894
98	0x3fab10bb	1.3364481
99	0x3f9ffb39	1.2498542
100	0x4005271a	2.0805116
101	0x3f9c91db	1.2232012
102	0x3f398375	0.7246621
103	0x3f94f4bf	1.163719
104	0x3f8f9051	1.1215917
105	0x3f997304	1.1988225
106	0x3fa40dfb	1.2816767
107	0x3f701291	0.9377833
108	0x3f698db7	0.91231865
109	0x3f94141a	1.1568635
110	0x3f940c7a	1.1566308
111	0x3fb5642b	1.4171194
112	0x3f656e4b	0.8962142
113	0x3f49af8e	0.787835
114	0x3f952bba	1.1653969
115	0x3f630dbc	0.8869283
116	0xbb17fb84	-0.0023190686
117	0xbc1b2f82	-0.009471776
118	0x3f74c050	0.95605946
119	0x3f5c796e	0.86122787
120	0x3f60f5fe	0.87875354
121	0x3f8679e5	1.0505949
122	0x3f3de0a1	0.7417088
123	0x40024839	2.0356581
124	0xb993b3f8	-0.00028172112
125	0x3fb8bd55	1.443278
126	0x3b0fc8d3	0.002193977
127	0x3f36a349	0.71342903
