3d_solid_solid/outputs/test/fourier_net_512/heat_net.0.pth (torch, 374498 bytes, 20 tensors)

fourier_layer_xyzt.frequencies f4 [3, 30]
0.0 0.0 0.0 1.0 0.0 0.0 2.0 0.0
0.0 3.0 0.0 0.0 4.0 0.0 0.0 5.0
0.0 0.0 6.0 0.0 0.0 7.0 0.0 0.0
8.0 0.0 0.0 9.0 0.0 0.0 0.0 0.0
0.0 0.0 1.0 0.0 0.0 2.0 0.0 0.0
3.0 0.0 0.0 4.0 0.0 0.0 5.0 0.0
0.0 6.0 0.0 0.0 7.0 0.0 0.0 8.0
0.0 0.0 9.0 0.0 0.0 0.0 0.0 0.0
0.0 1.0 0.0 0.0 2.0 0.0 0.0 3.0
0.0 0.0 4.0 0.0 0.0 5.0 0.0 0.0
6.0 0.0 0.0 7.0 0.0 0.0 8.0 0.0
0.0 9.0
00000000: 0000 0000 0000 0000 0000 0000 0000 803f
00000010: 0000 0000 0000 0000 0000 0040 0000 0000
00000020: 0000 0000 0000 4040 0000 0000 0000 0000
00000030: 0000 8040 0000 0000 0000 0000 0000 a040
00000040: 0000 0000 0000 0000 0000 c040 0000 0000
00000050: 0000 0000 0000 e040 0000 0000 0000 0000
00000060: 0000 0041 0000 0000 0000 0000 0000 1041
00000070: 0000 0000 0000 0000 0000 0000 0000 0000
00000080: 0000 0000 0000 0000 0000 803f 0000 0000
00000090: 0000 0000 0000 0040 0000 0000 0000 0000
000000a0: 0000 4040 0000 0000 0000 0000 0000 8040
000000b0: 0000 0000 0000 0000 0000 a040 0000 0000
000000c0: 0000 0000 0000 c040 0000 0000 0000 0000
000000d0: 0000 e040 0000 0000 0000 0000 0000 0041
000000e0: 0000 0000 0000 0000 0000 1041 0000 0000
000000f0: 0000 0000 0000 0000 0000 0000 0000 0000
00000100: 0000 0000 0000 803f 0000 0000 0000 0000
00000110: 0000 0040 0000 0000 0000 0000 0000 4040
00000120: 0000 0000 0000 0000 0000 8040 0000 0000
00000130: 0000 0000 0000 a040 0000 0000 0000 0000
00000140: 0000 c040 0000 0000 0000 0000 0000 e040
00000150: 0000 0000 0000 0000 0000 0041 0000 0000
00000160: 0000 0000 0000 1041

fc.layers.0.linear.weight f4 [128, 63]
0.026579492 -0.014358467 -0.09047117 -6.142785e-10 1.1545789e-11 -1.5320266e-07 0.1281122 -0.07189194
-0.07892802 -0.027599748 0.088081844 0.043560423 0.016417017 -0.07135237 0.06385476 0.063917704
-0.030165398 -0.02607332 0.01575676 0.019490767 0.1118642 -0.0015859854 -0.06843395 -0.22835389
-0.0314043 -0.023405116 0.23908374 -0.033647604 0.07897376 -0.42814735 -0.06526031 -0.007648041
0.27380913 0.090273574 0.14564398 -0.019014258 -0.09573619 -0.0010785499 0.05911009 -0.033643432
0.017878277 0.014105092 -0.07602249 -0.05987582 0.056891438 -0.101510644 0.012543247 -0.21654367
-0.04414261 0.07626 0.23379698 -0.009946214 -0.084813684 -0.16781825 -0.032811727 -0.021895723
-0.048763033 -0.043164995 -0.056532014 0.077404484 -0.06168608 0.028706905 -0.316103 -0.07999282
-0.053927727 0.03853057 -0.0724289 0.054791525 -0.004365477 0.093439415 0.10932744 -0.03294822
0.11347829 0.03769577 0.107425824 0.16310936 -0.06252154 0.124957845 -0.063760914 0.030944638
-0.17409557 0.094402745 -0.0180407 -0.10385695 0.12253205 0.109242156 -0.17800845 0.002904196
-0.14789404 0.14875767 0.1357669 0.22813495 -0.014081707 -0.118643984 0.07566267 0.018359711
0.13038085 0.17363381 0.04111828 0.14885509 0.004488485 0.039545245 -0.14579113 -0.08782461
-0.041567206 0.092817664 0.055935282 0.1690846 -0.040687967 0.022965696 0.03558034 -0.016205568
-0.07777374 -0.042801462 0.15338032 0.057050873 -0.12617503 0.047583237 -0.07991532 -0.06399641
-0.046675067 0.11080761 0.20099205 -0.026609235 0.0379331 0.13309798 -0.100810625 -0.09710768
0.12596133 0.11936394 0.009309706 -1.10316595e-13 -0.070021585 -0.16204232 -0.090698555 -0.0995274
0.08642475 0.11990997 0.09101317 -0.02925314 -0.01339762 -0.045578558 0.09528924 0.14884886
-0.04103822 0.011471482 -0.052104842 0.121044785 0.08954561 0.0080840895 0.05774585 -0.10558518
-0.057267394 0.048553005 -0.07520714 -0.1343154 0.026508732 0.055249024 -0.20278879 0.08215305
0.16087861 0.16210222 0.04835208 -0.15984301 -0.1615668 0.01015923 0.030307885 -0.06849462
0.12951408 0.16202375 -0.21110003 -0.12099275 -0.09276748 0.13235356 -0.049398582 -0.097558774
0.068412945 -0.076000266 -0.019474603 0.1309638 -0.040052913 -0.1444131 -0.13353044 -0.12370775
0.016095694 0.0063160756 -0.041975707 0.07449501 -0.18327636 -0.02901724 0.0733885 -0.08118656
2.6960222e-08 -0.0740224 0.03419661 0.009785189 -0.03257494 0.031607192 -0.014527891 0.10962572
0.13175932 -0.16265543 0.07911843 0.11695553 0.013143236 -0.0627951 0.13242988 0.08270635
-0.014921144 0.11785814 -0.075780205 -0.062125742 -0.10488457 -0.03950055 0.045817003 -0.048941486
-0.17375375 -0.14842725 0.1884197 -0.035434727 0.08498161 -0.06733159 -0.06571478 0.14029336
0.12531964 0.0033156828 -0.104733944 0.057075888 0.04690124 -0.016428422 -0.16548742 0.08730855
0.13665073 0.07036139 0.11803301 -0.03723255 -0.010217653 0.023864977 0.1668851 -0.16954334
-0.12626432 -0.037626814 -0.05541708 0.12274528 -0.009500752 0.17711858 0.1112252 0.019988814
-0.20584597 -0.097432315 0.09121742 0.184444 -0.13359797 -0.08544223 0.028928988 -7.588819e-05
00000000: 3cbd d93c c73f 6bbc f348 b9bd 02da 28b0
00000010: 9c1d 4b2d 0780 24b4 d82f 033e 153c 93bd
00000020: 04a5 a1bd de18 e2bc 4164 b43d 6a6c 323d
00000030: fb7c 863c 3121 92bd 49c6 823d 49e7 823d
00000040: 6d1d f7bc b797 d5bc 5214 813c 1aab 9f3c
00000050: 0f19 e53d d7e0 cfba 1927 8cbd 9ad5 69be
00000060: cca1 00bd 16bc bfbc 5ed2 743e 12d2 09bd
00000070: ffbc a13d 2136 dbbe 33a7 85bd 6b9c fabb
00000080: b630 8c3e 5ae1 b83d b223 153e cac3 9bbc
00000090: 5611 c4bd 215e 8dba 6c1d 723d b2cd 09bd
000000a0: 7775 923c 0b19 673c aeb1 9bbd 5940 75bd
000000b0: ff06 693d d0e4 cfbd 3182 4d3c a0bd 5dbe
000000c0: e2ce 34bd 342e 9c3d 7a68 6f3e 72f5 22bc
000000d0: ccb2 adbd 8cd8 2bbe 9765 06bd a95e b3bc
000000e0: bfbb 47bd c7cd 30bd 1d8e 67bd 3e86 9e3d
000000f0: 8baa 7cbd be2a eb3c 41d8 a1be 47d3 a3bd
00000100: 52e3 5cbd 3bd2 1d3d 9a55 94bd 146d 603d
00000110: 460c 8fbb 2a5d bf3d 11e7 df3d b6f4 06bd
00000120: 4e67 e83d e166 1a3d 1202 dc3d 2406 273e
00000130: 4b0b 80bd e6e9 ff3d 1595 82bd 9c7f fd3c
00000140: 1c46 32be 3a56 c13d 17ca 93bc f4b2 d4bd
00000150: 15f2 fa3d 5aba df3d d947 36be 5354 3e3b
00000160: 8971 17be ee53 183e 7a06 0b3e 359c 693e
00000170: f6b6 66bc 9efb f2bd 08f5 9a3d 1b67 963c
00000180: 8f82 053e 10cd 313e a46b 283d 786d 183e
00000190: 2414 933b 32fa 213d 454a 15be 64dd b3bd
000001a0: 6042 2abd 3017 be3d 651c 653d 8324 2d3e
000001b0: 6da8 26bd 8e22 bc3c b1bc 113d 8ac1 84bc
000001c0: d747 9fbd 9650 2fbd bb0f 1d3e 2dae 693d
000001d0: 0734 01be a4e6 423d a5aa a3bd 8d10 83bd
000001e0: 5b2e 3fbd 1aef e23d dcd0 4d3e 9cfb d9bc
000001f0: bd5f 1b3d d64a 083e cd75 cebd 64e0 c6bd
00000200: 02fc 003e 1575 f43d bd87 183c 3069 f8a9
00000210: 7a67 8fbd 6cee 25be 2ac0 b9bd 06d5 cbbd
00000220: 76ff b03d 5c93 f53d 1d65 ba3d 48a4 efbc
00000230: b181 5bbc 95b0 3abd 0127 c33d d66b 183e
00000240: b117 28bd e2f2 3b3c e36b 55bd 54e6 f73d
00000250: b063 b73d 2173 043c ea86 6c3d 0b3d d8bd
00000260: 3791 6abd 84df 463d 3306 9abd fa89 09be
00000270: d728 d93c cd4c 623d dda7 4fbe dc3f a83d
00000280: 5dbd 243e 20fe 253e d50c 463d e3ad 23be
00000290: c471 25be e672 263c 3e48 f83c e846 8cbd
000002a0: 579f 043e 8ee9 253e 9b2a 58be 0ccb f7bd
000002b0: e0fc bdbd b187 073e 2b56 4abd e5cc c7bd
000002c0: 161c 8c3d 07a6 9bbd 3489 9fbc 601b 063e
000002d0: 860e 24bd 07e1 13be 34bc 08be 7d5a fdbd
000002e0: 1edb 833c 15f7 ce3b b8ee 2bbd d790 983d
000002f0: ccac 3bbe 90b5 edbc b64c 963d 2445 a6bd
00000300: 2896 e732 0e99 97bd bf11 0c3d 0f52 203c
00000310: 4d6d 05bd 8b76 013d 6406 6ebc 7383 e03d
00000320: eaeb 063e 258f 26be d808 a23d 6286 ef3d
00000330: ba56 573c b89a 80bd b39b 073e f261 a93d
00000340: d077 74bc 9c5f f13d a732 9bbd 9077 7ebd
00000350: b9cd d6bd 54cb 21bd 9caa 3b3d de76 48bd
00000360: 81ec 31be 50fd 17be 18f1 403e 0124 11bd
00000370: d70a ae3d 25e5 89bd 7895 86bd 10a9 0f3e
00000380: cb53 003e ed4b 593b c07e d6bd 68c8 693d
00000390: 841b 403d e694 86bc 8975 29be d3ce b23d
000003a0: 2bee 0b3e a219 903d 4abb f13d 2981 18bd
000003b0: f167 27bc 7c80 c33c ede3 2a3e c59c 2dbe
000003c0: 6f4b 01be 931e 1abd 05fd 62bd e161 fb3d
000003d0: 0ba9 1bbc 935e 353e 0aca e33d 95bf a33c
000003e0: 49c9 52be 988a c7bd 33d0 ba3d e3de 3c3e
000003f0: e8cd 08be 56fc aebd 7cfc ec3c 2926 9fb8

fc.layers.0.linear.weight_g f4 [128, 1]
1.3619385 1.0452949 1.0348874 1.0627193 1.1573513 0.9958389 1.03086 1.0676225
1.2921423 1.0393721 1.0278332 0.98404336 1.0250404 1.0183947 1.0565696 1.0943127
1.0788841 1.1585003 1.0447952 1.1249831 0.9104147 1.0620738 1.0087031 1.0608572
0.9547475 1.0197853 1.3845271 1.1498561 1.0379015 1.0099744 1.1588241 0.9553246
1.0001152 2.4072552 0.9915571 1.0340998 1.0345179 0.86700416 0.95514596 1.0633616
1.0497475 1.0657889 1.025746 1.0456113 1.0746253 1.0148461 1.0310668 1.0473733
1.025063 0.9816063 1.1007549 1.0804168 1.0054494 1.1342233 1.0008149 1.0167078
1.0005641 0.952558 1.2414749 1.0005696 1.0269506 1.0168272 1.0019844 1.2917222
1.091123 0.9493588 0.9859255 1.0696694 1.0725871 0.9776428 1.0702926 0.995511
1.0077232 1.3546917 1.0950375 1.0746804 1.1614474 1.0920955 1.0013103 1.0156397
1.0797222 1.0730741 1.0670795 1.1210909 1.0463388 0.97742176 1.0882658 1.0527769
1.1484702 1.0636424 0.99230427 1.2709574 1.0656329 1.0728073 1.000468 1.2061806
1.0472277 1.0166583 1.0250485 1.0164518 1.10332 1.0339401 1.0931875 1.0770758
1.0261184 1.1465027 1.0568857 0.9983145 1.0491823 1.2035463 1.2433832 1.0488166
1.042748 1.1288285 1.1697325 1.1111324 0.99260813 1.0689903 1.1290485 1.0240948
1.0874915 1.038671 1.1203643 1.3291239 1.0334636 1.0491378 1.0279558 1.2792807
00000000: 0054 ae3f 39cc 853f 3177 843f 3007 883f
00000010: 1624 943f 4cef 7e3f 38f3 833f dba7 883f
00000020: eb64 a53f 250a 853f 0a90 833f 44ea 7b3f
00000030: 8634 833f c25a 823f ac3d 873f 7012 8c3f
00000040: e018 8a3f bd49 943f d9bb 853f 72ff 8f3f
00000050: f010 693f 09f2 873f 2f1d 813f 2bca 873f
00000060: 556a 743f 5388 823f 2f38 b13f 7c2e 933f
00000070: f5d9 843f d746 813f 5954 943f 2790 743f
00000080: c603 803f 7810 1a40 b0d6 7d3f 625d 843f
00000090: 156b 843f fcf3 5d3f 7284 743f 3c1c 883f
000000a0: 205e 863f c56b 883f a54b 833f 97d6 853f
000000b0: 528d 893f 7ae6 813f fff9 833f 5410 863f
000000c0: 4435 833f 8d4a 7b3f 89e5 8c3f 194b 8a3f
000000d0: 91b2 803f 3b2e 913f b41a 803f 7b23 823f
000000e0: 7c12 803f d7da 733f a6e8 9e3f aa12 803f
000000f0: 1e73 833f 6527 823f 0641 803f 2757 a53f
00000100: eba9 8b3f 2e09 733f 9d65 7c3f edea 883f
00000110: 894a 893f cc46 7a3f 59ff 883f cfd9 7e3f
00000120: 13fd 803f 8a66 ad3f 302a 8c3f 218f 893f
00000130: 4faa 943f c9c9 8b3f f02a 803f 7b00 823f
00000140: 5634 8a3f 7e5a 893f 1096 883f e87f 8f3f
00000150: 6eee 853f 5038 7a3f 4b4c 8b3f 65c1 863f
00000160: 1201 933f 6f25 883f a707 7e3f bbae a23f
00000170: a966 883f c051 893f 560f 803f 2064 9a3f
00000180: 8f0b 863f dc21 823f ca34 833f 181b 823f
00000190: 9739 8d3f 2658 843f 91ed 8b3f 9fdd 893f
000001a0: d957 833f 9ac0 923f 0848 873f 8a91 7f3f
000001b0: 9b4b 863f ce0d 9a3f 2e27 9f3f 9f3f 863f
000001c0: c478 853f 747d 903f cbb9 953f 9639 8e3f
000001d0: 911b 7e3f add4 883f a984 903f 8a15 833f
000001e0: ec32 8b3f 2cf3 843f 1968 8f3f bb20 aa3f
000001f0: 8948 843f 264a 863f 0e94 833f 78bf a33f

fc.layers.0.linear.bias f4 [128]
0.0468241 0.007886345 0.015467842 0.029239537 0.10309185 -0.003473397 0.0021665297 0.01929458
0.038322333 -0.008472623 0.047609296 0.0021179477 0.021029709 0.037827373 0.07676974 0.024291491
0.07622446 0.029466657 0.019952275 0.03115179 0.0047365185 0.026934044 -0.014527899 0.036419455
-0.018621434 0.002851442 0.029045256 0.0275316 -0.0025890425 -0.018439818 0.026476767 -0.0047749216
0.036890585 0.0674167 -0.03121936 0.013838868 0.02288664 -0.020811502 0.004935799 0.006368467
0.050544165 -0.0037984818 0.0062689753 0.011117037 0.025061749 -0.026155898 0.028751934 -0.0017196042
0.017505078 -0.033441268 0.021826765 0.005936802 -0.033501413 -0.02093234 -0.024817923 -0.015978735
0.023586467 -0.013257937 0.029611727 -0.00823884 -0.0016153887 -0.024626188 -0.0076027475 0.018131848
0.038216453 -0.04458111 -0.022245992 -0.016208189 -0.0057364255 -0.059965357 0.061161935 -0.0113838045
-0.026359495 0.044497047 0.030922167 0.0065978393 0.07089308 0.018029442 -0.019207196 -0.0007702339
0.01362692 0.019267408 -0.03837023 0.048517775 0.033265278 -0.03912854 -0.02703959 0.0046957363
0.03979297 -0.021293616 -0.013508811 0.12704034 -0.009500224 -0.018599948 -0.03130212 0.041207824
0.011412174 -0.009602808 0.004052682 0.040779937 0.041528016 0.0034861357 0.02561721 0.040464204
-0.005214617 0.014789164 0.005517617 0.0004888501 0.019599471 0.035754535 0.01180466 0.010908368
0.028939629 0.0051830458 -0.00348564 0.06943125 0.02660289 -0.007061305 0.004008898 -0.01049113
-0.049644094 -0.020049145 0.00868231 -0.02309868 -0.0015973572 -0.024467668 -0.012219499 0.070588335
00000000: a1ca 3f3d ba35 013c d56c 7d3c c187 ef3c
00000010: d221 d33d efa1 63bb 56fc 0d3b ab0f 9e3c
00000020: e1f7 1c3d c2d0 0abc f701 433d 44cd 0a3b
00000030: 7f46 ac3c e0f0 1a3d 7439 9d3d f3fe c63c
00000040: 921b 9c3d 0f64 f13c f472 a33c 0a32 ff3c
00000050: cc34 9b3b c9a4 dc3c 6d06 6ebc 912c 153d
00000060: fa8b 98bc 42df 3a3b 51f0 ed3c f389 e13c
00000070: edac 29bb 1a0f 97bc cee5 d83c f276 9cbb
00000080: 951a 173d c411 8a3d bebf ffbc 6bbc 623c
00000090: c37c bb3c e27c aabc 7cbc a13b 93ae d03b
000000a0: 6607 4f3d f3ef 78bb fa6b cd3b 3c24 363c
000000b0: 4c4e cd3c e544 d6bc 2d89 eb3c 5864 e1ba
000000c0: cf66 8f3c b6f9 08bd 0bce b23c 8189 c23b
000000d0: c738 09bd 4c7a abbc f54e cbbc d6e5 82bc
000000e0: 6838 c13c d137 59bc 4b94 f23c 33fc 06bc
000000f0: 73bb d3ba dcbc c9bc 7820 f9bb 3e89 943c
00000100: db88 1c3d af9a 36bd 3a3d b6bc 09c7 84bc
00000110: a0f8 bbbb 3c9e 75bd f084 7a3d 2383 3abc
00000120: deef d7bc 8942 363d 7c50 fd3c b032 d83b
00000130: 6430 913d 7bb2 933c 6958 9dbc 86e9 49ba
00000140: 7243 5f3c afd6 9d3c 1a2a 1dbd 93ba 463d
00000150: 2c41 083d 3f45 20bd 2182 ddbc b1de 993b
00000160: f4fd 223d f36f aebc 0f54 5dbc dd16 023e
00000170: d4a6 1bbc eb5e 98bc a736 00bd 89c9 283d
00000180: 21fa 3a3c 1955 1dbc 5ccc 843b dd08 273d
00000190: 4819 2a3d a777 643b 2fdb d13c cbbd 253d
000001a0: 61df aabb 404e 723c 20cd b43b 2d26 003a
000001b0: 128f a03c 5973 123d 5568 413c 03b9 323c
000001c0: cd12 ed3c 8ad6 a93b 566f 64bb f931 8e3d
000001d0: 4eee d93c 8562 e7bb 135d 833b fde2 2bbc
000001e0: 9b57 4bbd 1b3e a4bc 3f40 0e3c 7139 bdbc
000001f0: 6a5e d1ba 6b70 c8bc 4b34 48bc 9e90 903d

fc.layers.1.linear.weight f4 [128, 128]
0.053550016 0.011225589 0.09534949 0.04266433 -0.01627123 0.09465237 0.1191131 -0.019261094
0.12523514 -0.0974001 -0.17318138 -0.131932 -0.00086272316 0.03409672 -0.052861605 -0.20427515
0.10342613 0.06443554 0.09071057 -0.07672225 0.14316367 -0.0655618 0.113663584 0.115651004
-0.05324211 0.20294045 -0.012525887 0.05549801 0.15752904 0.11189438 0.17719693 0.04208184
0.10773087 0.013240469 -0.12353252 -0.14589928 -0.044305317 0.10665897 -0.014608912 0.028423088
0.061067306 0.08321188 -0.112961054 -0.02051276 0.08690266 0.03639108 -0.11709991 0.058164723
-0.13322802 0.050023794 0.011295567 -0.09443166 0.13061628 0.054590054 -0.12874915 -0.15507302
-0.08728154 0.051130332 -0.009202598 -0.094456986 -0.19389719 0.10231349 0.03143122 -0.012574876
0.05408991 0.07557549 -0.0889435 -0.19550735 -0.11862039 0.0033377942 0.19311893 0.010416607
-0.16292508 0.2168694 -0.038907476 -0.057365745 0.043774236 -0.029798135 -0.042625263 0.09121428
0.14047952 -0.026549406 0.07872087 0.060639665 0.105863124 -0.20911817 0.11489849 0.017834596
-0.048318323 -0.14365584 -0.20366712 -0.09013259 0.021687377 0.13851388 0.027135773 0.0490343
-0.042745076 -0.2143255 -0.12921001 0.027186412 -0.17295842 0.028915849 0.12556614 -0.027897209
-0.004301294 -0.07080493 -0.026942216 -0.11744178 -0.07653756 0.23897608 0.008708424 0.13940713
0.07977248 0.07524276 0.1062768 0.1098778 0.00469404 -0.007403291 0.1394436 -0.13888857
0.074151814 -0.09785217 -0.022733634 -0.0339001 -0.02915859 0.15654498 -0.03159857 0.047361314
-0.09425623 0.019010205 -0.15524971 0.024417888 -0.14347425 0.03692378 -0.105586804 -0.104071766
-0.11488436 -0.11262997 0.07966583 -0.102601565 -0.06743841 -0.12631366 -0.024608586 0.10290401
-0.14011404 -0.069051534 -0.0298184 0.14231524 0.09287996 -0.12246278 0.033179287 0.07707461
-0.06610269 -0.08184786 0.016594749 0.093403846 -0.07740987 -0.09410268 0.08532739 0.10568556
0.05622123 0.027623486 -0.028218916 0.18901844 0.11638661 -0.11316531 0.12278342 0.015735703
-0.06744537 0.045662057 0.12975135 0.05376848 -0.049470738 0.06212791 -0.0562594 -0.11260854
0.05453381 -0.099144824 -0.035067245 0.08074605 0.029253937 0.09460219 0.03749494 0.046164162
0.013538691 0.027309282 -0.21638983 -0.019651214 -0.10614064 0.08279145 -0.07163232 -0.036224518
0.08621905 0.12962519 -0.039070893 -0.14080061 -0.048069343 0.024537869 -0.03843888 -0.15713218
0.015311841 -0.04698353 -0.041493014 -0.0143136885 -0.08021622 -0.06250577 -0.029041534 0.09326659
0.17273302 0.1679158 0.016286042 0.0724926 -0.0063230684 -0.04222001 0.033497173 -0.005765767
-0.06785467 0.060642924 0.13153036 -0.19467804 -0.16158108 -0.15362403 0.06854944 -0.04929626
-0.049743656 0.085652225 0.013074074 0.07925578 -0.22321673 0.033727586 0.1649308 0.13154468
0.046349175 -0.119500436 -0.09506072 0.07898814 -0.009161351 -0.1969801 -0.14332956 -0.0721666
-0.049858853 -0.12171121 0.02883718 -0.052685253 0.022277247 0.02435939 -0.09963898 -0.009237526
-0.047794644 0.0041369814 0.11430532 -0.055042792 -0.03525537 0.005076714 0.16258022 -0.17700608
00000000: 4357 5b3d 88eb 373c 9846 c33d cbc0 2e3d
00000010: 3e4b 85bc 1ad9 c13d 92f1 f33d 71c9 9dbc
00000020: a43d 003e b479 c7bd 7656 31be 2f19 07be
00000030: 5f28 62ba 01a9 0b3d 6985 58bd 812d 51be
00000040: 14d1 d33d c8f6 833d 77c6 b93d 8e20 9dbd
00000050: 7f99 123e 4445 86bd 74c8 e83d 6fda ec3d
00000060: 6614 5abd 9fcf 4f3e 6139 4dbc e251 633d
00000070: 4b4f 213e e128 e53d 1d73 353e 025e 2c3d
00000080: 01a2 dc3d 8dee 583c 9efe fcbd 9f66 15be
00000090: 7e79 35bd 0570 da3d 385a 6fbc 89d7 e83c
000000a0: b621 7a3d fd6a aa3d 2058 e7bd 600a a8bc
000000b0: 06fa b13d d00e 153d 14d2 efbd 223e 6e3d
000000c0: ed6c 08be c0e5 4c3d 0b11 393c 6365 c1bd
000000d0: 46c0 053e d299 5f3d d1d6 03be 76cb 1ebe
000000e0: aac0 b2bd 0a6e 513d 7ec6 16bc aa72 c1bd
000000f0: fc8c 46be bc89 d13d 06be 003d da06 4ebc
00000100: 628d 5d3d 53c7 9a3d 0228 b6bd 1433 48be
00000110: 3fef f2bd e5be 5a3b f8c0 453e 6baa 2a3c
00000120: d5d5 26be 0313 5e3e 725d 1fbd 58f8 6abd
00000130: 9d4c 333d 381b f4bc d497 2ebd 8dce ba3d
00000140: ddd9 0f3e 247e d9bc 6838 a13d 4c61 783d
00000150: c4ce d83d 1323 56be e64f eb3d dc19 923c
00000160: 6fe9 45bd 841a 13be 1d8e 50be 6f97 b8bd
00000170: baa9 b13c 95d6 0d3e d74b de3c 31d8 483d
00000180: 7615 2fbd 2578 5bbe a14f 04be 0ab6 de3c
00000190: 031c 31be eee0 ec3c 6994 003e b088 e4bc
000001a0: dff1 8cbb 2d02 91bd ecb5 dcbc 5185 f0bd
000001b0: b9bf 9cbd 25b6 743e c7ad 0e3c bec0 0e3e
000001c0: c15f a33d e018 9a3d a7a7 d93d 9d07 e13d
000001d0: 76d0 993b 4e97 f2bb 4eca 0e3e ce38 0ebe
000001e0: e8dc 973d b866 c8bd e33b babc d5da 0abd
000001f0: ffdd eebc 544d 203e 816d 01bd f0fd 413d
00000200: 6909 c1bd 4abb 9b3c c8f9 1ebe 0608 c83c
00000210: eaea 12be 643d 173d e53d d8bd 9423 d5bd
00000220: 7e48 ebbd 8baa e6bd d727 a33d c520 d2bd
00000230: 261d 8abd 5e58 01be f297 c9bc 56bf d23d
00000240: 0e7a 0fbe e46a 8dbd b845 f4bc 16bb 113e
00000250: d937 be3d c4cd fabd 01e7 073d 4bd9 9d3d
00000260: d960 87bd da9f a7bd b6f1 873c 844a bf3d
00000270: 1189 9ebd e8b8 c0bd 20c0 ae3d ac71 d83d
00000280: 3c48 663d a64a e23c 5b2b e7bc 0d8e 413e
00000290: 1a5c ee3d 37c3 e7bd e075 fb3d 29e8 803c
000002a0: cc20 8abd 2308 3b3d 8add 043e 563c 5c3d
000002b0: d4a1 4abd d679 7e3d 4270 66bd 4e9f e6bd
000002c0: d85e 5f3d 710c cbbd aca2 0fbd 2f5e a53d
000002d0: f4a5 ef3c cbbe c13d 4b94 193d a216 3d3d
000002e0: 63d1 5d3c b7b7 df3c 4c95 5dbe 95fb a0bc
000002f0: 4460 d9bd 908e a93d f7b3 92bd 2960 14bd
00000300: 9d93 b03d 77bc 043e cd08 20bd 092e 10be
00000310: 5ce4 44bd a403 c93c 1672 1dbd 42e7 20be
00000320: 84de 7a3c cd71 40bd 94f4 29bd f683 6abc
00000330: 6748 a4bd 0603 80bd 83e8 edbc 8e02 bf3d
00000340: ede0 303e 1ff2 2b3e 4e6a 853c 0077 943d
00000350: be31 cfbb e4ee 2cbd 5534 093d c2ee bcbb
00000360: 64f7 8abd b764 783d e5af 063e ae59 47be
00000370: 8375 25be 9e4f 1dbe a663 8c3d e0ea 49bd
00000380: 01c0 4bbd 6f6a af3d a434 563c db50 a23d
00000390: ed92 64be f025 0a3d 9fe3 283e a6b3 063e
000003a0: a2d8 3d3d a5bc f4bd 32af c2bd 89c4 a13d
000003b0: 7e19 16bc 27b5 49be fcc4 12be 15cc 93bd
000003c0: cc38 4cbd ba43 f9bd f33b ec3c 7ecc 57bd
000003d0: c67e b63c 588d c73c 860f ccbd fe58 17bc
000003e0: 51c4 43bd 848f 873b e818 ea3d 8d74 61bd
000003f0: ef67 10bd 905a a63b 6e7b 263e 1541 35be

fc.layers.1.linear.weight_g f4 [128, 1]
1.0938048 0.9864097 1.360052 0.99026406 1.0717813 1.1749628 1.0389937 1.0268646
1.0122678 1.0192077 0.9759036 1.1190051 0.98795503 1.2014859 0.98443305 1.1124364
1.3097308 1.0053886 0.9767979 1.0524566 1.0704701 1.065874 1.1090304 1.0249805
0.9615259 1.0704299 1.284353 1.002137 1.0683362 1.2123339 1.1728091 0.94679296
1.0093088 0.9913401 1.0527344 1.0261885 1.0931438 0.92367965 1.0148284 1.0972884
1.0269247 1.0222093 1.0538327 1.0216372 1.294082 0.9978037 1.0646974 1.0633028
1.0017589 1.050226 0.9792497 0.9766839 1.2198781 1.4897153 1.0205903 0.97364914
1.0462861 0.9832205 0.99444395 1.0383102 0.96016866 0.9862314 1.0977253 1.0810454
1.0247833 1.0032024 1.0193578 2.2917662 0.9915272 0.99760884 1.0818142 1.0321556
0.9930334 1.0660626 1.0369892 1.013279 1.0821668 1.006015 0.94344175 1.1159799
1.078151 1.0767298 1.030401 1.2224944 1.0290564 1.0513333 1.0675695 1.0873884
0.99285996 1.0149224 0.9892221 1.1816304 1.066577 1.1920899 0.9782889 1.0583825
1.035319 1.0519774 0.97970915 1.0229391 0.9864352 1.2047427 0.97951436 1.4612545
1.1631753 1.2104297 1.0590526 0.9609044 1.0736299 1.0361148 0.97882754 0.9822368
0.9386161 1.0877666 1.0629922 1.0162145 1.0394444 1.2343584 1.0006554 1.0558197
1.2450404 1.1038721 1.0458878 1.0139074 1.021487 1.0297469 1.0558875 1.0388806
00000000: cc01 8c3f 5985 7c3f 2f16 ae3f f281 7d3f
00000010: 2130 893f 2e65 963f bffd 843f 4d70 833f
00000020: fe91 813f 6675 823f d1d4 793f 8f3b 8f3f
00000030: 9fea 7c3f 4aca 993f ce03 7c3f 5164 8e3f
00000040: 42a5 a73f 93b0 803f 6d0f 7a3f e6b6 863f
00000050: 2a05 893f 8f6e 883f b5f4 8d3f 9032 833f
00000060: 9026 763f d903 893f ae65 a43f 0646 803f
00000070: 3ebf 883f c22d 9b3f 9c1e 963f 0661 723f
00000080: 0831 813f 77c8 7d3f 00c0 863f 255a 833f
00000090: 23ec 8b3f 4576 6c3f e6e5 813f f273 8c3f
000000a0: 4572 833f c1d7 823f fde3 863f 02c5 823f
000000b0: 7ba4 a53f 1070 7f3f 0148 883f 4e1a 883f
000000c0: a339 803f ce6d 863f 1cb0 7a3f f507 7a3f
000000d0: f724 9c3f feae be3f b4a2 823f 1241 793f
000000e0: b4ec 853f 57b4 7b3f e193 7e3f 59e7 843f
000000f0: 9dcd 753f a979 7c3f 4382 8c3f b25f 8a3f
00000100: 192c 833f f068 803f 517a 823f 4cac 1240
00000110: bad4 7d3f 4b63 7f3f e378 8a3f ad1d 843f
00000120: 7037 7e3f bd74 883f 10bc 843f 20b3 813f
00000130: 7184 8a3f 19c5 803f 6685 713f 6ed8 8e3f
00000140: da00 8a3f 48d2 893f 2ee4 833f b27a 9c3f
00000150: 1fb8 833f 1792 863f 1ea6 883f 8b2f 8b3f
00000160: 122c 7e3f fae8 813f a93d 7d3f aa3f 973f
00000170: 9885 883f 6796 983f 2471 7a3f 1479 873f
00000180: 5585 843f 32a7 863f 38ce 7a3f abef 823f
00000190: 0487 7c3f 0235 9a3f 74c1 7a3f 630a bb3f
000001a0: eee2 943f 5cef 9a3f 098f 873f d5fd 753f
000001b0: b46c 893f 699f 843f 7194 7a3f df73 7b3f
000001c0: 2549 703f f03b 8b3f 2110 883f 5113 823f
000001d0: 840c 853f 75ff 9d3f 7a15 803f 1a25 873f
000001e0: 7c5d 9f3f ae4b 8d3f a7df 853f b8c7 813f
000001f0: 16c0 823f bfce 833f 5227 873f 0afa 843f

fc.layers.1.linear.bias f4 [128]
-0.055438705 -0.011913464 0.01972216 0.03168351 0.08849425 0.01426221 0.003253845 -0.011585639
-0.0006763316 -0.0574387 -0.009625841 0.026658032 -0.080996014 -0.026170358 -0.020344762 -0.011577581
-0.00059192453 0.03201942 -0.02264084 -0.026654752 0.02543458 0.048459064 0.019860754 -0.016291877
-0.03022943 0.038071353 0.04965817 -0.015227586 0.033394396 0.04102131 0.023396175 -0.007141335
0.08551511 -0.030428844 -0.02231217 0.007030627 -0.00868114 0.028846744 -0.010136188 0.010725386
0.010696478 -0.009536895 0.021333322 -0.0019417318 0.017894331 -0.037178345 0.0069845943 0.028046241
0.04095245 -0.012677879 -0.041718226 -0.016680762 0.009062151 -0.0030402404 0.0018254453 -0.03701521
-0.011694366 0.016965762 0.005876244 -0.025123851 -0.04941721 -0.029681781 0.0042135334 0.009347862
0.026102869 0.0040238616 -0.036521893 -0.1200053 0.010649664 -0.01916059 -0.020368613 -0.021076383
-0.00374619 0.015067939 0.065571144 -0.0076016784 -0.053776313 0.022517875 -0.035672985 0.018313397
-0.013263408 -0.0003882478 0.028146598 0.07727274 0.04113527 -0.0059512462 -0.020818345 0.02400516
-0.03254478 0.0006446935 -0.04040613 -0.017547905 -0.03504206 0.051515643 0.0034123533 0.0023785592
-0.022774994 -0.017720101 -0.046584815 -0.011458142 -0.008367949 -0.018597567 -0.03417828 -0.01643351
0.0033294111 0.0075520854 0.023982147 0.0052905357 -0.06406267 0.038174216 0.0027621433 -0.013974629
-0.0185798 0.0847421 -0.020114789 -0.007182507 -0.051600352 -0.013418558 -0.009673136 0.06660943
-0.007827203 0.078491986 -0.019327456 0.04165035 0.021041533 0.003400468 0.036929306 -0.005082111
00000000: b213 63bd b130 43bc 5e90 a13c 91c6 013d
00000010: 793c b53d 0bac 693c 763e 553b b1d1 3dbc
00000020: d84b 31ba d844 6bbd b4b5 1dbc f261 da3c
00000030: 3de1 a5bd 3863 d6bc 0faa a6bc e5af 3dbc
00000040: 622b 1bba cc26 033d 4879 b9bc 115b dabc
00000050: 2e5c d03c 037d 463d 05b3 a23c 8b76 85bc
00000060: b6a3 f7bc b5f0 1b3d 5e66 4b3d 207d 79bc
00000070: 90c8 083d f605 283d 56a9 bf3c dc01 eabb
00000080: 8c22 af3d e945 f9bc 03c8 b6bc 2d61 e63b
00000090: 573b 0ebc 0250 ec3c 4112 26bc 88b9 2f3c
000000a0: 4840 2f3c a340 1cbc 38c3 ae3c b581 feba
000000b0: 2297 923c 5248 18bd 06df e43b 3bc1 e53c
000000c0: c2bd 273d e1b6 4fbc bbe0 2abd 18a6 88bc
000000d0: 6b79 143c c53e 47bb c843 ef3a 439d 17bd
000000e0: ba99 3fbc c8fb 8a3c 828d c03b 89d0 cdbc
000000f0: b369 4abd 3527 f3bc ae11 8a3b c627 193c
00000100: afd5 d53c 99da 833b fb97 15bd 57c5 f5bd
00000110: ee7b 2e3c abf6 9cbc 14dc a6bc 61a8 acbc
00000120: a482 75bb 84df 763c 2a4a 863d 8017 f9bb
00000130: 8d44 5cbd 6877 b83c d61d 12bd fa05 963c
00000140: c44e 59bc bd8d cbb9 b293 e63c 2c41 9e3d
00000150: 757d 283d ac02 c3bb 3c8b aabc 78a6 c43c
00000160: ad4d 05bd a600 293a e680 25bd a0c0 8fbc
00000170: 4388 0fbd 1102 533d caa1 5f3b 9ae1 1b3b
00000180: a092 babc bf29 91bc b8cf 3ebd eeba 3bbc
00000190: b919 09bc ed59 98bc 86fe 0bbd 929f 86bc
000001a0: 4032 5a3b 7c77 f73b 3576 c43c 3b5c ad3b
000001b0: 4a33 83bd 915c 1c3d 1305 353b d8f5 64bc
000001c0: aa34 98bc 448d ad3d c5c7 a4bc 3c5b ebbb
000001d0: e45a 53bd 83d9 5bbc 137c 1ebc 866a 883d
000001e0: ab3d 00bc 68c0 a03d 9d54 9ebc 8f99 2a3d
000001f0: 4b5f ac3c 63da 5e3b 2f43 173d d687 a6bb

fc.layers.2.linear.weight f4 [128, 128]
-0.081238426 0.04205257 0.015999824 0.019752359 0.090599485 -0.041093715 0.07611602 0.17755264
0.14137535 -0.095368005 -0.09701179 -0.061459143 -0.027274251 0.04687518 -0.110263415 -0.12545028
-0.09410991 -0.13578233 -0.009755573 -0.10167013 -0.12621097 -0.030061485 -0.0725284 0.070226505
0.1121763 0.14282428 -0.02631937 0.07038753 -0.055973835 0.028221836 -0.030778065 -0.023898091
0.10891913 -0.12238032 -0.04011484 0.09563574 -0.060560293 0.10306135 -0.009961983 -0.1390756
0.12535782 -0.050185423 -0.03859785 0.11233412 0.12665495 -0.12835091 0.0061855544 -0.16314533
0.13943154 0.06865387 -0.107175276 -0.06508679 -0.24443556 0.026699893 0.034830336 0.07457832
-0.1065755 0.04227496 0.028396029 -0.10405582 -0.09753023 -0.15370087 -0.049037386 -0.046149876
0.17158768 0.02199283 0.030002646 -0.00835993 -0.12194009 0.111657634 0.033464845 -0.13566643
-0.11817042 -0.04288619 -0.09454311 0.012860034 0.011028136 0.12462508 -0.10929798 -0.0032601897
0.032954033 -0.016722947 0.011191226 -0.025542635 0.07868815 -0.15062657 -0.12071307 -0.07237162
-0.09442672 0.14851232 -0.011484375 -0.058889978 0.0156482 -0.16285135 -0.1629619 0.15845132
-0.01924187 0.03299536 -0.0860416 -0.037972257 0.12778507 -0.10698588 0.115485966 -0.11960878
-0.015957575 0.011390152 0.0438203 -0.016929427 -0.08099455 0.11388609 -0.11330357 -0.009363443
0.06295066 0.18462248 -0.076341406 -0.12328009 -0.11443861 -0.059484784 0.08912738 0.012951893
0.12332291 -0.083057664 -0.14491768 -0.03491255 0.009720834 -0.08139557 0.13072008 0.08939859
-0.024254814 -0.029111033 -0.21319874 -0.003389015 -0.06676786 -0.009834598 -0.026093166 0.06372913
0.18268147 -0.073697254 0.013030135 0.05235277 0.059872683 -0.14175439 -0.0025584004 0.05120948
-0.06938016 -0.04802338 -0.08498591 -0.036396194 -0.17741875 -0.17831789 0.09145288 -0.070814386
0.021293137 -0.09778745 -0.0922243 -0.023270989 -0.14794451 0.091810085 -0.22030014 0.069371566
-0.07578852 0.004197192 0.023815252 0.07181315 -0.06310894 0.026645651 0.05277333 -0.04287432
0.06915984 0.111375466 0.11666632 -0.05204359 0.053779464 0.005764064 0.026774252 -0.052218463
0.021828854 -0.083940275 0.07907645 0.07809635 0.099844754 -0.110305 -0.075258195 -0.015900739
0.001394315 0.08331197 -0.09098813 0.13914901 -0.005466795 -0.008658728 0.015378298 -0.12495488
-0.1326997 -0.07165165 -0.11967516 -0.14065716 0.10966869 -0.0299601 0.085882515 -0.04880034
-0.08112257 -0.14465582 -0.062002264 0.13001414 0.12546548 -0.10727321 0.024944374 0.0146030495
0.08148689 0.065907724 -0.030264432 -0.025167335 -0.11427103 -0.06767803 0.066096514 -0.18174887
-0.021763982 -0.040676843 -0.019218815 0.2072694 -0.01885492 -0.12448751 -0.006437901 -0.039198942
0.14677437 0.16072728 0.019689796 -0.17353635 -0.047740526 -0.042553168 -0.046842802 0.0035002436
0.031871043 -0.13500628 0.014576791 -0.09555522 -0.01075272 -0.04915748 0.025995016 0.05376837
-0.07322242 -0.17975532 0.023943968 -0.06122279 -0.01351021 0.27007926 0.10125317 -0.12592767
0.11122554 -0.022423115 0.12004496 0.060829602 -0.040975153 -0.10142078 0.01400894 0.06058296
00000000: 5560 a6bd 513f 2c3d 1012 833c b3cf a13c
00000010: 398c b93d e251 28bd b7e2 9b3d 5cd0 353e
00000020: b3c4 103e 4d50 c3bd 1eae c6bd 95bc 7bbd
00000030: 406e dfbc 3000 403d c9d1 e1bd 0a76 00be
00000040: b2bc c0bd 860a 0bbe d7d5 1fbc 6e38 d0bd
00000050: 733d 01be 8143 f6bc c589 94bd ead2 8f3d
00000060: b0bc e53d 8740 123e b89b d7bc 5627 903d
00000070: d244 65bd 7b31 e73c 4822 fcbc eec5 c3bc
00000080: fe10 df3d 89a2 fabd 754f 24bd acdc c33d
00000090: 120e 78bd d411 d33d 9637 23bc d669 0ebe
000000a0: cd5d 003e 3b8f 4dbd c718 1ebd 6e0f e63d
000000b0: d6b1 013e 6c6e 03be 31b0 ca3b 920f 27be
000000c0: 24c7 0e3e 669a 8c3d b67e dbbd 394c 85bd
000000d0: 514d 7abe bcb9 da3c 41aa 0e3d 85bc 983d
000000e0: 4144 dabd 8228 2d3d ca9e e83c 381b d5bd
000000f0: eebd c7bd c363 1dbe 6ddb 48bd a707 3dbd
00000100: aeb4 2f3e 4f2a b43c 1cc8 f53c 16f8 08bc
00000110: babb f9bd c2ac e43d 6f12 093d 24ec 0abe
00000120: 5503 f2bd 6ea9 2fbd d19f c1bd e4b2 523c
00000130: 5baf 343c 6f3b ff3d 9fd7 dfbd e8a8 55bb
00000140: cffa 063d 90fe 88bc 675b 373c ca3e d1bc
00000150: 4127 a13d da3d 1abe 6a38 f7bd 9237 94bd
00000160: cc62 c1bd 9d13 183e f628 3cbc 9e36 71bd
00000170: a730 803c 81c2 26be 7cdf 26be 1041 223e
00000180: 20a1 9dbc 2526 073d 9436 b0bd cc88 1bbd
00000190: 17da 023e 6a1b dbbd e883 ec3d 73f5 f4bd
000001a0: 76b9 82bc c39d 3a3c ea7c 333d 95af 8abc
000001b0: 78e0 a5bd 1c3d e93d b40b e8bd 2069 19bc
000001c0: 47ec 803d ad0d 3d3e e258 9cbd 467a fcbd
000001d0: ca5e eabd 51a6 73bd 6a88 b63d 2d34 543c
000001e0: b990 fc3d 231a aabd 4d65 14be 7600 0fbd
000001f0: 2244 1f3c b8b2 a6bd 7cdb 053e 9c16 b73d
00000200: 08b2 c6bc 437a eebc c550 5abe 3d1a 5ebb
00000210: 96bd 88bd 4b21 21bc 56c1 d5bc 6b84 823d
00000220: da10 3b3e 96ee 96bd 597c 553c dc6f 563d
00000230: 0f3d 753d 1028 11be d6aa 27bb 08c1 513d
00000240: 2f17 8ebd 2ab4 44bd 180d aebd 2d14 15bd
00000250: 43ad 35be f798 36be a64b bb3d 2207 91bd
00000260: f26e ae3c c944 c8bd 18e0 bcbd cda2 bebc
00000270: c47e 17be ed06 bc3d 5c96 61be ae12 8e3d
00000280: 0337 9bbd 9988 893b 3418 c33c c612 933d
00000290: 433f 81bd fb47 da3c d928 583d fc9c 2fbd
000002a0: ada3 8d3d d218 e43d c0ee ee3d a92b 55bd
000002b0: db47 5c3d 79e0 bc3b ad55 db3c 07e3 55bd
000002c0: 6dd2 b23c e1e8 abbd d5f2 a13d fbf0 9f3d
000002d0: 687b cc3d 96e7 e1bd f820 9abd 4442 82bc
000002e0: 73c1 b63a 779f aa3d fc57 babd 147d 0e3e
000002f0: cd22 b3bb 56dd 0dbc 42f5 7b3c 58e8 ffbd
00000300: 6ee2 07be 1abe 92bd 4018 f5bd 6e08 10be
00000310: fa99 e03d e26e f5bc 2ce3 af3d dee2 47bd
00000320: 9723 a6bd a820 14be 16f6 7dbd 6d22 053e
00000330: 067a 003e 0fb2 dbbd 2558 cc3c a141 6f3c
00000340: 99e2 a63d a1fa 863d 1ded f7bc ba2b cebc
00000350: ee06 eabd c79a 8abd 9c5d 873d 601c 3abe
00000360: 614a b2bc c39c 26bd c770 9dbc 6e3e 543e
00000370: a275 9abc 4ff3 febd 07f5 d2bb 128f 20bd
00000380: 054c 163e b195 243e 7f4c a13c 83b3 31be
00000390: 928b 43bd 3b4c 2ebd 3dde 3fbd 5864 653b
000003a0: 368b 023d 163f 0abe 7ed3 6e3c 75b2 c3bd
000003b0: 2d2c 30bc 5b59 49bd 80f3 d43c 393c 5c3d
000003c0: a3f5 95bd c711 38be 2426 c43c c0c4 7abd
000003d0: ee59 5dbc d447 8a3e d25d cf3d 2ff3 00be
000003e0: 37ca e33d aeb0 b7bc 22da f53d 7628 793d
000003f0: 90d5 27bd b3b5 cfbd c185 653c d625 783d

fc.layers.2.linear.weight_g f4 [128, 1]
0.95018095 1.1735352 1.8577799 1.0183177 1.2350545 1.0409665 0.98124313 0.99556303
0.9719833 0.94059396 0.99400103 0.9607956 0.9899014 1.0649029 0.98453623 0.96940553
0.9702973 1.1929641 1.0074356 1.0664514 1.1189549 0.9321333 1.0290096 0.9055979
1.0360857 0.88165945 1.0359018 0.9756175 1.0346842 1.0489656 1.1243833 0.97863114
1.0935813 1.0576038 1.0265955 1.0802933 0.97755766 1.1003871 1.1073682 0.9809835
1.0886836 1.0527978 0.98745435 0.9252143 1.1064577 1.0738864 0.97614294 1.030118
0.9985969 1.0873225 1.0647606 0.95325303 0.99373746 0.9954194 1.0594696 0.9580921
1.0064725 1.0566697 0.9688552 0.97082675 1.0848273 0.96912867 1.0549158 1.0134991
1.0287926 1.2450958 0.9999117 1.0143094 1.0361724 1.0924886 0.97694176 0.9760696
0.94463205 1.0745271 0.91686106 0.995255 1.0102239 0.9876374 0.9859066 0.9283433
0.95901746 1.0047256 1.3380532 1.0715443 1.0350244 1.017894 0.90959376 0.96608084
0.9789489 0.9668146 0.9841899 0.9918246 1.0402598 0.96435446 1.0365413 1.2727249
1.0106013 0.97239256 0.97404903 1.0210124 0.9633425 1.047915 0.99342316 1.047464
1.0122198 1.0606894 0.9627068 1.0353444 1.0368502 0.99349236 0.9622996 0.92362255
1.0315933 0.96696824 1.0107092 1.0427705 0.9760681 1.0940616 0.9886762 1.1711507
0.9670215 1.026786 1.0005785 0.95159805 1.0153338 1.035473 0.98347205 0.9806577
00000000: 0f3f 733f 6736 963f bbcb ed3f 3c58 823f
00000010: 4416 9e3f 643e 853f c032 7b3f 38dd 7e3f
00000020: e6d3 783f c4ca 703f da76 7e3f b3f6 753f
00000030: 2e6a 7d3f bd4e 883f 910a 7c3f f62a 783f
00000040: 6765 783f 0cb3 983f a6f3 803f 7b81 883f
00000050: ea39 8f3f 4aa0 6e3f 96b6 833f 44d5 673f
00000060: 759e 843f 6fb4 613f 6e98 843f 12c2 793f
00000070: 8870 843f 8144 863f cbeb 8f3f 9287 7a3f
00000080: 79fa 8b3f 905f 873f 7b67 833f 0d47 8a3f
00000090: 3841 7a3f 7cd9 8c3f 3ebe 8d3f bc21 7b3f
000000a0: fc59 8b3f 14c2 863f cfc9 7c3f d8da 6c3f
000000b0: 68a0 8d3f 1c75 893f 81e4 793f e8da 833f
000000c0: 0ca4 7f3f 622d 8b3f 134a 883f 6408 743f
000000d0: 9465 7e3f ced3 7e3f b39c 873f 8645 753f
000000e0: 17d4 803f f440 873f e506 783f 1a88 783f
000000f0: 9fdb 8a3f d118 783f 7b07 873f 57ba 813f
00000100: 7aaf 833f 4d5f 9f3f 37fa 7f3f e4d4 813f
00000110: 4ca1 843f abd6 8b3f db18 7a3f b3df 793f
00000120: 68d3 713f 1b8a 893f 68b7 6a3f 08c9 7e3f
00000130: 044f 813f ced5 7c3f 6064 7c3f e8a7 6d3f
00000140: 2b82 753f d99a 803f 5445 ab3f 5d28 893f
00000150: ae7b 843f 5a4a 823f 23db 683f 1351 773f
00000160: 659c 7a3f 2981 773f dff3 7b3f 38e8 7d3f
00000170: 3c27 853f efdf 763f 63ad 843f a6e8 a23f
00000180: 625b 813f b8ee 783f 475b 793f 89b0 823f
00000190: 9d9d 763f 1422 863f fb50 7e3f 4d13 863f
000001a0: 6b90 813f acc4 873f f473 763f 2a86 843f
000001b0: 82b7 843f 8455 7e3f 4459 763f 8772 6c3f
000001c0: 400b 843f 3b8b 773f eb5e 813f 8179 853f
000001d0: 99df 793f 360a 8c3f e219 7d3f 44e8 953f
000001e0: b98e 773f b96d 833f f512 803f ee9b 733f
000001f0: 75f6 813f 618a 843f d3c4 7b3f 620c 7b3f

fc.layers.2.linear.bias f4 [128]
0.045091182 -0.058975324 -0.024849884 -0.01227095 -0.055350576 -0.026916325 0.005525973 0.080666
-0.0034708611 0.037723105 0.0034990914 -0.049984418 -0.030321747 -0.055002496 0.076466024 -0.055413865
0.043427277 -0.021199452 -0.008379738 -0.06026313 -0.04100111 0.007262526 -0.042316284 -0.026660644
-0.031118695 -0.009242327 0.02602776 -0.017216628 0.011923247 -0.06535938 -0.073725075 -0.010501266
-0.044959236 -0.02829206 -0.047793772 -0.037288275 -0.0015262348 -0.021644946 -0.019365244 0.010765659
-0.040178273 -0.007713596 0.027403671 0.010517727 -0.07120102 -0.0662777 0.03586315 -0.07257694
0.061733767 -0.08873511 -0.051918328 -0.026184814 -0.0094693 0.004950697 -0.072009124 -0.0115227625
-0.01857203 -0.028954398 0.09513174 0.06395157 -0.033355672 -0.0011781256 -0.050655622 0.0015578038
-0.0184364 -0.039621633 0.04238659 -0.03198112 -0.047085594 -0.107272364 -0.08826877 1.9410734e-06
0.02749748 -0.06774623 0.01631145 0.020376539 0.0120873405 0.016749453 -0.040622853 -0.1389375
0.05750266 -0.20991205 -0.01186737 -0.06938516 -0.05628014 0.10503854 0.0013976804 -0.03566132
-0.06845913 -0.039895825 0.0072904937 -0.08976466 -0.08480297 -0.034434002 0.05184221 -0.0565997
-0.0074028294 -0.038377587 -0.033722684 -0.05804162 0.049239635 -0.05706114 -0.016968848 -0.017781325
0.0022996983 -0.03709554 0.0726491 -0.01651015 -0.02816685 0.016045125 -0.027219541 0.028271005
-0.04128699 0.0023553546 -0.026384175 -0.027773911 0.09266143 -0.08439443 -0.07836453 -0.003242487
0.021690523 -0.048267953 0.07086025 -0.043865453 -0.08005689 -0.1357888 0.11874496 0.014204789
00000000: 88b1 383d 1c90 71bd fc91 cbbc 180c 49bc
00000010: 49b7 62bd a07f dcbc 3913 b53b 3734 a53d
00000020: 6377 63bb 8b83 1a3d 0351 653b 76bc 4cbd
00000030: 5065 f8bc 4c4a 61bd 389a 9c3d a6f9 62bd
00000040: cde0 313d 79aa adbc 2b4b 09bc 79d6 76bd
00000050: c8f0 27bd 7cfa ed3b d753 2dbd 6c67 dabc
00000060: a2ec febc 216d 17bc 2b38 d53c e309 8dbc
00000070: b959 433c 23db 85bd 2cfd 96bd 810d 2cbc
00000080: 2d27 38bd c0c4 e7bc 67c3 43bd 97bb 18bd
00000090: f10b c8ba be50 b1bc dca3 9ebc 7262 303c
000000a0: f991 24bd 55c2 fcbb aa7d e03c 8b52 2c3c
000000b0: d7d1 91bd 9abc 87bd 3de5 123d 38a3 94bd
000000c0: 8cdc 7c3d c1ba b5bd 50a8 54bd 8981 d6bc
000000d0: 1f25 1bbc 7539 a23b 8579 93bd f8c9 3cbc
000000e0: 5f24 98bc c631 edbc 6ed4 c23d 0af9 823d
000000f0: f59f 08bd 566b 9aba 457c 4fbd 392f cc3a
00000100: ef07 97bc 4b4a 22bd 909d 2d3d a3fe 02bd
00000110: d3dc 40bd 9db1 dbbd 42c6 b4bd 6343 0236
00000120: 6542 e13c 89be 8abd 979f 853c b3ec a63c
00000130: fb09 463c 2636 893c 2664 26bd a245 0ebe
00000140: e987 6b3d 2ff3 56be 5c6f 42bc cf19 8ebd
00000150: 0186 66bd 721e d73d 5f32 b73a 9b11 12bd
00000160: 4d34 8cbd ce69 23bd 18e5 ee3b 89d6 b7bd
00000170: 2ead adbd ab0a 0dbd 7f58 543d 16d5 67bd
00000180: 6f93 f2bb d131 1dbd cc20 0abd 0dbd 6dbd
00000190: 80af 493d f1b8 69bd 4102 8bbc 24aa 91bc
000001a0: 89b6 163b 7ef1 17bd 0dc9 943d 4b40 87bc
000001b0: 2abe e6bc 1171 833c 84fb debc 9898 e73c
000001c0: 8c1c 29bd 4b5c 1a3b a023 d8bc 1d86 e3bc
000001d0: 47c5 bd3d fdd6 acbd 957d a0bd e87f 54bb
000001e0: 53b0 b13c 9eb4 45bd 2e1f 913d 43ac 33bd
000001f0: def4 a3bd 380c 0bbe 8f30 f33d 34bb 683c

fc.layers.3.linear.weight f4 [128, 128]
0.017480334 0.16310257 -0.03767088 -0.06928644 0.13582374 -0.1270123 -0.111372285 0.09794761
-0.08833306 0.06538549 -0.021024322 -0.056073677 -0.010973099 0.0008142305 -0.015167662 -0.10951164
0.073441446 0.038758032 0.028036492 -0.07015238 0.014226659 0.08075903 -0.047634356 -0.12552425
-0.12597644 0.12406834 0.03819075 -0.026077392 -0.017098613 -0.069507934 -0.07322799 0.08460491
0.14954546 -0.108439796 0.111605965 -0.016713632 0.0904604 0.07277222 -0.11666328 0.015771747
-0.09809647 0.103442945 0.058517713 -0.07857023 0.083978646 0.0073157 0.10196017 -0.00048659332
0.04612565 0.007836828 -0.009002721 0.06474709 -0.032231495 0.12430698 -0.24117078 0.022223221
0.031556264 -0.04847937 -0.060074717 0.13600604 -0.10059043 0.06368236 -0.061140034 -0.16305543
-0.2023947 0.04919719 0.023365976 0.07847795 0.044708647 -0.2215064 -0.104070455 -0.059008814
0.097035006 0.17006284 -0.13257581 0.09436025 -0.16038185 -0.13085379 -0.034202106 0.10446211
0.08415638 -0.12688224 0.17878844 0.1281166 -0.08036206 -0.11779599 -0.06834081 0.0017307269
-0.16982117 -0.07583367 -0.104185164 0.002948247 0.09184453 0.013518097 -0.0028081704 -0.014826367
0.034688592 0.04243016 -0.12963052 0.14352876 0.055157714 -0.15872166 0.09545858 -0.155635
-0.055356268 -0.21133791 -0.0735585 -0.06621606 0.07449246 -0.06945485 0.068134636 -0.011817984
-0.04311098 0.13540527 -0.08537722 0.00998136 0.031953163 -0.16881746 0.120588146 -0.07132964
0.05832762 0.15742545 0.1026105 -0.03200981 0.124511786 0.16432919 -0.16270268 0.12297596
-0.0038087217 -0.08174292 0.028460072 -0.09659191 0.12362463 -0.024841331 -0.011491137 0.09428941
-0.1511179 0.008432872 0.059297774 0.047954064 -0.0836719 0.03724113 -0.046931084 0.099819176
-0.15450774 0.05880426 -0.0077524 -0.019411774 0.056097597 0.01622129 -0.043334037 0.056113105
-0.13689786 -0.07064699 -0.14089797 -0.1725553 0.025391245 0.18122903 -0.07489339 0.10191625
-0.018114686 -0.047571063 0.02794072 0.14047228 0.013844849 0.13194309 0.09488018 -0.15094757
-0.06164237 0.09189606 0.034574244 0.03474249 -0.115476854 -0.072731495 -0.16701043 -0.14372335
0.005210129 0.1157178 -0.1294572 0.08666518 0.084479295 0.01198555 -0.06271554 0.0684902
0.13220945 -0.12899752 0.014957769 -0.1551802 -0.0001789543 0.06812985 -0.17301644 -0.17025504
0.11329848 0.10165328 -0.119105704 0.0661144 -0.08556076 -0.08115513 -0.01549957 0.112153485
0.00030624837 0.088840455 0.054289926 -0.051037133 0.11928815 0.08638121 -0.0022350834 0.042424895
-0.16627249 0.20576814 -0.04435674 0.12215897 0.0011845413 -0.21332902 0.1333466 -0.014839882
-0.1506311 -0.14609616 -0.13957001 0.047344267 -0.1011385 0.06145134 -0.109045945 -0.07484071
0.06352613 -0.0053495537 -0.024508484 -0.09880554 -0.16697775 -0.14826253 -0.04299907 -0.121538386
-0.031067688 0.09760187 0.11558961 0.04136349 -0.010603477 -0.0010912573 -0.2345317 0.09641309
-0.05547819 -0.12367906 0.1611708 0.16088176 -0.105557844 -0.026827268 0.1498185 -0.06924471
0.12669589 -0.12533882 0.1348748 -0.032763664 -0.060289063 0.089582205 0.08117296 -0.19515748
00000000: eb32 8f3c 5c04 273e c84c 1abd 0de6 8dbd
00000010: 6115 0b3e 830f 02be 2717 e4bd c298 c83d
00000020: f7e7 b4bd d4e8 853d 333b acbc 83ad 65bd
00000030: 83c8 33bc 1572 553a c981 78bc a447 e0bd
00000040: 7868 963d bec0 1e3d c9ac e53c 0dac 8fbd
00000050: ef16 693c fe64 a53d 3e1c 43bd 6e89 00be
00000060: f8ff 00be 8b17 fe3d e76d 1c3d 41a0 d5bc
00000070: 6412 8cbc 2d5a 8ebd 8ef8 95bd 5745 ad3d
00000080: 7222 193e af15 debd ab91 e43d 07eb 88bc
00000090: 4d43 b93d 9a09 953d 28ed eebd c033 813c
000000a0: cde6 c8bd e5d9 d33d 45b0 6f3d 6ee9 a0bd
000000b0: fffc ab3d 8ab8 ef3b 7ed0 d03d 731d ffb9
000000c0: 40ee 3c3d 0a66 003c 2680 13bc 1f9a 843d
000000d0: 2c05 04bd a894 fe3d 79f5 76be 790d b63c
000000e0: 2441 013d 4e92 46bd e810 76bd 2b45 0b3e
000000f0: 5b02 cebd e66b 823d f96d 7abd 01f8 26be
00000100: 8e40 4fbe fe82 493d 016a bf3c 0cb9 a03d
00000110: 6a20 373d 93d2 62be e422 d5bd 3ab3 71bd
00000120: 4aba c63d f424 2e3e f4c1 07be f23f c13d
00000130: 243b 24be 89fe 05be 8217 0cbd 3bf0 d53d
00000140: 2e5a ac3d 6bed 01be 5114 373e ff30 033e
00000150: dd94 a4bd 063f f1bd 44f6 8bbd 8fd9 e23a
00000160: 9ae5 2dbe af4e 9bbd 085f d5bd 6037 413b
00000170: fc18 bc3d 027b 5d3c 4809 38bb 4aea 72bc
00000180: a015 0e3d 3fcb 2d3d ddbd 04be 34f9 123e
00000190: 0eed 613d ee87 22be ca7f c33d c85e 1fbe
000001a0: 41bd 62bd f768 58be d7a5 96bd 499c 87bd
000001b0: 818f 983d 583e 8ebd 2c8a 8b3d 38a0 41bc
000001c0: 2495 30bd aea7 0a3e 40da aebd dc88 233c
000001d0: 52e1 023d 7cde 2cbe ebf6 f63d 4615 92bd
000001e0: f1e8 6e3d 2334 213e 7425 d23d b81c 03bd
000001f0: 0900 ff3d e945 283e 889b 26be d2da fb3d
00000200: bf9b 79bb d568 a7bd 1925 e93c fbd1 c5bd
00000210: e92e fd3d 0c80 cbbc 5245 3cbc ce1a c13d
00000220: a7be 1abe 072a 0a3c 39e2 723d 7b6b 443d
00000230: 2c5c abbd 288a 183d cf3a 40bd ff6d cc3d
00000240: 4737 1ebe bcdc 703d d807 febb 7105 9fbc
00000250: 98c6 653d 83e2 843c 087f 31bd dbd6 653d
00000260: f42e 0cbe 5eaf 90bd 8f47 10be 56b2 30be
00000270: 4d01 d03c 1a94 393e b561 99bd 78b9 d03d
00000280: 4065 94bc e0d9 42bd f0e3 e43c f7d7 0f3e
00000290: 81d5 623c 171c 073e 8a50 c23d 0092 1abe
000002a0: b67c 7cbd 0034 bc3d b99d 0d3d 244e 0e3d
000002b0: 217f ecbd 40f4 94bd c804 2bbe 372c 13be
000002c0: bbb9 aa3b 74fd ec3d 6e90 04be 847d b13d
000002d0: 7b03 ad3d 0a5f 443c 0171 80bd 9744 8c3d
000002e0: ea61 073e ed17 04be 6e11 753c 8fe7 1ebe
000002f0: aea5 3bb9 aa87 8b3d 392b 31be 5657 2ebe
00000300: 0909 e83d 982f d03d b1ed f3bd fd66 873d
00000310: 7b3a afbd a934 a6bd e9f1 7dbc bab0 e53d
00000320: f68f a039 fcf1 b53d 1d5f 5e3d 500c 51bd
00000330: 584d f43d a2e8 b03d 7a7a 12bb bac5 2d3d
00000340: 5643 2abe e2b4 523e 6aaf 35bd 7b2e fa3d
00000350: 9c42 9b3a ec72 5abe 038c 083e fa22 73bc
00000360: 0a3f 1abe 3b9a 15be 71eb 0ebe 10ec 413d
00000370: b421 cfbd 66b4 7b3d 7b53 dfbd 1646 99bd
00000380: fd19 823d 4f4b afbb 04c6 c8bc 8f5a cabd
00000390: 37fc 2abe 22d2 17be cb1f 30bd 1ee9 f8bd
000003a0: aa81 febc 7de3 c73d 3fba ec3d c36c 293d
000003b0: 35ba 2dbc 8508 8fba 1429 70be 3a74 c53d
000003c0: 193d 63bd 724b fdbd f509 253e 30be 243e
000003d0: b62e d8bd dcc4 dbbc 056a 193e 2cd0 8dbd
000003e0: 91bc 013e d258 00be 9f1c 0a3e 3133 06bd
000003f0: aaf1 76bd e076 b73d 023e a63d 5dd7 47be

fc.layers.3.linear.weight_g f4 [128, 1]
0.95707864 0.94454455 1.0466471 0.8549747 0.9367354 1.0223434 0.934277 0.9428811
0.8908626 1.0176854 1.0304085 1.0288683 1.0011905 0.9912171 0.89961475 0.782864
1.0357635 1.001576 0.9407609 1.1175042 0.9922821 0.9994135 0.92089957 0.9314435
0.9886822 1.0200894 0.98208535 1.1585457 1.0121769 0.97583044 1.028228 0.98118657
0.9806889 0.8275002 0.95834064 1.07296 0.9679369 0.9762399 1.0221845 0.9634531
1.0723399 1.0258993 0.9784575 0.9771028 1.0165536 1.0148042 1.0270548 1.0491005
0.94261014 1.0953368 0.9764806 0.86293244 1.0360607 1.0409938 1.1340011 1.0134963
0.9986361 1.0018377 1.0500937 0.9152593 0.9954093 0.9721866 0.98671675 1.0380476
1.0020596 1.0563607 0.97928154 1.0215507 1.0797591 1.0032768 0.8294384 0.9721439
0.98471713 1.0235116 0.88647294 0.9004358 0.99663824 0.94893175 0.96460867 1.0438747
1.0233033 0.9449282 1.0366457 1.0219465 1.0235288 1.1118226 0.95423317 0.95834464
1.0739582 1.0207074 0.9854857 1.0409435 1.0053138 1.0241779 0.9586123 0.9566451
0.9136686 0.7406389 1.014714 1.0776497 0.95370805 0.99850845 1.0005879 0.99319834
0.9719689 1.0463023 0.96917856 1.0315526 1.038948 1.0702261 0.992319 1.058065
0.97922754 0.88978773 0.92460316 1.0538248 1.0453835 1.0359111 1.0476108 1.0248517
0.93808067 1.0815204 1.0233614 1.0352395 1.0364567 1.0545981 0.94535 0.95841897
00000000: 1b03 753f accd 713f 88f8 853f 9fdf 5a3f
00000010: e4cd 6f3f 26dc 823f c72c 6f3f a860 713f
00000020: 920f 643f 8443 823f 6de4 833f f5b1 833f
00000030: 0327 803f 67c0 7d3f 274d 663f c669 483f
00000040: e693 843f a433 803f b5d5 703f 610a 8f3f
00000050: 3306 7e3f 90d9 7f3f 13c0 6b3f 1573 6e3f
00000060: 471a 7d3f 4a92 823f f269 7b3f 3a4b 943f
00000070: 038f 813f 06d0 793f fa9c 833f 0b2f 7b3f
00000080: 6e0e 7b3f 0ed7 533f d055 753f c156 893f
00000090: b6ca 773f dcea 793f f1d6 823f dda4 763f
000000a0: 6f42 893f ab50 833f 317c 7a3f 6923 7a3f
000000b0: 6e1e 823f 1be5 813f 8876 833f ed48 863f
000000c0: e64e 713f ff33 8c3f a2fa 793f 24e9 5c3f
000000d0: a39d 843f 493f 853f f326 913f 3fba 813f
000000e0: 9ea6 7f3f 383c 803f 7869 863f 6f4e 6a3f
000000f0: 25d3 7e3f 39e1 783f 7899 7c3f bede 843f
00000100: 7d43 803f d436 873f 32b2 7a3f 2cc2 823f
00000110: 8c35 8a3f 606b 803f 1356 543f 6cde 783f
00000120: 6c16 7c3f 6e02 833f e4ef 623f f682 663f
00000130: af23 7f3f 31ed 723f 98f0 763f b09d 853f
00000140: 9afb 823f d1e6 713f ceb0 843f 25cf 823f
00000150: fe02 833f 3450 8e3f a048 743f 1356 753f
00000160: 7677 893f 8aa6 823f ca48 7c3f a33d 853f
00000170: 1fae 803f 4318 833f 9e67 753f b1e6 743f
00000180: 2fe6 693f 839a 3d3f 26e2 813f 6df0 893f
00000190: 3626 743f 409e 7f3f 4413 803f 3f42 7e3f
000001a0: f4d2 783f 3ced 853f 161c 783f ea09 843f
000001b0: 40fc 843f 2bfd 883f 9e08 7e3f ad6e 873f
000001c0: a8ae 7a3f 21c9 633f cbb2 6c3f bbe3 863f
000001d0: 20cf 853f bc98 843f 1c18 863f 572e 833f
000001e0: 0e26 703f 436f 8a3f 82fd 823f ba82 843f
000001f0: 9daa 843f 12fd 863f 7502 723f f25a 753f
