heat_eq_2d/outputs/tanh_interior_2000_arch_128x3/heat_network.0.pth (torch, 140446 bytes, 10 tensors)

_impl.layers.0.linear.weight f4 [128, 2]
0	0x3edd0817	0.43170235
1	0x3c19d2c5	0.00938863
2	0x3e45492d	0.19266196
3	0xbd46468d	-0.048407126
4	0x3d43480b	0.047676127
5	0xbe4de01f	-0.20105027
6	0xbd0f3f4a	-0.034972467
7	0x3e21d685	0.15804489
8	0xbd86b167	-0.065768056
9	0xbe1c9f1c	-0.1529507
10	0x3dcee2e3	0.10101869
11	0xbe6864e2	-0.22694734
12	0xbd22e0a6	-0.039765023
13	0xbe208364	-0.15675122
14	0xbd83425c	-0.064091414
15	0x3db748ab	0.08949407
16	0xbd741728	-0.059592396
17	0xbdd75bd8	-0.10515565
18	0xbde11100	-0.109895706
19	0x3dfa463f	0.1222043
20	0x3d4c4659	0.049871776
21	0xbe5f0594	-0.21779472
22	0x3d5f0122	0.05444444
23	0x3e26d258	0.16291177
24	0x3eb944e7	0.3618538
25	0xbc610e9c	-0.013736393
26	0x3db94199	0.09045715
27	0xbdfa63af	-0.122260444
28	0xbe0872bc	-0.13325018
29	0x3e5bd7da	0.2146906
30	0x3d2cf45f	0.042225238
31	0xbe9034df	-0.28165337
32	0x3dd2d143	0.1029382
33	0x3e8a4748	0.27007508
34	0xbd6af244	-0.05735995
35	0x3e0d5f3e	0.13805863
36	0x3ebd7830	0.37005758
37	0x3cadd1d1	0.021218212
38	0xbe82d4f2	-0.2555309
39	0xbca12288	-0.019669786
40	0xbf8d38b6	-1.1032932
41	0x3b4af945	0.003097133
42	0xbdda64d8	-0.10663766
43	0xbe914fcb	-0.2838119
44	0x3d4d96a6	0.050192498
45	0x3df054eb	0.11734947
46	0xbf0df52e	-0.5545224
47	0x3bfb7c46	0.0076747267
48	0x3d58373b	0.052787047
49	0x3e561285	0.20905502
50	0xbe95b165	-0.29236904
51	0xbd1949c8	-0.03742388
52	0x3ccdc161	0.025116624
53	0x3ec0942d	0.3761305
54	0x3e849df2	0.25901753
55	0xbce96130	-0.028488725
56	0x3d416bb4	0.047221854
57	0xbe30e1f8	-0.172737
58	0xbd775d93	-0.060391974
59	0x3e2b1778	0.16708171
60	0x3ecac7ba	0.39605504
61	0xbc5a7a15	-0.013334771
62	0xbdd25f6e	-0.10272108
63	0x3e844613	0.25834712
64	0x3eafb399	0.3431671
65	0x3c7b99e8	0.015356518
66	0xbe98ffb3	-0.29882583
67	0xbc987468	-0.018610194
68	0xbe5faf5b	-0.21844237
69	0xbccf157b	-0.025278797
70	0x3e7a3ba4	0.24436814
71	0xbda286d4	-0.07935873
72	0xbda5154c	-0.08060703
73	0x3e2d79d7	0.1694101
74	0xbe914c3d	-0.28378478
75	0xbdc4723e	-0.095921025
76	0x3ebbc992	0.36677223
77	0xbd6d8e68	-0.057997137
78	0x3d3ef427	0.04661956
79	0x3e0bd4ba	0.13655367
80	0xc0912f2f	-4.5370097
81	0xb9a363f9	-0.00031164268
82	0x3da6b564	0.08140066
83	0xbe62dd34	-0.22154695
84	0x3d01d9ed	0.03170197
85	0xbe2f9f69	-0.17150654
86	0xbf3e7da3	-0.74410456
87	0x3b47ccec	0.0030487133
88	0x3e9774ee	0.29581398
89	0x3da5e569	0.08100397
90	0xbe952869	-0.29132393
91	0x3c538f02	0.012912514
92	0x3d6a4e78	0.05720374
93	0xbe7c0055	-0.24609502
94	0x3d678675	0.056524713
95	0xbe15ceff	-0.14629744
96	0x3f02e8b3	0.5113632
97	0x3bae9ed8	0.0053289942
98	0x3e9af2c5	0.30263343
99	0xbd886a73	-0.066609286
100	0xbd6f33dd	-0.05839907
101	0x3e4cf86f	0.20016645
102	0x3fa24f9f	1.2680548
103	0x3b908f4f	0.004411615
104	0x400e014a	2.2188287
105	0x39445d31	0.00018726733
106	0xbf745e24	-0.9545615
107	0xbb8c44b8	-0.004280653
108	0x3f095433	0.536441
109	0x3c02235a	0.007942999
110	0x3e1f83a4	0.1557756
111	0xbd4ae131	-0.049531166
112	0x3db1ebde	0.08687566
113	0x3e38c7ad	0.1804492
114	0x3eb15cf4	0.3464123
115	0xbd65660b	-0.05600552
116	0xbd112a65	-0.03544082
117	0x3e3f63b2	0.18690374
118	0xbd270f64	-0.040786162
119	0xbe3b8913	-0.18314008
120	0xbec0182d	-0.37518445
121	0x3caa46a1	0.020785632
122	0xbf23b108	-0.63942003
123	0x3b9ada43	0.004725726
124	0xbe3071cc	-0.1723091
125	0x3e1361fa	0.14392844
126	0x3d353ded	0.04424851
127	0xbe8a6196	-0.27027577
128	0x3e0a1ec3	0.13488297
129	0xbe8aed63	-0.27134237
130	0xbd8849ec	-0.066547245
131	0x3e1a6575	0.15077765
132	0x3d03e99b	0.032205205
133	0xbe1c68c6	-0.15274343
134	0xbfc974d0	-1.5738773
135	0x3bd1add9	0.006398898
136	0x3d474576	0.048650227
137	0xbe81bd15	-0.2533957
138	0x3e0efb5f	0.13963078
139	0xbe966b9f	-0.29378983
140	0x3d87480a	0.06605537
141	0x3e1bc5ff	0.15212248
142	0xbe0b30d4	-0.13592845
143	0x3e78e093	0.24304418
144	0xbf0492ee	-0.51786697
145	0xbc110afc	-0.008852717
146	0xbda6230e	-0.08112155
147	0xbe39ec8b	-0.1815664
148	0xbdcaa1b6	-0.09894125
149	0x3e620890	0.22073579
150	0x3fad846f	1.355604
151	0x3aaefa5d	0.001334976
152	0x3f550193	0.8320553
153	0x3b89c529	0.0042044115
154	0xbd9d2116	-0.07672326
155	0x3e5c819e	0.2153382
156	0xbd3e1f97	-0.046416845
157	0xbe07b89c	-0.13254017
158	0xbd11dde4	-0.035612002
159	0xbe0b1a69	-0.13584293
160	0x3e9dc16c	0.30811632
161	0xbcd95980	-0.026531935
162	0x3ef705b3	0.48246536
163	0xbbe3138c	-0.0069298204
164	0xbf2e6b01	-0.68132025
165	0xbb04fa71	-0.0020290876
166	0xbeb5c0b9	-0.35498598
167	0xbce289cb	-0.027653595
168	0xbdbc532b	-0.091955505
169	0xbe3d259e	-0.18471381
170	0xbebbf960	-0.36713696
171	0xbd1d1b49	-0.0383561
172	0xbdcc80d5	-0.0998551
173	0x3e4798ea	0.19491926
174	0x3eb51578	0.35367942
175	0xbd20dfb2	-0.039275832
176	0xbebdeb85	-0.3709375
177	0x3c5bd341	0.013417066
178	0xbdbce491	-0.09223283
179	0xbe540835	-0.20706256
180	0x3ec32aca	0.38118583
181	0xbce4a7c5	-0.02791203
182	0xbd9ab41f	-0.075538866
183	0xbe7b9e0d	-0.2457201
184	0xbdc01a5a	-0.09380026
185	0x3e6189d8	0.2202524
186	0x3d484519	0.04889402
187	0xbe03c5c4	-0.1286841
188	0x3d6625da	0.05618844
189	0x3e176629	0.14785065
190	0xbdaec432	-0.08533515
191	0xbe5a3f0c	-0.21313113
192	0x3f034a0d	0.5128487
193	0x3bfbdf92	0.007686564
194	0xbda85e32	-0.08221091
195	0x3e200792	0.15627888
196	0x3ebc2c61	0.36752608
197	0x3c25c9b6	0.010118892
198	0xbd8d82d2	-0.069097176
199	0xbe10aa40	-0.14127445
200	0xbdf79822	-0.12089564
201	0xbe6ef943	-0.23337273
202	0x3eff06d1	0.49809888
203	0x3bb545d6	0.0055320067
204	0xbe004aab	-0.12528484
205	0xbe34911c	-0.1763348
206	0x3d08f6c1	0.033438448
207	0xbe1fb6c5	-0.15597065
208	0x3f9a4a2e	1.2053888
209	0x3b2fb8de	0.002681307
210	0x3dc907a2	0.09815909
211	0x3e40bfbf	0.18823145
212	0xbe9b670b	-0.30352053
213	0x3cc45c2d	0.023969734
214	0x3deeee45	0.1166654
215	0x3e81aa5a	0.2532528
216	0xbdc26d41	-0.09493495
217	0x3e9a58dd	0.30145922
218	0xbd63e69d	-0.05563985
219	0xbe30a454	-0.17250186
220	0xbed7a059	-0.42114523
221	0xbc0c674f	-0.008569553
222	0xbd2c5492	-0.04207284
223	0x3e08316f	0.13300107
224	0xbe03d448	-0.12873948
225	0x3e833130	0.25623465
226	0x3d879871	0.06620873
227	0x3e335322	0.17512181
228	0x3f3f1a32	0.74649346
229	0x3b844cc2	0.0040374706
230	0x3f2e4cdb	0.6808602
231	0x3b41fcd3	0.0029600158
232	0xbd4968eb	-0.049172323
233	0xbe33f916	-0.17575487
234	0xbee816d8	-0.45329928
235	0xbbfa99c6	-0.0076477258
236	0xbd8ebc96	-0.06969564
237	0xbdbf6d4e	-0.0934702
238	0xbd61fda4	-0.05517353
239	0xbe46faa0	-0.19431543
240	0x40094067	2.1445558
241	0xbb20b3a8	-0.0024521146
242	0xbec87c70	-0.39157438
243	0xbc11b17f	-0.008892416
244	0x3da634eb	0.08115562
245	0xbe46d190	-0.19415879
246	0x3f0e9a1b	0.55703896
247	0xbbcfa80f	-0.006337173
248	0x3e9152fd	0.28383628
249	0x3c990e49	0.01868357
250	0xbee17a74	-0.44038737
251	0x3bdc4de2	0.0067231515
252	0x3ef7adcd	0.48374787
253	0xbbc3b2b7	-0.005972232
254	0x3e985c39	0.2975786
255	0xbd46925a	-0.048479415

_impl.layers.0.linear.weight_g f4 [128, 1]
0	0x3f9d3a4d	1.2283417
1	0x3f78dee9	0.97215134
2	0x3fa3d2f4	1.2798753
3	0x3f9e0a9d	1.2346989
4	0x3faf06cc	1.3673949
5	0x3fa11753	1.2585243
6	0x3fa4b191	1.2866689
7	0x3fa10426	1.2579391
8	0x3faac560	1.3341484
9	0x3fa6fd7a	1.3046105
10	0x3fa3e016	1.2802761
11	0x3fab371d	1.3376194
12	0x3f8ab189	1.083543
13	0x3f9ea2da	1.2393448
14	0x3fa0f08b	1.2573408
15	0x3fa99f30	1.3251705
16	0x3faca93f	1.348915
17	0x3fa1c34e	1.2637727
18	0x3f9533fa	1.1656487
19	0x3f8ea5fa	1.1144402
20	0x3f9833c8	1.1890802
21	0x3fad0c2f	1.3519343
22	0x3fafec4a	1.3743985
23	0x3f9fee67	1.249463
24	0x3f9f0f36	1.2426517
25	0x3f8bbb66	1.0916564
26	0x3f9ecc0d	1.2406021
27	0x3f8cba9a	1.0994446
28	0x3fa25308	1.2681589
29	0x3fa53ff0	1.2910137
30	0x3f950f47	1.1645287
31	0x3f9e562b	1.2370046
32	0x3f91170d	1.133516
33	0x3f8fa916	1.1223476
34	0x3f99b7f2	1.2009261
35	0x3f9cdddb	1.2255205
36	0x3f9e680a	1.23755
37	0x3f97c4aa	1.1856892
38	0x3f93f5a4	1.1559339
39	0x3fa9fa44	1.32795
40	0x3f902b76	1.1263263
41	0x3fab844e	1.3399751
42	0x3fa2bc7b	1.271377
43	0x3f985dab	1.1903585
44	0x3f982951	1.1887609
45	0x3f971ef7	1.1806325
46	0x3fa1abc2	1.2630541
47	0x3fa7851a	1.3087494
48	0x3f97537e	1.1822355
49	0x3f9659a1	1.1746103
50	0x3fa1faf4	1.265471
51	0x3f9697c7	1.1765069
52	0x3f9a0552	1.2032874
53	0x3f997e76	1.1991718
54	0x3f95b111	1.1694661
55	0x3f992f93	1.1967643
56	0x3fa7cb93	1.3109001
57	0x3f96ecec	1.1791053
58	0x3fa3c32d	1.2793938
59	0x3fa0fa4c	1.2576385
60	0x3f9476c2	1.1598742
61	0x3f954dca	1.1664364
62	0x3fa07056	1.2534282
63	0x3fa518b4	1.2898164
64	0x3f9f2b3e	1.2435071
65	0x3fa108ba	1.2580788
66	0x3f9f4670	1.2443371
67	0x3f9c4b6b	1.2210516
68	0x3fb5b8ca	1.4197018
69	0x3fa76fae	1.3080957
70	0x3fa7c288	1.3106241
71	0x3fa3c340	1.279396
72	0x3f99d54a	1.2018216
73	0x3fa40d94	1.2816644
74	0x3fa2ca55	1.2717997
75	0x3f9cf536	1.2262332
76	0x3f9614f0	1.172514
77	0x3fa505fb	1.289245
78	0x3fa72ce8	1.3060579
79	0x3fa62922	1.2981303
80	0x3f8ca354	1.0987344
81	0x3f9815ca	1.188165
82	0x3f941a70	1.1570568
83	0x3f992f46	1.1967552
84	0x3fab3f48	1.3378687
85	0x3f9653c6	1.1744316
86	0x3f9fafa5	1.2475477
87	0x3f97a852	1.1848242
88	0x3f961148	1.1724024
89	0x3fa74fc2	1.3071215
90	0x3f94c39d	1.1622196
91	0x3fa5e69e	1.2961004
92	0x3fa35309	1.2759715
93	0x3fa02bb1	1.2513334
94	0x3fa94ed6	1.3227184
95	0x3faed807	1.3659676
96	0x3f97275d	1.1808888
97	0x3f9c440e	1.2208269
98	0x3f9e0a6f	1.2346934
99	0x3fadf827	1.3591355
100	0x3fafba41	1.3728715
101	0x3f9fc4a8	1.248189
102	0x3fac4635	1.3458925
103	0x3f9d98e2	1.2312281
104	0x3f952a92	1.1653616
105	0x3faa5118	1.3305998
106	0x3f859595	1.0436274
107	0x3fa4d4ab	1.2877401
108	0x3fa84162	1.3144953
109	0x3fb0ba71	1.3806897
110	0x3f965fa0	1.1747932
111	0x3fa5fca5	1.2967726
112	0x3f9c69fc	1.2219844
113	0x3fa93ce3	1.3221706
114	0x3f95e0cc	1.1709228
115	0x3f90b698	1.1305723
116	0x3fa7bc7f	1.31044
117	0x3f9e4310	1.2364216
118	0x3fa4d434	1.2877259
119	0x3fad5c9c	1.3543887
120	0x3f8e7914	1.11307
121	0x3f8e8c36	1.1136539
122	0x3fa02232	1.2510436
123	0x3f97096c	1.179975
124	0x3f960c6e	1.1722543
125	0x3f91cd8f	1.1390857
126	0x3f999383	1.1998142
127	0x3f98562d	1.1901299

_impl.layers.0.linear.bias f4 [128]
0	0x3f0430de	0.51637065
1	0x3ed6ddd3	0.41966113
2	0xbeba1754	-0.36345923
3	0x3eb7e663	0.3591796
4	0x3e690495	0.22755654
5	0xbe4a24d4	-0.19740611
6	0x3eb566a5	0.35429874
7	0x3cd975bb	0.026545396
8	0x3df1184e	0.11772214
9	0xbd5f17a6	-0.054465912
10	0xbebdb41a	-0.3705147
11	0xbe9eb006	-0.3099367
12	0x3efe584b	0.49676737
13	0x3b365b74	0.0027825506
14	0x3da7312a	0.08163674
15	0xbeeb8d97	-0.46006462
16	0xbe87e4cb	-0.26541743
17	0x3e53cacf	0.20682834
18	0x3f0681db	0.52541894
19	0xbef0b0a2	-0.4700976
20	0xbf0c9de8	-0.54928446
21	0x3e8e69d1	0.27815107
22	0xbe72184c	-0.23642081
23	0xbf1a2203	-0.6020815
24	0xbeaa266a	-0.33232433
25	0xbedc612e	-0.43042892
26	0xbedff836	-0.43744057
27	0x3ee650ab	0.4498342
28	0xbeaf7e71	-0.34276155
29	0x3e903e22	0.28172404
30	0x3e7f673a	0.24941722
31	0x3e700a3e	0.23441407
32	0x3f03471e	0.5128039
33	0xbeff5059	-0.49865988
34	0xbef84c21	-0.48495582
35	0x3ed0251c	0.40653312
36	0x3e208b33	0.156781
37	0xbecab6c0	-0.39592552
38	0x3efe0907	0.49616262
39	0xbe95d443	-0.29263505
40	0xbf0198d7	-0.5062384
41	0xbe92ec17	-0.28695747
42	0xbec5f0f9	-0.3866041
43	0xbe93d67b	-0.28874573
44	0x3ed7940c	0.42105138
45	0xbf02192b	-0.50819653
46	0xbeb5b509	-0.3548968
47	0xbe7edbdd	-0.24888559
48	0xbe9df606	-0.30851763
49	0x3edbe370	0.4294696
50	0x3e9f7876	0.31146592
51	0x3d9cab5f	0.07649874
52	0xbe94a961	-0.29035476
53	0x3e93cb3a	0.28865987
54	0x3dbc3c58	0.09191197
55	0x3eb22237	0.3479173
56	0xbe30640a	-0.17225662
57	0x3ef31488	0.47476602
58	0x3ec6f9f2	0.38862568
59	0x3eb8e195	0.36109605
60	0xbf0862a3	-0.5327551
61	0xbf0a3299	-0.53983456
62	0xbe1b07ee	-0.15139744
63	0xbedb6942	-0.42853743
64	0xbe285951	-0.16440322
65	0x3e399535	0.18123324
66	0xbeb7162e	-0.3575911
67	0x3eebb49c	0.46036232
68	0xbeeec827	-0.4663708
69	0xbe5845e9	-0.21120419
70	0xbe562e11	-0.2091601
71	0x3e04aa1e	0.1295552
72	0x3cbf976e	0.023387637
73	0x3e361ae7	0.177837
74	0x3e39354c	0.18086737
75	0xbeb40e89	-0.3516734
76	0x3f059e8a	0.52195036
77	0x3e93c1d2	0.2885881
78	0x3e8d7b0d	0.27632943
79	0x3eab7d4d	0.33494034
80	0x3ef998cf	0.48749396
81	0x3f0d8403	0.5527956
82	0x3ec70f9d	0.388791
83	0xbf08a563	-0.5337736
84	0x3e3315a8	0.1748873
85	0xbf01ef6f	-0.5075597
86	0x3e1d7bbb	0.1537923
87	0x3f08ea6a	0.5348269
88	0xbf0a24b1	-0.53962237
89	0x3e4e91cf	0.20172809
90	0xbdf8eb6c	-0.12154278
91	0x3ea81e41	0.32835582
92	0x3e556259	0.20838298
93	0xbe7eaf3d	-0.24871536
94	0xbe873548	-0.26407838
95	0x3e8f4890	0.27985048
96	0xbeac03d8	-0.33596683
97	0x3e180b9d	0.1484818
98	0x3f14651a	0.5796677
99	0x3e37cd43	0.17949395
100	0x3e35c5cf	0.17751239
101	0x3f18e5dc	0.5972574
102	0x3d56dec9	0.05245856
103	0xbeb3f089	-0.3514445
104	0xbea3c42f	-0.31985614
105	0xbe1fb695	-0.15596993
106	0x3e23843b	0.1596841
107	0xbe44343d	-0.19160552
108	0x3e9da936	0.3079316
109	0x3ea6d5b2	0.32584912
110	0xbf0c7236	-0.5486177
111	0x3ea4751e	0.32120603
112	0x3e0d80c2	0.13818648
113	0xbe87d030	-0.26526022
114	0x3e2c8486	0.16847429
115	0xbe4a7f2a	-0.19775072
116	0x3eaebc14	0.34127867
117	0xbf160c75	-0.5861276
118	0xbc324970	-0.010881767
119	0x3eb8ed0a	0.36118346
120	0xbe8c4a8b	-0.27400622
121	0xbf024c73	-0.508979
122	0xbe4ce7e1	-0.2001033
123	0x3f1195c5	0.56869155
124	0x3ef968ce	0.48712772
125	0xbcc49274	-0.023995616
126	0x3f02fc09	0.51165825
127	0x3eec2f24	0.46129715

_impl.layers.1.linear.weight f4 [128, 128]
0	0xbe601508	-0.21883023
1	0xbdf7fa3d	-0.12108276
2	0x3d61ecd8	0.055157512
3	0xbd678dd4	-0.056531742
4	0x3ccffec0	0.025390029
5	0xbd85ad65	-0.06527213
6	0xbd5aff06	-0.053465866
7	0x3c8da74f	0.017291693
8	0x3d4b8a58	0.04969248
9	0x3de3041c	0.11084768
10	0x3c2e269a	0.0106293205
11	0xbd4639a9	-0.048394833
12	0xbe9cf578	-0.30656028
13	0xbdd2de7c	-0.10296342
14	0x3da3b37c	0.07993218
15	0x3d128d73	0.035779428
16	0xbce1e28e	-0.02757385
17	0x3a0b22ee	0.0005307634
18	0xbe912177	-0.28345844
19	0x3e4f8717	0.20266376
20	0x3eb8f75a	0.36126214
21	0x3d971608	0.07377249
22	0x3cdc153a	0.02686559
23	0x3ebdcb37	0.37069103
24	0x3ccbe0f5	0.024887541
25	0x3e45af27	0.19305097
26	0x3b9b9a73	0.0047486364
27	0xbe65ee62	-0.22454217
28	0x3cc1b9c3	0.023648148
29	0x3c62221a	0.013802076
30	0xbd6f4347	-0.05841377
31	0x3d393ede	0.04522597
32	0xbe8bc476	-0.27298325
33	0x3e83590c	0.25653875
34	0x3e5b7fa5	0.21435411
35	0xbe3959fe	-0.18100736
36	0x3d9206c7	0.07130199
37	0x3e151243	0.14557748
38	0xbe85934d	-0.26088944
39	0xbc76a1c6	-0.015053218
40	0x3ea27a0e	0.31733745
41	0xbc113353	-0.008862334
42	0xbb7e88df	-0.0038838906
43	0x3e01e7b6	0.12686047
44	0xbe5c9326	-0.21540508
45	0x3e89a538	0.26883864
46	0x3d1554c1	0.03645778
47	0xbd5663b1	-0.052341167
48	0x3e27236b	0.16322105
49	0xbe22e312	-0.15906933
50	0x3d82b339	0.0638184
51	0x3d557961	0.05211771
52	0x3e19bdc7	0.150138
53	0xbe1b66bf	-0.15175913
54	0x3c6f099c	0.014589693
55	0xbe1bbe02	-0.15209201
56	0xbda5f98b	-0.08104237
57	0xbe837f56	-0.25683087
58	0xbcc30b9c	-0.023809247
59	0x3d79695e	0.0608915
60	0x3e8aa7a2	0.2708102
61	0x3eb14a69	0.34627083
62	0x3d9adc0b	0.07561501
63	0xbd18efb5	-0.037337977
64	0xbd96cb23	-0.07362964
65	0x3c1e965e	0.009679405
66	0x3d48a6ef	0.048987325
67	0xbe10dfb6	-0.14147839
68	0x3cd698bc	0.026195876
69	0xbd9707ba	-0.073745206
70	0x3c180e28	0.009280719
71	0x3d07bad6	0.033137165
72	0xbd8fdbd4	-0.07024351
73	0x3d94bdc3	0.07262757
74	0xbca85212	-0.020546947
75	0x3e10800b	0.14111345
76	0xbe90a390	-0.28249788
77	0x3d395a23	0.045251977
78	0x3d4e4200	0.05035591
79	0xbc55dd01	-0.01305318
80	0xbe5e59df	-0.2171397
81	0xbeafc5a0	-0.34330463
82	0xbe2c66d1	-0.16836096
83	0x3e970a73	0.2950016
84	0x3d291b7d	0.04128598
85	0x3e7d77ea	0.24752775
86	0x3dadf025	0.084930696
87	0xbe852de5	-0.26011577
88	0x3ea2e850	0.31817865
89	0x3d571531	0.052510444
90	0x3d850fad	0.064971305
91	0xbce089f7	-0.027409537
92	0x3cd3b344	0.025842316
93	0xbd523a1d	-0.051324952
94	0xbc7fb531	-0.015607164
95	0xbb889900	-0.0041686296
96	0x3e3b6eb4	0.18303949
97	0x3c33be3b	0.010970647
98	0xbe9f347a	-0.31094724
99	0x3dcb4dee	0.09926973
100	0x3dc353e3	0.095374845
101	0xbec563ac	-0.38552606
102	0x3d91c169	0.07116968
103	0x3d8958f7	0.06706422
104	0x3df272d6	0.118383095
105	0xbd19620c	-0.03744702
106	0xbd908b75	-0.07057849
107	0xbcfb6eb9	-0.030692445
108	0xbd310e1e	-0.043226354
109	0xbbb9076b	-0.0056466362
110	0x3e9f19ae	0.3107428
111	0xbd4452d1	-0.047930542
112	0x3dad8f17	0.08474558
113	0x3c02fe19	0.007995152
114	0xbb8c1c24	-0.0042758156
115	0x3e16dc8a	0.14732566
116	0x3b9765c3	0.0046202852
117	0x3ec1e717	0.3787162
118	0x3dc6ada7	0.0970109
119	0x3c528a9a	0.012850428
120	0x3dac6dc2	0.08419372
121	0x3e9ca861	0.30597213
122	0xbd39b09c	-0.045334443
123	0xbebdbfc5	-0.3706037
124	0xbe78e847	-0.24307357
125	0xbd69cf4d	-0.057082463
126	0xbe903ff0	-0.2817378
127	0xbe585b31	-0.21128537
128	0x3ddcce2d	0.107815124
129	0x3e14786d	0.14499064
130	0x3e38d5ae	0.18050262
131	0xbe2c20df	-0.16809414
132	0xbd519b8c	-0.05117373
133	0x3e6ad2b2	0.22931936
134	0xbc57ebe1	-0.0131787965
135	0xbe514c7f	-0.20439337
136	0xbcf4cb43	-0.029882079
137	0xbe69ff8c	-0.2285139
138	0x3e6034ef	0.21895193
139	0xbb86b9ef	-0.0041115205
140	0x3e262474	0.16224843
141	0x3e61e331	0.22059323
142	0xbe72ad98	-0.23699033
143	0x3e10d0e2	0.14142182
144	0xbd524212	-0.05133254
145	0xbe502792	-0.20327595
146	0x3dd4e92a	0.10396035
147	0xbd8b158a	-0.067912176
148	0xbe27b506	-0.16377649
149	0x3c8c54cf	0.017130284
150	0xbc1afdaa	-0.009459892
151	0xbe3a1bb7	-0.18174635
152	0x3ad54356	0.0016270678
153	0xbd8769d2	-0.066119805
154	0xbd9fe821	-0.07807947
155	0x3e260b09	0.16215147
156	0x3e2edf9a	0.17077485
157	0xbe4f75e6	-0.20259818
158	0x3df42ad3	0.119222306
159	0xbe416649	-0.18886675
160	0x3de3cb8e	0.11122809
161	0xbd84fc32	-0.06493415
162	0xbd9bed27	-0.076135926
163	0x3e42e8e8	0.19034159
164	0xbe526528	-0.205464
165	0xbd7a0ac1	-0.061045412
166	0x3e2da7e3	0.16958575
167	0x3a2a33ce	0.0006492705
168	0xbe17b9ed	-0.14817019
169	0x3e630b8b	0.22172372
170	0x3e260f78	0.16216838
171	0xbe055483	-0.1302052
172	0x3d99cc3a	0.07509656
173	0xbe1b6e65	-0.15178831
174	0x3e3ccbe1	0.18437149
175	0x3e6246a8	0.22097266
176	0x3ccf1aad	0.025281275
177	0x3e3623ad	0.17787047
178	0xbe4d13c5	-0.20027073
179	0x3d426c62	0.047466643
180	0x3ccce12d	0.025009716
181	0x3c7026db	0.014657701
182	0x3d896af4	0.06709853
183	0x3e2f5d91	0.17125537
184	0xbca414aa	-0.020029385
185	0x3e463d59	0.1935934
186	0xbe1bdd03	-0.15221028
187	0xbca9c796	-0.020725053
188	0xbe2a3de8	-0.16625178
189	0xbe3470fa	-0.17621222
190	0xbe5eb39d	-0.21748205
191	0x3e41464c	0.18874472
192	0x3e6989b1	0.22806431
193	0xbe415719	-0.18880881
194	0x3e4c9780	0.19979668
195	0xbd0c6d9e	-0.034284227
196	0x3e31597f	0.17319296
197	0x3e7a9a49	0.24472918
198	0x3d3d7c89	0.046261344
199	0xbe76cd96	-0.24101862
200	0xbd3c5929	-0.045983467
201	0x3d43a7dc	0.047767505
202	0xbe4ac8f6	-0.19803223
203	0x3d2bfa36	0.041986667
204	0x3e1ea78a	0.15493599
205	0xbe48126d	-0.19538279
206	0xbceb59cf	-0.028729348
207	0x3c7746d3	0.015092569
208	0x3e0d30a2	0.13788083
209	0x3e371dff	0.17882536
210	0x3ce3f180	0.027825117
211	0xbe08b808	-0.13351452
212	0x3cdc1f59	0.026870416
213	0xbda3595a	-0.07976027
214	0xbe52ade4	-0.20574147
215	0x3e3067b1	0.17227055
216	0xbe464abb	-0.19364445
217	0x3cb696d3	0.022288715
218	0x3dd196c2	0.10233833
219	0x3b156b89	0.0022799692
220	0xbe6e0444	-0.23243815
221	0x3e581eb6	0.21105465
222	0x3c1804b6	0.009278467
223	0x3d66cee6	0.056349657
224	0xbc1640b5	-0.009170701
225	0xbe5f62ff	-0.21815108
226	0x3dd09a9f	0.10185742
227	0xbd3c17eb	-0.045921247
228	0xbd45c4bf	-0.048283335
229	0x3de02567	0.10944634
230	0xbc2098de	-0.009802071
231	0x3e525bff	0.20542906
232	0xbca769fb	-0.020436278
233	0x3cd752c1	0.026284577
234	0xbd0ffdf5	-0.0351543
235	0x3cac230c	0.021012805
236	0xbe65f465	-0.2245651
237	0xbd60d17c	-0.05488728
238	0xbdc1ff4c	-0.09472522
239	0xbe517ffd	-0.2045898
240	0xbe4c0e0e	-0.19927236
241	0x3d4bc97c	0.049752697
242	0x3d927d85	0.07152847
243	0x3c05b798	0.008161448
244	0x3d22a449	0.039707456
245	0xbdec8ff8	-0.11550897
246	0xb8675581	-5.5154323e-05
247	0x3caf58b1	0.021404596
248	0x3d8e832f	0.06958615
249	0xbd8b185f	-0.06791758
250	0x3e60394f	0.21896861
251	0x3e2d8602	0.16945651
252	0x3d9a7c2d	0.07543216
253	0xbd8a45ed	-0.067516185
254	0x3e329a2c	0.17441624
255	0x3e4bf9db	0.19919531

_impl.layers.1.linear.weight_g f4 [128, 1]
0	0x3fd04981	1.6272432
1	0x3fe03b6d	1.7518135
2	0x3fea114a	1.8286526
3	0x4003decd	2.0604737
4	0x3fac773b	1.3473886
5	0x3fdd904c	1.7309661
6	0x3fb0257b	1.3761438
7	0x3fab179c	1.336658
8	0x3fd4fded	1.6639992
9	0x3fbcc084	1.4746251
10	0x3fb2f38e	1.3980577
11	0x3fdff529	1.7496692
12	0x3fc13f74	1.5097489
13	0x400db17a	2.2139573
14	0x3fa506c0	1.2892685
15	0x3fb9bf1b	1.4511446
16	0x3fa79c95	1.309466
17	0x3faaf1b1	1.3355008
18	0x3fb3f862	1.4060175
19	0x3fc23c83	1.5174717
20	0x3faab309	1.3335887
21	0x3fbf55b3	1.4948028
22	0x3f94f74a	1.1637967
23	0x3fe6fc02	1.8045657
24	0x3fbf5d66	1.4950378
25	0x3fc86d6a	1.565839
26	0x3f8adc56	1.0848491
27	0x4007a8ff	2.1196897
28	0x3fa7db66	1.311383
29	0x3faa9a13	1.332827
30	0x3fd0e7a8	1.6320696
31	0x3f9454f1	1.1588422
32	0x3fe93fce	1.8222597
33	0x3f66b8b6	0.90125597
34	0x3fce399c	1.6111331
35	0x3fb54b1a	1.4163544
36	0x3f8bede5	1.0931975
37	0x3f944742	1.1584246
38	0x3fb14cba	1.385154
39	0x3fa8e170	1.3193798
40	0x3fbb70e1	1.4643823
41	0x3faf2df7	1.3685902
42	0x3fdc3143	1.7202533
43	0x3efe1afc	0.49629962
44	0x3fd7cab6	1.6858737
45	0x3fbf186b	1.4929327
46	0x3fffe6cb	1.9992307
47	0x3fa70e27	1.3051194
48	0x40055c74	2.083768
49	0x3f3d0779	0.7383953
50	0x3fb2805a	1.394542
51	0x3fb72289	1.4307414
52	0x3fac8175	1.3477007
53	0x3f46981e	0.7757586
54	0x3fd36504	1.6515203
55	0x3f830a5d	1.0237538
56	0x3faed615	1.3659083
57	0x3fc31c6e	1.5243051
58	0x3fe7198e	1.8054674
59	0x3fb1125c	1.3833728
60	0x3fc3a658	1.5285139
61	0x3fa7060e	1.3048723
62	0x3fad7f09	1.3554393
63	0x3fc6cd37	1.5531377
64	0x4007b304	2.1203012
65	0x3fe882bd	1.8164898
66	0x3fd602ba	1.6719582
67	0x3fc2456f	1.517744
68	0x3fec5feb	1.8466772
69	0x3fc93322	1.571873
70	0x3fadce57	1.3578595
71	0x3fbad44b	1.4596037
72	0x3fd5b92f	1.6697139
73	0x3fbdf3c9	1.4840022
74	0x3f97c92f	1.1858271
75	0x3fa71ba2	1.3055308
76	0x3fc04608	1.5021372
77	0x4037c2bb	2.8712604
78	0x3f9b7d5b	1.214763
79	0x3fbdd342	1.4830096
80	0x3f8e9338	1.1138678
81	0x3f9fcab0	1.248373
82	0x3fbb0867	1.4611939
83	0x3fa627d2	1.2980902
84	0x3fca89b8	1.5823278
85	0x3fdf8168	1.7461367
86	0x3faf6ce4	1.3705106
87	0x3fbbb19e	1.466358
88	0x3fdf37de	1.7438924
89	0x3fc4b0ca	1.5366452
90	0x3fe8ab32	1.8177245
91	0x3fafb486	1.3726966
92	0x3fb3df66	1.4052551
93	0x3fb45516	1.4088466
94	0x4004f9e4	2.077752
95	0x3ffb34f1	1.9625531
96	0x3ffd0b09	1.9768993
97	0x3fa7aeaa	1.3100178
98	0x403000d4	2.7500505
99	0x3fb33c44	1.4002767
100	0x3faca5f4	1.3488145
101	0x3fabe529	1.3429309
102	0x3fb8a6f2	1.4425948
103	0x3fdef363	1.7418026
104	0x3fa789d5	1.3088938
105	0x3fc529be	1.5403364
106	0x3fbdde86	1.4833534
107	0x3fd54f85	1.6664892
108	0x3fc45bca	1.5340512
109	0x3fa65f61	1.2997857
110	0x3fd31b22	1.6492655
111	0x3fb6340c	1.4234633
112	0x3fc2724f	1.5191134
113	0x3f6b6955	0.919576
114	0x3fcaf3a0	1.5855598
115	0x3fb42821	1.4074746
116	0x3ff25748	1.8932886
117	0x3fb7abc2	1.4349291
118	0x3fd0fcf9	1.6327201
119	0x3fb71476	1.4303119
120	0x3fb92939	1.4465705
121	0x3fb6c55a	1.4278977
122	0x3fd567bd	1.6672283
123	0x3fb468ec	1.409452
124	0x3fcc6e11	1.597109
125	0x3fb1e00f	1.3896502
126	0x3fe06aa1	1.753254
127	0x4003369d	2.0502083

_impl.layers.1.linear.bias f4 [128]
0	0xbe963db4	-0.2934395
1	0xbd8d4739	-0.0689835
2	0xbe1f46a1	-0.15554287
3	0xbc4d9c42	-0.012549462
4	0x3ca70fc9	0.02039327
5	0xbe2a75fe	-0.16646573
6	0xbdccbebe	-0.09997319
7	0xbd227f24	-0.039672032
8	0x3b96e664	0.0046051014
9	0x3e8082ab	0.25099692
10	0xbc9fa56c	-0.019488059
11	0xbd3234c7	-0.043507364
12	0x3c7c31b1	0.015392707
13	0x3e0d5d71	0.13805176
14	0x3cc75758	0.024333641
15	0x3cc13882	0.023586515
16	0x3c6474a2	0.013943823
17	0xbb85185a	-0.004061741
18	0xbe723c9c	-0.23655933
19	0xbb8b8a76	-0.004258449
20	0x3db8cf35	0.090238966
21	0x3c97f5ea	0.018549878
22	0x3c9c86c2	0.019107226
23	0xbc7e6849	-0.015527793
24	0x3da11695	0.07865635
25	0x3e800991	0.250073
26	0xbc1e5e27	-0.009666002
27	0xbe5ba91e	-0.21451232
28	0x3e1f1ce2	0.15538362
29	0xbe4d97bb	-0.20077412
30	0xbe9098f6	-0.282417
31	0x3de0e4a9	0.109811135
32	0xbd8a2035	-0.06744424
33	0xbdb5a642	-0.08869602
34	0xbd443278	-0.047899693
35	0xbdb1fa4a	-0.08690317
36	0x3d2f0700	0.042731285
37	0xbdb45d4d	-0.08806858
38	0xbe035d14	-0.12828475
39	0x3dd1450b	0.10218247
40	0xbade8f4a	-0.0016979959
41	0x3c7fef1e	0.015620975
42	0xbc3d927c	-0.011570569
43	0x3bca4dd2	0.0061738277
44	0x3d8111fb	0.063022576
45	0x3e7da482	0.24769786
46	0xbdb66024	-0.08905056
47	0xbc02cd1d	-0.007983473
48	0xbe48ccc1	-0.19609357
49	0x3da758f9	0.08171267
50	0x3e26ed79	0.16301526
51	0xbe1c35d1	-0.15254904
52	0x3d94f8e9	0.07274038
53	0x39ad371e	0.00033038197
54	0xbe349b78	-0.17637432
55	0xbd2b0a09	-0.041757617
56	0xbd12c149	-0.035828862
57	0xbe2110de	-0.1572909
58	0xbcce9e9b	-0.025222113
59	0xbe0ec545	-0.1394244
60	0x3be576f8	0.0070027076
61	0xbdde06b6	-0.10841124
62	0xbe40bb48	-0.18821442
63	0x3c6dca9a	0.014513636
64	0xbe5ad0b6	-0.2136868
65	0x3d386403	0.045017254
66	0x3b0b39ff	0.0021244285
67	0x3bd2e4d3	0.0064359694
68	0xbce72cd2	-0.028219614
69	0xbe51f70a	-0.20504394
70	0xbe20f1da	-0.15717259
71	0xbe65ea8a	-0.22452751
72	0x3daacc6a	0.0833977
73	0x3e488bc9	0.19584574
74	0x3bcf6426	0.0063290773
75	0x3dadeedb	0.08492824
76	0x3d22f76b	0.039786737
77	0xbe941784	-0.2892419
78	0x3da7e2ee	0.0819758
79	0xbb2a094b	-0.002594548
80	0xbc80bb8b	-0.015714427
81	0x3e04887e	0.12942693
82	0x3c9c939e	0.019113358
83	0xbe087afd	-0.13328166
84	0x3eae98a9	0.34100845
85	0xbe329bff	-0.1744232
86	0x3d03729e	0.03209173
87	0x3e25239f	0.1612687
88	0xbe07a8c2	-0.1324797
89	0xbeab0103	-0.3339921
90	0x3e1475b0	0.14498019
91	0x3e4937ba	0.19650164
92	0x3e83120d	0.2559971
93	0xbe238c6d	-0.15971537
94	0x3dc5ad7d	0.09652231
95	0xbda1b9fe	-0.07896803
96	0xbe518012	-0.20459011
97	0xbdf4bd7b	-0.11950203
98	0x3b6949c9	0.0035596958
99	0x3d9f463c	0.07777068
100	0x3ddebd43	0.108759426
101	0xbe4ae8d0	-0.19815373
102	0xbbdbed2b	-0.0067116222
103	0x3e32bdf2	0.17455271
104	0xbe1b04f3	-0.15138607
105	0x3aaa9137	0.0013013248
106	0xbe70f706	-0.23531732
107	0xbc0f54b3	-0.008748221
108	0x3cab63c8	0.020921603
109	0xbe044acf	-0.12919162
110	0xbe5ada66	-0.21372375
111	0xbc306b17	-0.01076772
112	0xbca89c34	-0.020582296
113	0xbcf6f600	-0.030146599
114	0xbe77b522	-0.2419019
115	0x3e037564	0.1283775
116	0xbc01e23f	-0.007927476
117	0xbe54e8af	-0.20791887
118	0x3e89f088	0.26941323
119	0xbe48b509	-0.1960031
120	0x3e0dcbe5	0.13847311
121	0xbb7dd735	-0.003873301
122	0xbdd6c213	-0.104862355
123	0xbe378c37	-0.17924581
124	0xbe49251d	-0.19643064
125	0x3cc18949	0.023625033
126	0xbdd738cb	-0.10508879
127	0x3da0733a	0.07834478

_impl.layers.2.linear.weight f4 [128, 128]
0	0x3e5f34bb	0.21797459
1	0xbd57fa48	-0.05272892
2	0xbdb5d1e0	-0.08877921
3	0x3cac02f6	0.020997506
4	0x3dbdaecf	0.09261858
5	0xbd49ec43	-0.049297582
6	0x3e1d4e7a	0.15361968
7	0x3dd01f96	0.101622745
8	0x3e2bb948	0.16769898
9	0xbd036e56	-0.032087646
10	0x3dad418e	0.08459769
11	0x3cab292b	0.020893654
12	0x3e4f9d26	0.20274791
13	0x3d5ecaa3	0.05439247
14	0xbe211683	-0.15731244
15	0xbde1b9f1	-0.11021794
16	0xbe07bf5e	-0.13256595
17	0xbdfd62b4	-0.12372342
18	0x3cd21ac7	0.025647534
19	0x3e01cf46	0.12676725
20	0x3d1131bf	0.035447832
21	0x3e65c8a9	0.22439827
22	0x3da0fd46	0.07860808
23	0xbd1e0bea	-0.03858558
24	0xbe958ef0	-0.29210615
25	0xbe1e3eac	-0.15453595
26	0x3dfb3336	0.12265627
27	0xbcc0b126	-0.023521971
28	0x3ce33716	0.027736228
29	0x3d83fd13	0.064447545
30	0xbd364c56	-0.044506393
31	0xbd8c7c74	-0.06859675
32	0xbe3dfb9f	-0.18553017
33	0xbdad5802	-0.08464052
34	0xbe2be527	-0.16786633
35	0xbde8eee3	-0.11373689
36	0xbe191056	-0.14947638
37	0x3d09dbb5	0.033656795
38	0x3e81efa3	0.2537814
39	0xbdc0618b	-0.09393605
40	0x3d829256	0.063755676
41	0x3dcf4a15	0.10121552
42	0xba3d96ca	-0.0007232247
43	0x3d1cb038	0.038253993
44	0xbd099e68	-0.033598334
45	0xbb461455	-0.0030224521
46	0x3c6db1e9	0.014507749
47	0xbe00b887	-0.12570392
48	0xbcb8e8f6	-0.022572022
49	0xbd58bdc0	-0.052915335
50	0x3dcfe66d	0.10151372
51	0xbdd5df25	-0.10442952
52	0xbea34e30	-0.3189559
53	0xbd2c71b5	-0.042100627
54	0x3dca3cc7	0.098748736
55	0x3c7c92c2	0.015415849
56	0x3dc7fec5	0.0976539
57	0xbca03f55	-0.019561449
58	0xbe2c7acb	-0.16843717
59	0x3e4b77bb	0.19869892
60	0x3e86f84d	0.26361313
61	0x3e2ac9ee	0.16678593
62	0xbe2bbab6	-0.16770443
63	0xbdf54add	-0.1197717
64	0xbd3179c8	-0.04332903
65	0x3d58712c	0.052842304
66	0x3e1a3dae	0.15062591
67	0x3e083a8e	0.13303587
68	0xbd8a5be6	-0.067558095
69	0x3e558b83	0.20854001
70	0xbe2fd1a3	-0.17169814
71	0xbe239c95	-0.159777
72	0x3d35a18b	0.044343513
73	0xbe37c87b	-0.17947571
74	0xbd957e69	-0.072995014
75	0xbcc5ff08	-0.02416946
76	0xbe0efc2e	-0.13963386
77	0xbe49ae0a	-0.19695297
78	0x3d5c31fd	0.05375861
79	0xbe3805eb	-0.17971008
80	0x3de4d6ec	0.111738056
81	0x3e0659cb	0.13120191
82	0xbe8b1822	-0.2716685
83	0x3c5e0fbe	0.013553558
84	0x3e17be93	0.14818792
85	0xbdb0a75b	-0.086256705
86	0xbe35ec42	-0.17765906
87	0x3e2242c9	0.15845789
88	0x3c9c1fed	0.019058192
89	0xbe245987	-0.16049777
90	0x3a86a98f	0.0010273921
91	0xbd9fdeef	-0.07806193
92	0x3d92ebd0	0.07173884
93	0x3e3bab70	0.18327117
94	0x3c36b8df	0.011152475
95	0xbd7c88c6	-0.061653875
96	0xbe1ab4ce	-0.15108034
97	0x3e31730b	0.17329042
98	0x3d8df639	0.06931729
99	0xbc4fa57b	-0.012673731
100	0xbe3844fd	-0.17995067
101	0xbda73f86	-0.08166413
102	0xbd890e1d	-0.06692145
103	0x3e370eb4	0.17876703
104	0xbd9474cc	-0.0724884
105	0xbda65027	-0.081207566
106	0xbe0b6a46	-0.13614759
107	0x3e41c5e4	0.18923146
108	0xbdded9ab	-0.108813606
109	0xbd221fa8	-0.03958097
110	0xbd7ff3f3	-0.062488507
111	0x3dcbe31b	0.09955426
112	0x3cc3d041	0.023903014
113	0xbe18b33b	-0.14912121
114	0x3e4b2a15	0.19840272
115	0x3d1ad89f	0.037804242
116	0xbd30c4c1	-0.04315639
117	0xbe18aa46	-0.14908704
118	0xbe492832	-0.1964424
119	0xbd987ab7	-0.07445281
120	0xbd24e6c0	-0.040259123
121	0x3e39cd7c	0.18144792
122	0xbd8305f2	-0.06397618
123	0x3ca089e8	0.019597009
124	0x3d701a8e	0.058619075
125	0xbdff2c0d	-0.12459574
126	0xbda7b28f	-0.08188354
127	0x3e3391ed	0.17536135
128	0x3d6532dd	0.05595671
129	0x3e4417f8	0.19149768
130	0x3e7c7b2c	0.24656361
131	0x3de910b8	0.11380142
132	0xbcbf1126	-0.023323607
133	0x3e8caf4d	0.27477494
134	0x3d5af378	0.053454846
135	0x3aace5f5	0.0013191091
136	0xbd9b00e8	-0.07568532
137	0xbd36997c	-0.044579968
138	0xbd800b39	-0.062521406
139	0x3e196198	0.14978635
140	0xbdd25964	-0.10270956
141	0xbdcfb2ea	-0.10141547
142	0x3c7f8aaf	0.01559703
143	0x3ddf8b98	0.10915297
144	0x3da07104	0.07834056
145	0x3d8a7d25	0.06762151
146	0x3cc0af41	0.023521068
147	0xbd851d83	-0.064997695
148	0xbe128230	-0.14307475
149	0xbd7d56cd	-0.061850358
150	0xbdc1aa8b	-0.094563566
151	0x3e14fbe4	0.14549214
152	0xbbc20d6a	-0.0059220092
153	0xbd6673f4	-0.056262925
154	0xbcadd325	-0.021218846
155	0x3e330b57	0.17484795
156	0xbd6035a7	-0.054738667
157	0x3d8da48a	0.06916149
158	0x3e1dd163	0.15411906
159	0xbdf0c837	-0.11756938
160	0x3e0acd76	0.1355494
161	0x3ccb75cc	0.024836443
162	0x3e05c6ee	0.13064167
163	0x3dc48655	0.09595934
164	0xbd33a3f4	-0.04385753
165	0x3df7f33c	0.1210694
166	0x3d9bdd09	0.076105185
167	0xbd2fbab1	-0.042902652
168	0xbe01f0cd	-0.12689514
169	0xbd706e5f	-0.058699008
170	0x3de3b5d0	0.11118662
171	0xbb98ccd8	-0.004663091
172	0x3d78211f	0.06057846
173	0xbd96f0c9	-0.07370145
174	0x3cfe153f	0.03101599
175	0x3de3f4bb	0.11130663
176	0x3dc041f0	0.093875766
177	0xbd65280c	-0.055946395
178	0xbd9159bc	-0.070971936
179	0x3e019ce1	0.12657501
180	0x3d99f8ad	0.07518134
181	0x3b807eea	0.0039213793
182	0x3e06ea59	0.13175334
183	0x3d906d28	0.0705207
184	0xbdc423cf	-0.095771424
185	0x3e156abb	0.14591496
186	0x3df2d2f5	0.11856643
187	0x3d17735a	0.036975242
188	0xbd29eb7b	-0.041484337
189	0x3d835a78	0.0641374
190	0x3e215652	0.15755585
191	0x3debf245	0.115208186
192	0x3dee583a	0.11637922
193	0xbe1a9adf	-0.15098141
194	0xbe1374d0	-0.14400029
195	0xbd951b3b	-0.072805844
196	0x3e132c44	0.14372355
197	0x3dd67036	0.10470621
198	0x3d57bb74	0.052669004
199	0x3e08468c	0.13308161
200	0xbe1c62c2	-0.15272048
201	0xbd8b7cbe	-0.06810902
202	0x3dadc565	0.08484916
203	0xbdaa006a	-0.0830086
204	0x3df5600b	0.11981209
205	0x3e24764a	0.16060749
206	0xbdc88bf1	-0.09792317
207	0x3e043aa7	0.12912999
208	0x3dd2a795	0.1028587
209	0xbd9427c8	-0.0723415
210	0x3e0a2b17	0.13493
211	0x3e29775f	0.16549443
212	0xbdf3e3b9	-0.11908669
213	0x3e8133e8	0.25234914
214	0x3da083af	0.07837617
215	0xbc085182	-0.008320214
216	0x3e2a47c4	0.16628939
217	0x3d6bc6c1	0.057562593
218	0xbdadb7a8	-0.08482295
219	0xbe1fb645	-0.15596874
220	0xbe12cb8b	-0.14335458
221	0x3dcdb84a	0.10044916
222	0xbe2e3a10	-0.17014337
223	0x3e7e7a68	0.24851382
224	0x3e2096b8	0.15682495
225	0x3d9c2918	0.076250255
226	0xbe8cec91	-0.27524236
227	0xbdef6842	-0.116898075
228	0x3da20994	0.07911983
229	0x3e50428c	0.20337886
230	0x3deba12b	0.1150535
231	0xbce9aa99	-0.02852373
232	0x3e25d962	0.16196206
233	0x3de80063	0.11328199
234	0x3e02d967	0.12778245
235	0xbe32f9f8	-0.17478168
236	0x3dff5a49	0.124683924
237	0x3df2f245	0.118626155
238	0x3db51c5a	0.08843298
239	0xbdbb5720	-0.09147477
240	0x3dcb8b4b	0.099386774
241	0x3d5f7e47	0.054563787
242	0x3ddeead1	0.108846314
243	0xbe187f40	-0.14892292
244	0x3dd515d5	0.10404555
245	0x3d037b85	0.03210022
246	0xbdd02b89	-0.10164554
247	0x3dce94e1	0.1008699
248	0xbd304b32	-0.04304046
249	0xbda84c2a	-0.08217652
250	0x3e1b6fe4	0.15179402
251	0x3df9005a	0.1215827
252	0x3d8e5797	0.069503
253	0x3c89df61	0.016830148
254	0x3dc9ca81	0.09853078
255	0xbe143fd6	-0.14477476

_impl.layers.2.linear.weight_g f4 [128, 1]
0	0x3f950ee3	1.1645168
1	0x3fde90a4	1.7387891
2	0x40484188	3.1289997
3	0x3fcf7a72	1.6209242
4	0x3f84fefd	1.0390316
5	0x3f828b60	1.0198784
6	0x4014f326	2.3273406
7	0x3f7aa715	0.97911197
8	0x3fd797cd	1.6843201
9	0x3fc3e601	1.5304567
10	0x3f75df05	0.96043426
11	0x3f85279e	1.0402715
12	0x3fbce7a9	1.4758197
13	0x3fd9baac	1.7010093
14	0x3ff87fac	1.9413962
15	0x3fbe1f6d	1.485334
16	0x3ff499aa	1.9109395
17	0x3f67c27a	0.9053112
18	0x402ad205	2.6690686
19	0x3fc2ceba	1.5219338
20	0x3fd31dde	1.649349
21	0x4010ef43	2.2646034
22	0x3fd827c2	1.6887133
23	0x3feef5b6	1.8668735
24	0x40055a42	2.083634
25	0x3f9ec213	1.2402977
26	0x3f94d693	1.1627983
27	0x3fff9992	1.9968741
28	0x3fa089e1	1.2542077
29	0x3fcd7bef	1.6053447
30	0x3f9ceee4	1.2260404
31	0x3fd6a84d	1.6770111
32	0x3fa00ddc	1.250423
33	0x3fc88fa6	1.5668838
34	0x3f8bdeec	1.0927405
35	0x4061b1eb	3.5264843
36	0x4017fd7a	2.374846
37	0x3fda55fe	1.7057493
38	0x3fb61efc	1.4228206
39	0x3f8feeaa	1.124471
40	0x3f9e1766	1.2350891
41	0x3fa2bfcc	1.2714782
42	0x3f86b664	1.0524411
43	0x3fd2348b	1.6422285
44	0x3ff9b8f8	1.9509573
45	0x3f813368	1.0093813
46	0x3ff48957	1.9104413
47	0x3fded549	1.740884
48	0x3fc20f3b	1.5160898
49	0x3f9f6434	1.2452455
50	0x3fbebdfd	1.490173
51	0x3fc8be6d	1.5683113
52	0x3fa96e1d	1.3236729
53	0x3fc26568	1.5187197
54	0x3f76da5e	0.9642695
55	0x4060974d	3.5092347
56	0x3fd906c7	1.6955193
57	0x3fbf2256	1.4932353
58	0x3f9ab1ad	1.2085472
59	0x3fc8423f	1.5645217
60	0x4010cdff	2.262573
61	0x3fbef6f6	1.4919116
62	0x3f954003	1.166016
63	0x3ff59d76	1.9188678
64	0x3f8e36a1	1.1110421
65	0x3fa6a6a1	1.3019601
66	0x3f9f0643	1.2423786
67	0x3fbae544	1.4601216
68	0x3f8e1b76	1.110213
69	0x3f97a38c	1.1846786
70	0x3f678ae6	0.9044632
71	0x3fd2a161	1.6455499
72	0x3fdb8008	1.7148447
73	0x3f9459e0	1.1589928
74	0x3f95a598	1.169116
75	0x3fc206f1	1.5158368
76	0x3fa8d929	1.3191272
77	0x3febebb6	1.8431308
78	0x4029b49c	2.6516485
79	0x3ffb240d	1.9620377
80	0x3fd1c0ec	1.6387
81	0x3f90b138	1.1304083
82	0x3fba3ed4	1.4550424
83	0x3fd3887d	1.6526028
84	0x3f93084f	1.148691
85	0x3f87226e	1.0557382
86	0x3f81896e	1.0120065
87	0x3fb97b83	1.4490818
88	0x4077cfc8	3.872057
89	0x4017c269	2.3712409
90	0x3f97ab43	1.184914
91	0x3ffac49e	1.9591253
92	0x3fe19dad	1.7626244
93	0x4011ada9	2.2762244
94	0x3f91b239	1.1382514
95	0x3fa9f04d	1.3276459
96	0x3f903b52	1.1268103
97	0x3ff45edd	1.909145
98	0x3fafbaee	1.3728921
99	0x3fcf3feb	1.6191381
100	0x3f859194	1.0435052
101	0x3f80d8b7	1.0066136
102	0x3f917d1a	1.1366303
103	0x3fa9a4f1	1.3253461
104	0x3faa0160	1.328167
105	0x3fd6274c	1.6730742
106	0x3fcdff6f	1.6093577
107	0x40367cdc	2.8513708
108	0x3f914b98	1.1351194
109	0x3fef73ef	1.8707255
110	0x3fd5802a	1.6679738
111	0x3fe60586	1.7970436
112	0x3fc3cf94	1.5297723
113	0x3f989b01	1.1922303
114	0x3f987973	1.1912063
115	0x3fd8945f	1.6920279
116	0x400e3819	2.222174
117	0x3f83d1cf	1.0298404
118	0x3f9d9bf3	1.2313217
119	0x3fbe6d64	1.4877133
120	0x400b55b4	2.177106
121	0x3f95d849	1.170663
122	0x3f7b2e12	0.9811717
123	0x3fd72f70	1.6811352
124	0x3fd76324	1.682713
125	0x3f924766	1.1428039
126	0x3fc97c19	1.5740997
127	0x400c06b5	2.1879094

_impl.layers.2.linear.bias f4 [128]
0	0xbcfbb19c	-0.03072434
1	0xbdae7950	-0.08519232
2	0xbe4a5eb7	-0.19762693
3	0x3d1a2250	0.03763038
4	0xbc226cc6	-0.009913629
5	0xbb1b8930	-0.0023732893
6	0x3c8972b1	0.016778322
7	0xbd8c49f7	-0.06850045
8	0x3dbe255a	0.09284468
9	0x3dabcbfb	0.083885156
10	0x3dce8e16	0.100856945
11	0x3c26a1db	0.010170425
12	0xbdb3a29c	-0.0877125
13	0x3dbe1f2c	0.09283289
14	0x3debef99	0.11520309
15	0x3e022b0c	0.12711734
16	0xbd00bd3b	-0.031430464
17	0x3def8979	0.11696143
18	0x3dcc44c8	0.099740565
19	0x3d815e32	0.063167945
20	0x3d862c72	0.06551446
21	0xbd00cea5	-0.03144707
22	0xbcbec08b	-0.023285171
23	0xbd110fe7	-0.035415556
24	0xbe1100b2	-0.14160421
25	0x3c1cddff	0.009574412
26	0x3d4bfb69	0.04980031
27	0x3ccb382a	0.024807055
28	0x3de569de	0.11201833
29	0x3db66c0d	0.08907328
30	0x3d323183	0.04350425
31	0xbdb9a05d	-0.0906379
32	0xbdeeece7	-0.11666279
33	0xbdc37dfb	-0.09545513
34	0x3c244e49	0.01002843
35	0xbe540478	-0.2070483
36	0x3df4d6d1	0.119550355
37	0xbd21b4df	-0.039479133
38	0x3d04e378	0.032443494
39	0xbd606bec	-0.054790422
40	0xbded7fcd	-0.11596642
41	0xbdd56460	-0.10419536
42	0xb9d98777	-0.00041490395
43	0xbd129688	-0.03578809
44	0xbc9516bb	-0.018199315
45	0x3d264667	0.040594485
46	0x3ddd880a	0.10816963
47	0x3d1372e6	0.035998248
48	0xbdb573a3	-0.088599466
49	0x3dd7cfca	0.105376795
50	0xbcbe2a7a	-0.023213614
51	0xbd9c2ac5	-0.07625345
52	0xbd795cbf	-0.060879465
53	0x3db83ac6	0.08995585
54	0x3d0d0a70	0.034433782
55	0xbe565c18	-0.20933568
56	0xbc05c55e	-0.008164732
57	0xbdb4ad97	-0.08822172
58	0xbc99bf10	-0.018767864
59	0xbd906273	-0.07050028
60	0xbc7fac6d	-0.015605074
61	0xbd034299	-0.032045934
62	0x3cc8be5c	0.024504833
63	0x3d0258ca	0.031822957
64	0x3bfe0906	0.0077525405
65	0xbdcf813f	-0.101320736
66	0xbcb7674a	-0.02238812
67	0x3db4d679	0.0882997
68	0x3c6deeeb	0.0145222945
69	0xbdf6fb7a	-0.12059684
70	0xbd824e3b	-0.063625775
71	0x3cfeb5de	0.03109258
72	0x3cd2e8a4	0.025745697
73	0xbdc26233	-0.09491386
74	0xbd0f96ae	-0.03505581
75	0x3dc7dac5	0.09758524
76	0x3d71d29e	0.05903875
77	0xbe1e05e3	-0.15431933
78	0x3b0eeb0e	0.0021807584
79	0x3c6452a4	0.013935719
80	0x3db1bc37	0.08678477
81	0x3b245017	0.0025072151
82	0xbd9f09ce	-0.07765542
83	0x3c9d08b7	0.019169195
84	0xbc0c35ce	-0.00855775
85	0xbd05d1fe	-0.032670967
86	0xbd3a08a2	-0.04541839
87	0xbc837e81	-0.016051533
88	0x3e233fc3	0.15942292
89	0x3d915d2f	0.070978515
90	0x3d582a01	0.052774433
91	0xbdd468ce	-0.103715524
92	0xbdcdfad9	-0.10057611
93	0xbc0d2d48	-0.008616753
94	0xbcc2db1d	-0.023786122
95	0xbd91851d	-0.071054675
96	0x3d74fd71	0.059812013
97	0xbe046063	-0.12927394
98	0x3d95f131	0.07321394
99	0xbd191aca	-0.037379064
100	0x3a2764a1	0.00063855393
101	0x3c8ddf11	0.01731828
102	0x3c4e38cc	0.012586784
103	0x3db5cdd4	0.08877149
104	0xbd577f4b	-0.05261163
105	0x3cc982e3	0.024598544
106	0x3d315b51	0.043299977
107	0x3e00c3f5	0.12574752
108	0xbca62607	-0.020281805
109	0xbcd27d4a	-0.025694508
110	0xbd219280	-0.039446354
111	0x3cbea742	0.023273114
112	0xbdefd1cb	-0.11709937
113	0xbd0e5d3d	-0.034756888
114	0xbd1e465c	-0.03864132
115	0x3d438aa7	0.04773965
116	0xbded57c0	-0.115890026
117	0x3ce53a07	0.027981771
118	0xbdad5e19	-0.08465213
119	0xbd4c239a	-0.04983864
120	0xbd8b3db1	-0.06798876
121	0xbc38acbd	-0.011271653
122	0x3c514003	0.012771609
123	0x3d003717	0.031302538
124	0x3dc004d9	0.093759246
125	0xbb520862	-0.0032048454
126	0x3d425f3c	0.047454104
127	0x3e05703e	0.13031098

_impl.final_layer.linear.weight f4 [1, 128]
0	0x3e8974b1	0.2684684
1	0xbeaa31cb	-0.33241114
2	0xbf128de8	-0.5724778
3	0x3eec4346	0.46145076
4	0x3eaf96ee	0.34294838
5	0xbeb054ff	-0.34439847
6	0x3ef3eb2b	0.47640356
7	0xbe8777c0	-0.2645855
8	0x3e9672eb	0.2938455
9	0x3ee05e6c	0.43822038
10	0x3eb3da9c	0.35127723
11	0xbe7b13c5	-0.2451926
12	0xbee38db7	-0.44444057
13	0x3ed68630	0.41899252
14	0x3ec4cb9b	0.3843659
15	0x3ea8369b	0.3285416
16	0xbec60b1a	-0.38680345
17	0x3eaa3273	0.33241615
18	0xbf922f39	-1.1420661
19	0x3eccb12f	0.3997893
20	0xbe974487	-0.2954447
21	0x3f88412b	1.0644888
22	0xbefff80f	-0.4999394
23	0xbeb359f9	-0.3502958
24	0xbecc61b6	-0.39918298
25	0xbe90e0f6	-0.28296632
26	0x3ebc6d92	0.36802346
27	0x3ed8a6c3	0.4231473
28	0x3eace51c	0.33768547
29	0x3ecb7bf9	0.3974302
30	0xbede75fa	-0.43449384
31	0x3f5389a1	0.8263188
32	0xbeb56448	-0.3542807
33	0xbea1ef9b	-0.31628117
34	0x3e8ceeaa	0.27525836
35	0xbf26f920	-0.65223885
36	0x3f0123c7	0.50445217
37	0x3ebd12b0	0.3692832
38	0xbf5faf49	-0.8737684
39	0xbe433aed	-0.19065447
40	0xbec23815	-0.37933412
41	0xbede3725	-0.43401447
42	0xbe702e9b	-0.23455279
43	0xbec17cf8	-0.37790656
44	0xbed8a2ff	-0.42311856
45	0x3e849bf7	0.25900242
46	0x3ebfc7be	0.3745708
47	0x3ec78070	0.38965178
48	0xbed3a792	-0.41338784
49	0x3eb77e81	0.35838702
50	0xbed6cdce	-0.41953892
51	0xbee3bb5f	-0.4447889
52	0x3e9a2e8c	0.30113637
53	0x3eec2657	0.46123
54	0x3e7cec35	0.24699481
55	0xbf283923	-0.65712184
56	0xbee7ec78	-0.452976
57	0xbee8dc2f	-0.45480487
58	0x3f4ec92f	0.8077573
59	0xbeca9ee8	-0.3957436
60	0xbeecfd59	-0.4628704
61	0xbeda5eda	-0.4265049
62	0x3e88b63f	0.26701543
63	0x3ed50a88	0.41609597
64	0x3e724ce2	0.23662141
65	0xbec47bc1	-0.38375667
66	0xbe6d0fb8	-0.23150527
67	0x3ec363c1	0.38162044
68	0x3eb2237d	0.347927
69	0xbf62be0a	-0.88571227
70	0xbe96ca97	-0.2945144
71	0x3edafbaa	0.4277013
72	0x3ed64919	0.41852644
73	0xbeb20274	-0.34767497
74	0x3e845bcd	0.25851288
75	0x3ee35762	0.44402605
76	0xbec56c7a	-0.38559324
77	0x3f54f6c4	0.83189034
78	0xbf13e5e7	-0.5777268
79	0x3ed43eec	0.41454256
80	0x3eb86287	0.3601267
81	0x3e686a24	0.2269674
82	0xbec789a3	-0.38972196
83	0x3ebc8372	0.36819035
84	0xbec9d63b	-0.39421257
85	0xbe930dd1	-0.2872148
86	0xbe83cdd3	-0.2574297
87	0xbed33689	-0.41252545
88	0x3f51368a	0.81723845
89	0xbf857cde	-1.0428731
90	0xbf568716	-0.83799875
91	0xbecd7e9c	-0.40135658
92	0xbed4cfca	-0.4156478
93	0xbee8d8dc	-0.4547795
94	0xbe5eb225	-0.21747644
95	0x3f3ad271	0.7297736
96	0x3e63dc69	0.22252049
97	0xbefb0f87	-0.49035284
98	0x3ec19496	0.37808675
99	0xbeef18b3	-0.46698532
100	0xbe4bb5ef	-0.19893621
101	0x3ebc22ca	0.36745292
102	0x3e3a8087	0.18213092
103	0x3fb2ee2e	1.3978937
104	0x3f4894cf	0.78352064
105	0x3ee0cdad	0.43906918
106	0x3efa9d05	0.4894792
107	0x3f02ecb7	0.5114245
108	0xbe86d4d0	-0.26334238
109	0xbec4206b	-0.38305983
110	0xbeda9ee0	-0.42699337
111	0x3edb7a56	0.42866772
112	0xbed95168	-0.4244492
113	0x3ec0bd91	0.37644628
114	0xbe8f20cf	-0.27954718
115	0xbf6f3101	-0.9343415
116	0xbee8c648	-0.45463777
117	0x3e95aeb4	0.2923485
118	0x3eaff865	0.34369197
119	0xbef1cf9a	-0.472287
120	0x3f7dde8a	0.9916769
121	0xbefb35d4	-0.49064505
122	0x3e90a7a0	0.28252888
123	0x3ee193c8	0.4405806
124	0x3ea3f4ee	0.32022804
125	0xbf1d8c55	-0.61542255
126	0x3ee87ffc	0.45410144
127	0x3ec5bcf2	0.38620716
