3d_solid_solid/heat_box_outputs/fourier_net_128_silu/heat_net.0.pth (torch, 374754 bytes, 20 tensors)

fourier_layer_xyzt.frequencies f4 [3, 30]
00000000: 0000 0000 0000 0000 0000 0000 0000 803f
00000010: 0000 0000 0000 0000 0000 0040 0000 0000
00000020: 0000 0000 0000 4040 0000 0000 0000 0000
00000030: 0000 8040 0000 0000 0000 0000 0000 a040
00000040: 0000 0000 0000 0000 0000 c040 0000 0000
00000050: 0000 0000 0000 e040 0000 0000 0000 0000
00000060: 0000 0041 0000 0000 0000 0000 0000 1041
00000070: 0000 0000 0000 0000 0000 0000 0000 0000
00000080: 0000 0000 0000 0000 0000 803f 0000 0000
00000090: 0000 0000 0000 0040 0000 0000 0000 0000
000000a0: 0000 4040 0000 0000 0000 0000 0000 8040
000000b0: 0000 0000 0000 0000 0000 a040 0000 0000
000000c0: 0000 0000 0000 c040 0000 0000 0000 0000
000000d0: 0000 e040 0000 0000 0000 0000 0000 0041
000000e0: 0000 0000 0000 0000 0000 1041 0000 0000
000000f0: 0000 0000 0000 0000 0000 0000 0000 0000
00000100: 0000 0000 0000 803f 0000 0000 0000 0000
00000110: 0000 0040 0000 0000 0000 0000 0000 4040
00000120: 0000 0000 0000 0000 0000 8040 0000 0000
00000130: 0000 0000 0000 a040 0000 0000 0000 0000
00000140: 0000 c040 0000 0000 0000 0000 0000 e040
00000150: 0000 0000 0000 0000 0000 0041 0000 0000
00000160: 0000 0000 0000 1041
0.0 0.0 0.0 1.0 0.0 0.0 2.0 0.0
0.0 3.0 0.0 0.0 4.0 0.0 0.0 5.0
0.0 0.0 6.0 0.0 0.0 7.0 0.0 0.0
8.0 0.0 0.0 9.0 0.0 0.0 0.0 0.0
0.0 0.0 1.0 0.0 0.0 2.0 0.0 0.0
3.0 0.0 0.0 4.0 0.0 0.0 5.0 0.0
0.0 6.0 0.0 0.0 7.0 0.0 0.0 8.0
0.0 0.0 9.0 0.0 0.0 0.0 0.0 0.0
0.0 1.0 0.0 0.0 2.0 0.0 0.0 3.0
0.0 0.0 4.0 0.0 0.0 5.0 0.0 0.0
6.0 0.0 0.0 7.0 0.0 0.0 8.0 0.0
0.0 9.0

fc.layers.0.linear.weight f4 [128, 63]
00000000: f155 98be 0578 41bf fa0d a7be e6ea 52bf
00000010: 9d7c 4e3f 5c30 523f 95ee 39bf 16e9 2bbf
00000020: 0764 623f b5ae 183f 97cb df3d d479 523e
00000030: d5b3 da3d a26a 223e 45f1 033f f8d3 4f3d
00000040: 77b4 e1bc 8db9 873e d146 a33d 1ab6 b73d
00000050: 103c 6e3e 6698 c83c 6ba4 4f3d bff6 db3d
00000060: 99df cbbb 113b 0fbc bfd7 613d fc48 423d
00000070: 5b70 a5bb 7153 10bc e934 3a3d 7b32 723b
00000080: a59f 48bd 0ddb 90be c05c ffbd 0480 40be
00000090: 17e3 0fbe c8c7 2fbe 9fa3 93bc bc80 703b
000000a0: 7d3b ebbc 88f9 acbd 45a0 383d 6cbd 40be
000000b0: 1d2e 23be 6f92 8c3d bfa8 c93d a5b1 b53d
000000c0: 9baa a33d 2d58 a9bb b191 f43d c5df 193d
000000d0: 09aa b63d 6d21 fd3d 0b0f 5a3d ac47 003b
000000e0: 1afc c03d 0ae0 953a d25d 2a3c d351 c53d
000000f0: 1a58 f4bc 46fb 56bc b01a f73c 9d26 5fbd
00000100: e46c 873f fb18 1cbf d29a 203f 6bd5 edbe
00000110: a012 ef3e d1ff adbe 979b 243f 9923 39bf
00000120: 41dc aabc 78ea a23c 5fac e93d 6e8f 38bd
00000130: fa19 d93d 2eb0 d23d ac67 64bc 71c5 a13d
00000140: 042f f13a f0c3 febb e679 173d e521 813c
00000150: dad6 a33b a1c7 343c c8f6 833c 0705 81ba
00000160: 7286 853c 14c8 c93c c2b1 953b 8fd3 023c
00000170: 9f9b 963c 28be f239 b114 df3b be44 d0b8
00000180: 3140 49be 704e 2e3e 27d6 3a3e 6fd1 cabe
00000190: 4e17 b63f 301d 17bf 0cd6 0c3e bf0e 163f
000001a0: b45f 193f 098a 01be 5199 023d 4da6 23bc
000001b0: 728f 963b 3a30 03bd d0d9 cbba c52d 243b
000001c0: 43c9 b0bc 3a8d fbbc 6719 0bbc 169c bb3b
000001d0: da8b b0ba 2901 03bc 8289 02bc 7abd 18bb
000001e0: 3bd0 efbb 9de2 023c cc3d 153c a5bf 6abb
000001f0: 5d7a 2539 ea68 223c df42 9bbf 8bd1 16c0
00000200: a90b a13f d2f0 f225 c4ca 0781 5cb7 be2b
00000210: 8a5d 2a3e 3a06 ae3e 5f85 993e 2d89 47bd
00000220: 3549 71bc 8e38 5d3d e8e2 5abb 4db2 123c
00000230: c852 4f3c 8a6b 86b8 56da d53a db2f 173d
00000240: 72e7 2d38 599e 963a 97cd 403d e4f6 3ebb
00000250: ec0c ca3a a5ea ea3c 4b7f afba 6dbc 7e3a
00000260: be51 803c c662 6bba 16f5 503a dd50 47bb
00000270: 3b29 c2b9 28bc ccb9 38cd 7f38 a0ce 6b3e
00000280: 8b5f a63e 45ea de3e b0f1 28bc b1f9 a13e
00000290: c924 e33e 53fa 9dbc 26c8 c73c f3e1 9a3c
000002a0: bc52 a93c 1123 31bc f521 48bd 1855 433c
000002b0: 3e57 253c b73b 10bd f521 113a 4968 41bc
000002c0: f4d3 6cbc 75a3 e9ba 7e13 e2bb 2538 7b3b
000002d0: e193 623b c003 46bb 0441 a33c cf9f 123a
000002e0: d653 1d3b 7886 a73b 5f8b ab39 2a62 00ba
000002f0: cb0d 6d3b 2651 85bd a044 6abe 5ad4 45bd
00000300: f0d0 19be 5a62 25be 1cfe 57be 758e 76bd
00000310: f6e5 e43d af19 c8be 814d 083b 3ee8 59bc
00000320: 2fd2 38bd ae73 87ba 0dba ec3c e74b c4bd
00000330: 3536 7dbb 88ba 1c3c aeed 0a3c 2c96 8b3c
00000340: ff3e 983c 13a2 483d 25cf 0dbc e1b3 97bc
00000350: 51e0 f33d 887c a63c 056b 953c ecbd a43d
00000360: 416b 91bb 0e72 b6bb 7c81 8d3c 61a2 063c
00000370: 5b26 81bb ddd3 30bd 265d babe 6ee9 c1be
00000380: e58d b3be 1984 5cbf c432 14bf 13ab 8bbe
00000390: 182a 0bbf cde8 0fbf 0cab 2c3e 1641 4f3d
000003a0: 61a7 0fbc 9d30 a43d 1ab4 c23e e37c d33e
000003b0: 00a4 843d 14d7 84bc 322a 063c 1530 33bb
000003c0: 7b29 20be 7708 48be 73db 4a3c f56a 133c
000003d0: cd09 953d d4f6 803d 0d7f 363d 0ee8 fa3c
000003e0: 3049 a53d 5cc6 fcbc afa9 e3bc 26f8 c83c
000003f0: b98d 9b3e 2ca3 2abf 4c77 563f 6c8d 0e3f
-0.29753068 -0.7557376 -0.3262785 -0.82389677 0.80658895 0.8210504 -0.7262967 -0.67152536
0.8843388 0.5964158 0.109275036 0.20554286 0.106788315 0.1586099 0.51540023 0.05073926
-0.027551873 0.26508752 0.079724915 0.0897028 0.232651 0.024486732 0.05069391 0.107404225
-0.0062217233 -0.00874211 0.055137392 0.047432885 -0.005048794 -0.0088089565 0.045460615 0.0036956358
-0.048980374 -0.28292122 -0.124688625 -0.18798834 -0.14051472 -0.17166054 -0.018022357 0.0036697825
-0.02871489 -0.08446032 0.04507472 -0.18822259 -0.1593556 0.068638675 0.09846639 0.08871774
0.07991525 -0.005167982 0.11941851 0.03756692 0.089191504 0.12359891 0.053237002 0.001957397
0.094230846 0.0011434567 0.010398345 0.09634747 -0.029827166 -0.013121432 0.030164093 -0.054480184
1.0580106 -0.6097562 0.6273624 -0.46451887 0.46693897 -0.33984235 0.6429991 -0.7231994
-0.020856978 0.019887194 0.1140983 -0.04505866 0.10600658 0.1028751 -0.013940733 0.07898987
0.0018400853 -0.0077748224 0.036981486 0.015763232 0.0049999775 0.011033923 0.016108885 -0.0009843417
0.01629946 0.024631537 0.0045683095 0.00798501 0.018384753 0.00046299514 0.0068078865 -9.931017e-05
-0.19653393 0.17022109 0.18245755 -0.3961291 1.4225862 -0.5902891 0.13753527 0.5861625
0.59911656 -0.12650312 0.031884495 -0.00998838 0.0045947367 -0.032028414 -0.0015552584 0.0025051695
-0.021580344 -0.03070699 -0.008489943 0.005725394 -0.0013469413 -0.007995882 -0.007967355 -0.0023306296
-0.007318524 0.007988599 0.009108972 -0.0035819795 0.0001578121 0.009912709 -1.2129782 -2.3565395
1.2581683 4.2143494e-16 -2.494106e-38 1.3551204e-12 0.16637245 0.33989125 0.29984567 -0.048714805
-0.014726927 0.054009013 -0.0033399407 0.008953643 0.012654014 -6.4096486e-05 0.001631568 0.036910873
4.1461964e-05 0.0011491283 0.047071066 -0.0029138857 0.0015415228 0.02867634 -0.0013389377 0.00097174087
0.015663978 -0.0008979257 0.0007971091 -0.0030413189 -0.00037033283 -0.000390501 6.0987863e-05 0.2302804
0.32494769 0.43538108 -0.010311529 0.31635812 0.44364002 -0.019284403 0.02438743 0.01890657
0.020669334 -0.010811583 -0.04886051 0.011922143 0.010091601 -0.0352132 0.0005536371 -0.011804649
-0.01445483 -0.0017825203 -0.0068992963 0.0038333025 0.0034573006 -0.0030214638 0.019928463 0.00055932713
0.002400627 0.0051124655 0.000327195 -0.000489744 0.0036171551 -0.065096185 -0.22877741 -0.048298217
-0.1502111 -0.161508 -0.21093029 -0.06019445 0.11176674 -0.39082095 0.002079815 -0.0133
-0.04512232 -0.0010334158 0.02889731 -0.0958479 -0.0038637046 0.009565957 0.008479519 0.017039381
0.018584726 0.04898269 -0.008655344 -0.01851839 0.11908019 0.020323053 0.018239507 0.08044037
-0.0044378345 -0.0055677956 0.017273657 0.008217425 -0.00394134 -0.0431708 -0.36399192 -0.37873405
-0.35069194 -0.86139065 -0.5788996 -0.27278957 -0.54361105 -0.562146 0.16862124 0.05059918
-0.008767934 0.08017085 0.38028032 0.41306219 0.06476593 -0.016215838 0.008188771 -0.0027341892
-0.15640824 -0.19534479 0.012381422 0.0089976685 0.0727726 0.06297079 0.04455476 0.03062823
0.080706 -0.030856304 -0.027790872 0.024532389 0.30381563 -0.6665523 0.8377578 0.5568454

fc.layers.0.linear.weight_g f4 [128, 1]
00000000: 7f68 bb3e 7ebb 313f 62a1 d83f 2231 6b3f
00000010: a43e 203f f168 1e3f 500c 0b3f 6e7f 033f
00000020: 4ddf 4f3f 7cd8 0d3f 029f d33e 25e5 1a3f
00000030: 340d 0c3f 5aa2 553f c981 253f 2a09 c13f
00000040: 1e73 263f 9d9a 003f 87eb 823f b0e7 853f
00000050: a4ea cf3f 923b aa3f 6316 5e3f a01d 333f
00000060: b261 fa3e 3857 0a3f 3038 233f ae33 1e3f
00000070: 3763 293f 4851 3c3f 541d 9f3f 1e09 313f
00000080: c991 343f 7e5d e63e f49b fe3e d66f 0e3f
00000090: 7992 e83e 7105 a43f 87fd 163f 9db2 593f
000000a0: 986b 863f 9e81 e63e be85 523f 8246 933f
000000b0: fa76 5d3f cb64 9b3f b6a0 eb3e 6b6d 1e3f
000000c0: dc6c fc3e c5bd 4e3f faee fd3e 9bca 433f
000000d0: e761 183f 8ab6 f13e 6a4e 813f 209b 973f
000000e0: 10a3 293f 325c a73f a355 173f 7508 443f
000000f0: c19e 363f 01cc 223f f131 573f dca2 883f
00000100: e682 2b3f 9008 843f 04a1 463f 4d0a d13f
00000110: 11f8 8d3f e6c3 253f f2af 3c3f 983a 663f
00000120: 9a94 5b3f 7bd2 203f 23cd 0f3f 4320 263f
00000130: a9a5 5540 6453 653f 2c0e 8a3f 89bd 063f
00000140: dee8 fd3e 4200 483f b193 313f 6092 033f
00000150: ee41 d23e 77fe 613f 3618 843f 2f1b 883f
00000160: 6ecb a33f 9eb3 183f 4029 293f 18a6 343f
00000170: 99c5 2c3f 8d5f 653f a4ab 9b3f 2466 7c40
00000180: 0a33 363f e475 7d3f 96b1 9d3f 418e 983f
00000190: 9e2d 1b3f a2fa 413f 714b 0e3f 79f0 523f
000001a0: 8bfe 043f cd31 853f 9c52 843f 942d 483f
000001b0: 244e 943f 5664 9c3f 5e6a f13e aafc 443f
000001c0: d553 3f3f 9fd8 073f 7bee 4e3f 053a 423f
000001d0: 4617 6c3f 3bec 813f c3ba 5e3f 7a73 5b40
000001e0: bced 283f 388f 353f 3eee 843f 7667 163f
000001f0: 9a6b 273f f5ba 1a3f 240a 2e3f 35e5 ca3f
0.36603162 0.69426715 1.692425 0.91871846 0.6259558 0.6187888 0.5431566 0.5136632
0.81200105 0.55408454 0.4133225 0.60505897 0.54707646 0.83450854 0.6465116 1.5080922
0.65019405 0.5023592 1.0228127 1.046133 1.6243482 1.329943 0.8675291 0.6996708
0.4890266 0.54039335 0.6375761 0.61797607 0.66167015 0.73561525 1.2430825 0.69154537
0.7053495 0.44993204 0.49728358 0.556394 0.4542425 1.281416 0.589806 0.8503817
1.0501585 0.45020765 0.82235324 1.1505892 0.8650967 1.2140135 0.4602105 0.6188571
0.49301803 0.80758315 0.49596387 0.76481026 0.5952439 0.4720958 1.0102055 1.1844215
0.6626444 1.3075011 0.59115046 0.76575404 0.7133599 0.63592535 0.8406058 1.0674701
0.6699661 1.0315113 0.7758944 1.6331269 1.1091329 0.6475204 0.7370597 0.89933157
0.85773623 0.6282117 0.5617239 0.6489298 3.338236 0.8958037 1.0785575 0.5263296
0.49591726 0.78125393 0.69365984 0.51395226 0.41065925 0.8827891 1.0319889 1.0633296
1.2796457 0.59649074 0.6607857 0.7056594 0.6748901 0.89598924 1.2161756 3.9437342
0.7117163 0.9900801 1.231982 1.1918412 0.6061648 0.7577306 0.55583864 0.8239818
0.519509 1.0405823 1.033771 0.78194547 1.1586347 1.221812 0.47151464 0.76948035
0.7473729 0.5306491 0.8083264 0.7586978 0.9222301 1.0150217 0.87003726 3.4289231
0.65987754 0.7092166 1.0385206 0.5875162 0.6539856 0.60441524 0.67984223 1.5851198

fc.layers.0.linear.bias f4 [128]
00000000: 667f 0abe ec34 313c 0b97 a03e a732 78be
00000010: 936a bdbe 8e1f 543e b4f0 36bd 0b1f 28be
00000020: 2d8d d23d 0da0 7cbd 1b14 0fbd 7b09 783d
00000030: 3fb9 0dbe e4b8 b6be 62f0 adbd aa74 ab3e
00000040: 4d1c 6abe 6957 2f3e 51ec 9d3e 9ec2 0d3e
00000050: f187 2c3f e5b2 c43e 2de4 83be ba3b cfbc
00000060: 5399 62be 0659 943d 6b19 aabd 648a 0cbe
00000070: e989 d83d 7d63 cfbe c590 95be e25c 553d
00000080: 0c80 483e 4266 2d3c a312 9dbe b007 24be
00000090: 0b63 ac3d 39bc f83e 0f38 36bd 8f9a 5c3e
000000a0: 68a7 003e cbe7 75be 4bdf 473e d289 543e
000000b0: 86d8 293e c21a c63e 62f0 52be 96fc 11be
000000c0: df1c c4be 3c14 493e a5ad 13be 9bce 313e
000000d0: 7c03 013d 5760 1fbb 77fc 1b3e 67a7 b73e
000000e0: d6e8 5dbd fb28 aa3e 03b2 14be 6b1b 723e
000000f0: e48e 223e 2a92 d3bd ba79 963c 60b7 c8be
00000100: e1e9 f13c 51fa 0f3e c987 b13e 24ba c43d
00000110: 8c52 cdbe de5a 85bb 7ea2 ed3e d8d5 bebc
00000120: 6776 1f3e 179b 1fbe fa7a 773d c038 34ba
00000130: 71e3 c83d 4e03 4bbe 6018 a13e 177f 67bc
00000140: df56 d23c bb51 59bd 7abd 8a3c 553e ac3d
00000150: 092b 353d 3b87 7e3e b955 de3e 7be0 283e
00000160: 6455 213e 63f4 9dbe ae53 b4be 3bf1 e73d
00000170: 8c45 3cbd 715f 753e bea9 ebbe 2aa2 893e
00000180: 7cb0 35be a588 13be 949f 753e df55 cdbc
00000190: dad4 6bbe b151 b1be 72dd e4bd 214f c93e
000001a0: 4e38 c2bd c5d8 fb3d d555 9e3e fe99 9bbd
000001b0: 0fa9 863e 8e8d c13e dd09 24bd e29f 21be
000001c0: 2699 443d 0893 debe 98c7 f6bd 5cad d63d
000001d0: c4f9 683e e7d4 54be 6926 ed3a 460a 5f3e
000001e0: 3426 85be a1f0 913d e7a9 003d 8528 76bd
000001f0: d3af 31bd 46e9 e9bd c2b0 b2be 85ef 253e
-0.13525161 0.01081584 0.31365237 -0.24238072 -0.36995372 0.20715162 -0.044663146 -0.16418092
0.102808334 -0.061676074 -0.034931283 0.060555916 -0.13840197 -0.35687935 -0.08493115 0.33487445
-0.22862358 0.17123188 0.30844358 0.13843772 0.6739493 0.38417736 -0.25760022 -0.025297035
-0.22128801 0.072435424 -0.08305629 -0.13724667 0.10573179 -0.4050559 -0.29212013 0.052090533
0.19580096 0.010583462 -0.3067828 -0.16018558 0.084173284 0.48581102 -0.044487055 0.21543334
0.1256386 -0.24014203 0.19518773 0.207557 0.16586503 0.3869229 -0.20599511 -0.1425651
-0.38303277 0.19636625 -0.14421709 0.1736397 0.031497464 -0.0024318898 0.15233026 0.35869905
-0.054177128 0.3323439 -0.14521031 0.23643272 0.15874821 -0.10330613 0.01836859 -0.39202404
0.029530467 0.14060332 0.34673908 0.09605816 -0.4010204 -0.00406967 0.46413034 -0.023295328
0.1557251 -0.15586506 0.060420014 -0.00068749115 0.09809006 -0.1982548 0.3146391 -0.014129422
0.025676189 -0.05305646 0.016936053 0.084103264 0.044230495 0.24856274 0.43424776 0.16491883
0.1575523 -0.30850515 -0.35220093 0.11325308 -0.045964763 0.2396219 -0.4602794 0.26881534
-0.17743105 -0.14407595 0.23986655 -0.02506536 -0.23030415 -0.34632638 -0.1117505 0.39318183
-0.094833955 0.12297205 0.3092486 -0.07597731 0.26300856 0.3780331 -0.04004847 -0.15783647
0.047997616 -0.4347155 -0.12049788 0.104822844 0.22751528 -0.20784341 0.0018093112 0.21781263
-0.2600571 0.071259744 0.03141203 -0.060097236 -0.04338057 -0.114214465 -0.3490048 0.1620465

fc.layers.1.linear.weight f4 [128, 128]
00000000: ab5d 0a3d 1030 51bd 77a2 c0bd 5132 783d
00000010: a700 a63a d79a 1e3b be69 f8bc c37d c0bd
00000020: 97fc 873d 23c0 de3d db1c 2c3e b3a1 d6bd
00000030: 5990 e7bd 31fd 12bd 9f88 a3bd 07c1 79be
00000040: 2298 5e3c 3545 3fbe 8c79 b4bb f9d8 533e
00000050: d7b6 aebe 2f24 06be a73f 683e d677 673e
00000060: 7e45 853d ccc9 67bd 3b73 183e 7675 c8bc
00000070: b11f 13be abc3 12be ebc1 113e edef b8bd
00000080: 5c97 23be 50de 25bd 0f21 8f3a 078c 103e
00000090: df96 033e ee2b 94be 97cd 443e 2db9 48be
000000a0: bb8c 653d 30d0 16bd 2342 95bc 1db1 0ebb
000000b0: a556 07be e7ca 863c 7251 8c3d 3486 fbbc
000000c0: beea 05bd c12b 13be 7772 8fbc 6391 043c
000000d0: 65c9 1fbe 14df 1bbd d858 963c ccdc 77be
000000e0: 4d1d 23bd 1565 db3c 7567 5b3d b996 a8be
000000f0: 61ee 6d3d 21cd f13d 1a93 643e f610 753d
00000100: 65de bdbc b587 57bc 3564 c03d e663 25be
00000110: 55ae d63d ac10 bfbc 77f2 afbe f16f b73d
00000120: 8fda 46bd a93f f03d 591f c03c f4e0 053d
00000130: 54d8 12bf 5054 e6bd 4c2b 0c3e 08d2 bebd
00000140: bb3e 80bb c381 643d 711a fc3c 05dc 133e
00000150: 1832 a43d 654b 52be 8250 d2bd 3c9e c13d
00000160: ba95 823d 486f 81bc df9b 733c 32e3 19bc
00000170: 610a 0a3e f67a 603d aee6 f6bd e1ae 50bf
00000180: a3dd ad3d 9f20 66bd b2eb 6bbe 7abd b93e
00000190: 2d30 bfbc fd5f 013e 5873 e13d 5e43 17bd
000001a0: 2dc5 173d 4178 28bb d06f 55be 801d 3b3e
000001b0: 98d6 4d3d 77ff 92be 60db bdbd c57a 833d
000001c0: 0109 423e 2023 c93d 1a73 fabd c65d 2bbd
000001d0: 9b3d fbbd 7a68 6e3e bc4e 483e 2546 18bf
000001e0: e46c 98bc d195 5cbd e98a e63d 676b f73d
000001f0: fd3b 26be 3606 e83d a966 e03c 826a 4ebe
00000200: 9b73 02be fdc3 32bd 4ff9 c0be af2f 0f3d
00000210: 4cea 4e3e 9143 fb3d 1ae9 4fbe 1e54 c33d
00000220: 39cf adbd 52e6 073e b454 6ebd ef83 3abe
00000230: 7a19 e43c 7367 573d 3a2b 60be 1e95 7cbe
00000240: d2c7 a03d 8785 b93d c10a cebd 7353 85be
00000250: 4ec6 9fbe 0fe7 18be a61f 04be 2511 023e
00000260: fd51 84bc 49c2 02be 60a2 e43d f4fd 0a3e
00000270: dc39 a9bc 7063 143c 96b5 1dbe 7f4d 743b
00000280: aa29 76bd 7bbe 40bd 61a5 ca3d c143 bdbd
00000290: fb38 473c 9def 92be a637 923b caf9 66be
000002a0: 24c5 d83c 075c 9dbb c459 e2bc 5253 83be
000002b0: 372c d23d 4013 2fbe b148 e7bc ccfb 4cbd
000002c0: 1fdc be3d 30dc 42be 0024 59bd 25c3 b23b
000002d0: 6703 db3a 2af8 183d 297d 2ebe d9ed e73c
000002e0: b1f0 d33c cf5c 25be 6e64 013d 598c 493d
000002f0: 96f4 f9bd b9ef 873d 761a bf3c dc3b 06be
00000300: f8f7 36be 8a7f d6bc 0d04 eebd 682c dc3d
00000310: 834e 073e 7def 34bd 9f94 98be 2463 3c3e
00000320: 6d94 303d 7053 c43d 923a 9bbc 345c 423d
00000330: c5c8 ebbd dea1 0b3e 028e 003e a585 09be
00000340: bbe4 61bd 75d1 b8bd aaaf f4bd 292a 7f3d
00000350: 1086 3ebe de29 9ebe 1941 78be a408 59be
00000360: 5082 ecbd e108 3c3c 22ee 2b3d a8be 99be
00000370: 945b cdbd ce84 cbbd 231c 593d 042f 90bd
00000380: 97e1 5e3e 72ed 5cbd 7b23 93be 86ca f2bc
00000390: 8440 f23d c7b7 8d3d c0f9 203e b725 983c
000003a0: 4c9e ffbb 4538 f9bd f05d 9fbe a77b 36bd
000003b0: 571b 1cbd 36a5 39be 43c3 c4bd b5ac 113e
000003c0: d211 643d 6789 763d 822e d33c 3f77 f3bd
000003d0: 91b2 99be a201 bdbd 9120 abbd 1b90 16be
000003e0: 8765 b03c eeb2 b9bd 3c53 05bc 7982 96bd
000003f0: 94e3 c83c 03cf ca3d 25a0 373d 6d35 95be
0.033780735 -0.051071227 -0.09405988 0.06059486 0.0012664989 0.0024201178 -0.03032386 -0.09398987
0.066399746 0.10876491 0.16807882 -0.104800604 -0.11306829 -0.035885993 -0.07985043 -0.2439004
0.013586076 -0.18678744 -0.0055076536 0.20688237 -0.3412387 -0.1309974 0.22680531 0.22604308
0.06507395 -0.056588933 0.14887707 -0.024470072 -0.14367558 -0.14332454 0.1423413 -0.09030137
-0.15975708 -0.040495217 0.0010919886 0.14115916 0.12850522 -0.28939766 0.19219051 -0.19601889
0.056042414 -0.036819637 -0.018220013 -0.0021773048 -0.13216646 0.016454173 0.06851472 -0.030703641
-0.03269457 -0.1437216 -0.017510636 0.0080913035 -0.1560417 -0.03805454 0.01835291 -0.24205321
-0.039822865 0.026781598 0.05356546 -0.32927492 0.058088664 0.11806703 0.2232174 0.05983063
-0.023177335 -0.013154914 0.09394113 -0.1615139 0.1048247 -0.02332338 -0.34364673 0.08956898
-0.048548277 0.11730892 0.023452448 0.032685235 -0.5736134 -0.1124655 0.13688391 -0.09317404
-0.003913728 0.055787813 0.030774327 0.144394 0.08017367 -0.20536573 -0.10269262 0.09454009
0.06376214 -0.015800133 0.0148687055 -0.0093925465 0.13480522 0.054804765 -0.120557174 -0.81516844
0.084895395 -0.056183454 -0.2303913 0.36277372 -0.023338402 0.12634273 0.11008328 -0.03692948
0.037053276 -0.0025706443 -0.20843434 0.18272972 0.05025348 -0.2871053 -0.09270358 0.06419901
0.18948747 0.09821153 -0.12228985 -0.041837476 -0.1226761 0.23282042 0.19561285 -0.5948203
-0.01860661 -0.053853814 0.11256964 0.12081032 -0.16233821 0.1132931 0.027392702 -0.20157817
-0.12739412 -0.04364394 -0.37690207 0.034957584 0.20206565 0.12268747 -0.20303765 0.095375285
-0.0848679 0.13271454 -0.058186248 -0.18214391 0.02784418 0.05258889 -0.2189149 -0.24666259
0.07850613 0.090586714 -0.10060645 -0.2604023 -0.31205982 -0.14931892 -0.12902698 0.12701853
-0.016152376 -0.12769426 0.11163783 0.13573438 -0.020657472 0.009056911 -0.15401301 0.0037277637
-0.060098328 -0.047056656 0.09894825 -0.09241439 0.012159581 -0.28698435 0.0044622 -0.22556224
0.026461191 -0.0048022303 -0.027630694 -0.25649506 0.102623396 -0.17097187 -0.028232904 -0.05004482
0.093193285 -0.19029307 -0.053012848 0.005455392 0.0016709388 0.037346043 -0.17039932 0.028311657
0.025871607 -0.16148685 0.031589918 0.04920611 -0.12204854 0.0663752 0.023328047 -0.13108772
-0.1786803 -0.026183862 -0.116218664 0.10750657 0.13213544 -0.044173706 -0.2980089 0.18397194
0.0431103 0.09586227 -0.018948827 0.047451213 -0.11512903 0.13635966 0.12554172 -0.13429888
-0.055149775 -0.09024326 -0.11947568 0.062296066 -0.18605828 -0.30891317 -0.24243583 -0.21194702
-0.11548293 0.011476726 0.041975148 -0.30028272 -0.10027233 -0.0993744 0.05300535 -0.070402175
0.21765743 -0.053937383 -0.28738007 -0.029637586 0.11828712 0.06919818 0.15720272 0.018572671
-0.007800853 -0.12168936 -0.31126356 -0.044551518 -0.03811201 -0.18129429 -0.09607556 0.14226039
0.055681057 0.06018963 0.025779013 -0.11887979 -0.30019048 -0.09228827 -0.08355821 -0.1470341
0.021532787 -0.09067331 -0.00813752 -0.073491044 0.02452258 0.099027656 0.04483046 -0.29142323

fc.layers.1.linear.weight_g f4 [128, 1]
00000000: aa41 893f 6ea7 9d3f 2626 8e3f 009f b33f
00000010: 9f82 933f 7810 683f 09cb 9d3f 372c 763f
00000020: 646e 5d3f 1e93 c23f 0797 8a3f 02e0 8c3f
00000030: 00e1 ea3f b60c 653f 30f1 833f 7ecb 463f
00000040: 4376 8f3f 44f6 803f 4e2d a83f 256a b53f
00000050: f588 693f 24fd 873f 3568 7e3f a462 603f
00000060: e5c1 2440 564f 783f de83 af3f be46 9b3f
00000070: 2efa 963f de03 943f 36d0 413f 6ca5 a43f
00000080: 223c 773f 50e2 b93f 5fc4 7f3f fa11 883f
00000090: 1bb0 903f 49f1 a33f 9f14 903f de11 8f3f
000000a0: a769 923f 211e fc3f 3a7b 743f cda9 3e3f
000000b0: 0d75 2b3f da37 903f 5815 863f d0a4 9b3f
000000c0: 783a 583f b9c3 a63f 1fa2 533f b996 9b3f
000000d0: 5290 913f de4f ad3f 3f55 8e3f 5aa7 853f
000000e0: 084a 823f 1adb bd3f 4961 833f cab5 913f
000000f0: 0bb1 813f e99f a93f d8bc 1b3f 904f 583f
00000100: d5be e93f a3d3 b03f 37f8 6b3f 828d a73f
00000110: 94b6 993f f072 0540 3a1e 7c3f 644b 423f
00000120: e224 a13f d75d 4a3f c56e 093f bee7 743f
00000130: b3a6 593f ee87 6a3f dfb4 973f 440a cc3f
00000140: 31d9 be3f 7f7f 6c3f aa80 8e3f f9f0 9c3f
00000150: f2cf 833f 997a ab3f 60cf 9c3f 0552 553f
00000160: 417c 653f b702 633f 4084 6e3f fe32 a73f
00000170: 9a1f 313f afda 5c3f cf37 853f 6fe8 9e3f
00000180: 7c99 943f b965 3b3f 02f1 a83f ad0b 3d3f
00000190: 6854 963f ba59 953f e6e9 533f aa16 973f
000001a0: ac22 9a3f 1a03 9c3f 7810 c83f 22e5 b73f
000001b0: ddd1 833f bbd7 8b3f a4ca 873f 3be5 c83f
000001c0: eaf8 b03f 7cc4 383f 19a3 8e3f 4f87 ab3f
000001d0: cc40 7b3f 515c ad3f c93d 8f3f 8834 5e3f
000001e0: ccc6 993f da3f 7b3f b7e2 803f a304 ad3f
000001f0: 91be 973f fa62 673f c95b 943f b3bf bb3f
1.0723164 1.231672 1.1105392 1.4032898 1.1524237 0.9065013 1.2327586 0.96161216
0.8649657 1.5201147 1.082734 1.1005862 1.8349915 0.8947252 1.030798 0.77654254
1.1207966 1.0075154 1.3138826 1.4173018 0.91224605 1.0624127 0.9937776 0.87650514
2.5743344 0.9699606 1.3712118 1.2130964 1.1795099 1.156368 0.7570833 1.2862983
0.9657613 1.452219 0.99909014 1.0630486 1.1303743 1.2808009 1.1256293 1.1177328
1.1438493 1.9696695 0.9550053 0.74477845 0.6697548 1.1267045 1.0475264 1.2159672
0.84464216 1.302848 0.8266925 1.2155372 1.1372168 1.3539999 1.1119765 1.0441697
1.0178843 1.483249 1.0264064 1.1383603 1.0132154 1.3251926 0.6083503 0.844964
1.8261362 1.3814586 0.9217562 1.309006 1.2008843 2.0851402 0.9848362 0.75896287
1.2589381 0.7904944 0.53684646 0.9566611 0.8501999 0.9161366 1.1852072 1.5940633
1.4910032 0.92382044 1.1133015 1.2261039 1.0297835 1.3396789 1.2250786 0.83328277
0.8964272 0.8867602 0.9317055 1.3062437 0.69188845 0.86271185 1.0407656 1.2414683
1.160934 0.7320209 1.319855 0.7384594 1.1744509 1.1668007 0.82778776 1.1803792
1.2041831 1.2188447 1.5630026 1.4366801 1.029842 1.0925211 1.0608716 1.5694956
1.3825963 0.7217481 1.1143523 1.3400668 0.9814575 1.3543798 1.119073 0.86798906
1.2013793 0.98144305 1.0069188 1.351704 1.1855031 0.903854 1.1590511 1.4667877

fc.layers.1.linear.bias f4 [128]
00000000: 7e8e 27be f5a3 9abd c48e c5bd f5e6 fabd
00000010: 53fe 65be f669 27bd 0f85 a5bd f67c 31bd
00000020: bc02 9abd 135d 24be 9e24 9dbd c6e0 e5bc
00000030: 00b9 54be 26f6 bc3d 5a6c 023e 7d45 803d
00000040: 79a3 e4bd 1937 c0bd 608f 28be 4c8d 3dbe
00000050: 1142 283e 42d9 593e c9c7 003e 77e5 c23c
00000060: 74e4 6fbe 81dc da3d efbe 0cbe 945e a5bc
00000070: a4db efbd f6f2 a3bd 7419 e5bd 17e0 a0bd
00000080: 05f4 8d3d fcfb 3dbe 558e 9a3e c85c 41be
00000090: 7458 d5bb 650c 42bd 3146 19be a9f0 183e
000000a0: a832 3f3c c180 91be ec1d 30bd b7fc 173d
000000b0: 160f 3e3d a7c5 adbc c876 72bd a9cd 083e
000000c0: 86ad 3dbd 86b7 9cbd dae0 d63d 59da 46be
000000d0: 765f f4bd 7b2b d5bd e58a d7bd a5e1 b8bd
000000e0: 6cbe 86bd 944b a4bd 5f79 cdbd 5738 20be
000000f0: de08 00be 344d 4abe 50b3 8c3d 6f7a f93c
00000100: 7073 afbd 9905 83be ca38 593e 3cfb 10be
00000110: ea1c 0ebe 3b22 24be 6ffc 2b3e a909 393d
00000120: eea6 16be bafc 983c 4687 77bd 8a43 e03d
00000130: bcc8 ed3c ef6e e53d 43a9 d2bc 6c97 83bd
00000140: 6ca7 ecbc 9fc8 193e ce05 2dbe e9b6 0ebe
00000150: c7c9 abbd 5789 38be 260f 423e c7ab 91be
00000160: 13b4 413e b037 e1bd 9d9d 853d 5aef c9bd
00000170: 563c 9fbc 07dc 0f3e 7cba 113e 1ad3 e3bd
00000180: cc6d 1dbe f224 123e a21d 3fbd c996 b83c
00000190: 80a4 663e 3caa 8cbd 9ce4 323e cf54 18be
000001a0: 6754 2c3d 769f a2bd 33a3 2cbe 06a6 b4bd
000001b0: a956 48be ef71 f8bd 6bcb 96bd 8477 3dbe
000001c0: 62e5 abbd 608f 1b3d 54ec 1abe 6c9b 4dbe
000001d0: 7220 edba b80c 7fbe 4db0 bbbc bb7e a43d
000001e0: 3efa 5cbd 5419 65bd c920 1fbe cc2f 5bbe
000001f0: 7f26 1fbe d43a c73c 4fa1 61bc 12f0 563d
-0.1636295 -0.075508036 -0.09646371 -0.12251083 -0.22460298 -0.040872537 -0.080820195 -0.043332063
-0.07520053 -0.1605113 -0.07673 -0.028061282 -0.20773697 0.092266366 0.12736645 0.06263254
-0.111639924 -0.09385509 -0.16460943 -0.18510932 0.16431452 0.21274284 0.12576212 0.023791058
-0.23426992 0.10686589 -0.1374471 -0.0201867 -0.11711815 -0.080053255 -0.111864954 -0.07855242
0.06931309 -0.18553156 0.30186716 -0.1888305 -0.0065107886 -0.0473751 -0.14968182 0.14935555
0.011669792 -0.28418544 -0.042997286 0.037106242 0.046401106 -0.021212412 -0.05919531 0.13359703
-0.046308063 -0.07652192 0.10492106 -0.1941923 -0.1193227 -0.10408684 -0.10524539 -0.09027413
-0.06579289 -0.08022228 -0.10032915 -0.15646492 -0.12503383 -0.19756013 0.06870139 0.030453889
-0.0856694 -0.25590208 0.2121307 -0.14158338 -0.13878217 -0.16028683 0.16795515 0.04517523
-0.14712116 0.018675197 -0.06043174 0.10950382 0.029026382 0.112027995 -0.025715476 -0.06425366
-0.028888427 0.15017937 -0.16896746 -0.13936962 -0.08388095 -0.18021141 0.18951091 -0.28451368
0.18916349 -0.1099695 0.06524203 -0.09860106 -0.01943795 0.14048778 0.14231294 -0.11124249
-0.15373915 0.14271906 -0.04665912 0.022532837 0.2252369 -0.06868407 0.1747002 -0.14876102
0.04207268 -0.07940571 -0.1685913 -0.08820729 -0.19564308 -0.12131106 -0.07363018 -0.18502623
-0.08393361 0.03797853 -0.15129215 -0.2007882 -0.0018091334 -0.24907196 -0.022911215 0.080319844
-0.053949587 -0.055932358 -0.1553985 -0.21404952 -0.15542029 0.024320044 -0.013771369 0.052475043

fc.layers.2.linear.weight f4 [128, 128]
00000000: 513f 313c 3f80 24be 0fd8 8f3d 6b54 41be
00000010: 2295 7bbd 38bc 823b c795 50be 7d45 b73d
00000020: defd 0cbe 6f04 d83d a1ba ecbd e616 4a3d
00000030: a53a 083e e09d 903d 85b4 00bd d59d d6bd
00000040: a624 29be 485e 9a3d 570e 01bf d406 bebe
00000050: 31d5 03be e4ad 653c d115 32bd b57f e0bd
00000060: ed09 05be 5484 963c 79a7 e93d 1956 d03c
00000070: 62c3 66be ee06 81be 4f9b b5bd aeb8 a9bd
00000080: 10b7 f93d b0fb cebd 5dec a03d 0123 8dbd
00000090: ad15 c8bd b3fd c13c c6e9 81bd ab64 343e
000000a0: 86a4 d7bd 5575 b63d 5f1a 85bd d149 8dbd
000000b0: da0d a93d 6a6c d63c 6bcf c53d 793b 563d
000000c0: 0826 4b3b 77c7 ecbd 600b e43a b9eb 90b9
000000d0: affd 50bb 4abf 1a3d 5a70 57be 5d31 3a3d
000000e0: 5d3c 13be 51c0 73bd 6e4a 143d 4f55 303d
000000f0: 1a1b 7d3a c772 9a3c a982 0dbe 2ffe 5b3d
00000100: 8b41 073e 089f d23d 84fb 4ebb 5892 563d
00000110: f7d7 9bbc 784d 5cbe a696 2ebd bfcc f13c
00000120: 6ee7 3cbd 970e 22be 4368 95bc 83c7 a03c
00000130: cb22 85bd 6e2f 07be 7af8 44bd 36ec 94be
00000140: fc70 4fbe 5423 58bd 9730 10be 2972 91be
00000150: 2eb9 11be ef0a c33d b7a4 ebbc a753 22be
00000160: 2468 06be 6d9e 9ebd 97a8 d9bd 5b3b 3bbe
00000170: 1676 55bc 1fac 753d 5ac6 4ebd a7fa 36be
00000180: dd07 84be 691b 17be c684 5cbe c0f5 6ebe
00000190: 3db4 6e3d 0fe3 34be d0f8 15bd 3d92 4abe
000001a0: 0f3c 133b 3ef3 c9bc 3bcd 97bd bdc9 c4be
000001b0: 6143 0cbe 55f6 26be 2de2 1cbd 0365 a4be
000001c0: a4de 7ebc bf21 9d3d 1f8a 28be 8117 05bf
000001d0: a826 623d 2bd9 bfbe 48c9 ccbc 938e 1c3e
000001e0: 1050 21be 717f 3f3e dac8 3b3d 238d b8be
000001f0: f9d2 2dbe 1abd 98be ed7e 98bd 6ccb 1bbe
00000200: cc5a 17bd 8a67 88bc 9f82 ab3b ad19 563e
00000210: 802b b1bd 0846 aabd 53ed 7a3e 9612 0fbe
00000220: 58ad 3f3e 07dd 3d3d dd47 e7bc 7791 ff3c
00000230: 22d8 ea3d 0049 073e b9be f8bd 7a32 84bd
00000240: 5ca0 10bd a6d3 9ebe f825 883e 2b96 163f
00000250: 8509 dcbd 6543 473e e0cf 293e 38cc c43c
00000260: b3d5 193e 3ee4 48bd 0d80 55bd 5fd2 353e
00000270: cfe3 003e 1f42 87bd 2b5f 393e 1d25 0fbe
00000280: 22bb aebd 12c4 03bc 9012 1cbd 8967 2cbe
00000290: 50b5 fb3c d662 523e c64d 11be efe7 413d
000002a0: 8dfc cd3d 6ef1 71bd 918e a43e 5f7a ce3d
000002b0: c238 15bd 868a ac3d 9534 b8bd 913e 853d
000002c0: 659e 563e a093 723e 1658 5dbd a589 2a3b
000002d0: 914b 353e badc debc 7c65 963d 9fee a93d
000002e0: 06a0 363e aa35 8fbb 596a 22be b0bc 70bd
000002f0: 237e 533d 17a4 d73d b6d8 a7bd a933 273e
00000300: 449f 8b3d ab34 873d 9512 363e f6b8 7a3d
00000310: 2f72 f8bc aeee 1d3e 043f 02be d021 01be
00000320: 2f12 8ebc 5283 3d3c 6610 18be f55b ed3c
00000330: 9061 f83d faa0 0f3e ef14 5fbd 879f b7bd
00000340: aee4 453e 7a81 b3bd c8a3 afbd bd60 00be
00000350: d763 c23d a290 2cbd 2ad0 52bd 2c64 b83d
00000360: 7d55 183d 6971 413e ab7f 00bc 01ff 9d3e
00000370: 7e76 e7bc d288 0abd 8e06 8bbe cee4 553d
00000380: 5055 0ebd 3491 acbd d8f8 6abd 1c7a 033e
00000390: 4baf a3bd 4b60 b1bd d302 3abe 445f 923d
000003a0: 6b57 4b3d e44f 8ebd 0cab 29bd 43e4 693e
000003b0: a2c6 1d3d 8f56 d8bc 4b48 01be 6526 113e
000003c0: 1bda 2a3e 342d 16bd d9f9 76bd ed1a 7bba
000003d0: a5cb a73d ff5c 2f3e 2b6e b03d f0e4 b1bd
000003e0: 0039 833d b39f 13bd 1057 f03d dbaf 933e
000003f0: 5cfe 003e f4a1 a3be 3ae1 a63c a3ac 553d
0.010818318 -0.16064547 0.07023632 -0.18879859 -0.06142152 0.0039897226 -0.20369636 0.08948801
-0.13768718 0.10547721 -0.11559034 0.049338244 0.13303621 0.07061362 -0.031422157 -0.10479323
-0.16517887 0.07537514 -0.50412506 -0.37114584 -0.12874295 0.01401851 -0.043477837 -0.10961858
-0.12992068 0.018373646 0.11408896 0.02543168 -0.2253547 -0.252006 -0.088675134 -0.08287178
0.121931195 -0.10106599 0.07857583 -0.06891442 -0.09769759 0.023680544 -0.06343417 0.17616527
-0.10529427 0.08909098 -0.064991705 -0.06898845 0.08254595 0.026174743 0.096587025 0.05230281
0.003099801 -0.115614824 0.001739841 -0.00027641447 -0.0031889488 0.037780084 -0.21038952 0.045457233
-0.14378496 -0.05950958 0.036203794 0.043050107 0.00096552225 0.018853558 -0.13819374 0.053709205
0.13208596 0.10284239 -0.003158302 0.052385658 -0.019023878 -0.21513927 -0.04262414 0.029516576
-0.046119146 -0.15825878 -0.018238192 0.019626385 -0.06500777 -0.13201687 -0.04808853 -0.29086465
-0.20257944 -0.052768067 -0.14081036 -0.2840741 -0.14230797 0.0952357 -0.028765066 -0.15852223
-0.13125664 -0.07745061 -0.10627859 -0.18284361 -0.013028642 0.0599786 -0.05048213 -0.17869054
-0.2578725 -0.1475655 -0.21535024 -0.23335934 0.058277357 -0.17664741 -0.03661424 -0.19782348
0.0022466218 -0.02465212 -0.074121915 -0.38435164 -0.13697578 -0.16304906 -0.038301636 -0.32108316
-0.015556011 0.07672452 -0.16458939 -0.5198899 0.055212647 -0.37470374 -0.024998322 0.15288763
-0.15753198 0.18700959 0.045845844 -0.3604518 -0.16975011 -0.29831773 -0.07446084 -0.15214318
-0.036951825 -0.016650934 0.005234077 0.20908232 -0.08650875 -0.08314139 0.24504595 -0.13971934
0.18718469 0.046353366 -0.02823251 0.031197293 0.11467005 0.13211441 -0.121457525 -0.0645494
-0.03530918 -0.3102085 0.26591468 0.5882289 -0.10744003 0.19459303 0.16583204 0.02402316
0.15022926 -0.049045794 -0.052124072 0.17756031 0.12586902 -0.066044085 0.1810271 -0.13979001
-0.085317865 -0.008042352 -0.03810364 -0.1683637 0.030726105 0.20545515 -0.14189824 0.04734033
0.10057936 -0.059068136 0.3214002 0.10081934 -0.03643108 0.08424859 -0.08994404 0.06506074
0.2095886 0.23689127 -0.054039083 0.0026021984 0.17704608 -0.02720486 0.07343575 0.082974665
0.17834482 -0.004370411 -0.15860881 -0.058773696 0.051633965 0.105293445 -0.08195631 0.163283
0.06817487 0.066018425 0.17780526 0.06121155 -0.030327884 0.1542308 -0.12719351 -0.12610555
-0.017342655 0.011566954 -0.14850006 0.028974513 0.121279836 0.14026251 -0.054463323 -0.08965974
0.19325516 -0.0876493 -0.08576161 -0.12536903 0.09491699 -0.04213012 -0.051468052 0.09003481
0.037190903 0.18890919 -0.007842938 0.30858615 -0.028254744 -0.03382189 -0.27153438 0.05222016
-0.03474933 -0.08426133 -0.057366222 0.1283955 -0.07992419 -0.086609446 -0.1816514 0.07147077
0.049643915 -0.06948832 -0.04142289 0.22840981 0.03851951 -0.026408462 -0.12625234 0.14174803
0.16684763 -0.036664203 -0.060296867 -0.00095789024 0.08193139 0.17125319 0.08614763 -0.086862445
0.06407356 -0.036040973 0.11735356 0.28845105 0.1259703 -0.31959498 0.020371068 0.052166592

fc.layers.2.linear.weight_g f4 [128, 1]
00000000: 8711 3f3f ab89 613f 2b71 543f 47b0 513f
00000010: 84c7 a03f 35a8 773f 755d 833f a602 4d3f
00000020: e0ad 8a3f 0f8f 183f 4ca9 703f 5529 943f
00000030: c756 b03f d76e 5f3f 2e76 923f ebd4 a03f
00000040: e1f8 ac3f 5b0c 673f 98d2 993f db7a 273f
00000050: ecd2 703f 6862 823f de63 873f 18cf 2b3f
00000060: d2b4 5d3f 0996 ad3f 7b40 483f 18ea 963f
00000070: 334a 433f fbec 9d3f d8f4 8c3f d1a1 313f
00000080: c602 b93f 96e8 8b3f d105 4c3f ae38 823f
00000090: 053b 8f3f 91a3 8a3f f6aa 6c3f 1889 973f
000000a0: 6815 a43f 69f3 a13f 8fe0 e73f e951 503f
000000b0: f7a9 673f 5c18 963f ce4a 903f 6cb7 ad3f
000000c0: 09d9 833f 9991 4d3f c321 ae3f 2d1c 673f
000000d0: e7f8 543f c71c bf3f a9e7 993f ab06 b53f
000000e0: 6e6a 9f3f b416 803f 8b14 983f 99f6 4f3f
000000f0: 2211 a13f 9d7c 2b3f 33ff 5a3f cfdb 833f
00000100: 0a65 ce3f b1d1 873f ec3f 903f b8dc a53f
00000110: cf29 713f c50e ab3f 41db 393f f8b5 873f
00000120: 8c5d 773f 54a8 9a3f 39f6 7c3f eab9 6e3f
00000130: e572 5c3f f004 573f 32c5 593f 8a2d 543f
00000140: a220 ad3f 9e41 c23f 3c87 483f f6fc a83f
00000150: 4dec 563f 5f32 333f f5f4 8c3f 8dd3 713f
00000160: 334f bd3f aab0 b33f 0ea7 a03f 245b 4c3f
00000170: 429d be3f 152b 963f 73b4 843f b754 953f
00000180: 0dc3 9b3f 080e 7a3f d990 cc3f c074 3b3f
00000190: 5050 803f a3d2 453f 9ffa 4e3f c988 a33f
000001a0: 1ac3 c23f 6248 563f 9b1c a43f c20c 553f
000001b0: 8610 323f 8c18 6a3f 0649 a23f cc7f a13f
000001c0: 1e9c 923f c437 ad3f d072 9c3f 4c06 583f
000001d0: 93a1 7c3f 229b 923f 0f74 583f eb0e 603f
000001e0: a5be 923f 1189 3c3f 8e85 3c3f 443d 893f
000001f0: f9c8 cf3f 8dc2 a33f 884d 813f b57d 483f
0.7463612 0.8810069 0.8298518 0.819096 1.2560887 0.9674104 1.0262896 0.80082166
1.0834312 0.5959329 0.94008327 1.1575114 1.3776482 0.87278503 1.1442316 1.2564977
1.3513452 0.9025323 1.2017393 0.6542184 0.9407184 1.0186281 1.0577352 0.67112875
0.86604035 1.3561412 0.7822339 1.179019 0.76285094 1.2337946 1.101222 0.6938754
1.4453971 1.0930355 0.79696375 1.0173547 1.1189886 1.0831167 0.92448366 1.1838713
1.2819033 1.2652408 1.8115405 0.81374985 0.9049372 1.1726184 1.1272829 1.3571601
1.0300609 0.8030029 1.3604053 0.9027737 0.83192295 1.4930657 1.2023822 1.414266
1.2454355 1.0006928 1.1881269 0.81235653 1.2583354 0.6698702 0.85545653 1.0301455
1.6124585 1.0610868 1.1269507 1.2957983 0.9420442 1.3363882 0.7260018 1.0602407
0.96627116 1.208262 0.98813206 0.9325243 0.86112815 0.8399191 0.8506652 0.8288199
1.3525584 1.5176275 0.7833135 1.3202198 0.83954316 0.69998735 1.1012255 0.94463426
1.4789795 1.4038289 1.2550981 0.7982657 1.4891741 1.1731898 1.0367569 1.1666478
1.21689 0.9767766 1.5981704 0.7322502 1.002451 0.7727453 0.8085117 1.2776119
1.521579 0.837042 1.282123 0.8322259 0.6955646 0.91443706 1.2678535 1.2617126
1.1453893 1.3532643 1.2222538 0.8438461 0.9868404 1.1453593 0.8455209 0.87522763
1.146443 0.73646647 0.7364129 1.0721822 1.6233207 1.2793747 1.0101786 0.78316814

fc.layers.2.linear.bias f4 [128]
00000000: 7d7e 6f3d ba21 603c dccd 223e 6bc1 663d
00000010: 25c1 26be 02e5 c13d 70c9 483e 572d 75bc
00000020: bc9d 1bbc 9457 583d 19f3 763d 2851 4bbd
00000030: 6437 3cbe e392 923d 2365 9cbd eba2 2ebe
00000040: adf8 38be 52d5 c03d 9976 34be c016 913d
00000050: c743 443e 884b 343e c346 14be b1fd 4b3d
00000060: 6e14 a9bb f85e 2d3e 93ba d53d 0cd0 30be
00000070: b95a 183d 9a5f 68be 0a51 0c3e 1a5e 573d
00000080: e05d 22be ce32 34bd d0cc 8e3d 312c 86bd
00000090: 6ce2 1b3d 562f c7bd 9264 bc3c 0441 53be
000000a0: bfe1 6bbe df22 cfbc 38e7 72be 0eb4 a83b
000000b0: adc9 013e 5d35 2cbe c961 e2bd aca3 2dbe
000000c0: fa0b c33d ef45 1f3d 64eb 3cbe 2607 db3d
000000d0: 0b27 9b3c 91b0 48be 8e3d 283d bed8 5ebe
000000e0: 1bcb cdbd dec7 b83d 5b89 c6bd a25d 8d3c
000000f0: af1e 48be 74ec 703a 321e f53d 24de 05bd
00000100: 6c83 8fbe e142 313d f756 a3bd ddb9 ca3c
00000110: cf66 983d 9f9d e7bd 98e6 813d 7cbf df3d
00000120: 357f 55bc 39ea 35be 966e e33d da90 413c
00000130: c2c4 463d 9cc0 bd3d 044e 793d 2e9c 8a3d
00000140: 55a4 83be 0c0b b6bd 6627 213d d082 1cbe
00000150: c1fa 803d 3d1a 7c3d 808b 1bbe 7910 55bc
00000160: a8ca 80be fa4d 87be 59d7 67be 4f91 193e
00000170: eae6 97be 735e 80bc 12a0 f5bd 073a 0bbe
00000180: 6263 7bbe fc55 3d3d a406 4abe b5c0 6b3d
00000190: 31d8 b6bd 74dd 153d dbbf d83d ef23 2ebe
000001a0: bdee b9be a926 c23d c058 73be cc19 9c3c
000001b0: 2e92 703d 78e1 db3d 5e3d 69be bc6f 44be
000001c0: 9807 d5bd 1fda 26be 51ab 283e d5d3 1d3d
000001d0: 9d9e 653c 19ad 8fbd e8b1 9c3d 6d0c d43c
000001e0: 906b 37be 2fa5 103e b954 5c3c a21b f5bd
000001f0: 75d2 8dbe 7ec0 1dbe a3fb 8cbc 796c 8bbd
0.058470238 0.013679916 0.15898842 0.0563368 -0.16284616 0.09467508 0.19608092 -0.014964423
-0.009498056 0.052817896 0.06029043 -0.049637944 -0.18380505 0.07156923 -0.07636478 -0.17054336
-0.18063612 0.094156876 -0.17623366 0.07084417 0.1916648 0.17606938 -0.14480118 0.049802486
-0.005159906 0.16930759 0.10435977 -0.17266864 0.037195895 -0.22692719 0.13702789 0.052579977
-0.15856123 -0.043993764 0.06972659 -0.065513976 0.03805773 -0.097258255 0.022997174 -0.2063027
-0.23035334 -0.025285183 -0.23721015 0.0051484173 0.1267459 -0.16817231 -0.11053807 -0.16956967
0.09523769 0.038885053 -0.1844917 0.10694723 0.018939516 -0.19598605 0.041074328 -0.21762368
-0.10048505 0.09022497 -0.09694167 0.017256562 -0.19542955 0.00091905077 0.1196865 -0.032682553
-0.28029954 0.04327667 -0.079755716 0.02474683 0.07441484 -0.11309361 0.063428104 0.109251946
-0.013030817 -0.1776513 0.11105077 0.01181432 0.048527487 0.09265253 0.060865417 0.0676807
-0.25711313 -0.08888826 0.039344214 -0.15284276 0.062978275 0.06154846 -0.15189934 -0.013004416
-0.25154614 -0.2642668 -0.22640742 0.14996837 -0.2966836 -0.015670037 -0.119934216 -0.13596354
-0.2454963 0.04622458 -0.19729096 0.057556827 -0.08927954 0.036588147 0.105834685 -0.17005895
-0.36314955 0.0948003 -0.23764324 0.01905527 0.058733158 0.10736364 -0.22777316 -0.19183248
-0.10401839 -0.16294144 0.16471602 0.038532097 0.014014867 -0.07015438 0.076511204 0.025884831
-0.17912126 0.14125513 0.013447934 -0.11968161 -0.27699628 -0.15405461 -0.017209833 -0.06807799

fc.layers.3.linear.weight f4 [128, 128]
00000000: bbd3 38bc aab7 08be 54a5 a6bd d2e5 b93d
00000010: 7d3e 7e3e a542 1d3e c927 183e 8b1f 2ebc
00000020: 4c5d 33be ae62 003e c93e 61bc 9988 1d3e
00000030: dd90 b83e 0647 84be cbc6 a0bc 1e40 873d
00000040: f02c 003e aad7 05be 5591 443e 1d15 0a3e
00000050: 2c90 1c3b 8736 153e 65bb 053d 8c1a 27be
00000060: 7f5e a53d 4e63 383e fe7f 15bd 0481 c13d
00000070: 7a76 a5bd 3c41 473e 1e34 1d3d fcde 2fbd
00000080: 07fe 673e 10d4 8f3e 4558 00be e31c cc3d
00000090: 1882 6e3d f913 a73e 7c1c fb3c 52c9 903e
000000a0: 2768 2d3e 50ca 15bc f359 0dbe 1c93 25be
000000b0: 6f1d 4bbd 76e7 863e b96a e83e 93d5 ed3c
000000c0: a906 83bd 6357 87bd 31e2 ed3c 7ec2 8b3d
000000d0: c636 6a3e b96a 103e f44d dabd dfbf a03e
000000e0: ddff 903e 67d3 df3d c317 3f3e 5dce 03be
000000f0: ebe9 923d e03e 113d 27b4 83be c0a0 2d3d
00000100: 0cd8 d2bd 2f97 06bd 6ee3 dc3c 0d87 7c3d
00000110: f3aa fa3c 971a 33ba c0e6 96bd ba88 923e
00000120: 6bc7 e9bd acb1 7d3e fdd0 1a3d 270f bc3c
00000130: 7bbf 953d 2ac9 52be eeac d8bd aa7a 5b3c
00000140: 5dec 9a3b 56dd 563e 2c60 64bd 46ed 433e
00000150: fedb 523e 93b7 00bd d094 fc3d 7066 323d
00000160: ba30 a83e 4260 d83e e8bd b73e 4e8c cbbc
00000170: 8e5d 693e 1479 4d3c 36b7 ae3d 1711 053e
00000180: 6f74 c03e c050 093e 4b78 883d 7a83 a13d
00000190: 5fc0 613c 0dc2 cf3d 29f6 3d3e bdf5 6b3e
000001a0: 757f 2e3e 0018 8abc c073 7c3e e529 d5bd
000001b0: 37aa e03c 6a15 173e 1d60 973e 8520 473e
000001c0: 9114 1e3e 2f36 893e f294 d23c 1386 7cbe
000001d0: ab26 a2bd cb04 4c3e 70b4 4abd a9c2 183c
000001e0: 6453 a83d feda 7cbe e686 0cbe ff2c d33c
000001f0: 6f4a 9a3d d50b f63e b3e4 2f3d cdd2 83bd
00000200: 9556 8c3e d1e5 043d 4083 cf3c aa96 9a3d
00000210: 85c6 babd d725 1dbe 5f9d 9d3d f9f9 353e
00000220: 59e9 94bd 5e61 e33d eec9 48bd a393 fe3d
00000230: 4906 3bbe b000 4f3e 63b8 123e 2873 cabc
00000240: 0db6 233d 3b24 9abd 3689 b9bd 5499 6fbe
00000250: 90fa edbd 46e4 34be c820 5e3d 7599 a63d
00000260: 26bf cb3e 6dab 5e3e 5d5f 98bd d073 c7bc
00000270: 06f0 fa3d 62b6 ba3d dabb 73bd b7ea 4e3e
00000280: b61f 4e3e fa93 0d3e 5d91 b93d c5a3 bf3d
00000290: 8b03 c1bd 8324 03be e733 9e3d 9370 70bd
000002a0: 6460 53bd 946c 7d3d 6788 863d 0263 1abd
000002b0: 9f3a f43c 6c14 1e3e 882d ed3d 4c5d ef3b
000002c0: a496 0abe 0f8e f9bc 3b66 3fbe 4555 bc3c
000002d0: a9d1 8d3e b943 623d 7c25 883c d6fd a4bd
000002e0: 3b57 783e d5e3 0cbd ade3 963d 8bd8 39bd
000002f0: 0651 9e3d 184c 283e c735 acbd e7a7 1fbd
00000300: d5da 763d 5e52 85bc e2bf 24be ac6f f5bd
00000310: 34d4 04bd 0242 153e 3bd3 0aba 62ba 313d
00000320: a16d f13d 419d 543d b16a 8dbd ab93 7c3d
00000330: 89bc 43be 0421 303e 4b37 833e 41fa 133d
00000340: ab83 4fbd bfd5 6ebe af45 993d 9105 1c3e
00000350: 9bd0 47be 21af 7abd c1db 18be 540d 01bc
00000360: 0d74 42be 8b97 acbd 74d6 eebd 21d8 6f3c
00000370: 88cc 773e 1b5a 4cbe 0a77 3d3e e130 aa3d
00000380: 286b b73d fe11 41be 2ac4 cebd 8d1c bb3d
00000390: 75e0 0fbe 4c03 023e d1a9 32be 45db 4f3d
000003a0: ce9e 8a3d bfbb 153d 956d 393e 7adc 3fbd
000003b0: c7a3 e7bc b75c aabd f626 bd3d e55a de3d
000003c0: 2c1a d83d daba f5bd a382 5fbd 0893 6bbd
000003d0: 38e9 9ebd 838f cabd 7da9 ac3c 2e84 ba39
000003e0: 2817 04bd 2a17 08be 638a 75bd bd6f 413e
000003f0: bc09 46be af9d 133b 644e a33d fe90 223e
-0.011280949 -0.13351312 -0.081370026 0.09077038 0.24828525 0.15357454 0.14858927 -0.010627638
-0.17516059 0.12537643 -0.013747879 0.15384139 0.36048022 -0.25835437 -0.019626042 0.06604026
0.12517142 -0.1307055 0.19196065 0.13484617 0.0023889644 0.14571582 0.032649416 -0.1631872
0.08074664 0.18006632 -0.036499016 0.09448436 -0.08079238 0.19458479 0.03837978 -0.042937264
0.22655497 0.28091478 -0.12533672 0.09966447 0.058229536 0.32632425 0.03065323 0.28278595
0.16934262 -0.009142473 -0.13803844 -0.16169399 -0.049588617 0.26348466 0.45393923 0.029032504
-0.06397755 -0.066084646 0.02903852 0.06824206 0.22872457 0.14103211 -0.106594 0.31396386
0.28320208 0.10928994 0.18661408 -0.1287169 0.071735226 0.035460353 -0.25723383 0.04238963
-0.10295114 -0.032859024 0.026963916 0.061652232 0.030599093 -0.00068322703 -0.07368231 0.2861994
-0.11414989 0.24774808 0.037796963 0.022956444 0.073119126 -0.2058455 -0.10579859 0.013395945
0.0047278837 0.2098287 -0.05575578 0.19133481 0.20591733 -0.03142507 0.12333071 0.043554723
0.32849675 0.4226094 0.35887074 -0.024847176 0.22789595 0.012541074 0.085310385 0.129948
0.37588832 0.1340971 0.06663569 0.07886405 0.013778775 0.10144434 0.18550934 0.2304296
0.17040808 -0.016857147 0.2465353 -0.104083814 0.027424915 0.14754263 0.29565516 0.19445999
0.15437533 0.2679915 0.025705788 -0.2466052 -0.079175316 0.19923703 -0.049488485 0.009323754
0.082190305 -0.24692914 -0.13723335 0.025778292 0.07533728 0.48055902 0.042942714 -0.064366914
0.27409807 0.032445733 0.02533114 0.07548268 -0.09119896 -0.15346466 0.07696032 0.17771138
-0.0727107 0.11102556 -0.0490207 0.12430503 -0.18264116 0.20215106 0.1432815 -0.024713114
0.03996854 -0.07526442 -0.09059374 -0.23398334 -0.11620057 -0.17665204 0.05423048 0.08134738
0.39794272 0.21745081 -0.07440064 -0.024347216 0.12252812 0.09116818 -0.05950532 0.20206724
0.20129284 0.1382598 0.09060929 0.093574084 -0.09424504 -0.12806897 0.07724743 -0.05870111
-0.051605597 0.061871126 0.065689854 -0.037692077 0.029813109 0.15437478 0.1158095 0.007304823
-0.13534027 -0.030463247 -0.18691342 0.022989878 0.2769902 0.055240367 0.016619436 -0.08056228
0.24252026 -0.034396965 0.073676445 -0.045372527 0.07730298 0.16435277 -0.08408695 -0.038978484
0.06026729 -0.016274627 -0.16088822 -0.1198419 -0.032428935 0.14575961 -0.0005295758 0.04339064
0.11788488 0.05190778 -0.069051154 0.061664265 -0.19114889 0.17200094 0.25628123 0.036127333
-0.050662678 -0.23323725 0.07483994 0.15236498 -0.1951317 -0.061202172 -0.1492758 -0.007876713
-0.18989582 -0.08427342 -0.116619974 0.0146389315 0.24199116 -0.19956248 0.18502441 0.08310104
0.08955985 -0.1885452 -0.10096009 0.09136305 -0.14050467 0.1269657 -0.17447592 0.05074622
0.06768571 0.036556 0.18108208 -0.046841122 -0.028276337 -0.08318465 0.09235947 0.108571805
0.10551867 -0.1199853 -0.054567944 -0.057513267 -0.07759327 -0.09890654 0.021076912 0.00035575166
-0.032248646 -0.13290086 -0.05994643 0.18890281 -0.19339651 0.0022524407 0.07973936 0.15875623

fc.layers.3.linear.weight_g f4 [128, 1]
00000000: a662 8e3f 26f2 643f 3e59 903f eb69 6f3f
00000010: 8ec5 953f 25fe 0c3f 791e 3f3f 9cd1 7b3f
00000020: cc0f 913f b322 373f 5bb3 913f 2314 033f
00000030: 943f 653f f890 853f d019 2c3f abd9 953f
00000040: 6dbf 923f 47df 8b3f eb9a 8e3f b6a3 963f
00000050: cb17 943f 0289 933f f50a 6f3f 9f13 943f
00000060: b6db 743f 9dc6 8c3f 43f6 913f c1d7 503f
00000070: 3af6 8a3f 88de 4e3f 3904 5b3f f237 933f
00000080: effd 893f 60a2 8f3f a5ca 8d3f b016 8e3f
00000090: af5a 283f 7cd9 943f 3b92 143f 7f1a 8f3f
000000a0: 441c 8f3f 181d 893f f265 643f c04c 903f
000000b0: b17e 913f ce88 913f 7505 903f 4e3b 913f
000000c0: 0090 763f 9366 903f c891 643f 94eb 373f
000000d0: 538d 9e3f 7b3b e83e 9e8d 8c3f 0166 3b3f
000000e0: e3d4 4e3f cd24 963f a735 913f 990f 803f
000000f0: 6af9 543f d267 0f3f 8f9d 6e3f 2bd7 893f
00000100: 0930 593f 601c 8d3f 80ac 513f 11da 593f
00000110: 8be1 8e3f a33c ff3e c4b7 8a3f 1f4d 123f
00000120: 876b 8d3f 513d 723f 70a3 793f 82d2 893f
00000130: e0d9 5b3f bede 1b3f fa7a 7f3f e929 8f3f
00000140: 7d3f 8a3f a4ea 8f3f 8cd2 933f e654 8c3f
00000150: 6e4f 8c3f 9c47 963f 4002 413f 364c 613f
00000160: f8b3 8e3f 2c8a 493f ddcf 8b3f 7956 a53f
00000170: 2987 6b3f 52a9 793f 9058 7f3e 9ff1 a63e
00000180: bd3a 943f ed70 f93e 9984 8e3f 7c37 8d3f
00000190: 3f32 913f 331d 603f 7bd6 713f 3d91 443f
000001a0: 524d 463f 2b14 843f 7ef6 693f 31f5 8f3f
000001b0: 1406 953f cd2a 263f 2f52 933f 5729 803f
000001c0: e125 923f 05a4 123f 081c 503f 9dab 893f
000001d0: e6c9 103f c944 903f 03c2 2f3f a6eb 553f
000001e0: b4e1 573f dee6 933f d4ad 693f 9b5d 1e3f
000001f0: 5f72 4a3f 0e8a 953f f4bb 963f 53be 523f
1.1123855 0.8943199 1.1277235 0.93520993 1.1700914 0.55075294 0.7465587 0.98366714
1.1332946 0.7153732 1.138286 0.512026 0.8955014 1.0434866 0.67226887 1.1707052
1.1464669 1.0927514 1.1141027 1.1768711 1.1569761 1.1526186 0.93376094 1.1568488
0.9564775 1.0998112 1.1403278 0.81579214 1.0856392 0.80808306 0.8555332 1.1501448
1.0780619 1.1221428 1.1077467 1.1100674 0.6576337 1.1628871 0.5803563 1.1179961
1.1180501 1.0712004 0.89218056 1.1273422 1.1366788 1.1369874 1.1251665 1.1346223
0.96313477 1.1281303 0.89284945 0.7184384 1.2386879 0.4535788 1.0980718 0.7320252
0.8079359 1.1729981 1.1344498 1.000476 0.83193076 0.5601779 0.93209165 1.0768789
0.8483892 1.1024284 0.8190384 0.8509837 1.116258 0.4985095 1.0837331 0.5714893
1.104844 0.9462481 0.9751501 1.0767367 0.85879326 0.6088675 0.9979702 1.1184665
1.0800625 1.1243482 1.1548629 1.0963409 1.096174 1.1740603 0.7539406 0.88006914
1.1148672 0.7872646 1.092281 1.2917014 0.92003113 0.9752399 0.24936128 0.32606217
1.1580426 0.48718968 1.1134216 1.1032557 1.1343459 0.87544554 0.94467896 0.76784116
0.7746173 1.0318655 0.9139174 1.1246701 1.164248 0.6490906 1.1509455 1.0012616
1.141781 0.57281524 0.8129277 1.0755497 0.5655807 1.1270992 0.68655413 0.83562696
0.8432877 1.155483 0.91280866 0.6186158 0.79080766 1.1682756 1.1776109 0.8232166
