3d_solid_solid/heat_box_outputs/fourier_net_128_silu/heat_net.0.pth (torch, 374754 bytes, 20 tensors)

fourier_layer_xyzt.frequencies f4 [3, 30]
00000000: 0000 0000 0000 0000 0000 0000 0000 803f
00000010: 0000 0000 0000 0000 0000 0040 0000 0000
00000020: 0000 0000 0000 4040 0000 0000 0000 0000
00000030: 0000 8040 0000 0000 0000 0000 0000 a040
00000040: 0000 0000 0000 0000 0000 c040 0000 0000
00000050: 0000 0000 0000 e040 0000 0000 0000 0000
00000060: 0000 0041 0000 0000 0000 0000 0000 1041
00000070: 0000 0000 0000 0000 0000 0000 0000 0000
00000080: 0000 0000 0000 0000 0000 803f 0000 0000
00000090: 0000 0000 0000 0040 0000 0000 0000 0000
000000a0: 0000 4040 0000 0000 0000 0000 0000 8040
000000b0: 0000 0000 0000 0000 0000 a040 0000 0000
000000c0: 0000 0000 0000 c040 0000 0000 0000 0000
000000d0: 0000 e040 0000 0000 0000 0000 0000 0041
000000e0: 0000 0000 0000 0000 0000 1041 0000 0000
000000f0: 0000 0000 0000 0000 0000 0000 0000 0000
00000100: 0000 0000 0000 803f 0000 0000 0000 0000
00000110: 0000 0040 0000 0000 0000 0000 0000 4040
00000120: 0000 0000 0000 0000 0000 8040 0000 0000
00000130: 0000 0000 0000 a040 0000 0000 0000 0000
00000140: 0000 c040 0000 0000 0000 0000 0000 e040
00000150: 0000 0000 0000 0000 0000 0041 0000 0000
00000160: 0000 0000 0000 1041
0.0 0.0 0.0 1.0 0.0 0.0 2.0 0.0
0.0 3.0 0.0 0.0 4.0 0.0 0.0 5.0
0.0 0.0 6.0 0.0 0.0 7.0 0.0 0.0
8.0 0.0 0.0 9.0 0.0 0.0 0.0 0.0
0.0 0.0 1.0 0.0 0.0 2.0 0.0 0.0
3.0 0.0 0.0 4.0 0.0 0.0 5.0 0.0
0.0 6.0 0.0 0.0 7.0 0.0 0.0 8.0
0.0 0.0 9.0 0.0 0.0 0.0 0.0 0.0
0.0 1.0 0.0 0.0 2.0 0.0 0.0 3.0
0.0 0.0 4.0 0.0 0.0 5.0 0.0 0.0
6.0 0.0 0.0 7.0 0.0 0.0 8.0 0.0
0.0 9.0

fc.layers.0.linear.weight f4 [128, 63]
00000000: 5743 5ebe 16e2 66bf 4496 42bf f8ad 4dbf
00000010: cf38 493f 09f2 4c3f 1cc0 e3bf 1670 89bf
00000020: e38b c93f 24b6 513f 51e5 c53e 3191 b73d
00000030: 864e 9bbd af49 85bd 0034 873e f4ca 7dbc
00000040: d480 e33c a46e 313e d901 953d e023 aa3c
00000050: 2fe3 423d f5cc 43bc dd22 533b a4fa 7dbb
00000060: 588f 1f3b 0fcf 2e3c fb3f 09bd 1a6c 303c
00000070: f3bb 60bb 46ea 03bd 1517 6b3a f18a 46bb
00000080: 5e80 81bb 1a2b 82be e0a6 c4bd fe20 23be
00000090: 9bdb 11be 829d 9fbe 842e 99bd ea1d 26bd
000000a0: 772c 773e ec7a c6bd bb8c 98bd fd75 f0bd
000000b0: dc6f fabd f36f c83c 9aa8 793d 8ea0 3b3e
000000c0: e95c 313d a5bb 293d 0a7a cb3d 3dac f13c
000000d0: cded 023d 605e ae3d 4c9e 6b3c 5440 acbb
000000e0: 3133 443d 0aa3 a33b 5fc3 b0bb 0f15 7c39
000000f0: 898f c939 c480 6b3a 8c70 0bbc 1573 43be
00000100: f435 bc3f d019 3ebf 493e 183f a364 dcbe
00000110: 97a5 dd3e c68c f1be 46af b53f a08b 44bf
00000120: b346 ebbc 0d90 043e 69eb 153d e5e6 b2b9
00000130: 085b fd3d 6425 9fbc 7292 b0bc 1105 953d
00000140: 6214 96bc bfb5 7a38 9d7b c33b 26e3 b2bb
00000150: 09ad 39bb b6b1 b8bb c48a 83ba b27c bcba
00000160: cd7c c03a a7f7 933b 92b5 843a 07ca 563a
00000170: 0a05 ce3b 012b 673a 9555 7d39 1e56 203a
00000180: 96e0 53be f623 193e 733b 253e 003c 53bf
00000190: d194 1540 9f81 2ebf a23f c63d 9f2f 133f
000001a0: 7295 fd3e 7748 a4bc e34a da3c eca1 4b3c
000001b0: 4348 aebc a1e4 43bd 971d 3b3c 41fc 99bb
000001c0: 096c 2c3b 81ac abbb 098b 96b9 e949 3a3c
000001d0: a8f7 eabb 15aa dc39 a602 a63b 9e8c bdbb
000001e0: 1a05 be3a e26c 193b 0ecb fbb9 04c8 a538
000001f0: 9b00 993b 32fd 793a 20d3 00c0 bff1 80c0
00000200: 423b d33f 13df 0180 14df 0180 1ee2 0100
00000210: e1a1 b03e 32a1 173f 9386 263f 35da a0bd
00000220: 762e a8bc f80a f03d cf64 44bc 7059 25bc
00000230: d276 2e3d f47b 6d3a 79dc 613c 8069 143d
00000240: b9e4 10ba 6a60 fab9 6f69 e93c 0580 193a
00000250: 48bc ebba b474 863c d86b 1dba c7b4 faba
00000260: 5b00 d43b 910e 8fb8 9c68 15ba 2308 2dba
00000270: 6315 e038 39a7 d138 d14e 59ba 2734 be3e
00000280: d412 ee3e cce4 123f 974e d1bb 0bec 213f
00000290: 3a1e 2d3f 7d46 e1bc 1f95 cb3a a53a f13c
000002a0: 321e 993c 27a8 8cbc cee9 cebc 6e2a 85ba
000002b0: 3d20 173c b00c 96bc b167 4fba aaa6 d0bb
000002c0: 939e d3ba 6d57 87ba ddcd 30ba 734c fa3b
000002d0: 8586 51b9 675c 433a 4d2a 1f3c 2628 ecb9
000002e0: 593c 823a 506d a23b dc22 6539 29b8 eb39
000002f0: db3a 643a 4b8a 1dbd 1a12 77be 5247 9a3d
00000300: a451 0200 e4c4 0280 c2af 0400 e731 c7bb
00000310: 0c87 273d 8be0 0abd c52e aa3b 4ff5 b2bb
00000320: 215a 153e ba94 89bb 520b 49bb 47d2 5b3e
00000330: d1a4 e1bb d969 edbb 770d 853e ce98 fd3b
00000340: 5fa8 373c 2a33 803e ea73 e3b9 c220 4fbc
00000350: 173c 423e 3e1e 9839 973a 1c3b 817b cd3d
00000360: a164 903b 7bb1 ef3a 753d e4bc 4171 5bbb
00000370: 3378 5fba e9cc 17be d65f 28bf 2bab 2bbf
00000380: 7e69 25bf 1456 2ebf 3403 19bf 99ad cfbd
00000390: 2fd0 0abf 3fd0 12bf 71bc 313e 3cd2 8b3b
000003a0: df1e f93c 63b9 413e 3a13 0a3f 1e25 0b3f
000003b0: 020d 3c3e 2c6a c9bd b480 fcbd 61dc 253e
000003c0: 58a8 89be 15a4 8cbe 3454 3e3e 76c1 193e
000003d0: 34ce 2b3e 083f 4a3e 9251 9d3c 0449 f43b
000003e0: a925 503e 2dff cebc fc3f a0bc 8412 c73d
000003f0: 880e 263e a4bf 32bf 2d76 773f 373b 3b3f
-0.21705376 -0.9018873 -0.7601054 -0.8034358 0.7860231 0.80056816 -1.7793002 -1.0737331
1.5745815 0.8191855 0.38651517 0.0896324 -0.075833365 -0.06508195 0.2640686 -0.015490282
0.027771391 0.17327362 0.07275743 0.02076906 0.04757994 -0.011950721 0.0032216825 -0.003875413
0.0024346914 0.010669484 -0.033508282 0.010767961 -0.0034291714 -0.032205842 0.0008967978 -0.0030295218
-0.00395207 -0.2542351 -0.096021414 -0.15930554 -0.14243929 -0.31174856 -0.07479575 -0.040555872
0.24138056 -0.09691414 -0.07448717 -0.117412545 -0.12228367 0.024467444 0.060951807 0.18322966
0.043301497 0.041438717 0.099353865 0.029501075 0.031965066 0.08514094 0.014381003 -0.005256692
0.047900382 0.004993801 -0.005394384 0.00024040438 0.0003844465 0.0008983726 -0.00851072 -0.19086869
1.4703965 -0.74258137 0.5947004 -0.4304553 0.43290398 -0.47177714 1.4194114 -0.7677555
-0.028720235 0.12945576 0.036601458 -0.00034122835 0.123708785 -0.019427009 -0.021554206 0.07276357
-0.018320266 5.977391e-05 0.0059656636 -0.005459207 -0.0028331897 -0.005636419 -0.0010035862 -0.0014380424
0.0014685631 0.0045156064 0.0010124913 0.00081935566 0.006287222 0.0008818359 0.00024159842 0.0006116348
-0.20691141 0.14955124 0.1613596 -0.8251343 2.337208 -0.68166536 0.09680106 0.5749454
0.4952808 -0.020054085 0.026647037 0.012428742 -0.021274691 -0.04782546 0.011420629 -0.0046992605
0.002630951 -0.00523907 -0.0002871382 0.011370161 -0.007170636 0.0004208839 0.0050662337 -0.005784585
0.001449737 0.0023410846 -0.00048025738 7.905069e-05 0.0046692616 0.0009536325 -2.012886 -4.02951
1.6502459 -1.7186e-40 -1.71861e-40 1.72951e-40 0.34498504 0.5923034 0.65049094 -0.0785412
-0.020529967 0.11720842 -0.011986925 -0.010092124 0.042593785 0.0009059303 0.013785475 0.036233425
-0.00055272464 -0.0004775555 0.028492657 0.0005855563 -0.0017985189 0.01641307 -0.00060051447 -0.0019127362
0.006469769 -6.8214846e-05 -0.0005699487 -0.0006600639 0.00010685136 9.997044e-05 -0.00082896376 0.37149164
0.4649874 0.57380366 -0.0063875425 0.632508 0.6762425 -0.027499432 0.0015532112 0.02944691
0.018691156 -0.017170025 -0.025257971 -0.001015974 0.009223995 -0.018316597 -0.00079118746 -0.006367524
-0.0016145281 -0.0010325738 -0.0006744543 0.007638508 -0.00019981906 0.00074524287 0.009714675 -0.0004504334
0.0009936198 0.0049568787 0.00021852128 0.00044959903 0.000870628 -0.038461965 -0.24127999 0.075331345
2.12958e-40 -2.54302e-40 4.30392e-40 -0.006078947 0.040900275 -0.033905547 0.0051935636 -0.005461372
0.14585163 -0.004198638 -0.0030676913 0.21466933 -0.0068861027 -0.007245284 0.25986835 0.007739163
0.011209576 0.25039035 -0.00043383177 -0.012642087 0.18968235 0.0002901423 0.0023838633 0.10033322
0.004406527 0.0018287146 -0.027861336 -0.0033484253 -0.0008524686 -0.14824261 -0.65771234 -0.67058057
-0.64614093 -0.68100095 -0.5977051 -0.10140533 -0.5422391 -0.5734901 0.17357041 0.0042670052
0.030410228 0.18918376 0.5393559 0.5435351 0.18364337 -0.09834704 -0.12329236 0.16197349
-0.2688625 -0.27468935 0.18586808 0.15015206 0.16777879 0.19750607 0.019203935 0.007454993
0.20326866 -0.025268162 -0.01956176 0.097203285 0.1621648 -0.6982367 0.96664697 0.7313723

fc.layers.0.linear.weight_g f4 [128, 1]
00000000: bb95 cb3e 4b4b 3a3f 53d1 e53f d959 b23f
00000010: 0175 e83e ec06 193f 49ad 183f 4bda 063f
00000020: f673 573f 4f57 f53e 69e1 b53e 8e87 043f
00000030: a62b db3e 9af2 6b3f d4c7 1c3f c4e2 c93f
00000040: b736 3c3f 93db 083f 68ea 853f fa64 883f
00000050: f04b c43f 105e ab3f e35a 663f 6ddc 613f
00000060: 53aa d93e 8419 c83e 610a 0e3f 2d91 173f
00000070: 2574 223f 259d 2a3f f605 a03f 08d4 2e3f
00000080: bd88 3d3f 2993 913e 3e77 cd3e 43b2 fa3e
00000090: 7569 ae3e e674 a33f d80d ee3e 3109 4e3f
000000a0: 1759 8e3f b6f4 a63e 8602 473f 67c4 a33f
000000b0: 5878 623f 75f2 913f 1d98 b93e 4780 2c3f
000000c0: f5e1 cb3e 8673 4b3f 5916 0a3f 9cba 463f
000000d0: 30f1 063f 5896 d53e eb0d 7b3f a8da a23f
000000e0: f1f9 3b3f 8f5d ba3f d46d fb3e 098e 263f
000000f0: fdb2 403f 9c7a 253f e40f 5d3f 39f4 a13f
00000100: 0dce 183f b95c 823f d10f 4c3f 21dd eb3f
00000110: dcdf 903f dfd9 003f 7611 6b3f d168 853f
00000120: 5faa 6b3f 7131 283f 58c9 1b3f fc1a 183f
00000130: 6fc2 6040 cb97 7d3f 9d3a 9d3f cd7f eb3e
00000140: 68e5 dd3e ec93 2f3f d1c3 233f bc01 c03e
00000150: 528e b13e 48cc 543f a9c9 8c3f 3639 843f
00000160: caf3 a83f fa1c 323f 9648 1c3f 8dcd 353f
00000170: c6d1 433f f799 5b3f 8587 ab3f e6d2 8240
00000180: d312 383f 0865 783f 346c a33f 629c 993f
00000190: a423 053f d5b9 bc3f 653b 013f e67a 633f
000001a0: 8be4 043f 802d 883f ef77 7e3f 4798 4a3f
000001b0: 90cb 8d3f e14f a23f 7fc7 973e 5a2f 413f
000001c0: eb97 3d3f 2d97 0c3f 0e8e 873f 9cc2 343f
000001d0: 6a5e 693f 485b 813f 55a3 5d3f c76c 6840
000001e0: 142a 443f ca70 423f 374d 6b3f 2231 063f
000001f0: 0002 273f 16a1 083f 3060 2d3f 7b38 cf3f
0.39762673 0.7277114 1.7954506 1.3933669 0.45401767 0.59776187 0.5963941 0.5267684
0.8416132 0.47918174 0.35523537 0.5176934 0.4280674 0.92167056 0.61242414 1.5772328
0.7352099 0.53460044 1.046216 1.0655816 1.5335674 1.3388081 0.8998243 0.8822697
0.4251276 0.39081967 0.55484587 0.59205896 0.6345847 0.66646034 1.2501819 0.68292284
0.7403677 0.28432587 0.40130037 0.48964128 0.34064832 1.277005 0.46494937 0.80482775
1.1120938 0.32608575 0.77738225 1.2794312 0.8846488 1.1402117 0.36248866 0.67383236
0.3982083 0.7947315 0.5394035 0.77628493 0.5271177 0.41716266 0.9806811 1.2722979
0.73428255 1.4559802 0.4910723 0.6506048 0.75273114 0.6464021 0.8635237 1.2652656
0.5968941 1.0184547 0.79711634 1.8426858 1.1318316 0.50332445 0.9182352 1.0422612
0.9205684 0.6570044 0.608541 0.59416175 3.5118673 0.9905974 1.2283512 0.45995942
0.43339086 0.68585086 0.6397067 0.37501323 0.34678894 0.8312421 1.0999042 1.0329959
1.3199399 0.69575465 0.6104826 0.7101677 0.76491964 0.85781807 1.3400732 4.0882444
0.71903723 0.9702916 1.2767396 1.2000849 0.5200751 1.4744211 0.50481254 0.88859403
0.5191123 1.0638885 0.99401754 0.79138607 1.1077747 1.2680627 0.2964439 0.7546288
0.74059933 0.54918176 1.0590227 0.7060945 0.9115969 1.0105982 0.8657735 3.6316392
0.76626706 0.7595335 0.91914696 0.5241872 0.65237427 0.533708 0.67724895 1.6189111

fc.layers.0.linear.bias f4 [128]
00000000: 6ade ccbd 320f 1ebb 53db ea3e 77c7 1cbf
00000010: d5ef 10bf 973d 203e 3b14 99bd 4973 2abe
00000020: 416e 043e f7bb 84bd 4fae f9bc fa37 a03b
00000030: 2e65 76be 9fa0 f4be 38cf dfbd c43f 143f
00000040: 29cc 7dbe 2417 693e 6283 bf3e 6ff0 563e
00000050: 81bc 523f 0547 df3e 29af a5be d09a e13b
00000060: c2ad 3dbe 1429 cf3c e439 74be 1035 27be
00000070: 2e4a 953d 1078 c6be b247 b6be 0647 673d
00000080: a961 7e3e cea1 cebc 88b6 8fbe 89e5 94be
00000090: 8e8b b93c 4d60 163f 7d72 9abd aeeb 583e
000000a0: 76db 1d3e cf01 71be 6581 6b3e 6792 953e
000000b0: 4164 443e 9f19 ea3e 00cc 76be 9667 2bbe
000000c0: cc82 0fbf 4a2d 373e d395 21be 8440 783e
000000d0: 74fa 2d3d d764 253d edb1 813d 7cab fc3e
000000e0: a696 c9bd a033 ca3e 8412 3fbe 020d 413e
000000f0: d554 3f3e c78c 01be e57b 9f3c ae17 f1be
00000100: 0ef3 a4bd 5f81 093e 3f67 eb3e 78a0 a63d
00000110: d8f8 05bf 03b6 67bd ad1a 2f3f 97cc 1b3d
00000120: abb6 3b3e e0d0 33be 2dd7 3b3d 51bc 0b3e
00000130: eda2 2a3d ad5a 91be fab4 d03e f938 e5bd
00000140: ae0d 1bbc 44e6 08be 1eb0 12bd bdf3 a13d
00000150: 2f53 963d 7e9b 893e 532b 093f 9a48 1e3e
00000160: 996d 3a3e 36e2 e6be c512 03bf 9185 a53d
00000170: fbfe c4bd 9bed 343e aaf4 26bf c0b8 af3e
00000180: 2e8b 3abe 0271 52be b9ed a63e f7d3 e9bd
00000190: a840 4fbe fc12 bebe c77e 28bd 3713 e33e
000001a0: 7962 93bd 8cda b23d 2db5 bf3e e756 23be
000001b0: 0b2e 9a3e bdd2 003f d329 f2bd a2fb 49be
000001c0: a234 fcbc 45ee 0ebf c930 21be 7822 3e3d
000001d0: 47dd 773e 6402 b1be 16f8 7dbc 1d6b a93e
000001e0: 6467 bcbe eb09 b43d 34b6 eebc 0be3 23be
000001f0: e6f8 4abd eafb a5bd 3e68 0abf 0b44 543e
-0.100033596 -0.0024117944 0.45870456 -0.6124186 -0.56615955 0.15648495 -0.07474562 -0.1664554
0.12932684 -0.06481164 -0.030478625 0.0048894854 -0.24062034 -0.47778794 -0.10928196 0.579098
-0.24784912 0.22762734 0.37404925 0.20990156 0.82318884 0.4360887 -0.323602 0.00688491
-0.18523315 0.025288142 -0.23850209 -0.16328835 0.07289539 -0.38763475 -0.35601574 0.056464218
0.24841942 -0.025223639 -0.28068948 -0.2908137 0.022649553 0.58740693 -0.07541368 0.21183655
0.15415749 -0.23535846 0.22998579 0.2921326 0.19178869 0.45722672 -0.24101257 -0.16738734
-0.56058955 0.1788837 -0.1577981 0.24243361 0.04247518 0.04037937 0.06332765 0.49349582
-0.09843187 0.39492512 -0.18659407 0.18852618 0.18684705 -0.12651359 0.019468257 -0.4708838
-0.080541715 0.13428257 0.45977208 0.08136076 -0.5233283 -0.056570064 0.6840008 0.03803691
0.18331401 -0.17560148 0.045859504 0.13646056 0.041659284 -0.28389493 0.40763074 -0.11192507
-0.009463711 -0.1336909 -0.03581249 0.079078175 0.07340085 0.26876444 0.5358173 0.15457383
0.1820587 -0.4509446 -0.51200515 0.080821164 -0.09618946 0.17668764 -0.6521708 0.3432064
-0.18217155 -0.20550922 0.32603243 -0.11417382 -0.20239508 -0.3712386 -0.04113653 0.44350597
-0.071965165 0.08733091 0.37442914 -0.1595112 0.30113253 0.5032156 -0.118243836 -0.19724897
-0.030786816 -0.5583232 -0.15741266 0.04641959 0.24205504 -0.34572136 -0.015501043 0.33089533
-0.3679763 0.08790954 -0.029139616 -0.16004579 -0.049553774 -0.081046894 -0.5406531 0.20729081

fc.layers.1.linear.weight f4 [128, 128]
00000000: 3bc9 163d 0ef1 c5bd c10a 02be ec00 3a3d
00000010: 50b7 88bc 7d9a c73d 0a66 65bc 8efc d2bd
00000020: 2ec0 383d 2c8e 103e 1ea2 d33d cd1a fdbd
00000030: 698a 15be 1281 8cbd 19c9 f9bd 7fce b3be
00000040: 8bff 8a3c ce7d 33be 0781 ed3c 1037 453e
00000050: fe67 9abe 3d85 ccbd bb3a 2c3e 8df3 6b3e
00000060: dacb b33d 530f 123c fd6a 1f3e 265f a3bc
00000070: 70d8 29be f858 5abe 67d1 ee3d e37f f3bd
00000080: 71f4 e3bd 4a38 8e3c a927 14bd 737f 6b3e
00000090: 616c 063e 77ad 69be b9ab 3f3e 22d7 28be
000000a0: 1ccb 5c3d 7954 4cbd cf61 4e3b d13a 10bd
000000b0: 0b63 0abe 3847 d738 a50c 023d 4491 acbd
000000c0: abca 8cbd 079c 04be f56e 63bd 44bc 283d
000000d0: cd10 46be 1e03 ecbd 88ab 6fbb 0e5c 29be
000000e0: 43e3 8fbd 5fb2 c4bb 85ed 893c 4d3a 9ebe
000000f0: 4d5b 803c 7ea7 d43d fded 453e 15e5 7d3d
00000100: 1943 2bbc c59b 94bc f4a7 553d f572 87be
00000110: 9db6 833d c83f a4bc d3ee 21bf 63b7 143e
00000120: c25a 98bd 3be9 bf3d 09dc 113d 5839 573d
00000130: 581b 36bf 76ba f0bd e5e5 f93d 7950 dcbd
00000140: dcce 7d3d b134 423d e81e 313d 230e 2f3e
00000150: 1c2d ce3d 0f49 7ebe 2de4 babd d63c a63d
00000160: e941 6a3d 81ba b2bd 6fdf 41bb 28c9 21bd
00000170: 9930 723e 9ddd d13d 52c3 553c 4098 65bf
00000180: 9b45 d93d 6965 cfbd b173 77be eaf7 f13e
00000190: 5180 7abd ab26 2e3d d878 fb3d ab5a 25bd
000001a0: 315b a6bb d5cc b4bc 5ae7 47be af0c 9b3e
000001b0: 1ad1 bb3d 8edc 9ebe 08b6 aabd 0e40 403d
000001c0: b499 863e 4cfa 0d3e 3c7e 73be 88b3 47bd
000001d0: 1a06 28be c62a 873e b78c 5b3e 8435 32bf
000001e0: c148 48bb a2b7 81bd cefa f53d d000 153e
000001f0: d520 43be 7421 cb3d 3a7b 003d 55c0 18be
00000200: 5cf3 8cbd 0df2 44be bc7c e9be fe7f 4abc
00000210: aed1 543d 1885 043e b00d 58be 5da9 363e
00000220: fd93 1ebe 26e6 313e 2879 c0bd d7dc 3dbe
00000230: b23f c13c 7ed5 1d3d 79f5 6bbe a8d5 5cbe
00000240: 75c7 393e 9a23 b63d bfb6 11be 4ff4 0fbf
00000250: e751 a7be ddb7 80be b9b6 96bd 94e2 d4bc
00000260: 5a74 233d a6a7 a2bd 22a2 ac3d 551b 5a3e
00000270: 8844 80ba aeeb 9fba f164 f1bd 6fcc f93d
00000280: 10d7 debb cdc1 07be afb6 ec3d 3ea4 e5bd
00000290: 0b33 a0bd 08a5 aebe 8e78 293d 91e6 59be
000002a0: 3682 913d 365a 8a3d 2625 e5bd cb8b 93be
000002b0: 691a d13d 3009 31be 771c d93c 9735 7cbd
000002c0: 2726 7f3e 6219 17be 74a5 f4bd 8f8e dfbd
000002d0: c64d 3d3d fd3e 9d3c 101e 2bbe 6c53 3ebd
000002e0: 9635 cdbd d335 4ebe 874d 6cbd 3aee b73d
000002f0: c8b8 01be dc87 b73d d924 313d 3613 00bd
00000300: 8e0c 2ebe 68ca bbbd d623 c5bc 87a0 1f3e
00000310: bfef 843d e5b3 8d3d f54c 93be 63d8 9a3d
00000320: 1910 9c3c 08f2 e63d da8c 83bd ebd1 0c3e
00000330: 3761 d6bd a014 223d d40f 203e 3b4e 6ebe
00000340: 19bb b6bd 90bd ecbd 4bea 34be 02b2 1b3d
00000350: e791 4cbe b292 dfbe 3de3 acbe fa27 98be
00000360: 0c01 00be 240e fabc 42c4 2a3e 3c23 ddbe
00000370: 8923 5dbd b02a 2fbe 2fc6 583d 5880 02be
00000380: 461a 533e f1eb 433d ebc2 a4be b424 00be
00000390: 2db9 3a3e 0ee2 123e ef5c be3d d95d 77bd
000003a0: be58 013e 394b 79be 8d0f 99be 8575 93bd
000003b0: 897b 7cbd a6fa 7fbe 6f68 abbd f468 143e
000003c0: 4fbe d93d 0626 413e 2b52 8bbd 4bd8 63be
000003d0: 6da6 fbbe 52bc c7bd a1cf 27be ac3f 35be
000003e0: cd52 00bc 4b5c 86bd 12a2 04bd 52a0 cbbd
000003f0: fc0e c33c e105 613e 0f97 003d d86d bbbe
0.036813002 -0.09665118 -0.12699415 0.045411035 -0.016688973 0.09746263 -0.014001379 -0.10302077
0.04510515 0.14116734 0.10333656 -0.123586275 -0.1460358 -0.06860556 -0.121965595 -0.35118482
0.016967556 -0.1752846 0.02899219 0.19259286 -0.30157465 -0.09986351 0.16819279 0.23042126
0.08779116 0.008914786 0.15568157 -0.019942831 -0.1658647 -0.21323001 0.11661034 -0.11889627
-0.11130608 0.017360825 -0.036170635 0.22997837 0.13127281 -0.22820078 0.1871785 -0.16488317
0.053904638 -0.049885247 0.0031491404 -0.03521234 -0.13514344 0.000102652644 0.03175034 -0.08426145
-0.06874593 -0.12950145 -0.05552574 0.04119517 -0.19342346 -0.11524032 -0.0036570746 -0.16539022
-0.070257686 -0.006002709 0.016836891 -0.30903855 0.015668536 0.10383509 0.19329067 0.061986048
-0.010453009 -0.018140683 0.052162126 -0.26454893 0.06431315 -0.020049945 -0.6325504 0.14523081
-0.07439186 0.09370657 0.035610233 0.05254492 -0.71135473 -0.117543146 0.12202052 -0.107575364
0.061964855 0.04741353 0.043242365 0.17095236 0.10067198 -0.24832557 -0.09125552 0.08117072
0.057191763 -0.08726979 -0.002958264 -0.03949848 0.23651351 0.102473475 0.013047056 -0.8968544
0.10608979 -0.10126764 -0.24165227 0.47259456 -0.06115753 0.042517345 0.122789085 -0.04036967
-0.005076789 -0.022070328 -0.19521847 0.30283114 0.09170742 -0.31027645 -0.08335501 0.046936087
0.2628914 0.13865012 -0.23778623 -0.0487552 -0.16408578 0.2639982 0.21440397 -0.6961291
-0.0030560943 -0.06333853 0.12010728 0.14551091 -0.19055493 0.0991849 0.031367518 -0.14917119
-0.068823546 -0.1923296 -0.45602977 -0.012359617 0.05195778 0.12941396 -0.21098971 0.17838044
-0.1548614 0.17372951 -0.09398109 -0.18541275 0.023589943 0.03853368 -0.23042859 -0.21565878
0.18142493 0.08893509 -0.14229868 -0.5623216 -0.32679674 -0.25140277 -0.0735907 -0.025986947
0.039905883 -0.07942133 0.08429362 0.21299489 -0.0009786049 -0.0012200975 -0.11786831 0.12197196
-0.00680054 -0.13257523 0.11558282 -0.11212967 -0.07822236 -0.34110284 0.041374736 -0.2127936
0.07104914 0.067554876 -0.11188726 -0.2881759 0.102101155 -0.17288661 0.02650283 -0.061574545
0.24916898 -0.14755777 -0.1194562 -0.10915863 0.04621675 0.019195074 -0.16710687 -0.046466276
-0.10019986 -0.2013772 -0.057691123 0.08980985 -0.12668145 0.0896146 0.04324803 -0.03126832
-0.16996977 -0.09169465 -0.02406494 0.1558858 0.064910404 0.06919078 -0.2876965 0.07560804
0.019050645 0.112766325 -0.0642335 0.13751952 -0.10467761 0.03957045 0.15631038 -0.2327203
-0.08922405 -0.11559594 -0.176675 0.03801156 -0.19977532 -0.43666607 -0.3376712 -0.29718
-0.125004 -0.03052432 0.16676429 -0.43190944 -0.053988967 -0.17106128 0.052923378 -0.12744272
0.20615491 0.047832433 -0.3217996 -0.12514001 0.18234701 0.14344046 0.092950694 -0.060392234
0.12631509 -0.24345101 -0.29894677 -0.072001494 -0.06164125 -0.24997959 -0.083695285 0.14493161
0.106320016 0.18862161 -0.06802782 -0.22250478 -0.4915041 -0.09752716 -0.16387798 -0.1770007
-0.007832241 -0.06560572 -0.032381125 -0.09942688 0.023810856 0.21974899 0.03139406 -0.36607242

fc.layers.1.linear.weight_g f4 [128, 1]
00000000: 9224 883f aab4 a43f 4a6a 953f c8e3 b43f
00000010: bbdb 993f 7ddb 663f 3034 a03f 595d 7b3f
00000020: 8d4e 6a3f 8597 de3f 9934 8d3f aa0e 903f
00000030: 8afa 1640 3dd6 6f3f 997c 7b3f 59c5 393f
00000040: 780a 8c3f 818e 6b3f 7796 b33f 5bad bb3f
00000050: 7658 623f c626 803f b185 673f 991a 463f
00000060: 3c2b 6240 89d1 6f3f c620 c03f 49c8 9b3f
00000070: d401 a13f 4774 973f 566e 453f c8fe a43f
00000080: a98a 7b3f 8f93 c13f 7383 763f aa55 b83f
00000090: 2982 833f 2631 c93f 6113 bb3f c6d4 9f3f
000000a0: cdd1 ab3f a52f 1640 cc80 713f c6fc 3b3f
000000b0: fad7 223f 6a9d a83f 4c04 943f 1fa6 963f
000000c0: f515 5d3f 5f10 a63f 00c5 583f ee73 a33f
000000d0: ff04 903f 7e94 b53f de19 a13f 7b77 8e3f
000000e0: c372 8d3f 5018 bf3f ff14 773f 7e21 963f
000000f0: dd5d 823f 95c7 b73f cd31 193f 93fc 513f
00000100: 308c 1340 5352 b83f af56 613f ef15 a53f
00000110: 0bb9 a93f 76e7 0d40 f3ec 733f cf14 423f
00000120: af22 aa3f ce5d 563f fed1 0d3f 3c5c 773f
00000130: a50d 623f 8835 873f 07ca a93f 0f05 dd3f
00000140: bdf8 d43f 6090 6a3f c200 943f f6cd a03f
00000150: c728 873f 03d1 c53f 5642 933f e238 5e3f
00000160: 4a0c 603f 7752 6b3f feb2 6b3f eb36 b33f
00000170: 6148 2d3f f7d4 643f ccd0 843f 5232 9d3f
00000180: fd4f 9c3f b257 353f ec6b aa3f 5b17 453f
00000190: 1864 953f 23f0 9a3f 2ffc 583f 3530 9d3f
000001a0: 1674 b13f ed94 a13f be82 e63f daac c03f
000001b0: 7f31 8f3f 83b7 8e3f e2ca 8b3f 5620 d43f
000001c0: 05bd bc3f a9b2 443f ee93 813f 7355 b43f
000001d0: 6e1c 923f eefa b03f 3aee 973f 37d3 6d3f
000001e0: 859b a03f 6915 833f bd29 853f cb07 b43f
000001f0: eafe a63f 1f82 723f 4eea a63f 1d38 c03f
1.063616 1.2867634 1.1673062 1.4132013 1.2020181 0.9017866 1.2515926 0.9818931
0.9152611 1.738999 1.1031677 1.1254475 2.3590417 0.93686277 0.98236996 0.72566754
1.0940695 0.9201432 1.4030293 1.4662279 0.8841623 1.0011833 0.9043837 0.77384335
3.5338888 0.936791 1.5010002 1.2170497 1.2578683 1.183236 0.77121484 1.2890253
0.98258454 1.5123156 0.96294326 1.4401143 1.0274097 1.5718124 1.4615289 1.2486808
1.3423401 2.346658 0.94337153 0.73432577 0.63610804 1.3173039 1.1563811 1.1769446
0.8636163 1.2973746 0.846756 1.2769754 1.1251525 1.4185941 1.2586019 1.1130213
1.1050647 1.4929295 0.9651641 1.1728971 1.0184895 1.4357783 0.59841615 0.8202602
2.3054314 1.4400123 0.88022894 1.2897319 1.3259596 2.2172523 0.9528343 0.75813
1.3291835 0.83736885 0.5539855 0.96625113 0.8830207 1.0563211 1.3264779 1.7267169
1.6638409 0.9162655 1.1562731 1.2562854 1.0559319 1.545441 1.1504619 0.86805546
0.8751875 0.91922706 0.92069995 1.4001135 0.67688566 0.8938746 1.037622 1.2280982
1.221191 0.7083694 1.3314185 0.7698876 1.1671171 1.2104534 0.847598 1.2280337
1.3863552 1.2623574 1.8008649 1.505275 1.118698 1.1149753 1.092129 1.6572368
1.4745184 0.76835114 1.012327 1.4088577 1.1414926 1.3826578 1.1869576 0.92900413
1.2547461 1.0240909 1.0403363 1.4064878 1.3046544 0.947298 1.3040254 1.5017124

fc.layers.1.linear.bias f4 [128]
00000000: b8d6 37be 04ee d4bd b366 f2bd 59be 09be
00000010: b7e3 80be c5a0 b1bd ae11 98bd 9028 d9bd
00000020: 40b8 ecbd 09d0 3fbe 724a 1ebd d209 41bd
00000030: fb99 87be b7c4 cb3d a416 073e 9fb0 b23d
00000040: fc9d 88bd 6fdd c3bd 840b 77be 9d51 6cbe
00000050: 8d6e 733e 217b a63e 0e06 2d3e 8891 3cbc
00000060: 6436 8dbe e9b6 e93d 62e1 1cbe e33e 4abd
00000070: f1b4 09be 4add bfbd 82aa 02be 522d e2bd
00000080: 23fa a53d 9525 5fbe 4946 c73e 6bc8 96be
00000090: a63e c2bc fd15 01bd 7d2b 46be de33 783e
000000a0: 00d0 023d 8b9f aabe a144 8abd 8997 723d
000000b0: 115d 6b3d 01d3 f0bd 5607 9abd 9565 083e
000000c0: 48c7 8fbd 0859 9bbd 3dc8 f73d afcd 6ebe
000000d0: 2214 cabd 8596 f9bd c6a0 ebbd 5542 ffbd
000000e0: fe5e e0bd 1060 a7bd 1093 03be 84f3 54be
000000f0: cc15 17be b417 61be 0a32 8e3d cd27 103d
00000100: 1b02 b6bd 1a7a 9ebe 764b 833e 33f9 36be
00000110: e2f9 09be ee2b 47be 0903 5e3e 2c00 5b3d
00000120: 4847 20be 0043 943c d476 e6bd c869 023e
00000130: 6f07 143d 7989 493e b12a 04bd 2abb 9bbd
00000140: 3df8 34bd bdb2 2a3e 60dc 53be a053 1fbe
00000150: 978f 87bd 5e2f 58be c674 8e3e bafe 92be
00000160: 3ebf 5a3e 8a84 d5bd a430 8f3d b0f6 b0bd
00000170: 1875 a5bc d5fd 543e 948b c63d 46c0 0abe
00000180: 8f64 24be 0b63 3a3e b9c4 8abd feac 14bd
00000190: e22b 803e bd39 f7bd ba13 623e 0e7d 2bbe
000001a0: 3ea3 8d3c aa7c 89bd 250f 34be 30ab 75bd
000001b0: 8961 87be 2f60 03be e159 9bbd 215a 8ebe
000001c0: bb11 17be ecba 8e3d 91b4 28be 21bd 73be
000001d0: 89bc f93b 46ed 8fbe 6037 273d 038e 0f3e
000001e0: f011 63bd 99c9 09bd 5cff 3ebe 26f5 85be
000001f0: e357 31be 3540 923c f0e7 043d 2325 22bb
-0.17953002 -0.103969604 -0.118359946 -0.13451518 -0.25173733 -0.086732425 -0.07425247 -0.1060344
-0.115585804 -0.18731703 -0.038645215 -0.047128506 -0.26484665 0.0994963 0.1319223 0.08725094
-0.06670758 -0.095637195 -0.24125487 -0.23078008 0.2377264 0.32515815 0.16896841 -0.011509307
-0.2758056 0.114118405 -0.15320352 -0.04937638 -0.1344793 -0.093683794 -0.12760356 -0.110438004
0.081043504 -0.2179168 0.3892081 -0.29449782 -0.023711514 -0.03151511 -0.19352527 0.24238536
0.031936646 -0.33324847 -0.06751371 0.059226546 0.057461802 -0.11758996 -0.075209305 0.1332
-0.07020432 -0.07585341 0.12098739 -0.2332065 -0.09867121 -0.121869124 -0.115052745 -0.12463824
-0.10955618 -0.08172619 -0.12849069 -0.20796019 -0.14754409 -0.21981698 0.06943138 0.035194207
-0.0888712 -0.3095253 0.2564351 -0.178685 -0.13474229 -0.19450352 0.21680845 0.05346696
-0.15652192 0.018098354 -0.112531334 0.12735665 0.0361399 0.19681348 -0.032267276 -0.07604058
-0.04418205 0.16669746 -0.20689535 -0.15559244 -0.066191845 -0.21111819 0.27823466 -0.28709966
0.21362016 -0.104256704 0.06991699 -0.08640802 -0.020197436 0.20799954 0.09694591 -0.13549909
-0.16053985 0.18201844 -0.06775803 -0.03629779 0.2503348 -0.120715596 0.22077838 -0.16746923
0.017289754 -0.06713231 -0.17583902 -0.05997771 -0.264416 -0.1282966 -0.075855024 -0.27803138
-0.14752857 0.06969246 -0.1647513 -0.23802616 0.007621352 -0.28110713 0.040824294 0.14019017
-0.05543703 -0.033639524 -0.186521 -0.26163596 -0.17318682 0.017852882 0.032447755 -0.0024741373

fc.layers.2.linear.weight f4 [128, 128]
00000000: 156e 9c3c 3177 49be d882 923c c511 5cbe
00000010: 6f2b 5abd 0ae5 3fbc fcba 56be ac1c 8fbc
00000020: 28fb 54bd 083e c93d abe6 54be a9e7 8d3d
00000030: 949a 983d 1a45 19be 696c 0cbe 32f7 24be
00000040: 8dc1 5dbe 88f0 063d 3a91 4dbf ede9 e1be
00000050: df0e cfbd 118c 03bc 23e2 a1bd cd3c b3bd
00000060: 76f9 1ebe 20ec 9bbc 5d3b 393d 932f 093d
00000070: 5574 7ebe be1d 65be ac24 2abe d3e4 e2bd
00000080: 40d0 c23d 6d33 d0bd 5c8e d33d 6317 efbd
00000090: 57e9 2ebe be94 933d 1258 bfbd 17e5 c13e
000000a0: d1cd 71bd 180b 523b d7ba b8bd 736c d3bd
000000b0: afa5 a43d 6e66 68bd 0d02 b83c 97b0 6a3d
000000c0: 0464 06bd a73e 4bbd 5b0f a4bd c175 44ba
000000d0: 22c8 073b 0291 40bb fdba c7be d2b1 833d
000000e0: 572d 45be 5f50 c0bd 893d 553d ceb5 d83c
000000f0: ab55 b13d fd97 b0bc 893a 31be bbdd 62bb
00000100: 3070 ee3d 0ffc eb3c dd9d 0bbd 953d 8b3c
00000110: ec3d 993c 4b88 01be dd6e 41bd f38e 1f3d
00000120: 87a9 0dbe 72a1 6abe 950c d1bd 093d 1dbd
00000130: e834 82bc a5de 36be 600a 6fbd 4e03 8ebe
00000140: 0905 2bbe 51d4 d8bd 2237 13be 66c2 c0be
00000150: c15d 29be 3d51 ea3d 6ff9 a4bc e794 42be
00000160: ec1b 0cbe 497b b6bd 78ad 05be 0ce1 6ebe
00000170: e494 2bbc fa03 933d b43e 03bd 1a25 31be
00000180: 3896 91be 7010 36bd 518f 46be a932 89be
00000190: f4b7 7e3c e55d 21be 217b 2cbe be39 5bbe
000001a0: a6f7 b4bd dba9 c0bd af9b bbbd 2f73 bdbe
000001b0: 88a2 1cbe 14f1 58be b662 1ebb 55a1 8ebe
000001c0: 24a0 eebb 9b25 453e bd58 3dbe dc40 48bf
000001d0: 3b5d 303d fe68 fdbe a41d bc3c 4059 2f3e
000001e0: b8e9 4cbe 1930 343e 4f2f 743d fdf8 25bf
000001f0: e7b6 30be 04a3 b1be 9477 d1bd 7e31 37be
00000200: 14f8 99bc c896 033d 8378 4d3d d82c 3b3e
00000210: 33e3 f7bd 53fe 7bbd ef45 693e dd1a 79be
00000220: 66e4 783e 55cb e5bc 92dc 72bd 7488 1b3d
00000230: ad4a 2b3e 2cb2 a63e 13c6 dcbd fc8f 08be
00000240: 4d6f 7bbc 5db5 24be 5332 a03e 6ff5 463f
00000250: 9356 0cbe d773 343e 3875 163e 1fee 033d
00000260: 3ae4 203e c777 0dbd 55a6 c0bd 84d7 593e
00000270: 65ee 873e 40cf 73bd a628 483e bd8f d0bd
00000280: aedc a3bd 2f5a 46bd 2ec6 bf3b e7c8 f7bd
00000290: 341e 993d b35c 533e 1cb2 a0bd 0428 143d
000002a0: 8a3a dd3c 4be3 3b3c 2292 893e c272 253d
000002b0: 5140 5dbd 979a 41bc 12f8 c5bd d276 9d3d
000002c0: eb19 853e a01b 5c3e 8196 89bb aaa5 0cbd
000002d0: 8e47 373e 9f80 a23c db69 0c3e 2d60 b13d
000002e0: 1d22 0f3e c8f5 64ba c36c 06be 3f84 9c3b
000002f0: deb3 713d 2087 d73d c024 f0bd 917a cd3d
00000300: e15d 963c 91e8 ff3c 2a01 1f3e 423a 943d
00000310: be14 47bd 8892 0e3e c1ab 07be 385a adbd
00000320: 747f 6a3d 5e0e 88bc c5f7 42be d41e 473d
00000330: 149d f13d eb2b 313e 9bd7 47bd d269 29be
00000340: f063 3d3e 70e3 a1bd ac1f d1bd 4a74 71be
00000350: dc5d d53d 6e4f 01bd 2ff1 22bd a264 d93d
00000360: 4c11 8c3c 56fa 403e fa76 0339 8968 953e
00000370: 6776 663c 6e2e bbbd c809 a7be 7f84 af3d
00000380: a65f 55bb 9fa8 23be 9874 c4bd 6a14 1f3e
00000390: d810 3abc ea01 b5bc d022 49be 277b 973c
000003a0: 9236 a83d 5c9f 2cbd a726 84bc b67a 703e
000003b0: 14c0 053e c4f8 023d e0db bdbd 1a36 ca3d
000003c0: a4ed 0d3e eb8c 4ebe fd17 2cbd 93e8 f0bc
000003d0: 1230 be3d 7a69 813e 5428 f33d a72b 12bd
000003e0: 82b9 a03d 70f9 3e3c 2f2b 013e aa01 c83e
000003f0: dc1f f23d 60a0 9abe 80fa b13d 768d 903d
0.01909546 -0.19674374 0.017884657 -0.21491154 -0.053264078 -0.011712322 -0.20969766 -0.017469727
-0.051997334 0.09826285 -0.20791118 0.06928951 0.074513584 -0.14967766 -0.1371323 -0.16109923
-0.21655865 0.032944232 -0.80299723 -0.44123784 -0.10110258 -0.008029 -0.0790446 -0.08751831
-0.1552485 -0.019033492 0.04522263 0.033492636 -0.24849065 -0.22374627 -0.16615552 -0.11078801
0.09512377 -0.10166059 0.10329887 -0.116743825 -0.170812 0.07206105 -0.0934297 0.37870094
-0.059034172 0.003205007 -0.09020012 -0.103234194 0.08039414 -0.05673831 0.022461915 0.057297315
-0.032810226 -0.049620297 -0.08010741 -0.00074943533 0.0020718654 -0.0029383306 -0.39009848 0.06430401
-0.19255577 -0.093903296 0.052060638 0.026453879 0.08658918 -0.021556849 -0.17307486 -0.0034617025
0.11642492 0.028806714 -0.034086097 0.016997138 0.018706284 -0.12649648 -0.047224868 0.038954686
-0.13834201 -0.22913149 -0.10207478 -0.038388286 -0.015894368 -0.1785837 -0.058359504 -0.27736896
-0.1670114 -0.10587371 -0.143765 -0.37648314 -0.1653967 0.11441276 -0.02013847 -0.19002114
-0.13682526 -0.089102335 -0.13054454 -0.23328036 -0.01047251 0.07178493 -0.03204222 -0.1729931
-0.2843492 -0.04444927 -0.19390608 -0.26796463 0.0155467875 -0.15758474 -0.16843845 -0.21408746
-0.08836298 -0.09407397 -0.09160554 -0.3700194 -0.15296376 -0.21185714 -0.0024167723 -0.27857462
-0.007282274 0.19252627 -0.18490882 -0.7822397 0.04305766 -0.49494165 0.022963353 0.1712389
-0.20011032 0.17596473 0.05961543 -0.6483305 -0.17257272 -0.34694684 -0.10227886 -0.17889974
-0.01879505 0.032126218 0.050163757 0.18278825 -0.12103882 -0.06152184 0.22780584 -0.24326654
0.24305877 -0.028051058 -0.059292383 0.03797193 0.16727705 0.3255781 -0.10779967 -0.13336176
-0.01534636 -0.1608481 0.31288394 0.7771825 -0.137049 0.17622314 0.14693153 0.03220951
0.15712062 -0.034538057 -0.09406725 0.21273619 0.26549068 -0.05952382 0.19546756 -0.10183666
-0.08001076 -0.04842585 0.0058524823 -0.12098866 0.07476464 0.2064083 -0.07846472 0.036170974
0.027005453 0.011467765 0.26869303 0.040392645 -0.054016415 -0.011816642 -0.09666456 0.07688679
0.25996336 0.21494913 -0.0041988497 -0.034337677 0.1789839 0.019836722 0.13712256 0.08660922
0.13977857 -0.0008734134 -0.13127427 0.004776507 0.059009425 0.1052382 -0.117257595 0.10033143
0.018355312 0.031238826 0.15527788 0.07237674 -0.048603766 0.13923085 -0.13249113 -0.084644735
0.057250455 -0.016608413 -0.19039829 0.048613384 0.117975384 0.1730191 -0.0487896 -0.16544273
0.18495154 -0.079047084 -0.10211119 -0.23579517 0.10418293 -0.03156989 -0.03978079 0.10614897
0.017098092 0.18845496 0.00012537456 0.29181316 0.014066315 -0.09139715 -0.3262465 0.085701935
-0.0032558232 -0.15982293 -0.09592551 0.15535131 -0.011356555 -0.02209564 -0.19642186 0.01849134
0.082135335 -0.042144164 -0.016131712 0.2348431 0.13061553 0.031975523 -0.092704535 0.098736
0.13860184 -0.20170943 -0.042015065 -0.029407775 0.092865124 0.25275785 0.11872926 -0.03568616
0.07847883 0.01165615 0.1261413 0.3906377 0.11822483 -0.3020048 0.08690357 0.070582315

fc.layers.2.linear.weight_g f4 [128, 1]
00000000: ea83 453f cd40 723f 9cd9 5a3f 2d25 553f
00000010: 24e8 b13f 2b7d 983f 7d48 873f 8588 623f
00000020: 535a 913f 9033 213f 2635 853f 9a1d aa3f
00000030: c37a dc3f 9e58 6d3f ae0a 9d3f 6956 b23f
00000040: a832 be3f 0cbe 6c3f c69d a13f 0c5c 343f
00000050: c43a 713f 9122 893f 4ba0 833f 8d49 343f
00000060: bdbb 813f fa98 ba3f f829 473f 43b6 a33f
00000070: 315d 533f 3dc7 b03f 2a16 963f a5d0 3a3f
00000080: 81d8 d13f 10c8 963f 6e81 493f fef4 8f3f
00000090: 017c 973f 48f3 8c3f 860b 763f 6633 a53f
000000a0: 891f a73f df2e ab3f 1eeb 0840 2e6b 5b3f
000000b0: 52ae 753f 7c65 a83f 6fe4 9e3f a3cb ba3f
000000c0: 9bb0 a63f 00f3 533f 65dc ca3f 4792 773f
000000d0: 0cba 5d3f 4557 e43f e91c b63f 52b3 ca3f
000000e0: 9d2c a73f 08ab a23f 2139 a93f 06dd 6e3f
000000f0: 6d12 a73f 343e 2b3f 9fee 633f 5aab 833f
00000100: 5f75 f83f c5b1 973f 206e 9e3f 38ad ce3f
00000110: 0392 813f a95d c43f 2ad2 353f 5755 893f
00000120: a396 883f 9c99 b63f 06d8 853f 7edc 803f
00000130: 881e 743f ed47 643f 3a04 713f 73d9 553f
00000140: d1a2 d13f 34e5 c93f d671 673f 599e bb3f
00000150: 4b84 5c3f 830f 3e3f a7fd 903f 9b5d 9b3f
00000160: ebd4 d03f c4ab bc3f f0df b03f d95d 513f
00000170: 25a2 cf3f e0e2 9f3f 2c39 923f e371 a33f
00000180: 8772 b03f 5a9a 9e3f d018 d83f 9d24 3f3f
00000190: cb68 7f3f 68da 4a3f fd90 5d3f 6163 b03f
000001a0: 5a21 dd3f 65e0 5d3f 7ef7 b23f 04d0 5d3f
000001b0: 9402 393f 6fb8 6c3f 0036 aa3f d18e a63f
000001c0: 74fd 9a3f ffb7 ce3f 6c09 aa3f e1c7 5d3f
000001d0: 7368 873f 3568 933f 5bd3 603f f6d3 9e3f
000001e0: b7aa b93f e8a3 4a3f a34e 4c3f 4eec 903f
000001f0: d47a f13f a126 ab3f c6eb 803f 5edc 563f
0.7715441 0.9463013 0.85488296 0.8325985 1.3898969 1.1913198 1.0568997 0.8848956
1.135569 0.62969303 1.0406845 1.3290284 1.7224964 0.92713344 1.2268884 1.393262
1.4859209 0.9247749 1.2626274 0.7045295 0.94230294 1.0713674 1.0283293 0.7042473
1.0135418 1.4577935 0.77798414 1.2789997 0.82564074 1.3810803 1.1725514 0.72974616
1.6394197 1.1779804 0.7871312 1.1246641 1.1834718 1.1011744 0.96111333 1.290631
1.3056499 1.3373679 2.1393504 0.8571042 0.95969117 1.315597 1.2413462 1.4593395
1.3022646 0.82792664 1.5848509 0.96707577 0.8661201 1.7839133 1.4227573 1.5835974
1.306049 1.2708445 1.3220559 0.93306005 1.3052498 0.6689179 0.8903598 1.0286667
1.9410819 1.1851126 1.2377357 1.6146612 1.0122684 1.5341083 0.7102381 1.0729169
1.0670971 1.4265628 1.045655 1.0067289 0.95359087 0.8917225 0.94147074 0.83534926
1.6377813 1.5773072 0.90408075 1.4657699 0.86139363 0.7424242 1.1327409 1.2137941
1.6314977 1.4739919 1.381834 0.81783825 1.6221358 1.2491112 1.1423697 1.276913
1.3784951 1.2390854 1.6882572 0.7466524 0.99769276 0.7923951 0.8654936 1.3780328
1.7275803 0.86670524 1.3981779 0.8664553 0.7226956 0.92468923 1.329773 1.3012334
1.2108598 1.6149901 1.3284125 0.86633116 1.057875 1.1516176 0.878225 1.2408435
1.4505223 0.7915635 0.7980749 1.1322114 1.8865609 1.3371164 1.0071952 0.83930004

fc.layers.2.linear.bias f4 [128]
00000000: fc17 c53d ef33 c43b a078 a13e 8a64 f13d
00000010: 739f 7abe 8b5f f83d 7534 9e3e 4bcb 0ebd
00000020: 81ff 8bb9 9e72 6a3d f568 9f3d f7d8 47bd
00000030: e6e0 72be 5279 5e3e 158d 43bd ae30 3dbe
00000040: d829 79be 266b e93d bd66 78be 43c4 8c3d
00000050: e3c8 6f3e c980 853e 15ec 3abe 2ae3 cf3d
00000060: b0a2 a0bd 55fd 583e 714e 073e e468 59be
00000070: 91e4 e1ba 90bb aebe 95e7 623e c608 943d
00000080: 36ca 42be 09f8 8abc dbe3 f73d 0bd8 62bd
00000090: 3b51 6b3d 6e22 21bd efec 4cbc cfe3 8bbe
000000a0: 7a68 8fbe 88a9 e0bc 9df6 a2be a503 2b3c
000000b0: 8ea0 103e 316e 5abe 871f 37be a196 5bbe
000000c0: dab9 523e 5faf fc3c 0895 78be 938b 363e
000000d0: ee71 f83c f07c 43be 6764 b8bc d021 6fbe
000000e0: 3d65 1ebe 2eae 943d 2016 c0bd 0c9a c6bc
000000f0: 91df 48be b78f 0cbd 0227 313e 7423 6abd
00000100: 35eb a5be 19f0 3ebd a5c2 eabd 0497 84bd
00000110: fa07 df3d bef1 15be b207 9e3d e567 f33d
00000120: 73ce d8bc 501f 77be 5ba7 ad3d 9eb8 883b
00000130: f9d9 d13d bbbc 2f3e ad8e cc3d 3a97 f23d
00000140: b9a9 98be 3353 10be f451 5ebc 02be 38be
00000150: e1f1 9b3d 6a3f f23d fc91 1fbe f0e2 d4bc
00000160: a0ec 66be 6f12 a8be 0506 7dbe 690f 7f3e
00000170: 6336 b3be a4ad 9ebc 58ed 1fbe dab5 13be
00000180: 9217 90be 941f 393d 657f 80be d950 803d
00000190: 79da b8bd 2ec1 933d 9276 053e c72b 26be
000001a0: e575 d9be a042 f83d 63e9 95be bfc2 c53c
000001b0: 9565 be3d a9b0 c73d d40d 7ebe ddbe 64be
000001c0: 7c03 acbd 8bec 73be 7156 613e 4205 423d
000001d0: 4961 503d 48a8 71bd 0a72 fd3d f2d4 2aba
000001e0: 14a2 88be 1e65 623e 016e 333d 4549 04be
000001f0: 20c0 a3be 8c36 1fbe 1278 51bd cd3e f4bd
0.09623715 0.0059876363 0.31537342 0.117867544 -0.24474888 0.121275984 0.30899397 -0.034861844
-0.0002670251 0.057238214 0.07783691 -0.0487909 -0.23718604 0.21725968 -0.04774197 -0.18475601
-0.24332368 0.1139739 -0.24257942 0.068733715 0.23416476 0.26074818 -0.1825412 0.1015075
-0.0784353 0.21190389 0.13213517 -0.21231419 -0.0017234256 -0.34127474 0.22158654 0.07228236
-0.1902245 -0.016963976 0.12104007 -0.055381816 0.057450514 -0.039339475 -0.012507661 -0.27322242
-0.28009397 -0.027424589 -0.31828776 0.010437881 0.14123747 -0.21331097 -0.1788312 -0.21444179
0.20578709 0.030845342 -0.24275601 0.17826681 0.030327763 -0.19090629 -0.022508813 -0.23352742
-0.15468307 0.07259785 -0.0937922 -0.024243377 -0.19616534 -0.034316745 0.17300037 -0.057162717
-0.3240601 -0.046615694 -0.11462907 -0.064741164 0.10890193 -0.14642999 0.077163115 0.11885051
-0.02646563 -0.24133039 0.08479186 0.0041723987 0.10246653 0.17161839 0.09988151 0.118452504
-0.29816988 -0.14094238 -0.013569344 -0.18041232 0.07614494 0.118285015 -0.15583032 -0.025987118
-0.22551203 -0.32826564 -0.24709328 0.24908222 -0.3500243 -0.019369908 -0.15617883 -0.1442484
-0.28142983 0.04519613 -0.25097194 0.062654205 -0.09026045 0.072145805 0.13033512 -0.16227637
-0.4247276 0.12122083 -0.29279622 0.024140714 0.09296719 0.09750492 -0.24809963 -0.22338434
-0.08399102 -0.23820703 0.22005631 0.047368295 0.05087403 -0.058998376 0.12375267 -0.00065167167
-0.26686156 0.22108886 0.04380608 -0.12918575 -0.31982517 -0.15548152 -0.0511399 -0.11926041

fc.layers.3.linear.weight f4 [128, 128]
00000000: f3dd 65bc 9417 01be 55fd 25be 52d9 483d
00000010: 58c0 753e 130d 1c3e b2f0 043e 5845 42bd
00000020: 341e 6dbe c600 4d3e 89f7 71bd 4eea fa3d
00000030: 17bc c13e 03b0 cbbe 0728 0dbd d9df 833e
00000040: b0b2 a33e 623c fdbd 28f8 9a3e 6525 483e
00000050: c43f 563d 7433 103e 6362 113e e25d f4bd
00000060: 362d 003e e892 413e b183 d5bc fc16 423e
00000070: f146 10be 4f80 733e f34b 9d3d a121 96bc
00000080: 6558 923e dce0 873e c44c 03be a3f7 f73c
00000090: 1793 9a3d 8154 9f3e 0a8c ac3d e33f 953e
000000a0: 9b47 573e bab3 38bd 0422 26be 92e5 5fbe
000000b0: e1c8 56bd 78c1 a53e d3d1 a33e f0c1 253e
000000c0: 1deb dcbd 9180 4bbd 1314 ac3d 7345 b83c
000000d0: 765f 873e 92c7 b03e de0c 14be 0412 bb3e
000000e0: 3dba 893e 8bbe f03d 5c29 0c3e 933f bdbd
000000f0: afe0 5a3e c492 8b3d 8890 b3be 9143 7a3d
00000100: 5871 e7bd 6bb3 d2bb 8760 493d c292 c43d
00000110: 0735 5d3d 9f59 00bb c05b babd ac04 9f3e
00000120: ceaf 33be 6bf1 9e3e 1b12 a83c b22c a93d
00000130: 68b4 a83d 5245 c2be 6018 c8bd 38ff 3dbc
00000140: 9720 403c 3367 ad3d 0dff f73d d3ce 7a3e
00000150: 75c1 613e ec71 c9bd e8fd 5d3e cd26 073e
00000160: 64ee b93e 24d2 bd3e f8a5 b13e 2639 8ebd
00000170: bdd6 b63e a0f8 863d e46a 4e3e 177d 883e
00000180: 55e6 bf3e cc3d 283e e882 553e da0c d73d
00000190: eccb 1e3e f13a b33d 5760 413e e6a8 913e
000001a0: a4c8 463e 9244 aebd b67c 803e 368a 09be
000001b0: bc14 10be 35db f73d dbb4 853e c350 593e
000001c0: 11fd 4e3d 2c02 303e cb7e 233d d9d0 97be
000001d0: 4da5 76bd 1c85 f03d 8c08 88bd fa0d 833d
000001e0: 5811 e13d 0af3 f1be 7893 b8bc dcca d03d
000001f0: ad09 593e 35d2 033f 6eed 3a3e 74db 2ebd
00000200: ab14 843e 41db 55bd 21cd 3cbd ff44 cb3d
00000210: 6845 33be 8e6f 15be a472 cb3d a932 8d3e
00000220: 76fe 5bbd a5b2 47bd 9974 0dbe 0771 a0bc
00000230: a664 babd 7c8b 1d3e 13a0 cb3d ac3d 19bd
00000240: 694c 813a be5d 85bc d84e 16be 19f2 c4be
00000250: 6e76 8bbe 10eb 13be d1fd 313d 9fd0 3d3e
00000260: 9aa4 343f eae2 383e ccdc ce3a 5a44 443d
00000270: fc2a 423e 5562 2ebe 97d4 7e3b c855 cf3c
00000280: bc2e 4a3e 6250 f73e 98f5 51bc d0fc 6c3d
00000290: 823b cfbd 82bc 92be 42b2 033e 2b05 93bd
000002a0: a4a5 9e3b a1ec 933d 639c b6bd d10e 9cbd
000002b0: 70dd c53d 5d4e 3b3e 0f3f 1d3e 97dc 1b3c
000002c0: 89cb 52be adcc 81be dcec c3be 22ed ca3d
000002d0: 7b0d 893d 6b4f c5bc f59d 46bd d4a8 bebd
000002e0: bf77 793e 99ed c4bc 4326 e6bd f0a2 aabd
000002f0: 92a5 ea3d 4aaa 143d 9247 92bd e157 353d
00000300: 52ea 013d 65c6 31bd b100 c0be 4346 25be
00000310: 438c bd3c 45a9 d43d 435d 7f3d f313 4d3e
00000320: fc39 f73d c6df 50bb 3fff 143d 2023 c03d
00000330: d093 23be 9e31 cf3d 8f37 543e 7de4 a13d
00000340: 30ea 9bb8 f1fa a9be 8cfa 3c3d 3c89 013e
00000350: 3115 c4bd 2452 0f3e 92e9 0fbe 8ec6 3d3d
00000360: 12ee 26be 45e8 77bd 6e8a b6bd de7c d0bd
00000370: ec06 8b3e aa90 b2be 9697 553e 5235 d33d
00000380: 2c7d 5d3e f6ff 02be 8a6c f6bd a303 743e
00000390: 6f9c 28be 7e42 2d3e 71c8 a2be 9575 fc3c
000003a0: 8159 623e b743 bd3d 2572 bf3d c992 f8bc
000003b0: 48a3 55be e7ce efbd e32d 093e 5f6c fd3d
000003c0: 7ab6 ffbc 50c6 6a3d 0747 f6bd 5742 c6bc
000003d0: ae72 ca3b 2ca6 ac3c fdfb 56bd ac35 12bd
000003e0: 325a 20be 9e55 4bbe 0761 8fbe 7085 1c3e
000003f0: 65e4 b3be 509f 15bb 099d d33d 7101 203e
-0.014029968 -0.1260665 -0.1620992 0.049035378 0.23999155 0.15239362 0.12982443 -0.047429413
-0.23156053 0.20019826 -0.05907396 0.12251721 0.37838814 -0.39782724 -0.034462 0.2575672
0.31972265 -0.12365033 0.30267453 0.19545515 0.052306905 0.14082128 0.14197688 -0.11931969
0.12517247 0.18903697 -0.026063772 0.1895408 -0.14089562 0.23779415 0.07680502 -0.018326582
0.28583065 0.26538742 -0.12822253 0.03026945 0.075475864 0.3111916 0.08425148 0.29150304
0.21023409 -0.045093276 -0.16223913 -0.21864918 -0.052437667 0.32374167 0.3199602 0.16187263
-0.10787032 -0.049683157 0.08402266 0.022494053 0.26440018 0.3452726 -0.14458033 0.36537182
0.268999 0.11755093 0.13687652 -0.092406414 0.21374772 0.06815103 -0.35071206 0.061099593
-0.113009155 -0.0064300797 0.04916432 0.09598304 0.05400565 -0.0019584668 -0.09099531 0.31058252
-0.17547533 0.31043562 0.020516446 0.08260478 0.08237535 -0.37943512 -0.09770274 -0.011596493
0.01172652 0.08466949 0.12109194 0.2449296 0.22046454 -0.09836182 0.21678889 0.13198395
0.3631469 0.37074387 0.34696937 -0.06944494 0.35710707 0.0659039 0.20157963 0.26657936
0.37480417 0.16429824 0.20850718 0.10500498 0.15507478 0.087514766 0.18884407 0.28449172
0.19412476 -0.085091725 0.25095147 -0.1343163 -0.1407041 0.12102357 0.26114544 0.21222214
0.05053431 0.17188329 0.03991584 -0.29651526 -0.060216237 0.117441386 -0.06642255 0.0639915
0.10989636 -0.47255737 -0.022531256 0.10194942 0.21195097 0.51492625 0.18254635 -0.042689756
0.25797018 -0.05221105 -0.046094064 0.09925269 -0.17506945 -0.14593336 0.09933975 0.27577713
-0.05370947 -0.048754353 -0.1381401 -0.019585146 -0.091012284 0.1538524 0.09942641 -0.03741233
0.0009864691 -0.016280051 -0.14678514 -0.38465956 -0.27238792 -0.14445138 0.04345495 0.18536614
0.7056366 0.18055311 0.0015782355 0.047916748 0.1896171 -0.17029698 0.0038884038 0.025309458
0.1974439 0.48303515 -0.012814902 0.05785829 -0.10118772 -0.28659445 0.12860969 -0.0717872
0.0048415232 0.07222868 -0.08916547 -0.076200135 0.096613765 0.18291612 0.15356086 0.009513042
-0.20585455 -0.25351468 -0.38266647 0.09908511 0.06692024 -0.024085721 -0.048490483 -0.09309545
0.24362086 -0.024039077 -0.112377666 -0.08331859 0.11457361 0.036295213 -0.07142557 0.04427326
0.031717606 -0.043402094 -0.37500528 -0.16140084 0.023138171 0.10383848 0.0623448 0.20027141
0.120716065 -0.003187166 0.036376234 0.093816996 -0.15974355 0.101168856 0.20724319 0.07904909
-7.434597e-05 -0.33199266 0.046137378 0.12650007 -0.095743544 0.13996178 -0.14053944 0.046331935
-0.16301754 -0.060524244 -0.08913122 -0.101800665 0.27153718 -0.34875995 0.20858607 0.103129044
0.2162978 -0.12792954 -0.12032421 0.23829512 -0.16465925 0.16919896 -0.3179355 0.030817786
0.22104456 0.09241431 0.09347943 -0.03034343 -0.20863068 -0.11709385 0.1339641 0.12374186
-0.031214941 0.05731803 -0.12025266 -0.024201555 0.0061782217 0.02107533 -0.05248641 -0.035695717
-0.15659407 -0.19856879 -0.28003713 0.15285277 -0.3513519 -0.0022830553 0.103326865 0.1562555

fc.layers.3.linear.weight_g f4 [128, 1]
00000000: fe9d 9d3f 47ab 653f d74b b83f a7f2 6f3f
00000010: 246a 9c3f 417d 043f 8926 313f 0970 8d3f
00000020: 5daf 983f 3471 363f 38f5 953f 17b8 d03e
00000030: 1ef3 4f3f 0591 943f 67c8 0b3f fe9c 9d3f
00000040: 81b3 9a3f e060 8f3f 09b0 a33f 3095 a63f
00000050: 8ab7 a03f 7616 a43f f95a 953f 9a8d 9c3f
00000060: 7abd 683f db9f 913f f55e 953f cc82 533f
00000070: 07b2 913f aed3 3c3f a35d 843f 4b1a 993f
00000080: bc08 9f3f a1c3 903f b310 913f 3225 923f
00000090: e5a0 de3e c30d 9b3f 2cd8 053f 149b 963f
000000a0: 946e 943f f07b b03f 8c03 773f d62a 9a3f
000000b0: 26cb 953f cc2d 943f bf2b 973f ddf0 9c3f
000000c0: 192c 893f 9b10 943f 8577 663f 0a30 033f
000000d0: a9a5 ce3f 9ffa e63e 987a a63f e7f0 163f
000000e0: 21c9 403f 11d2 953f 9625 a73f f4b4 7f3f
000000f0: eba3 3f3f a9b5 893e aeaf 7c3f 1f02 8f3f
00000100: 844c 413f b564 913f ffd2 393f 445a 593f
00000110: 7f89 933f 84c9 d83e b326 903f ee80 0b3f
00000120: 909a 923f 1ac5 823f 7ff6 873f 1d46 8c3f
00000130: 0c88 6c3f abaf 113f ffbd 803f beec 9a3f
00000140: f2e9 8e3f 355d 983f b828 9d3f d605 923f
00000150: 971c 923f 172d 9d3f cfe4 383f 7815 7e3f
00000160: 2583 953f 4788 553f e8f9 8b3f 6e8a d63f
00000170: d271 753f 3069 833f a9a4 6a3d ec05 193e
00000180: a788 9d3f 984d 1c3e 7684 933f cef2 913f
00000190: 5dac 9a3f e7cc 243f 87c3 733f 20f7 3d3f
000001a0: b2e5 383f 43b1 8e3f e801 4d3f 6020 993f
000001b0: 5cde 9c3f 8bc6 053f a8fc 9c3f cc12 923f
000001c0: 91db 983f b917 ee3e 1fee 3f3f 5151 8c3f
000001d0: 7017 fa3e 3d0e 963f df98 293f 1060 4c3f
000001e0: c5dc 523f 0e98 aa3f 6b95 623f 1734 5d3f
000001f0: de7f ae3e 6a58 9e3f e069 9c3f cb7e ec3e
1.231384 0.89714473 1.4398144 0.93729633 1.2219892 0.5175362 0.69199425 1.1049815
1.1928517 0.71266484 1.171546 0.4076545 0.8123034 1.1606756 0.54602665 1.2313535
1.208603 1.1201439 1.2788097 1.3014278 1.2556012 1.2819355 1.1668388 1.2230713
0.9091412 1.1376909 1.1669604 0.82621455 1.1382455 0.737605 1.0341076 1.1961149
1.242454 1.1309701 1.1333221 1.1417601 0.43482128 1.2113575 0.5228298 1.1766076
1.1596246 1.3787823 0.9648979 1.2044322 1.1702621 1.1576476 1.1810225 1.2261006
1.0716583 1.1567568 0.9002612 0.51245177 1.6144305 0.45113084 1.3006163 0.5896134
0.753069 1.1704732 1.3058345 0.9988549 0.74859494 0.26896408 0.98705566 1.1172522
0.7550738 1.1358858 0.7258758 0.8490336 1.1526335 0.42341244 1.126181 0.54493606
1.1453419 1.0216401 1.06221 1.0958897 0.9239509 0.56908673 1.0057982 1.2103498
1.1165144 1.1903445 1.2278051 1.1408031 1.1414975 1.2279385 0.72224134 0.9925151
1.1680647 0.8341107 1.093564 1.6760995 0.958768 1.0266476 0.05728594 0.14943665
1.2307328 0.15263975 1.1524799 1.1402223 1.2083851 0.64375156 0.95220226 0.7420521
0.7222549 1.1147846 0.80081034 1.1963005 1.2255359 0.5225608 1.2264605 1.1411986
1.1942006 0.46502474 0.7497272 1.0962316 0.48846006 1.1723095 0.6624889 0.7983408
0.8236812 1.3327653 0.88509244 0.8640761 0.3408193 1.2370732 1.221981 0.46190485
