heat_eq_2d/outputs/tanh_interior_2000_arch_256x4/heat_network.0.pth (torch, 803434 bytes, 13 tensors)

_impl.layers.0.linear.weight f4 [256, 2]
000000 74 91 2e 3e 6b 15 9b bd 0e a4 b0 bf ee 94 53 3b
       0.17047673 -0.075724445 -1.3800066 0.0032284814
000010 fb bf 7b 3d b5 3e 35 be 3a 7f 9c bd db 58 3e 3e
       0.061462384 -0.17699702 -0.07641454 0.18588583
000020 60 1a e9 3d 1d d1 d4 bd ce 79 5e be e0 07 e4 bc
       0.11381984 -0.10391448 -0.21726152 -0.027835786
000030 a3 36 f1 be 13 e7 16 3d 54 dc 03 bd 3e f0 61 be
       -0.47111997 0.036841463 -0.032192543 -0.22064301
000040 09 a8 76 3d 13 8a 47 3e 4b 0e 96 3c 5d 0c b3 3e
       0.060218845 0.19486265 0.018317362 0.3497037
000050 33 f1 a8 be a6 c0 53 3c 42 48 91 bd cd 99 3a be
       -0.3299652 0.012924349 -0.0709386 -0.18222733
000060 5e 3d 60 bf 51 34 ed 3b 54 01 76 bd 32 da 52 3e
       -0.8759364 0.0072389026 -0.06005986 0.20591047
000070 da ce 85 3e f3 37 16 bd 84 2c 54 bc a2 da 6d bf
       0.26134378 -0.03667445 -0.0129500665 -0.9291173
000080 54 62 ba 3d c7 34 1f be 75 9d 45 3d 74 d3 87 3e
       0.09100786 -0.15547477 0.048245866 0.26528513
000090 5b f0 eb bd 19 ee 42 be e2 5b 42 3e f0 ce 23 3d
       -0.115204535 -0.1903614 0.18980363 0.039992273
0000a0 34 f5 d6 3d 3c 7e 2d be 21 2d 33 3f 61 e8 3b bc
       0.104959875 -0.16942686 0.69990736 -0.011468978
0000b0 8b 99 8b 3d 4f 5d 4c be b8 34 08 3d 61 6f 5d be
       0.06816395 -0.1995747 0.0332534 -0.21624519
0000c0 6c 65 8d bd 86 c0 34 be b8 f3 b8 3d a3 7f 25 3e
       -0.0690411 -0.17651567 0.09030861 0.16161971
0000d0 6a e6 73 3c 7d c7 b5 3e af 79 ac be de 7e 79 3c
       0.014886478 0.3550376 -0.33686587 0.015228001
0000e0 a0 08 7f 3d 29 c1 5e 3e e9 2c 55 be b5 28 6e 3d
       0.062264085 0.21753372 -0.20817913 0.05814429
0000f0 16 95 29 3f 7a 9f 98 bb 1a c3 57 be 7c a5 8f bd
       0.6624311 -0.004657683 -0.21070519 -0.070139855
000100 44 f9 be 3c f3 93 c3 be dc 2d 4c 3d 30 9b 47 3e
       0.023312218 -0.38198814 0.049848422 0.19492793
000110 9a 16 46 be 60 6b ec bc a4 19 76 3c 48 f7 a0 3f
       -0.1934456 -0.028859794 0.015020762 1.2575464
000120 c4 99 08 3e 15 2b e2 bd bb 82 8c 3d 2f 75 1a be
       0.13339907 -0.110433735 0.06860872 -0.15083764
000130 f0 e9 d3 3d 22 f0 46 3e 45 80 4a 3d cb a8 40 3e
       0.103473544 0.19427541 0.049438734 0.1881439
000140 81 d0 23 3f 0e f4 40 3c 7c 0a 5a 3e 33 2a 67 bd
       0.63990027 0.011776937 0.21293062 -0.05643673
000150 0d c2 8c bd 17 5f 44 3e bc ca 06 bd 89 bd 6c be
       -0.0687295 0.19176899 -0.032908186 -0.23119177
000160 60 5e 8c 3e 3c 92 84 bd 8d 20 c7 3d 87 42 c8 3d
       0.27415752 -0.064732045 0.097230054 0.09778314
000170 45 b6 c6 3e d2 c9 0b 3d 52 24 1a 3e 97 08 59 3d
       0.38810936 0.034128018 0.15052918 0.052986708
000180 da 44 6c 3d 70 fe 38 3e 8d df 65 be 05 ee 23 bd
       0.05768285 0.1806581 -0.22448559 -0.040021915
000190 55 c1 2e be 02 69 69 3d c2 07 27 3d d3 f3 4d 3e
       -0.17065938 0.05698491 0.040778883 0.20112543
0001a0 32 da 51 be 88 d7 06 3d 37 96 a9 3d 76 d1 57 be
       -0.20493391 0.03292039 0.08280604 -0.21075997
0001b0 91 f7 30 3e 66 fe 40 3d 76 eb e9 3e 56 b3 df 3b
       0.17281939 0.047117613 0.45687455 0.0068267984
0001c0 2a 4a ae 39 c7 09 2e 3f 90 d5 58 bd f3 1b 6a 3e
       0.00033243123 0.6798367 -0.052938044 0.22862224
0001d0 63 a5 f0 3d a2 bb 6d be b1 da cc bd 29 a7 1d 3e
       0.11750295 -0.23216107 -0.100026496 0.15395798
0001e0 c9 3c e8 be 33 50 df bb e7 87 42 3d 9d d9 0e 3e
       -0.45358875 -0.0068149804 0.047492888 0.139502
0001f0 02 d6 51 3c 55 3c 50 bf 29 fd 82 c0 ac 39 00 37
       0.012807371 -0.8134206 -4.0934033 7.642822e-06
000200 95 14 d4 bd 4f 99 10 3e 5c d7 c8 bd 3e 87 44 3e
       -0.10355488 0.14120983 -0.098067015 0.19192216
000210 5c 06 3c 3f bd 8e 4e 3b c5 b2 16 bf 4a 03 00 bc
       0.73447204 0.0031518184 -0.5886653 -0.007813284
000220 6c 3e 7a bd 14 f5 58 be d8 1e 29 3d 9f 68 5a be
       -0.061094686 -0.2118724 0.04128918 -0.21328972
000230 84 7c 35 be 3a 52 00 3d f9 98 ce 3f f6 5a 5b 3a
       -0.1772328 0.031328417 1.6140434 0.0008367741
000240 ef 84 24 3d fe ba 78 3e 45 e8 a1 bd 39 b5 28 3e
       0.040165838 0.24290082 -0.0790563 0.16475381
000250 c4 1a 81 3d 2f 79 5b be 7d 5d eb bd 73 45 40 3e
       0.06303933 -0.21432947 -0.11492441 0.18776493
000260 a2 b4 41 bd 83 66 68 be 0c 50 3b 3d 15 2e 4a 3e
       -0.047291405 -0.22695355 0.045730636 0.19744141
000270 d8 ef da 3f 6f ef d4 ba f8 02 40 bd 98 3e 2e 3e
       1.7104445 -0.0016245673 -0.04687783 0.17016065
000280 82 33 17 3f f5 c4 8b 3b 4f 69 cb 3d 13 8c 10 3e
       0.5906297 0.0042654225 0.099321954 0.14115934
000290 1b 9d 93 bd cb b9 90 be d7 68 8d bd 08 a0 3e be
       -0.072077 -0.2826675 -0.06904762 -0.18615735
0002a0 00 57 86 bf d2 78 18 bb 87 e7 4c 3d ff 6e 42 3e
       -1.04953 -0.0023265374 0.05002549 0.18987654
0002b0 01 c4 68 bd 69 3a 4b 3e 05 9a 6c bd 7b d0 37 3e
       -0.05682755 0.198465 -0.057764072 0.17950623
0002c0 1f 96 81 bd 90 81 22 3e b3 71 f8 bc c5 4f 5a be
       -0.063274615 0.15869737 -0.030327654 -0.21319492
0002d0 7e 1b 61 3d 0d 35 10 3e 09 a2 d6 bd 52 82 4b 3e
       0.05495786 0.14082737 -0.104801245 0.19873932
0002e0 3f b8 a1 3e 06 87 a4 3c 7b 33 3a bd 81 cd 52 3e
       0.3158588 0.020083915 -0.04545925 0.20586206
0002f0 d9 8c 80 3f 6b 5c 90 3c ac a9 9a 3d c5 8c 66 3e
       1.0042983 0.017622193 0.075518936 0.22514637
000300 56 fe 5b bd 4b 4c 3d 3e c3 82 36 bd f8 af 43 3e
       -0.05370935 0.18486135 -0.044558298 0.19110096
000310 a8 8d 2e 3e 2f 8a 14 be e1 80 db bb c4 c4 88 3f
       0.17046225 -0.14505838 -0.006698713 1.0685048
000320 2d 99 a2 be 33 e9 a5 bc 22 f5 14 bd c8 57 5b 3e
       -0.3175749 -0.0202528 -0.03636659 0.21420205
000330 e3 df 57 be 83 66 89 bd 02 6a cb be b2 20 4a 3c
       -0.210815 -0.06709006 -0.39729315 0.012336897
000340 ae f7 9b bd 77 b5 27 be ff 06 09 3d 75 82 79 3e
       -0.076156005 -0.16377817 0.033453938 0.24366172
000350 3e d4 53 3d c8 dd 3e 3e e4 86 26 bd b5 5f 47 be
       0.05171608 0.1863929 -0.040655985 -0.19470103
000360 b1 ce 7d bd d5 93 4d 3e 2e c0 a5 be 6b ed b4 3c
       -0.061964694 0.20075925 -0.32373184 0.022085866
000370 1b b3 c4 3c 8e fe 9e 3e 2e a3 87 3d 1f db 4c be
       0.024011185 0.31053585 0.06622921 -0.20005463
000380 54 cd a1 3d 98 f6 4a 3e 59 a1 a7 3f db be 94 3b
       0.07900491 0.1982063 1.3096114 0.0045393533
000390 b9 62 4d 3e db d9 36 bd 58 fd a4 be d9 18 2e 3c
       0.20057191 -0.044641357 -0.32224536 0.010626041
0003a0 2d 3f 54 3d 46 50 73 be 70 94 25 be 36 c3 5f 3d
       0.05181806 -0.2376109 -0.16169906 0.054629527
0003b0 9f d4 da 3d 3d e0 f1 bd a1 04 8a be 71 26 54 3c
       0.106850855 -0.11810348 -0.26956657 0.012948618
0003c0 0f a4 7c 3d 6b 16 41 be 80 ec 93 bd 8c 71 45 be
       0.061679896 -0.18856208 -0.07222843 -0.19281596
0003d0 44 d8 0f bf ed 88 79 bc ea 95 4e 3f df 62 16 3b
       -0.5618937 -0.0152304 0.806975 0.0022947115
0003e0 d6 ce 14 3f 5c aa ec bb 0b 35 58 bd 1b f2 7f 3e
       0.58128107 -0.007222457 -0.05278496 0.249947
0003f0 f2 8b 6b bd 13 dc 41 be a8 ef d1 bd f9 05 09 3e
       -0.05750651 -0.18931608 -0.10250789 0.13381185

_impl.layers.0.linear.weight_g f4 [256, 1]
000000 15 31 77 3f 0a 3d 78 3f 5e 96 85 3f a9 f4 7d 3f
       0.9655927 0.9696814 1.0436513 0.99201447
000010 a0 c3 54 3f 70 e4 68 3f 1c a2 69 3f c3 be 80 3f
       0.83111 0.9097357 0.91262984 1.0058216
000020 4d b7 88 3f 15 31 7a 3f 46 30 7f 3f bc 18 86 3f
       1.0680939 0.97731143 0.99683034 1.0476298
000030 4d 85 5b 3f 97 1f 87 3f 00 71 80 3f fa 5e 80 3f
       0.85750276 1.0556515 1.0034485 1.0028985
000040 6b 7a 63 3f 54 5f 44 3f 4f 36 80 3f 0d ef 72 3f
       0.8885867 0.7670796 1.0016574 0.9489601
000050 e7 1e 79 3f 72 f5 6d 3f e0 2b 75 3f 06 07 7e 3f
       0.9731278 0.92952645 0.9577007 0.99229467
000060 d9 9a 83 3f d6 b9 77 3f 92 db 6a 3f 2f b7 7e 3f
       1.0281631 0.9676794 0.9174129 0.99498266
000070 e8 99 84 3f 72 5d 76 3f d8 82 7b 3f cf ce 65 3f
       1.0359468 0.96236336 0.98246527 0.8976869
000080 63 4d 7b 3f 19 45 85 3f 6f 08 72 3f 2d 0e 73 3f
       0.9816496 1.0411712 0.9454412 0.94943506
000090 75 52 4f 3f 4c 55 54 3f 75 dc 80 3f 77 4e 70 3f
       0.80985194 0.8294265 1.0067278 0.9386973
0000a0 a8 97 82 3f 44 97 70 3f ab 20 7e 3f 97 14 84 3f
       1.0202532 0.93980813 0.992686 1.0318784
0000b0 2f 97 66 3f d1 5f 65 3f cb 1d 82 3f 1f 6e 66 3f
       0.9007444 0.8959933 1.0165342 0.9001178
0000c0 5a d0 7f 3f bc e3 73 3f 9d 6c 64 3f d1 b4 62 3f
       0.99927294 0.9526937 0.8922823 0.88557154
0000d0 37 95 73 3f 03 a4 87 3f c8 fa 5f 3f c1 43 72 3f
       0.9514956 1.0596927 0.87492037 0.94634634
0000e0 e9 39 67 3f df 24 84 3f 0d d1 84 3f bd 82 75 3f
       0.9032274 1.0323752 1.0376297 0.95902616
0000f0 22 79 74 3f 96 c1 49 3f 29 bc 65 3f 03 05 7b 3f
       0.95497334 0.78811014 0.89740235 0.9805452
000100 4b 0a 6c 3f bf fa 7e 3f 68 4e 7b 3f 5c 4b 76 3f
       0.92203206 0.9960136 0.98166513 0.9620874
000110 77 98 83 3f da 27 82 3f 27 ab 66 3f 19 b8 7e 3f
       1.0280904 1.0168412 0.9010491 0.9949966
000120 bb 03 86 3f 63 b6 6f 3f c3 ce 87 3f 52 0d 81 3f
       1.0469888 0.93637675 1.0609974 1.008219
000130 8b 2f 7d 3f 7b 14 7e 3f 60 7f 80 3f 0d c5 73 3f
       0.9890067 0.9925 1.0038872 0.9522255
000140 80 89 7e 3f 8b b0 4c 3f ba 20 84 3f 89 d8 89 3f
       0.9942856 0.79956883 1.0322487 1.0769206
000150 b6 ef 6d 3f 49 4c 76 3f cc 61 79 3f a8 35 53 3f
       0.92943895 0.9621015 0.9741485 0.8250375
000160 a9 1a 86 3f 33 97 79 3f 18 c7 6a 3f 86 a6 7f 3f
       1.0476886 0.97496337 0.9171004 0.9986347
000170 29 84 7f 3f 8c f6 7a 3f a5 3c 8f 3f 36 33 81 3f
       0.99811035 0.9803245 1.1190382 1.0093753
000180 e1 3b 71 3f 30 f4 85 3f 59 6a 62 3f a3 a5 63 3f
       0.9423199 1.0465145 0.88443524 0.88924617
000190 16 ea 7a 3f 90 7d 54 3f f0 b2 73 3f b9 83 7e 3f
       0.98013437 0.83004093 0.9519491 0.9941974
0001a0 8c 69 5c 3f bb d5 75 3f e9 d5 84 3f 4d 81 7a 3f
       0.8609855 0.9602925 1.037778 0.9785355
0001b0 62 fd 89 3f 83 07 6d 3f 22 ed 83 3f 4f a2 83 3f
       1.0780451 0.92589587 1.0306742 1.0283908
0001c0 a1 7c 86 3f af a3 81 3f e5 9b 75 3f e2 24 75 3f
       1.0506784 1.0128077 0.95941 0.95759404
0001d0 7f 91 8b 3f 33 7d 51 3f 8a eb 4a 3f 29 77 72 3f
       1.0903777 0.81831664 0.79265654 0.94713074
0001e0 1a f1 83 3f 92 fb 7e 3f 88 b4 59 3f 77 8a 7a 3f
       1.0307953 0.99602616 0.85041094 0.9786753
0001f0 3f e0 63 3f b9 45 82 3f 8d 28 35 3f 3f eb 6f 3f
       0.8901405 1.0177528 0.70765 0.9371833
000200 06 e8 7c 3f 28 9f 6d 3f 30 87 49 3f 28 74 72 3f
       0.9879154 0.9282098 0.78721905 0.9470849
000210 b3 06 79 3f ea fe 6e 3f 6b 41 75 3f 1a 5e 6f 3f
       0.9727585 0.9335772 0.95802945 0.9350296
000220 33 0f 84 3f 5e ea 85 3f 83 f0 6d 3f 78 68 72 3f
       1.0317138 1.0462148 0.92945117 0.94690657
000230 3d 27 80 3f 10 6e 5b 3f be 80 75 3f 6b e3 6b 3f
       1.0011975 0.8571482 0.9589957 0.9214389
000240 25 4d 68 3f 07 f8 53 3f f2 01 75 3f 42 7f 49 3f
       0.90742713 0.82800335 0.95706093 0.78709805
000250 b4 04 3c 3f 20 11 77 3f 8c 95 7c 3f 90 8d 4c 3f
       0.73444676 0.96510506 0.9866569 0.7990351
000260 47 9e 55 3f a0 60 7c 3f e3 48 5c 3f 1a 68 6a 3f
       0.8344464 0.9858494 0.86048716 0.91565096
000270 c0 f0 81 3f 09 56 82 3f 8f 6f 4d 3f 58 4a 84 3f
       1.0151596 1.0182506 0.8024835 1.0335188
000280 69 4a 7c 3f 4a 19 56 3f 61 fe 7f 3f 44 14 6b 3f
       0.9855104 0.8363234 0.99997526 0.918278
000290 b4 5a 68 3f bb c1 73 3f 67 c8 77 3f 2f 10 6e 3f
       0.907634 0.95217484 0.96790165 0.92993444
0002a0 86 16 80 3f 39 47 84 3f e6 c5 67 3f 1a db 81 3f
       1.0006874 1.0334235 0.90536344 1.014499
0002b0 63 06 81 3f 8c 05 75 3f 84 f0 76 3f 02 1e 79 3f
       1.0080074 0.9571159 0.9646075 0.97311413
0002c0 fd 29 81 3f 1a bc 67 3f 3b c8 84 3f 60 3c 76 3f
       1.0090939 0.90521395 1.0373605 0.96185875
0002d0 cb eb 66 3f ec 32 5f 3f 44 bf 5e 3f 3c af 74 3f
       0.9020354 0.87187076 0.870106 0.95579886
0002e0 d3 70 85 3f 06 d3 71 3f 47 40 76 3f 11 b4 75 3f
       1.0425056 0.9446262 0.9619183 0.95977885
0002f0 3a d8 48 3f 46 ed 82 3f bc 4a 69 3f b3 d7 6e 3f
       0.78454936 1.022866 0.9112966 0.9329788
000300 6d 30 88 3f e2 23 86 3f 5c e6 81 3f cc 0a 69 3f
       1.0639778 1.04797 1.0148425 0.910321
000310 ae ea 73 3f 4d 18 6f 3f 08 cd 87 3f c0 d8 82 3f
       0.9527997 0.93396455 1.0609446 1.0222397
000320 76 ed 93 3f 55 7f 49 3f ca 9b 81 3f 02 32 7d 3f
       1.1556842 0.7870992 1.0125668 0.9890443
000330 3d 06 73 3f bd cc 59 3f 93 9a 66 3f 24 99 7f 3f
       0.94931394 0.8507803 0.9007961 0.9984305
000340 d3 e1 86 3f 71 f8 4b 3f f5 ae 6c 3f f8 4c 6b 3f
       1.0537666 0.79675967 0.92454463 0.9191432
000350 3d 75 64 3f 1e 9e 86 3f bf 7f 68 3f d9 9e 6e 3f
       0.8924139 1.0517004 0.90819925 0.9321113
000360 51 a6 7b 3f 88 5e 72 3f 76 1c 6b 3f e9 9d 69 3f
       0.98300654 0.94675493 0.918403 0.91256577
000370 d2 8a 33 3f 94 39 66 3f 1d 9c 57 3f c5 a6 80 3f
       0.701337 0.8993161 0.84222585 1.0050894
000380 0e b2 7d 3f 68 7b 64 3f 38 4a 6e 3f dd e7 79 3f
       0.99099815 0.89250803 0.93082 0.9761942
000390 38 af 7d 3f 00 dc 77 3f e7 a4 63 3f a4 c8 83 3f
       0.9909549 0.9682007 0.88923496 1.0295606
0003a0 0e 3b 72 3f 20 53 6f 3f a4 fd 81 3f 7b 55 83 3f
       0.9462136 0.93486214 1.015553 1.0260462
0003b0 fd cc 81 3f 92 4c 6e 3f 61 8c 68 3f a0 71 76 3f
       1.0140682 0.9308559 0.908392 0.9626713
0003c0 c5 53 82 3f 38 0f 77 3f fc ed 81 3f e3 65 84 3f
       1.0181814 0.96507597 1.0150752 1.0343593
0003d0 08 2a 81 3f a2 d6 7d 3f f9 ff 73 3f af 93 7c 3f
       1.0090952 0.9915563 0.9531246 0.9866285
0003e0 95 f1 87 3f 13 7e 54 3f b6 c8 88 3f b0 73 76 3f
       1.06206 0.83004874 1.0686252 0.96270275
0003f0 de 89 84 3f d6 dc 78 3f 25 a5 88 3f ac cc 74 3f
       1.0354574 0.9721197 1.0675398 0.95624804

_impl.layers.0.linear.bias f4 [256]
000000 4b e4 91 3e 4a 8a 98 bd e1 41 7d be b7 03 31 3e
       0.28494486 -0.074482515 -0.24732162 0.17286573
000010 2d ed 14 3e 4c 07 9c be b4 6a 63 3e 7d b7 a2 3e
       0.145436 -0.30474317 0.22208673 0.31780615
000020 b2 ec 89 be e5 8a a0 be db 91 a0 be 3d 06 3c 3e
       -0.26938397 -0.31355968 -0.3136128 0.18361755
000030 8c f5 50 bd 21 13 90 3e df 35 a1 3e 11 d4 de 3e
       -0.05101542 0.28139594 0.31486413 0.4352117
000040 c0 5d 02 bc 2f a8 29 3e 13 17 4a 3d 06 39 9c 3e
       -0.007956922 0.16568063 0.04933841 0.30512255
000050 e5 31 5a bd 17 83 4b be 0b a7 1d be c8 dc 8f be
       -0.05327024 -0.19874226 -0.15395753 -0.2809813
000060 9c e6 3a 3e cf 1f 99 bd d2 3b 81 be 8c 0c cf be
       0.18252033 -0.0747677 -0.25240952 -0.4043926
000070 df b0 7b be 63 16 a6 be c3 59 c6 3e 20 d1 40 be
       -0.2457919 -0.32438955 0.38740358 -0.18829775
000080 d4 63 ae be 61 e0 90 be ec 0c a1 be 85 58 99 be
       -0.34060538 -0.28296188 -0.3145517 -0.29950348
000090 7e 9b 82 3e 55 4c 3d bd d3 cb c4 bd f4 e4 5a be
       0.25509256 -0.046215374 -0.09609189 -0.21376401
0000a0 25 72 bb be 9f 37 ae 3e a0 16 5a 3e 68 20 b4 3e
       -0.36610523 0.3402681 0.21297693 0.35180974
0000b0 8d 6d 07 bd 58 3d 5a 3d 01 a1 a4 be 24 88 88 3e
       -0.03306346 0.05328116 -0.32154086 0.26666367
0000c0 c5 73 4c be 5a 29 ad be c6 ca 39 be e8 a5 13 be
       -0.19966038 -0.3382061 -0.18143758 -0.14418757
0000d0 12 87 bc be d1 53 6b be 14 70 2c 3e 45 ea c8 3e
       -0.368218 -0.22981192 0.1683963 0.39241233
0000e0 e2 fe a1 3e 50 aa 90 3e 50 b8 dd bd 0d ca e9 3c
       0.31639773 0.28254938 -0.108261704 0.028538728
0000f0 99 df de be 06 4e 8f 3e f1 b2 8d be 93 16 78 be
       -0.43529966 0.27989215 -0.27675584 -0.24227361
000100 fd b9 9b bc dd 65 24 3e 9a af d5 3e 00 a8 63 be
       -0.019009585 0.16054483 0.41735536 -0.22232056
000110 54 84 7a 3e 63 e3 8f be 3f 9e a3 be 53 3b 9a 3e
       0.24464542 -0.2810317 -0.3195667 0.30123386
000120 a0 32 af be 89 5a 97 3d 00 82 96 be 5f 18 a3 3d
       -0.3421831 0.07390315 -0.29396057 0.07963633
000130 e9 1a 89 3e 19 77 89 be 8e 59 b9 3e 0b 78 4b 3e
       0.26778343 -0.26848677 0.36201137 0.19870012
000140 be b4 b3 3e af b4 90 3e 10 c8 9e 3e 24 b4 6d 3e
       0.35098833 0.2826285 0.3101201 0.2321325
000150 6b e3 af be b3 51 5e be 76 b4 49 3e f1 3f 83 be
       -0.34353194 -0.21710853 0.19697747 -0.2563472
000160 44 e2 4a 3e 14 be 8e 3e 11 96 8c bd d5 bb fd 3d
       0.19812876 0.27879393 -0.068645604 0.12389342
000170 cd 71 80 3e 65 e7 64 3e c2 79 aa be 5d e8 3b be
       0.25086823 0.22353895 -0.3329602 -0.18350358
000180 c5 21 22 3e c1 fa 96 3e b7 75 12 3e 62 1c 9e 3e
       0.15833195 0.29488185 0.14302717 0.3088103
000190 ec 41 a0 be c8 d3 2a 3e 15 cb a9 be ca f2 8c be
       -0.31300294 0.1668235 -0.33162752 -0.27528983
0001a0 29 44 d9 3c fa 0d 68 be da c9 89 be c9 ec 88 3e
       0.02652176 -0.22661582 -0.26911813 0.26743153
0001b0 6f 4a 90 3e cb e9 12 be f2 dd b1 be 52 98 62 be
       0.28181788 -0.14346997 -0.34739643 -0.22128418
0001c0 c3 13 46 be ee 25 a0 3e 00 2c af 3e 11 8d ca be
       -0.19343476 0.31278938 0.34213257 -0.3956075
0001d0 43 ce b3 be 0a ab 02 be b8 96 79 3e a1 58 b9 be
       -0.35118303 -0.12760559 0.24373901 -0.3620043
0001e0 3f 9a 5b be 6f c6 20 3e 89 eb 43 3e bd 94 96 3e
       -0.21445559 0.15700696 0.19132818 0.29410353
0001f0 a2 0a 82 3e 85 aa 8f 3e 9e 9e 40 bc 22 94 00 bd
       0.25398737 0.28059784 -0.011756567 -0.03139127
000200 a3 14 78 3e 2f cc 2e be fc 1f 68 3c d9 10 67 3d
       0.24226622 -0.17070077 0.014167782 0.05641255
000210 15 e2 65 be d6 cb 70 3e 81 4f 9e 3e d3 5c bd be
       -0.22449525 0.23515257 0.30920032 -0.36984882
000220 7e 96 c8 3d 3d fd 71 3e e2 f6 f4 bd 76 14 bf be
       0.09794329 0.23631759 -0.11961152 -0.37320298
000230 fa 7c 8a be 8d 68 b1 3c 78 54 93 3e d3 c8 7c be
       -0.27048475 0.021656299 0.28775382 -0.24685983
000240 ed d0 9c 3e 5b f6 07 bc ee 36 b9 3e c4 f2 81 be
       0.30628148 -0.008298482 0.3617472 -0.25380528
000250 4d c6 5a be 5d d6 b5 be 05 25 38 be 69 7c 82 be
       -0.21364708 -0.3551511 -0.17982872 -0.25485542
000260 a5 88 86 bd 26 73 81 be c4 b6 b0 3d 24 d1 02 be
       -0.065690316 -0.25283164 0.0862861 -0.12775093
000270 4f 35 9d be 0d 77 74 be b7 cc d2 3c a4 af a7 3e
       -0.30704734 -0.2387354 0.025732381 0.3275119
000280 e1 89 93 be 8b 1b 5f be 59 2a c2 bd 68 aa 97 3e
       -0.2881613 -0.2178785 -0.094807334 0.29622197
000290 07 ab 2d be 5c 54 a3 3e bd a8 24 3e 30 3d 8b be
       -0.16959773 0.319003 0.16079994 -0.2719512
0002a0 e2 ee b0 be c1 91 41 3e bd ff cc bd a0 ce 11 be
       -0.34557253 0.18903257 -0.10009716 -0.14238977
0002b0 e8 e5 7d 3e 42 75 14 3c d7 82 ba 3e 81 aa cc 3e
       0.24794734 0.00906116 0.36427948 0.39973834
0002c0 1e 95 aa be 3f 51 a7 be 0f 02 96 be 97 c2 96 3e
       -0.33316892 -0.32679173 -0.29298446 0.29445335
0002d0 2e 60 83 bd cf dc 67 be b5 d8 3a 3c 2a 9a db bd
       -0.06414829 -0.22642826 0.011404206 -0.10722764
0002e0 1c 86 8e be 0f d7 af 3e 28 d8 88 3e 4b 65 97 be
       -0.27836692 0.34343764 0.26727414 -0.29569468
0002f0 6e 7a 82 3e 74 90 23 be ad 2b 65 be 0a ec 3a be
       0.2548403 -0.15973073 -0.22379942 -0.18254104
000300 78 42 a8 3e 3d 79 3a 3e ee 59 a8 bd 8a aa 43 3e
       0.32863212 0.18210311 -0.08220278 0.19108024
000310 34 1d e1 3d c6 03 8f 3e f1 49 89 be a4 5a a2 3e
       0.10991898 0.27932566 -0.26814225 0.31709778
000320 88 cf e1 be d6 6a b8 bd 23 5e d2 3e c4 74 ad 3e
       -0.44103646 -0.09004752 0.41087446 0.33878148
000330 f4 6a 89 be c1 d7 60 be 12 19 a3 bd ad ec d0 3d
       -0.2683941 -0.21957304 -0.07963766 0.10201392
000340 cb 62 91 3d fd 79 85 3e ec ef 7c 3e d5 51 a1 be
       0.070989214 0.26069632 0.24700898 -0.31507745
000350 61 93 a8 3e c4 01 0c 3e 57 a8 50 be 86 c8 94 be
       0.3292494 0.13672549 -0.20376717 -0.29059237
000360 83 bf 0f 3d 6e 74 92 be 72 11 00 3e a2 64 0d bd
       0.03509475 -0.28604454 0.12506655 -0.0345198
000370 db 5c 08 be 35 b2 a6 3e 50 9d bf bd 1a 83 84 3e
       -0.13316672 0.32557836 -0.09356177 0.25881273
000380 19 e0 02 3e 99 9d 5f 3e 84 f5 89 3e 15 27 88 3d
       0.12780799 0.21837462 0.26945126 0.06648079
000390 eb 82 82 3e 46 22 bd 3e f6 82 22 3e 98 33 46 be
       0.25490507 0.3694021 0.1587027 -0.19355619
0003a0 47 b6 a6 3e 78 0a 96 be d3 85 26 be af 81 ec bd
       0.32560942 -0.29304862 -0.16261987 -0.11548173
0003b0 eb ff 5a 3e 10 ad 53 be d2 34 87 3e 7d d9 a6 be
       0.21386687 -0.20671487 0.26407486 -0.32587805
0003c0 c2 1a b6 be 1b c1 67 be 56 28 9b bd 21 48 11 3e
       -0.3556729 -0.22632258 -0.07576053 0.14187671
0003d0 01 af 89 be fc 1c 6b 3d 0e 2d c2 be fc a1 61 3e
       -0.2689133 0.05740069 -0.37925 0.22034448
0003e0 b7 88 13 3e 2c cb 0a bd ae 79 ce 3e bf ae af be
       0.14407621 -0.033885166 0.4032721 -0.34313008
0003f0 c9 79 9c 3e 42 c6 bc be f6 db 8f be 34 b8 d9 bc
       0.30561665 -0.3687001 -0.28097504 -0.026577093

_impl.layers.1.linear.weight f4 [256, 256]
000000 b6 43 3e bd 85 32 ee 3c e3 73 27 3e 9d 20 c7 bd
       -0.046451293 0.029076824 0.16352801 -0.09723017
000010 31 d3 34 3e 8f b2 12 bd 24 54 df 3d bd 0e 4d be
       0.17658688 -0.035814818 0.109047204 -0.20025153
000020 15 b1 f0 bd cf 13 95 bd 13 1d 40 bd 91 80 09 3d
       -0.11752526 -0.07279169 -0.046902727 0.033569876
000030 a6 75 f7 3d 9e 9a 28 3c 1f 3a eb bd c3 94 15 bc
       0.120829865 0.01029077 -0.11485695 -0.009129706
000040 55 6f ef bc 6b 93 d4 bd a9 e9 50 be f9 48 02 3d
       -0.029227892 -0.1037968 -0.20401634 0.031807873
000050 16 db 62 3e 79 57 a5 bd fa a2 c3 bd c8 ea 1e 3e
       0.22153887 -0.08073325 -0.0955257 0.1551925
000060 88 ac 4f be 0a 17 65 3b df 24 84 bd e7 bb 6f bd
       -0.20280659 0.003495636 -0.06452345 -0.058528807
000070 15 38 97 bd c1 53 3f 3d be 9c a5 3c 4e a1 10 3e
       -0.07383744 0.046710733 0.020216342 0.14124033
000080 78 23 33 3e dd 5a 02 3e 7f 61 44 be 92 be 17 bc
       0.17493999 0.12729974 -0.19177817 -0.009261744
000090 ba b4 f4 3d d5 9e 2f 3d f6 48 5d 3e c8 ab db 3d
       0.11948533 0.042876083 0.21609864 0.10726124
0000a0 f9 7f 37 be 6e b0 93 3d 38 ec ce 3d 09 c6 b6 bd
       -0.17919911 0.07211386 0.10103649 -0.08924491
0000b0 cf 0e 96 bd 8a e7 59 bd 38 a7 77 be 10 76 98 bd
       -0.07327043 -0.05319933 -0.24184883 -0.07444394
0000c0 52 30 4f 3e 63 c7 25 be 3a 0f 51 3d ba 15 01 3d
       0.20233276 -0.16189341 0.05103991 0.03151486
0000d0 ff 70 95 3d 71 ab 88 3d e1 66 f2 3d 3b a0 d3 bd
       0.07296943 0.06673325 0.11836029 -0.10333296
0000e0 17 57 78 3d b6 ea 05 be 34 f0 27 3d 39 d5 c0 3d
       0.06062993 -0.13077816 0.04100056 0.09415669
0000f0 77 2f 13 be a5 98 28 3c d0 b0 52 3d 96 84 20 3e
       -0.14373575 0.0102903 0.051438153 0.15675578
000100 46 81 4e bd 03 3e b6 3d ed 74 c2 3d 80 7e 35 3e
       -0.050416254 0.088985465 0.09494958 0.17724037
000110 01 e3 34 be 80 2f 10 3e d0 02 f3 bc 34 4b 82 3d
       -0.1766472 0.1408062 -0.029664427 0.06362
000120 b5 4d 8a bd 9b f6 41 3c 41 b2 d9 3d 44 24 0b 3d
       -0.06753103 0.0118385805 0.10629702 0.033970132
000130 7f 88 b4 bd 67 c8 36 3e 9e e6 25 bb 9d 49 6c bd
       -0.08815097 0.17849885 -0.002531446 -0.05768739
000140 3d 05 fa bd c0 92 36 be 88 fb c2 bd 34 f6 4b 3d
       -0.122080304 -0.17829418 -0.09520632 0.049795344
000150 35 0d 0b be 08 f7 25 3e da aa 96 3d fe 11 08 bd
       -0.13579257 0.16207516 0.07356806 -0.033220284
000160 e3 34 e4 3d 8b cc ea bd 03 06 dd bd 6a db 30 3d
       0.111429 -0.11464795 -0.10792162 0.043178
000170 96 94 c3 3d ef 81 d6 bd 4a 61 ed bd cd 5a 04 3e
       0.09549825 -0.104740016 -0.11590822 0.12925263
000180 18 40 60 be be 00 c3 bc 2b 2b a0 bc 6a 05 06 3d
       -0.2189945 -0.023804065 -0.019551834 0.032720007
000190 2e 74 b1 3d c2 a6 c9 3c f0 5e cf 3b 7d 8e 6c 3d
       0.08664738 0.02461565 0.006328456 0.057753075
0001a0 52 54 35 3e 6a a8 8e 3d 8c f4 44 3e e4 aa 22 be
       0.17707947 0.06965716 0.19233912 -0.15885502
0001b0 fe c9 85 3d 8d 58 ec 3d fa 32 50 bd 04 84 a1 3d
       0.065326676 0.11540327 -0.050829865 0.07886508
0001c0 9b 7d d8 bd 52 35 1c be 99 d3 df 3d 86 f6 3a be
       -0.10570832 -0.15254715 0.10929031 -0.18258104
0001d0 30 68 59 3d c3 5f d4 3d ce 76 3c bd 83 0f d3 3d
       0.053077877 0.103698276 -0.04601174 0.10305693
0001e0 ec 4c 19 3c 15 d5 5c be be 96 d5 3d 68 c9 c5 3d
       0.0093567185 -0.2156566 0.104291424 0.09657556
0001f0 50 29 c6 bd f9 4a 6a bd 95 ab cf bd 80 04 e6 3d
       -0.096758485 -0.057200406 -0.101401486 0.11231327
000200 d4 f8 14 3b 7f e1 5f be f0 8e ea 3d 0d df 9a 3d
       0.002273132 -0.21863364 0.114530444 0.07562075
000210 0f 61 c8 3d c8 08 b8 bd 72 a9 23 3e 18 55 e8 bd
       0.097841375 -0.0898605 0.15982607 -0.11344355
000220 fa 01 0d 3c b7 11 35 be 66 55 10 3e 83 9f e0 bc
       0.008606428 -0.17682539 0.14095077 -0.027419811
000230 cc 96 3e 3e 2a 46 55 bd 9a 88 d8 bc 79 4a 79 bd
       0.18612212 -0.052068867 -0.026432324 -0.06086204
000240 04 d2 21 3e 24 7a f2 bd ee e6 24 3e 8d fd ad 3d
       0.15802771 -0.11839703 0.16103718 0.084956266
000250 d5 29 3c 3c 73 ed 87 bd 0b c9 18 3e 40 a0 37 be
       0.011484583 -0.06637087 0.14920442 -0.17932224
000260 b1 3b 27 3e 44 11 41 3e ca ed 37 be c9 63 ad bd
       0.16331364 0.18854243 -0.17961803 -0.08466298
000270 79 7d 2f 3e 17 1e be 3c c4 ad e0 3a db c9 c2 3d
       0.17137708 0.023207707 0.001714163 0.09511157
000280 ee 19 3a 3e a6 83 f6 3d 44 7e 16 bd 09 7e 19 bc
       0.18173954 0.12036829 -0.03674151 -0.009368428
000290 7c 11 71 bd 07 50 20 3d 3a e3 12 be b1 c5 04 bd
       -0.058854565 0.03913882 -0.14344493 -0.032415096
0002a0 58 86 51 bc e3 d3 e5 3d c7 9c 2c be bc 62 60 3e
       -0.012788378 0.11222055 -0.16856681 0.21912664
0002b0 e8 0b 31 bc 31 bd fa bd a3 95 99 bd fd 5c 30 3e
       -0.010806061 -0.12243117 -0.07499244 0.17222972
0002c0 f8 c8 33 be 7f 5f 1e 3d ba d0 0d 3e 0b e9 4c bd
       -0.17557132 0.03866529 0.13849154 -0.050026935
0002d0 51 46 a0 bc b4 60 e3 3d 60 7b 09 be d2 7e 2f 3e
       -0.01956478 0.11102429 -0.1342597 0.17138222
0002e0 c0 bf c6 bd 3d 92 3b 3e 50 eb 51 be b5 01 fd bd
       -0.09704542 0.18317504 -0.20499921 -0.12353841
0002f0 f0 04 6f 3d 33 88 33 3e c3 58 57 3d d4 27 20 be
       0.05835432 0.17532425 0.052574884 -0.15640193
000300 e3 2e 0e be eb 42 11 be e3 fa fa bd 1d 66 a9 bd
       -0.13885073 -0.14185683 -0.12254884 -0.0827143
000310 1a ba ad bd 83 00 d1 3d ad 50 55 bd 0f 80 b4 3b
       -0.08482762 0.10205176 -0.05207889 0.00550843
000320 db cb 67 be fa 4c 64 3d e2 f4 d9 bc 72 86 91 bc
       -0.22636358 0.055737473 -0.026606027 -0.017764304
000330 3c cc 58 be 89 d2 20 bd 59 a0 51 3d 7b bf 21 be
       -0.21171659 -0.039263282 0.05117831 -0.157957
000340 42 be 00 be f4 f7 33 3e 2b 28 f1 3d 71 ac a2 3c
       -0.12572578 0.17575055 0.117752396 0.019857617
000350 a2 18 89 3c df 65 23 bd c3 10 89 bd ec 24 19 bd
       0.016735379 -0.039892074 -0.0669265 -0.037388727
000360 06 1d 32 3e 87 1b 3d bd 48 2d b1 bd 37 3b 71 bd
       0.17393884 -0.04616883 -0.08651215 -0.058894362
000370 b2 ca 16 3e d7 41 b1 3d e2 dd 01 3c 6a bb 3d be
       0.1472576 0.08655136 0.007926436 -0.18528524
000380 97 f0 33 bd 3f c6 03 be 34 27 f7 bd 7f 38 f3 bd
       -0.043930616 -0.12868594 -0.12068024 -0.1187601
000390 de b2 ba 3d 91 a3 29 bd db 0c be bd f7 28 80 bd
       0.091161475 -0.041415755 -0.09279796 -0.062578134
0003a0 ca bf 64 3c 54 b7 2a be c2 38 de 3d 02 7b b7 bd
       0.013961742 -0.16671497 0.108506694 -0.08959009
0003b0 b2 0f cc 3c 33 9f 49 bd 98 94 98 bc f6 f8 d2 3d
       0.024909828 -0.04922409 -0.018625543 0.10301392
0003c0 d8 b5 07 3e 57 c9 11 3e 81 9f 85 3d b3 c2 4e be
       0.13252962 0.14236961 0.065245636 -0.2019146
0003d0 19 ee 1a 3e c1 a7 f2 bd 4e d1 0b 3e c2 f3 ce bd
       0.1512989 -0.11848403 0.13654062 -0.10105087
0003e0 fb a2 49 be a4 8b 09 3c f8 c2 f6 bd b3 92 76 3d
       -0.19691078 0.008395109 -0.12048906 0.060198497
0003f0 f3 36 d4 bc e9 62 3e bd cd 4b 2e 3d 6a 67 d9 bd
       -0.025905108 -0.046481047 0.042552758 -0.10615428

_impl.layers.1.linear.weight_g f4 [256, 1]
000000 f4 f1 8e 3e e6 72 50 39 a5 3c de b8 e8 3c f3 b7
       0.2791897 0.00019879229 -0.00010597081 -2.8996219e-05
000010 05 2c ab b8 15 50 68 3f 5a a9 51 3f 96 0c 5d 3f
       -8.162115e-05 0.90747195 0.81899035 0.8634733
000020 41 10 87 3f 0e 2f d5 39 d3 f3 70 3f 78 8c 19 38
       1.0551835 0.00040661584 0.94122046 3.6608864e-05
000030 f4 aa ec 3e d4 a4 23 3a 1c 86 3e 39 ca b1 4f 3f
       0.46224177 0.0006242518 0.00018169772 0.8113066
000040 96 35 ee 3c f2 43 94 b8 65 93 1d b8 c0 1d 44 3f
       0.029078286 -7.069846e-05 -3.756899e-05 0.76607895
000050 f0 c0 5c 3f d8 a3 a2 b9 c9 a8 1b 39 23 f2 d3 39
       0.862319 -0.0003102112 0.0001484483 0.00040425462
000060 89 76 8e 3f 7c d4 d4 3c bd 7c 56 3f 73 c6 de b6
       1.1129924 0.025980227 0.83784086 -6.639218e-06
000070 8b ee 57 3f 9f e3 27 38 cd a3 7f 3f 76 f3 82 3f
       0.8434836 4.002789e-05 0.99859315 1.0230548
000080 54 17 85 b9 28 0a fc b8 51 92 1b b9 4c e0 04 b8
       -0.00025385118 -0.00012018188 -0.00014836459 -3.1680145e-05
000090 78 6b b6 38 bd 7a 00 ba 9f 52 3b 37 87 80 7e 3f
       8.698454e-05 -0.0004901102 1.1165305e-05 0.9941487
0000a0 62 1d 81 3c 2d 2b b9 3f 98 dd 39 b7 94 ee 3e 3f
       0.015761081 1.4466301 -1.1078453e-05 0.7458279
0000b0 74 31 1f 3c 8b 1a 59 3f ce 6a 59 3a 4b 6f bd 39
       0.00971638 0.84806126 0.0008293808 0.0003613181
0000c0 1d 93 a4 b9 d5 be 6e 3f 49 47 86 3f 3b 93 10 3a
       -0.00031390126 0.93259937 1.0490505 0.0005515103
0000d0 b7 45 80 3f 70 88 7d b9 4b ed f0 38 27 08 76 3f
       1.0021275 -0.00024178787 0.00011488291 0.9610619
0000e0 d9 ec 5b 38 f0 7d 64 3f 86 b8 49 3e 0e 4e a8 39
       5.243425e-05 0.89254665 0.19699296 0.00032101612
0000f0 3a 08 85 3f 7e 43 5a 37 29 13 0b ba ec 2b 75 3f
       1.0393136 1.3009527e-05 -0.0005305284 0.95770144
000100 92 db 34 39 e1 fa 4d 39 bf a0 81 3f d5 c7 6b 3f
       0.00017247934 0.00019643783 1.0127181 0.92101794
000110 3f d8 68 3f 44 29 88 3f 5f 6a 60 3f 18 d1 b2 b9
       0.90954965 1.0637593 0.8766231 -0.00034106593
000120 28 51 f4 38 78 4f 83 38 13 91 3e 3f e0 db d9 38
       0.00011649943 6.261369e-05 0.74440116 0.00010388321
000130 05 3a 5b 3f ee ac 59 3f 89 ed a5 b6 d0 64 80 3f
       0.85635406 0.85029495 -4.945036e-06 1.0030766
000140 1a 2d 22 b8 27 3b 29 3a ca ab e3 3b 38 db 7c 3f
       -3.8665814e-05 0.0006455653 0.006947969 0.98772
000150 63 46 a3 3f dc be 83 3f 79 6d 12 39 50 60 66 b9
       1.2755855 1.0292621 0.00013964427 -0.00021970388
000160 ec 89 87 39 30 0c 86 3f d8 7d cd 39 e9 f0 60 3f
       0.00025851966 1.0472469 0.00039194408 0.878676
000170 6c 6c ce 38 89 93 70 b9 74 f3 60 3f 6e 61 a0 3e
       9.8430406e-05 -0.00022943145 0.8787148 0.31324333
000180 4d b8 02 3f ce 57 62 3f 45 02 86 39 c5 b1 51 3f
       0.5106247 0.8841523 0.00025560163 0.8191188
000190 5a c6 4c 35 43 29 41 3f 7a 9e 45 3f 10 12 14 39
       7.628456e-07 0.75453585 0.7719494 0.00014121109
0001a0 95 5a 93 38 1e b8 87 3f a6 eb 8f b8 d1 29 df b8
       7.0263784e-05 1.0603063 -6.862664e-05 -0.000106412575
0001b0 1e 74 53 3a 88 c6 0d b9 96 5d 88 b6 be 79 cc 38
       0.0008066314 -0.00013520767 -4.0640107e-06 9.750154e-05
0001c0 c2 a0 77 3e 5e 94 c4 38 1d 0a 91 37 06 68 56 b8
       0.24182418 9.373644e-05 1.7290056e-05 -5.1118455e-05
0001d0 f2 8d 62 3f ad 8a a2 38 02 a7 7f 3f e6 93 68 3f
       0.8849784 7.750592e-05 0.9986421 0.90850675
0001e0 aa db 16 b9 af 64 87 3f 1a 64 9e 3f 7f 2c 37 39
       -0.00014386946 1.0577601 1.2374299 0.00017468816
0001f0 be 75 59 3f 9f a5 d2 37 8b 0e 7d 3f 91 64 d1 38
       0.84945285 2.5111074e-05 0.98850316 9.9846286e-05
000200 e0 3b 18 b9 2e af 8e 3f 7a b2 06 3a 30 2a 67 3f
       -0.00014518155 1.1147211 0.00051382894 0.9029875
000210 93 4b 18 39 cb ab 9e b9 51 70 68 ba b3 48 b0 b8
       0.00014524003 -0.00030264104 -0.0008866834 -8.405875e-05
000220 fa c8 85 3f 6e 14 c1 37 a5 f2 04 b8 0a a2 cd b8
       1.0451958 2.3016906e-05 -3.1697233e-05 -9.805344e-05
000230 55 f1 79 39 04 d3 5b 39 93 b1 0c 38 4c 39 e2 b9
       0.00023836394 0.00020964077 3.354398e-05 -0.0004314877
000240 b0 81 9a 3f ec 38 3c 3f 52 71 70 3f cf b2 5b 3a
       1.2070827 0.73524356 0.93922913 0.00083808316
000250 9c fb cc 39 a5 37 84 3f e4 11 9f 39 fc 7f 8b 3f
       0.00039097376 1.0329481 0.00030340173 1.0898433
000260 0c 81 4d b9 b8 90 6e 3f 17 f7 b8 39 77 35 4e 3f
       -0.00019598397 0.93189573 0.0003527931 0.8055033
000270 3d 33 6b 3f 86 b8 5a 3f 03 45 66 3f 7c e4 e1 39
       0.9187506 0.8543781 0.89949054 0.00043085578
000280 a3 d8 5a 3f 97 21 14 b9 e0 da 6c 3f 61 2b 47 3f
       0.8548681 -0.00014126893 0.92521477 0.77800566
000290 95 95 79 3f 8a d0 45 3b 77 86 8f 3f be 7c 82 3f
       0.9749387 0.0030184113 1.121291 1.0194318
0002a0 98 df d2 b9 01 9f 73 3f f6 f7 7b b9 d7 be 78 3f
       -0.00040220912 0.95164496 -0.00024029598 0.971662
0002b0 aa ad b3 3f 64 4e 80 39 c9 9e 1f 39 82 ad 86 3f
       1.4037373 0.00024472468 0.00015222574 1.05217
0002c0 18 9a 7d 3f 81 79 c0 39 98 9e 57 3f 0f 22 7b 3f
       0.99063253 0.0003671162 0.8422637 0.98098844
0002d0 9c de 54 3f ce 8c 89 39 41 b8 81 3f 5c ac 80 3f
       0.83152175 0.00026235584 1.0134355 1.00526
0002e0 50 cf 70 3f e2 7f a6 b9 aa d0 20 38 11 e8 5c 3f
       0.94066334 -0.00031757267 3.8341306e-05 0.86291605
0002f0 e1 b1 94 39 66 0c 2c 3f 23 4a 96 39 67 5f 7b 3f
       0.0002836129 0.6720642 0.00028665466 0.9819245
000300 03 bb eb 3c d7 fd 82 3f b9 f6 44 ba 59 09 6b 3f
       0.028775698 1.0233716 -0.0007513571 0.9181114
000310 c0 82 88 3f 72 f9 55 ba 6c c6 84 3f e6 9d d5 36
       1.0664902 -0.00081624754 1.0373054 6.3662765e-06
000320 22 60 72 3f 5d d1 c1 36 56 2c e0 39 ce 8b 86 3f
       0.9467794 5.7762213e-06 0.00042757642 1.0511415
000330 1d 20 43 3f 99 54 7f 3f 4d 12 22 39 61 12 78 b8
       0.76220876 0.9973846 0.00015456341 -5.9144924e-05
000340 57 7d 69 39 f0 70 75 3f de 7e d8 b9 02 8f 6c 3f
       0.00022267304 0.95875454 -0.00041293254 0.9240571
000350 df 48 86 3f df 62 78 3f c6 fd 80 3f 5b 4a 2d 38
       1.0490988 0.97025865 1.0077446 4.1315663e-05
000360 40 0d 69 3f d2 e1 d1 36 10 3e 75 3f 3e 95 60 3f
       0.9103584 6.2549743e-06 0.95797825 0.87727726
000370 e2 b0 48 3f fc 9f 60 3f 04 b4 2d 3f b0 b6 88 3f
       0.783949 0.87744117 0.6785281 1.0680752
000380 e4 d6 14 b9 4b 79 bb b9 63 cc 1a 37 1e 35 72 3f
       -0.00014194433 -0.0003575779 9.226703e-06 0.946123
000390 5a 7a 5b 3e 00 b7 1f b8 70 c1 c4 3a df 68 7a b9
       0.21433392 -3.8078986e-05 0.0015011262 -0.00023880925
0003a0 dd db 8a 3f 69 34 51 39 cb 60 dc 39 46 2c c2 b8
       1.0848347 0.00019951318 0.00042033786 -9.2588874e-05
0003b0 5c f2 92 3a a5 8e 1b 3e cd 8e 55 3f b3 eb 83 3f
       0.0011211145 0.15191133 0.8342102 1.0306305
0003c0 02 7f 55 b9 c5 48 8a 3f d4 66 53 38 f3 e5 07 ba
       -0.00020360577 1.0803457 5.0402086e-05 -0.00051841064
0003d0 81 ca 85 3f 9a c6 06 39 b2 23 23 ba 6e 45 7a 3f
       1.0452424 0.0001285322 -0.00062232756 0.9776219
0003e0 34 da df 39 50 5c a2 39 02 43 25 3e dc 12 72 3f
       0.00042696449 0.00030967826 0.16138843 0.9456003
0003f0 85 ec 56 3f 23 2b fb 3a d4 96 03 3a 7f 8a 89 3f
       0.8395465 0.0019162636 0.00050197286 1.0745391

_impl.layers.1.linear.bias f4 [256]
000000 de d5 ad 3d 04 ea 23 38 91 fc a5 ba ee 6d 18 b9
       0.084880576 3.9080172e-05 -0.0012663772 -0.00014536802
000010 c9 49 a8 38 da 84 58 3e 10 4e 66 3e 82 df 69 3e
       8.024608e-05 0.21144429 0.22490716 0.22839168
000020 72 00 38 3e ff 8a 7e ba d1 3e 66 3e 3e af 26 ba
       0.1796892 -0.0009710043 0.224849 -0.00063585106
000030 7d aa 5a bd 3a 80 0d 3a 53 e0 c6 b7 e6 f2 31 be
       -0.053385247 0.00053978304 -2.3707898e-05 -0.17377815
000040 9b 2e f6 3b 44 07 3a ba 88 bb 08 3a 15 c8 3e be
       0.00751288 -0.00070964196 0.00052159326 -0.18631013
000050 50 58 14 be c7 1d 22 3a cc e2 60 ba 89 df 11 ba
       -0.14486814 0.0006184247 -0.0008578717 -0.00055646204
000060 6a 95 1d 3e b6 05 04 3b 58 3e 6b 3e 0d eb 90 b8
       0.15389028 0.0020145006 0.22973001 -6.910237e-05
000070 24 fa 02 be 2e 39 cf ba 59 de 4a be c3 8a 41 3e
       -0.12790734 -0.0015809888 -0.19811381 0.1890059
000080 28 f9 8f ba fd fe c1 38 67 f1 4c 3a c7 aa 84 ba
       -0.0010984289 9.2504524e-05 0.0007817954 -0.0010121696
000090 a1 31 df b9 83 fd 25 39 26 8f 38 3a 6f f0 03 be
       -0.0004257085 0.00015830067 0.0007040374 -0.12884687
0000a0 b4 6e 87 bb d9 5b f7 bb 7b 3b 88 b9 67 35 c9 3d
       -0.00413307 -0.007548791 -0.00025984258 0.09824639
0000b0 f1 2a 86 3a c2 7a 3b be 6f f9 a2 38 d9 d1 87 39
       0.0010236186 -0.18308547 7.7712226e-05 0.00025905555
0000c0 56 d0 06 b9 0c 00 9c be 4f 27 25 3e e0 7f 40 39
       -0.00012856847 -0.30468786 0.16128276 0.00018358184
0000d0 eb 2f 50 bd 16 22 0e 39 89 ee 98 b9 1d dd 92 bd
       -0.050826948 0.00013554873 -0.00029169422 -0.0717108
0000e0 a2 40 b6 37 c5 15 27 3e 6f b4 a9 bd f5 ca 05 3a
       2.1726188e-05 0.16316898 -0.08286368 0.00051037903
0000f0 88 df 81 be 30 c6 37 39 24 e5 db 38 c2 fb d4 3d
       -0.25365853 0.0001752607 0.000104854145 0.103995815
000100 c1 48 06 3a 15 5d 93 ba 1e b8 7d bd af fd 19 be
       0.00051225355 -0.001124295 -0.061943166 -0.15038179
000110 b2 a0 82 be 33 00 62 3e 86 e1 4f be eb e0 8d 3a
       -0.25513226 0.22070388 -0.20300874 0.0010824477
000120 fb 8f 4f b9 62 98 e4 b9 9c 93 3c 3e 56 05 04 ba
       -0.00019794695 -0.00043601083 0.18415684 -0.00050361955
000130 34 c4 a7 bd 1d 73 21 3e 4a d0 d4 b9 ad db a6 be
       -0.0819172 0.15766568 -0.00040590978 -0.32589474
000140 6d 3c 5b 39 d2 c7 01 3a af 79 55 3a 6d 06 32 3e
       0.00020907978 0.0004950735 0.00081434374 0.17385264
000150 7e df d7 bd f0 0d 5a 3e fd 35 12 b9 8c e4 38 3a
       -0.105406746 0.21294379 -0.00013943757 0.0007053099
000160 13 f1 53 ba 03 a1 2a 3e 30 6f d9 b8 c6 2b 10 be
       -0.0008084934 0.16662984 -0.000103680766 -0.14079198
000170 60 49 60 39 77 36 82 ba 1b 6d 29 be 61 58 bf bb
       0.00021389639 -0.0009934445 -0.16545527 -0.005839393
000180 1b 62 7b bd 04 ee 31 be 1d bf 44 3a cd 0b 47 be
       -0.061372858 -0.17375952 0.0007505285 -0.19438095
000190 ab 40 d2 ba d6 97 2c be 19 dc ee 3d 92 0f d0 37
       -0.0016041001 -0.16854796 0.11663074 2.4802783e-05
0001a0 39 ab 52 ba 9b 20 35 3e 55 6e bd b7 bc 08 ef b8
       -0.00080363784 0.17688219 -2.2581933e-05 -0.00011398035
0001b0 59 b8 a4 39 4a 1a 0c b9 c6 5f 89 b9 cd 6f 7e 39
       0.00031417867 -0.00013361234 -0.00026202033 0.00024264977
0001c0 17 18 05 3d fb 80 f1 b8 cd cf 8f 3a dc b4 02 b9
       0.032493677 -0.000115158 0.0010971964 -0.00012465141
0001d0 d2 be 53 3e e8 5d be 38 ab 44 2b 3e 9f da 5f bc
       0.20678261 9.0773974e-05 0.16725414 -0.013662963
0001e0 57 c3 bf b9 b6 7b 49 be bc 1a b7 bd 5b c9 c6 37
       -0.00036575898 -0.19676098 -0.08940646 2.3697203e-05
0001f0 32 31 6a 3e 1a 0c eb ba 69 4b 72 be 7e 36 c5 ba
       0.22870329 -0.0017932684 -0.23661579 -0.0015046147
000200 a8 a4 80 3a 98 ac c4 bc 2a db 0f 3a ca 95 80 be
       0.0009814696 -0.02400808 0.0005487675 -0.2511428
000210 43 8e c1 b9 77 57 24 ba 5c 7e 87 3a b8 b4 52 3a
       -0.00036917822 -0.0006269137 0.0010337341 0.00080377935
000220 b3 c2 6f be 49 3c 48 3a fc fc 5b b9 fe 18 43 3a
       -0.23414116 0.0007638378 -0.00020979712 0.0007442384
000230 d8 ce cc b9 f9 d2 73 3a 62 8e 0e b9 71 1d 97 b6
       -0.00039064023 0.0009301152 -0.00013595217 -4.503578e-06
000240 96 0a 12 3e 9b b5 9d 3d ac 8c 00 3e dc c5 4b b9
       0.1426185 0.07700654 0.12553662 -0.00019433297
000250 a4 33 d2 39 62 7b 66 be fb e1 be 3a 66 3a f2 bd
       0.00040092797 -0.22508004 0.0014563197 -0.11827545
000260 c8 ee 33 ba bc dc 68 be d9 5c 4d ba a7 b0 5e 3e
       -0.0006863889 -0.22740453 -0.0007833965 0.21747075
000270 0b ff 6f be a0 3e ab 3d f3 19 14 3e 84 91 be b8
       -0.23437135 0.08361554 0.14463024 -9.0870104e-05
000280 a5 09 8e be ab 1f a7 b9 b5 c3 6d be 17 9d ab 3d
       -0.27741733 -0.00031876317 -0.23219188 0.08379572
000290 98 ac 76 3e 46 6c cf 38 4f 35 03 bd 52 85 5d be
       0.24089277 9.890697e-05 -0.03203326 -0.21632889
0002a0 93 7c 10 ba 94 38 69 be 97 94 1c b8 b8 5d b1 3d
       -0.0005511727 -0.22775489 -3.7331683e-05 0.086604536
0002b0 45 2a 5e 3c 66 95 44 ba c7 8b 2b ba b6 e6 4a 3e
       0.0135598825 -0.0007499069 -0.0006543961 0.19814572
0002c0 d3 f7 7a 3d ed 8d 98 3a 7f cf 4d be 93 e5 a5 be
       0.0612715 0.0011638977 -0.20098685 -0.32401714
0002d0 31 34 7b bc 7c 6e 45 39 07 8b 48 3e 5e 85 86 3e
       -0.015332268 0.00018828543 0.19584285 0.26273626
0002e0 f5 a9 63 3e 06 a1 fa b9 1f 04 5d ba e8 89 dd 3d
       0.22232802 -0.00047803688 -0.0008431095 0.10817319
0002f0 36 b8 81 3a a4 1f e5 3d 73 7b 95 39 9a b0 3d 3e
       0.0009896818 0.111876756 0.00028511471 0.185244
000300 e7 81 ff bc 8c 25 4a be b2 05 48 36 83 54 1e 3e
       -0.031189872 -0.19740885 2.9805637e-06 0.15461926
000310 c1 3f 03 bd 94 ff 68 b8 8b 03 20 be f9 af 59 ba
       -0.032043222 -5.5551136e-05 -0.15626352 -0.0008304115
000320 63 24 62 3e b0 20 09 ba 57 bc 22 b9 1c 32 7d 3e
       0.22084193 -0.0005231006 -0.00015519686 0.24726146
000330 54 4c 85 bd 68 cf 2e 3e dc cd 82 3a 29 07 2a 39
       -0.06508699 0.17071307 0.0009979564 0.00016215131
000340 84 be 3f 3a 9e 51 e0 bd 73 e1 02 ba 3c b5 38 be
       0.0007314461 -0.10953067 -0.0004992701 -0.18037885
000350 74 16 a4 bd 08 da 5b be e2 49 39 be 4f 15 e8 39
       -0.08012095 -0.21469891 -0.1809459 0.00044266364
000360 b7 bc 9e bd f6 78 c0 b7 b3 e5 97 3e 66 a4 50 3e
       -0.07750838 -2.294451e-05 0.29667434 0.20375213
000370 e8 59 ee 3d cd 1d 1c 3e 19 73 c8 bd c2 00 89 be
       0.11638242 0.15245743 -0.09787578 -0.2675839
000380 96 a2 cd 38 a2 3b a0 38 7e bc a9 b9 b5 bf a4 be
       9.805446e-05 7.640502e-05 -0.0003237463 -0.3217751
000390 6d 60 87 3d 41 f0 42 b9 f6 b6 4e 3a 7c 19 54 3a
       0.06610189 -0.00018590783 0.00078855397 0.00080909557
0003a0 d3 c8 5f 3c e1 8c 58 38 b0 68 62 b9 72 11 10 ba
       0.01365872 5.1629617e-05 -0.00021592039 -0.00054957636
0003b0 fd 7a 42 ba 13 21 88 3a 17 36 0c be e6 7e 04 be
       -0.00074188394 0.0010385833 -0.13692509 -0.12939033
0003c0 a5 fa 51 3a b5 ce 03 be 7a c3 03 3a 31 70 d4 39
       0.0008010066 -0.12871821 0.00050263817 0.0004051938
0003d0 3d 55 0e 3e 9c 1b b4 b9 50 c0 45 b9 7b eb 69 3e
       0.13899703 -0.00034352846 -0.00018859026 0.22843735
0003e0 86 dd fa 39 be 7f 8d ba ed dc 89 3c 79 32 28 3e
       0.00047848764 -0.0010795516 0.016828978 0.16425504
0003f0 ed be 32 3e 9a f7 06 37 e7 28 62 38 30 40 62 be
       0.17455645 8.044672e-06 5.3920692e-05 -0.22094798

_impl.layers.2.linear.weight f4 [256, 256]
000000 19 0d 1a 3d 0b ab 50 ba 74 2d 15 3a 0c f4 a4 3d
       0.037610147 -0.00079600577 0.0005690672 0.08054361
000010 cc 87 ff 39 2b af e6 bd 6c 11 11 bd 62 da 5f bd
       0.00048738567 -0.112638794 -0.035417005 -0.054651625
000020 d4 95 7c bd 6f d4 59 ba 5e a3 d1 bd 5a 0b e2 b9
       -0.061666325 -0.0008309548 -0.10236238 -0.00043114537
000030 48 3f 63 3b 16 3b c9 3c 11 7b 90 37 ae 60 b4 3c
       0.003467517 0.024564307 1.7223445e-05 0.022018757
000040 c4 bd 7f bb ff c7 36 ba 3e 3e 25 ba 41 95 62 bd
       -0.0039023021 -0.0006972551 -0.00063035253 -0.05531812
000050 76 6b ba 3d dc 95 98 39 f0 59 8c b9 78 4d a8 b8
       0.09102528 0.00029103353 -0.0002676989 -8.025294e-05
000060 c8 d8 5a be 13 26 2a bb 37 7e 76 bd 04 4e 91 3a
       -0.21371758 -0.0025962635 -0.06017896 0.0011085873
000070 d6 70 6e 3d a4 54 91 39 16 a1 24 3e 7d be c3 bd
       0.058213077 0.00027719617 0.16077074 -0.09557817
000080 37 64 c8 37 0c 54 7d ba 41 23 0a 39 f6 26 e6 b9
       2.3888524e-05 -0.0009663708 0.00013173839 -0.00043898047
000090 07 ee 7a 3a 36 13 e9 3a 98 08 9d 3a 47 fc 9a 3d
       0.0009572212 0.0017782215 0.001198071 0.07567649
0000a0 35 68 27 3b 49 ad 34 3e 5e e7 9b 39 93 29 84 bd
       0.002554429 0.17644228 0.00029736286 -0.06453242
0000b0 ab 3d 39 3a ac ee 7a 3c 3f 16 fa b9 3e 25 2e ba
       0.0007066379 0.015315693 -0.0004770029 -0.0006643123
0000c0 b8 de 9c 3c fc b4 96 3d cb 2a 2f be ad 32 c3 ba
       0.01914917 0.07358739 -0.17106168 -0.0014892422
0000d0 92 92 04 3e 70 64 2b ba d2 db 04 bd d0 f0 be 3b
       0.12946537 -0.00065380987 -0.0324362 0.005827047
0000e0 12 f5 34 39 de b5 3c bd 52 01 15 3c fb eb d4 39
       0.00017257434 -0.04607188 0.009094553 0.0004061161
0000f0 4e a7 12 3e ce 70 94 39 c1 91 3a ba ab 94 50 3d
       0.14321634 0.00028312806 -0.0007117056 0.05092303
000100 1d 61 4e 39 0a 33 9d ba 01 4c 3b be 91 30 07 3c
       0.00019681868 -0.001199336 -0.18290712 0.008251325
000110 1e f6 32 3e de 50 fc bd ba a7 20 3c 9b c9 96 b9
       0.17476699 -0.12320112 0.009805614 -0.00028760437
000120 43 6a 17 ba 9b 28 8c bd c5 73 45 3d bc 34 d3 3a
       -0.0005776027 -0.068436824 0.04820611 0.0016113739
000130 9d 57 16 3d a5 69 d7 bb 59 f2 3d ba c3 6f 1e 3d
       0.03670465 -0.006573873 -0.00072458904 0.038680803
000140 6b 41 a3 ba 9b 42 b7 bb 59 7a 8e bb c9 af 0f 3d
       -0.0012455409 -0.005592657 -0.004348081 0.03507975
000150 6a be 23 3d 0d 7d ea bd f5 4e 86 3d 48 d0 19 b9
       0.039976515 -0.11449633 0.065580286 -0.00014668808
000160 a9 8e f3 bc 4f b8 81 bd 33 c0 1e 3d fb 84 9a 3d
       -0.029731112 -0.06333982 0.038757514 0.07544895
000170 0d c8 3d 3a 34 5c a3 3c 8f b6 63 3d cb 0e a8 3b
       0.0007239588 0.019941427 0.055594023 0.0051287166
000180 11 06 43 bb 01 e0 5c 3c 5d f2 80 3a 5b 1f 0d 3d
       -0.0029758255 0.013481141 0.0009837855 0.03445373
000190 63 ff 52 3d 8f 41 19 bd 91 12 16 bd fa 2e 37 bd
       0.051513087 -0.037416037 -0.0366388 -0.044722535
0001a0 a4 61 e6 39 7f 93 4f bd 45 74 0a ba 57 38 35 bd
       0.00043941766 -0.050677773 -0.0005281608 -0.044243183
0001b0 60 85 6b 3a 19 24 98 39 ba ac 88 3a 1b a7 8c b9
       0.0008984413 0.00029018594 0.0010427453 -0.00026827384
0001c0 72 5a 28 3c db 43 dd ba 36 45 81 bd b1 92 a1 b9
       0.01027547 -0.0016881184 -0.06312029 -0.00030817607
0001d0 0a 8f 79 bd d8 7c 97 b9 ad 3b 83 3d 3f 2b bb bd
       -0.06092743 -0.0002889398 0.064078666 -0.09139108
0001e0 c2 64 31 39 b4 cd 15 be 01 a7 8b 3e d6 3c 8d b9
       0.0001691757 -0.14629251 0.2727585 -0.00026938942
0001f0 2b d7 20 bc 80 0b 19 bd e4 10 e8 3d cc a3 a6 b8
       -0.009816925 -0.037364483 0.11331347 -7.9460064e-05
000200 b1 b2 47 3a 94 27 a1 bc 19 b6 10 3a 34 f0 d2 3d
       0.00076178747 -0.019672193 0.0005520299 0.10299721
000210 43 a5 62 bc 0f 76 12 ba c0 75 b7 bd ed f8 30 ba
       -0.013833347 -0.000558705 -0.08958006 -0.000675096
000220 a1 dc e8 3d 94 b8 47 3a 24 58 af ba b8 e6 a5 3a
       0.113702066 0.0007618752 -0.0013377708 0.001265726
000230 61 c5 06 3a 9b 98 10 ba d1 a5 f3 b9 11 64 46 b9
       0.0005141106 -0.0005515904 -0.00046472115 -0.00018920029
000240 04 05 5b be bd 58 07 bd 65 4a c8 bd 0e 43 b9 3c
       -0.21388632 -0.03304361 -0.09779815 0.022614982
000250 9d e3 fe 39 86 5c e4 3d a6 1b 22 3b bb a8 b4 3d
       0.0004861624 0.1115046 0.0024735718 0.08821245
000260 24 e8 8f b9 1d e3 87 3d 9f 42 18 3d e2 a3 9a bc
       -0.00027448044 0.06635115 0.03717291 -0.018876974
000270 8f f5 ca 3b ed ed 28 bd a8 51 7b 3d 4a a0 b3 3a
       0.0061938236 -0.04124253 0.06135717 0.0013704386
000280 6e 12 8c 3d 40 82 66 3d ec 0e 96 3d af 1c 99 bd
       0.06839453 0.05627656 0.07327065 -0.07476174
000290 c2 28 13 be 76 2d be 3a 02 ac 2a bd 6b b9 e2 3d
       -0.14371017 0.0014509398 -0.041667946 0.11070522
0002a0 2c 50 5b 3d 8a 56 94 3d 55 23 f9 b9 dd 66 f3 3d
       0.053543255 0.072430685 -0.00047519305 0.11884854
0002b0 1d 91 a3 3e 86 6a 84 bc 13 b0 9c b9 73 ae 7f bd
       0.3194665 -0.016164076 -0.00029885824 -0.062422227
0002c0 99 29 fd 3d bc 70 d9 bc 3f a8 80 3c c3 2f 16 3e
       0.1236145 -0.026543014 0.015705226 0.14666657
0002d0 53 30 99 3d 89 e6 4e 3a 41 c9 a4 bd ac c6 8a bc
       0.0747992 0.0007892629 -0.08046199 -0.016940437
0002e0 d5 9a 05 be f9 60 b5 37 6d d4 2e 3a 02 86 00 bd
       -0.13047345 2.1622038e-05 0.0006669227 -0.0313778
0002f0 95 53 88 39 fb a2 1a bd 44 1e ad ba 3c f4 02 be
       0.00026002215 -0.037753087 -0.0013207872 -0.1278848
000300 d0 22 1f bc 62 8b 21 3d 56 28 35 b9 d4 c9 46 3c
       -0.00971289 0.039439566 -0.00017276531 0.0121330805
000310 a6 75 2f 3e e7 aa ad bc cf 76 ee 3d d3 0d 16 ba
       0.17134723 -0.021199657 0.11643755 -0.0005724106
000320 c9 c7 8c bd 14 e8 ea 39 0a e2 b0 ba dc 91 b2 bd
       -0.068740435 0.0004480487 -0.0013495099 -0.08719227
000330 df 2d a2 3c 9b 6e 4b bd fb 38 9b b9 a6 8f 80 3d
       0.019797264 -0.04966603 -0.00029606358 0.06277399
000340 d4 d0 0b 3d 99 43 f0 3d 0d 07 97 bd c2 03 d4 3d
       0.0341347 0.11731643 -0.07374392 0.10352279
000350 b2 7a d4 3d 76 6b bb 3d 67 ee 3f bd a2 62 8b ba
       0.10374965 0.09151356 -0.046858218 -0.0010634253
000360 4d 63 17 3d ed ad 42 3a 03 be 94 3d 9d 1e 92 bd
       0.036959935 0.00074264297 0.07262804 -0.07134745
000370 03 46 8a bd 5c be 5b bd 6a 94 db 3c 98 44 d2 3d
       -0.06751635 -0.053648338 0.026804168 0.102669895
000380 6b 4f 52 ba 1c 24 b6 3c bf ad 02 3a 71 ca 13 3e
       -0.00080226985 0.022234015 0.00049849966 0.14432694
000390 4c b8 2e 3d d7 de b0 ba c3 6a 14 ba 14 f9 f5 b8
       0.042656228 -0.0013494146 -0.00056616607 -0.00011728905
0003a0 cd 25 18 be 2c a9 40 b9 4f 45 81 ba 33 06 36 3a
       -0.1485817 -0.00018373568 -0.0009862575 0.0006943673
0003b0 5f a0 18 b8 32 52 44 bc 8d d1 a5 3d f7 4e 0d 3e
       -3.638898e-05 -0.0119824875 0.08096609 0.13799654
0003c0 69 21 88 bd f5 46 35 3e b9 ca 4e 3a 3a 55 85 bd
       -0.066469975 0.17702849 0.00078884844 -0.06510396
0003d0 1f 55 3e be 0a 57 f9 3c d0 71 68 bd e7 00 fb 3b
       -0.18587159 0.030437011 -0.056749165 0.0076600197
0003e0 ae c2 0a 3a 2f 1e 49 3d a5 74 2b 3d 91 0c 18 3c
       0.0005293292 0.04910105 0.041859288 0.00928034
0003f0 b4 55 75 bc 17 0b 86 3a ab 73 f5 39 da 01 2b 3e
       -0.0149740465 0.0010226694 0.0004681622 0.16699925
