heat_eq_2d/outputs/tanh_interior_4000_arch_256x4/heat_network.0.pth (torch, 803434 bytes, 13 tensors)

_impl.layers.0.linear.weight f4 [256, 2]
-2.2270274 -0.00095424097 -0.20312867 0.05205598 0.058550667 -0.16322646 -0.079473644 0.17472824
0.10577743 -0.13273607 0.1477775 -0.062926084 0.1566768 0.06756377 0.2946353 -0.017260933
-0.04090703 -0.1770326 -0.006748645 1.387756 -0.0886544 0.19402058 0.21081601 0.043711506
0.0010008652 1.2598003 -0.19103402 -0.017654356 -0.24191174 -0.014519723 -0.11831906 -0.21979558
-0.24950413 0.017492287 0.0524242 0.1843674 0.062313315 -0.13861638 0.109188326 -0.17974965
-0.0524846 0.20963226 -0.07909867 0.16644275 0.0399218 -0.24313878 0.3305991 0.026146602
-0.0630327 -0.15190984 -0.3627397 -0.03359897 0.17205021 0.06694617 0.030255636 0.20458305
0.02664466 0.23874512 0.13747612 -0.05085152 -0.19978993 0.027623968 -0.124681406 0.16940519
-0.12849675 -0.10094916 -0.03556205 -0.26937038 -0.026021415 -0.31086442 -1.5027257 0.0030697822
0.21637051 -0.05943992 -0.060189188 -0.17350467 -0.13135915 -0.14634131 0.048600536 0.22196269
0.0045165797 0.6506228 0.011024292 0.3690535 0.053940594 -0.17157589 0.21989714 -0.07332835
0.15304892 -0.12263126 -2.6009817 -0.004577748 0.07436522 0.12049316 -0.08169541 -0.20056507
-0.07712956 0.18347244 -0.074438706 -0.14208743 -0.12804115 0.07174163 0.004192085 -1.10292
0.468839 0.008092986 0.081938356 0.20997521 0.022117587 0.26795566 0.09290578 -0.18186672
1.5472506 0.00067257544 -0.21683452 0.039763425 0.11899297 0.16206998 0.1206006 0.048734304
-0.050191358 0.17894989 0.16701591 0.04921141 -0.05271486 -0.2071444 -0.017887421 -0.27058008
-0.22482611 -0.03902218 -0.20938343 0.06298683 0.26653877 -0.02195497 0.10284582 0.17991023
0.27521858 0.012609273 -0.064222634 -0.2146927 0.18529058 0.052631818 -1.7299005 -0.0007629095
-0.8656634 -0.007841522 0.29991537 -0.030336693 0.09097562 0.106548406 0.19057898 -0.026260816
0.08807546 -0.2146432 -0.042690337 -0.16477907 0.11397726 0.09864578 -0.38344103 -0.024440352
-0.05878316 -0.17091107 0.1797423 0.08466303 0.14576054 0.123300724 -0.06860561 0.22505987
-0.13519923 -0.055732355 -0.13053471 0.10552677 -0.12896618 0.17063048 0.07601342 -0.0809711
-0.038822677 -0.16478431 0.021443974 -0.25080606 1.0381824 -0.009308431 -0.22343794 0.047215145
-0.24874865 0.05954592 -0.15441324 0.07336464 -3.1535792 0.00052961457 0.049460705 -0.14598937
-0.015940586 -0.3336625 -0.116626985 0.16099311 0.25307882 -0.04275371 -0.078501925 -0.06374968
-0.045307886 0.17510818 0.3726431 0.0077397465 -0.062143594 -0.13556515 -0.2149042 0.057433892
0.09418784 0.10413028 -0.19753873 -0.08396026 -0.20215571 -0.0585362 -0.8994207 0.0021909073
0.06085019 0.20510493 0.1269061 -0.1409856 -0.076373965 -0.15212847 -0.048833374 0.17890415
0.11047333 0.16338311 0.094516486 -0.15603061 -0.2616391 -0.017503845 0.22664805 0.017494645
-0.07005576 -0.16590244 -0.09811816 -0.19208126 -0.06698901 0.18216231 0.1681372 -0.08949553
0.14918259 0.10716337 0.028119847 -0.24128908 0.16894396 -0.06732196 -0.16741636 0.053040154
0.15852185 -0.038729265 -0.05499039 0.22291024 0.08334928 0.17824276 -0.12940411 -0.13946809
00000000: 9e87 0ec0 0726 7aba f600 50be a738 553d
00000010: d3d2 6f3d d624 27be 14c3 a2bd f6eb 323e
00000020: d6a1 d83d f7eb 07be fc52 173e 64df 80bd
00000030: e26f 203e e05e 8a3d 70da 963e cd66 8dbc
00000040: 218e 27bd 0948 35be bd23 ddbb fda1 b13f
00000050: 7090 b5bd 55ad 463e 27e0 573e d60a 333d
00000060: 772f 833a 2341 a13f 6c9e 43be de9f 90bc
00000070: b6b7 77be 22e4 6dbc 4351 f2bd 1812 61be
00000080: 037e 7fbe fc4b 8f3c c2ba 563d cfca 3c3e
00000090: 3f3c 7f3d 74f1 0dbe 219e df3d 4b10 38be
000000a0: 18fa 56bd d7a9 563e 7cfe a1bd f86f 2a3e
000000b0: 0b85 233d 5ff9 78be 4944 a93e 6631 d63c
000000c0: 4a17 81bd 418e 1bbe 05b9 b9be 139f 09bd
000000d0: ee2d 303e 131b 893d abda f73c 387e 513e
000000e0: e745 da3c 9a79 743e 8ac6 0c3e af49 50bd
000000f0: bb95 4cbe a94b e23c f758 ffbd 8e78 2d3e
00000100: a794 03be 6fbe cebd 83a9 11bd eaea 89be
00000110: dd2a d5bc 9f29 9fbe 5159 c0bf 662e 493b
00000120: 3b90 5d3e 4677 73bd f088 76bd 35ab 31be
00000130: 0383 06be 7fda 15be 5b11 473d 304a 633e
00000140: d1ff 933b 378f 263f 3b9f 343c 95f4 bc3e
00000150: d0f0 5c3d 97b1 2fbe b72c 613e 2d2d 96bd
00000160: dbb8 1c3e 1926 fbbd 7c76 26c0 ef00 96bb
00000170: cb4c 983d 1ec5 f63d ec4f a7bd ee60 4dbe
00000180: 1af6 9dbd 33e0 3b3e 5273 98bd 5e7f 11be
00000190: 381d 03be 47ed 923d c25d 893b 7c2c 8dbf
000001a0: aa0b f03e 7298 043c 4ccf a73d be03 573e
000001b0: f12f b53c 7c31 893e 6345 be3d 453b 3abe
000001c0: 4f0c c63f c64f 303a de09 5ebe f9de 223d
000001d0: 96b2 f33d acf5 253e 73fd f63d 9f9d 473d
000001e0: 7495 4dbd a43e 373e 3806 2b3e e791 493d
000001f0: 89eb 57bd a91d 54be a488 92bc 7989 8abe
00000200: d138 66be b9d5 1fbd 9c68 56be 3dff 803d
00000210: c577 883e e9da b3bc d4a0 d23d 633a 383e
00000220: 73e9 8c3e 2097 4e3c 2887 83bd 67d8 5bbe
00000230: d0bc 3d3e 7694 573d 616d ddbf fdfd 47ba
00000240: 1e9c 5dbf ba79 00bc 828e 993e a884 f8bc
00000250: 6d51 ba3d 0d36 da3d 2327 433e ec20 d7bc
00000260: e860 b43d 6dcb 5bbe 10dc 2ebd d8bb 28be
00000270: e96c e93d cc06 ca3d 6252 c4be 2237 c8bc
00000280: 9cc6 70bd 5003 2fbe 5e0e 383e d063 ad3d
00000290: 4042 153e 1785 fc3d 1981 8cbd 1876 663e
000002a0: ab71 0abe 9c47 64bd e4aa 05be 6b1e d83d
000002b0: b60f 04be c2b9 2e3e edac 9b3d 2dd4 a5bd
000002c0: 8704 1fbd 38bd 28be 46ab af3c a769 80be
000002d0: 29e3 843f 6482 18bc eacc 64be ab64 413d
000002e0: f7b7 7ebe 6ce6 733d 811e 1ebe 3340 963d
000002f0: 3ed4 49c0 d5d5 0a3a 4f97 4a3d 3d7e 15be
00000300: d595 82bc d0d5 aabe 21da eebd 61db 243e
00000310: 8c93 813e 841e 2fbd 9ec5 a0bd 318f 82bd
00000320: c394 39bd 8f4f 333e 14cb be3e b39d fd3b
00000330: 488a 7ebd 97d1 0abe d90f 5cbe cd3f 6b3d
00000340: 8ee5 c03d 4242 d53d 9847 4abe 5bf3 abbd
00000350: e801 4fbe a8c3 6fbd 6f40 66bf 5395 0f3b
00000360: 0d3e 793d 0707 523e acf3 013e 875e 10be
00000370: f469 9cbd 91c7 1bbe 8105 48bd a632 373e
00000380: d73f e23d e74d 273e dc91 c13d 7dc6 1fbe
00000390: 8ff5 85be 3964 8fbc 6d16 683e ee50 8f3c
000003a0: 6579 8fbd 54e2 29be 2df2 c8bd f3b0 44be
000003b0: 8931 89bd c288 3a3e 282c 2c3e 6f49 b7bd
000003c0: 52c3 183e 7878 db3d 985b e63c 7c14 77be
000003d0: a5ff 2c3e 19e0 89bd 326f 2bbe a240 593d
000003e0: 8d53 223e 94a2 1ebd 9a3d 61bd 9542 643e
000003f0: 07b3 aa3d 4585 363e 8382 04be b9d0 0ebe

_impl.layers.0.linear.weight_g f4 [256, 1]
1.0016686 0.9700702 1.0380324 1.0662725 0.95654947 0.8146355 0.9188787 0.9081775
0.9329851 0.87956786 0.9833782 0.97587484 0.9479036 0.92381746 0.9316816 1.0116469
0.95498306 1.0333306 0.9318744 0.9743929 0.8839394 1.0042677 1.02124 0.95978177
0.716059 0.7749683 0.9374185 0.9880387 0.98091066 0.8710899 0.95282876 1.0024847
0.90981555 0.99339175 0.9593676 1.0664717 0.94911 1.0150049 0.9550594 1.0287802
0.9627339 0.9684711 1.0290523 0.9761431 0.93593955 0.81527007 0.86643964 1.0610428
0.9749261 0.86077225 0.89564216 0.93891853 0.9534592 0.98353344 1.0019972 1.0232292
0.9582557 0.9348794 0.9340155 0.852731 0.99471265 0.91160065 1.0204049 0.98032576
0.97465634 0.92682534 0.8748897 1.0435358 0.9298762 0.999619 0.95376116 0.9695394
0.88523424 0.9831643 0.8260575 0.90660536 1.0273768 0.72102606 0.8140798 0.9535423
0.8890564 0.858394 1.0048338 1.0232928 0.91424423 0.9362219 0.99705875 0.7234632
0.8385917 0.98069733 1.0394187 0.9600506 0.95924497 0.848025 1.0383095 0.8185939
0.82671005 1.004222 0.93896204 0.7409336 0.8518567 0.9717728 0.78555703 0.8230142
0.6188943 0.91498375 0.95222056 0.97503966 1.01349 0.9636055 0.9974517 0.980296
0.96962965 0.9154992 0.9535934 0.8987965 1.020933 0.9774704 1.0081257 0.88233364
0.94902146 0.9964014 0.78923494 0.9271764 0.84336656 1.0331078 0.9643038 0.9170362
1.067501 1.0316731 0.97554827 1.0087963 0.89978683 1.0302231 0.8502692 1.0180627
1.0213354 0.8607281 0.96885395 0.8655441 0.9559192 0.98920035 0.9013449 0.9325608
0.8233948 0.9310989 0.9309178 1.0279502 0.8994194 1.0499256 1.004867 0.9508857
0.93473434 0.94680214 0.9667554 0.9860191 0.7218681 0.9840739 1.0466151 0.90761507
0.7294958 0.9541709 0.8922009 1.0493466 0.9771529 1.0376941 0.96844906 0.94945556
0.996939 0.96656847 0.8589834 0.9937783 0.8920272 0.94240487 1.0352763 1.0276352
0.8141682 1.0241684 0.9294756 0.9903635 0.9689813 0.9125911 0.93661827 1.0374776
1.01465 1.0480052 0.99789435 0.80635655 0.9589051 0.85629326 0.91310257 0.99736863
0.90758514 0.98779255 1.0036032 1.0047003 0.93582475 0.99126536 1.0427587 0.9349716
0.9591065 0.9861233 0.9238022 0.939877 0.87333566 0.940551 1.0500551 0.88046366
1.0173784 0.90430665 0.98154074 0.8024551 0.962793 0.9171813 0.9796971 1.0160533
1.0025975 0.9622876 0.91636664 0.97276026 0.88324845 0.7870874 0.98450595 0.90435076
0.90360886 1.0221958 0.9762034 0.86155903 0.97665375 1.0237741 0.98887086 0.9400937
0.9907456 0.99791133 0.88339853 0.95429456 0.862689 0.9803381 0.93393594 0.93641096
0.927086 0.9759482 1.0001848 0.96012276 0.99341834 0.9816021 0.9799011 1.0502068
0.97419333 0.86696357 1.0162624 0.9714431 0.8989591 0.99230623 0.9494064 0.9896111
00000000: ad36 803f 8556 783f 3fde 843f 9e7b 883f
00000010: 6de0 743f f48b 503f a23b 6b3f 527e 683f
00000020: 1dd8 6e3f 5c2b 613f acbe 7b3f efd2 793f
00000030: cfa9 723f 4d7f 6c3f af82 6e3f a57d 813f
00000040: c579 743f 2d44 843f 528f 6e3f d071 793f
00000050: da49 623f d88b 803f feb7 823f 42b4 753f
00000060: a54f 373f 5364 463f a9fa 6f3f 1bf0 7c3f
00000070: f61c 7b3f bfff 5e3f 96ec 733f 6b51 803f
00000080: ace9 683f ec4e 7e3f 1d99 753f 2582 883f
00000090: dff8 723f aeeb 813f c67e 743f 12af 833f
000000a0: bb75 763f b9ed 773f fcb7 833f 84e4 793f
000000b0: bc99 6f3f 8ab5 503f fdce 5d3f 40d0 873f
000000c0: c294 793f 925b 5c3f ce48 653f f75c 703f
000000d0: e715 743f d9c8 7b3f 7241 803f 2df9 823f
000000e0: 3f50 753f 4254 6f3f a41b 6f3f 944c 5a3f
000000f0: 7da5 7e3f a95e 693f a19c 823f a1f6 7a3f
00000100: 1483 793f 6d44 6d3f c5f8 5f3f 9592 853f
00000110: 5e0c 6e3f 08e7 7f3f b129 743f bc33 783f
00000120: b69e 623f a8b0 7b3f 8178 533f 4a17 683f
00000130: 1581 833f 2a95 383f 8967 503f 591b 743f
00000140: 3399 633f b6bf 5b3f 659e 803f 42fb 823f
00000150: e90b 6a3f 3dac 6f3f 3e3f 7f3f e234 393f
00000160: f2ad 563f fb0e 7b3f ac0b 853f e0c5 753f
00000170: 1491 753f 2b18 593f 53e7 843f 5f8f 513f
00000180: 45a3 533f 598a 803f d15f 703f d3ad 3d3f
00000190: 4813 5a3f 1ac6 783f 441a 493f 0fb1 523f
000001a0: db6f 1e3f 603c 6a3f bac4 733f 339c 793f
000001b0: 0aba 813f daae 763f ff58 7f3f aef4 7a3f
000001c0: a639 783f 285e 6a3f b21e 743f 8717 663f
000001d0: efad 823f 803b 7a3f 430a 813f 9ee0 613f
000001e0: 12f3 723f 2a14 7f3f 4d0b 4a3f 6f5b 6d3f
000001f0: dfe6 573f e03c 843f 9ddc 763f e2c2 6a3f
00000200: dfa3 883f dd0d 843f 88bd 793f 3d20 813f
00000210: 6e58 663f 5ade 833f 3eab 593f e14f 823f
00000220: 1ebb 823f ad58 5c3f d006 783f 4c94 5d3f
00000230: 1fb7 743f 3c3c 7d3f 8abe 663f 4ebc 6e3f
00000240: 00ca 523f 7f5c 6e3f a150 6e3f df93 833f
00000250: 5a40 663f f663 863f 7b9f 803f 3f6d 733f
00000260: c04a 6f3f a061 723f 487d 773f bf6b 7c3f
00000270: 59cc 383f 44ec 7b3f 7cf7 853f 7659 683f
00000280: 3dc0 3a3f 8b44 743f 4767 643f fd50 863f
00000290: b126 7a3f 29d3 843f 47ec 773f 850f 733f
000002a0: 6537 7f3f 0871 773f 56e6 5b3f 4168 7e3f
000002b0: e55b 643f 7241 713f ef83 843f 8d89 833f
000002c0: 546d 503f f317 833f 1df2 6d3f 7688 7d3f
000002d0: 290f 783f 929f 693f 37c6 6f3f 11cc 843f
000002e0: 0de0 813f 0925 863f 0176 7f3f 626d 4e3f
000002f0: ce7a 753f 0936 5b3f 17c1 693f 8d53 7f3f
00000300: 8057 683f f9df 7c3f 1276 803f 059a 803f
00000310: 3692 6f3f 91c3 7d3f 1e79 853f 4c5a 6f3f
00000320: 0188 753f 9472 7c3f 4d7e 6c3f c79b 703f
00000330: ed92 5f3f f3c7 703f 3568 863f 1166 613f
00000340: 7539 823f a480 673f 4146 7b3f b36d 4d3f
00000350: 9a79 763f 65cc 6a3f 6ecd 7a3f 090e 823f
00000360: 1d55 803f 7b58 763f 0197 6a3f d106 793f
00000370: 921c 623f 8f7e 493f 9508 7c3f 8883 673f
00000380: e952 673f 50d7 823f 77e8 793f 228f 5c3f
00000390: fb05 7a3f 080b 833f a426 7d3f fba9 703f
000003a0: 81a1 7d3f 1e77 7f3f 6826 623f a64c 743f
000003b0: 30d9 5c3f 70f7 7a3f 6d16 6f3f a1b8 6f3f
000003c0: 8255 6d3f bed7 793f 0e06 803f 9bca 753f
000003d0: aa50 7e3f 464a 7b3f ccda 7a3f 2d6d 863f
000003e0: bc64 793f 53f1 5d3f e314 823f 7fb0 783f
000003f0: 2f22 663f c807 7e3f 4c0c 733f 2757 7d3f

_impl.layers.0.linear.bias f4 [256]
-0.303253 -0.33059737 -0.21881628 0.18497738 0.019696986 0.0024687361 0.26675254 0.28878355
0.21263906 0.26419178 0.10996685 0.2750851 -0.31531838 -0.33052728 -0.3840659 0.12016295
-0.3165395 -0.2521398 -0.11945673 -0.067513615 0.20109591 0.13340877 -0.37293816 0.20542789
-0.11177159 0.016479362 0.2792245 -0.31079862 -0.34754884 0.2587107 -0.37813216 -0.0041434937
-0.1464079 0.3442362 0.30335978 0.41296485 0.30824563 0.21754813 -0.041745964 -0.32929358
-0.30898583 -0.37502193 -0.25139597 0.3598615 0.107464805 -0.026322255 0.010823544 0.22464928
0.14222212 0.026639163 -0.19704252 -0.31646445 0.2791605 -0.1983148 -0.35141426 -0.13259834
0.36502632 -0.3242659 -0.019176718 0.23353705 0.21446568 0.2961533 0.29889286 0.32098398
-0.3757225 -0.32554343 -0.27598506 -0.106967956 0.39196232 0.24158452 0.30101028 -0.4488564
0.25246426 -0.33751783 0.07702661 0.34070042 -0.17812155 -0.19005656 -0.06868425 -0.24175481
0.09529738 0.20703746 0.090543084 0.20996332 -0.21830772 -0.13530147 0.035137862 0.12645185
-0.3679135 -0.34300134 -0.3202606 -0.348402 -0.38490462 -0.1657769 0.3622463 0.019879207
0.10695721 0.050813656 -0.27252513 -0.23318177 0.07495167 0.3677947 -0.27282736 0.18159258
0.12369387 -0.29948425 -0.37602833 -0.38000822 -0.23849508 0.055069447 0.10468336 0.17805521
-0.021803824 -0.027277812 -0.39077824 0.27927068 0.18170106 0.10166197 0.19062376 0.2895281
0.16756079 -0.32546008 0.081176125 -0.2977534 0.25086513 0.28703824 -0.12625432 -0.04323398
0.28959137 0.301297 -0.20094949 -0.30256796 -0.25294 -0.2613247 -0.2908658 -0.19351996
-0.24828243 0.16120893 -0.27709728 -0.22544472 0.29622486 -0.15419798 -0.27270654 -0.1449873
0.20807795 -0.34685594 0.23135321 0.35908556 -0.092209905 0.29470405 -0.24159679 -0.010383581
-0.33525637 -0.26493776 -0.3924743 0.07251645 0.029798895 0.31522092 -0.15513736 -0.2609587
-0.2697911 0.19857931 -0.2565966 0.29725218 -0.23734212 -0.2184709 -0.2660493 -0.11086609
0.23873599 0.4290841 0.10317785 -0.37993735 -0.16427732 -0.3170814 0.25543317 0.25759593
0.278481 0.3004269 -0.26307082 -0.24869499 -0.2417113 0.14792286 -0.34091038 -0.3009109
-0.05841626 -0.3997377 -0.3078982 -0.04364987 -0.3803483 0.31599313 0.26608142 0.195378
0.30947047 -0.2225972 -0.2755455 0.42186505 0.17169873 0.27950442 -0.24527335 -0.19798616
0.24429868 -0.09955448 -0.26734036 -0.34285486 -0.28469053 0.2832466 0.30246612 0.26064652
-0.27941003 -0.08699345 -0.35041833 -0.17163582 0.20967253 -0.022625728 0.1871998 0.20466478
-0.28948423 0.254964 -0.07946095 0.2943492 -0.07718818 0.31114316 0.1076095 0.28579718
0.25657693 -0.2953912 -0.22640286 0.16753185 -0.228956 0.40164903 0.31257114 -0.03850961
-0.15075691 -0.3020232 0.27820817 -0.35011733 -0.24565302 -0.2361167 -0.4091716 0.12287849
-0.2979371 0.27670717 -0.30371493 0.12758654 0.23363155 0.071671784 0.3271623 -0.40588933
-0.374628 0.19455554 0.27814922 0.26832014 -0.2618174 -0.29910284 -0.3627573 0.34554023
00000000: fa43 9bbe 0f44 a9be 6011 60be b66a 3d3e
00000010: 935b a13c 85ca 213b ca93 883e 70db 933e
00000020: 0ebe 593e 2544 873e 4d36 e13d f4d7 8c3e
00000030: 6971 a1be df3a a9be 49a4 c4be fe17 f63d
00000040: 7711 a2be 7818 81be bba5 f4bd 9444 8abd
00000050: 16ec 4d3e 4f9c 083e c0f1 bebe b05b 523e
00000060: 81e8 e4bd baff 863c 83f6 8e3e ff20 9fbe
00000070: ecf1 b1be bb75 843e 8a9a c1be 25c6 87bb
00000080: f4eb 15be ba3f b03e f951 9b3e 2170 d33e
00000090: 5fd2 9d3e f0c4 5e3e d1fd 2abd 2b99 a8be
000000a0: 6433 9ebe e002 c0be f9b6 80be c43f b83e
000000b0: 8216 dc3d c5a1 d7bc 3c55 313c 760a 663e
000000c0: ada2 113e 603a da3c 84c5 49be a107 a2be
000000d0: 20ee 8e3e 0913 4bbe 92ec b3be dcc7 07be
000000e0: bbe4 ba3e 2e06 a6be 7e18 9dbc 5624 6f3e
000000f0: e49c 5b3e 68a1 973e 7c08 993e 0358 a43e
00000100: b35e c0be a1ad a6be ea4d 8dbe 0412 dbbd
00000110: 49af c83e ef61 773e 051e 9a3e 82d0 e5be
00000120: ff42 813e 23cf acbe 21c0 9d3d 4970 ae3e
00000130: 7f65 36be 309e 42be 54aa 8cbd 938e 77be
00000140: 462b c33d a101 543e a76e b93d a000 573e
00000150: 0f8c 5fbe 788c 0abe b8ec 0f3d 987c 013e
00000160: 295f bcbe df9d afbe 33f9 a3be bf61 b2be
00000170: 3812 c5be 6bc1 29be 5978 b93e b8d9 a23c
00000180: 620c db3d fb21 503d 6a88 8bbe 34c7 6ebe
00000190: 4380 993d 964f bc3e 07b0 8bbe 68f3 393e
000001a0: 3653 fd3d 0056 99be c986 c0be 7090 c2be
000001b0: 0e38 74be 8090 613d 3b64 d63d 1b54 363e
000001c0: ef9d b2bc b875 dfbc 1614 c8be 91fc 8e3e
000001d0: d80f 3a3e 2734 d03d e032 433e 073d 943e
000001e0: 0e95 2b3e b4a2 a6be ab3f a63d 2273 98be
000001f0: 6571 803e adf6 923e d048 01be 1d16 31bd
00000200: 5245 943e 9a43 9a3e b4c5 4dbe 30ea 9abe
00000210: 5a81 81be 5acc 85be 5dec 94be 192a 46be
00000220: c03d 7ebe f413 253e b2df 8dbe fbda 66be
00000230: c9aa 973e 13e6 1dbe 31a0 8bbe 8d77 14be
00000240: 6312 553e 1a97 b1be dbe7 6c3e 10da b73e
00000250: 8cd8 bcbd 73e3 963e 2665 77be e51f 2abc
00000260: b9a6 abbe eca5 87be 64f2 c8be 8183 943d
00000270: d01c f43c a364 a13e 54dc 1ebe 619c 85be
00000280: 0f22 8abe 6058 4b3e a160 83be 7031 983e
00000290: d009 73be d6b6 5fbe 9d37 88be c30d e3bd
000002a0: 3577 743e e9b0 db3e e94e d33d 2687 c2be
000002b0: 5038 28be 7e58 a2be 23c8 823e 9de3 833e
000002c0: 1095 8e3e 8ed1 993e 38b1 86be e6a9 7ebe
000002d0: 2b83 77be 1779 173e ce8b aebe fe10 9abe
000002e0: e345 6fbd 6baa ccbe d5a4 9dbe 35ca 32bd
000002f0: 03bd c2be dac9 a13e d33b 883e 2c11 483e
00000300: ea72 9e3e 85f0 63be 4d14 8dbe b2fe d73e
00000310: cbd1 2f3e 341b 8f3e f028 7bbe e2bc 4abe
00000320: 6f29 7a3e 38e3 cbbd d6e0 88be ac8a afbe
00000330: f5c2 91be b305 913e d7dc 9a3e 7673 853e
00000340: d50e 8fbe 9f29 b2bd 086a b3be 4dc1 2fbe
00000350: 65b4 563e 9759 b9bc 4eb1 3f3e a593 513e
00000360: 4737 94be a48a 823e 6cbc a2bd f0b4 963e
00000370: d614 9ebd 284e 9f3e 5f62 dc3d 0254 923e
00000380: 0d5e 833e 843d 97be 27d6 67be 788d 2b3e
00000390: 7173 6abe f1a4 cd3e 5309 a03e 41bc 1dbd
000003a0: 0560 1abe c9a2 9abe 4d71 8e3e 9442 b3be
000003b0: 778c 7bbe 94c8 71be f17e d1be b8a7 fb3d
000003c0: 368b 98be 90ac 8d3e 8680 9bbe 0ca6 023e
000003d0: 1c3d 6f3e a8c8 923d d181 a73e bad0 cfbe
000003e0: 3ecf bfbe 9139 473e 9369 8e3e 4261 893e
000003f0: ee0c 86be 0224 99be 53bb b9be a6ea b03e

_impl.layers.1.linear.weight f4 [256, 256]
0.060527146 0.11214104 0.029608237 -0.05979183 -0.075195536 -0.0013747707 -0.07812065 0.044983104
0.08645768 -0.067690894 0.16073227 0.100853026 0.092191264 -0.0401351 -0.1913077 -0.0036052964
-0.12674381 -0.07507448 0.03942317 0.0060724956 -0.053558595 0.029010348 -0.16491923 -0.08546156
-0.11463105 -0.06700766 0.12597738 0.115885384 -0.037651643 0.022292994 0.22727792 0.093387656
-0.10980672 -0.13720502 -0.06228823 -0.1413288 -0.25997332 0.12906171 0.14938316 0.15099044
-0.1436225 0.09709302 0.105843775 -0.13960446 -0.01958247 0.010935133 -0.14315929 0.093505494
-0.08445012 0.03956932 -0.092162915 -0.11493528 0.062161557 -0.03281722 0.17707524 -0.15345117
-0.05342903 -0.11081676 0.11439505 -0.11142727 0.037351213 -0.061644834 0.09557452 0.10662675
-0.07944098 -0.18934299 0.076743424 -0.040436868 -0.028540356 0.04597506 0.027548691 0.15648726
0.13135944 0.09979332 -0.0070006577 0.21985914 0.1917641 0.20661347 0.1504525 0.004622991
0.14339218 -0.12990914 0.14582454 -0.110210106 -0.16657051 -0.08795947 0.054483857 0.04787285
0.07300422 -0.026543958 -0.03222685 0.034193266 -0.09707107 0.08455173 0.030358098 0.05131012
-0.019643532 -0.0016959007 -0.09556642 0.018846642 0.20118284 0.037076563 -0.08555552 0.12410019
0.14507733 -0.060193084 -0.164204 -0.25151598 -0.10850738 0.1192662 0.12800905 -0.007976931
0.01408065 -0.16183235 -0.24389763 0.22143027 -0.1350472 -0.043880723 0.105931 -0.14830129
0.07302518 0.14562747 -0.13131139 0.09378633 -0.21774656 -0.120709516 -0.12854983 0.07214863
-0.17755811 0.13456225 -0.08939151 -0.105312265 0.056776807 -0.002211025 -0.1800648 0.06661437
0.083139226 -0.1200934 0.06507759 -0.10667879 0.13004094 -0.13347131 0.20625013 0.09409272
-0.21232022 0.18343738 -0.09793125 -0.1438421 0.051392283 -0.056600053 -0.07446541 -0.003676853
-0.0704031 -0.022162596 -0.13058311 0.040551014 -0.1646522 -0.09895502 -0.068193235 -0.11661457
-0.127926 0.14241767 -0.16689144 -0.06188725 0.14161107 -0.075867966 0.13821164 0.020022463
-0.06542198 0.2301306 -0.16782124 0.047610015 0.17256309 -0.090569735 -0.0062157223 -0.10403639
-0.07376893 0.017520852 0.07755338 0.16732077 -0.10330931 -0.045609746 -0.0013930814 0.17917614
0.09070243 -0.030174062 -0.103785954 -0.000575579 -0.02490497 -0.05526189 0.10864219 0.0068301396
-0.08848276 -0.013611685 -0.077707574 -0.13629393 -0.12098868 0.21399826 -0.1357999 0.0011803744
-0.051380478 0.08276094 0.032025594 -0.103971384 0.094961025 -0.13253565 0.12935476 0.12693481
0.041603707 -0.15634686 0.24203487 0.067735255 0.047461204 0.12818807 0.08165128 -0.119668715
-0.08356459 0.030612698 0.016386537 -0.041868903 0.13472088 -0.17405766 -0.13664201 0.08795585
0.02908114 0.123018555 0.019068228 -0.03984113 0.049887773 -0.14480017 0.12872227 -0.078597166
-0.10602807 -0.06911274 0.034522712 0.1294126 0.013147733 -0.124612145 0.27612832 0.09302983
-0.14767486 -0.0787237 -0.078405574 0.17311753 -0.04342714 -0.031330924 0.09634231 -0.009969695
-0.024757748 -0.16994824 0.041976433 0.04781087 0.18794914 0.23140869 -0.15840296 0.12891148
00000000: 50eb 773d 34aa e53d f98c f23c 47e8 74bd
00000010: 1e00 9abd a631 b4ba b8fd 9fbd 3440 383d
00000020: b910 b13d 86a1 8abd 0097 243e 088c ce3d
00000030: c6ce bc3d b464 24bd 2ae6 43be d646 6cbb
00000040: 21c9 01be a6c0 99bd 317a 213d c9fb c63b
00000050: 4260 5bbd 1ca7 ed3c 96e0 28be 7806 afbd
00000060: afc3 eabd 503b 89bd 3700 013e 5155 ed3d
00000070: 9c38 1abd cc9f b63c 8bbb 683e 0742 bf3d
00000080: 58e2 e0bd 797f 0cbe f121 7fbd 7fb8 10be
00000090: 391b 85be c128 043e e6f7 183e 3d9d 1a3e
000000a0: c711 13be b5d8 c63d 9fc4 d83d 79f4 0ebe
000000b0: 6b6b a0bc 4629 333c 5998 12be cf7f bf3d
000000c0: 2ff4 acbd 7013 223d e9bf bcbd 3063 ebbd
000000d0: 1e9d 7e3d 596b 06bd 3653 353e 4e22 1dbe
000000e0: 66d8 5abd e6f3 e2bd f447 ea3d fb33 e4bd
000000f0: 96fd 183d 4b7f 7cbd 93bc c33d 205f da3d
00000100: f4b1 a2bd 21e3 41be a82b 9d3d 21a1 25bd
00000110: 77cd e9bc 5850 3c3d cbad e13c 323e 203e
00000120: 1783 063e 7160 cc3d c665 e5bb c122 613e
00000130: cf5d 443e 7b92 533e 3810 1a3e 767c 973b
00000140: 66d5 123e e706 05be 0753 153e d6b5 e1bd
00000150: 7691 2abe 1824 b4bd 772a 5f3d 5216 443d
00000160: 3d83 953d b772 d9bc 4d00 04bd 3d0e 0c3d
00000170: 32cd c6bd 7529 ad3d 8cb1 f83c 8f2a 523d
00000180: 79eb a0bc fc48 deba 54b8 c3bd 4664 9a3c
00000190: e002 4e3e 98dd 173d bc37 afbd 3e28 fe3d
000001a0: 278f 143e 068d 76bd 1825 28be b4c6 80be
000001b0: 1e39 debd d641 f43d ce14 033e acb1 02bc
000001c0: 87b2 663c 61b7 25be 4dc0 79be 9ebe 623e
000001d0: d049 0abe 46bc 33bd 5af2 d83d 4bdc 17be
000001e0: 3a8e 953d 5e1f 153e 7e76 06be 0c13 c03d
000001f0: f4f8 5ebe 8d36 f7bd 91a2 03be a9c2 933d
00000200: cbd1 35be b0ca 093e e512 b7bd f5ad d7bd
00000210: cc8e 683d d8e6 10bb e862 38be 1d6d 883d
00000220: e644 aa3d 87f3 f5bd 6647 853d 697a dabd
00000230: 7429 053e b4ac 08be 3c33 533e afb3 c03d
00000240: 796a 59be 02d7 3b3e 2e90 c8bd 584b 13be
00000250: b780 523d 75d5 67bd 5281 98bd 5bf7 70bb
00000260: 802f 90bd 558e b5bc 94b7 05be d218 263d
00000270: 969a 28be eea8 cabd e5a8 8bbd 9fd3 eebd
00000280: 09ff 02be f0d5 113e 97e5 2abe 7c7d 7dbd
00000290: 7e02 113e aa60 9bbd 5a87 0d3e 2606 a43c
000002a0: f6fb 85bd 5ba7 6b3e 55d9 2bbe b802 433d
000002b0: 61b4 303e a07c b9bd 42ad cbbb 0811 d5bd
000002c0: 2a14 97bd e487 8f3c 4ed4 9e3d 2356 2b3e
000002d0: d593 d3bd 49d1 3abd 0e98 b6ba f379 373e
000002e0: 32c2 b93d 982f f7bc bb8d d4bd 74e2 16ba
000002f0: 8205 ccbc 4b5a 62bd cc7f de3d 5dcf df3b
00000300: 7336 b5bd 8b03 5fbc 2625 9fbd a390 0bbe
00000310: eac8 f7bd 5c22 5b3e 210f 0bbe cbb6 9a3a
00000320: 5674 52bd 917e a93d 452d 033d f3ee d4bd
00000330: ed7a c23d 6db7 07be 9375 043e 33fb 013e
00000340: a668 2a3d 6419 20be fdd7 773e c8b8 8a3d
00000350: ae66 423d bc43 033e c938 a73d df14 f5bd
00000360: e923 abbd 7bc7 fa3c 0f3d 863c ba7e 2bbd
00000370: 45f4 093e 2c3c 32be e2eb 0bbe 3222 b43d
00000380: 923b ee3c 27f1 fb3d f934 9c3c 7430 23bd
00000390: 1f57 4c3d 7f46 14be c5cf 033e 8df7 a0bd
000003a0: 3f25 d9bd fb8a 8dbd b067 0d3d bd84 043e
000003b0: 9769 573c a734 ffbd b160 8d3e 6c86 be3d
000003c0: 1438 17be e439 a1bd 1a93 a0bd b945 313e
000003d0: a8e0 31bd db54 00bd 1e4f c53d ee57 23bc
000003e0: c3d0 cabc e906 2ebe 7bef 2b3d 55d5 433d
000003f0: bd75 403e 66f6 6c3e 6334 22be 5f01 043e

_impl.layers.1.linear.weight_g f4 [256, 1]
7.4634314e-05 0.004122371 -0.002198711 0.0011934969 0.7528968 -5.1730194e-06 0.10025217 -0.00022273019
1.0104631 1.1176255 0.9231976 0.35604256 1.0532553 0.8922883 1.1314081 -0.00014625494
-0.0005816472 0.23833022 -0.0007358003 0.036609363 1.0066524 -0.0010899066 0.00069723645 -0.0010523029
0.9168733 0.8066953 0.00013751244 0.613987 0.8772028 8.33434e-05 0.87276965 0.00011591225
-7.031327e-06 0.00016854398 0.7240554 1.0511655 0.9890366 -0.00012377894 0.9243299 0.90311784
0.8695741 0.9972753 0.00070129405 1.1343603 0.14552444 1.063537 0.6780608 -0.00011096453
0.00024170586 0.9760867 -0.00016919199 0.35298172 0.00026248506 -0.0001254853 0.0001853173 0.90615076
0.7639813 -0.00012564201 1.0300139 0.93835163 0.0014762847 1.585667e-05 1.104567 0.0011308372
-7.8779536e-05 -0.001406861 -0.00089972635 0.00025158006 0.00011824194 0.9662982 0.7790963 0.0004498342
0.72151273 5.323246e-05 0.96544796 0.00028689907 0.00012867678 0.9912325 4.600019e-05 -4.1022613e-05
0.8831656 0.00039825722 0.8927009 0.8394663 0.85385203 1.0778842 -0.00013549466 0.3716952
-0.0002792037 1.0053753 0.00032366984 0.0012159606 0.77908385 0.002090329 1.4016329e-05 1.0438395
0.0003487827 0.90546596 -5.9753147e-05 -0.00037893004 0.9663422 1.2490424 0.76784176 0.9862899
0.54248804 -0.0004728329 0.74072057 0.8514086 0.013319476 -0.00019758861 0.00016960718 -3.8159887e-05
1.0095528 0.0005538805 1.2184744 0.99959195 0.00015721009 0.0006746302 8.5634594e-05 -0.00031877976
0.916293 -0.00014718626 0.5261605 0.8257364 0.8624728 1.1026791 0.98203015 0.8988318
0.00016424435 -1.22959e-07 -0.000912804 0.00014409985 0.93047416 0.7947385 0.8922856 1.0513693
1.0184027 -0.00034601177 -0.00079635635 -2.579786e-05 -0.00080949283 0.87266487 1.06982 -0.00040557346
-0.00030113972 0.0035651075 0.9188761 0.00051586615 0.8128681 -0.00092118763 -0.00015066205 0.93012166
1.0884959 1.0118787 0.9313791 -3.6806596e-05 0.8848423 -0.00020926318 1.1196805 0.92925876
0.0025332503 0.9623766 -4.693636e-06 7.724184e-05 1.0154002 1.0653082 -0.00021283705 1.3401839e-05
0.000295816 0.91013896 0.67220044 0.8298262 0.84832823 0.00017351324 0.938041 0.02966934
1.2315395 1.0230774 1.071835 0.0007926194 1.0325023 0.99931306 0.89913 1.131638
0.00020800241 -0.00021767514 1.1452739 0.00029801493 0.00038489193 1.0056641 -1.9401237e-05 -0.002565244
0.88524276 1.0144515 -6.422369e-05 0.87515795 1.0270987 0.966641 1.0205228 0.70544606
0.00038748825 0.00044499396 0.0003867763 0.061505012 0.9623245 0.00055514305 0.98006475 1.1064684
0.26763722 0.8493146 0.00091186684 0.09431167 0.00020828447 1.1761372 0.008127271 0.95067537
0.987136 4.7684607e-05 0.9704487 -0.00019708309 0.74201274 0.6828675 1.1729494 1.0798173
0.00031499364 1.0624537 1.016374 0.0002920863 0.00011366342 0.07204471 0.7299334 -0.00024476106
-0.000116202544 5.833582e-05 0.00014344329 0.9085916 0.99737054 0.95707196 4.083376e-05 0.014575889
0.9915467 0.8632373 0.021355271 0.86837757 1.1643354 1.8414034e-05 0.00017371982 1.0036151
1.0405332 0.0029023457 0.92476344 -0.0003740528 0.00015870195 -0.0013097147 0.9988683 -0.00025641356
00000000: fe84 9c38 f414 873b 4018 10bb 1c6f 9c3a
00000010: d8bd 403f e693 adb6 0251 cd3d ae8c 69b9
00000020: db56 813f 5a0e 8f3f ae56 6c3f 364b b63e
00000030: 12d1 863f 026d 643f fbd1 903f 035c 19b9
00000040: af79 18ba d60c 743e b9e2 40ba b3f3 153d
00000050: fcd9 803f 32db 8eba bfc6 363a 6ded 89ba
00000060: 35b8 6a3f 9583 4e3f 3731 1039 412e 1d3f
00000070: 5d90 603f a6c8 ae38 d56d 5f3f ea15 f338
00000080: a4ee ebb6 2ebb 3039 b25b 393f 978c 863f
00000090: 8131 7d3f a8ca 01b9 e2a0 6c3f bb32 673f
000000a0: 699c 5e3f 6f4d 7f3f 0cd7 373a b832 913f
000000b0: 5c04 153e fb21 883f 6595 2d3f a1b5 e8b8
000000c0: 6c72 7d39 d1e0 793f 2169 31b9 05ba b43e
000000d0: 269e 8939 b494 03b9 bc51 4239 7ff9 673f
000000e0: 4794 433f c5be 03b9 7fd7 833f d037 703f
000000f0: e57f c13a f103 8537 7462 8d3f 9a38 943a
00000100: 7136 a5b8 6c66 b8ba 9ddb 6bba 81e6 8339
00000110: a8f8 f738 525f 773f db72 473f b9d7 eb39
00000120: 0fb5 383f eb45 5f38 9927 773f f16a 9639
00000130: 69ed 0639 6ac1 7d3f 54f0 4038 b20f 2cb8
00000140: 2417 623f 2ecd d039 0c88 643f 43e7 563f
00000150: 0c96 5a3f 1cf8 893f 9213 0eb9 d54e be3e
00000160: 1662 92b9 23b0 803f 3bb2 a939 de60 9f3a
00000170: 0a72 473f e7fd 083b ad27 6b37 889c 853f
00000180: d2dc b639 9ecc 673f 749f 7ab8 21ab c6b9
00000190: 3462 773f 9fe0 9f3f 4791 443f 7f7d 7c3f
000001a0: 7fe0 0a3f 8fe6 f7b9 dd9f 3d3f eaf5 593f
000001b0: ee39 5a3c ca2f 4fb9 95d8 3139 de0d 20b8
000001c0: 0739 813f 4b32 113a f8f6 9b3f 42e5 7f3f
000001d0: c3d8 2439 abd9 303a b996 b338 e521 a7b9
000001e0: 2e92 6a3f 0356 1ab9 74b2 063f 7663 533f
000001f0: 04cb 5c3f 9724 8d3f 5466 7b3f d719 663f
00000200: 0239 2c39 b606 04b4 3d49 6fba 8219 1739
00000210: 8e33 6e3f fb73 4b3f d46c 643f 4593 863f
00000220: 055b 823f ea68 b5b9 92c2 50ba 7c68 d8b7
00000230: 2534 54ba f766 5f3f ddef 883f 26a3 d4b9
00000240: 4ae2 9db9 94a4 693b 773b 6b3f 313b 073a
00000250: 2018 503f db7b 71ba 09fb 1db9 741c 6e3f
00000260: d553 8b3f 3e85 813f dc6e 6e3f c860 1ab8
00000270: 0685 623f a86d 5bb9 b151 8f3f e7e3 6d3f
00000280: e304 263b 505e 763f 077e 9db6 e6fc a138
00000290: a2f8 813f 055c 883f 032d 5fb9 76d8 6037
000002a0: c017 9b39 defe 683f 5415 2c3f 7d6f 543f
000002b0: 0a2c 593f 1bf1 3539 7423 703f 1e0d f33c
000002c0: 16a3 9d3f 33f4 823f e431 893f cac7 4f3a
000002d0: 0929 843f fbd2 7f3f 622d 663f 84d9 903f
000002e0: 391b 5a39 ba3f 64b9 5698 923f e33e 9c39
000002f0: 52cb c939 9ab9 803f d7bf a2b7 a71d 28bb
00000300: 459f 623f 8cd9 813f d5af 86b8 5a0a 603f
00000310: f877 833f c975 773f 7ea0 823f 1d98 343f
00000320: cb27 cb39 144e e939 3cc8 ca39 aeec 7b3d
00000330: e65a 763f 0587 113a 86e5 7a3f c2a0 8d3f
00000340: bf07 893e ae6c 593f 590a 6f3a 7a26 c13d
00000350: f066 5a39 aa8b 963f 3f28 053c 765f 733f
00000360: f2b4 7c3f f500 4838 536f 783f 17a8 4eb9
00000370: 8cf4 3d3f 68d0 2e3f 3523 963f 7437 8a3f
00000380: bb25 a539 7cfe 873f 8b18 823f 2923 9939
00000390: 955e ee38 2d8c 933d eadc 3a3f 4653 80b9
000003a0: c4b1 f3b8 9cad 7438 4469 1639 7699 683f
000003b0: ad53 7f3f ab02 753f ea44 2b38 b6cf 6e3c
000003c0: 01d6 7d3f 1ffd 5c3f 40f1 ae3c fe4d 5e3f
000003d0: f108 953f d677 9a37 8f28 3639 7676 803f
000003e0: 3130 853f 4835 3e3b 4cbd 6c3f 841c c4b9
000003f0: 3b69 2639 bcaa abba d5b5 7f3f 3f6f 86b9

_impl.layers.1.linear.bias f4 [256]
0.00044111346 -5.8158897e-05 -0.0002919742 0.00017495672 -0.07469103 0.000549601 -0.0014979703 0.0008188435
-0.2256807 0.078680046 0.06902751 0.035131816 0.24739903 0.1504739 -0.120413624 -0.0004794126
-0.00028514356 0.030852439 0.00083541416 -0.014377492 -0.20438176 -0.00071110367 -0.00023012917 0.000104237566
-0.18013853 0.19473813 0.00021923913 -0.03780862 -0.10170281 0.0004679066 -0.18109879 0.0008326623
0.0006222665 -0.00038172177 -0.1360724 -0.20771332 -0.21239273 0.0005752028 -0.03617322 0.19353192
0.1302507 0.25254413 0.0003288431 -0.18377453 -0.029862659 -0.12603353 -0.12683219 -0.0001927618
-0.00014204471 0.17942478 -0.00070456817 0.0698281 -0.00052037643 -9.231553e-06 -0.00051574333 0.14350198
0.07758708 0.0007086841 0.20162639 -0.26025856 1.7537643e-05 0.00070513284 0.19603603 -0.00070983224
-0.0005336146 -0.00021679114 1.090407e-05 0.0008386554 -6.531638e-08 0.25782022 0.10392645 7.332273e-05
-0.076734185 -0.00012768924 0.15640514 0.00024041667 0.001153824 0.20735724 0.0011101492 -0.0011239755
0.1839551 0.0005711977 0.15561634 0.029538954 0.26228857 0.1587774 0.0005318688 -0.050573237
0.00010314286 0.24609163 -0.0015743709 0.0006071172 -0.11340657 0.00015803582 -0.00038935937 -0.25265017
-4.620151e-05 -0.16369176 -6.760968e-05 -0.00023921301 0.13482848 -0.0780547 0.08783698 -0.16535681
0.111187115 -0.00039578162 -0.115261085 0.1686386 -0.007812451 -6.7663284e-05 -4.7899657e-06 0.0006087047
0.07841849 -0.00023391725 -0.1326948 -0.22070871 0.00023882178 -0.0005724634 -0.0015384076 -0.0008600848
0.20826392 9.188386e-05 -0.03498204 -0.020648107 -0.22808044 -0.09864123 0.24352697 -0.2070831
-0.00073870464 -0.0002161652 0.0009992712 -0.00049752207 0.021976443 0.10735076 -0.21504855 0.22639176
-0.10007159 0.00074682804 8.007046e-05 0.0002428173 6.2528685e-05 -0.06613715 -0.2018785 -0.00013380029
-0.00056618534 -3.9143724e-05 -0.05832917 0.00011991525 0.09050451 0.00056028576 0.0007418076 -0.086976804
-0.016342353 0.22808129 -0.17856224 -0.00045580688 -0.24240817 0.0009854098 0.2562789 0.2515899
3.783283e-05 0.19862916 -0.00077177474 -0.00033443223 -0.17364104 0.23109879 -0.0003211772 -0.000321895
0.00041041797 0.06653571 0.104519665 -0.18857735 0.13043295 0.00055020454 0.20341733 -0.0036377697
0.027498547 -0.1829803 -0.21206701 0.00028787396 0.10874894 -0.047796186 -0.1048569 -0.16195783
0.00011817346 0.00041375498 0.012895164 -0.00037564943 -1.788503e-05 -0.20550814 1.7841236e-05 -0.0006520541
-0.20776989 -0.022693865 -0.00048527395 0.15336078 0.18225661 0.18207023 0.2575373 -0.084096536
0.00073235336 7.165926e-05 -0.0004987002 -0.018575424 0.10039244 0.0013970946 0.18084976 0.23960003
-0.021007158 0.14397882 0.00041358746 0.03325398 0.0005568238 0.101111434 0.0047062016 0.18537705
0.2581739 0.0005011102 0.06121059 -0.0007279609 -0.1142025 -0.14380012 0.13939777 0.1986438
-0.00041322462 0.2278127 0.26887333 0.00013267876 -0.00058412907 -0.031468604 -0.14772172 -0.0005455028
0.0010182142 0.00027317615 0.00055976067 0.11942939 0.20734721 -0.22104569 -0.00050699915 -0.0011595732
0.2896062 -0.17341337 -0.008579351 -0.16185531 -0.19269146 0.0007110834 -0.00029330273 -0.22840357
-0.19742803 0.00051325024 -0.25618288 -0.0005404383 -3.2110845e-05 0.00020249352 0.28015447 -0.00034077733
00000000: 3f45 e739 a4ef 73b8 1d14 99b9 9674 3739
00000010: 9cf7 98bd 1913 103a 8b57 c4ba a8a7 563a
00000020: d718 67be 0123 a13d 4c5e 8d3d 61e6 0f3d
00000030: 2c56 7d3e d415 1a3e 6b9b f6bd ac59 fbb9
00000040: 527f 95b9 41be fc3c b2ff 5a3a 928f 6bbc
00000050: 7449 51be 5c69 3aba d44e 71b9 1e9a da38
00000060: 3c76 38be 6f69 473e 8ee3 6539 36dd 1abd
00000070: 9049 d0bd 5c51 f539 f671 39be 0547 5a3a
00000080: 991f 233a d421 c8b9 9056 0bbe cdb2 54be
00000090: 7b7d 59be 35c9 163a 5f2a 14bd 3b2d 463e
000000a0: 7160 053e 774d 813e 9368 ac39 642f 3cbe
000000b0: 89a2 f4bc ef0e 01be 4ce0 01be 1a20 4ab9
000000c0: d6f1 14b9 21bb 373e c5b2 38ba 0902 8f3d
000000d0: df69 08ba 38e1 1ab7 f332 07ba 2ff2 123e
000000e0: fae5 9e3d fcc6 393a 2677 4e3e 9c40 85be
000000f0: cd1d 9337 aad8 383a abbd 483e 0914 3aba
00000100: 45e2 0bba 6e52 63b9 a0f0 3637 36d9 5b3a
00000110: 0f44 8cb3 0301 843e 64d7 d43d d7c4 9938
00000120: d026 9dbd 52e4 05b9 ab28 203e 5c18 7c39
00000130: e93b 973a 7555 543e 6d82 913a 5c52 93ba
00000140: ba5e 3c3e 6ebc 153a e459 1f3e adfb f13c
00000150: b04a 863e 8b96 223e 1c6d 0b3a e225 4fbd
00000160: 674e d838 72ff 7b3e 1f5b ceba f226 1f3a
00000170: b441 e8bd 6bb6 2539 ee22 ccb9 5d5b 81be
00000180: 7ec8 41b8 d09e 27be acc9 8db8 41d5 7ab9
00000190: 7a10 0a3e 24db 9fbd e0e3 b33d 4c53 29be
000001a0: 12b6 e33d e980 cfb9 010e ecbd 99af 2c3e
000001b0: 97ff ffbb 73e6 8db8 7eb9 a0b6 7b91 1f3a
000001c0: e099 a03d af47 75b9 25e1 07be 7701 62be
000001d0: 3c6c 7a39 5e11 16ba 65a4 c9ba 5077 61ba
000001e0: 2343 553e c6b1 c038 5449 0fbd 3826 a9bc
000001f0: eb8d 69be 6a04 cabd 225f 793e 980d 54be
00000200: a1a5 41ba 67aa 62b9 faf9 823a 246c 02ba
00000210: f107 b43c b7da db3d b035 5cbe 3ed3 673e
00000220: 55f2 ccbd c8c6 433a 80eb a738 c69c 7e39
00000230: d521 8338 ea72 87bd 3db9 4ebe be4c 0cb9
00000240: 0e6c 14ba 412e 24b8 91ea 6ebd 027b fb38
00000250: 6e5a b93d 24e0 123a de75 423a e520 b2bd
00000260: 66e0 85bc 248e 693e 05d9 36be 5df9 eeb9
00000270: d939 78be de28 813a fd36 833e 64d0 803e
00000280: b1ae 1e38 7165 4b3e ed50 4aba bc56 afb9
00000290: f5ce 31be 29a5 6c3e ad63 a8b9 04c4 a8b9
000002a0: 5e2d d739 e043 883d 680e d63d 6c1a 41be
000002b0: 3790 053e 9a3b 103a a24c 503e a667 6ebb
000002c0: a244 e13c 305f 3bbe 1828 59be caed 9639
000002d0: c4b7 de3d efc5 43bd 37bf d6bd 46d8 25be
000002e0: e5d3 f738 41ed d839 3d46 533c d0f2 c4b9
000002f0: cf07 96b7 ba70 52be c3a9 9537 9cee 2aba
00000300: a1c1 54be 7ce8 b9bc 5e6c feb9 9c0a 1d3e
00000310: 7aa1 3a3e 9e70 3a3e eedb 833e ce3a acbd
00000320: 67fb 3f3a c647 9638 34bb 02ba 7d2b 98bc
00000330: 8d9a cd3d b71e b73a ae30 393e b659 753e
00000340: 3417 acbc 2f6f 133e c5d6 d839 5335 083d
00000350: d0f7 113a 8313 cf3d 7b36 9a3b 7bd3 3d3e
00000360: 5f2f 843e f05c 033a f5b7 7a3d a1d4 3eba
00000370: 00e3 e9bd 5740 13be 4abe 0e3e 4869 4b3e
00000380: 12a6 d8b9 bc47 693e c4a9 893e af1f 0b39
00000390: 3d20 19ba 39e5 00bd 5d44 17be 1300 0fba
000003a0: 9975 853a 1539 8f39 e7bc 123a 6597 f43d
000003b0: d452 543e cd59 62be 23e8 04ba d2fc 97ba
000003c0: 4447 943e 4693 31be 6890 0cbc 66bd 25be
000003d0: e950 45be 0068 3a3a 6dc6 99b9 a0e2 69be
000003e0: 932a 4abe a48b 063a 672a 83be 33ac 0dba
000003f0: c2ae 06b8 7154 5439 6870 8f3e 5caa b2b9

_impl.layers.2.linear.weight f4 [256, 256]
0.364131 -0.18914473 -0.16847326 -0.12710777 0.11631515 -0.14864151 -0.07829873 -0.36900622
0.053458553 -0.00539731 -0.03337672 0.096253715 0.05040084 -0.055725925 0.023741856 -0.19870514
-0.44230965 0.07234222 0.07482669 0.21592705 -0.05981076 -0.12670885 0.30240187 0.033353362
0.11217766 0.11417524 -0.12428807 -0.08363418 -0.15131776 0.028993903 0.08746118 -0.030198142
-0.46287367 -0.032627005 0.012910467 -0.09999762 -0.013768311 -0.0028564169 0.042747788 -0.12180068
0.08711766 -0.14017297 0.12016817 0.0059907995 -0.061607894 -0.077987894 -0.17562968 0.21699095
-0.4358962 0.0044177724 0.3302887 0.15972288 -0.16220723 -0.48170692 0.35078555 -0.10481605
-0.03912247 -0.13855441 -0.066162385 0.07172972 0.020287806 -0.058041345 -0.073004894 0.12626909
-0.11991235 -0.2384593 -0.04035243 0.14952502 -0.23191413 -0.009332158 0.22704287 0.3079624
0.0013626827 -0.13786906 -0.132889 0.08607066 -0.24305514 -0.037251435 -0.025866078 -0.16476306
0.00700312 0.21797119 -0.02147977 -0.0010197838 -0.115467966 0.005586895 -0.47494772 0.06291422
0.1335604 0.0049026036 -0.12961191 -0.05769477 0.08846861 0.22327459 0.56168216 0.06783018
0.19383976 -0.07466368 -0.27650824 -0.2265354 0.045750447 0.040053893 0.046708778 0.00087266596
0.16789217 -0.26048636 -0.1084938 0.09016006 -0.004496203 -0.0101649845 0.17972283 0.9355164
-0.023633804 -0.017158853 -0.013856288 -0.06441379 -0.48043776 -0.159517 -0.12092699 -0.0895364
0.03687283 0.06111595 0.069189616 -0.033176754 -0.07530159 -0.032215647 -0.040723126 -0.033250302
-0.05017673 0.18635039 0.16155975 -0.062833264 0.054876037 -0.018559461 -0.11570627 -0.08857859
0.040586993 -0.34997132 -0.60555655 -0.031902503 0.011600483 -0.16984078 -0.052890908 -0.4403764
0.4169819 -0.5162867 0.06781039 -0.20000483 -0.11132028 0.1122581 -0.013298417 0.074647
-0.057102565 0.028118744 0.030371511 0.11527373 -0.02009519 -0.14893033 0.038502146 0.013173896
0.22170806 -0.04196089 -0.2577376 0.2098294 -0.077630386 0.05640285 0.35757914 0.9938587
0.038046837 -0.0801976 0.020586267 0.10839726 -0.08102089 -0.6341864 0.10175662 0.169777
0.030018257 -0.0072110835 -0.0052851145 -0.35906568 0.0007074863 0.055372696 0.10384726 -0.026964486
-0.3283023 -0.3717056 -0.012946129 -0.0087661 -0.15928808 -0.057854414 0.16346224 -0.22233306
0.0027094078 -0.07092976 -0.14852533 -0.07542071 0.10493953 -0.04879009 -0.040288344 0.078072146
-0.076999076 -0.07597385 0.17570467 -0.06753774 0.09934429 -0.007947395 0.010523813 -0.035214618
0.021618925 0.096657015 0.017293954 0.10982531 0.22124705 0.048498575 -0.12668349 -0.016596848
0.022025859 -0.38190353 -0.0031352115 0.17050701 -0.1431259 0.14185633 0.026482128 0.13870949
0.016539816 -0.044140086 0.10474363 0.052451946 -0.19320007 0.04198333 -0.16306472 0.31031772
-0.57370794 -0.037218664 -0.1034651 0.06773488 -0.13066919 -0.09128851 0.24908857 0.22324295
-0.05631154 0.06818061 -0.0074979253 0.06609424 -0.028130563 -0.57956046 -0.3122536 0.07807889
-0.054867525 0.06760041 0.09119005 -0.20490567 0.16692396 0.21798138 -0.055473235 0.19366628
00000000: 616f ba3e 28af 41be 4184 2cbe 8a28 02be
00000010: a336 ee3d 7b35 18be 165b a0bd 62ee bcbe
00000020: 5bf7 5a3d ebdb b0bb 07b6 08bd ab20 c53d
00000030: 1c71 4e3d de40 64bd 487e c23c 5c79 4bbe
00000040: 6976 e2be 2828 943d bc3e 993d fb1b 5d3e
00000050: 21fc 74bd f7bf 01be 6bd4 9a3e 899d 083d
00000060: 67bd e53d b5d4 e93d be8a febd 6648 abbd
00000070: 0bf3 1abe 9f84 ed3c d91e b33d 1862 f7bc
00000080: c7fd ecbe e5a3 05bd 6c86 533c 8dcb ccbd
00000090: 7b94 61bc b932 3bbb 4e18 2f3d a372 f9bd
000000a0: be6a b23d 8189 0fbe bb1a f63d 784e c43b
000000b0: 8f58 7cbd 1eb8 9fbd 44d8 33be e032 5e3e
000000c0: c92d dfbe f6c2 903b 9a1b a93e 658e 233e
000000d0: a719 26be 4aa2 f6be 2a9a b33e cca9 d6bd
000000e0: e23e 20bd 35e1 0dbe 2580 87bd 08e7 923d
000000f0: 9d32 a63c c3bc 6dbd 9783 95bd af4c 013e
00000100: 9b94 f5bd ad2e 74be 9748 25bd 161d 193e
00000110: e67a 6dbe e8e5 18bc ed7d 683e 3fad 9d3e
00000120: 0b9c b23a 8c2d 0dbe 0e14 08be d045 b03d
00000130: 72e3 78be f694 18bd 19e5 d3bc a6b7 28be
00000140: 6e7a e53b d733 5f3e 58f6 afbc 44aa 85ba
00000150: 787a ecbd 4612 b73b 592c f3be 2cd9 803d
00000160: 0fc4 083e 05a6 a03b fcb8 04be 5a51 6cbd
00000170: 082f b53d 18a2 643e 67ca 0f3f 8dea 8a3d
00000180: ee7d 463e 45e9 98bd 7d92 8dbe e5f8 67be
00000190: d264 3b3d 8d0f 243d b451 3f3d 9fc3 643a
000001a0: edeb 2b3e 785e 85be ff31 debd d6a5 b83d
000001b0: e254 93bb 098b 26bc 4309 383e 017e 6f3f
000001c0: ae9b c1bc b990 8cbc 7c05 63bc 61eb 83bd
000001d0: f0fb f5be 6d58 23be 92a8 f7bd dc5e b7bd
000001e0: f707 173d b854 7a3d 49b3 8d3d 59e4 07bd
000001f0: b837 9abd 8ef4 03bd 4bcd 26bd 7831 08bd
00000200: 1d86 4dbd a3d2 3e3e eb6f 253e baae 80bd
00000210: b2c5 603d 030a 98bc 69f7 ecbd b168 b5bd
00000220: 8c3e 263d 712f b3be c105 1bbf 33ac 02bd
00000230: f40f 3e3c beea 2dbe 23a4 58bd 0479 e1be
00000240: a77e d53e 5d2b 04bf 2ce0 8a3d 11ce 4cbe
00000250: e3fb e3bd 93e7 e53d 9be1 59bc 87e0 983d
00000260: 61e4 69bd 4859 e63c adcd f83c a214 ec3d
00000270: ab9e a4bc 3181 18be 6db4 1d3d 53d7 573c
00000280: 7007 633e 2fdf 2bbd 2ff6 83be 85dd 563e
00000290: aefc 9ebd ad06 673d 9d14 b73e 866d 7e3f
000002a0: 00d7 1b3d a43e a4bd 88a4 a83c 62ff dd3d
000002b0: 48ee a5bd 0a5a 22bf c665 d03d 06da 2d3e
000002c0: d9e8 f53c f44a ecbb c12e adbb 75d7 b7be
000002d0: 9a76 393a 7bce 623d dfad d43d a0e4 dcbc
000002e0: 3d17 a8be 3250 bebe 001c 54bc b09f 0fbc
000002f0: 6a1c 23be c0f8 6cbd a562 273e 47ab 63be
00000300: 5290 313b 9f43 91bd 0617 18be 2c76 9abd
00000310: 89ea d63d 1ed8 47bd 6405 25bd 4ae4 9f3d
00000320: b1b1 9dbd 2e98 9bbd edeb 333e 3a51 8abd
00000330: 0575 cb3d ca35 02bc 126c 2c3c 343d 10bd
00000340: 2c1a b13c 1df4 c53d 0dac 8d3c 18ec e03d
00000350: 968e 623e 71a6 463d 51b9 01be 1df6 87bc
00000360: 936f b43c dc88 c3be 1f78 4dbb 6499 2e3e
00000370: 998f 12be c942 113e 0cf1 d83c dc09 0e3e
00000380: 827e 873c 3ccc 34bd d483 d63d dad7 563d
00000390: 3dd6 45be b6f6 2b3d 70fa 26be f7e1 9e3e
000003a0: 86de 12bf 9972 18bd 83e5 d3bd 96b8 8a3d
000003b0: 25ce 05be 78f5 babd 1311 7f3e cd99 643e
000003c0: eea6 66bd 47a2 8b3d 28b1 f5bb 6b5c 873d
000003d0: 1172 e6bc 135e 14bf b4df 9fbe d3e7 9f3d
000003e0: c5bc 60bd 1572 8a3d d9c1 ba3d cbd2 51be
000003f0: 1dee 2a3e 8336 5f3e e737 63bd 7450 463e

_impl.layers.2.linear.weight_g f4 [256, 1]
-0.00017279018 0.32684577 0.007948675 1.1061157 0.9334608 0.26165432 1.4238659 0.7859184
0.76867366 1.0968516 1.070253 0.000560217 0.9021393 0.0060466374 1.1206923 0.48838228
1.0880308 1.0447545 0.6579625 1.1557388 0.7514702 0.3666524 0.24953751 1.0448035
0.20962259 1.0225166 1.200828 1.0346854 0.5775749 0.9126981 0.6304253 0.014813126
0.94272727 0.92781425 0.92240995 0.97889477 0.9734429 0.689858 0.85683614 0.8884005
0.15312128 1.1395347 0.94097185 1.2220049 0.74914753 1.1366539 -0.0009857814 0.66337824
4.462136e-05 0.7132812 0.6784269 0.2127303 0.9466972 1.0769067 0.92135084 1.2271404
0.87985265 0.9202212 0.92741936 0.553346 0.036730032 0.053347003 1.0869206 1.0406096
0.36572614 1.0758964 0.8668534 0.76820225 0.5425441 1.1375855 0.86745524 1.1874877
1.2562739 0.95658934 1.2032982 0.48730838 0.9767263 0.7626758 0.9958038 0.56928456
0.9548851 0.42496815 0.26736388 0.49926904 0.6222647 0.22825935 0.93527216 0.25157258
0.8321476 0.7193364 0.7537912 0.9580375 0.08617382 0.49917096 1.1050317 1.0022373
1.0334135 0.48364633 0.9306455 0.9408244 0.616179 0.96956587 0.53352123 1.1205645
0.9223921 0.7174602 1.0328889 0.00037573866 -0.00049220776 1.0873276 0.10249255 0.876893
0.016699636 1.0987754 0.8653258 1.2381629 0.15319651 0.5253196 0.08851369 1.0865278
0.63360405 0.93042827 0.42575634 0.7239043 0.9520053 1.290457 0.7280634 0.85174394
0.9795396 1.319896 1.0667386 0.6574837 1.0494938 0.985967 1.1904473 0.7180985
0.9380438 1.135382 0.68709964 0.84758544 0.7353639 0.02374614 0.9160342 0.9598783
0.89625406 0.8763929 0.86637795 0.76574534 0.00042905254 0.00054558273 1.074651 0.83603656
1.234654 1.0809059 0.92061746 0.9494855 1.2151936 0.83991164 0.22859804 0.48184144
0.06312313 -0.00048635268 1.079241 1.0505059 0.7028571 0.770105 0.0045817373 1.0165055
0.9520609 0.19081734 1.2903037 -1.8258557e-05 0.91706085 0.7179811 0.99908644 0.6290624
0.16559897 0.689609 1.0386983 0.750885 0.26152694 0.8543415 1.2278048 1.1653465
0.89509046 1.0185425 1.1133683 0.92091775 1.48059 1.0655192 0.67991334 0.83805054
0.98781323 0.5554447 -0.0010000919 -0.00017432249 0.9618988 0.88168555 0.6994218 0.053962518
0.9750406 0.94835395 0.65750974 1.0002837 1.0323892 0.6085665 -0.00047143231 0.90031576
0.16602129 0.4993077 0.041867748 0.4657885 0.76626575 0.72981143 1.0209012 0.87478423
0.90588254 0.93402255 0.48499584 0.00029404773 -0.0006165903 1.0859908 0.904965 1.1381154
0.78335065 0.027813792 0.99124646 0.89981365 0.4735617 0.8879762 0.9814512 0.96716446
0.9155842 0.4791837 1.0862703 1.5269425 0.7289399 0.97370577 1.0314255 1.1167014
0.67120504 0.95551014 1.0983403 1.1260074 0.5727668 0.80190104 0.9648105 0.599342
0.7035926 0.8565592 1.0497357 1.1550959 1.066245 6.795812e-05 0.017539324 0.9622613
00000000: 032f 35b9 5458 a73e 293b 023c 3395 8d3f
00000010: 49f7 6e3f 8ef7 853e 3d41 b63f f331 493f
00000020: ccc7 443f a265 8c3f 0dfe 883f 87db 123a
00000030: 9af2 663f df22 c63b d872 8f3f 3e0d fa3e
00000040: 9844 8b3f 84ba 853f 3b70 283f 40ef 933f
00000050: 5a60 403f ddb9 bb3e c386 7f3e 1fbc 853f
00000060: 4ea7 563e d3e1 823f bbb4 993f 9270 843f
00000070: f3db 133f 95a6 693f 8d63 213f c1b2 723c
00000080: 9356 713f 3c85 6d3f 0f23 6c3f d998 7a3f
00000090: 8e33 793f 899a 303f 9d59 5b3f 376e 633f
000000a0: d3cb 1c3e 46dc 913f 88e3 703f a86a 9c3f
000000b0: 22c8 3f3f e07d 913f 5635 81ba 28d3 293f
000000c0: d227 3b38 9999 363f 63ad 2d3f f9d5 593e
000000d0: bf5a 723f 14d8 893f a6dd 6b3f f012 9d3f
000000e0: 063e 613f 9e93 6b3f 5b6b 6d3f 15a8 0d3f
000000f0: 3b72 163d 6382 5a3d 3720 8b3f b232 853f
00000100: 7540 bb3e f9b6 893f 1bea 5d3f e7a8 443f
00000110: 2ce4 0a3f 679c 913f 8c11 5e3f 99ff 973f
00000120: 95cd a03f 0ae3 743f ad05 9a3f 7c80 f93e
00000130: bc0a 7a3f b93e 433f ffec 7e3f a2bc 113f
00000140: 5a73 743f 6d95 d93e ebe3 883e 31a0 ff3e
00000150: bd4c 1f3f d2bc 693e ff6d 6f3f 1fce 803e
00000160: a007 553f 6e26 383f 76f8 403f f241 753f
00000170: e67b b03d 5693 ff3e ae71 8d3f 5049 803f
00000180: e546 843f 7ea0 f73e c93e 6e3f ded9 703f
00000190: e8bd 1d3f 7835 783f d994 083f a86e 8f3f
000001a0: e321 6c3f 79ab 373f b435 843f cafe c439
000001b0: 8107 01ba 8d2d 8b3f 9de7 d13d 0f7c 603f
000001c0: adcd 883c aca4 8c3f fe85 5d3f 1f7c 9e3f
000001d0: 8cdf 1c3e 587b 063f aa46 b53d 5813 8b3f
000001e0: e033 223f 8c30 6e3f bcfc d93e cb51 393f
000001f0: 9fb6 733f b22d a53f 5d62 3a3f e40b 5a3f
00000200: 1bc3 7a3f 5af2 a83f e48a 883f da50 283f
00000210: d055 863f 5568 7c3f 9460 983f 4ed5 373f
00000220: a323 703f 3354 913f c3e5 2f3f 5cfb 583f
00000230: cf40 3c3f 4487 c23c 3881 6a3f 96ba 753f
00000240: e870 653f 495b 603f f2ca 5d3f e307 443f
00000250: 75f2 e039 7005 0f3a 2a8e 893f 7e06 563f
00000260: 2409 9e3f 205b 8a3f 96ad 6b3f 7b11 733f
00000270: 778b 9b3f 7304 573f 9b15 6a3e ecb3 f63e
00000280: b346 813d 27fd feb9 9224 8a3f fa76 863f
00000290: 71ee 333f 9a25 453f 6622 963b da1c 823f
000002a0: 43ba 733f 9f65 433e ac28 a53f f429 99b7
000002b0: 80c4 6a3f 9ccd 373f 21c4 7f3f 3c0a 213f
000002c0: c792 293e 378a 303f 11f4 843f 003a 403f
000002d0: dce6 853e 20b6 5a3f b528 9d3f 132a 953f
000002e0: a624 653f 9a5f 823f da82 8e3f 44c1 6b3f
000002f0: f983 bd3f ef62 883f cd0e 2e3f 7b8a 563f
00000300: 54e1 7c3f a031 0e3f 8415 83ba 56ca 36b9
00000310: 003f 763f 25b6 613f 4f0d 333f cd07 5d3d
00000320: 439c 793f 53c7 723f 8f52 283f 4c09 803f
00000330: 5425 843f 04cb 1b3f 932a f7b9 187b 663f
00000340: 7c01 2a3e 42a5 ff3e 847d 2b3d d57b ee3e
00000350: fe29 443f ecd4 3a3f e4ac 823f dcf1 5f3f
00000360: ebe7 673f 1a1c 6f3f 6051 f83e 6b2a 9a39
00000370: ada2 21ba bf01 8b3f c9ab 673f c4ad 913f
00000380: ab89 483f c0d9 e33c 54c2 7d3f 305a 663f
00000390: ae76 f23e 6952 633f 6340 7b3f 1798 773f
000003a0: ba63 6a3f 9157 f53e e80a 8b3f da72 c33f
000003b0: ce9b 3a3f c844 793f c005 843f 12f0 8e3f
000003c0: 18d4 2b3f 509c 743f 6a96 8c3f 0321 903f
000003d0: d8a0 123f 6349 4d3f d2fd 763f 7a6e 193f
000003e0: a51e 343f 7747 5b3f bd5d 863f 2fda 933f
000003f0: b77a 883f bd84 8e38 a1ae 8f3c c256 763f
