heat_eq_2d/outputs/silu_interior_4000_arch_256x4/heat_network.0.pth (torch, 803434 bytes, 13 tensors)

_impl.layers.0.linear.weight f4 [256, 2]
00000000: a9b9 70bf 1471 ba3b 30c5 0e3c 5cb8 67bf
00000010: 1188 a73a 03da c640 3130 f53c 5928 a33e
00000020: 80b9 ff3c 7d6a ee3e e283 b43d 153b 83be
00000030: d99a 2f3c dbb7 b7bf 2a8f afbe 19e0 323d
00000040: e0b2 d83f 4c1f f6bb bd21 d5be dd6d 8abc
00000050: 8579 b5be 8123 adbc affe 2d3b 634a 88c0
00000060: 74c3 8140 e8f8 9dbb 59a4 2a3a 605e 78c0
00000070: 98fc a8bb e873 4fbf f92c a13c ba76 dbbe
00000080: 8b27 18bf ceda 3dbc eef5 2e3d 77ac 633f
00000090: a782 18bf e69b 20bc aa2a 1cbb 6f10 c53f
000000a0: b1d7 f4bc 09dd 89be 502e 78be 373f 593d
000000b0: 0397 523b 331f 8740 0caa 9ebd ae85 953e
000000c0: 176f d3be 3552 6f3c 8616 a1ba eb28 c3bf
000000d0: e22f 0ebf ff01 3e3c 37ca afbf b914 3bbb
000000e0: 3853 3bbb c06d 913f db87 e53b bf04 613f
000000f0: f38c a3bd 84c3 38be 2857 5abc 847a 993f
00000100: ad49 93bf bbdc 753b 6a6d 363f 0b1e df3b
00000110: ed80 d93a 4eab 6bc0 cc6f 97be 0763 963c
00000120: 8b4d 39c1 87ca 31ba 1979 48c0 d503 93ba
00000130: 5d6f a6bf bbf1 3b3b 030e b33b fc3b 74bf
00000140: 1f63 133d 3b32 5dbf e0ef a53c 8392 d5be
00000150: a575 053d 6483 7e3f 26fa 7cbf fb73 ccbb
00000160: f95d 353b f347 8140 227e babe d4d3 a5bc
00000170: 2ce4 1bbc 99d0 e53e c6d8 9736 dc4b b440
00000180: 0f80 b7ba 35b9 dabf 800a 50bb 2ee7 06bf
00000190: dc4d 87be 5bf0 7e3d 6180 3d3b 437b bbbf
000001a0: 4de6 da3f ec83 1cbc a08e a2bf 0485 5ebb
000001b0: 5cb5 26c0 3734 b1ba 259e 3fbd 7eda 683e
000001c0: 3ee7 c73b 664b 52bf 1367 a8be 42df 073d
000001d0: 714b a140 6075 b3bb 1a1f 2a3d da1b 7f3f
000001e0: 5b23 66be 3c93 203d 4d89 d93c c3ab d53e
000001f0: d588 12bf d3a5 f5bb dd84 5cbf 5f21 d13b
00000200: 6fe9 aa3f e65a f5bb c3c1 33c1 e3b4 47ba
00000210: 9fb0 7cbb 781a 283f 4e79 27c0 35e7 053b
00000220: 31fd 88bf 8a5c 87bb 2483 8cbf 3df6 713b
00000230: 743c 2b3b 0c6b 1fc1 fb8c ca3c 1971 db3e
00000240: f963 0040 be66 42bb 8b74 dd38 8ae0 88c0
00000250: cbfc bebe fae7 dcbc 3c08 01bf f35c 343c
00000260: 6e6b a9be 0248 05bd 715f 99bf 47f0 6bbb
00000270: 196f 203c 1f95 34bf 9072 0cc0 f372 12bb
00000280: 0e88 073c 1863 38bf 7472 9bbc c88c ad3e
00000290: 85bc a43f 7b7b ae3b 3795 b03c 26cd e13e
000002a0: f34e c33c 14e5 d0be 5793 263d fadc 9fbe
000002b0: f693 70bf 0a2a e1bb 0565 aec0 5ec1 3cbb
000002c0: 84e9 323c a95b 07c0 62e0 523f 16e5 bdbb
000002d0: f887 9cc0 af5d 60ba fde8 0040 363a 023b
000002e0: 4599 4fc0 5a1f 37ba 8733 ebbe 6ce7 833c
000002f0: 4765 0ebf 846e 2d3c 6761 9d3b f8f9 7940
00000300: a674 093b 74d0 0dc1 bd3e 5eba a3fb 6bc0
00000310: 2627 9d3f ad12 73bb 05b9 abbf 6ba3 50bb
00000320: 6ec6 36c0 5496 593a b6d4 a23f e0bd debb
00000330: 78ad ab3b d130 dcbf 97ab 66bd db48 403e
00000340: 8f17 923f 4999 f0bb 5734 cebf 05aa 573b
00000350: 6880 9aba daae a23f 112a ecbc 04de a4be
00000360: 467e 403d e495 653f 996a 16ba 8637 b240
00000370: 0749 d240 7b05 ceba 7369 193c 3ad5 1f3f
00000380: ebe9 e1bf 0f0b 0abb 53bf 0940 b43d 643a
00000390: eaff b5be 056b 05bd 1676 9dbd 7ea8 52be
000003a0: 22e8 a03c e2f5 20bf 3a04 8f40 1f1d f139
000003b0: 0b56 d3bc 2dfb a4be 30a2 38bd 4120 843e
000003c0: 8c06 fdbe a466 42bc 2e51 93be cba5 60bd
000003d0: 2b14 4fbf 9882 ebbb 1273 28bf 9df5 203c
000003e0: 96f9 1c3b 3141 0441 9a67 60ba d458 c2bf
000003f0: 1d2b 4dbf 4999 fe3b 37b4 e1b9 f019 3940
-0.94033295 0.0056897495 0.008714005 -0.90515685 0.001278164 6.2141128 0.029930206 0.3186672
0.031216383 0.4656562 0.08814217 -0.25631014 0.010718071 -1.4352983 -0.34288913 0.043670747
1.6929588 -0.007511055 -0.41627303 -0.01689809 -0.35444275 -0.021135094 0.0026549508 -4.2590804
4.055109 -0.0048209317 0.0006509475 -3.8807602 -0.0051570646 -0.81036234 0.019674765 -0.4286402
-0.5943534 -0.011587812 0.042715006 0.88935035 -0.5957436 -0.009802794 -0.002382914 1.539564
-0.029888006 -0.2692645 -0.24236417 0.053038802 0.0032133467 4.2225585 -0.077472776 0.29203552
-0.41295692 0.014607002 -0.0012290038 -1.5246862 -0.55541813 0.011597156 -1.3733586 -0.0028546287
-0.0028583538 1.1361618 0.0070047206 0.87897867 -0.07985868 -0.18043333 -0.013326444 1.1990514
-1.1506859 0.0037515599 0.712607 0.0068090013 0.0016594209 -3.6823306 -0.29577482 0.018357767
-11.581431 -0.0006782193 -3.1323912 -0.0011216352 -1.3002735 0.0028678018 0.005464317 -0.9540403
0.0359832 -0.8640477 0.020255983 -0.41713342 0.032582898 0.99419236 -0.98819196 -0.006239412
0.002767442 4.040033 -0.36424357 -0.02024261 -0.00951485 0.4488571 4.5253864e-06 5.63426
-0.0013999956 -1.7087771 -0.003174454 -0.526965 -0.2642659 0.06224094 0.002891563 -1.4646991
1.7101532 -0.009552937 -1.2699776 -0.0033953795 -2.6048193 -0.001351959 -0.046781678 0.22739598
0.0061005643 -0.821463 -0.3289114 0.0331719 5.040459 -0.0054766387 0.041533567 0.99651873
-0.22474425 0.039202914 0.026554728 0.41732606 -0.5724004 -0.0074965744 -0.86140233 0.006382152
1.3352488 -0.0074876426 -11.234805 -0.0007618202 -0.0038557423 0.6566539 -2.6167789 0.0020432
-1.0702268 -0.0041309046 -1.0977521 0.003692045 0.0026128562 -9.9636345 0.024725428 0.42859724
2.0061018 -0.002966329 0.00010559809 -4.2774096 -0.3730224 -0.026966084 -0.5040319 0.011008489
-0.33089775 -0.032539375 -1.1982251 -0.003600137 0.009792113 -0.7054004 -2.1944923 -0.0022346347
0.008272184 -0.72026205 -0.018975474 0.3389647 1.2870032 0.0053247786 0.021555526 0.44101828
0.023841357 -0.40799773 0.040667858 -0.3122328 -0.9397577 -0.0068714665 -5.4498315 -0.002880178
0.010919932 -2.1149695 0.8237363 -0.0057951314 -4.8915977 -0.0008558882 2.0142205 0.0019871122
-3.2437298 -0.0006985568 -0.4593775 0.016101561 -0.55623287 0.010585431 0.004802871 3.905882
0.002097407 -8.863392 -0.00084779767 -3.6872337 1.2277572 -0.003708999 -1.3415838 -0.0031835686
-2.8558612 0.00083002937 1.2721164 -0.006797537 0.005239185 -1.7202398 -0.056315985 0.18777792
1.141344 -0.0073424918 -1.6109723 0.0032907736 -0.0011787536 1.270961 -0.028828653 -0.32200634
0.046995424 0.8968184 -0.000573793 5.569278 6.5714145 -0.0015718186 0.00936352 0.6243473
-1.7649511 -0.002106372 2.1523025 0.0008706704 -0.3554681 -0.032572765 -0.07688539 -0.20572087
0.01964194 -0.6287519 4.469266 0.000459888 -0.025797864 -0.32222882 -0.04507655 0.25805858
-0.49419057 -0.011865292 -0.28772873 -0.054845612 -0.8089015 -0.007187199 -0.65800583 0.009824184
0.0023952476 8.265916 -0.000856036 -1.5183358 -0.8014391 0.007769738 -0.00043049615 2.892208

_impl.layers.0.linear.weight_g f4 [256, 1]
00000000: 7312 923f 8e9a a53f 2545 a63f ba7a 833f
00000010: be52 9e3f e9fb 773f 0992 a63f ae10 933f
00000020: afbf 763f 1aa7 873f 4a2e 913f b222 a13f
00000030: 7ea3 993f 570e a13f a0c1 9d3f ba35 a23f
00000040: ffbe 913f 2723 8e3f 96c6 983f b8f6 973f
00000050: 29f7 963f ecc0 7e3f 6184 a23f b0eb 713f
00000060: 3877 a03f cfb7 a03f 4362 8f3f d8d3 9e3f
00000070: d39a 9d3f 46fa a63f 9d75 933f 3768 983f
00000080: 96d7 903f c5e4 283f da26 9e3f 5c04 8b3f
00000090: 9670 973f 6f9c 9a3f 48e5 8c3f cb29 a33f
000000a0: dc3b 8b3f 0e9e a13f 332e 9a3f 2833 903f
000000b0: 01ae a23f 0638 9c3f ebd0 9a3f a00f a33f
000000c0: 671d 9f3f a458 923f 926e 843f e819 a33f
000000d0: 9306 953f 699b 9b3f dcac 983f db22 923f
000000e0: 134b a53f 9aa0 8c3f b201 bf3f 65b2 a13f
000000f0: 4861 623f 7845 a13f 3d4f 933f 3079 943f
00000100: 79d4 aa3f 7267 903f 4965 9a3f 81c3 973f
00000110: 3612 953f ec6d 923f 8c00 a73f 0258 9a3f
00000120: a384 6f3f 3cd8 a33f 8279 943f 4408 903f
00000130: 5064 9e3f 209c 973f df2a a43f f9c3 973f
00000140: 35f9 a03f cae3 993f 9d99 303f 31c1 9a3f
00000150: a522 993f 4736 923f c215 913f 1b54 913f
00000160: 51ad 9e3f b46b 663f 2722 993f 6ac4 8c3f
00000170: c9d6 973f fc66 9f3f e079 993f 9523 a73f
00000180: 0460 a13f 7780 a23f 3cbe 793f 2e59 9a3f
00000190: 9694 893f 1cfd 7b3f fe85 973f 2355 933f
000001a0: ca5e 8a3f d855 983f 3f7e 9f3f c781 873f
000001b0: 106b 923f 9fb8 973f a414 7d3f 2fa0 a33f
000001c0: 2565 983f 1964 473f cb4d 8b3f 3890 913f
000001d0: 1e47 ab3f fd73 b83f cc35 943f cd6b 923f
000001e0: 8fa0 913f 3d51 9c3f 9da0 943f af72 9e3f
000001f0: 8607 a63f 20a9 9f3f bb6d a23f 3729 a33f
00000200: 3729 a73f 6608 a53f 7a4b 943f dfb1 a43f
00000210: 8c41 a33f 1a0b 913f 7b13 9e3f a787 4d3f
00000220: d223 9b3f af28 8e3f 9875 8e3f 7c54 a23f
00000230: b4b0 983f 1720 a33f 30aa 973f a60a 963f
00000240: a5b0 9d3f 8f52 893f f099 923f a333 893f
00000250: 7fc3 9b3f f193 583f a4f3 893f edc9 9a3f
00000260: aceb 9d3f 1ad4 673f 74ac 783f ce39 a93f
00000270: be53 933f faa6 823f 5e3f a03f 9164 9d3f
00000280: 1f9d 933f 3b93 a53f 1a3d 923f 103a 8f3f
00000290: 9eb3 923f 3817 893f 7ad3 963f 8aa2 953f
000002a0: df2c 893f 7ea9 9b3f eab8 2c3f 249d 9d3f
000002b0: e759 a73f 2f83 983f 8e09 963f 443f 913f
000002c0: 87de a13f cc57 b73f 6485 a03f 6461 423f
000002d0: 1617 963f 8720 a13f 3ff3 ad3f 7f43 a13f
000002e0: fb20 9e3f e808 9b3f fe6b a13f e19c bd3f
000002f0: 9c19 7d3f 2789 923f 6752 813f 4aba 903f
00000300: 7d5a 9c3f c62f b33f 52d2 9b3f 898a a23f
00000310: a0ab 3b3f 57ae 9b3f e971 9c3f e2d9 8f3f
00000320: 7575 973f 2023 953f 63d8 8f3f a49e 963f
00000330: 024a 9e3f 280d 993f 0e85 7d3f 60a6 a33f
00000340: 39d1 9e3f 2a71 953f d9c5 9a3f ed52 9a3f
00000350: 4e1b 943f e821 a73f a6c5 9d3f d2bc a33f
00000360: ac22 a23f e51b a73f 5d35 923f 78d5 8d3f
00000370: c877 9d3f 3246 793f c15b 6b3f 9559 963f
00000380: 183c a53f 0259 973f 7d20 a53f c130 9a3f
00000390: 6c0c 963f 43c9 a13f baf5 853f 23fa 873f
000003a0: e48c 983f 2f94 9e3f a2df 9f3f b005 9b3f
000003b0: e677 993f 4284 993f e612 943f 1f5d 903f
000003c0: e20e 913f 4261 973f d330 9e3f b81c 953f
000003d0: 2917 6e3f 4a12 a53f 92fe a03f b115 a03f
000003e0: 3c6f 913f 7d41 a33f d0cb 853f 4f52 963f
000003f0: b2af a43f c0c5 903f 464d 953f 0cb8 9e3f
1.141188 1.2937791 1.2989851 1.0271828 1.2369001 0.9686876 1.3013316 1.1489465
0.96386236 1.059787 1.1342251 1.2588713 1.2003019 1.2582501 1.2324715 1.2672646
1.1386412 1.1104478 1.1935604 1.1872168 1.1794177 0.99513125 1.2696649 0.94500256
1.2536383 1.2556094 1.1201862 1.24084 1.2312874 1.3045127 1.1520268 1.1906804
1.1315792 0.65974075 1.2355607 1.0860705 1.1831234 1.207899 1.1007471 1.2747129
1.0877643 1.262636 1.2045349 1.1265612 1.2709352 1.2204597 1.2095007 1.2739143
1.2430848 1.1433301 1.0346243 1.2742281 1.1642631 1.2156802 1.1927752 1.1416887
1.2913536 1.0986512 1.4922392 1.2632567 0.8842969 1.2599325 1.1508557 1.1599483
1.3346092 1.1281569 1.206216 1.1856538 1.1646183 1.1439795 1.3047042 1.2058108
0.9356176 1.2800364 1.1599581 1.1252522 1.2374363 1.184452 1.2825583 1.1856681
1.2576052 1.2022641 0.68984395 1.2090207 1.1963698 1.1422814 1.1334765 1.1353792
1.2396642 0.9000809 1.1963547 1.0997441 1.1862422 1.2453303 1.1990318 1.3057734
1.2607427 1.2695454 0.975559 1.2058465 1.074847 0.9843309 1.1837766 1.1510357
1.0810177 1.1901197 1.2460402 1.058648 1.1438923 1.1853217 0.9885962 1.2783259
1.1905867 0.7788711 1.0883116 1.1372137 1.3381078 1.4410397 1.1578918 1.1439148
1.1377124 1.2212292 1.1611515 1.2378749 1.2971046 1.2473488 1.2689737 1.2746953
1.3059453 1.2893188 1.1585534 1.2866782 1.2754378 1.1331513 1.2349695 0.80285114
1.2120306 1.1106166 1.1129637 1.2682033 1.1928926 1.2744168 1.1848812 1.1722
1.2319533 1.072832 1.1453228 1.0718883 1.2169036 0.8460074 1.0777478 1.2092873
1.2337546 0.90558016 0.9713814 1.3220766 1.1509931 1.0207207 1.2519338 1.2296315
1.1532325 1.2935556 1.1424897 1.1189594 1.1461065 1.0710211 1.1783288 1.1690228
1.0716819 1.21611 0.67469656 1.231358 1.3074311 1.1915034 1.1721666 1.1347432
1.2646035 1.4323668 1.2540708 0.75929856 1.1725795 1.2588052 1.3589858 1.2598723
1.2353815 1.2112093 1.2611082 1.4813501 0.988672 1.1448106 1.0103272 1.1306851
1.2215115 1.3998954 1.217356 1.2698528 0.73308754 1.2162579 1.2222263 1.1238368
1.183272 1.1651344 1.1237911 1.1767163 1.2366335 1.195714 0.9903115 1.2785149
1.24076 1.167516 1.2091628 1.2056557 1.1570833 1.3057222 1.2325943 1.2791998
1.2666831 1.3055388 1.1422535 1.108077 1.2302179 0.97372735 0.9193688 1.1746088
1.2908964 1.1824038 1.290054 1.2046129 1.1722541 1.2639545 1.0465615 1.0623211
1.1917996 1.2388972 1.2490122 1.2111111 1.1989715 1.1993487 1.1568267 1.1278418
1.1332667 1.1826556 1.235865 1.1649389 0.9300409 1.2896206 1.2577689 1.250662
1.1362071 1.275436 1.0452824 1.1743869 1.2866118 1.1310349 1.1664207 1.2399917

_impl.layers.0.linear.bias f4 [256]
00000000: 428a d0be b642 19be a771 44be cd24 98bd
00000010: 46dd ac3d 19f6 f13e 6d23 08be 2092 f1be
00000020: d6c0 223e 80a6 5cbe 13c7 cbbe dbc4 41be
00000030: d71b 50be fe82 44be f65d 83be 5fb2 36be
00000040: a629 80be b7ec 8d3e 0085 b1be 018d d6be
00000050: bad6 82be 6265 b3be ec17 35be 0960 8cbd
00000060: 209f d5be f6db 65be 4e64 82be d3b0 e2be
00000070: 0d58 70be 092e 43be f874 bdbe 0864 d6be
00000080: 5ad8 94be e44f 6a3e 9932 27be 4b14 f9be
00000090: 5062 9dbe 0853 b3be 981b 81be 82ed 50be
000000a0: d9e4 943e 96d3 20be a74b 103e 96d8 6fbe
000000b0: 0d06 1bbe 417b c2be d7c5 69be ee9b 4ebe
000000c0: 2514 78be 6eed 443d 1821 b5be 2b3d 66be
000000d0: 593c f2bb 4f5e bebe a656 a8be e479 c4be
000000e0: 65cf 48be a6df abbe 72b2 06bf 76b4 783e
000000f0: 7835 a9be 7941 13be 26fa e7be 2d6d b2be
00000100: b437 97be d6dc 53be ade4 5ebe d4f2 aebe
00000110: 14cc b2be b123 8cbe e763 58be 22dc b3bc
00000120: dc47 f53e a3d4 56be a443 abbe 30e1 a6be
00000130: 8590 c8be 8b07 a9be 65e7 22be 336b 94be
00000140: 6ebf 3fbe 6eb8 86be 4144 27bd 3cf7 17be
00000150: b18a 5abe e617 8ebd 1191 71be 7d36 34be
00000160: 4cea 47bc a2f4 2a3f 3898 afbe 9efa 60be
00000170: ccef b5be e662 07bf ef6e d9be 0c6c 36be
00000180: 237b 48be 0bf6 7cbe 7f37 293f 4c8b b4be
00000190: 8128 69be 3ee1 f43d 7fa6 003d f1b6 d1be
000001a0: c71b 29be d466 a9be 47d7 4fbe 7267 e53d
000001b0: 943c 943e c82b 82be 58f2 683f 6612 52be
000001c0: 2eaf adbe 74e4 bb3e 6240 3bbe dbff aebe
000001d0: 0e95 cdbc cd72 eabe 44a2 7ebe 163e 95be
000001e0: 0fe6 8cbe 2958 e1be 8c7a 8dbe 39c2 07bf
000001f0: 5eb5 33be 8f4e 55be 8e7d fcbe 3525 55be
00000200: b794 2abe 1e5d 50be bc32 97be 8573 42be
00000210: 0c46 cdbd edf2 783e 558b 8abe 665a 75be
00000220: 6608 6bbe 0d16 c5be 7485 b1be 042d 5bbe
00000230: 0f58 cdbe f4ca 07bf 5e3b dcbe 9d82 bcbe
00000240: 678c 8cbe 6b07 2cbe 8935 aebe 2dc0 eabd
00000250: 25ed 543e 5edd e53e 9824 81be 4d4c 01bf
00000260: cf83 21be d5c3 f73e 631f 063f 10d4 f3bd
00000270: f632 2b3e 05ac 433b 4295 e1be 82b2 f7be
00000280: 8563 eebe d375 60be 6de9 ccbe 0829 1fbd
00000290: 905b a3be 12d7 033f 0529 02bf 324b 6cbe
000002a0: 9de1 d7be af42 dcbe e868 db3e 7d0e 44be
000002b0: e2ae dfbd 417c b3be 62f6 99be b872 59be
000002c0: 50fd 23be 1171 ddbe b1be f1be 6934 f53e
000002d0: 7382 9ebe b3e2 5fbe 1354 b5be 8d68 2abe
000002e0: 077c c5bd 7b3c 74be 7b01 4cbe 78bc efbe
000002f0: d7fb 3d3f 3544 c2be 0b1d fd3e e204 60be
00000300: 2916 0c3e 3a81 e9be 8838 acbe 486b 55be
00000310: 840a bd3e 817a 893d ae9b babe 6779 c5be
00000320: 9e05 c1be 1355 b4be 6767 8abe bb70 c8be
00000330: 5eef 4fb9 7711 3ebe 4958 013f a306 33be
00000340: 351a 6fbd 1756 e7be 7e16 c4be 189d d9bc
00000350: 8079 a8be f5f4 ecbe b4ba 50be 7ed4 c2bc
00000360: c72b 41be 1a86 34be 366b 5dbe a8de adbe
00000370: bcca a0be 6ef0 093f d18e 053f 0324 9dbe
00000380: 9969 5d3c 4601 bfbe 2f56 3bbe e8b1 04bf
00000390: 9b09 77be c491 6bbe 212b 09bf 7615 04bf
000003a0: b075 c6be 538b b5bd 3bab 50be 4a38 fdbe
000003b0: efde a9be f21a dbbe 60d1 b5be 81d4 803e
000003c0: aafc 6bbe cc05 f8be 485e ddbe 8e9f b5be
000003d0: 2e70 8f3e 7024 2bbe 2608 fabe b2bf 86be
000003e0: 0fe8 b4be d9c6 fdbe e66d b1be 0138 9bbe
000003f0: 2a61 053e 7fff 9bbe a33a d9be eb8b 78be
-0.40730482 -0.14966854 -0.1918398 -0.07428894 0.08440642 0.4725807 -0.13294764 -0.47181797
0.15893874 -0.2154789 -0.3980032 -0.1892275 -0.2032312 -0.19190595 -0.25657624 -0.1784148
-0.25031775 0.27719662 -0.34671783 -0.41904452 -0.25554448 -0.35038286 -0.17684907 -0.06854255
-0.41722965 -0.2244719 -0.2546715 -0.4427553 -0.23471089 -0.1906053 -0.37003303 -0.41873193
-0.29071313 0.22882038 -0.16327895 -0.48648295 -0.3073907 -0.35024285 -0.25216365 -0.20403102
0.29080847 -0.15705714 0.14091359 -0.23422465 -0.15139027 -0.3798466 -0.22829376 -0.2017667
-0.24226435 0.048077993 -0.3537681 -0.22484271 -0.007392448 -0.37181327 -0.32878608 -0.38374245
-0.19610365 -0.33569068 -0.52616036 0.2428759 -0.33048606 -0.14380445 -0.45308036 -0.3484892
-0.29534686 -0.20689711 -0.2176692 -0.34169638 -0.34921324 -0.2737098 -0.2113186 -0.021955553
0.47906387 -0.20979552 -0.33450043 -0.3259368 -0.3917276 -0.33013567 -0.15908583 -0.28988037
-0.18725368 -0.26312584 -0.040836576 -0.14840406 -0.21341969 -0.06938152 -0.23590495 -0.1759891
-0.012201857 0.6677953 -0.3429582 -0.21970603 -0.35534513 -0.5288528 -0.42467448 -0.17814654
-0.19578223 -0.24703233 0.66100305 -0.35262525 -0.22769357 0.11957024 0.031408783 -0.40959886
-0.16514502 -0.33086264 -0.20296966 0.11201371 0.28952467 -0.25424027 0.9099479 -0.20514831
-0.33922714 0.36697733 -0.18286279 -0.34179577 -0.025095489 -0.4579071 -0.24866587 -0.2914893
-0.2751927 -0.44012573 -0.27632558 -0.53030735 -0.17549655 -0.20830749 -0.4931454 -0.20814975
-0.16658293 -0.20348021 -0.29530895 -0.1898938 -0.10023126 0.24311419 -0.27059427 -0.23960266
-0.22952422 -0.38493386 -0.3467213 -0.21403891 -0.40106246 -0.53044057 -0.43014044 -0.368184
-0.27450868 -0.16799705 -0.3402522 -0.11462436 0.20793588 0.44895452 -0.2522323 -0.5050705
-0.15772937 0.48391595 0.5239164 -0.11905682 0.16718659 0.002985717 -0.44059187 -0.48378378
-0.46560302 -0.21919946 -0.4002184 -0.03885749 -0.31905794 0.51500046 -0.5084384 -0.2307556
-0.42164317 -0.43019626 0.42853475 -0.19146152 -0.10922028 -0.35055736 -0.30070788 -0.21235168
-0.160146 -0.43250325 -0.47215798 0.47891548 -0.309589 -0.21863823 -0.35415706 -0.16641445
-0.09642797 -0.23851196 -0.1992244 -0.46823478 0.742124 -0.37942663 0.4943622 -0.21876863
0.13680328 -0.45606405 -0.3363688 -0.20841706 0.36922085 0.06712819 -0.364469 -0.38569185
-0.37699598 -0.35221156 -0.27032015 -0.39148507 -0.0001983023 -0.1856135 0.5052534 -0.17483
-0.058374602 -0.4518287 -0.3829841 -0.026564166 -0.32905197 -0.46280637 -0.20383722 -0.023782965
-0.18864356 -0.1762928 -0.21622929 -0.33958936 -0.31404674 0.5388249 0.52171046 -0.30691537
0.013513946 -0.3730566 -0.18294595 -0.51833963 -0.24124758 -0.23004824 -0.53581434 -0.51595247
-0.38761663 -0.088644646 -0.20377819 -0.49457008 -0.33177897 -0.42793995 -0.35511303 0.25162128
-0.23045602 -0.48441923 -0.43235993 -0.35473293 0.28015274 -0.16713119 -0.48834342 -0.26318127
-0.35333297 -0.4956577 -0.34654158 -0.30316165 0.13025346 -0.30468366 -0.4242755 -0.24272124

_impl.layers.1.linear.weight f4 [256, 256]
00000000: 9a3a a9be caab 733d 6272 1c3d 8d31 4a3d
00000010: 5f5a b63d 14d3 313e 0aba 673d c4d4 8dbe
00000020: f5e1 433d 2ddf 2ebe ca33 a5be 3ae4 863c
00000030: a3b6 3fbb 4952 dd3c ca03 b23c c49f 703d
00000040: 99f9 8bbe 18fd d73d 72e2 b0be e9cb a1bc
00000050: ba78 54bd eb40 3abe b96c 5f3d fbed b0bc
00000060: 3a53 bebe 2601 1b3d 7cf8 88be 1e2c b7be
00000070: d436 023d 4861 6d3d f1ed 06bd c8a4 eebb
00000080: 9826 75be 176c 9a3d acbd f03c c94d 7ebe
00000090: 9f42 91be 87b0 aebe 19e8 80be 5cba bd3c
000000a0: 139e aa3d 0dc3 6c3d d7aa e03d c129 69be
000000b0: f82c 843d ac55 8fbe ce54 a83c a5f1 513c
000000c0: 8ba1 e13b 88e2 413d ac5b 2bbe 52de e13c
000000d0: 606f 843c 1815 b8be b48b 8bbe 2ffd 5fbd
000000e0: aef8 5b3d 2726 8abe 2368 6abd 6124 0c3e
000000f0: 7b26 3fbe 1b7d 4a3d c093 a0be 7131 9bbe
00000100: 1670 1ebd ae2d 32be 8a7e 003d b8d1 a8be
00000110: 4ccf a5be 0f9b 50be d063 2c3d 8553 9c3d
00000120: 4de1 5c3e 5003 b63c ec5e 7dbe f2e6 9dbe
00000130: b256 94be 0a15 a8be 7f46 7b3d d1d4 97be
00000140: 121f 3f3d 135c d6bc c879 ffbb d6a4 453d
00000150: 90d3 973c 7bf2 1a3d 0977 73be 09cb 61be
00000160: 340b 113d bc54 5e3e 704f a8be 4036 a13c
00000170: 7ea8 abbe 699b 9ebe 56e4 b5be d0a5 883d
00000180: 66d6 303d e161 093d d89b 683e 428d b0be
00000190: e255 2fbe f704 5d3d 3413 5e3d 93bd 9bbd
000001a0: 09c8 993b e0a7 a6be e656 c53c 9f1b c3bc
000001b0: 7626 e03d a656 2d3d c1a3 613e d2f6 223d
000001c0: 6ced 98be 967c 423e 5131 2bbe 3c78 acbd
000001d0: 24ba e33d 4061 68bd 23ce 0dbd 3291 29bd
000001e0: 8536 84be 096d 86be fd7d 8ebe c69e 9dbe
000001f0: 4d68 043d 20ea e63b cc3f aebe 81a6 163d
00000200: bb6f 863d 780d 773d 7bd2 5dbe 5d96 473c
00000210: 90d4 b53d f975 df3d eaeb d53c 8749 8dbd
00000220: 6b3b d6ba 151f a8be 363c a8be 65eb 673d
00000230: 6c75 b6be 6b40 a2be b868 aabe c541 adbe
00000240: 1f66 ff3c 8c26 d5bb 2708 54bd 914b 20be
00000250: fdb3 a93d df2f 203e 8647 f0bd b704 88be
00000260: e486 483b d2d6 5e3e 6670 673e 6858 6b3d
00000270: d5ab f03d c8d4 103d e8c3 acbe 2791 a7be
00000280: 8afe 85be a1dc 313d 4be8 aebe e99f 78bc
00000290: 6a25 f8bd 8e02 ff3d b97a 95be ab04 d43c
000002a0: 0ab2 66be 6b97 b2be 6f41 333e 85e3 373d
000002b0: ac82 663d 9e05 9fbe be8d 6dbe 5b32 76be
000002c0: a2a9 893d 8f1b 36bd bf87 aebe fafd 483e
000002d0: 030b 98be cf70 5a3d 666f f0bc 42eb 2b3d
000002e0: aef7 a13d c60e f93a 2ae8 afbc 25cf 8dbc
000002f0: 14b1 6d3e 1688 aabe c21e 6b3e a016 82be
00000300: b4c8 dd3d 88f9 f939 3f9c e13c 5a86 423d
00000310: 84c5 393e 9b91 c23d 03a9 b1be b8ec a7be
00000320: 9bd2 b3be c515 a8be 9b29 41be 7916 b5be
00000330: 4319 aa3d f804 10bb 7279 643e 92e3 733d
00000340: 14a7 403d 21f9 a3be a363 b5be b696 a63d
00000350: afa0 033d 2681 c6be 2d19 403d 8acc 9d3d
00000360: 7266 2e3d 5e6f 983c 1e40 6fbe 3dc0 7bbd
00000370: 5a49 013d a0b4 6b3e c792 583e 1cc0 72be
00000380: b996 1a3d cf58 b6be 33fa 133d c7e6 98be
00000390: 41c7 9b39 0666 253d 688c d9bd ff02 1dbe
000003a0: 939c b7be 0a1c 883d 4654 c03c 79bb 7cbe
000003b0: 398c 48bd fd00 b6be c488 a9be c462 c43d
000003c0: bcd2 55be b18d 9cbe 9f79 b8be 4a8d 8ebe
000003d0: 920b c43d 5e85 463d 4379 afbe 443f 613d
000003e0: 9b89 a7be 59f4 a9be f196 48be 7323 95be
000003f0: b51b e93d c4eb 6bbd fa11 aebe c42e 693c
-0.33052522 0.059490003 0.03819502 0.04936366 0.08903956 0.17365676 0.056573905 -0.2770139
0.04782291 -0.17077322 -0.32266074 0.016466249 -0.0029253147 0.027016776 0.021730322 0.058746114
-0.27338865 0.10546321 -0.34547764 -0.019750552 -0.051872946 -0.18188827 0.054547045 -0.021597853
-0.37172872 0.037842892 -0.2675208 -0.35775846 0.03179057 0.057954103 -0.032941762 -0.007282827
-0.23940504 0.07540148 0.029387318 -0.2483436 -0.2837114 -0.34119055 -0.25177076 0.023160152
0.083309315 0.057803202 0.10970085 -0.22769834 0.064538896 -0.2799505 0.02054825 0.01281396
0.0068857125 0.047335178 -0.16734189 0.02757183 0.016166389 -0.35953593 -0.27255023 -0.054684814
0.053703956 -0.26982233 -0.05722822 0.13685752 -0.18667023 0.049435716 -0.31362724 -0.30311158
-0.038681112 -0.17400238 0.031370677 -0.32972503 -0.32384717 -0.2037165 0.042087376 0.076331176
0.2157032 0.022218376 -0.24743241 -0.3084026 -0.28972393 -0.32828552 0.061346527 -0.29654554
0.04666049 -0.026166951 -0.0077965 0.048252903 0.018533498 0.037828904 -0.23775877 -0.22050108
0.035411075 0.21712011 -0.32873106 0.019679189 -0.33526987 -0.30977944 -0.3552577 0.06672251
0.043173216 0.03354061 0.227157 -0.3448277 -0.17122605 0.053959813 0.054217532 -0.07604518
0.0046930355 -0.32549953 0.024089288 -0.023816882 0.10944836 0.042318963 0.22035123 0.039786167
-0.2986864 0.18992838 -0.16718031 -0.084213704 0.11119488 -0.05673337 -0.034620415 -0.041398235
-0.25822845 -0.26255062 -0.27830496 -0.30785197 0.03232603 0.007046953 -0.34033048 0.036779884
0.0656428 0.06031558 -0.21662323 0.0121818455 0.08878434 0.109111734 0.02611347 -0.0689879
-0.0016344612 -0.32836214 -0.32858437 0.056620974 -0.3563646 -0.31689772 -0.3328302 -0.3383924
0.031176625 -0.0065048393 -0.051765587 -0.15653826 0.08286283 0.15643261 -0.11732392 -0.26566097
0.003059798 0.21761635 0.2260147 0.057457358 0.11751524 0.035359174 -0.33743215 -0.3272793
-0.2617076 0.0434233 -0.341616 -0.015174844 -0.12116511 0.12451659 -0.29195192 0.025881132
-0.22528854 -0.34881148 0.1750543 0.044894714 0.056276962 -0.31058973 -0.23198602 -0.24042647
0.06721808 -0.044459876 -0.3408794 0.19628134 -0.296959 0.05333024 -0.029349994 0.041972406
0.07908569 0.0019001595 -0.02147301 -0.017310688 0.23212081 -0.3330695 0.22960952 -0.25407887
0.10829297 0.00047678896 0.027540324 0.04749141 0.18141752 0.09500428 -0.34699258 -0.3279779
-0.35121617 -0.3282911 -0.18863527 -0.35368708 0.083055995 -0.0021975618 0.22311953 0.0595432
0.047034338 -0.32026008 -0.3542758 0.081342146 0.03213566 -0.38770407 0.04689901 0.07705028
0.04257817 0.018607792 -0.23364303 -0.06146263 0.031564094 0.23018122 0.21149741 -0.23706096
0.037741397 -0.3561463 0.03612728 -0.2986357 0.0002971236 0.0403805 -0.106224835 -0.15333174
-0.35861644 0.06645973 0.023477685 -0.2468089 -0.04896185 -0.3554763 -0.33112156 0.095891505
-0.2088117 -0.30576852 -0.3603029 -0.2784217 0.09572519 0.048467033 -0.34272203 0.054991975
-0.32722172 -0.33194235 -0.1958883 -0.29128608 0.11382238 -0.05759789 -0.3399809 0.014232341

_impl.layers.1.linear.weight_g f4 [256, 1]
00000000: fdc9 b03f 3fba be3f 645a a13f fb35 5a3f
00000010: a2f4 853f 500d 943f 67dd 983f 3801 8c3f
00000020: bb3f b93f 85e3 8a3f c41c 793f 9700 d3b8
00000030: 3cee 883f 2ae0 683f 43da 703f 0e5d c13f
00000040: 92ed 9f3f 277b a53f 70d1 abb7 566f 9a3f
00000050: 6860 893f a26d 863f 2089 8a3f 5daa 6836
00000060: 0767 8d3f 301f 983f 36a7 9b3f 9d73 9a3f
00000070: 5a6a 923f 09f5 903f 7a12 983f 5b0f 8a3f
00000080: 66fa 933f c734 9a3f 5c05 853f afa8 883f
00000090: 32ca a33f a101 843f 441b a33f b2b3 a03f
000000a0: 31d6 8a3f cfb3 a33f d569 9039 6def 8f3f
000000b0: d328 9a3f 8bb9 9f3f 48cb 763f 1f97 8d3f
000000c0: a182 843f 057a 903f 3620 813f 87f1 8a3f
000000d0: bc99 b538 b8ac be3f 4368 5f3f 5623 b13f
000000e0: 8220 8b3f 3bd6 953f 4c39 be3f 289b a23f
000000f0: be10 a63f 0ed1 8e3f 00a9 963f 3dc3 d33f
00000100: ec09 a83f 4251 8e3f e71a 8d3f fc2e 993f
00000110: 1601 883f 79ca 9a3f 0a22 9f3f 1c25 a63f
00000120: 8ae6 9b3f bdad 823f 2023 8f3f 596f 813f
00000130: 6a95 a93f 6a40 5a3f e429 ad3f 67af b03f
00000140: 8cf5 8a3f eedb 9c3f bc85 7a3f 8cfe ac3f
00000150: da59 8b3f 3e75 a93f 1275 9f3f 68f6 8a3f
00000160: 47e8 8e3f 0120 9c3f baab 203f 1fea 9c3f
00000170: ef5a 9b3f cda5 913f a290 893f d8b5 8f3f
00000180: cb0b 863f 0675 0bb9 d27d 8d3f d043 9f3f
00000190: 1be8 913f 3022 6eb9 21ca 993f 3c14 6c3f
000001a0: 8787 8c3f 3738 2f3f 0851 ab3f 9c38 6b3f
000001b0: 12bd 1c3d 1172 913f 1646 bf3f d034 9e3f
000001c0: 128e 8b3f da55 a03f c83c 973f f1cf a13f
000001d0: b62d 0ab8 3e79 8b3f 1094 893f 2660 a03f
000001e0: fd44 9b3f 3513 803f 279f 863f f8c1 8c3f
000001f0: 28d0 c33f a62e 8c3f bdc7 b23f aa37 6f3f
00000200: e4de 9e3f 3cba a23f 5de1 a93f 929f 56b9
00000210: c30e 783f 4116 623f 46c6 923f 08e0 883f
00000220: 53fa 903f 0c26 a83f 26dc 8f3f b88f a4b8
00000230: 5229 9e3f c157 a03f 62e9 3238 d1d5 9e3f
00000240: eed8 9b3f 6792 933f 9800 88b8 faec 933f
00000250: c12a a63f 187c a03f 4dda e736 173b 8c3f
00000260: 8ae2 863f 06a2 983f 0cab 8c3f b484 943f
00000270: 7747 ae3f 2558 8938 d27f 8b3f 5b40 5b3f
00000280: 2984 9c3f 576d 513f 73cf a73c 1b7e 9a3f
00000290: 3b8a a33f 4682 773f 286d 953f a866 923f
000002a0: ee2d 953f 2721 a63f 3323 9d3f 42f9 963f
000002b0: 7bfc 943f d7ca 2339 57b1 a53f 2dea 903f
000002c0: 0fc7 9e3f 7185 a53f 69d4 b33f 9b16 61b9
000002d0: 8b79 943f 0339 953f 4745 a33f b11e 7c3f
000002e0: 1e29 9f3f 6ce3 8d3f 1740 9d3f b7e7 8a3f
000002f0: db6b 953f 657e d639 5a38 8e3f 0429 9e3f
00000300: fa17 a33f bfef 963f 5b63 a13f 969a 7a3f
00000310: f4e4 963f 9b4c a03f 0f34 a33f 1640 8d3f
00000320: a6ad 9e3f cb6f 9e3f 64aa 9b3f afed 9c3f
00000330: 1a42 813f 2003 a93f 436f 993f c9dd 933f
00000340: 5403 aeb8 05e1 9bb9 70be a83f b02d ad3f
00000350: 7017 9c3f 9b89 8f3f fceb a13f f33f 9b3f
00000360: 3b17 883f 5d11 9d3f 9313 793f f37d 8b3f
00000370: e452 953f c630 673f a104 3a37 424c 8e3f
00000380: 60a7 a03f 4857 983f 0c32 9e3f a2a9 9d3f
00000390: 228b 973f fe29 953f aa6e a43f 8633 9c3f
000003a0: e43e 983f 1364 9d3f 2cb7 a43f bc01 903f
000003b0: c801 7139 6c34 873f 07c4 00b8 1e91 a13f
000003c0: 75cc bb3f 7310 803f a5d1 973f 365b 9a3f
000003d0: 6c8a a03f 55ef 983f da81 5b3f 359f 8d3f
000003e0: 1bc0 b93a 3df4 9b3f bc24 a33f 6bde 91b8
000003f0: 8590 803f 75e0 a83f a4dd a23f 43a8 9c3f
1.3811642 1.4900588 1.260571 0.8523862 1.0465281 1.1566563 1.1942567 1.0937872
1.4472574 1.0850683 0.9730952 -0.00010061374 1.0697703 0.9096705 0.9408304 1.5106523
1.2494376 1.2928208 -2.0482315e-05 1.2065227 1.0732546 1.0502207 1.0823097 3.4669858e-06
1.1047066 1.1884518 1.2160404 1.2066532 1.1438706 1.1324779 1.1880639 1.0785936
1.156079 1.2047356 1.039226 1.0676478 1.279608 1.0312997 1.2742696 1.2554839
1.0846616 1.2789248 0.0002754467 1.1244942 1.2043709 1.2478498 0.9640393 1.1061743
1.0352365 1.1287237 1.0087955 1.0854958 8.659388e-05 1.489646 0.87268466 1.3838909
1.0869296 1.1706003 1.4861236 1.27036 1.2973859 1.1157548 1.1770325 1.6543957
1.3128028 1.1118548 1.1023835 1.1967463 1.0625331 1.209304 1.2432263 1.2980075
1.217973 1.0209271 1.1182594 1.0112106 1.3248723 0.8525454 1.3528409 1.3803529
1.0856185 1.2254617 0.9786031 1.3515182 1.0886796 1.3238904 1.2457602 1.0856447
1.1164635 1.2197267 0.62762034 1.2258948 1.2137126 1.1378723 1.0747263 1.1227369
1.0472349 -0.00013299668 1.1054022 1.244257 1.1398958 -0.00022710185 1.201481 0.92218375
1.097886 0.6844515 1.3384104 0.91883254 0.03826625 1.1362935 1.4943264 1.2359867
1.0902731 1.25262 1.1815424 1.2641584 -3.2944336e-05 1.0896375 1.074831 1.2529342
1.2130429 1.0005862 1.051732 1.0996695 1.5297899 1.0951736 1.3967205 0.9344431
1.2411771 1.2713084 1.32719 -0.00020468075 0.96897525 0.88315207 1.1466758 1.0693369
1.1326393 1.3136611 1.1239059 -7.846899e-05 1.235636 1.252678 4.265586e-05 1.2409002
1.2175577 1.1529053 -6.485096e-05 1.1556695 1.2981797 1.253787 6.90975e-06 1.0955533
1.0537884 1.1924446 1.0989699 1.1602998 1.3615559 6.549087e-05 1.0898383 0.85645074
1.2227832 0.81807464 0.020484662 1.2069734 1.277656 0.96683156 1.1673937 1.1437578
1.1654642 1.2978867 1.2276367 1.1794817 1.1639551 0.00015620455 1.2944745 1.1321465
1.2404498 1.2931348 1.4049197 -0.00021466093 1.1599592 1.1658024 1.2755517 0.9848433
1.2434423 1.1085029 1.2285184 1.0851964 1.167354 0.00040911432 1.1110947 1.2356267
1.2741692 1.1791915 1.2608446 0.9789213 1.1788621 1.2523378 1.2750262 1.1035182
1.2396743 1.2377867 1.2161374 1.2260035 1.0098298 1.3204079 1.1987079 1.1552058
-8.2975865e-05 -0.00029731556 1.3183117 1.3529568 1.2194653 1.1213869 1.2650142 1.2128891
1.0632089 1.2270924 0.9729549 1.0897812 1.1665921 0.903088 1.1087542e-05 1.1117022
1.2551079 1.1901636 1.2359023 1.2317393 1.1839335 1.165344 1.2846272 1.2203224
1.1894193 1.2296165 1.28684 1.1250529 0.00022984215 1.0562873 -3.0700143e-05 1.2622411
1.467177 1.000502 1.1860853 1.2059085 1.2542243 1.1948038 0.8574501 1.1064211
0.0014171632 1.2183911 1.2745585 -6.9555674e-05 1.0044104 1.3193499 1.2723889 1.2238849

_impl.layers.1.linear.bias f4 [256]
00000000: 9c69 7f3e bf85 e73c 9c8b bcbe 6a81 eb3d
00000010: 4583 e43e 37ab f5bd 8bb8 b5be b305 02bf
00000020: 3409 39bd 0969 d0be c648 f63e ccbb ac38
00000030: 46f6 b1be 4b7a 1e3e 2bfd 2ebd dccb dfbe
00000040: 4ca7 b13d 4388 9abe 2506 b638 2f6a c3be
00000050: 8a2b bfbc 4f99 c3be 224b e3be 416a a538
00000060: e0de 0dbf 7a14 be3d b959 33bd f411 e9be
00000070: cf73 80be c4e6 dfbe 7dc8 dbbe dd2d 08bf
00000080: d4c1 7abe c040 b4be 0d34 acbe 3e43 463e
00000090: 0f6c a9be 696f ddbe d423 a8be 76a5 023e
000000a0: e93d c9be a04b c5be d68b 3d39 573a f6be
000000b0: 35cb 88be d047 a3be 257f 0bbc 01bf f8be
000000c0: 50c5 4c3e 6be7 c0be d03a 7b3e 5cec ce3e
000000d0: aa9a 0138 d729 36be b951 75be c008 b3be
000000e0: 6898 f8be 3ec1 f4be 930c d3be d3fa 04bf
000000f0: 89b8 c6be 5b71 1bbf 4fd6 05bf c6ab b23d
00000100: 9f19 0ebe 4891 cabe c547 ecbe c711 b2bc
00000110: 44da e23e 85c6 c7be 6791 1ebf d274 f3bd
00000120: b9c7 b7be 685f bb3d bbca 03bf 8ff5 a7be
00000130: 7e08 2d3e 71cd 903d f52c a7be 8181 783e
00000140: d9e3 9bbe 75ad 8bbe d8fd ce3c b586 773e
00000150: 7e49 e1be 67c5 debe 5524 b2be e1de c0be
00000160: 360e e5be 8cdf fabe 7e1a 27be 4549 a33d
00000170: 2fd1 c6be b808 b73c 23d6 c9be 2dd0 e3be
00000180: d354 b5be 1c12 e237 bb9f 21bf 7efd 6ebe
00000190: 43ea b2be b044 92b8 50e3 be3d 2370 ea3c
000001a0: 80ca e0be fe42 283e 1f86 75be 705f 9e3c
000001b0: b19a 143c ae3d be3d 0e2b 99bd b14f f7be
000001c0: 8be9 d73d 6193 e4be de60 5abd c5a2 ebbe
000001d0: 835d 44b9 a355 9a3d 24d0 143f 6d42 75be
000001e0: 4478 fabe 883b 653d 6406 b1be 02ba d7be
000001f0: b2b0 19ba 4fa2 95be c147 89be c756 bc3e
00000200: 8044 a3be 390d f5be 2dd7 4ebe 28ad 8538
00000210: 7acd 153e 5ee8 b03d 975a 083e 1d01 56be
00000220: 9830 db3d 90cb 05bf 37c8 32be 8a62 98b8
00000230: 47ee 3ebf 84d8 d0be 8d40 2c38 df8a e2be
00000240: 3a14 f9be 0660 b7be 80dd f4b7 7aee 063d
00000250: ae3d babe 46e9 5a3e c361 e038 080d d7be
00000260: fbec 6bbc 42ab 94be 8bbf 16bf d2b1 90bd
00000270: fcbc fabe 8066 d838 1267 d7bd 25f8 8e3e
00000280: 7d33 25bf fca0 873e 76aa d43b ca90 8dbe
00000290: 9348 08be d2f9 fb3e 480e 8fbd fb7a 00bf
000002a0: bab1 c7be ae23 f0be bdeb 1abf 4d4f c7bd
000002b0: dad2 f1be adc7 4e39 527c ffbd bd05 04bf
000002c0: 8040 a9be 9560 cbbd 8a9c cabe 27f4 9938
000002d0: d108 0dbf 9640 e33c 814d bebe d93d 313e
000002e0: 7986 acbe 5efd f1be 0233 74be 6f18 b03d
000002f0: c4dc 66be 9ef5 cb38 55f4 b1be ebf8 923d
00000300: c765 efbd a296 e5be 1458 c9be b81b af3c
00000310: bc13 14bd a254 4c3f cd60 75be d2c1 56be
00000320: 01bc d9be d540 8ebe b144 8cbd 48ce 1cbf
00000330: 03d3 123e d4a4 cebd 5f8a cabc bdef 98be
00000340: 1a90 8939 aa53 9a38 df9c 1dbf fb79 85be
00000350: 571b b7be a8de acbe 930e afbe 555f 7fbe
00000360: ac1a 22bf 1555 acbe 53b0 ce3e 199b c5be
00000370: 1d13 16bc a198 c4be d120 95b7 804e e0be
00000380: 911c b0be 81ef c6be 64f7 54be bfc6 ea3d
00000390: 8100 883d 454d a6be cf7f 44bf 9a91 c1be
000003a0: 1807 4e3c 62be 20bf 5604 cdbd 1ff7 b43d
000003b0: e651 b139 aa11 b4be db58 eab6 c31d 42be
000003c0: c360 d5bd 696c 463e e209 eebe 4f59 5cbc
000003d0: fca4 f8be b4dd 683c b8f6 9d3d 9503 13bf
000003e0: 3831 10b9 476e d0be 15b0 3b3e 4961 8038
000003f0: 84fc 47bd 5b59 aebe 9b3f a0be 86d0 9fbe
0.2494263 0.028262017 -0.36825264 0.11499293 0.446314 -0.11995547 -0.35492358 -0.50789946
-0.045174792 -0.40705135 0.48102397 8.236579e-05 -0.34758204 0.15476339 -0.04272191 -0.4371022
0.086744875 -0.30182084 8.679581e-05 -0.3816695 -0.02333619 -0.38202903 -0.4439326 7.8876044e-05
-0.55418205 0.09281249 -0.043786738 -0.4552151 -0.25088355 -0.43730748 -0.42926398 -0.5319498
-0.24488002 -0.3520565 -0.33633462 0.19361588 -0.33090255 -0.43249062 -0.32839835 0.12758431
-0.39305046 -0.3853426 0.00018076538 -0.48091385 -0.26717535 -0.31890726 -0.0085142 -0.48583224
0.19997144 -0.37676558 0.24534154 0.40414703 3.090004e-05 -0.17789398 -0.23956956 -0.34967613
-0.48553777 -0.47803682 -0.4122053 -0.5194523 -0.38812664 -0.6071984 -0.52280134 0.087241694
-0.13876961 -0.39563966 -0.46148506 -0.021736993 0.44307148 -0.39018646 -0.61940616 -0.11887516
-0.35894564 0.09149057 -0.5148122 -0.32804534 0.16897771 0.07070435 -0.32651487 0.24268152
-0.3044727 -0.27280775 0.025267527 0.2417248 -0.44001383 -0.4350998 -0.34793344 -0.37670043
-0.44737405 -0.48998678 -0.163187 0.079729594 -0.3883147 0.022343025 -0.39421186 -0.44494763
-0.35416278 2.6949732e-05 -0.63134354 -0.23338887 -0.34944353 -6.9746166e-05 0.093207 0.028617924
-0.43904495 0.16431805 -0.23976944 0.019332618 0.009070084 0.09289108 -0.07478915 -0.48302987
0.10542592 -0.4464369 -0.053315036 -0.4602262 -0.00018726852 0.07535865 0.581301 -0.2395112
-0.4891988 0.055964977 -0.34575188 -0.421341 -0.00058628165 -0.29225394 -0.26812556 0.36784956
-0.318882 -0.4786165 -0.2019927 6.374187e-05 0.14629164 0.086380705 0.13315807 -0.20898862
0.10702628 -0.52263737 -0.17459188 -7.266279e-05 -0.7458233 -0.40790188 4.1068113e-05 -0.44246575
-0.48648244 -0.35815448 -2.919021e-05 0.032942273 -0.36375183 0.21378049 0.00010699362 -0.4200213
-0.014399762 -0.2903691 -0.5888602 -0.070651665 -0.4897231 0.00010318775 -0.10517706 0.27923694
-0.6453169 0.2649001 0.006490047 -0.27649528 -0.13308935 0.49214035 -0.06985146 -0.50187653
-0.39002782 -0.4690222 -0.6051596 -0.09731922 -0.4723118 0.00019720076 -0.12474884 -0.51571256
-0.33057022 -0.09930531 -0.39572555 7.3410854e-05 -0.5509158 0.027740758 -0.37168506 0.1730875
-0.33696344 -0.47263616 -0.23847583 0.0859841 -0.22545153 9.725544e-05 -0.34756723 0.071763836
-0.11689334 -0.44841486 -0.3932501 0.021375522 -0.036151633 0.7981664 -0.23962708 -0.20972374
-0.42526248 -0.27783838 -0.06849039 -0.6125226 0.14338307 -0.10090032 -0.024724184 -0.29870406
0.0002623804 7.358876e-05 -0.6156749 -0.26069626 -0.35763046 -0.33763623 -0.34190807 -0.2493871
-0.6332195 -0.33658662 0.403689 -0.38594893 -0.00915983 -0.38397697 -1.7777465e-05 -0.4380989
-0.34396794 -0.38854602 -0.20797497 0.11463689 0.06640721 -0.32480827 -0.7675752 -0.37806398
0.0125749335 -0.627905 -0.10010593 0.08836197 0.0003382109 -0.35169727 -6.9840876e-06 -0.18956666
-0.104188465 0.19377293 -0.46491915 -0.013449027 -0.48563373 0.014213014 0.077130735 -0.5742734
-0.00013751246 -0.40709135 0.18328889 6.1216364e-05 -0.048824802 -0.34052548 -0.31298527 -0.31213778

_impl.layers.2.linear.weight f4 [256, 256]
00000000: 180a ddbd 6aab 273b 1ca8 533e 83ec dabd
00000010: 3452 7bbe e80c 8abc 17d5 6a3e 5b1c 7d3d
00000020: 9776 b23d 26ee 343e 1ee5 45be b431 c7b9
00000030: 36df 143e a749 e6bd 8007 1c3b 73a4 9b3d
00000040: 9446 16bd 70b5 273e 843f 2a39 2256 613e
00000050: f365 a63c 21f3 183e 6885 003e ac82 8d39
00000060: 5f8a 763d b011 ccbb 570b 353d 4ce3 fb3d
00000070: 7dac f83d 2f1e 193d e52e e63d 494f 1c3d
00000080: ccc9 3e3e 63aa 0f3e e558 203e 330c 3ebe
00000090: 7b4e 3f3e 1956 f33d 701c 153d 06f7 1cbd
000000a0: 89eb 193e fdb7 803e a062 68b9 9f37 1a3e
000000b0: 1913 3e3c 1adc 123d 98a2 72bd ee0b 3b3e
000000c0: 1c50 f9bd d3a1 463e cb99 50be 083d 4bbe
000000d0: 1cd9 4339 6237 8f3d 3524 003e 6726 6e3e
000000e0: d0cd 3c3e 83d2 f03d 0426 233e 2730 603e
000000f0: e501 333e aabb 953d 6989 603e f880 5a3c
00000100: aa01 093b b7ed ed3d 4229 c43d 9ea3 aa3d
00000110: fce5 84be 59d2 673d 1a23 2e3e 529a 543d
00000120: de54 5d3e 9487 04be 52cf 273e 1b47 173e
00000130: 40fb a9bd d3eb abbd 91c4 4a3e 38a1 edbd
00000140: 705a 413e 2663 0d3e 6803 38bd ecad f5bd
00000150: 4541 d43d dbcb 523e e5bf 473e d610 0b3e
00000160: bb3a 283e f68b 403e 2df7 883d b19f a93c
00000170: 4442 423e 0f4e 03be 5dee 283e 8a4c d23d
00000180: 886f a33d bd07 2e39 667e 3f3e 42ed 9e3d
00000190: 39ae 4d3e 3d62 9d39 f540 023d 8a42 91bd
000001a0: 36a9 eb3d 4d31 a8bd b351 23bd 26c6 4abd
000001b0: a61b 7dba 6d2e 4a39 acff 45bc d28f 6b3e
000001c0: 7607 d9bc ca83 103d fba9 d0bd 4b1d 6d3e
000001d0: 0dbf 6cb9 347e fdbd 9955 72be abc5 b83d
000001e0: 2be9 633e 8a1c 99bc 75c6 c53d 3ba6 4f3c
000001f0: 755d 22bd 6c58 4d3e d9da f23c 30d3 11be
00000200: e581 023e 414c 843e 4ad3 703c 4d57 a3b9
00000210: ce0d ccbd 4375 9ebd b429 c9bd c6bf 7b3d
00000220: b783 abbc 15b8 443e 8bf9 0f3e 3e33 90b8
00000230: f60d 453e 7495 723e 2307 63b9 2ec5 243e
00000240: 6628 1c3e a516 6a3e c109 8139 1149 05be
00000250: c03c 413e 40cf 82bd de7c 7cb9 00cd 2f3c
00000260: 51bf b7bd 4b8c fa3d c5d5 0f3e d4dc 243e
00000270: 6694 783e dfcd c037 60cc 573b e363 09be
00000280: 94cb 453e 1f7b 19be ade4 01ba a358 183e
00000290: 7b18 c73c 5cd2 39be b866 38bd 0eff 553e
000002a0: e59e 4f3e b18e 7b3e be44 5d3e 470a a1bd
000002b0: 9844 4a3e 5d3e 6239 390e 153d 83bc 2c3e
000002c0: f568 e23d fa0f 1bbd 0c1f 933e 9822 5db8
000002d0: 8a71 1f3e f0d3 e3bd 70ee 3e3e 942a 2cbe
000002e0: bf40 7b3e 1617 163e 4b59 8bbc 75ad 0ebe
000002f0: b3f3 5c3c 5f6c 0238 bc20 583e da9b 863d
00000300: e158 8c3b b39f 7b3c 9184 833e 63e0 0dbd
00000310: cbed dcbd 84e8 04be c72c 143d 4e9c f43d
00000320: 8ec8 583e 5c4d f63d 1170 b8bd acdf 2e3e
00000330: 923a 24be 2121 ac3d a016 b8bd e690 6e3e
00000340: d259 e7b9 1a56 62b7 ff25 7e3e fa60 8e3e
00000350: d18f a43d e0a4 843d a372 2e3e ac43 583e
00000360: 4582 963d 8b95 353e 9e0d 4cbe 61bb d73c
00000370: 1073 653d c182 183e f07c b039 f734 413e
00000380: a3c2 683e fc53 6b3e 1d24 52bd 04c0 963c
00000390: 7cb4 1c3d 8cda 5d3e 01df 463e 5d6d 033e
000003a0: 272f 03be 7c7b ee3d 6703 b9bb 26a1 e4bb
000003b0: 09c9 1039 50e1 b03d 63ac f438 2a1d 40bd
000003c0: b25b a7bc 1060 00be 0d77 4e3e e536 543d
000003d0: 16bf 703e 0fa8 aabd 3346 9ebd 4ad0 a63d
000003e0: 120d 7138 e6cc e73d 0c98 0fbd 2358 4539
000003f0: 63eb bbbc 6fc7 683c 2105 f33d 8fcd e43d
-0.10792941 0.0025584348 0.20669597 -0.10689642 -0.24543077 -0.016851857 0.2293285 0.06179462
0.087140255 0.17668971 -0.19325683 -0.0003799327 0.14538273 -0.11244517 0.0023808181 0.075997256
-0.036688402 0.16377807 0.00016236125 0.22005513 0.020312285 0.14936496 0.1255089 0.00026990974
0.060190555 -0.0062276945 0.044200268 0.12299213 0.121422745 0.0373823 0.11239413 0.03816155
0.18631667 0.14029841 0.1565891 -0.18559341 0.18682282 0.11881656 0.036404073 -0.038321517
0.15031256 0.25140372 -0.00022161985 0.1506028 0.011601233 0.035854436 -0.059237093 0.1826627
-0.12173483 0.19397669 -0.20371167 -0.198475 0.00018677529 0.06992985 0.12513812 0.23256837
0.18437886 0.11758902 0.1593247 0.21893369 0.17481191 0.07311185 0.21927418 0.013336413
0.0020905533 0.11617606 0.09578182 0.08331989 -0.25956714 0.056597088 0.17005578 0.051904984
0.21614406 -0.12942344 0.1638768 0.14773218 -0.08299875 -0.08394589 0.19801547 -0.11603016
0.18882155 0.13807353 -0.044925123 -0.119960636 0.10364012 0.20585577 0.19506796 0.13580641
0.16428654 0.18803391 0.0668777 0.02070603 0.18970591 -0.12822746 0.16497178 0.10268505
0.07980257 0.00016596816 0.18700561 0.07760097 0.20085992 0.00030018567 0.03180023 -0.070927694
0.11506884 -0.082125284 -0.039872836 -0.049505375 -0.0009655304 0.00019281516 -0.012084883 0.23004082
-0.026492815 0.035281934 -0.10188671 0.23155706 -0.00022577886 -0.12377587 -0.23665465 0.09022077
0.22256915 -0.018690366 0.09656993 0.01267391 -0.03963991 0.20053262 0.02964537 -0.14240718
0.12744863 0.25839427 0.014698813 -0.00031154827 -0.099635705 -0.0773721 -0.09822407 0.061462186
-0.02093683 0.19210847 0.14060037 -6.876e-05 0.19243607 0.23689824 -0.00021651066 0.16090843
0.15249786 0.228602 0.00024612065 -0.13016154 0.1887083 -0.06387186 -0.0002407911 0.010730028
-0.089720376 0.1223379 0.1404639 0.16099864 0.2427536 2.298405e-05 0.0032928213 -0.1341701
0.1931594 -0.14988373 -0.0004955035 0.14877562 0.024303665 -0.18146652 -0.045019835 0.20898077
0.20275457 0.24566151 0.21608254 -0.078632884 0.19752729 0.00021576272 0.036390517 0.16868787
0.11055175 -0.037857033 0.28734624 -5.2722724e-05 0.15570655 -0.11124408 0.18645644 -0.16813117
0.24536417 0.14657244 -0.017010352 -0.13933356 0.013485837 3.1095344e-05 0.21106237 0.06572695
0.004283056 0.0153578995 0.25687078 -0.03463782 -0.10787543 -0.12979323 0.036175516 0.11943875
0.21170256 0.12026474 -0.0900575 0.17077512 -0.16037968 0.08404756 -0.089886904 0.23297462
-0.00044126675 -1.3490697e-05 0.24819182 0.27808362 0.08035243 0.0647676 0.17035918 0.21119565
0.07349066 0.17732827 -0.1992707 0.026334466 0.056017935 0.14893629 0.00033662422 0.1886786
0.22730498 0.22981256 -0.05130397 0.018402107 0.03825806 0.216654 0.19421007 0.12834688
-0.12810956 0.116446465 -0.0056461575 -0.006977218 0.00013807802 0.08636725 0.00011666936 -0.046902813
-0.020429466 -0.12536645 0.20162602 0.051810164 0.23510394 -0.08332836 -0.07728233 0.08145197
5.747105e-05 0.11318378 -0.035057113 0.00018820218 -0.02293939 0.014207705 0.11866213 0.1117202

_impl.layers.2.linear.weight_g f4 [256, 1]
00000000: 0401 a23f a2ce 753f 5155 923f d3d4 843f
00000010: bfe3 883f 2e83 b93f 9843 d73f 8069 8f3f
00000020: 37be 883f 7391 863f 9f47 8a3f 4b77 8e3f
00000030: e4f9 9c3f 0b70 9d3f 3382 6a3f 4b6d 873f
00000040: bdd8 873f 0b4c 663f 4f40 ba3f 4d57 8b3f
00000050: 57a4 923f 5ab7 753f 3af1 be38 e292 ba3f
00000060: 461f 003f 81c3 6a3f 4180 be3f 8cad b13f
00000070: 52f6 773f d38b 213f 4b18 403f 00f2 a33f
00000080: f1eb 873f c7b6 8e3f 566c 863a aad8 8e3f
00000090: 39a9 c53f db32 be3f e5be 843f 2557 d43f
000000a0: ad2f 763f 0fde 723f de7c 7f3f 56cf 7d3f
000000b0: ad4e ac3f 4ea9 8f3f abbd 713f 69d2 853f
000000c0: bdc2 8a3f 9965 9c3f 70aa 8f3f 9bdd 933f
000000d0: 0900 613f 9aa8 823f 9978 873f f99f 813f
000000e0: fe27 8d3f ce1f c33f b154 713f 69ee a13f
000000f0: 4135 363f 3915 c73f b237 8d3f 8788 6f3f
00000100: 6435 a83f 517b 543e c07d 6d3e cd8b 803f
00000110: 12ea 893f ac54 a63f 9b63 863f ebff 733f
00000120: aba9 a33f 09c2 cb38 00c3 b03d a376 a43f
00000130: 261e 773f 8a9b 8c3f 8dcb 8f3f 396f 973f
00000140: 7f5d a03f e047 90b9 66b5 893f b3f4 963f
00000150: 7ed7 783f 4941 913f 3dfd 833f 09ff 843f
00000160: 1c80 763f 154e 7a3f 5a66 923f 84fc 3d37
00000170: 9d48 713f ff1c 6a3f 9a31 933f ce88 a33f
00000180: 9ee8 9a3f b545 c93f 725e 663f 8a1f bb3f
00000190: 2128 553f 8070 b33f ece3 7c3f 2ea2 823f
000001a0: ec4b 853f 4ba4 ac3f c73c a13f 204e a83f
000001b0: 7090 863f 9505 843f fd1d a53f df6c 7e3f
000001c0: 5c53 893f 3691 7b3f 85df 983f 4f1b 1e3a
000001d0: 149a b23f a127 a23f bcbf f63e d283 6f3f
000001e0: 2f14 1c3f d061 993f 1a02 4d3f a9cb db39
000001f0: 8a86 173a d697 873f 5eb3 593f aa50 6b3f
00000200: d7d1 5f3f 557b 8e3f 1c77 533f 8960 b83f
00000210: 6d48 813f 5bce 7c3f 814a 4f3f 9ce9 873f
00000220: 14e8 cd39 0b5f 9c3f 078a ae3f 7895 8a3f
00000230: c145 0e39 bee0 613f c5f7 8b3f f331 843f
00000240: db1c 8e3f 7f5b ad3f 9c0e 783f 9604 c53f
00000250: 9355 883f 5357 693f f8d9 823f 8f9b 863f
00000260: f5c5 853f a24b aa3f 0461 723f f8f3 a53f
00000270: 60f3 c23f cc40 c83f a194 793f ac29 883f
00000280: 92e4 803f d000 6b3f 7455 633f 2762 723f
00000290: fac7 6e3f 75b3 863f 1a24 6d3f fe9d bc3f
000002a0: 3832 863f 1e4e b53f aad9 8b3f 6bc7 9f3f
000002b0: 50b1 ca3f b4a8 7a3f 0d13 763f c318 b23f
000002c0: 68ab 953f 6550 ba3f 501b b43f a7d3 743f
000002d0: 5a91 5a3f 91f7 b53f aaa7 5a3f 032c ba3f
000002e0: a3ec aa3f 438c b83f 3b40 763f cc55 a43f
000002f0: ad4a 9b3f 840f 853f 6455 803f 3161 743f
00000300: df67 9a3f bdeb d93f cc7f 363f 1dd0 8a3f
00000310: 8683 843f 17c2 a13f 70cd 6f3f 1cbb 863f
00000320: e38f 763f 0c79 983f 23ac b73f 887a d03f
00000330: 1474 663f 67b9 6a3f 24eb 6a3f b871 8c3f
00000340: f5df 853f 7dac c838 8042 973f 174e 793f
00000350: d05f 863f 90ca 673f 93ed 873f 6a15 bc3f
00000360: 1d2b 783f fbd1 a33f 63c8 f63c 055f 823f
00000370: 72aa b03f d6db 9e3f ac37 38b8 1fcb 903f
00000380: 0185 8e3f d5a1 7c3f 379e 7d3f 8ec2 bc3f
00000390: 4cdf 6a3f a5d0 1b40 a1d0 733f d8ec 883f
000003a0: b0bb 883f b51e 903f 005a d93f 6097 983f
000003b0: bc12 973f 044b c23f 09d4 5d3f 318e 943f
000003c0: 66d5 0fb8 ae34 bdb9 dcd2 9a3f 6ebf b33f
000003d0: 06f0 813f c612 913f 1ee6 783f 265f 833f
000003e0: e0cb 80b9 efee c93f c6bf 803f de2a 863f
000003f0: 3124 ba3f ff0a f73f 5ec8 9c3f 5b1d 7c3f
1.265656 0.9601842 1.1432287 1.0377449 1.0694503 1.4493158 1.6817503 1.1204071
1.0683049 1.0513138 1.0803107 1.1130155 1.226376 1.2299818 0.9160492 1.0580229
1.0613018 0.8995978 1.4550875 1.0886017 1.1456403 0.959829 9.104838e-05 1.4576075
0.5004772 0.91704565 1.488289 1.3881087 0.9686023 0.6310398 0.7503707 1.2808228
1.0618879 1.1149529 0.0010255675 1.1159871 1.5442268 1.485927 1.0370756 1.6589094
0.961665 0.94870085 0.9979991 0.99144495 1.346151 1.1223543 0.94430035 1.0454837
1.084068 1.2218505 1.1223888 1.1552004 0.8789068 1.0207703 1.0583678 1.0126945
1.102783 1.5244081 0.94269854 1.2650882 0.7117501 1.5553352 1.1032622 0.935677
1.3141294 0.20750166 0.23192501 1.0042664 1.0774558 1.299459 1.0499147 0.95312375
1.2786154 9.715936e-05 0.08630943 1.2848705 0.9653038 1.0984967 1.1233994 1.1830817
1.2528533 -0.0002751937 1.0758483 1.1793426 0.97203815 1.1348048 1.0311657 1.039033
0.9628923 0.97775394 1.1437485 1.1324071e-05 0.94251424 0.91450495 1.1499512 1.2776124
1.2102239 1.5724398 0.8998786 1.4619 0.83264357 1.4018707 0.9878528 1.0205743
1.0413795 1.3487638 1.2596673 1.3148842 1.0512829 1.0314204 1.2899777 0.99384874
1.0728564 0.9826845 1.1943213 0.0006031291 1.3953271 1.2668344 0.48193157 0.93560517
0.609683 1.1982975 0.8008133 0.00041922674 0.0005780241 1.0593212 0.8503932 0.9191996
0.87429565 1.1131388 0.8260362 1.440446 1.0100228 0.98752373 0.8097306 1.0618167
0.0003927356 1.2216505 1.3635873 1.0826864 0.0001356816 0.88233554 1.0934988 1.0327743
1.1102556 1.3543547 0.9689729 1.5392025 1.0651115 0.9114887 1.0222769 1.0516223
1.0451037 1.3304331 0.94679284 1.2965078 1.5230522 1.5644774 0.97492415 1.0637717
1.0069754 0.91798115 0.88802266 0.9468102 0.9327389 1.0523516 0.9263321 1.4735715
1.0484076 1.4164464 1.0925801 1.2482733 1.5835361 0.9791367 0.9612282 1.3913807
1.1692934 1.4555784 1.4070835 0.95635456 0.8537804 1.4216176 0.85412085 1.4544681
1.3353466 1.4417804 0.9619176 1.2838683 1.2132164 1.039536 1.0026059 0.954608
1.2062949 1.7025067 0.7128875 1.0844761 1.0352638 1.2637357 0.9367285 1.0525851
0.96313304 1.191194 1.4349407 1.6287394 0.9002087 0.9168915 0.91765046 1.0972204
1.0458971 9.5688716e-05 1.1817169 0.9738478 1.049799 0.9054346 1.0619377 1.4694035
0.96940786 1.2798456 0.030124849 1.0185248 1.3802016 1.2410839 -4.3920867e-05 1.1311988
1.113434 0.98684436 0.9906954 1.4746873 0.91746974 2.4346097 0.9524022 1.0697279
1.0682278 1.1259371 1.6980591 1.1921196 1.1802592 1.5179143 0.86651665 1.1605893
-3.42926e-05 -0.0003608814 1.2095599 1.4042795 1.0151374 1.1333854 0.9722613 1.0263412
-0.0002456596 1.5776042 1.0058525 1.0481832 1.4542295 1.9300231 1.2248647 0.9848229
