3d_solid_solid/outputs/modified_fourier_net/heat_net.0.pth (torch, 442850 bytes, 26 tensors)

fourier_layer_xyzt.frequencies f4 [3, 30]
000000 00 00 00 00 00 00 00 00 00 00 00 00 00 00 80 3f
       0.0 0.0 0.0 1.0
000010 00 00 00 00 00 00 00 00 00 00 00 40 00 00 00 00
       0.0 0.0 2.0 0.0
000020 00 00 00 00 00 00 40 40 00 00 00 00 00 00 00 00
       0.0 3.0 0.0 0.0
000030 00 00 80 40 00 00 00 00 00 00 00 00 00 00 a0 40
       4.0 0.0 0.0 5.0
000040 00 00 00 00 00 00 00 00 00 00 c0 40 00 00 00 00
       0.0 0.0 6.0 0.0
000050 00 00 00 00 00 00 e0 40 00 00 00 00 00 00 00 00
       0.0 7.0 0.0 0.0
000060 00 00 00 41 00 00 00 00 00 00 00 00 00 00 10 41
       8.0 0.0 0.0 9.0
000070 00 00 00 00 00 00 00 00 00 00 00 00 00 00 00 00
       0.0 0.0 0.0 0.0
000080 00 00 00 00 00 00 00 00 00 00 80 3f 00 00 00 00
       0.0 0.0 1.0 0.0
000090 00 00 00 00 00 00 00 40 00 00 00 00 00 00 00 00
       0.0 2.0 0.0 0.0
0000a0 00 00 40 40 00 00 00 00 00 00 00 00 00 00 80 40
       3.0 0.0 0.0 4.0
0000b0 00 00 00 00 00 00 00 00 00 00 a0 40 00 00 00 00
       0.0 0.0 5.0 0.0
0000c0 00 00 00 00 00 00 c0 40 00 00 00 00 00 00 00 00
       0.0 6.0 0.0 0.0
0000d0 00 00 e0 40 00 00 00 00 00 00 00 00 00 00 00 41
       7.0 0.0 0.0 8.0
0000e0 00 00 00 00 00 00 00 00 00 00 10 41 00 00 00 00
       0.0 0.0 9.0 0.0
0000f0 00 00 00 00 00 00 00 00 00 00 00 00 00 00 00 00
       0.0 0.0 0.0 0.0
000100 00 00 00 00 00 00 80 3f 00 00 00 00 00 00 00 00
       0.0 1.0 0.0 0.0
000110 00 00 00 40 00 00 00 00 00 00 00 00 00 00 40 40
       2.0 0.0 0.0 3.0
000120 00 00 00 00 00 00 00 00 00 00 80 40 00 00 00 00
       0.0 0.0 4.0 0.0
000130 00 00 00 00 00 00 a0 40 00 00 00 00 00 00 00 00
       0.0 5.0 0.0 0.0
000140 00 00 c0 40 00 00 00 00 00 00 00 00 00 00 e0 40
       6.0 0.0 0.0 7.0
000150 00 00 00 00 00 00 00 00 00 00 00 41 00 00 00 00
       0.0 0.0 8.0 0.0
000160 00 00 00 00 00 00 10 41
       0.0 9.0

fc_u.linear.weight f4 [128, 63]
000000 29 d4 02 3e e8 a8 5e 3f b0 ff 55 3d ea 0b c7 3e
       0.12776245 0.8697648 0.052245796 0.38876277
000010 3d dc f1 3e 65 a6 ec 3e f8 30 b6 be 26 93 b0 3d
       0.4723834 0.462207 -0.35584235 0.08621816
000020 34 b5 94 3f 7e 04 79 3e 53 6b d5 bd 09 84 87 3d
       1.1617799 0.2431812 -0.10420861 0.066169806
000030 44 d5 14 bd d0 83 a0 3c d1 54 45 be bd 81 12 be
       -0.0363362 0.019594103 -0.19270636 -0.14307304
000040 fb 21 60 3e 28 78 eb bc 3a ed 05 bd 77 fb df bd
       0.21887963 -0.028743818 -0.03269694 -0.10936635
000050 81 7f 80 3e a2 65 ee 3d 84 50 d5 3d 0b 5d d5 bd
       0.25097278 0.11640479 0.10415748 -0.10418137
000060 a4 a0 41 3c 7d 52 43 3e 26 74 60 be d2 45 6d 3e
       0.011818085 0.19074436 -0.21919307 0.23171166
000070 d4 70 8d 3d a7 28 6e 3e 2d 00 64 3c 9d 00 a2 3d
       0.06906286 0.23257695 0.013916058 0.07910273
000080 a5 6b 75 3e e2 53 bf be 42 55 15 bf 7e 3f db be
       0.23966844 -0.37368685 -0.5833322 -0.42821878
000090 35 ff 0d 3f 58 87 da 3e 11 2a d6 3e 2c 17 8c 3e
       0.5546754 0.42681384 0.4182897 0.2736143
0000a0 b1 a2 a9 3e 80 93 54 be 26 24 5b 3e 60 9f c7 3d
       0.33131936 -0.20759392 0.21400508 0.09747195
0000b0 cf ca 5b 3e 99 24 92 bd 6a 36 ba bc 5a 07 0f be
       0.21464084 -0.07135887 -0.022731025 -0.13967648
0000c0 a8 09 8f be 0b 7e b0 3d a2 41 d4 3d e1 47 56 3c
       -0.27937055 0.08617791 0.10364081 0.013078661
0000d0 69 a0 0a 3e 05 c5 6d bb 33 38 93 be 73 45 c7 bd
       0.13537754 -0.0036280763 -0.28753814 -0.09730043
0000e0 05 ad 01 be 4c 99 c3 bd a0 e9 bb 3d 4a 81 9a 3e
       -0.12663658 -0.095507234 0.0917542 0.30176765
0000f0 cd cb 54 3c 4f 00 f8 3d 02 25 c5 3e 0e 4c de 3c
       0.012988043 0.12109434 0.38504797 0.027135875
000100 83 a4 c5 3e a2 4f 23 3d 0a 7d 0c c0 46 70 0c c0
       0.38602075 0.039870866 -2.1951318 -2.1943526
000110 fc 4f 19 c0 3b 2e ba bd 8b 59 b5 bd 67 c7 ec 3d
       -2.3955069 -0.09090849 -0.088549696 0.115614705
000120 ec 15 f6 bd 50 1e 72 3d 66 6d ff 3c 9e e6 f2 bd
       -0.120159 0.05911094 0.031180095 -0.11860393
000130 5d df 8e 3e be ad 9d 3d 72 53 30 be b2 dd 1f 3e
       0.27904788 0.07699154 -0.17219332 0.15611914
000140 04 53 e3 3d 64 bd 96 bd ed ed 8c bb 90 01 1d bc
       0.11099818 -0.07360342 -0.004300824 -0.009582892
000150 7a 65 0c 3e b4 91 ce bc b7 03 4b 3e 60 12 1a 3c
       0.13710585 -0.025215961 0.19825636 0.009403795
000160 0d bc 34 3e 25 5f 75 bc 54 6a c1 bd 07 c3 45 3e
       0.1764986 -0.0149762975 -0.094441086 0.19312678
000170 34 dc 0d be 45 32 a0 bd 8a de 00 3d f0 60 9d 3d
       -0.13853532 -0.07822088 0.03146223 0.07684505
000180 28 e2 33 3e cd 9e 29 bd 75 e4 d4 3d 1f 0f 54 3d
       0.1756674 -0.04141121 0.10395137 0.051772233
000190 40 e4 f1 3c 38 c1 2b ba 1d 04 80 3e d1 54 a1 3d
       0.029527783 -0.0006551924 0.25003138 0.078775056
0001a0 d8 38 a8 3d a6 e5 89 3e d0 a8 cc bd bc ad 4e 3e
       0.08213967 0.2693302 -0.09993136 0.20183462
0001b0 be 72 05 3e 73 cb 27 be 9a 16 98 3d 6f 72 81 be
       0.13032052 -0.16386203 0.07426186 -0.25282618
0001c0 b7 15 90 bd 56 9c 96 3d d7 4e 1a be 05 85 0e 3d
       -0.07035392 0.073540375 -0.15069138 0.034794826
0001d0 53 3c fe 3b 01 44 7a 3d 7d aa 07 3d 74 b1 81 be
       0.007758656 0.06110001 0.033121575 -0.25330698
0001e0 4f de ec 3d dc 0a f3 bd 80 97 d0 3d d5 8f 03 3d
       0.115658395 -0.11867306 0.10185146 0.03211959
0001f0 63 19 9b bd 2d 82 e3 3d 84 60 db 3c 29 ac a2 3e
       -0.075732015 0.111088134 0.02677942 0.31771973
000200 6e f2 8b 3f 72 63 d7 3e 92 f5 b5 be c8 4b a2 be
       1.0933359 0.42068058 -0.35538918 -0.31698442
000210 5a 71 ed be 4b 5f 2c 3e 8c 77 9a 3f 1d d2 2f bd
       -0.46375543 0.16833226 1.2067733 -0.04292499
000220 03 d1 8d 3b ba ca c5 be 4a 01 88 be b3 cb f9 3d
       0.0043278947 -0.3863123 -0.26563483 0.12197056
000230 f0 31 fd 3d b5 49 7f 3e 43 45 84 3d 74 79 81 be
       0.123630404 0.24930461 0.06458523 -0.25287974
000240 cf a8 46 3e 28 98 a9 bd 71 f6 ca 3e 7b 84 9a 3e
       0.19400333 -0.082809746 0.39641145 0.301792
000250 25 a8 92 3d 83 28 59 bd 8e 13 8d be b4 3d 30 3d
       0.07160977 -0.05301715 -0.27553982 0.043027595
000260 c4 2c 85 3e 6a f0 b8 bd cc 33 e0 bc 60 ea 4e bc
       0.26010716 -0.0903023 -0.027368449 -0.012629122
000270 25 1c 40 3b 11 10 19 bd 5d b2 18 3d 95 99 88 be
       0.002931365 -0.037368838 0.037279475 -0.26679674
000280 b4 28 9b be 23 5e 28 bf 2c c0 5e 3e cc be cd 3d
       -0.30304492 -0.6576864 0.21752995 0.10046157
000290 43 42 30 3e 36 26 12 3e 43 85 e7 3c 9e 41 4b bd
       0.17212777 0.14272389 0.028261786 -0.049623124
0002a0 bb a1 e6 3d f5 6d 26 3c 05 e1 20 be bc dc 44 be
       0.112613164 0.010158052 -0.15710838 -0.19224828
0002b0 27 00 37 bd 42 70 a9 bd e8 08 4a be 2b 51 1e 3e
       -0.04467788 -0.082733646 -0.1972996 0.1546065
0002c0 ce 35 6b bd 22 7e c1 bc 54 0d 0c be 2e 0e eb 3d
       -0.05742436 -0.023619715 -0.1367696 0.11477314
0002d0 24 3f 7a 3e be 4f 65 be d8 0b 23 3e 62 1f 5f 3e
       0.24438149 -0.223937 0.15922487 0.21789315
0002e0 52 84 b8 bd 84 20 d9 3a 5d 9e c0 3e f4 e8 62 3b
       -0.09009613 0.0016565477 0.37620822 0.0034623714
0002f0 8d ab 9a 3e b9 eb 87 bd 57 29 e5 3c 49 de ab be
       0.30209008 -0.066367574 0.027973814 -0.33568028
000300 30 f8 e1 be f9 38 d8 3e a8 51 d0 3e 0f a1 52 be
       -0.44134665 0.42230967 0.406873 -0.20569251
000310 11 01 0c be 65 66 38 3e 82 95 0d 3e e2 99 0d bd
       -0.13672282 0.1800781 0.13826564 -0.034570582
000320 54 74 4c 3c 8f 7b 09 3e e3 43 1a be f7 6d b3 be
       0.012478907 0.1342604 -0.15064959 -0.35044834
000330 70 63 99 bd 11 90 39 3e ab df d3 3e 96 b1 14 bd
       -0.07489669 0.18121363 0.41381583 -0.03630217
000340 43 30 ca 3a e0 92 b3 be 11 dd f1 3d d5 b6 32 be
       0.001542576 -0.35072994 0.11809743 -0.17452557
000350 e9 b9 de 3e 10 86 09 3e c5 ac 8f 3c b0 a5 57 3b
       0.43501213 0.13430047 0.017538438 0.0032905154
000360 c3 c4 ec 3d 09 b0 3b 3e 06 21 1b 3e 12 9e 00 3e
       0.11560967 0.18328871 0.15149316 0.12560299
000370 86 48 19 be fb f7 6b 3e 39 3c af bd 15 90 52 be
       -0.14969072 0.23043816 -0.085564084 -0.20562775
000380 55 ea 99 3c c2 2a 3f 3c 3b ea 81 3d e9 53 b6 3d
       0.018788496 0.011667909 0.06343504 0.08902723
000390 16 94 2f be c8 33 e2 bd eb 55 4f 3f 23 2b 87 3d
       -0.17146334 -0.11045033 0.80990475 0.066000246
0003a0 23 26 46 be 8c 14 a2 be 66 f9 43 bd eb fc 8f be
       -0.19350486 -0.316563 -0.047845267 -0.2812265
0003b0 93 50 6f bd db b8 5b be fa fb d2 3e 10 12 53 3d
       -0.05842645 -0.21457236 0.41207868 0.051530898
0003c0 19 ba 8f be 82 c1 94 be 46 03 c3 bd 44 3d 4b be
       -0.2807167 -0.29053885 -0.09522109 -0.1984759
0003d0 75 ec bd 3c d6 84 a0 3e 82 c5 14 be 19 3f 00 3b
       0.02318404 0.31351346 -0.14528468 0.001956886
0003e0 dd ca 25 3d 1c 05 95 3c ba dd a2 3e 7a 30 2f 3e
       0.04047667 0.018190913 0.3180979 0.17108336
0003f0 a3 3c 80 be 92 31 9d 3f 79 82 71 be fa b9 f1 bf
       -0.25046262 1.2280753 -0.23584928 -1.888488

fc_u.linear.weight_g f4 [128, 1]
000000 5e 2b 1d 3f 19 3d 16 b9 08 a0 29 3f c6 5d 23 3f
       0.613943 -0.00014327875 0.66259813 0.6381496
000010 e9 b5 23 3b e4 59 40 3f 43 30 27 3f 03 51 23 3e
       0.0024980253 0.7513716 0.65308017 0.15948872
000020 e1 fc 1b 3f 83 a0 33 3f 75 21 d5 3f 2b ec 15 3f
       0.6093274 0.70166796 1.6650835 0.5856349
000030 57 5d 23 3f 34 46 31 3f db c3 26 3f e2 d3 2a 3f
       0.638143 0.69247746 0.651426 0.6672956
000040 2b 6c 1a 3f c0 c1 1b 3f fa a4 1a 3f 77 97 cb 40
       0.603213 0.60842514 0.60407984 6.3622394
000050 e2 1d 1b 3f 55 d3 55 3f 56 21 06 3a ba 68 24 3f
       0.6059247 0.8352559 0.0005116662 0.642223
000060 e8 c3 98 b8 4d ff 19 3f 20 29 1b 3f c4 f4 d3 3e
       -7.284415e-05 0.60155183 0.60609627 0.4139768
000070 f6 bf 66 3f 85 0a 82 3f 07 5c 38 3f f8 dc d8 3e
       0.9013666 1.015946 0.7201542 0.42356086
000080 af 86 6b 3f a4 ca 23 3f c6 87 2b 3f 90 59 26 3f
       0.92002386 0.6398108 0.6700405 0.6498041
000090 e9 b5 f0 3e b4 36 81 3f 93 95 a7 3e 9a 59 16 3f
       0.47013786 1.0094819 0.32731304 0.5873047
0000a0 11 8e 1e 3f 31 13 2a 3f 84 99 24 3f 84 e2 11 3f
       0.61935526 0.66435534 0.64296746 0.5698626
0000b0 54 2e 29 3f 8e 9b 1a 3f 7d 8e 2c 3f ce 44 02 bb
       0.66086316 0.6039361 0.6740492 -0.0019877437
0000c0 ab 65 25 3f 6f 2a 28 3f 08 66 36 3f 9d cb c5 3e
       0.6460826 0.6568975 0.7124944 0.38631907
0000d0 1a 4b 1b 3f 41 f0 88 3e 53 8d 00 3f 99 9e 37 3f
       0.6066147 0.267458 0.50215644 0.71726376
0000e0 2d 27 09 3e 57 ec 51 3f 66 ac 47 3f 3d 2e f2 3f
       0.1339385 0.8200125 0.77997434 1.8920361
0000f0 f8 d9 1b 3f e6 9c fb 3e 93 a8 e5 3f 93 24 2e 3f
       0.6087947 0.49143142 1.794207 0.6802456
000100 77 af 30 ba 43 ab 23 3f 9c e7 20 3f 8f 9c 2e 3f
       -0.00067400135 0.639332 0.6285341 0.6820764
000110 e9 53 24 38 1c df 3a 3f 4b 4e 26 3f b4 f7 4e 39
       3.9178794e-05 0.7299669 0.64963216 0.00019737968
000120 82 d5 f5 3e f0 23 91 b9 f8 3a 2a 3f e1 03 e9 3e
       0.48014456 -0.0002768333 0.6649623 0.45510772
000130 c4 15 2f 3f c1 5f 82 3f 96 68 34 3f 36 49 03 ba
       0.68392587 1.0185472 0.70472085 -0.00050081627
000140 43 45 14 3f 06 07 c5 b9 46 bb 24 3f de 7c 1b 3e
       0.57918185 -0.0003758 0.64348257 0.15184352
000150 04 1d fc 38 25 83 1b 3f 59 53 86 3f b5 6e 1a 3f
       0.00012021701 0.60746986 1.0494186 0.60325176
000160 ff 30 11 3f e6 4a 9d b9 eb cd 82 3e e4 a8 1b 3f
       0.5671539 -0.00030001177 0.25547728 0.6080458
000170 2a 60 27 3f f3 f1 19 3f ea 7d a7 3e b3 03 2a 3f
       0.6538111 0.6013481 0.32713252 0.66411895
000180 3b a4 24 3f 28 49 fd 3e 6a 32 2e 3f 8e bc 2a 3f
       0.64313096 0.49469876 0.68045676 0.6669396
000190 e2 52 26 3f 79 27 2e 3f 19 63 cb b8 e5 f2 81 3f
       0.6497022 0.6802898 -9.698253e-05 1.015225
0001a0 b8 ad 28 3f 89 cb 88 3a 5f 1e 8f bc 05 97 1e 3f
       0.65890074 0.0010436635 -0.017470537 0.6194919
0001b0 7d 7f 31 3f 58 c6 75 3e 84 21 18 3f a6 4e 2f 3f
       0.69335157 0.24001443 0.5942614 0.68479383
0001c0 d0 6f 27 3f 84 c3 39 3f ec d9 26 3f c3 2c 94 3e
       0.6540499 0.7256396 0.6517627 0.289404
0001d0 84 2f 2f ba 3b 09 2f 3f 91 b5 59 3f 30 ee 0e 3f
       -0.00066828006 0.6837346 0.85042673 0.55832195
0001e0 5e b8 2f 3f b7 18 72 3f 7d 93 32 3f c3 77 18 3f
       0.68640697 0.9456896 0.697563 0.5955774
0001f0 f3 6e e7 3d 78 48 17 3f 49 72 2c 3f 12 54 22 3f
       0.11300459 0.59094954 0.67361885 0.6340953

fc_u.linear.bias f4 [128]
000000 0e 0a 6d be 81 89 c2 3c e6 23 69 be 6b 43 85 bd
       -0.23148367 0.023747208 -0.227676 -0.065069996
000010 a3 df 01 bb 82 3f 93 be 49 2a 40 be d9 6b ec bd
       -0.0019817136 -0.2875939 -0.1876613 -0.11544008
000020 de 3c a2 be 43 fa 21 be 26 da 92 be ba 30 8d be
       -0.31687063 -0.15818124 -0.2868206 -0.27576238
000030 23 d9 4d be 0e 93 66 be 29 82 85 be db 7c 47 be
       -0.20102362 -0.22517034 -0.26075867 -0.19481222
000040 15 64 5d be 1f 6a 84 be 4a 5c 5c be 99 d9 9b be
       -0.2162021 -0.25862214 -0.2151958 -0.3043945
000050 5f 35 34 be 34 e7 6f be f3 0e e2 3c ce c7 6b be
       -0.17598484 -0.2342804 0.027595019 -0.23025438
000060 38 41 2a 3d 8f fc 8b be 8c 8f 93 be 8c 54 6b 3e
       0.041566104 -0.27341124 -0.28820455 0.22981471
000070 4b a2 81 be 87 6c eb bd 52 36 8c be bb d3 f8 bd
       -0.25319132 -0.11495309 -0.27385193 -0.121497594
000080 c0 2f 45 be 99 43 5b be 23 a1 5a be 9a f5 7e be
       -0.19256496 -0.21412505 -0.21350531 -0.24898377
000090 f2 31 24 be 49 e4 fb be 27 d3 78 bd 59 aa 87 be
       -0.16034678 -0.49197605 -0.060748246 -0.26497152
0000a0 4f 49 5d be 53 b6 63 be 89 a2 81 be 99 a3 72 be
       -0.21609996 -0.2223752 -0.25319317 -0.2369522
0000b0 4c 19 03 be 8a 5e 8d be af 81 1c be 5a 9e 17 3e
       -0.12802619 -0.2761119 -0.15283845 0.148065
0000c0 77 db 67 be b8 20 3c be 6c 89 4b be c8 f7 50 be
       -0.22642313 -0.18371856 -0.19876641 -0.20407021
0000d0 22 0d 89 be 35 bd 0f 3e f2 b0 0e be 94 80 79 be
       -0.26767832 0.1403702 -0.13934687 -0.24365455
0000e0 4c 48 df 3d f5 64 49 be 47 72 73 bb d1 e7 ea be
       0.109024614 -0.19667418 -0.0037146972 -0.45879987
0000f0 08 00 40 be 3b 09 b0 be 09 5c 18 be f3 f1 13 be
       -0.18750012 -0.34382042 -0.14878859 -0.14447765
000100 7c fe 69 3c 4d d6 4b be 86 8e 72 be 2e 2a 39 be
       0.014281865 -0.19905968 -0.23687181 -0.18082497
000110 43 64 8e bb 0f 24 49 be bf 5f 87 be 90 f7 36 3d
       -0.004345448 -0.19642662 -0.26440236 0.044669688
000120 ed 9b 2f bd fd 7c 35 3d cb da 84 be 0b f0 39 bd
       -0.04287331 0.04430865 -0.25948176 -0.04539494
000130 70 37 85 be cc ed b4 be 7e 73 45 be d1 f5 cf bb
       -0.26018858 -0.35337675 -0.19282338 -0.0063464423
000140 ea 46 85 be 48 16 e2 3c 25 f3 52 be c9 4f 81 3d
       -0.26030666 0.027598515 -0.20600565 0.06314046
000150 f9 a9 d2 bd 4e a4 0c be d3 f8 cb bd 0d 4f 4e 3e
       -0.10286326 -0.13734552 -0.09959569 0.20147343
000160 76 b4 97 be 37 6d 73 3d fe 9f 87 be 0e 3d 8f be
       -0.29629868 0.059430327 -0.26489252 -0.2797627
000170 14 ea 5e be 10 cf 91 be 22 c0 0b 3d 8e 78 64 be
       -0.21768981 -0.2847829 0.03411878 -0.22311613
000180 55 a0 60 be 6b 5f e7 bd d6 80 48 be 8a 46 70 be
       -0.21936162 -0.112974964 -0.19580397 -0.23464409
000190 5d 7c 32 3e 55 c7 29 be a7 e1 57 3d e8 e5 80 3e
       0.17430253 -0.16579945 0.052705433 0.25175405
0001a0 95 e5 4b be 47 63 05 3e 54 ef 9d 3d f4 13 2c be
       -0.19911797 0.13026153 0.07711664 -0.16804487
0001b0 63 d1 3e be 7e cd 99 bd fc 94 5d be d7 6e 20 be
       -0.18634562 -0.07509898 -0.21638864 -0.15667282
0001c0 1d 7c 5c be 13 c7 4e be b3 0a 22 be 2d 63 e0 bd
       -0.2153172 -0.20193128 -0.15824394 -0.10956416
0001d0 89 50 e4 3b 58 51 23 be c3 7f 21 be cf 1e 7d be
       0.0069676084 -0.15948999 -0.15771393 -0.24718784
0001e0 3d 2e 48 be ca e2 b1 be 53 b5 41 be c4 dd 94 be
       -0.19548889 -0.3474334 -0.18916826 -0.29075444
0001f0 f8 f8 8d bc 09 78 99 be 21 28 63 be a0 b8 60 be
       -0.017330632 -0.29974392 -0.22183277 -0.21945429

fc_v.linear.weight f4 [128, 63]
000000 86 14 b7 3d 0a fd b0 3c cc f8 a6 bd 64 a9 52 bf
       0.089394614 0.021605033 -0.08152923 -0.8228972
000010 06 e7 53 3f fe 9b 5e bf 3f 10 96 bd 2c 01 6a 3e
       0.8277439 -0.86956775 -0.073273174 0.2285201
000020 0c e7 06 3c 9f 91 6a be 20 da 3c 3d 7d 66 96 bd
       0.008233797 -0.22907113 0.046106458 -0.07343767
000030 c7 b5 f4 3d 0b 47 10 be e0 72 8e be 00 fc 87 bd
       0.11948734 -0.140896 -0.27822018 -0.06639862
000040 79 b7 c4 3c 2d 0d 93 3c c2 3e 09 3e cc 4a 74 be
       0.024013268 0.017950619 0.13402846 -0.23856658
000050 86 3b 19 be cb 71 89 be e9 a2 31 3d 14 ea 3e bd
       -0.14964113 -0.2684463 0.043368254 -0.046609953
000060 ec 71 0b be 88 80 a6 be 73 05 b4 be 3d c3 b5 be
       -0.13617676 -0.32519937 -0.35160407 -0.35500517
000070 ff 3a 68 be 1c a9 32 be dc b6 32 be 30 06 31 bc
       -0.22678755 -0.17447323 -0.17452568 -0.010804698
000080 17 f1 a9 3c c2 d0 b2 bd 18 67 53 3e d0 c3 c7 3d
       0.020744843 -0.08731224 0.20644796 0.09754145
000090 81 71 69 3c 8b 37 d4 3d 7e 63 f9 bd 14 2a 94 be
       0.014248253 0.103621565 -0.1217718 -0.28938353
0000a0 7a 3a 33 3e 7b 56 81 3e 20 38 22 3e 45 62 73 be
       0.17502776 0.25261292 0.15841722 -0.23767956
0000b0 13 c4 ce be b1 78 ce 3d 38 96 6d 3e 56 d1 82 3e
       -0.40383968 0.10081614 0.23201835 0.25550336
0000c0 26 21 9f 3e 53 67 ca be f8 8a d7 3d c5 d9 8f 3d
       0.31079978 -0.39531955 0.10524553 0.07023958
0000d0 a8 de 7b bd 3c ba cf bc 33 9e d8 3d 5e c0 a4 3e
       -0.06149164 -0.025357358 0.10577049 0.32178015
0000e0 38 83 aa bd f1 67 00 3e 06 40 a8 be 00 b0 02 bf
       -0.08325809 0.1253965 -0.32861346 -0.51049805
0000f0 7f 20 d5 bd 5c d3 97 be a6 0d d7 3e 7b db 1a 3e
       -0.10406589 -0.29653442 0.420026 0.15122788
000100 81 ef 7a 3e 39 99 47 3e ec 48 17 3f a5 a7 1e bf
       0.24505426 0.19492044 0.59095645 -0.61974555
000110 b3 43 25 3f b9 e4 4d 3d be 24 35 3a ea 66 74 3e
       0.64556426 0.050266955 0.0006910077 0.23867384
000120 6b 42 16 3e 74 ee 00 be a2 84 b6 be 38 db fd 3c
       0.14673774 -0.12590963 -0.35648066 0.03098832
000130 41 f6 92 3d ce b5 2f 3d da 89 13 3e 94 fa 07 be
       0.071758755 0.04289799 0.14408055 -0.13279182
000140 57 27 c4 be e6 fd bb be cb d0 f5 bd b7 b1 e0 3d
       -0.38311264 -0.36717147 -0.12002715 0.109713964
000150 f2 89 28 3e c1 37 58 3d 6d a9 b7 3d 2e 4a 0f 3f
       0.16458872 0.052787546 0.08967862 0.55972564
000160 99 4d 66 3e 64 f5 53 bd 02 ee f8 be 38 94 bb be
       0.22490539 -0.051747695 -0.48619086 -0.3663652
000170 3c 42 2a 3e 83 a5 7b 3f 03 fc c0 bd 4c 3b 88 be
       0.16626829 0.98299426 -0.094230674 -0.2660774
000180 25 63 ae bc 26 12 a1 bd 5c 5a 35 be 25 27 3e be
       -0.02128751 -0.0786479 -0.1771025 -0.1856962
000190 be 8c 50 3e 83 f8 70 3e 08 f2 85 3e 6d 32 5f bd
       0.20366189 0.235323 0.26161218 -0.05449145
0001a0 15 c7 25 3d ef 79 be 3d fc a9 11 bd f8 b6 88 3e
       0.040473063 0.09300601 -0.0355625 0.26702094
0001b0 d0 4a 06 be c6 9a 3f be 0d 88 64 3e 8e 70 5f 3e
       -0.13114476 -0.18711385 0.22317524 0.2182028
0001c0 c4 4d fb 3d 39 c8 a6 be 2c 48 e9 3e 0f 0d 07 be
       0.12270692 -0.32574633 0.45562875 -0.13188575
0001d0 9e 60 da 3c 93 f7 39 bf f2 14 43 3e 1b a1 d3 3d
       0.026657399 -0.72643393 0.19050959 0.10333463
0001e0 09 4d 4e 3e df ad 4d 3e 60 c0 12 3d 57 a3 f9 3e
       0.20146574 0.20085858 0.035827994 0.4875743
0001f0 71 14 3b bd 7f 23 9d be fd 19 86 3e ac 2e fe bd
       -0.04567379 -0.30691144 0.26191702 -0.12411246
000200 20 41 dc 3e c9 95 19 3f 99 e6 e3 be ba 4e 17 bf
       0.43018436 0.5999418 -0.4451187 -0.591045
000210 e2 fa 8a be 5a fd aa 3d ed 39 d9 3e 99 06 06 3b
       -0.27144533 0.08349104 0.42427006 0.002045071
000220 3f f9 80 3d ac 1d a4 3d 45 61 68 bd 38 32 a2 bd
       0.0629754 0.08013472 -0.05673339 -0.07919735
000230 f7 e2 7b bd ba fb 9c 3e 34 c1 f5 3d 9b 8e 19 3e
       -0.061495747 0.30660802 0.11999741 0.14995806
000240 05 08 a0 3c 59 a6 54 be 15 0a 34 be 28 42 81 3e
       0.019535074 -0.20766582 -0.17581971 0.25245786
000250 8d 83 90 be 5b 7e c4 3d 99 78 f4 bd 66 cf 71 be
       -0.28225365 0.09594413 -0.11937065 -0.23614272
000260 e8 9f d7 be 8f ef c5 bb 1d ae bd 3e 84 80 b1 3c
       -0.42114186 -0.0060405205 0.370469 0.021667726
000270 53 fb ad be 5f cc c5 be 4d c3 95 be ae 2f 91 be
       -0.33980808 -0.38632485 -0.29250565 -0.2835669
000280 bc 2b 82 bd c3 83 6c be 07 4b 86 3e bc f3 77 3b
       -0.06355998 -0.23097138 0.26229116 0.0037834486
000290 db d1 0d bd ed b9 55 3d 45 9e 8c 3e f6 be 85 3e
       -0.034623962 0.052179266 0.274645 0.26122254
0002a0 ab 3d 11 3e b0 8d 81 3d 4a 68 a1 be ab a2 a9 be
       0.1418368 0.06325853 -0.3152488 -0.33131918
0002b0 99 92 22 be 2b 87 54 3e 93 56 15 bd b3 99 80 3d
       -0.15876235 0.20754687 -0.036459517 0.06279316
0002c0 41 de 3d be 2a 00 33 3e 08 9e 89 be 1a a7 aa 3c
       -0.18541814 0.17480531 -0.2687838 0.020831633
0002d0 cd 0a fe bc bd 75 94 3d 8f 6d d7 bd b0 07 5d 3d
       -0.03101101 0.07249019 -0.105189435 0.05396241
0002e0 e6 90 1a bd e7 8e d2 3d 88 4a 0f bd 1a 9e 15 3f
       -0.037735842 0.10281163 -0.034983188 0.5844437
0002f0 d7 1d 01 be b7 aa 75 3d cc bd 56 3f 95 91 3b 3e
       -0.12609039 0.05997726 0.8388336 0.18317254
000300 2b 24 15 3f 1a 76 ff be f6 e6 16 bf 0e 18 69 be
       0.5825831 -0.49894792 -0.5894617 -0.22763082
000310 92 2b fe 3e 74 1e 6a 3e 80 a6 ed 3e 9c 88 a0 be
       0.49642617 0.2286318 0.46416092 -0.31354225
000320 b6 c1 68 be c2 fe 33 bc 62 76 e2 3d 05 4a 52 bd
       -0.22730145 -0.010986032 0.11057736 -0.05134012
000330 b2 db 8b 3d 5f 3a 2f 3e c0 fe a0 bd 0e 98 d2 bd
       0.06829013 0.1711211 -0.0786109 -0.102829084
000340 f2 54 f9 3d 80 37 4c bd 93 cf 3b be 28 5c ca 3d
       0.12174405 -0.049857616 -0.18340902 0.09880859
000350 0e 20 98 3c 77 29 f6 bc 82 f8 a4 be 9c 7f 4f 3d
       0.018569972 -0.030049069 -0.32220846 0.050658807
000360 f0 a5 15 be b9 5a 0b be 17 7e b1 3d 1a 77 a8 3c
       -0.14614081 -0.13608827 0.08666628 0.020564605
000370 73 b2 a7 bb 77 d1 8e 3d 81 77 16 bf cf f1 b1 be
       -0.0051177084 0.06973546 -0.587761 -0.34754798
000380 8c 95 8c bd 7e 08 c8 3e 53 90 11 3f 1d 3f f7 3e
       -0.06864461 0.3906898 0.56860846 0.4829034
000390 18 21 98 3e c7 57 12 3d 0a f5 cd 3e 2e 39 03 be
       0.2971275 0.035728242 0.40226012 -0.12814781
0003a0 a9 8c 21 3e a4 ea ee 3d a6 a3 92 3c 12 9e 1c 3d
       0.15776314 0.11665848 0.0179003 0.038236685
0003b0 c0 cd 02 bd 95 79 a5 3d 2c 8d 8b 3e 0b fc 24 bd
       -0.0319345 0.080798306 0.27256143 -0.04027943
0003c0 73 b7 10 3e f7 b0 dd bd 36 6e 93 3d 60 d2 2d bd
       0.1413248 -0.10824769 0.071987554 -0.042436957
0003d0 8d 42 19 be 5f da 2c bd 8c 39 51 3d f8 be a1 3d
       -0.14966793 -0.042200442 0.05108027 0.078977525
0003e0 07 b6 f6 3d 56 b5 7a bd 2e 6b 43 3d 3c 92 b6 bc
       0.12046438 -0.06120809 0.047709636 -0.022286527
0003f0 2a 9a a4 3e ef 3a 87 3e 78 38 81 3e 7f 31 e1 3e
       0.32148868 0.2641215 0.25238395 0.43983075

fc_v.linear.weight_g f4 [128, 1]
000000 e9 a2 99 3e 18 0f f2 3e 71 74 0f 3f 55 d1 0a 3f
       0.30007103 0.4727714 0.5603705 0.54225665
000010 41 1a 27 3f 88 b3 85 3f 72 5c 14 3f 4f 28 1e 3f
       0.65274435 1.0445414 0.5795356 0.61780256
000020 86 bd 4c 3f ec 22 88 3f 40 18 4a 3f 71 d1 2f 3f
       0.7997669 1.0635657 0.7894325 0.6867896
000030 00 1c 9b 3f 21 96 b4 3e 7a 67 a5 3f c4 9c 80 3f
       1.211792 0.3527079 1.2922204 1.0047841
000040 69 75 35 3f bf ac 50 3f 17 63 89 3c 81 6e 45 3f
       0.7088228 0.8151359 0.016770883 0.7712174
000050 64 32 8d 3f f9 7f 4f 3f 7b 55 42 3f 9e d0 25 3f
       1.1031003 0.81054646 0.7591168 0.6477145
000060 b8 bf 81 3f 7f 45 0a 3a 0f 4e 67 3f 9f a8 36 3f
       1.0136633 0.0005274638 0.9035348 0.71351045
000070 f0 32 0d 3d eb a3 5c 3f e7 5f 49 3f 2a 5e 33 3f
       0.034472406 0.8618762 0.7866196 0.7006556
000080 0e 83 23 3f 20 03 90 3f a0 df 5c 3f 50 28 ff 3e
       0.6387185 1.1250954 0.86278725 0.49835443
000090 cc 22 5e 3f 64 e4 49 3f ca e6 d3 3e c9 d9 ad 3f
       0.86771846 0.7886412 0.41387016 1.3582088
0000a0 2e b9 79 3f a2 eb 8b 3f 92 f2 12 3f 4d ae a6 3f
       0.97548187 1.0931284 0.5740138 1.3021942
0000b0 67 7c a9 3f c5 a4 a8 3f 61 06 1b 3f 10 e6 8e 3f
       1.324109 1.3175284 0.6055661 1.116396
0000c0 54 e4 68 3f d0 b1 40 3f ae 24 d3 3f e8 99 3a 3f
       0.909734 0.7527132 1.6495569 0.7289109
0000d0 8c 1f 7e 3f 7a 19 3a 3f 9c 20 46 3e a9 dd 44 3f
       0.99266887 0.72695124 0.19348377 0.76900727
0000e0 78 aa 30 3f 2c 6e 27 3f f0 c4 2f 3f 96 f3 16 3f
       0.69010115 0.65402484 0.6865988 0.5896543
0000f0 1a 47 4f 3f 1b f8 78 3f 43 ca 0d 3f 32 29 e7 3e
       0.8096787 0.9725358 0.5538675 0.45148617
000100 94 b5 72 3f 7a f6 31 3f 57 af 7a 3f e4 7b d3 3c
       0.94808316 0.6951672 0.979238 0.025815912
000110 e4 9b 21 3f 46 17 24 3f 62 13 27 3e 7e 1a 0d 3f
       0.63128495 0.6409801 0.16315988 0.5511855
000120 df ba 28 3f bf c4 14 3f 52 11 d6 3f c6 f8 37 3f
       0.6591014 0.5811271 1.6724036 0.71863973
000130 08 56 48 3f 56 f9 37 3f f2 5e b7 3f 45 e9 9e 3f
       0.78256273 0.7186483 1.432585 1.2414938
000140 2c ed fc 3f 2f 79 8f 3f 9a 63 84 3f 14 09 6f 3f
       1.9759879 1.1208857 1.0342896 0.9337323
000150 ed a0 d3 3f 31 71 40 3f 0b 18 21 3f 15 96 1c 3f
       1.6533486 0.75172716 0.6292731 0.61166507
000160 35 b4 e9 3f da 80 24 3f d3 a3 20 40 5e 97 8b 3e
       1.825812 0.6425911 2.509999 0.27263921
000170 57 67 d3 3e 77 2b 00 3f bc 02 4a 3f 53 71 07 3f
       0.4128978 0.5006632 0.7891042 0.52907294
000180 2d 9f 3e 3f bf 66 23 3f 21 82 15 3e 1e 88 6e 3e
       0.7446163 0.63828653 0.14600421 0.23294112
000190 66 34 3f 3f 94 89 91 3f e6 58 d0 3f cf 40 36 3f
       0.7468933 1.137011 1.627713 0.7119264
0001a0 12 9c 7a 3f 84 78 34 3f 14 e4 50 3f d9 a0 b2 3f
       0.97894394 0.7049639 0.8159802 1.3955337
0001b0 e0 70 3f 3e 57 1c 78 3f 42 a1 a1 3e 99 c4 2e 3f
       0.18695402 0.96918243 0.31568342 0.68268734
0001c0 b4 0e 8b 3f 9e 84 7a 3f af 14 86 3b 78 12 20 3f
       1.0863862 0.9785861 0.004091821 0.6252818
0001d0 bd d2 e1 3e 32 a3 c6 3f 81 c3 2b 3f 32 bb 5c 3f
       0.44106093 1.5518553 0.6709519 0.8622314
0001e0 c6 ce 6d 3f ea a4 7c 3f 02 b9 61 3f 29 96 37 3f
       0.92893636 0.9868914 0.88172925 0.717135
0001f0 ec 40 bf 3e b0 71 2c 3f e4 6f bb 3e 1d 79 4f 3f
       0.3735422 0.67360973 0.36608803 0.8104418

fc_v.linear.bias f4 [128]
000000 6c db b8 3d d1 a4 c3 bd eb fa de bd 67 3d 8b be
       0.090262264 -0.095529206 -0.108877026 -0.27195284
000010 e3 da 1b be 69 c9 b1 be 65 ce e5 3d 88 f5 97 be
       -0.15220217 -0.34723976 0.11221007 -0.29679513
000020 33 5a 21 be cd f8 6a bc b8 50 60 be ab 65 a2 3d
       -0.15757065 -0.014341545 -0.21905792 0.07929548
000030 42 a1 6b bd b1 da 46 bb 89 fb aa be c0 34 be bd
       -0.057526834 -0.0030342753 -0.3339503 -0.09287405
000040 e4 9d ed bd a4 b8 77 be a5 3b 1b 3b 42 13 47 be
       -0.11602381 -0.24191529 0.0023686674 -0.1944094
000050 8f 88 0b be c0 1f 5d be ef e5 29 be 57 8c 66 be
       -0.13626312 -0.21594143 -0.16591619 -0.22514473
000060 a6 f5 32 be e0 8b 3c 3d 4a 8b 2e be 37 76 cc bd
       -0.1747652 0.046031833 -0.17045322 -0.09983485
000070 f4 6d 27 bd 73 82 7b 3e b1 11 61 be 67 39 8b be
       -0.040876344 0.24561481 -0.21979405 -0.27192232
000080 68 6d 1a be cb e4 dc be 0a c5 a0 bd 02 1f 60 3d
       -0.15080798 -0.43143305 -0.07850082 0.05471707
000090 a7 20 3e be 09 6b 71 be bc f2 ea bd de 6c 33 3d
       -0.18567143 -0.23575987 -0.11472079 0.043804996
0000a0 04 5b c5 bd b8 45 b8 be 37 69 8b bd 25 26 80 be
       -0.096365005 -0.3599069 -0.068071775 -0.25029102
0000b0 9b b8 bc 3e 04 0d ad bd 06 6c 24 be 96 49 53 be
       0.36859593 -0.08449748 -0.16056833 -0.2063354
0000c0 99 06 28 3e 48 c3 76 be f2 40 55 3f 71 cb 2a be
       0.16408767 -0.24097931 0.83302224 -0.16679169
0000d0 2f dd ab 3c 2e c1 68 be bd ed f7 bd d1 e0 5a be
       0.020979492 -0.22729942 -0.12105892 -0.21374823
0000e0 72 da 3e 3d e0 a6 36 be a6 91 46 be fe d4 46 be
       0.046595044 -0.17837095 -0.19391498 -0.19417188
0000f0 e6 d4 b0 bd f6 1f 25 3e 41 87 5d be de 1a a6 3d
       -0.08634357 0.16125473 -0.21633627 0.08110593
000100 b2 99 5b bd fc 72 a3 3b 91 2f f0 bd 05 32 50 3e
       -0.053613372 0.0049880724 -0.117278226 0.20331581
000110 c0 ed 04 bb 3d 2f 32 be 5e 28 a1 bd ae f8 ca bd
       -0.0020283312 -0.17400832 -0.078690276 -0.09910713
000120 48 15 3b be 49 c7 86 bd a8 2f ad be e2 14 57 be
       -0.18269837 -0.065809794 -0.3382542 -0.2100406
000130 b8 fb bc 3c 51 3d 75 bd a5 20 6e be 26 bc 8e bd
       0.023069248 -0.05987293 -0.2325464 -0.0696948
000140 c7 1e cd be db e0 44 be 27 e3 f8 bd df e8 53 be
       -0.40062544 -0.192264 -0.12152701 -0.20694302
000150 c4 59 28 be 9b d3 37 be 82 cf 79 be 61 af 95 be
       -0.16440493 -0.17951815 -0.24395564 -0.29235366
000160 c1 7d 26 bd 89 25 6f be 4d 31 a5 be 5c ef 51 bd
       -0.040647272 -0.23354162 -0.32264176 -0.05125366
000170 c8 1a 6e be 19 b3 06 bd 9e af a0 bd 8a 14 15 be
       -0.23252404 -0.032885645 -0.07845996 -0.14558616
000180 d5 c4 4d bc 90 e9 81 be 46 95 87 bd 15 8d 33 3e
       -0.012559135 -0.25373507 -0.066202685 0.17534287
000190 58 95 05 be ac b8 8a 3e bc f3 8a be 64 69 23 be
       -0.13045251 0.27094018 -0.2713908 -0.15958172
0001a0 56 eb 81 be 76 81 46 be 2b fb 25 be 04 04 2f 3c
       -0.2537486 -0.19385323 -0.16209094 0.01068211
0001b0 43 21 6d 3c 84 9b 05 be d1 74 ba 3d eb 43 ee 3d
       0.014473262 -0.13047606 0.09104312 0.11634048
0001c0 d8 41 87 3e d0 6e ea bc 8d 59 a7 bc 44 67 82 be
       0.26417422 -0.028617293 -0.020428443 -0.2546941
0001d0 29 4a f1 bd 6c a3 23 3f 2b b2 72 be d8 31 9f 3e
       -0.11781723 0.63921237 -0.23700778 0.31092715
0001e0 5f 86 81 be ab d5 3f be dc 30 45 be b7 50 8f be
       -0.2529783 -0.18733852 -0.1925692 -0.27991268
0001f0 4a 9b 25 bd 59 b4 c6 3d 59 e0 47 3d 9e c8 92 bd
       -0.0404313 0.09702367 0.04879794 -0.07167171

fc_0.linear.weight f4 [128, 63]
000000 c6 01 06 3c c4 a9 1f bd 48 c8 c5 bc 8b 07 3b 1d
       0.008179134 -0.03898026 -0.024143353 2.4753144e-21
000010 bb 7b 21 1f 8a 41 ba 29 d6 27 10 3d d2 72 aa bd
       3.4195424e-20 8.2714285e-14 0.03519424 -0.083226815
000020 71 9f 38 bd a7 d8 ba bd a7 c2 4c 3e 1c 85 da 3d
       -0.04507393 -0.091233544 0.19996129 0.1066992
000030 65 3e 0c 3c 87 e1 e9 bd 6e 27 2e bd 5c 88 aa bb
       0.008559798 -0.11419969 -0.04251807 -0.0052042436
000040 00 9a 20 be fe e3 d1 3c 8a 94 a6 3c 8f 57 64 3e
       -0.15683746 0.02562141 0.0203345 0.22299026
000050 97 18 26 bc a9 24 c7 bb cd c1 82 bd 0c d8 83 3c
       -0.010137699 -0.0060773683 -0.06384621 0.01609423
000060 fc bf a3 bb ff 1f b0 be c6 01 12 bd 69 9c 56 bd
       -0.0049972516 -0.3439941 -0.035646223 -0.052395258
000070 39 b1 33 3e a5 e2 a7 3c 11 e0 ec 3b c9 b9 1c 3f
       0.17548074 0.020493815 0.0072288592 0.61220986
000080 5f fd 3c bc 52 38 01 bd c7 7c cf 3d a6 dd 0f bd
       -0.011535018 -0.03154785 0.10131221 -0.03512349
000090 26 7b a6 bc a7 10 a3 bd 12 4d f5 3c b7 ce e5 bc
       -0.020322394 -0.079621606 0.029943977 -0.02805267
0000a0 10 c4 31 bd 1b 19 3d 3b dc b6 9a bc 6f c9 16 3e
       -0.04339987 0.0028854075 -0.018886022 0.14725278
0000b0 42 74 a3 3c b3 63 13 3d 58 ec 36 be e5 82 33 bb
       0.019952897 0.035983752 -0.17863595 -0.0027391252
0000c0 80 82 a5 bc af 9f 9f 3c a2 e3 ce 3a d5 41 de bc
       -0.020203829 0.019485323 0.0015784393 -0.027131
0000d0 07 7c 19 3e 63 5b 59 bd 2b 8b 06 bc cd 2a 4d 3d
       0.14988719 -0.05306567 -0.008211891 0.050089646
0000e0 bf 46 94 3c 26 a0 f2 ba fc 6c 2f bf 1f ae 51 bc
       0.01810014 -0.0018510863 -0.6852567 -0.012797861
0000f0 8f bb 78 bb be d9 36 3f 18 f5 32 bc 45 68 1b be
       -0.003795359 0.71426 -0.010922693 -0.15176494
000100 e4 87 ae bc 02 77 fe 3d 3e 12 00 80 52 98 08 00
       -0.021305032 0.12425043 -6.544e-42 7.89326e-40
000110 02 98 08 80 e1 7d c6 bb 2e a3 8e 3e 49 dd 5e be
       -7.89214e-40 -0.0060574864 0.2785887 -0.21764101
000120 11 2a 3a 3e 4f be 44 be 9e ec 10 3e 8c 21 f7 bd
       0.1818011 -0.19213222 0.14152762 -0.120669454
000130 6f d9 8e 3e 7e e7 d9 3c f7 a1 dc bd f3 38 55 3c
       0.27900264 0.026599642 -0.1077308 0.013014066
000140 4e d2 46 be ba f5 c0 3d 54 d5 28 3d 05 9f c5 3e
       -0.19416162 0.094218686 0.04121907 0.38597885
000150 de 24 b8 3e 12 28 08 be 1d 6e db 3c ae 06 3a 37
       0.35965627 -0.13296536 0.026785905 1.1088019e-05
000160 42 70 7b 3c a3 fc 9e 3e f9 0f dd bd ba 3b f2 bc
       0.015346589 0.31052122 -0.10794062 -0.029569495
000170 24 f3 f9 be cf 5f 80 be de 3c ab 3d 59 6b 20 3f
       -0.48818314 -0.25073096 0.08361219 0.626638
000180 fe be 98 bd 81 17 e5 bc 8c 5b 81 bd ed 47 c7 3d
       -0.07458304 -0.02796531 -0.06316289 0.09730516
000190 40 50 89 bd 1d 2e 3c bc 6a 86 53 be 98 03 28 be
       -0.067047596 -0.011485604 -0.20656744 -0.16407621
0001a0 2f 51 ce bd da 20 b8 bd 27 43 ee 3d e2 e1 ca 3e
       -0.10074078 -0.08990641 0.11633902 0.3962546
0001b0 15 11 63 3d f2 ba c1 bd d8 77 6c be 75 c9 8c 3e
       0.055436213 -0.09459485 -0.23092592 0.2749745
0001c0 14 08 37 3e bc b6 5a 3d dd b4 6f bd 0a 33 b0 bd
       0.17874175 0.053396925 -0.058522094 -0.08603485
0001d0 c1 fb 0f 3e e7 3a 96 3b 8a db fd 3d 18 e1 0d 3e
       0.1406088 0.0045846584 0.123953894 0.13855398
0001e0 3c e3 28 3e 82 c0 d8 38 9c 37 3f be 8a 6b b7 3d
       0.16492933 0.0001033554 -0.18673557 0.08956058
0001f0 2f 02 a2 3e 41 54 b3 be 6f 4c 04 bc 2d a8 1c bb
       0.3164229 -0.35025218 -0.008074864 -0.0023903952
000200 fd 4b ff bb c6 a5 14 18 26 ad 85 a4 88 01 00 80
       -0.007791041 1.9212246e-24 -5.797288e-17 -5.5e-43
000210 a1 54 dd 3b cb 85 21 3d 3a 34 3d bd 28 35 e8 3c
       0.0067544733 0.039434236 -0.046192385 0.02834566
000220 04 3e 0b bd dd f2 4a 3b 18 1d d4 bb f0 3c 0d bc
       -0.03399469 0.0030967512 -0.006473195 -0.008620486
000230 a3 8d 16 3d 15 9a fb bc e2 93 52 3e 6a 3c 7f bd
       0.03675617 -0.03071312 0.20564225 -0.062313475
000240 e0 f9 8b 3c a7 c5 bb be 98 52 a4 3c 56 5a 5f 3b
       0.017086923 -0.36674234 0.020058915 0.0034080944
000250 06 2e 5d 3e 5d 7d 40 3c f4 9f 7f 3a d7 52 62 3e
       0.21599588 0.011748639 0.0009751313 0.22101913
000260 b9 24 c1 3d af f4 e9 bb 99 9c 12 bf 14 83 ca bd
       0.094308324 -0.0071397643 -0.572702 -0.098882824
000270 a8 a9 2a 3b 95 bb 05 3f 66 f9 45 3d d8 be 8d 3d
       0.0026041064 0.5223935 0.048333548 0.06921166
000280 72 90 5a 3d d5 27 8c bc 30 45 c2 bb 57 0b 47 ba
       0.05336041 -0.017108837 -0.005928658 -0.00075929373
000290 d3 78 ac 3c 79 ba 6d bb 1a d8 a3 3d b2 6a 7d bd
       0.021053707 -0.0036274476 0.080002025 -0.06186933
0002a0 78 7e 8a 3c 6d 8e 26 be e1 cb 3c 3d 22 fc 36 3c
       0.016906008 -0.16265269 0.04609287 0.011168512
0002b0 7f 74 62 3e b5 8f 20 3c 85 67 4b bc f8 ba ca 3d
       0.22114752 0.009799887 -0.012414818 0.09898943
0002c0 c9 f4 33 3b a1 8a c9 3c 62 9e f3 be 45 c4 8f bb
       0.0027459136 0.024602236 -0.47581774 -0.004387411
0002d0 ad ff e3 bc a5 2f 34 3f 87 5b 80 3d 58 06 95 3b
       -0.027831877 0.703852 0.062674575 0.0045478754
0002e0 2f 47 9c be 37 3c 07 3d 59 cb f9 3b 8b b6 d5 bd
       -0.3052306 0.03301641 0.007623118 -0.10435208
0002f0 3a 97 88 bd c9 19 fe 3c 56 52 14 3d 75 0d e3 3c
       -0.06669469 0.031018155 0.036211334 0.027716378
000300 3e 5b 23 91 75 d7 40 b0 9f e3 a8 8d e0 7e 6f bd
       -1.2886549e-28 -7.0155376e-10 -1.0408597e-30 -0.058470607
000310 5e 6d 8d bd 80 19 81 3d ed b1 8b 3d 50 65 cd bd
       -0.06905626 0.06303692 0.06821046 -0.100290895
000320 5d d4 37 bd 8b b0 00 bd 96 0a 95 3e 66 56 81 be
       -0.04488026 -0.031418364 0.2910964 -0.2526123
000330 60 fd 7b 3b 2b e7 4b 3d b9 0c 73 3e 16 58 0b 3d
       0.0038450584 0.049781006 0.23735322 0.034019552
000340 13 77 f3 be b2 97 41 be d4 35 ec 3c 88 b8 aa 3e
       -0.47551784 -0.18905523 0.028834261 0.3334391
000350 b5 82 5a 3e ab 91 b1 bc b3 e3 b7 3d dc 3e db be
       0.21338923 -0.021675905 0.08978977 -0.42821395
000360 b6 50 62 3b d1 58 24 bf ac a6 bb 3e da 1c 19 bd
       0.003453297 -0.64198023 0.36650598 -0.03738103
000370 16 d1 10 3e 42 c3 e8 be cb 49 17 3c 4d 80 93 3c
       0.1414226 -0.4546147 0.009233902 0.018005515
000380 63 cd 41 3d 19 bf 0d bd 80 51 2e 3d 2d 50 e7 bc
       0.047315013 -0.034606073 0.042558193 -0.028236473
000390 00 c7 b0 bd 7c a7 38 be 8f fa 54 3e 91 4c b4 bd
       -0.08631706 -0.1803264 0.20798706 -0.088036664
0003a0 4d 71 0a be ad ca 7e be 28 4c 5c 3d 2c 7e 99 3e
       -0.13519783 -0.24882002 0.053783566 0.29979074
0003b0 35 66 ae 3d db ed 6f bc b5 c1 be bc f6 80 81 bd
       0.08515588 -0.0146441115 -0.023285726 -0.063234255
0003c0 a2 e9 ab ba 85 1c 2c be 7e a0 d8 3d fd 0c 0d be
       -0.0013115893 -0.16807754 0.105774865 -0.13774486
0003d0 c7 fb e7 3e 8f b7 4a bd 86 cd 82 bc 6c 0d 36 3d
       0.45309278 -0.04949146 -0.015967142 0.044446394
0003e0 e0 66 00 3d 1f 5d 1c 3c 8c 8b 0d bf 71 c6 16 3e
       0.03134811 0.009543686 -0.55291057 0.14724137
0003f0 b3 84 04 bd a8 48 bd bd ae da 76 bd 71 0f d9 b8
       -0.032353114 -0.09242374 -0.060267143 -0.000103502425

fc_0.linear.weight_g f4 [128, 1]
000000 79 93 bd 3f f2 c9 9e 3e 83 bc e0 3f c8 06 b4 3f
       1.481063 0.31013447 1.7557529 1.406457
000010 29 57 d6 3f b3 c6 b9 3f 33 c1 d5 3f cc 12 c0 3f
       1.6745349 1.4513763 1.6699585 1.5005736
000020 d4 11 07 40 cd e1 f6 3f fa 26 17 40 b3 6b d6 3f
       2.1104631 1.9287659 2.361754 1.6751617
000030 44 0a b3 3f 53 2c d6 3f fd 03 cb 3f 8e bc 94 3f
       1.3987508 1.6732277 1.5860592 1.1620042
000040 e9 fa e1 3f 04 8b da 3f 35 64 08 40 b0 4c e8 3f
       1.7654697 1.7073674 2.1311162 1.8148403
000050 f4 18 02 40 eb 63 b0 3f c1 18 c4 3f 44 df db 3f
       2.032773 1.3780493 1.5320054 1.717751
000060 ed 18 d9 3f ad 7b a1 3f b2 70 17 40 93 d0 d0 3f
       1.6960732 1.2615868 2.3662534 1.6313652
000070 16 8b 17 40 d3 fd c1 3f 36 88 bd 3f bb d0 c7 3f
       2.3678641 1.5155586 1.4807193 1.5610574
000080 0d 93 dc 3f 6a e6 c2 3f cd 15 a6 3f 99 e9 d3 3f
       1.7232376 1.5226567 1.2975403 1.6555663
000090 9d d3 be 3f 44 6e c1 3f 19 94 c6 3f cb 97 e0 3f
       1.4908329 1.5111775 1.5513946 1.7546324
0000a0 6c fa be 3f 87 b4 9d 3f 0b 5d 00 40 da fc dc 3f
       1.4920173 1.2320718 2.005679 1.7264664
0000b0 18 b2 dc 3f 7f 7a be 3f 75 d6 ed 3f 02 a8 bc 3f
       1.724185 1.4881133 1.8581072 1.4738772
0000c0 c4 f8 f4 3f fe b9 6e 40 89 d8 ab 3f 2e b6 d2 3f
       1.9138417 3.730102 1.3425456 1.6461847
0000d0 0b 79 2b 40 0f a6 bc 3f b2 b9 11 40 83 0f d7 3f
       2.6792629 1.4738177 2.276959 1.6801609
0000e0 e3 c2 e1 3f d4 60 99 3f ac 59 dd 3f 41 c1 9b 3f
       1.76376 1.1982675 1.7292991 1.2168351
0000f0 dd 26 d6 3f bd d5 df 3f 7f 83 dd 3f b3 59 ec 3f
       1.673061 1.7487103 1.7305754 1.8464874
000100 36 01 1c 40 f4 93 bb 40 1e 1b 18 40 e3 11 df 3f
       2.437574 5.8618107 2.376655 1.7427334
000110 7a 75 b4 3f 63 04 d8 3f 47 ec d1 3f 4a 00 37 40
       1.4098351 1.6876339 1.6400231 2.8593926
000120 bd c0 da 3f 27 70 d5 3f 28 36 00 40 cb d9 bd 3f
       1.7090069 1.6674851 2.0033054 1.483209
000130 3e 3a c9 3f ab d8 bd 3f c8 b5 cb 3f e2 bd ee 3f
       1.5720899 1.4831747 1.591485 1.8651698
000140 fd 72 05 40 41 37 af 3f cd a7 df 3f c1 e6 e2 3f
       2.0851433 1.3688737 1.7473084 1.772667
000150 b1 f3 a1 3f 33 e7 d5 3f 47 fc d5 3f d8 4b c3 3f
       1.2652494 1.6711181 1.6717614 1.5257521
000160 4f 64 26 40 c7 f6 d5 3f ff 5e e6 3f a6 9f ce 3f
       2.5998724 1.6715935 1.799774 1.6142471
000170 c5 d7 c5 3f 09 07 ef 3f 20 61 f0 3f af 56 c4 3f
       1.5456473 1.8674022 1.877964 1.5338954
000180 8d 4d cc 3f b5 df b2 3f 41 b3 e8 3f eb 44 a4 3f
       1.5961167 1.397452 1.8179704 1.2833532
000190 5c d0 d3 3f b8 b5 d1 3f 15 cc bd 3f 6f 64 03 40
       1.6547961 1.6383581 1.4827906 2.053005
0001a0 f2 75 c3 3f 10 f0 ea 3f be c2 0a 40 7c c1 73 3f
       1.5270369 1.8354511 2.1681361 0.9521711
0001b0 22 ba 07 40 5a 2e 00 40 cd 00 b8 3f b5 2e ed 3f
       2.1207356 2.002829 1.4375244 1.8529879
0001c0 9c b4 d9 3f 2c 50 f0 3f 53 1a 10 40 e3 e0 0a 40
       1.7008243 1.8774467 2.2516067 2.169976
0001d0 26 e8 ce 3f 0a e7 62 40 e2 e8 d1 3f b2 01 f8 3f
       1.6164596 3.5453515 1.6399195 1.9375517
0001e0 e6 ed c0 3f 18 a0 f3 3f 0a ba e2 3f d6 83 ca 3f
       1.5072601 1.9033232 1.7713025 1.5821483
0001f0 71 5b df 3f 1d d0 c5 3f 83 8a d1 3f 50 bc db 3f
       1.7449781 1.5454136 1.6370395 1.7166843

fc_0.linear.bias f4 [128]
000000 02 a3 88 3d 51 8e 31 3b aa d3 ce 3d f5 59 97 3a
       0.06671716 0.0027092884 0.100989655 0.0011547195
000010 37 fa 20 3e 72 85 78 bd 8c ac 9a bc eb d5 06 bd
       0.1572045 -0.06067414 -0.018881105 -0.03291885
000020 34 d6 46 3e 6a f1 69 3e 31 ed 78 3e 8b 07 09 3e
       0.1941765 0.22845998 0.24309231 0.13381784
000030 de ec 90 3d 37 97 1d bd 9e 09 71 bd 90 22 4b bd
       0.07076429 -0.038474288 -0.058847062 -0.04959351
000040 6e 38 3f 3d 97 7c 28 3d 99 a2 f0 bc 67 c4 c5 b8
       0.046684675 0.041134443 -0.029374408 -9.430275e-05
000050 fe 36 56 3e fc e4 9d 3c 47 ca 28 bd 80 4e 32 3d
       0.20919415 0.019274227 -0.04120853 0.043531895
000060 28 c0 59 3d cd ac c1 3d 52 bd ec 3d c6 a5 c4 3d
       0.05316177 0.09456787 0.115595475 0.09601931
000070 8c b7 53 bd 9d df 17 3d 4d ad 1b 3e 1a c2 36 bd
       -0.051688716 0.03707849 0.15202828 -0.044618703
000080 eb e0 ff 3b ae ef ab 3d 81 17 ad bd 34 75 c8 bc
       0.0078087947 0.08395325 -0.08451749 -0.02446995
000090 af 0b e4 3d d6 c7 47 bd 1a 4b c0 ba 30 3c 5a bc
       0.11135041 -0.048774563 -0.001467082 -0.013320014
0000a0 a0 d0 1f 3e 93 62 d5 3c f4 f8 10 3d 63 e6 4a 3d
       0.15606928 0.02604798 0.03539367 0.04953612
0000b0 cf 8f 49 bd fa d7 b2 3d 70 90 99 3c 52 da e6 3d
       -0.049209412 0.087326005 0.018745631 0.1127211
0000c0 e7 88 19 bc d7 55 00 bd 2f 94 2f 3d 7e df 46 3b
       -0.009371019 -0.031331863 0.04286593 0.0030345614
0000d0 02 80 8b bc ff d5 15 3d c6 d1 f1 3c b8 8f 29 3d
       -0.017028812 0.036581036 0.029518973 0.041396827
0000e0 a4 09 a3 3d 86 35 07 be e7 e0 79 be 8a 9e 7b 3c
       0.07960823 -0.13204011 -0.244022 0.015357623
0000f0 75 b7 94 bc a7 41 bc 3d c2 fa 54 3e 9c 4d 5c 3d
       -0.018153885 0.0919221 0.20798782 0.05378495
000100 69 39 cc be 3a 46 08 bf 14 bb ce bb 49 c7 33 3d
       -0.3988755 -0.5323216 -0.0063089225 0.043891225
000110 5c b2 3c 3e 4f ac ff 3d 9f de 3d 3d bc 50 80 3b
       0.18427414 0.12484037 0.046354886 0.0039158743
000120 93 23 a7 3b 99 a1 d1 3d f8 b7 00 3e 29 62 b8 3d
       0.0051006763 0.102359004 0.12570179 0.090030976
000130 c3 9b 0d 3e 61 bc 39 3e 66 3c 52 bd 35 0c 86 3c
       0.1382895 0.18138267 -0.05132713 0.016363243
000140 a7 e9 94 3e 36 9a 1b 3e bf 33 a5 3b 2c 6d 00 3e
       0.29084513 0.15195546 0.005041569 0.12541646
000150 a5 49 de 3d e2 3a b3 3c 94 68 54 3d 8d 35 a8 bc
       0.1085389 0.021878663 0.051857546 -0.020533348
000160 8f 50 05 bd 5e 52 e7 3b c5 d0 20 3d 64 9b 1d 3d
       -0.03254753 0.0070593795 0.0392616 0.03847827
000170 df 73 14 3e 2c a7 3a 3e c2 61 8d 3d fa f5 d6 3c
       0.14497326 0.18227834 0.069034114 0.026240338
000180 e6 d8 6d 3d 57 ff 04 3d 50 b4 3f bd 2e 12 e0 39
       0.05806818 0.032470074 -0.04680282 0.00042738154
000190 4d 0f 15 3e 3b a1 a1 bc d5 b4 92 3d 89 e1 25 3c
       0.14556618 -0.019730201 0.07163397 0.010124573
0001a0 30 17 58 3e 03 d2 b7 ba 92 1d a7 bb 05 f7 27 bc
       0.21102595 -0.001402438 -0.0050999606 -0.010251765
0001b0 7c b8 01 3e b3 94 95 bd 70 e4 82 3d cf 2f 43 be
       0.12668031 -0.07303753 0.06391227 -0.19061206
0001c0 cd 08 e8 ba 40 64 eb bb 2a 87 8f 3b 9a 6e 92 3d
       -0.0017702818 -0.0071835816 0.0043801265 0.07150002
0001d0 5f 55 1e bb 09 1a dc bd 3b fa 56 3c df 34 d0 3d
       -0.0024159772 -0.10747153 0.013121183 0.10166334
0001e0 ab fd 3b bd 1c 08 a1 3d ef 30 7a 3d 18 b6 39 3d
       -0.045896214 0.07862875 0.061081823 0.045339674
0001f0 60 52 00 3d b0 86 23 3e c1 f0 0e bc 80 28 f4 b9
       0.03132856 0.15969348 -0.008724392 -0.00046569481
