3d_solid_solid/outputs/modified_fourier_net/heat_net.0.pth (torch, 443234 bytes, 26 tensors)

fourier_layer_xyzt.frequencies f4 [3, 30]
0	0x00000000	0.0
1	0x00000000	0.0
2	0x00000000	0.0
3	0x3f800000	1.0
4	0x00000000	0.0
5	0x00000000	0.0
6	0x40000000	2.0
7	0x00000000	0.0
8	0x00000000	0.0
9	0x40400000	3.0
10	0x00000000	0.0
11	0x00000000	0.0
12	0x40800000	4.0
13	0x00000000	0.0
14	0x00000000	0.0
15	0x40a00000	5.0
16	0x00000000	0.0
17	0x00000000	0.0
18	0x40c00000	6.0
19	0x00000000	0.0
20	0x00000000	0.0
21	0x40e00000	7.0
22	0x00000000	0.0
23	0x00000000	0.0
24	0x41000000	8.0
25	0x00000000	0.0
26	0x00000000	0.0
27	0x41100000	9.0
28	0x00000000	0.0
29	0x00000000	0.0
30	0x00000000	0.0
31	0x00000000	0.0
32	0x00000000	0.0
33	0x00000000	0.0
34	0x3f800000	1.0
35	0x00000000	0.0
36	0x00000000	0.0
37	0x40000000	2.0
38	0x00000000	0.0
39	0x00000000	0.0
40	0x40400000	3.0
41	0x00000000	0.0
42	0x00000000	0.0
43	0x40800000	4.0
44	0x00000000	0.0
45	0x00000000	0.0
46	0x40a00000	5.0
47	0x00000000	0.0
48	0x00000000	0.0
49	0x40c00000	6.0
50	0x00000000	0.0
51	0x00000000	0.0
52	0x40e00000	7.0
53	0x00000000	0.0
54	0x00000000	0.0
55	0x41000000	8.0
56	0x00000000	0.0
57	0x00000000	0.0
58	0x41100000	9.0
59	0x00000000	0.0
60	0x00000000	0.0
61	0x00000000	0.0
62	0x00000000	0.0
63	0x00000000	0.0
64	0x00000000	0.0
65	0x3f800000	1.0
66	0x00000000	0.0
67	0x00000000	0.0
68	0x40000000	2.0
69	0x00000000	0.0
70	0x00000000	0.0
71	0x40400000	3.0
72	0x00000000	0.0
73	0x00000000	0.0
74	0x40800000	4.0
75	0x00000000	0.0
76	0x00000000	0.0
77	0x40a00000	5.0
78	0x00000000	0.0
79	0x00000000	0.0
80	0x40c00000	6.0
81	0x00000000	0.0
82	0x00000000	0.0
83	0x40e00000	7.0
84	0x00000000	0.0
85	0x00000000	0.0
86	0x41000000	8.0
87	0x00000000	0.0
88	0x00000000	0.0
89	0x41100000	9.0

fc_u.linear.weight f4 [128, 63]
0	0x3e057ea7	0.13036595
1	0xbe72987b	-0.23690979
2	0x3e1a179e	0.15048072
3	0x3eedd885	0.46454254
4	0x3ee5ccc7	0.44882795
5	0xbed1d7fb	-0.40985093
6	0x3ce2e03d	0.027694816
7	0x3ea02a08	0.31282067
8	0xbdcac5d0	-0.09901011
9	0x3db230b1	0.087006934
10	0xbe1c34b9	-0.15254487
11	0xbe7563c1	-0.23963834
12	0x3e14e165	0.14539106
13	0xbe807c6e	-0.25094932
14	0x3da6371f	0.08115982
15	0x3e0af6e1	0.1357074
16	0x3e9d01ff	0.30665585
17	0xbc8ebabc	-0.017423026
18	0xbd135944	-0.035973802
19	0x3c449e03	0.012000564
20	0x3d07cf1d	0.033156503
21	0x3dbb38a7	0.09141665
22	0xbdbec407	-0.09314733
23	0xbe0daaed	-0.13834734
24	0xbdd71336	-0.10501711
25	0xbc9226ca	-0.017840762
26	0xbd3dcceb	-0.046338003
27	0xbe652de6	-0.2238079
28	0x3e696c99	0.22795333
29	0x3eacbf10	0.3373952
30	0xbc1e1d5d	-0.009650555
31	0xbe8356d7	-0.2565219
32	0xbc7cf0a1	-0.01543823
33	0xbcbcb73c	-0.023036592
34	0x3d20db29	0.039271507
35	0x3d523f30	0.05132979
36	0xbcd3f9a6	-0.025875878
37	0xbd8e7547	-0.06955963
38	0x3d757623	0.059927117
39	0x3dc862cc	0.09784469
40	0x3f0a2ac5	0.5397151
41	0xbcf2044f	-0.02954307
42	0x3df02661	0.1172607
43	0xbeba5b76	-0.36397904
44	0x3dc1c67b	0.09461685
45	0x3c243298	0.010021828
46	0x3e1d1c57	0.15342842
47	0x3bdc2302	0.0067180404
48	0xbd80010b	-0.06250199
49	0x3e4776b3	0.19478874
50	0x3d801ffe	0.06256102
51	0x3d5e72b6	0.054308616
52	0xbdb8c147	-0.0902124
53	0x3dccc430	0.09998357
54	0x3e546383	0.20741086
55	0xbd5f5a56	-0.05452951
56	0xbcb882f9	-0.02252339
57	0x3c1bd0a0	0.009510189
58	0x3e63b3f9	0.22236623
59	0x3dc2219a	0.09479065
60	0xbd8b14d7	-0.06791084
61	0x3e19965c	0.14998764
62	0xbd8f2e67	-0.069912724
63	0xbe1c4e3c	-0.15264219
64	0xbe8e2fe3	-0.2777091
65	0xbe847e0a	-0.2587741
66	0xbd8ff1b2	-0.070285216
67	0x8002304a	-2.00994e-40
68	0x207d1510	2.1436903e-19
69	0x3ec5feed	0.38671055
70	0xbe9271ef	-0.2860255
71	0xbecdc4b6	-0.4018914
72	0xbeb47f15	-0.35253206
73	0x3eb5580c	0.35418737
74	0x3ea88b1e	0.32918638
75	0xbca750f7	-0.02042435
76	0xbe0e31a6	-0.13886127
77	0xbdafae27	-0.08578139
78	0x3de51477	0.11185544
79	0x3d47b75e	0.048758857
80	0x3e24ef9f	0.16107033
81	0xbd500afc	-0.050791726
82	0x3c466a8e	0.012110366
83	0xbc6c7972	-0.014433252
84	0xbe20b026	-0.15692195
85	0xbaef69ff	-0.0018265842
86	0x3c1eb0f9	0.009685748
87	0x3e17dd93	0.14830618
88	0xbe2eed56	-0.17082724
89	0xbd8e1e62	-0.06939389
90	0x3e402954	0.18765765
91	0x3a6b60dc	0.0008978972
92	0x3e1d883e	0.15384004
93	0xbe9e9119	-0.30970076
94	0x3b74f4ef	0.0037377437
95	0xbcbcf4aa	-0.023065884
96	0x3ed9e925	0.42560688
97	0x3ee376a7	0.44426462
98	0x3edab822	0.42718607
99	0xbe3ca860	-0.18423605
100	0xbe3f720b	-0.18695848
101	0xbe2d1813	-0.16903715
102	0xbd013694	-0.03154619
103	0x3dbaef67	0.091276936
104	0xbe1dd894	-0.15414649
105	0x3e8d5494	0.2760359
106	0x3e402ff4	0.18768293
107	0x3c701470	0.01465331
108	0xbad3e98f	-0.0016167628
109	0xbe40f8ec	-0.18844956
110	0x3d95711a	0.07296963
111	0x3c97f89b	0.018551162
112	0xbd752cfc	-0.059857354
113	0x3d8d4eca	0.068997934
114	0xbdc4f40d	-0.096168615
115	0x3e6cdd0f	0.23131202
116	0x3cf0329d	0.02932101
117	0x3ddc6fde	0.107635245
118	0x3bb3fba7	0.005492646
119	0xbc88a0ef	-0.016678302
120	0xbe1bfdbc	-0.1523351
121	0x3d267b43	0.040644895
122	0x3d8f6e6a	0.07003482
123	0x3b788cd4	0.0037925737
124	0xbe3f6d7d	-0.1869411
125	0x3d814343	0.06311657
126	0xbe192444	-0.1495524
127	0x3e20ceb5	0.15703852
128	0xbd0ae8a1	-0.03391326
129	0x0032b487	4.656536e-39
130	0x0025a353	3.456503e-39
131	0x0030e5e6	4.490576e-39
132	0xbdc231c5	-0.09482149
133	0x3dcb393c	0.09923026
134	0xbdf7c2f9	-0.12097735
135	0xbe6b9db5	-0.23009379
136	0xbdffbb0a	-0.12486847
137	0x3e8182ff	0.25295255
138	0x3da8b7e9	0.08238203
139	0x3e4b0be5	0.19828756
140	0xbbe1e4bb	-0.006893722
141	0x3e8e35da	0.2777546
142	0xbe4f700a	-0.20257583
143	0xbe3253c7	-0.17414771
144	0xbf436e57	-0.7634024
145	0xbe026b73	-0.12736301
146	0x3d8694ea	0.06571372
147	0x3e855d39	0.26047686
148	0x3caa8340	0.020814538
149	0xbda9c3ee	-0.08289324
150	0x3e5e4373	0.21705417
151	0xbdb4a1a7	-0.08819895
152	0xbe39a504	-0.18129355
153	0xbeb1ba52	-0.34712464
154	0xbe1d13a9	-0.15339531
155	0x3daf7d5a	0.08568831
156	0x3e0420bd	0.12903114
157	0x3d80d4cf	0.0629059
158	0xbcd57c42	-0.026060227
159	0xbda70171	-0.08154572
160	0x3e6aa10c	0.22912997
161	0x395e9af4	0.00021229294
162	0xbe1c989b	-0.1529259
163	0xbdbf0bac	-0.09328398
164	0xbe5c94b3	-0.21541099
165	0xbe04287e	-0.12906072
166	0x3cfbeffe	0.030754086
167	0x3c8548bb	0.016270032
168	0x3ec29af8	0.38008857
169	0x3c851798	0.016246602
170	0x3d1f0fc7	0.038833406
171	0xbef74d8a	-0.48301345
172	0x3b98fc63	0.0046687587
173	0xbc4255ca	-0.011861274
174	0xbd1d48b8	-0.038399428
175	0xbe3c808b	-0.1840841
176	0xbe1b2199	-0.15149535
177	0x3eed502a	0.46350223
178	0x3d9d1187	0.07669359
179	0x3dec7d78	0.11547369
180	0xbf0ea2f3	-0.5571739
181	0xbd0a3f9e	-0.033752076
182	0x3cfa5646	0.030558717
183	0x3ea5fac7	0.3241789
184	0xbd0260e3	-0.03183068
185	0xbdfcfed5	-0.12353293
186	0x3e6a1c6f	0.22862409
187	0xbdac69dd	-0.08418629
188	0xbe038ec9	-0.12847437
189	0x3e50797b	0.20358841
190	0x3e9996a0	0.2999773
191	0xbe639994	-0.22226554
192	0x3fb5dd95	1.4208246
193	0x3fc277d3	1.5192817
194	0x3fb6c68b	1.427934
195	0xbd8bfc60	-0.06835246
196	0xbde500be	-0.11181782
197	0xbe2a732a	-0.16645494
198	0x3cde916d	0.027168954
199	0x3da20054	0.07910219
200	0x3dfbc671	0.12293709
201	0xbe894ff0	-0.268188
202	0xbdb617d9	-0.08891267
203	0x3beaa605	0.0071609044
204	0x3e0005b3	0.12502174
205	0x3dd42c37	0.10359996
206	0x3dfb5dff	0.12273788
207	0x3dfaee73	0.12252512
208	0x3e1e1027	0.15435849
209	0xbe00590d	-0.1253397
210	0x3bccd66f	0.0062511484
211	0x3cb1a51c	0.021685176
212	0x3d626386	0.055270694
213	0x3e468dd6	0.19390044
214	0x3ba7e7a9	0.0051240516
215	0x3dcc1a37	0.099659376
216	0xbd60dab4	-0.05489607
217	0xbde34651	-0.11097396
218	0xbe164b92	-0.14677265
219	0xbcde0f62	-0.027106944
220	0xbd775dbf	-0.060392138
221	0xbdc086f2	-0.09400739
222	0xbdc1abb5	-0.09456579
223	0xbdda8134	-0.10669175
224	0xbe0ecdfc	-0.13945764
225	0x3bd53398	0.0065063946
226	0xbe55f7b9	-0.2089528
227	0xbdb67faa	-0.08911069
228	0x3e1c6444	0.15272623
229	0xbc42a58a	-0.011880288
230	0xbe26bd4e	-0.16283152
231	0x3deab795	0.11460797
232	0xbc7ccdc0	-0.015429914
233	0xbd11f284	-0.03563167
234	0xbdfa5061	-0.12222362
235	0x3d21167b	0.03932808
236	0xbd6b7d42	-0.057492502
237	0x3e7c4495	0.24635537
238	0xbdfe7357	-0.12424343
239	0x3c9f827e	0.019471403
240	0xbd98883b	-0.07447859
241	0x3d6235b3	0.055226993
242	0x3e4a7eaf	0.19774888
243	0x3d72591c	0.059167013
244	0x3db60bd7	0.08888977
245	0xbddc75e5	-0.10764674
246	0x3da7b938	0.081896245
247	0x3d11693d	0.035500754
248	0xbe12a588	-0.14320958
249	0xbccba199	-0.02485733
250	0x3d334ca0	0.043774247
251	0x3c4ca6d3	0.012490946
252	0xbd3d4a2f	-0.046213325
253	0xbe0c50cd	-0.13702698
254	0x3e16098e	0.14652082
255	0xbeec7031	-0.46179345

fc_u.linear.weight_g f4 [128, 1]
0	0x3f2d3335	0.6765626
1	0x3f88f77e	1.0700529
2	0x3fb87a9e	1.441242
3	0x3aa011c1	0.0012212322
4	0x3f238294	0.6387112
5	0x3e520f4d	0.2051365
6	0x3f259364	0.64678025
7	0x3f546eb6	0.8298143
8	0x3f9f6be7	1.2454804
9	0x3b46e0dc	0.003034643
10	0x3fa79cf7	1.3094777
11	0x3f77d5eb	0.9681079
12	0x3f0d76d1	0.55259424
13	0x3efd10bd	0.49426833
14	0x3fccbb6b	1.5994695
15	0x3f579168	0.8420625
16	0x3e34522e	0.17609474
17	0x3f15c733	0.5850708
18	0x3f850dbe	1.0394819
19	0x3fcff6d4	1.6247201
20	0x3f79fcc7	0.9765133
21	0x3f125e78	0.571754
22	0x3f53df90	0.82763004
23	0x3f3e5c3f	0.74359506
24	0x3f368743	0.71300143
25	0x3f50314f	0.8132524
26	0x3df0f9d1	0.11766399
27	0x3f329f3e	0.69774234
28	0x3e796e5c	0.24358505
29	0x3f6312a4	0.8870032
30	0x3f93301e	1.1499059
31	0x3f3e1d20	0.7426319
32	0x3f3206a6	0.69541395
33	0x3ec0a453	0.3762537
34	0x3f4746d0	0.77842426
35	0x3ed48fd1	0.41515973
36	0x3f0b9170	0.54518795
37	0x3f339f72	0.7016517
38	0x3f16d216	0.58914316
39	0x3f9a62f2	1.2061446
40	0x3f4bfef6	0.79685915
41	0x3f69d4c4	0.9134028
42	0x3e4c54ad	0.19954176
43	0x3f9b96bd	1.2155377
44	0x3f80653e	1.0030897
45	0x3f07c1be	0.5303
46	0x3e239852	0.15976074
47	0x3f0cc37d	0.5498579
48	0x3efdcca0	0.4957018
49	0x3f221215	0.6330884
50	0x3f9ac60d	1.209169
51	0x3edf1d6c	0.43577135
52	0x3f20b98d	0.6278313
53	0x3f835e4e	1.0263155
54	0x3f393c6c	0.7235782
55	0x3f3a5d71	0.7279883
56	0x3edd39e1	0.4320822
57	0x3f47ef2e	0.78099334
58	0x3f25c913	0.6475994
59	0x3f85e763	1.0461239
60	0x3f0b1946	0.5433544
61	0x3f7195dd	0.943693
62	0x3dcc7669	0.099835224
63	0x40250919	2.5786803
64	0x3cf20392	0.029542718
65	0x3f1eba0b	0.6200263
66	0x3f4efb8d	0.80852586
67	0x3f57f8e6	0.84364164
68	0x3f2d3eb6	0.67673814
69	0x3eefb56f	0.4681811
70	0x3d1fa80b	0.038978618
71	0x3f1b6b28	0.6071038
72	0x3f443aae	0.7665204
73	0x3f4278e8	0.7596574
74	0x3f08ad73	0.5338966
75	0x3f09233e	0.535694
76	0x3f8030da	1.0014908
77	0x3f50518f	0.8137445
78	0x3f2dda54	0.6791127
79	0x3f22662b	0.63437146
80	0x386fe618	5.7196332e-05
81	0x3f5e04ba	0.8672596
82	0x3fa72780	1.305893
83	0x3f66d2b1	0.9016524
84	0x3f04923e	0.5178565
85	0x3dea9e21	0.11455942
86	0x3f120258	0.57034826
87	0x3f61ab54	0.8815205
88	0x3f56efb0	0.83959484
89	0x3f5e876c	0.8692539
90	0x3f8015c3	1.0006641
91	0x3fa3e79f	1.280506
92	0x3e65b090	0.22430634
93	0x3f8c1c06	1.0946052
94	0x3ee61491	0.44937566
95	0x3fb9ec3d	1.4525219
96	0x3f55c285	0.8349994
97	0x3f84ad3c	1.0365367
98	0x3f8c582f	1.0964411
99	0x3f3766e6	0.71641386
100	0x3ea0fc93	0.314427
101	0x3f71d39f	0.94463533
102	0x3f1904f0	0.5977316
103	0x3f249997	0.6429686
104	0x3f697984	0.91201043
105	0x3f00be14	0.50290036
106	0x3f3a592e	0.7279233
107	0x3f34bd15	0.70601016
108	0x3a0a7ed3	0.00052831805
109	0x3f69db86	0.9135059
110	0x3f34b99a	0.70595706
111	0x3e600ebf	0.21880625
112	0x3ecb989c	0.3976487
113	0x3f899230	1.0747738
114	0x3dd96e69	0.10616762
115	0x3f190f5c	0.5978906
116	0x3f1f2abe	0.62174594
117	0x3f73f999	0.9530273
118	0x3f3f36e1	0.74693114
119	0x3f20a65e	0.62753856
120	0x3f068f66	0.5256256
121	0x3f95269a	1.1652405
122	0x3f52bfa9	0.823237
123	0x3f8666d6	1.0500133
124	0x3f1b1fac	0.605952
125	0x3f40b7d0	0.75280476
126	0x3f5b5241	0.85672385
127	0x3ef868f3	0.4851757

fc_u.linear.bias f4 [128]
0	0xbd219b4b	-0.03945474
1	0x3e8b709e	0.27234358
2	0x3d41ddc2	0.047330625
3	0x3c4e05c8	0.012574621
4	0x3d33343e	0.043750994
5	0xbd295c52	-0.04134781
6	0x3d35331d	0.0442382
7	0xbccc0bb9	-0.024907934
8	0x3e45cbfe	0.19316098
9	0x3e889e3c	0.26683223
10	0xbd38b560	-0.045094848
11	0x3e918e0a	0.2842868
12	0xbcf3c899	-0.029758738
13	0x3d3b48c7	0.045723703
14	0xbef58f59	-0.47960928
15	0x3dc5dba0	0.09661031
16	0x3da52af4	0.08064833
17	0xbe25822b	-0.16162936
18	0x3ea463e3	0.32107458
19	0xbec024d5	-0.375281
20	0xbeac5233	-0.33656463
21	0x3d92d63d	0.07169769
22	0x3d0128dd	0.03153311
23	0x3df40e5b	0.119168006
24	0xbd05bb5c	-0.032649383
25	0xb9af899d	-0.0003348113
26	0xbd1d3a41	-0.038385633
27	0x3e129561	0.14314796
28	0xbd832397	-0.064032726
29	0x3cb361a1	0.021897139
30	0x3eb6f4cc	0.3573364
31	0xbe56f8ac	-0.20993298
32	0xbd5ed1dc	-0.054399356
33	0x3cbad30d	0.022805715
34	0x3dc002e0	0.09375548
35	0xbdcd3cd7	-0.1002137
36	0xbc7e90f0	-0.0155374855
37	0xbd17d71e	-0.037070386
38	0xbde32872	-0.11091699
39	0xbde60295	-0.11230961
40	0xbd68efb8	-0.05686924
41	0xbdbe0b6c	-0.09279522
42	0x3d6edcfa	0.05831621
43	0xbef12b80	-0.471035
44	0x3eae9e1b	0.34105
45	0x3cdd8dca	0.02704515
46	0xbd97922f	-0.07400929
47	0x3d61c6f9	0.055121396
48	0xbb246814	-0.002508645
49	0x3b44c853	0.003002663
50	0xbe06ed6e	-0.1317651
51	0x3d67339b	0.0564457
52	0x3d8864ba	0.06659837
53	0xbe7d8f95	-0.24761803
54	0x3d3808f2	0.044930406
55	0xbe48f788	-0.19625676
56	0x3cb7e581	0.022448303
57	0x3e04c172	0.12964419
58	0x3d1d6d1b	0.03843413
59	0xbea50ce2	-0.3223639
60	0x3d0d0572	0.03442902
61	0xbe64cfe9	-0.22344936
62	0x3c7564fb	0.014977689
63	0xbd93af36	-0.07211153
64	0xbbe4daea	-0.0069841044
65	0x3c6d6d33	0.014491367
66	0xbe0d4cc1	-0.1379881
67	0xbdf101ed	-0.117679454
68	0xbd8a0e5d	-0.06741021
69	0x3b8db9cd	0.0043251277
70	0xbd248368	-0.04016438
71	0x3d9c4bae	0.07631622
72	0xbca84975	-0.02054284
73	0x3d3ef270	0.046617925
74	0x3cc240ca	0.023712534
75	0xbcb05049	-0.021522658
76	0x3ddf4494	0.10901752
77	0x3ce1d4f0	0.027567357
78	0x3bdd8cba	0.0067611607
79	0xbd9d0871	-0.07667626
80	0xbd64c937	-0.055855956
81	0xbc32d2e5	-0.010914539
82	0xbec01820	-0.37518406
83	0xbe289802	-0.16464236
84	0x3ce86f2e	0.028373327
85	0xbd563551	-0.05229694
86	0x3dab5287	0.0836535
87	0x3d360be1	0.044444922
88	0xbde48a24	-0.11159161
89	0xbde90652	-0.11378159
90	0xbe6b033a	-0.2295045
91	0xbec97d69	-0.39353493
92	0xbca25f80	-0.019820929
93	0xbec66ae1	-0.38753417
94	0x3ccd78b7	0.025081975
95	0x3eb9ebf3	0.36312827
96	0xbe0db83d	-0.13839813
97	0x3e5c893a	0.21536723
98	0x3d747fba	0.059692122
99	0xbebccf8a	-0.3687709
100	0x3def2c72	0.11678399
101	0xbd81256e	-0.06305967
102	0x3ca9ddc6	0.020735633
103	0x3d83982e	0.0642551
104	0x3d42409b	0.047424894
105	0x3cf9d4be	0.030496951
106	0xbe136e84	-0.14397627
107	0x3cef25c1	0.029192807
108	0x3cad7edb	0.021178653
109	0xbcd0caa3	-0.02548725
110	0x3db48ad0	0.08815539
111	0xbdf6c873	-0.120499514
112	0x3c2830b5	0.010265519
113	0x3e48b92f	0.19601892
114	0x3c009fec	0.007850628
115	0xbd85855a	-0.065195754
116	0x3dd8a19c	0.105776995
117	0x3c334a71	0.010943041
118	0xbe87bbc5	-0.26510444
119	0xbd4dcdcf	-0.050245102
120	0xbd4e66c4	-0.050390974
121	0x3ea3131e	0.31850523
122	0x3cbefb5b	0.023313215
123	0xbe9ed7b5	-0.31023946
124	0x3d9e55cf	0.077312104
125	0x3c72d6ff	0.014821767
126	0x3e599843	0.2124949
127	0x3cad67b6	0.021167617

fc_v.linear.weight f4 [128, 63]
0	0xbe86912f	-0.2628264
1	0xbec1dfd0	-0.37866068
2	0xbf13b509	-0.5769811
3	0xbecde355	-0.40212503
4	0xbeb63a7e	-0.355915
5	0x3eb4ed05	0.35337082
6	0x3d89924b	0.06717356
7	0xbc842b02	-0.016133789
8	0xbeb4a157	-0.35279343
9	0xbea73b9d	-0.3266267
10	0xbdd130a0	-0.102143526
11	0x3de294d6	0.110635445
12	0xbe0cd0ed	-0.13751574
13	0x3c8b06d0	0.016971022
14	0x3dce6ea6	0.10079698
15	0x3c6e9d1f	0.014563828
16	0xbe889264	-0.26674187
17	0x3dd370e7	0.10324269
18	0xbdc5c33e	-0.0965638
19	0x3e60e0f7	0.21960817
20	0xbe3507ed	-0.17678805
21	0xbd9908c3	-0.07472374
22	0x3e83993d	0.2570285
23	0xbd8b7812	-0.06810011
24	0x3e314573	0.17311649
25	0xbe26e8f7	-0.16299807
26	0xbe0c2716	-0.13686785
27	0xbdee63f8	-0.11640161
28	0xbe821a2a	-0.25410587
29	0x3c236c96	0.009974619
30	0x3a80b683	0.0009820018
31	0x3c3c005a	0.011474693
32	0x3d837f34	0.064207464
33	0xbb8cdb5f	-0.004298612
34	0xbcce8532	-0.025209997
35	0x3ebc5c28	0.3678906
36	0xbe5be2a1	-0.21473171
37	0xbe0d61ea	-0.13806883
38	0x3d5b0fa7	0.053481724
39	0x3e2ad38b	0.1668226
40	0xbe67bcfe	-0.22630689
41	0xbe875ca8	-0.2643788
42	0x3e4a513b	0.1975755
43	0x3e962b3f	0.2932987
44	0x3e1ca672	0.15297869
45	0x3dd27445	0.10276083
46	0xbc176337	-0.009239963
47	0x3d98755c	0.074442595
48	0x3d31a7c6	0.04337289
49	0x3da3ea74	0.08003703
50	0x3a93903f	0.0011258199
51	0xbe9113e1	-0.2833548
52	0x3e25e77f	0.1620159
53	0x3cf22587	0.02955891
54	0xbdbf5e13	-0.09344115
55	0x3e03f887	0.12887774
56	0x3e41be34	0.18920213
57	0x3da5e329	0.08099968
58	0xbe1ab691	-0.15108706
59	0x3da9f73c	0.08299109
60	0xbcaa0364	-0.02075357
61	0xbe4cc1c5	-0.19995792
62	0xbd7a4740	-0.061103106
63	0x3dba7475	0.09104244
64	0x3d419556	0.04726156
65	0xbe3e7f44	-0.18603235
66	0x3fafd439	1.373664
67	0xbfbf5778	-1.4948568
68	0x3fb2562c	1.3932548
69	0x3e0c23e9	0.13685574
70	0xbe3fedd3	-0.18743066
71	0x3d380635	0.044927794
72	0x3dade155	0.08490244
73	0xbe1ca971	-0.15299012
74	0x3e494f4c	0.19659156
75	0xbc9ea5bd	-0.01936614
76	0xbe10a5f6	-0.14125809
77	0x3d382657	0.04495844
78	0xbda66e06	-0.08126454
79	0xbde7f2f5	-0.11325637
80	0xbd621bfb	-0.055202466
81	0xbcf54e54	-0.029944576
82	0x3dd26930	0.10273969
83	0x3cb742e6	0.022370767
84	0xbe425ab8	-0.18979919
85	0x3d1c0ee7	0.03810015
86	0x3d815c17	0.06316393
87	0xbd0d2147	-0.034455564
88	0xbd929371	-0.071570285
89	0x3e0c3262	0.13691095
90	0xbce2d03d	-0.027687186
91	0x3b7a56cc	0.0038198708
92	0xbe00d7f7	-0.12582384
93	0x3dc830b3	0.09774914
94	0x3c5ea62e	0.013589425
95	0x3d88bd31	0.066767104
96	0x3e2e2df2	0.17009714
97	0x3d777daf	0.060422596
98	0xbe4c9f75	-0.19982703
99	0x3e154844	0.14578348
100	0x3e5a8570	0.21339965
101	0xbe39d299	-0.18146743
102	0xbda6c3b6	-0.08142798
103	0x3cfd37d2	0.030910406
104	0xbc2264eb	-0.009911756
105	0xbd9f1c2b	-0.077690445
106	0xbe2a59f8	-0.16635883
107	0xbe076fa1	-0.13226177
108	0xbe98ce3c	-0.29844844
109	0xbc6f95f5	-0.014623155
110	0x3e16a1e9	0.14710201
111	0xbcbff1ef	-0.023430793
112	0x3d3aac56	0.04557451
113	0xbca36428	-0.01994522
114	0xbda15337	-0.078772
115	0xbdba5bc6	-0.09099536
116	0x3da38eab	0.07986196
117	0xbd8ed522	-0.069742456
118	0xbbc46153	-0.0059930473
119	0xbe56991c	-0.20956844
120	0xbe158cd5	-0.14604504
121	0x3d044ef0	0.032301843
122	0xbc0bbac4	-0.008528415
123	0xbd9b302c	-0.075775474
124	0xbb71f5e0	-0.0036920235
125	0x3decd643	0.11564305
126	0x3db68215	0.0891153
127	0xbe6d8fc2	-0.2319937
128	0xbcc46b00	-0.023976803
129	0xbf892c50	-1.0716648
130	0xbf8bbf7e	-1.0917814
131	0xbf89a91c	-1.0754733
132	0x3c2bc289	0.0104833925
133	0x3ddf3664	0.10899046
134	0xbdd90a6c	-0.10597691
135	0xbe07646e	-0.13221905
136	0xbd87e168	-0.0663479
137	0xbe246b83	-0.16056637
138	0x3e55d0a3	0.2088037
139	0xbda147df	-0.078750364
140	0xbdbeba1b	-0.093128406
141	0x3e3204e2	0.17384675
142	0x3e4c4021	0.19946338
143	0xbdde7813	-0.10862746
144	0xbe320a9e	-0.17386863
145	0x3e029098	0.1275047
146	0x3e44a38b	0.19203012
147	0x3ec84881	0.39117816
148	0x3e2b6ef1	0.1674154
149	0x3df91fb0	0.12164247
150	0xbda998be	-0.082810864
151	0x3dd404c8	0.103524745
152	0x3e2241db	0.15845434
153	0x3b165805	0.0022940647
154	0xbda781b9	-0.081790395
155	0x3d1bb58e	0.03801494
156	0xbe615d3f	-0.22008227
157	0xbd9ff406	-0.07810216
158	0x3d58a1f5	0.05288883
159	0xbe24924a	-0.1607143
160	0xbdd1ba29	-0.10240585
161	0x3e59c1f5	0.21265395
162	0xbe30a390	-0.17249894
163	0x3d82158d	0.06351767
164	0xbe7fbb22	-0.24973729
165	0xbea1f364	-0.31631005
166	0x3d759318	0.059954733
167	0x3e0ac142	0.13550285
168	0xbe20b731	-0.15694882
169	0x3e594edf	0.21221493
170	0xbe6d0e1c	-0.23149914
171	0x3d8fbbc1	0.07018233
172	0x3dc5acaf	0.096520774
173	0xbe37f5d9	-0.17964877
174	0x3d69b68a	0.05705885
175	0x3e5ac36b	0.21363609
176	0xbe56cd50	-0.20976758
177	0x3e397390	0.1811049
178	0x3d50aeba	0.050947882
179	0xbd6177fe	-0.055046074
180	0x3d86cbfa	0.06581874
181	0xbddae51e	-0.10688232
182	0xbda7e76f	-0.08198439
183	0xbea0b421	-0.31387427
184	0xbcfba7d9	-0.030719684
185	0x3dd8cf41	0.105864055
186	0xbec754e8	-0.38931966
187	0x3d9e08f2	0.0771655
188	0xbcac9d3f	-0.021071075
189	0xbb84345a	-0.004034561
190	0xbe27e5f4	-0.16396314
191	0x3e506629	0.20351471
192	0xbf0f7ae4	-0.5604689
193	0xbeffa953	-0.49933872
194	0xbf115f5e	-0.56786144
195	0x3d936247	0.07196479
196	0xbd04f614	-0.03246124
197	0xbe838149	-0.25684574
198	0xbe4c5066	-0.19952545
199	0xbe04cb5c	-0.129682
200	0xbe36b1ad	-0.17841215
201	0x3e4d341f	0.20039414
202	0x3e010a19	0.12601508
203	0x3e966059	0.29370382
204	0x3d8c43f8	0.068489015
205	0x3d9bbd67	0.07604485
206	0xbe9f613f	-0.3112888
207	0x3d8ff78d	0.070296384
208	0xbe3bd906	-0.18344507
209	0x3e567b4f	0.20945476
210	0x3d526d85	0.051373977
211	0x3e075e80	0.13219643
212	0xbd9f264c	-0.077709764
213	0x3e0d830e	0.13819525
214	0x3c94d955	0.018170038
215	0x3e15fe25	0.1464773
216	0x3d9df98d	0.07713614
217	0x3af6f4af	0.0018841232
218	0xbe5b094d	-0.21390267
219	0xbe2fab57	-0.17155205
220	0xbd9f317e	-0.07773112
221	0x3d63e4a4	0.05563797
222	0x3dde41fa	0.10852428
223	0xbe3488b6	-0.17630276
224	0xbe34ec3f	-0.17668246
225	0x3e1359dd	0.14389749
226	0xbdd4fcd0	-0.10399783
227	0x3e1b0e53	0.15142183
228	0xbcef573d	-0.029216403
229	0x3db8a84a	0.090164736
230	0xbe3ff636	-0.18746266
231	0x3e2b3579	0.16719617
232	0xbedfeb13	-0.43734035
233	0x3e527829	0.2055365
234	0x3c196070	0.009361371
235	0x3e3b5e58	0.18297708
236	0x3c871b0d	0.016492391
237	0xbdcb1652	-0.09916367
238	0x3e5f83e3	0.21827655
239	0xbdc030b0	-0.093842864
240	0xbd9f430d	-0.07776461
241	0x3db823d5	0.089912094
242	0x3e1c0b4e	0.15238687
243	0xbe57a29e	-0.21058127
244	0xbe6eebaa	-0.23332086
245	0x3cd04605	0.025424013
246	0x3d704b69	0.058665667
247	0x3ed52845	0.41632286
248	0x3e218e81	0.15777017
249	0xbd9f7de1	-0.07787681
250	0xbe204d90	-0.15654588
251	0xbea0ef09	-0.3143237
252	0x3e9701fd	0.29493704
253	0x3da88913	0.0822927
254	0xbd3f6a8e	-0.046732478
255	0x3f80f6a7	1.0075272

fc_v.linear.weight_g f4 [128, 1]
0	0x3f336578	0.70076704
1	0x39c95881	0.00038403648
2	0xbd26edf3	-0.04075427
3	0x3f18d1af	0.5969495
4	0x3e190fa2	0.1494737
5	0x3f407130	0.7517271
6	0x3e9fd6e1	0.31218627
7	0x3ea8dd2a	0.32981235
8	0x3fa199e0	1.2625084
9	0x3f6dd7ad	0.9290722
10	0x3f121590	0.5706415
11	0x3d9619fd	0.073291756
12	0x3fa2eb32	1.2728026
13	0x3ed4ae8b	0.41539416
14	0x3eb4e138	0.35328078
15	0x3f29ffab	0.66405743
16	0x3f140617	0.5782179
17	0x3fb529b5	1.4153353
18	0x3f85dcea	1.0458043
19	0x3f4312db	0.76200646
20	0x3fad7968	1.3552675
21	0x3b7a9c67	0.0038240196
22	0x3f8e3712	1.1110556
23	0xb8cb84a1	-9.7044984e-05
24	0x3d4be27b	0.049776535
25	0xbcc9ddc5	-0.02464188
26	0x3f2e8f7e	0.681877
27	0x3f212785	0.62950927
28	0x3f135ef6	0.57566774
29	0x3e6a8c8d	0.22905178
30	0x3ee6d8a9	0.45087174
31	0x3f0a302b	0.5397975
32	0xb8a69ea7	-7.945048e-05
33	0x3f16e4e0	0.58942986
34	0x3f4a1722	0.7894155
35	0x3ed6d56c	0.41959703
36	0x3f11b0cc	0.56910396
37	0x3e4b5f7e	0.19860646
38	0x3fafe49f	1.3741645
39	0x3e661f75	0.22472937
40	0x3f065d46	0.52486074
41	0xbb2aec04	-0.0026080618
42	0x3d32f93a	0.043694712
43	0x3efb25dd	0.49052325
44	0x3eff3044	0.4984151
45	0x3f59f1f1	0.851348
46	0x3f7ba151	0.98293024
47	0xb81d54c9	-3.751068e-05
48	0x3f0c041a	0.5469376
49	0x3f9ffaa2	1.2498362
50	0x3e955b55	0.29171243
51	0x3efcba58	0.4936092
52	0x3f176231	0.59134203
53	0x3f5d8c7c	0.8654249
54	0x3e7cd209	0.24689497
55	0x3e9c4519	0.30521467
56	0x3f48bf9c	0.7841737
57	0x3e7bd8d6	0.24594435
58	0x3de83358	0.11337918
59	0x3f53c784	0.8272631
60	0xb9f59ae1	-0.00046845435
61	0x3e751cd1	0.23936774
62	0x3f060e39	0.5236545
63	0xbd965875	-0.073410906
64	0x3f5b7793	0.8572933
65	0x3ee2af3b	0.44274315
66	0x3f29b74e	0.66295326
67	0x3e9aeb6e	0.30257744
68	0x3ea6be72	0.32567173
69	0x3eaece82	0.34141928
70	0x3f26f393	0.65215415
71	0x3eccadeb	0.3997644
72	0x3ea9d340	0.33168983
73	0x3e76c667	0.24099122
74	0x3db5f95f	0.088854544
75	0x3f94c6df	1.1623191
76	0x3f5d615d	0.8647669
77	0x3e48f14d	0.19623299
78	0x3fd569ab	1.6672872
79	0x3ebd7591	0.3700376
80	0x3f1ceae1	0.61295897
81	0x37eafe21	2.8013312e-05
82	0x3f43b832	0.76452935
83	0x40eecd24	7.4625416
84	0x3ee677bf	0.45013234
85	0x3f247fce	0.64257514
86	0x3f52e828	0.8238549
87	0x3f2cc5a3	0.6748907
88	0x3ee02855	0.4378077
89	0x3f91fd80	1.1405487
90	0x3f033eaf	0.5126752
91	0x3f426fac	0.7595165
92	0x3f340980	0.70326996
93	0x3ec56960	0.38556957
94	0x3e62798d	0.2211668
95	0x3f1b7b7b	0.6073529
96	0x3f06f10f	0.52711576
97	0x3e78f643	0.24312691
98	0x3f82b2c1	1.0210801
99	0x3f44c335	0.7686036
100	0x3f432c6e	0.7623967
101	0x3f75ada0	0.95968056
102	0xb8e88416	-0.00011087225
103	0x3ea6f1c1	0.3260632
104	0x3e236f44	0.15960413
105	0x3dc0fdfb	0.09423443
106	0x3f0d9d90	0.55318546
107	0x3f32bc41	0.698185
108	0x3f37b983	0.71767443
109	0x3d69b9dc	0.057062015
110	0x3f4c5e18	0.79831076
111	0x3f166bee	0.5875844
112	0x3f165d21	0.58735853
113	0x3efa6d1e	0.48911375
114	0x3ea652d7	0.32485077
115	0x3cf195d9	0.029490398
116	0x3f3acec6	0.7297176
117	0x3f101d91	0.56295115
118	0x3f4b52fb	0.79423493
119	0xba192fa6	-0.0005843587
120	0x3f63628f	0.88822263
121	0x3ee5a84e	0.4485497
122	0x3e9cdee8	0.30638814
123	0x3f009838	0.5023227
124	0x3f3b366c	0.73129916
125	0x3eeda025	0.46411243
126	0x3f561da7	0.83638996
127	0x3f385841	0.72009665

fc_v.linear.bias f4 [128]
0	0x3e05a38d	0.13050671
1	0xbdd5af53	-0.10433831
2	0x3df4f6ef	0.11961161
3	0x3c90f51f	0.017695008
4	0xbd9db98b	-0.07701405
5	0x3de1b9d2	0.110217705
6	0xbdf8a730	-0.121412635
7	0x3e64096a	0.22269216
8	0x3ea4f205	0.32215896
9	0xbd721e63	-0.05911101
10	0x3dd66dba	0.104701474
11	0xbd7b6918	-0.061379522
12	0xbe9328ac	-0.28741968
13	0xbd765884	-0.06014301
14	0x3ddfbf5e	0.10925172
15	0x3df6c2c6	0.12048869
16	0x3e25e33d	0.16199966
17	0x3f14161d	0.5784624
18	0x3e5b1b52	0.2139714
19	0xbd3f0b83	-0.046641838
20	0x3dd9fe55	0.10644213
21	0xbccd9279	-0.025094258
22	0xbe59cd2a	-0.2126967
23	0xbd78c202	-0.060731895
24	0x3d5aadd7	0.053388443
25	0x3d294428	0.041324764
26	0x3d150f01	0.036391262
27	0xbe385996	-0.18002924
28	0x3e41f30b	0.1894037
29	0x3d9c9f6a	0.07647593
30	0x3d2ea1d7	0.04263481
31	0x3d82ef48	0.063932955
32	0x3dd21cd5	0.102594055
33	0xbca6c6ea	-0.020358521
34	0xbd858faa	-0.06521542
35	0x3d34f059	0.044174526
36	0x3de22552	0.110422745
37	0xbd62978d	-0.05532031
38	0xbf10e0b2	-0.5659286
39	0x3d9e5026	0.07730131
40	0xbe3971cc	-0.18109816
41	0x3cdce913	0.026966607
42	0xbe1efe69	-0.15526737
43	0x3db0118c	0.08597097
44	0xbe1da274	-0.15394002
45	0xbe5dfd6e	-0.21678707
46	0xbe7fabec	-0.24967927
47	0xbdb5a3e3	-0.088691495
48	0xbe27c698	-0.16384351
49	0xbedd5b42	-0.43233687
50	0x3d104a67	0.035227206
51	0xbd590d4e	-0.052991204
52	0x3e017d43	0.1264544
53	0xbd3163a4	-0.043307915
54	0xbd1b79e4	-0.03795804
55	0x3c8ead81	0.017416717
56	0x3df1fa41	0.1181531
57	0x3d79304e	0.060837083
58	0xbce6df6a	-0.028182704
59	0x3e9fc83c	0.31207454
60	0xbcd4089e	-0.025883015
61	0x3cd23fd6	0.025665205
62	0xbd825474	-0.063637644
63	0xbe277b25	-0.1635557
64	0x3d06face	0.03295403
65	0xbc7a12d6	-0.01526328
66	0x3d70af4e	0.058760934
67	0x3e06643d	0.13124175
68	0x3d213860	0.039360404
69	0xbd1feadd	-0.039042342
70	0xbdd518d2	-0.10405125
71	0x3d130fc2	0.0359037
72	0x3cbd1f16	0.023086112
73	0xbe184da1	-0.14873363
74	0xbd2c1038	-0.042007655
75	0xbed038d5	-0.4066836
76	0xbe23f50c	-0.16011447
77	0x3d47256a	0.048619665
78	0xbf04b406	-0.51837194
79	0x3d950038	0.07275432
80	0x3d9c1f89	0.07623202
81	0xbd8fc0d2	-0.070191994
82	0xbe4a15b4	-0.19734842
83	0xbee08ce1	-0.43857482
84	0xbd69a2e8	-0.057040125
85	0xbe82aeb2	-0.25523907
86	0x3e3d2076	0.18469414
87	0x3e5120d4	0.20422679
88	0xbd329b74	-0.043605283
89	0xbe9cd207	-0.30628988
90	0xbdbb5109	-0.091463156
91	0xbe2c6ffe	-0.16839597
92	0xbd6a3718	-0.057181448
93	0xbd13c87c	-0.03607987
94	0xbbd17003	-0.0063915267
95	0x3d8dae6c	0.06918034
96	0xbda940d7	-0.0826432
97	0xbdc09ab4	-0.09404507
98	0xbcfc73c7	-0.030816926
99	0xbe1d6a5b	-0.15372603
100	0xbd25b449	-0.040455136
101	0x3ea849bf	0.32868764
102	0xbcd1b8d3	-0.025600826
103	0xbd7b0974	-0.061288312
104	0x3d258657	0.04041132
105	0xbd0cf069	-0.03440896
106	0xbdee1776	-0.116255686
107	0x3e303727	0.17208539
108	0x3d3013c4	0.0429876
109	0x3da21416	0.07913987
110	0xbe5ea6e8	-0.21743357
111	0x3e1e1e2d	0.15441199
112	0xbdd05314	-0.10172096
113	0xbda8c9ab	-0.0824159
114	0xbd0f9950	-0.03505832
115	0x3d0b959b	0.03407822
116	0xbe0716cb	-0.13192289
117	0x3e3bcc7f	0.18339728
118	0x3e21fbb3	0.15818672
119	0x3cea95e8	0.028635934
120	0xbe9697d8	-0.29412723
121	0xbc1e69f2	-0.009668814
122	0x3deb7f2d	0.11498866
123	0x3d43286a	0.047645964
124	0x3e22a477	0.15883051
125	0xbe2912a9	-0.16511025
126	0x3e589cec	0.21153611
127	0xbe32fce4	-0.17479283

fc_0.linear.weight f4 [128, 63]
0	0x3e372441	0.17884924
1	0x3d823918	0.06358546
2	0x3dc65858	0.09684819
3	0x00000f70	5.538e-42
4	0x80000f7f	-5.559e-42
5	0x80000e27	-5.077e-42
6	0xbdb72011	-0.08941663
7	0x3e2acb27	0.16679059
8	0x3e16dc5e	0.14732501
9	0x3dbb31c7	0.09140354
10	0xbcb4e6bc	-0.022082679
11	0x3ccaae81	0.024741413
12	0xbcfbd92b	-0.030743202
13	0xbe13e370	-0.1444223
14	0xbe2e4b83	-0.17020993
15	0x3d9bff47	0.0761705
16	0x3bf4418c	0.007454103
17	0xbd8cd6e9	-0.06876928
18	0xbdca49a4	-0.09877327
19	0x3b34858f	0.0027545427
20	0xbdf4bc6f	-0.11950003
21	0x3ddc0b2d	0.10744319
22	0xbd1b5eda	-0.037932254
23	0x3e32b92e	0.17453453
24	0xbd84ff44	-0.064940006
25	0x3e1fa312	0.1558955
26	0x3d7a28c4	0.061074033
27	0x3d8792fc	0.06619832
28	0x3b7cbd26	0.003856489
29	0x3e003b0d	0.12522526
30	0x3c05852e	0.008149428
31	0x3f0cccb9	0.5499988
32	0xbdf54cda	-0.11977549
33	0x3cf83bb4	0.030301906
34	0xbda4a81d	-0.080398776
35	0x3dcd5fe5	0.10028056
36	0x3db91f2a	0.09039147
37	0xbdf755cc	-0.12076911
38	0x3d444768	0.04791966
39	0x3cf652f1	0.030068846
40	0xbd296c19	-0.041362856
41	0x3e192ce7	0.14958535
42	0xbdd3e68e	-0.10346709
43	0x3e39376c	0.18087548
44	0x3ceef085	0.029167423
45	0xbb4ebe02	-0.003154636
46	0xbde8e10d	-0.1137105
47	0x3df6455a	0.120249465
48	0xbb8c9dea	-0.0042912858
49	0x3e97c2eb	0.29640898
50	0x3c78ca20	0.015184909
51	0x3d620d20	0.0551883
52	0xbd17def0	-0.037077844
53	0x3d5141ad	0.051088024
54	0x3b22c253	0.0024835065
55	0x3e741c5e	0.23838946
56	0xbd657b25	-0.056025643
57	0xbdd3a71d	-0.10334609
58	0xbec969fb	-0.3933867
59	0xbca0f3af	-0.019647447
60	0x3ca13dea	0.019682843
61	0x3f093d95	0.5360959
62	0xbd805a2c	-0.06267199
63	0xbe1e7d97	-0.15477596
64	0xbdfe65b0	-0.12421739
65	0x3e117107	0.14203273
66	0x80005da4	-3.3592e-41
67	0x800016aa	-8.13e-42
68	0x80005d78	-3.353e-41
69	0x3e0802df	0.13282345
70	0xbe293590	-0.16524339
71	0xbdfb48ec	-0.12269768
72	0xbda7271c	-0.081617564
73	0x3de6b6e5	0.11265353
74	0xbd74b851	-0.05974609
75	0x3db1f12c	0.08688578
76	0x3e464cb4	0.19365197
77	0x3e9def1a	0.30846483
78	0xbdc89b3a	-0.09795232
79	0xbe39152a	-0.1807448
80	0xbd4612a7	-0.048357632
81	0x3d2210bf	0.03956675
82	0x3d0b6d87	0.03404
83	0x3e232e56	0.15935645
84	0x3d0d7de0	0.034543872
85	0x3cd90b60	0.026494682
86	0xbe45bd78	-0.19310558
87	0x3cd2c360	0.025727928
88	0xbdf73f3a	-0.120726064
89	0x3ed1e642	0.40995985
90	0x3dbbe801	0.091751106
91	0x3ca4cdba	0.02011763
92	0xbe8e2168	-0.27759862
93	0xbd02c8d7	-0.031929817
94	0xbdc22dff	-0.09481429
95	0x3f0efa12	0.55850327
96	0x3d2e42b5	0.042544086
97	0xbb7d63ac	-0.0038664145
98	0x3de52eb1	0.11190546
99	0x3daeb3c1	0.08530379
100	0xbdcfd63a	-0.10148282
101	0x3e0c8379	0.13722028
102	0xbc53d6e3	-0.012929651
103	0xbe2a6f69	-0.16644062
104	0xbe6569b5	-0.22403605
105	0x3cfb5b6a	0.030683238
106	0x3e423468	0.18965304
107	0x3e82314c	0.25428236
108	0x3d1b175c	0.037864074
109	0x3dfb5ea1	0.122739084
110	0xbe81be7b	-0.25340638
111	0xbdb6091a	-0.08888455
112	0xbea66a2d	-0.3250288
113	0x3e3f4aaf	0.18680833
114	0x3d347471	0.04405636
115	0x3e73dd5e	0.23814914
116	0xbd461d83	-0.04836799
117	0xbda33e6b	-0.0797089
118	0xbdba8921	-0.091081865
119	0xbe340fb0	-0.1758411
120	0xbafd13b8	-0.0019308245
121	0x3e32779f	0.17428444
122	0xbdad35f1	-0.08457554
123	0x3be64bb0	0.0070280656
124	0xbe78aff5	-0.24285872
125	0xbd6c95d8	-0.05776009
126	0x3d82a6c4	0.06379464
127	0x3d55a7e8	0.05216208
128	0x3da3f227	0.08005171
129	0x800005b5	-2.047e-42
130	0x000030c8	1.75e-41
131	0x800030cc	-1.7505e-41
132	0xbc5924a1	-0.013253362
133	0x3d3ba939	0.04581568
134	0x3e2e4246	0.17017469
135	0x3de8ea5f	0.11372828
136	0xbce54fee	-0.027992215
137	0xbc9173e4	-0.017755456
138	0x3d0236ec	0.03179066
139	0x3e475309	0.19465269
140	0x3d281164	0.04103221
141	0xbcc2f65e	-0.023799118
142	0xbdd57c1f	-0.10424065
143	0xbcfcae84	-0.030844934
144	0xbd92db94	-0.071707875
145	0xbbf85efc	-0.0075796824
146	0x3c3e6048	0.011619635
147	0x3d0f67a1	0.035010938
148	0x3e3f4b62	0.186811
149	0xbc877410	-0.016534835
150	0x3cd03fc0	0.025421023
151	0xbf1cee66	-0.6130127
152	0xbd9cf4f6	-0.0766391
153	0x3d33638e	0.043796115
154	0x3f06ee86	0.5270771
155	0x3d14fa24	0.036371365
156	0xb5adbaac	-1.2943833e-06
157	0xbe2f051a	-0.1709179
158	0x3d476ab1	0.048685733
159	0x3c94241a	0.01808362
160	0xbcfb0651	-0.03064266
161	0xbcaec035	-0.021331886
162	0x3e058afc	0.130413
163	0x3d4dd4d7	0.050251808
164	0x3d973e2e	0.07384907
165	0x3cba0590	0.02270773
166	0xbdead077	-0.11465543
167	0x3d65f0f3	0.05613799
168	0xbd0f942c	-0.035053417
169	0xbdf10875	-0.11769191
170	0xbd91f50e	-0.071268186
171	0xbb004a6f	-0.0019575616
172	0x3e5292bc	0.20563787
173	0xbc385d0f	-0.011252656
174	0xbc59a2c0	-0.0132834315
175	0xbeb65aca	-0.35616142
176	0x3c3e9f54	0.0116346665
177	0x3cf04fc9	0.02933492
178	0x3eca18ef	0.39472148
179	0xbbce5cde	-0.0062976917
180	0x3d4c85a5	0.04993214
181	0xbdc006e8	-0.09376317
182	0x3c4d0bff	0.012515067
183	0x3cdeb967	0.027188016
184	0xbdeda7fd	-0.11604307
185	0x3d6423c9	0.05569819
186	0x3cc2c7f1	0.02377698
187	0x3e8f651d	0.2800683
188	0xbd1c3d2b	-0.03814427
189	0x3e060c53	0.13090639
190	0x3da4baec	0.08043465
191	0xbcfdc0ab	-0.03097566
192	0x80003609	-1.9384e-41
193	0x8000360a	-1.9386e-41
194	0x000027b5	1.4244e-41
195	0xbd878488	-0.06617075
196	0x3e0f70d6	0.14007887
197	0x3de560bb	0.112000905
198	0xbcc15a9a	-0.023602773
199	0xbdb2d087	-0.0873118
200	0x3d85287f	0.06501865
201	0xbcd3025e	-0.025757965
202	0x3e2ac7ec	0.16677827
203	0xbce69278	-0.028146014
204	0xbc7325c4	-0.014840547
205	0x3c2d5d12	0.010581272
206	0xbc3d08dd	-0.011537758
207	0xbdc302e8	-0.09522039
208	0x3dece1f5	0.115665354
209	0xbd7593c8	-0.05995539
210	0xbd073c70	-0.033016622
211	0x3cee208b	0.029068252
212	0x3c8ba564	0.017046638
213	0x3d602be9	0.054729376
214	0xbec52c51	-0.38510373
215	0x3d1aaa5d	0.037760127
216	0x3d6b4c55	0.057445843
217	0x3e8d580b	0.27606234
218	0x3de41c6c	0.111382335
219	0xbd359771	-0.04433388
220	0x3e313b28	0.17307723
221	0x3cfe849f	0.031069098
222	0xbdc27f26	-0.09496908
223	0x3c991bb5	0.01868997
224	0xbcb300f6	-0.021851044
225	0x3d1874e0	0.037220836
226	0x3e11170c	0.14168948
227	0x3db4c6dc	0.08826992
228	0xbc977c9b	-0.018492034
229	0x3e040257	0.12891518
230	0x3d7fa9ea	0.062417902
231	0xbcc688cb	-0.02423515
232	0xbd525c63	-0.051357638
233	0xbdda6f13	-0.10665717
234	0x3d9195e0	0.071086645
235	0xbd190c2b	-0.03736512
236	0xbd86fa48	-0.06590706
237	0x3d835de0	0.064143896
238	0xbe81790f	-0.25287673
239	0xbdde0e76	-0.10842602
240	0xbc7927db	-0.015207256
241	0x3ee18c7b	0.4405249
242	0x3d183272	0.037157483
243	0xbd90aafb	-0.07063862
244	0xbe3cbd4a	-0.18431583
245	0xbb732608	-0.0037101526
246	0x3d0f7ba0	0.035030007
247	0xbeab386c	-0.33441484
248	0x3d1f32d1	0.03886682
249	0x3c01704c	0.007900309
250	0x3f1175b0	0.568202
251	0xbd68798c	-0.05675654
252	0x3db5bb7f	0.08873653
253	0xbaa0a6dc	-0.0012256759
254	0xbd001f20	-0.031279683
255	0x00005284	2.9601e-41

fc_0.linear.weight_g f4 [128, 1]
0	0x3fb8253c	1.4386363
1	0x3fa5009b	1.289081
2	0x406d51f8	3.708128
3	0x402695ba	2.6028886
4	0x3fea3ee2	1.830044
5	0x3fdfe800	1.7492676
6	0x3f90936f	1.1294993
7	0x4036a69c	2.853919
8	0x403c4112	2.9414716
9	0x3feb83ce	1.8399599
10	0x3fd105bc	1.6329875
11	0x4089bdfd	4.304442
12	0x3fbc722d	1.4722344
13	0x403e7ca4	2.9763575
14	0x3f895a99	1.0730773
15	0x3fc1f71f	1.515354
16	0x3fb1ac7c	1.3880763
17	0x405cbcc8	3.4490223
18	0x40615f52	3.521443
19	0x3fc200fc	1.515655
20	0x40d2bc8a	6.585515
21	0x3fd8fc83	1.695206
22	0x3fb47ae8	1.4100008
23	0x400dbc02	2.2146
24	0x3f5c0a44	0.85953164
25	0x3fc21f1d	1.5165745
26	0x40066c1b	2.1003482
27	0x3fe477b9	1.7849036
28	0x400768ae	2.1157641
29	0x40450628	3.0785007
30	0x400c409a	2.191443
31	0x40130bea	2.2976022
32	0x4008ed00	2.1394653
33	0x3fe30c6e	1.7738168
34	0x4021191f	2.5171583
35	0x4131c5fa	11.110834
36	0x407a68b4	3.9126406
37	0x3f565988	0.83730364
38	0x3fcb01ff	1.5859984
39	0x3fdadb74	1.7098222
40	0x4021915a	2.5244966
41	0x401949d6	2.3951316
42	0x3fc57333	1.5425781
43	0x402eb30b	2.729678
44	0x3f9ca01b	1.223636
45	0x3ff65c9a	1.924701
46	0x4034938f	2.8215063
47	0x40252c1d	2.5808175
48	0x3fcc373a	1.5954354
49	0x3f7fd1e6	0.99929655
50	0x3fb25e2f	1.3934993
51	0x40034adf	2.0514448
52	0x407e5aa5	3.9742825
53	0x40274fa4	2.6142359
54	0x3ffb7022	1.9643595
55	0x40222711	2.5336344
56	0x400cc1f6	2.1993384
57	0x40265775	2.599088
58	0x3ffc987f	1.9734038
59	0x3fc71e47	1.5556115
60	0x3f99adfb	1.200622
61	0x400d5e47	2.2088792
62	0x40043159	2.065512
63	0x3fd7c5ca	1.6857235
64	0x3fa9c5e4	1.3263516
65	0x3f5bf04d	0.85913545
66	0x3f9cba69	1.2244388
67	0x3ff295b6	1.8951938
68	0x3fad8e7e	1.355911
69	0x3f47f74f	0.7811174
70	0x3fdc651b	1.7218355
71	0x3fdd4366	1.7286193
72	0x4054978c	3.3217497
73	0x410c6ebf	8.777038
74	0x3fddee1f	1.7338294
75	0x3ff7a780	1.9347992
76	0x4026834e	2.6017642
77	0x4004c337	2.074415
78	0x3f5897ea	0.846068
79	0x40359b14	2.8375902
80	0x3fd9107b	1.6958154
81	0x4015a7e3	2.338372
82	0x3f8b4ace	1.0882204
83	0x402b5e50	2.6776314
84	0x3fcdb915	1.6072108
85	0x402db98e	2.7144504
86	0x3fbe6793	1.4875358
87	0x412741db	10.453578
88	0x4017190d	2.360904
89	0x4001964e	2.0247989
90	0x3f96f221	1.1792642
91	0x40ca2c19	6.317883
92	0x3e2ccb10	0.16874337
93	0x3fa362b5	1.2764498
94	0x40015cb3	2.021283
95	0x3fa09c36	1.2547672
96	0x3f62ae25	0.88546973
97	0x405db827	3.4643648
98	0x3fec21e9	1.8447849
99	0x3ff89c4c	1.9422698
100	0x40962cc7	4.692966
101	0x3fd5a929	1.6692249
102	0x3fa6610f	1.299837
103	0x40cabff5	6.3359323
104	0x40f1eeea	7.5604143
105	0x40a79596	5.23701
106	0x40a29c7a	5.081601
107	0x3fa6f856	1.3044536
108	0x40048518	2.0706234
109	0x3fbc095a	1.4690354
110	0x3f7c76ce	0.9861878
111	0x40170696	2.359777
112	0x40175fc9	2.3652213
113	0x411523e1	9.3212595
114	0x40208247	2.5079515
115	0x401765e4	2.365594
116	0x3fcdb3af	1.607046
117	0x3f1f0b95	0.6212705
118	0x3f3a8ed6	0.728742
119	0x411a3832	9.63872
120	0x3fa0fc3e	1.2576978
121	0x3fb57778	1.4177084
122	0x4087d2af	4.244468
123	0x4004c1e9	2.0743353
124	0x40146ff4	2.319333
125	0x400e3e75	2.222562
126	0x40143935	2.3159916
127	0x3fc22677	1.5167989

fc_0.linear.bias f4 [128]
0	0xbc8bfa14	-0.01708702
1	0x3d15f82e	0.036613636
2	0xbdc536c1	-0.09629584
3	0xbd7bb13c	-0.06144832
4	0xbc1fd5e9	-0.00975559
5	0x3bafd5bb	0.005366055
6	0x3d966f4b	0.07345446
7	0xbd7b099f	-0.061288472
8	0x3d4fa120	0.05069077
9	0xbd67a29a	-0.056551553
10	0x3bc8e8e5	0.006131279
11	0x3d0228ad	0.031777073
12	0xbc560614	-0.013062973
13	0xbdb4e109	-0.088319845
14	0xbd88440f	-0.06653606
15	0x3d1b8aa9	0.037974034
16	0x3ca7e1cb	0.020493409
17	0xbda946f3	-0.082654856
18	0x3ccf07fe	0.025272366
19	0x3cfe4eb7	0.031043394
20	0xbe01a56e	-0.12660763
21	0xbc42b21b	-0.011883284
22	0xbd4b7abd	-0.0496776
23	0x3dc838b7	0.097764425
24	0x3c87fa20	0.016598761
25	0x3c6aa579	0.014321678
26	0x3ce37dba	0.027769912
27	0x3d02b954	0.031915024
28	0xbc584524	-0.013200078
29	0x3e02c777	0.12771402
30	0x3db81a16	0.089893505
31	0x3bd5f280	0.0065291524
32	0x3dc4f2a6	0.09616594
33	0xbd3fee0a	-0.04685787
34	0xbd8ef963	-0.069811605
35	0xbc7a8703	-0.015290978
36	0x3d61c08b	0.055115264
37	0x3cd1ffda	0.025634695
38	0x3d3f2aae	0.046671562
39	0xbbe555f8	-0.0069987737
40	0xbd7af70b	-0.061270755
41	0xbd8ce80b	-0.06880196
42	0xbd005848	-0.03133419
43	0xbd8fdd69	-0.070246525
44	0xbd8fb30c	-0.07016572
45	0x3d8272c0	0.06369543
46	0x3b19dc4e	0.002347726
47	0xbd234e0c	-0.039869353
48	0xbca511b0	-0.020150036
49	0xbb8418f6	-0.004031296
50	0x3d1f5135	0.038895804
51	0xbd855f23	-0.065122865
52	0xbd8a4254	-0.06750932
53	0x3de79d74	0.11309329
54	0x3dabb392	0.0838386
55	0x3dba01f8	0.09082407
56	0x3cc454b4	0.02396617
57	0xbc0892eb	-0.008335809
58	0x3d6c50f1	0.05769438
59	0x3d02c33b	0.031924468
60	0x3d33e7c3	0.043922197
61	0x3d15f65a	0.036611892
62	0x3c58dc4e	0.0132361185
63	0xbd9d2acb	-0.07674178
64	0x3d662d60	0.056195617
65	0x3b4e38f3	0.003146705
66	0x3d927b4a	0.07152422
67	0x3d379d85	0.044827957
68	0xbda1c4a1	-0.07898832
69	0xbc340190	-0.010986701
70	0xbd9cc736	-0.07655184
71	0xbd887060	-0.06662059
72	0x3da7e346	0.08197646
73	0xbd5616c8	-0.05226782
74	0xbd71ae87	-0.059004333
75	0xbd67111b	-0.056412797
76	0x3d19e3c1	0.03757072
77	0xbc274555	-0.010209401
78	0x3d554630	0.05206889
79	0xbd9495d4	-0.0725514
80	0x3d127b24	0.035761967
81	0x3d2650bd	0.04060434
82	0xbcf2b64e	-0.029627945
83	0xbdcf580d	-0.10124216
84	0xbd7aa35f	-0.06119096
85	0xbb87f11b	-0.004148615
86	0x3c4782c9	0.012177178
87	0x3e2dd2a0	0.16974878
88	0xbd6f6e1f	-0.05845463
89	0x3d3352a8	0.04378
90	0x3d00e056	0.031463943
91	0xbdf83554	-0.121195465
92	0xbb0c35c7	-0.0021394358
93	0x3bec61b3	0.007213795
94	0x3cb1ccd1	0.02170411
95	0xbb9a6245	-0.0047114217
96	0xbcec575d	-0.028850252
97	0x3d32a9e2	0.043619044
98	0xbde2768e	-0.11057769
99	0x3d4cb701	0.049979214
100	0x3c5fee81	0.013667704
101	0xbd5242a3	-0.05133308
102	0x3dba76eb	0.09104713
103	0x3d9022ad	0.07037864
104	0xbd6f8ab1	-0.058481876
105	0xbd86a697	-0.06574743
106	0x3db1f3c4	0.08689073
107	0x3d3a1ad0	0.045435727
108	0x3dbbb25a	0.09164877
109	0x3c84027f	0.016114471
110	0x3d03a7c6	0.032142423
111	0xbd7a7bcb	-0.061153214
112	0x3dc1948e	0.09452163
113	0x3e00007f	0.12500189
114	0xbcfe8d5e	-0.031073269
115	0x3d857fc9	0.06518514
116	0xbbc9d822	-0.0061597982
117	0x3d0a46e7	0.033759024
118	0xbc22a13b	-0.009926136
119	0x3c3fa4be	0.011696992
120	0x3d895ed2	0.06707539
121	0xba932fed	-0.0011229493
122	0x3d469c0f	0.048488673
123	0x3dbf0671	0.093274005
124	0x3d3a40d4	0.04547198
125	0x3d46586c	0.04842417
126	0x3cb081e7	0.021546317
127	0x3c19d99e	0.009390263

fc_layers.0.linear.weight f4 [128, 128]
0	0xbe063ac6	-0.13108358
1	0x3d753538	0.059865206
2	0x3de1b250	0.110203385
3	0xbe5344c5	-0.20631702
4	0x3e97390c	0.2953571
5	0xbe0ee3f3	-0.13954143
6	0x3dcac57e	0.0990095
7	0x3c490c4a	0.012270996
8	0x3df0b8e8	0.11754018
9	0x3dd2e1a3	0.10296943
10	0xbd956e63	-0.07296445
11	0xbe306262	-0.1722503
12	0xbd8e4be1	-0.069480665
13	0xbe77c338	-0.24195564
14	0xbd372afb	-0.044718724
15	0x3d526adf	0.05137145
16	0x3d99aa6f	0.07503211
17	0xbd909ead	-0.07061515
18	0xbebfb162	-0.3744002
19	0x3e09690a	0.13418975
20	0xb908b53c	-0.00013037486
21	0x3e2fe79c	0.17178196
22	0xbe00d776	-0.12582192
23	0x3e5d010a	0.21582428
24	0xbe1b6d7b	-0.15178482
25	0xbd032c89	-0.032024894
26	0xbe01ad26	-0.12663707
27	0xbe80b350	-0.25136805
28	0xbdc84dc1	-0.097804554
29	0x3d97109d	0.073762156
30	0x3e5ea9bf	0.2174444
31	0x3e2d6554	0.16933185
32	0x3e009c59	0.12559642
33	0xbe190fb3	-0.14947395
34	0x3d0b0700	0.033942223
35	0x3f95535f	1.1666068
36	0x3a81ecd2	0.0009912497
37	0x3db13d4b	0.08654269
38	0xbdbb33ec	-0.09140763
39	0x3de5f347	0.11228042
40	0xbdd226f5	-0.10261337
41	0xbe8fbf3f	-0.28075597
42	0x3e14f6b7	0.14547239
43	0x3a50e2c0	0.00079683587
44	0xbdd23127	-0.10263281
45	0xbd815ac0	-0.06316137
46	0x3db6515a	0.08902235
47	0x3ccd3fc2	0.025054816
48	0xbdca770b	-0.09885987
49	0x3da02dbd	0.07821224
50	0xbd90c433	-0.07068672
51	0xbe54d0ba	-0.20782748
52	0x3e42e327	0.19031964
53	0xbd654474	-0.055973485
54	0x3cc2dcab	0.023786863
55	0xbe11dcfa	-0.14244452
56	0xbc9f4706	-0.019443046
57	0x3e6bb657	0.23018776
58	0x3e30b93a	0.17258158
59	0xbe4612b0	-0.19343066
60	0x3dacd115	0.08438317
61	0xbcfee84e	-0.03111663
62	0x3e38fb51	0.1806462
63	0xbd8033b0	-0.062598586
64	0xba8d2159	-0.0010767385
65	0xbd879503	-0.066202186
66	0x3d8162d3	0.06317677
67	0x3e0bb449	0.13642992
68	0x3d080e1c	0.03321658
69	0xbd20c785	-0.039252777
70	0xbe213b50	-0.15745282
71	0x3c317a6a	0.010832408
72	0x3e33b195	0.17548211
73	0x3db6c7ec	0.08924851
74	0x3d884c0a	0.06655128
75	0xbd91833c	-0.07105109
76	0x3d152d15	0.036419947
77	0x3c1d82ea	0.009613732
78	0xbd70c9b8	-0.058786124
79	0xbdd690bb	-0.10476824
80	0x3d3b286d	0.04569285
81	0x3e301e3b	0.17199032
82	0x3e5b35c9	0.21407236
83	0x3ca51bb0	0.020154804
84	0x3ba75a07	0.0051071676
85	0x3e22416c	0.15845269
86	0x3bb17acd	0.0054162503
87	0x3e84bbff	0.2592468
88	0x3eb3c0c0	0.35107994
89	0x3e0a182f	0.13485788
90	0x3d3b4886	0.04572346
91	0xbdd5c28f	-0.104375
92	0x3d576a88	0.05259183
93	0xbc7de4ee	-0.015496476
94	0xbd0c63e0	-0.034274936
95	0xbdcbb6c9	-0.09946973
96	0x3e3d0556	0.18459067
97	0xbdd1d8fe	-0.10246466
98	0x3d3a6bd6	0.045512997
99	0xbce156a3	-0.027507132
100	0x3e55f425	0.20893915
101	0xbd8cf153	-0.068819664
102	0x3e0114b9	0.12605561
103	0x3d095840	0.033531427
104	0xbd369f63	-0.044585597
105	0xbe5d17e3	-0.21591143
106	0xbd9679b4	-0.07347432
107	0x3dfa7124	0.12228611
108	0x3ddc5170	0.107577205
109	0x3e482ec5	0.19549091
110	0xbbe06913	-0.0068484633
111	0x3b0ad26a	0.0021182545
112	0x3dd9a083	0.10626318
113	0x3df7746f	0.12082755
114	0xbca38cfc	-0.019964688
115	0xbe056acc	-0.13029021
116	0xbbd120f5	-0.0063821026
117	0x3db4a6cf	0.08820879
118	0xbe22c2fc	-0.15894693
119	0x3e7f0e26	0.24907741
120	0x3e565773	0.20931797
121	0x3e0ed236	0.13947377
122	0xbeeaf88b	-0.45892748
123	0x3de2d5c4	0.11075929
124	0x3e69805a	0.22802868
125	0x3e2485b9	0.16066636
126	0x3e121b0d	0.14268132
127	0xbd26e2db	-0.04074369
128	0x3d05fde0	0.032712817
129	0x3e453f8b	0.19262521
130	0xbdb0914b	-0.086214624
131	0x3d84e32e	0.064886436
132	0xbe107320	-0.14106417
133	0x3c19ffb1	0.0093993405
134	0xbdc16b95	-0.09444348
135	0xbe86b6ef	-0.26311442
136	0x3cf3b48e	0.029749181
137	0xbe3e2213	-0.18567686
138	0x3e6901e6	0.2275463
139	0xbcd24725	-0.02566869
140	0xbe8eb26e	-0.27870506
141	0xbdf70ab1	-0.12062586
142	0x3e778b97	0.24174343
143	0xbdd456e8	-0.103681386
144	0xbd429987	-0.047509696
145	0xbe49f15a	-0.19720975
146	0x3ca751ca	0.020424742
147	0xbd2e824a	-0.042604722
148	0xbe346d5b	-0.17619841
149	0xbf0d7685	-0.5525897
150	0xbc404e1b	-0.011737372
151	0x3c02c1c3	0.007980767
152	0x3df4f48f	0.11960708
153	0xbe4cd592	-0.20003346
154	0xbe255175	-0.16144355
155	0xbd091a38	-0.03347227
156	0x3e4a903d	0.19781585
157	0xbde434b8	-0.11142868
158	0x3c6d5fbf	0.01448816
159	0x3e22ba33	0.15891342
160	0x3d8111f2	0.06302251
161	0xbe18e318	-0.1493038
162	0x3e07e5e6	0.13271293
163	0xba192a01	-0.0005842746
164	0x3eb68a14	0.3565222
165	0xbd9ecc8b	-0.07753857
166	0xbec2918e	-0.38001674
167	0x3e5af711	0.21383311
168	0xbdfad04a	-0.12246759
169	0x3e2f7220	0.17133379
170	0xbe60e848	-0.21963608
171	0xbe3156a8	-0.17318213
172	0x3d0f1a69	0.034937296
173	0x3ea69850	0.3253808
174	0x3dd1d640	0.10245943
175	0x3e472011	0.19445826
176	0x3d732442	0.05936075
177	0xbe28ce83	-0.16485028
178	0x3ec9c8e4	0.3941108
179	0xbe0415db	-0.12898962
180	0xbe142792	-0.1446822
181	0x3ece48ae	0.40289825
182	0xbe2a4bec	-0.16630524
183	0x39cff7fe	0.00039666885
184	0xbd993d59	-0.07482404
185	0xbdcf5493	-0.10123553
186	0x3a9b5b3b	0.001185275
187	0x3f025e7d	0.5092543
188	0x3e95f284	0.29286587
189	0xbdccf007	-0.10006719
190	0x3d0f7b0a	0.03502945
191	0xbec9d649	-0.394213
192	0x3c465694	0.012105603
193	0x3e7140fb	0.23559944
194	0x3e002356	0.1251348
195	0x3e41199a	0.18857422
196	0x3eadd169	0.3394883
197	0xbbabe454	-0.0052457247
198	0x3dcd2cd2	0.100183144
199	0x3d5cf0c8	0.053940564
200	0xbd7689df	-0.060190078
201	0xbd91d39c	-0.071204394
202	0xbe93188b	-0.28729662
203	0xbc2f756d	-0.010709149
204	0xbe29c529	-0.16579117
205	0xbe2a9c5d	-0.1666121
206	0xbde7c58c	-0.11316976
207	0x3d305966	0.043054007
208	0xbdd0748b	-0.10178479
209	0xbd20ff42	-0.039305933
210	0xbeb56f7b	-0.35436615
211	0x3deab6ad	0.11460624
212	0xbeb44bc1	-0.35214046
213	0xbe7a68a3	-0.24453978
214	0x3ca30976	0.019901972
215	0x3d6400cc	0.055664822
216	0xbeaf0b53	-0.34188327
217	0x3d87094c	0.0659357
218	0x3d14b466	0.036304854
219	0xbe9b380e	-0.30316204
220	0x3d94ad7f	0.07259654
221	0x3e7361d3	0.23767786
222	0x3e7124ed	0.23549242
223	0x3e1adb03	0.15122609
224	0xbe0a363a	-0.13497248
225	0x3e7b8f40	0.24566364
226	0xbe0e02f4	-0.13868314
227	0x3d963808	0.07334906
228	0xbc4ed8a0	-0.01262489
229	0x3e039f57	0.12853752
230	0xbe736305	-0.23768242
231	0xbd77db69	-0.06051198
232	0x3da8cb45	0.082418956
233	0xbd4bf6df	-0.04979598
234	0xbcfec5b8	-0.031100139
235	0x3e13b639	0.14424981
236	0xbc510f7c	-0.012760039
237	0xbdbfcd81	-0.09365369
238	0xbe3b0678	-0.18264186
239	0xbda9c744	-0.0828996
240	0xbdf0affa	-0.11752315
241	0xbbb22ae8	-0.0054372437
242	0xbe7252de	-0.23664424
243	0x3e79b9a6	0.24387226
244	0x3ee62f51	0.44957975
245	0xbc36898d	-0.011141193
246	0x3c22913b	0.009922321
247	0x3d1ed794	0.03877981
248	0x3dc05d73	0.09392824
249	0xbdd1144d	-0.1020895
250	0x3ec669ba	0.38752538
251	0x3e9bfae4	0.30464852
252	0xbe6e05dc	-0.23244423
253	0xbe1111cb	-0.14166944
254	0x3db7db9c	0.08977434
255	0x3ddb3b22	0.10704638
