heat_eq_2d/outputs/silu_interior_2000_arch_128x3/heat_network.0.pth (torch, 140446 bytes, 10 tensors)

_impl.layers.0.linear.weight f4 [128, 2]
00000000: 562f b23c 2846 e5be aef3 ddbd 6d41 c7bd
00000010: 4e7f 893f f0b1 2d3c 20c8 a13b 1e42 823f
00000020: 79d0 d5bf 2295 a2ba 1537 04bf 6cf6 a93b
00000030: 8f76 32bf 62be c43b 5604 46bd 960c 24be
00000040: ef0e b73e 1bba 093b 14c7 4fbf 8341 1dba
00000050: dc53 50bf 1361 5f3c 73ac babf d8a3 6d3b
00000060: 1567 073d 8399 d5be fa44 3cbd b5b6 77be
00000070: 44f9 e23c 06b6 e5be 21fc ac3a 960e 263f
00000080: 65e3 f43c bf56 893e 6e0f 22bf 0581 163c
00000090: dde4 c73c 501b f93e 581a 26bf 0e43 ca3b
000000a0: e78a aa3c ace9 cdbe a398 243c 3052 1abf
000000b0: 1320 7f3c d31a 1dbf 78f4 453f 027d 2d3c
000000c0: 4b21 3b3c bf0c 10bf 8727 a23c d263 163f
000000d0: 5565 5cbf af8b 543c 4317 46bf bd2c bc3b
000000e0: 779d 7f3c 3dad 273f 84bd d03c 9d89 403f
000000f0: 44e2 ddbf 589b 61ba a87b 62b9 829b de3f
00000100: abd3 53bf 6939 e23b 0378 a3bf ec39 053c
00000110: 2be4 563c f895 0fbf 9bdc 98be cef4 a2bc
00000120: 50af 6bbf 614b 583c 65ba c5be bd7b 943c
00000130: 3320 21bf d0f1 1b3c 815a 5b3f c26e 353c
00000140: 912d 903e 8810 91bd 61ea f8be 8112 fc3b
00000150: 6591 9a3c 2890 193f 84be e13c 6eab ee3e
00000160: 318c 703f f4dd 8e3a 4b08 5ebf fe38 483c
00000170: 4cc0 27bf aaab c83b 1ffd 9dbe a145 6dbd
00000180: e7eb c13e 4445 cd3c 95cb babf 28ec 523b
00000190: 3133 02bf 0732 e33b 8d33 0f3d 607a 013f
000001a0: 1b2f 573c b838 07bf 47f9 fe3c f15f dc3e
000001b0: ec44 0dbd 79c1 8abe 9a16 20bf c450 ef3b
000001c0: 7a37 3e3d 5b45 d83e b66b e13c 9ac6 183f
000001d0: a432 543d d312 c0be fb89 583d 9af6 c5be
000001e0: 5c7c 8fbf e7ad ca3b b5d5 163f e61a bf3b
000001f0: 8240 883c dd22 013f ed32 0dbf 1bf3 1a3c
00000200: 91c3 9d3c 2b45 fa3e 0495 9bbe d57a 9b3c
00000210: 2006 87bf 0b27 0c3c 1704 7c3c 4697 00bf
00000220: 6bb5 483f 736d 143c 6e65 30bf 24a3 e23b
00000230: 847c b73c 9c5d d2be 6a55 013d be6a 183f
00000240: c283 14bf 6668 bb3b 2daf 8dbf c07e f53b
00000250: b8fb a43c 7ec0 08bf 1383 713f 79f8 b03b
00000260: 0ab8 8fbf 9a9d 783a 3def 18bf 3e15 b23b
00000270: 8a79 babe 9289 08bc 572e b93c ea1e c4be
00000280: 047d 373c 1bcb 26bf 41e7 cbbf f6b8 8e3b
00000290: 09b2 25be 87ed a5bc 5a24 81bf bfd9 383c
000002a0: a9c2 e83c b3d2 183f 27c8 6dbf 37a2 703c
000002b0: cc33 5f3d 27b3 9d3e 9672 503f f584 063c
000002c0: 0e7a 103d 2170 c9be ffca a6bf e21d cb3b
000002d0: acd5 afbe 0c25 06bc 2bab 823c a231 123f
000002e0: 97d4 6cbf 8a86 f73b 7bd7 dcbe 7db6 2e3c
000002f0: ece6 cebe 744b 6e3c 1859 c03c 3180 213f
00000300: aee5 95be edcc ae3c 5cda f5be 5b2b 083c
00000310: 76cc d7bf 1c2e a73b 4b9d d63c 27a4 e2be
00000320: d8fe 953c cbe2 0a3f c0f5 cb3c 167e ffbe
00000330: 0d37 8ebf 0cbb 7d38 0dcf d23c f9ed 0fbf
00000340: 8f46 69bf 4def 063c 6168 353f cb39 903c
00000350: 21be 93bf e5b6 083c d903 093d 168e f33e
00000360: 6977 64bc a4a8 d03e 91ab 733d 6309 89be
00000370: 31f9 a93c 2f77 1d3f 20bb 66bf 22ed 3a3c
00000380: ef93 99bf 8609 f53b c0f5 963c f016 12bf
00000390: f8de 13bf bf48 ff3b 7321 823c 4295 04bf
000003a0: 9b8d 983f 4894 2d3b 19da dcbe 88fd 8c3c
000003b0: 9887 073c ce24 d33e d3ce 753c f7d4 efbe
000003c0: 9752 d9be 9f6c 903c be86 20bf 11f1 f83b
000003d0: a792 993c 047e 213f 8278 95bf c67c bb3b
000003e0: 80e2 823c c3cf 1d3f 5f37 323c 7e7f 9a3f
000003f0: 0117 65bf 5bdb b03b d1be 063c 69bc 3f3f
0.021751087 -0.44780087 -0.10837494 -0.09729276 1.0741975 0.010601506 0.004937187 1.0176427
-1.6704246 -0.0012404064 -0.5164655 0.0051868465 -0.69712156 0.0060041407 -0.04834398 -0.16020426
0.3575358 0.0021015469 -0.81163144 -0.0005998837 -0.8137796 0.013633984 -1.4583877 0.0036260989
0.03305729 -0.41718683 -0.04596422 -0.24190791 0.02770675 -0.44865435 0.0013197699 0.64866006
0.029893586 0.26823995 -0.63304794 0.009186034 0.024401123 0.4865365 -0.6488395 0.0061725443
0.020818187 -0.4021734 0.010046157 -0.6028166 0.015571612 -0.61369056 0.77326155 0.010588886
0.011421512 -0.5626945 0.019794239 0.58746064 -0.8609212 0.012972756 -0.77379245 0.005742638
0.015601507 0.65498716 0.025480993 0.7520998 -1.7334676 -0.0008606217 -0.00021599105 1.7391207
-0.82744855 0.0069038165 -1.2771 0.008131485 0.013115923 -0.5608821 -0.2985581 -0.019892123
-0.9206438 0.0132015655 -0.3861877 0.01812541 -0.6293976 0.009518102 0.85684973 0.01107377
0.28159764 -0.07083231 -0.48616317 0.0076926355 0.018868158 0.5998559 0.027556665 0.46615165
0.93963915 0.0010899887 -0.86731404 0.012220619 -0.65527797 0.0061239796 -0.3085718 -0.05792773
0.37875292 0.025057442 -1.4593378 0.0032184217 -0.5085936 0.006933454 0.034961272 0.50577354
0.013133789 -0.5282092 0.031124724 0.43041947 -0.034489557 -0.27100733 -0.6253449 0.007303329
0.046439625 0.42240414 0.02751718 0.5967804 0.051806107 -0.37514362 0.052865963 -0.38664705
-1.1209826 0.0061852816 0.5891984 0.005832064 0.016632322 0.5044382 -0.5515583 0.009457375
0.019258292 0.48880896 -0.30387127 0.01897947 -1.0548744 0.00855423 0.0153818345 -0.50230825
0.7840182 0.009059298 -0.6890477 0.0069164205 0.02239824 -0.41087043 0.031575598 0.59537876
-0.58013546 0.0057192324 -1.1069084 0.0074919164 0.02013956 -0.5341872 0.9434063 0.005400714
-1.1228039 0.00094839337 -0.5974005 0.005434661 -0.36420852 -0.008333581 0.022605104 -0.38304836
0.01119924 -0.65153664 -1.5929948 0.004355545 -0.16181196 -0.020254863 -1.0089219 0.011282383
0.028413134 0.596965 -0.92883533 0.0146871125 0.054492757 0.30800745 0.81424844 0.00821041
0.03527265 -0.3934336 -1.30307 0.0061986307 -0.34342706 -0.008187544 0.01595076 0.57106984
-0.92511886 0.00755388 -0.4313315 0.010663626 -0.40410554 0.014544357 0.023479983 0.6308623
-0.29276794 0.02133795 -0.48018157 0.008311118 -1.6859272 0.005101932 0.02619805 -0.44265863
0.018309996 0.5425231 0.024897456 -0.49900883 -1.111055 6.04941e-05 0.025733495 -0.5622249
-0.9112329 0.008235765 0.70862395 0.017605683 -1.1542398 0.008344387 0.033450935 0.4756934
-0.013944485 0.40753663 0.05948979 -0.26764974 0.020748707 0.61509985 -0.9012928 0.011409076
-1.1998271 0.007477942 0.01842773 -0.5706625 -0.577621 0.0077906544 0.01588509 -0.5179025
1.1918215 0.0026486088 -0.43135145 0.017210737 0.008272074 0.41239017 0.015002924 -0.46842167
-0.42445824 0.01762992 -0.627056 0.0075970967 0.018746687 0.6308291 -1.1677401 0.0057216613
0.015977144 0.61645144 0.010877459 1.2070158 -0.89488226 0.005397243 0.008224205 0.74896866

_impl.layers.0.linear.weight_g f4 [128, 1]
00000000: 3781 c33f b5f9 893f 5595 0740 c323 a23f
00000010: d819 de3f b07a c03f 4570 dc3f 9391 8d3f
00000020: c1dc 703f 67d6 a53f 6781 df3f 111c ca3f
00000030: 5ed8 bd3f a4bd df3f 369e b83f c417 993f
00000040: 993b c13f 6f13 c33f b39a c13f cc9e f73f
00000050: 7e9b e03f 7233 983f 27d9 d63f 507f 0140
00000060: 4d34 0440 be75 a83f c7d4 e43f cc68 cc3f
00000070: f76f a73f 4a2d 1740 08e5 e83f 5a9c 0740
00000080: 91b4 d93f 1b10 d63f f96b d53f b1a5 e33f
00000090: 707d c93f 9d01 ad3f 3ca5 ca3f 9203 0440
000000a0: 4739 933f 6377 f93f 48fa b13f e48d 0040
000000b0: 73d0 ce3f fb9b de3f ce5c e63f c2fc ab3f
000000c0: bfcf c93f f197 ac3f 5ae5 d73f 9237 ce3f
000000d0: 880b c33f fc18 b03f 8fa9 903f 8d0e e43f
000000e0: 4820 a33f 77f9 a13f d9af ab3f a1a6 9d3f
000000f0: f510 d73f 9402 c53f bd16 0040 67c3 c33f
00000100: 4649 d53f 129a ab3f 6898 d43f 4cd0 0540
00000110: 1237 0340 b79e db3f 39b2 b23f 8d17 b53f
00000120: 553c ea3f e8c7 d63f 3d2e b13f b904 c93f
00000130: 87f6 b83f 065d ca3f f73b b33f 7618 a73f
00000140: ef43 0540 2f7d dc3f 5088 8e3f 908b c63f
00000150: aef5 eb3f c920 d53f cbbc 933f bcd4 ef3f
00000160: dd7b 2b40 b408 cc3f 9c55 b43f d68c ac3f
00000170: 2e5c d23f 3246 cb3f 5a5c c93f adcb c53f
00000180: 1d77 ca3f 2abc ed3f 6db6 d53f b535 0240
00000190: 434b e03f 0c48 d33f 91b6 a53f 7f7b b83f
000001a0: b8ae d53f b632 ef3f 014a d53f 4777 c13f
000001b0: e929 bd3f ab87 983f 5592 af3f 9549 ca3f
000001c0: aa23 ce3f a89c b83f 5957 0d40 ecf7 a93f
000001d0: 4136 a83f 34a1 d13f 08ad 9b3f 30a8 db3f
000001e0: eec7 ab3f 37be 0840 4766 b03f fcc2 c63f
000001f0: a1ac a33f e069 0140 cd0d fb3f fca2 a13f
1.5273808 1.077933 2.1184895 1.2667164 1.7351637 1.5037441 1.7221762 1.1060051
0.94086844 1.2956055 1.7461365 1.5789815 1.4831655 1.7479749 1.4423282 1.1960378
1.5096313 1.5240306 1.5125335 1.9345336 1.7547452 1.18907 1.678502 2.0233955
2.0656922 1.3160932 1.7877434 1.5969481 1.3081044 2.3621392 1.8194895 2.118918
1.700823 1.6723665 1.6673576 1.778494 1.5741405 1.3516117 1.5831676 2.062718
1.1501855 1.9489559 1.3904505 2.0086603 1.6157364 1.7391351 1.7997072 1.343651
1.5766524 1.3483869 1.6866868 1.6110709 1.5237894 1.3757625 1.1301745 1.781694
1.2744226 1.2654256 1.341304 1.2316476 1.680205 1.5391412 2.0013878 1.5294007
1.6662986 1.3406394 1.6609011 2.0908384 2.0502362 1.7157811 1.3960639 1.4147812
1.8299662 1.6779757 1.3842236 1.5704566 1.4450234 1.5809639 1.4002675 1.305434
2.0822713 1.7225703 1.1135349 1.5511341 1.843435 1.665063 1.154199 1.8736796
2.679435 1.5940156 1.4088626 1.348048 1.6434381 1.5880797 1.5731308 1.5452782
1.58176 1.8573048 1.6696297 2.034528 1.7522968 1.6506362 1.294634 1.4412688
1.6693945 1.8687351 1.6663209 1.5114526 1.4778415 1.1916403 1.3716532 1.5803705
1.6104634 1.4422808 2.2084563 1.3278785 1.3141557 1.637732 1.216218 1.7160702
1.3420389 2.1366098 1.3781213 1.5528255 1.2787057 2.022087 1.9613587 1.2627864

_impl.layers.0.linear.bias f4 [128]
00000000: 0be3 b0be 677c c6be b750 d2be a263 cfbe
00000010: 4896 3dbf 52f7 32bf dda7 3dbf 252a e7be
00000020: 2fd8 373f 3f71 a6be 19b4 d3be 5308 31bf
00000030: 3c91 46be 3283 fbbe 27ec 86be 87b1 193f
00000040: 1e79 c5be 0688 0fbf 1701 8fbe 5608 45bf
00000050: cca4 b3be cdbe a7be 53b0 a4be fc36 5ebe
00000060: 1e90 b8be c1ee a0be db72 04bf 95b5 30bf
00000070: c941 98be d359 6abe 5838 42bf 2cf5 b8be
00000080: 33f3 36bf c1c5 2bbf b2cc c9be 4037 c8be
00000090: 8968 19bf d2c1 d6be 7661 11bf d943 f9be
000000a0: 7074 6b3e 233c 41bf d1f5 75be 41c6 2cbe
000000b0: cbc8 363d 03be 05bf 05b3 3abf 7705 5bbe
000000c0: 622b e4be 76cf a9be 2c4b 30bf 0a57 eabd
000000d0: 0360 84bd 6d57 2fbe 10f1 afbe 2e95 1abf
000000e0: 079e 913e b5c3 a1be 868d e03e 5dbd a23e
000000f0: f86a 33bf 5457 9f3d cab8 9bbe d9dd 11bf
00000100: 77fc c6be e08d 8fbe 2ff2 29bf bbe5 98be
00000110: a586 d9be 74ab 37bf 1891 72be a418 5dbe
00000120: cc53 40bf 4c9f 11bf c867 79be d512 efbb
00000130: 527b d1be e61e 39bf ad3f e2be ba94 7dbe
00000140: 965d b2be 2dbd 3cbf af79 f5be 532b 12bf
00000150: 88b4 f5bd c805 00bf b5fc c93e 8cf9 edbd
00000160: 17df 9e3c 95ef 2ebf 0351 00bf c6e7 07be
00000170: 581f 36bf 56da c5be 7421 2ebf fa6d 80be
00000180: 6181 1dbe 5648 39bf 5ea2 38bf 5547 88be
00000190: 0e9b a6be f170 8fbe 3234 acbe 4fc7 9bbe
000001a0: 5307 37bf 6cfe 07bf 28a4 33bf 6ff3 15bd
000001b0: d666 c9be 6c6f ac3e 0e8a 5cbe 0b01 0dbf
000001c0: 0714 2ebf 6dcc 87be c9a8 50bf a5f9 2ebe
000001d0: fb14 843e 5409 efbe c990 233e 4fe8 b0be
000001e0: 2d9b 9dbe 1ff9 3fbf 9e7e 4abe 9fe2 2dbf
000001f0: eed2 96be 30ef afbe 7033 48bf 28b2 b0be
-0.3454822 -0.38766786 -0.41077206 -0.405057 -0.74057436 -0.6990863 -0.74084264 -0.4514934
0.71814245 -0.32508275 -0.4134834 -0.69153327 -0.1939134 -0.49123532 -0.26352045 0.6003651
-0.38568968 -0.5606693 -0.2793052 -0.76965845 -0.35086668 -0.32762757 -0.32165775 -0.21700662
-0.36047453 -0.31432155 -0.51737756 -0.6902707 -0.2973769 -0.22885828 -0.75867224 -0.3612455
-0.7146484 -0.67098624 -0.39413983 -0.39104652 -0.59925133 -0.41944748 -0.5678934 -0.48684576
0.22993636 -0.75482386 -0.24019553 -0.16872503 0.044625085 -0.5224306 -0.7292941 -0.21388803
-0.44564348 -0.33166093 -0.68864703 -0.11442383 -0.06463625 -0.17123194 -0.34363604 -0.6038388
0.28440878 -0.31594625 0.43857974 0.31785098 -0.70085096 0.077803284 -0.3041442 -0.5697914
-0.3886449 -0.2803793 -0.6638517 -0.2986277 -0.42485538 -0.7174599 -0.23688161 -0.21591431
-0.75127864 -0.5688369 -0.24355996 -0.007295946 -0.40914398 -0.7231277 -0.44189206 -0.24763766
-0.34837025 -0.7372616 -0.479444 -0.5709736 -0.11997324 -0.5000882 0.39450613 -0.11619863
0.019393487 -0.68334323 -0.50123614 -0.13272008 -0.71141577 -0.3864314 -0.68019795 -0.25083905
-0.15381385 -0.72376 -0.7212275 -0.26616922 -0.32540172 -0.28015855 -0.33633572 -0.30425498
-0.7149555 -0.5312259 -0.7017236 -0.03660911 -0.3933627 0.33678758 -0.21537039 -0.55079716
-0.6799931 -0.26523152 -0.81507546 -0.1708742 0.25797257 -0.46686804 0.159732 -0.34552237
-0.30782452 -0.74989504 -0.19774863 -0.6792392 -0.29457802 -0.34362173 -0.7820349 -0.34510922

_impl.layers.1.linear.weight f4 [128, 128]
00000000: b820 243e 7c2d ba3c c6c1 02bd 9207 ca3d
00000010: 8b80 fabd 12cd a7bd 0503 18be 79cc 893c
00000020: 7150 c13c c705 d1bd 54d3 e7bd da85 06be
00000030: d72e 283e 17a2 883d 6138 ed3d ab12 9b3d
00000040: cc1f 063e 2aec f3bd 21df 133e cfc4 2dbe
00000050: d720 083e deab d83d 1bad 123e a7b8 3abb
00000060: df80 323e c953 043e ab1b 02be 7ed0 22be
00000070: 319d ef3d 6d6a 2d3e c4b4 22be 74a2 243e
00000080: c588 18be 52f7 07be 3e6d 063e ba7f 17bc
00000090: 66f3 01be d4c0 b8bd 204d 06be ee38 93bc
000000a0: 96ab 403d e2d8 01be 3cc8 9f3d d62b 283e
000000b0: 7309 5bba 068f e3bd b6a7 36be 1b5e 91bb
000000c0: f925 ff3c 45f1 dabd ca6d f5bd 340a 163e
000000d0: 148c 9b3d 0382 0d3e c0ec 353d cd58 11be
000000e0: 6c6b 023e 5ece fd3d 2c68 203e 7c7e 273e
000000f0: f8ec 09be 5937 bcba 76e4 243e 124f 11be
00000100: 1041 1b3e da43 3abd 17dd 11be 9d0f 3c3e
00000110: 69f0 ac3b 5520 29be 20b8 0b3e 3d4e 0d3e
00000120: f76e 04be 5b79 eabd 0a3b 193e 115a 5f3b
00000130: 09d4 c3bd a2a4 07be 6b12 78bd ec0f cf3d
00000140: 1c4a 0c3e da4c 29be e078 b1bc 2666 01be
00000150: 49ee 2e3e f49a f0bd a5bf b93d 1783 113c
00000160: 8b7b 363e 15b7 27be 510c 92bd a050 b93d
00000170: 34f7 1bbe cbca c2bd 8284 a2bd 388d 063e
00000180: f427 91bd cfd2 0cbe 874a 1bbe 7aa8 1b3e
00000190: 753b 113e bc59 153e df38 95bd 5b2b 143e
000001a0: 88bc 12be f9b8 013d 2294 15be 5e97 253e
000001b0: d8f1 bd3d da6b 053e fd5a 053e 269d 02be
000001c0: 59e7 24be 0585 183e 646b 09be cbf6 1a3e
000001d0: 3dde 943c 3b61 6ebd 3be6 a83d 2f01 fb3d
000001e0: dd4d d8bd 3dcf 1dbe da9e 003e 9965 0abe
000001f0: 64ae a83d 66ba 303e d49a 54be 2493 e73d
00000200: a4d1 27be ac53 fd3c 6749 633e f5de ebbd
00000210: a4e2 1c3e 6b8b 213e 9cb6 7d3e 6899 4bbd
00000220: 2b29 833d 83df e33d ab4f f13d ccf1 4b3e
00000230: 5457 40be cfb9 a7bd 5b8b 36be 3638 d5bb
00000240: 0ae2 33bd 1984 ec3d 2e54 00be a49c 283e
00000250: f602 c8bd 2463 76bd ab1a 8d3c ef97 763e
00000260: c067 6b3d a42b 1ebd b402 e03c a169 163c
00000270: 3227 ef3a 4f34 06be 8058 873d 7180 0ebe
00000280: 50df 0e3e d96e 5e3d 3500 dabd ebd8 fe3d
00000290: ffd4 473e 96a4 1c3d 2976 063e 80c0 e93d
000002a0: 4b80 d93c d082 043d 0fe2 4bbd 102d b2bd
000002b0: cd42 3f3e bd31 d1bb d96f 863e cba5 f53d
000002c0: 1607 d83c 95fb 033e e372 273e 4038 33be
000002d0: d81a c1bd 2471 2dbd f4c7 423c 5535 233e
000002e0: f9ab 5cbc 1c3e 00be c41d e93c d3c4 adbd
000002f0: 079b 6f3e 578d 373e 2cb3 f63c 45d3 1e3e
00000300: 6b0b 11be df85 053e 27b8 e83d 4211 77bd
00000310: d62c 0d3e 9d51 5b3e 3362 47be bcf0 4a39
00000320: 55d5 8c3e 40b2 4f3e 2947 1dbe f933 333e
00000330: 4713 3d3d f12d 123e 1a9e ee3d bc36 e43c
00000340: 2456 94bd 8dac e13d f3df 94bd f77b 723e
00000350: b88d 09be 42d1 1c3d 9f0a 33bd ba35 0e3e
00000360: 602f c4bc 1e3e 7c3d 6362 0d3e aada a53d
00000370: 3a8d 153e 4787 123e f6c6 6a3e 50fc 2bbe
00000380: a399 173e bb10 263e da9d 5a3d a880 49bd
00000390: abbf 5a3d 3fd3 d0bc 5d8b 61bd bb8e 803c
000003a0: 152f 903e 394b 593d 6797 8c3c 047a 2dbd
000003b0: ac62 9cbd 5810 ed3c 096f 593c b972 4f3e
000003c0: 890f b93d 7c4f 6dbd 6a95 013e d30b 52be
000003d0: 513b ee3d 66da 5e3c cc9e 83bc 38c2 403c
000003e0: a5c9 723c e8b5 603e 87a9 10be 8e10 d53c
000003f0: 1c92 d1bd 597a f23c f7e2 eb3d 8c5a 1f3d
0.16028106 0.022726767 -0.031923078 0.09864725 -0.12231549 -0.08193411 -0.14844902 0.016821133
0.023597928 -0.1020618 -0.113196045 -0.13136998 0.16424118 0.06671541 0.11583019 0.0757192
0.13098067 -0.11910279 0.14440586 -0.16969608 0.13293777 0.10579656 0.14323847 -0.002849141
0.17431973 0.12922587 -0.12705867 -0.15899846 0.11699904 0.1693513 -0.15889269 0.16077596
-0.14895923 -0.13277939 0.1312761 -0.009246761 -0.12690505 -0.09021154 -0.13115358 -0.017971482
0.047038637 -0.1268039 0.078018636 0.16422972 -0.0008355595 -0.11111264 -0.17837414 -0.004436267
0.031146036 -0.1069055 -0.11983831 0.1465233 0.07595077 0.13819127 0.044415236 -0.14194031
0.1273629 0.12392877 0.15664738 0.16356844 -0.13469303 -0.0014359757 0.16102776 -0.14190319
0.15161538 -0.045474865 -0.14244495 0.18365331 0.0052776826 -0.1651624 0.13644457 0.13799377
-0.12932955 -0.11448928 0.14963928 0.0034080783 -0.09561927 -0.13246396 -0.06056444 0.10110459
0.13700145 -0.16533223 -0.021664083 -0.12636623 0.17083086 -0.11748305 0.090697564 0.008881352
0.17820565 -0.16378434 -0.071312554 0.09048581 -0.1523102 -0.09511336 -0.0793543 0.13139808
-0.070876986 -0.13752292 -0.15165149 0.15200987 0.14182837 0.14585012 -0.07286238 0.14469664
-0.14329731 0.031670544 -0.1460729 0.16171023 0.09274644 0.13029423 0.1302299 -0.1275526
-0.16103877 0.14894493 -0.13419873 0.15133207 0.018172378 -0.058198195 0.08247038 0.12256085
-0.10561726 -0.15411086 0.12560597 -0.13515319 0.08236387 0.17258605 -0.20762187 0.11307362
-0.16388565 0.030923687 0.2219597 -0.11517135 0.15320832 0.1577584 0.24776691 -0.049706846
0.064043365 0.11126616 0.117827736 0.19916457 -0.18783313 -0.08189737 -0.17826597 -0.006506945
-0.04391674 0.11548633 -0.12532112 0.16466004 -0.0976619 -0.06015314 0.01722463 0.24081396
0.05747199 -0.038615838 0.027345039 0.009180457 0.0018245934 -0.13105892 0.06608677 -0.13916184
0.13952374 0.05430493 -0.10644571 0.124437176 0.19514845 0.0382429 0.13131012 0.114136696
0.026550433 0.032351315 -0.049776133 -0.08700001 0.18677826 -0.006384103 0.26257208 0.11994513
0.026370566 0.1288894 0.1635242 -0.17501926 -0.09428948 -0.042344227 0.011888493 0.15938313
-0.013468736 -0.12523693 0.028456576 -0.08484807 0.23398982 0.1792501 0.030114733 0.1551028
-0.14164512 0.13039349 0.11363249 -0.060319193 0.13786635 0.21417852 -0.19471054 0.00019353902
0.2750651 0.2028284 -0.15359177 0.17500295 0.046160962 0.14275338 0.11651249 0.02785813
-0.072429925 0.110192396 -0.072692774 0.23680101 -0.13432968 0.0382855 -0.0437113 0.13887683
-0.023948371 0.061582677 0.13807063 0.080983475 0.14604655 0.14309417 0.2292746 -0.16795468
0.14804702 0.1621732 0.053373195 -0.04919496 0.053405445 -0.025491355 -0.055064548 0.01569306
0.2816092 0.053050254 0.017162038 -0.04235269 -0.07636008 0.028938457 0.013271102 0.20258607
0.09036166 -0.05793713 0.12654653 -0.20512323 0.116324075 0.013601875 -0.016066931 0.011765055
0.014818584 0.21944392 -0.1412717 0.02600887 -0.10232946 0.029599356 0.115178995 0.03890471

_impl.layers.1.linear.weight_g f4 [128, 1]
00000000: 7039 fd3f 5aba 8f3f d9b1 c63f fead c73f
00000010: ee95 b83f b3e0 b03f 8e9b a83f 76ca a13f
00000020: 2895 ac3f a338 fd3f ecb2 0640 8da7 a43f
00000030: ff99 b63f 9923 bf3f 87af 943f 143f 993f
00000040: 7c67 db3f 299b ba3f b38a c63f 17a3 9a3f
00000050: 5d09 873f af2e 8e3f 0563 3a40 1125 ac3f
00000060: b0ae 4f3f 0d0f c63f 8c79 c73f f237 ac3f
00000070: 5a0d b73f 42fd bc3f 2a1d 9d3f 8361 c63f
00000080: b363 833f 745b d83f 2d68 ba3f 5c14 bf3f
00000090: 3495 2440 1747 9f3f 7aa3 aa3f 8542 bc3f
000000a0: 8be1 4640 8f4b 9a3f 8343 8b3f c330 c03f
000000b0: 7c28 b33f fa8b e03f e05f 0440 bb4a 8b3f
000000c0: 5ebb a93f a5ce d93f 8b01 ce3f 6ea7 1040
000000d0: 8ec1 dd3f 7299 a53f ba70 c33f 7d0f a93f
000000e0: 3367 2940 23a2 933f 0e59 993f fc51 8c3f
000000f0: 7571 1440 e11e a13f 84b1 8d3f f18e a43f
00000100: 164f bc3f 6d79 973f 22b0 953f 1632 2840
00000110: dd8b ca3f e5f4 993f e5f5 af3f 532b c53f
00000120: 06d0 b23f 8a90 1440 53f6 923f da81 a33f
00000130: 06d3 1140 595d fe3f e1d4 9a3f 36fc 3040
00000140: 4de3 b43f b9dd b93f a608 973f 016c e23f
00000150: f84b 993f d4a1 583f 35e7 813f 0f19 ac3f
00000160: 05f1 0e40 9c60 0f40 2ca8 af3f 1c19 0440
00000170: 9fe3 b63f 8a7c 2540 ab4c b93f 5672 b13f
00000180: 1fd1 a33f 4005 b93f 901b b63f 4e38 d83f
00000190: 565f 9d3f 3e35 c23f 9071 b93f 09b2 9c3f
000001a0: c830 af3f 0b5a ef3f 4ca0 a53f 75b4 ba3f
000001b0: 0780 963f a263 953f 2194 e43f 3ac5 953f
000001c0: 04bf a43f e6ce 983f a493 a03f 6928 a73f
000001d0: bbc4 e33f 360e bf3f 182d 2740 98f4 0e40
000001e0: a449 b03f f487 ab3f 7073 ab3f 698c ae3f
000001f0: 085f 0e40 ec2b ba3f a346 c53f c727 9d3f
1.9783154 1.1228745 1.5523025 1.5599973 1.4420755 1.3818573 1.3172472 1.2639911
1.3483019 1.9782909 2.1046705 1.2863632 1.4265746 1.4932739 1.1616067 1.1972375
1.7140956 1.4578601 1.5511078 1.2081021 1.0549732 1.1107997 2.9122937 1.3448812
0.81125927 1.5473343 1.5583968 1.3454573 1.430095 1.4764788 1.2274525 1.5498508
1.0264801 1.6902909 1.4563042 1.4928088 2.5716066 1.244357 1.3331139 1.47078
3.107516 1.2054309 1.0879978 1.5014881 1.399673 1.7542717 2.0683517 1.0882181
1.3260305 1.7016188 1.6094221 2.260219 1.7324693 1.2937453 1.5268776 1.3207852
2.6469238 1.1533855 1.1980302 1.096252 2.3194249 1.2587548 1.1069798 1.2856122
1.4711635 1.1833931 1.1694376 2.628057 1.5823933 1.2027861 1.3746916 1.5403847
1.3969734 2.321322 1.1481422 1.2774003 2.2785048 1.9872237 1.2096215 2.7653937
1.4131867 1.4520789 1.1799514 1.768921 1.1976309 0.8462193 1.0148684 1.3445147
2.2334607 2.2402716 1.3723197 2.0640326 1.4288214 2.5857263 1.4476522 1.3863018
1.2798194 1.4454727 1.4227161 1.6892183 1.2294719 1.5172498 1.4487782 1.2241832
1.3686762 1.8699354 1.2939544 1.4586321 1.1757821 1.167103 1.7857705 1.1700814
1.2870793 1.193814 1.2545056 1.3059207 1.7794412 1.4926212 2.6121273 2.2336788
1.3772473 1.3400865 1.3394604 1.36366 2.2245502 1.4544654 1.5412182 1.2277764

_impl.layers.1.linear.bias f4 [128]
00000000: eb48 153e 25ae fbbc 55dd f63c d0a7 c9be
00000010: fc75 ce3e 7475 0ebe b787 f7bd af7c f8bd
00000020: 82fa 1ebf e5e6 973e 234f 06bf f856 1abf
00000030: d96e 43bd 8fc5 403e dfaf a9be 8c84 dbbe
00000040: a4a5 6bbd 2bab 81be 2bcc bfbd 143d 4abe
00000050: 6c84 1a3c 2bb8 43bd 19b6 33bf c964 b9be
00000060: 9dd6 b33d 9594 bbbe c4a8 dabb 68e5 473d
00000070: 3c5c 483e d10d dbbc 14e8 a2bd 3104 53bc
00000080: 0778 92bc 1bc4 d4be 9b88 48bd a14b bcbe
00000090: d9e7 373f edc3 33be 1ebc 0d3f 8124 0cbf
000000a0: b2d5 aabf 2f6c 3ebe 9134 07bd c5ce dabe
000000b0: 751b 523e e7a6 ebbc 3c73 83be f1ef c6bd
000000c0: f666 fa3c 54e2 48be a917 d2be 845f 003f
000000d0: c5ab 9fbc 7d6b a3be 0c62 ad3e 07c1 22be
000000e0: 4cb6 2bbf 78bf e1be 5211 53be ed81 64be
000000f0: f64a 9a3e 5810 0bbf dcad 88be dbc1 f2be
00000100: 2fc2 913e 3d28 d7be 7fec 483e 74a4 2bbf
00000110: 9f55 f4bc a72b d6bd b5a6 ce3d 2515 10bc
00000120: 9097 033f 31df 17bf 23dc dfbe b1ac 03be
00000130: 7486 873e eb21 06bf 79b9 973d a533 10bf
00000140: c5ad 283f 16e2 a7be 2fa9 d2bd 0184 113c
00000150: 352b 7dbc ec2d ea3d f8ee 13bd 2f0d de3e
00000160: b792 07bf 6eec 07bf eb6c 8abd 884c dfbe
00000170: 7494 b8bd 1036 26bf 7bca 4bbd 710b 5d3d
00000180: b318 e4be 350c 74be b80d f13b 0123 dfbe
00000190: 3265 d73c 4b91 5c3d 15ce 943e 9ac9 f3bd
000001a0: ed92 dbbe d854 f3be 83b9 a9bd 9cd1 aebe
000001b0: fdca dbbe abc0 50be 9751 c6be a4b8 7fbe
000001c0: d4b8 6cbe 2c1c 01be 1cd4 afbe 5aaa a53e
000001d0: 6530 fabe c0d6 dd3c b3ef 2bbf 6fae 743d
000001e0: 1448 953e c04d c2be ccec be3c 5edd 05bf
000001f0: b53e c03e 34f6 c9be fe13 48be 005d ccbd
0.14578597 -0.030722687 0.030134836 -0.39385843 0.4032439 -0.13911992 -0.120864324 -0.121331565
-0.62100995 0.29668346 -0.52464503 -0.60288954 -0.047713134 0.18825363 -0.33141991 -0.42874563
-0.057531014 -0.25325903 -0.09365114 -0.19749862 0.009430986 -0.047783058 -0.70199734 -0.36209705
0.087811686 -0.36636797 -0.0066729505 0.048802763 0.19566435 -0.026739987 -0.07954422 -0.012879417
-0.0178795 -0.41555867 -0.048958402 -0.3677645 0.71838146 -0.17555209 0.5536517 -0.547432
-1.3346465 -0.18595956 -0.033009116 -0.42735878 0.20518287 -0.028766109 -0.25673854 -0.09713734
0.030566674 -0.19617587 -0.41033676 0.50145745 -0.019491086 -0.31917945 0.33863866 -0.15893947
-0.6707504 -0.44091392 -0.20612076 -0.22315188 0.30135316 -0.54321814 -0.26695144 -0.47413525
0.28468463 -0.42022887 0.19621466 -0.6704781 -0.029825984 -0.10457545 0.100903906 -0.008794104
0.5140314 -0.5932494 -0.43722638 -0.12858845 0.26469767 -0.52395505 0.07408423 -0.56328803
0.6589015 -0.32789677 -0.102861755 0.00888157 -0.015452196 0.1143454 -0.03611657 0.43369433
-0.52958244 -0.5309514 -0.06759056 -0.43613076 -0.0901269 -0.6492624 -0.049753647 0.05396599
-0.44550094 -0.23832782 0.0073563717 -0.43581393 0.02629337 0.0538495 0.29063478 -0.11903687
-0.42885533 -0.47525668 -0.08287337 -0.34144294 -0.42928305 -0.20385997 -0.38734123 -0.24972779
-0.23117381 -0.12608403 -0.34341514 0.3235653 -0.48865047 0.02707994 -0.67162627 0.059736665
0.29156554 -0.37949944 0.023306273 -0.52290905 0.37547842 -0.3944565 -0.19538876 -0.09978676

_impl.layers.2.linear.weight f4 [128, 128]
00000000: fcfa eabd 259d 003d 57a5 8cbe bb4a d73d
00000010: d03a 7bbd 22ca f1bb 5e4a 093e ca4d 1c3e
00000020: a09f cf3c d553 98bd fb09 2e3e d6a0 dc3d
00000030: dd0e a73a f748 a3bd dba8 3abd 4618 2b3d
00000040: 6ab5 773d adbd 37be 3a7d b43d 6550 c93c
00000050: b3c6 69bd 0d8c 843d efc8 543e c953 62bd
00000060: b5c1 17bd f97b 2a3e 9c90 3cbe 1e61 2c3c
00000070: bd1d 6cbd cf75 323d 6a25 b23d 62fd 553c
00000080: 0ae6 d83c 6083 113e 0708 5f3c 940c 763d
00000090: 0c6f fbbd e9b4 2a3e d30f a6bd f3e6 7d3d
000000a0: 133c da3e a7d4 183e d653 a13d cf4d ae3d
000000b0: f106 cbbd 3265 d039 583f 023e 59d4 f03d
000000c0: f981 19bc b7d0 4ebd c302 1d3e 8f87 05be
000000d0: 66f5 1abc f6de 873e e04a 70bc c105 243e
000000e0: ca24 563e 42a2 a83d 9933 67be b2fd d8bc
000000f0: 7a80 0ebe f493 973d 22db 713d 67f8 063e
00000100: 8a04 42bd cc94 6bbc c831 46bc 1ea5 353e
00000110: de18 c63c 7624 613d acef 59bc d218 4ebd
00000120: 8336 2cbe 7b5b 5d3e be5f d93d 1b63 df3d
00000130: 407c f9bd aff3 2f3e e077 72bd 0d11 453e
00000140: a09d 0ebe f51e c83d 1b40 b43d d24f c0bc
00000150: 8345 eb3c ae09 0ebd db59 b13d 1d65 66bc
00000160: 238b d63d b767 343e fec7 bb3d bc25 063e
00000170: 4986 313d d86e 1d3e f380 eb3c 6ec5 24bd
00000180: cacc 023e a5e8 843c 72df 2ebd 8569 123e
00000190: 361a 603c e444 56bc 8cdb 05be f6a7 e83d
000001a0: 41fa 1c3c 0cec 133e cfb1 de3d 1962 8f3d
000001b0: c9b4 6c3d e162 2b3e 696d ed3d 4751 b4bb
000001c0: bc9e d63c 32dd 0f3e 978d 753d d83f 9bbd
000001d0: e5ec 153e 2d8d 87bd a031 603e d7c7 a3bd
000001e0: a41a 13be 5d5d 803c 08f7 973c 210d f83c
000001f0: 9a02 ddbd 8bd3 af3d 51cb 80bd aff2 5e3d
00000200: f097 b03c 267a d3bd 8a8c f63d 0683 973d
00000210: e104 b3bd 49d2 f23d fac0 dfbd 49a4 f13d
00000220: 5e10 313e b8c8 40bd 1226 b53d 7795 0e3e
00000230: 3c81 d3bd 4a07 1ebe 2c93 023e 05ea f43d
00000240: 6671 61be f7a2 a33b 6b5c 52be f1c8 673e
00000250: 592d 93bd 5ce0 abbd 02b5 2c3e 6023 433d
00000260: 49b4 533c ebea 453e 41e7 9e3c 689c 10be
00000270: 10c2 ccbd 98fa 2fbe 2ca1 03be b08e 0bbe
00000280: 116a 4cbd 1a28 5dbe aad8 2cbe 41ef 22be
00000290: 65cb c3bc 4ffc f6bd d6ed 78bd 35c7 ba3d
000002a0: 0cd2 633e 2c21 94bd 94bb 1bbd 5007 ebbc
000002b0: f42e eebd a29b 8ebe 43c2 43be a992 453c
000002c0: 5b1d 2dbe a5f5 8c3d 240f 773d 2411 20be
000002d0: d5a2 88be 73f3 f7bb 7480 82bd bd95 debd
000002e0: 307d 303e 3c4a efbc 4d18 603e 5261 073e
000002f0: ab03 a2bd b5d5 003e 2812 2c3e a2f2 593e
00000300: 644c 2dbe dd4f ee3d ab36 a9bd a007 283e
00000310: e05c 32be 241b c5bd 856c 1fbe 36e0 51be
00000320: 4377 95bd 6f53 973d 3bf7 0d3e 52a9 e2bd
00000330: 3757 caba 2696 113e 05db 97bd c57e 273e
00000340: d07e b13d 4f4c 623d 698f b7bd 94df f2bd
00000350: 28a9 c8bd a7f4 b53b 6ab0 78bc d685 57bd
00000360: b7cd 3a3e 4747 d03d 4aa8 24be 24b3 c33d
00000370: 0bad 20be ff45 5f3e fbb5 1cbe abfa 26be
00000380: 5824 113e cc89 023e 6b83 36be 0335 c43d
00000390: 4825 b9bd 8b72 55be bb30 35be 26fc d4bd
000003a0: b4fb 3f3e a219 ab3d 9779 f4bd 4c1f a93d
000003b0: bd9b 5c3d 0f5f 00bd 7336 c83d 2e7c 593d
000003c0: 0282 fe3d 4423 81bd f534 a33d b1b7 05be
000003d0: 43cb 223d 43f4 40be a8b7 493e 089b 8e3c
000003e0: 41c3 ccbd 7d81 f53b cfcb 18be 1dbe 2b3e
000003f0: 0417 b0bd eed7 1b3e 8485 6ebe 5ea6 e3bd
-0.11473653 0.031399865 -0.27469894 0.105123006 -0.061335385 -0.0073788324 0.13407275 0.15264049
0.02534467 -0.07437865 0.16995995 0.107728645 0.0012745518 -0.07972901 -0.04557119 0.041771196
0.060475744 -0.1794345 0.088129476 0.024574468 -0.05707426 0.06472025 0.20779775 -0.055255685
-0.037049968 0.16648854 -0.18414539 0.010521201 -0.057645548 0.043569382 0.086985424 0.013060899
0.026476879 0.14210272 0.013612754 0.06007059 -0.1227704 0.16670574 -0.08108487 0.06198783
0.42623958 0.1492487 0.078773186 0.085109346 -0.09913433 0.00039748248 0.12719476 0.11759252
-0.009369367 -0.050492015 0.15333085 -0.13039993 -0.009457922 0.26537293 -0.014666289 0.1601782
0.20912471 0.08234073 -0.22578277 -0.026488159 -0.13916197 0.07401267 0.059046872 0.13180695
-0.04736761 -0.014378738 -0.01209683 0.17738768 0.02418178 0.054966412 -0.013301771 -0.05031664
-0.1681767 0.21616928 0.106139645 0.10907575 -0.12181902 0.17182802 -0.059196353 0.19244786
-0.13927317 0.097715296 0.0880129 -0.023475561 0.02871967 -0.0346772 0.08659717 -0.014062193
0.10475757 0.17617689 0.09169005 0.13100332 0.043340955 0.15374315 0.028748011 -0.040227346
0.12773433 0.016224215 -0.042693563 0.14298065 0.013678124 -0.013077948 -0.13072032 0.11360161
0.00958115 0.14445513 0.10873758 0.070011325 0.057789598 0.16736938 0.11593134 -0.005502853
0.026198737 0.14049223 0.059949484 -0.075805366 0.1464115 -0.06618724 0.2189393 -0.07997101
-0.14365631 0.01566952 0.01855041 0.030279698 -0.10791512 0.085852705 -0.062887795 0.05443066
0.021556824 -0.10326032 0.120385244 0.073980376 -0.08741165 0.11856515 -0.10925479 0.11798913
0.172914 -0.04706642 0.08845152 0.13924204 -0.10327384 -0.15432468 0.12751454 0.11958698
-0.22015914 0.004993792 -0.20543067 0.22635247 -0.07186384 -0.083924025 0.16865924 0.047641158
0.012921401 0.19327895 0.01939738 -0.14122164 -0.09997952 -0.17185438 -0.12854451 -0.1362865
-0.04990584 -0.21597329 -0.16879526 -0.1591158 -0.023900697 -0.12059843 -0.060773693 0.09120027
0.22248095 -0.072328895 -0.038020685 -0.02869001 -0.11630049 -0.27853113 -0.19117074 0.012058892
-0.1690573 0.068827905 0.060317174 -0.15631539 -0.2668673 -0.007566863 -0.06372157 -0.10868404
0.17235255 -0.029210202 0.2188427 0.13220719 -0.07910856 0.12581523 0.16803801 0.21283963
-0.16923672 0.116363265 -0.0826238 0.16409159 -0.17418242 -0.09624317 -0.1556874 -0.20495686
-0.07298138 0.073889606 0.13863842 -0.110674515 -0.0015437369 0.14217433 -0.074148215 0.16356952
0.08666766 0.055248555 -0.089629 -0.118590504 -0.09797889 0.0055528465 -0.015178779 -0.05261787
0.18242536 0.10169845 -0.16079822 0.09555653 -0.1569101 0.21804045 -0.15303795 -0.1630656
0.1417402 0.12747878 -0.1782357 0.09580424 -0.09040314 -0.20844476 -0.1769437 -0.10399656
0.18748361 0.083544984 -0.11937254 0.082579225 0.05385946 -0.031340655 0.0977601 0.053096943
0.12427141 -0.063055545 0.07969085 -0.13058354 0.039744627 -0.18843178 0.19698966 0.017407909
-0.09998179 0.007492243 -0.14921497 0.16771741 -0.0859814 0.1521909 -0.2329312 -0.111157164

_impl.layers.2.linear.weight_g f4 [128, 1]
00000000: 10a6 c43f fc58 b03f faa1 f23f ddd0 b13f
00000010: de6c 9a3f 2de9 ac3f 8572 d73f 5f19 aa3f
00000020: 855f c23f cf6d b23f 346a ed3f d8a7 cb3f
00000030: 5a71 f63f d934 3840 8ec1 1940 5cd9 0940
00000040: 619b e83f 3a8a ab3f be3b 0d40 96ea bb3f
00000050: 91e4 b23f 60e0 943f 00de ca3f 731c a23f
00000060: eec2 c13f 49d9 f63f 2a15 b23f 0d75 2640
00000070: a7d0 c53f fdb0 d83f 69bc a63f 9206 a53f
00000080: 9db9 0440 9f32 7b40 91a6 c53f 8552 af3f
00000090: 0884 843f 5c2d d93f a360 9d3f 81c4 923f
000000a0: 150b 9b3f d370 963f 6cba ba3f 0de6 923f
000000b0: 6230 9c3f 10f1 db3f 0e01 1340 0998 943f
000000c0: d673 f13f 52a9 0640 d7ca 8f3f f7de db3f
000000d0: 5e75 bf3f df14 f83f 5e51 b03f 4c48 b63f
000000e0: 34d6 9d3f 421e aa3f 8966 b93f dd23 963f
000000f0: 7c1a 3240 b3ba 8b3f 3723 af3f 3675 c73f
00000100: 7311 903f d9a9 bb3f 057b 3040 946d b83f
00000110: 4e21 b33f 91c6 c13f e5cf 993f 4be7 e43f
00000120: e067 0a40 b472 c33f e78b d33f 7727 8e3f
00000130: b5c8 ce3f 5585 8c3f 1c5c 973f 87eb 1c40
00000140: 2595 c63f 9c41 bd3f 650a 973f e877 8c3f
00000150: 5ac7 a13f 86c9 0140 03b2 903f 6c36 ba3f
00000160: ee81 a63f 2e9f d93f 122b 893f 7a28 1740
00000170: 2097 bb3f c22a a03f bb9c df3f a774 cd3f
00000180: cc36 a63c 942d b63f f964 ba3f 3c29 b33f
00000190: 500c ab3f 8750 c13f c74e b83f 653c 2540
000001a0: 58d1 8d3f e0ff 0d40 8d29 ce3f 798d a23f
000001b0: 42c0 a33f 4d04 903f 6ecd c53f c7f5 ab3f
000001c0: cab3 b53f d5d8 c23f bd88 ba3f b83b cb3f
000001d0: 9eed a73f 2934 b83f a8f0 b63f 3152 d03f
000001e0: a084 873f 4f61 993f 81f7 f63f 0e70 b43f
000001f0: 9ac5 a73f e13d c63f 3457 573f e70f b93f
1.5363178 1.3777156 1.8955681 1.3891865 1.2064474 1.350866 1.6831824 1.3288993
1.51854 1.3939761 1.8548036 1.5910597 1.9253342 2.8782256 2.4024386 2.1538916
1.8172418 1.3401558 2.2067714 1.4680965 1.3976003 1.1630974 1.5848999 1.2664932
1.5137613 1.928506 1.3912709 2.6008942 1.5454301 1.6929013 1.3026248 1.289263
2.073829 3.9249647 1.5441457 1.3697058 1.0352793 1.6966968 1.2295116 1.1466218
1.2112757 1.1753181 1.4588141 1.1476456 1.2202265 1.7182941 2.2969394 1.1608897
1.8863475 2.1040845 1.1233777 1.7177418 1.4957693 1.9381369 1.3774831 1.4240813
1.2330995 1.3290484 1.4484416 1.1729695 2.7828665 1.0916351 1.3682622 1.5582645
1.1255325 1.4661208 2.7575085 1.440844 1.3994539 1.5138723 1.2016569 1.7883085
2.16259 1.526938 1.652707 1.1105794 1.6155001 1.097819 1.1824985 2.4518754
1.5514265 1.4785647 1.1800047 1.0974092 1.2638962 2.027925 1.1304325 1.4547858
1.3008401 1.7001703 1.0716269 2.3618455 1.4655495 1.2513049 1.7469705 1.6051224
0.020289801 1.4232659 1.4562064 1.3996959 1.3363132 1.51027 1.4399041 2.5818112
1.1079512 2.2187424 1.610643 1.2699424 1.2793047 1.1251312 1.5453317 1.343438
1.4195492 1.5222422 1.4572979 1.58776 1.311939 1.4390918 1.4292192 1.6275083
1.0587349 1.1982821 1.9294282 1.4096696 1.3107178 1.5487634 0.84117436 1.4457978

_impl.layers.2.linear.bias f4 [128]
00000000: 280e f1bd e579 383d d0b9 8c3e 532c 863d
00000010: f568 273f 33c5 b8bd 202c 84be 2618 1d3e
00000020: 8f77 fdbd 2434 733b d7ae 22bd b9ce 5bbd
00000030: 4e17 043f e403 91be ef95 07be 734c 03be
00000040: 0ac5 93bd d105 573b a5d0 0dbe ef10 0c3d
00000050: 87d4 333d f130 a73e cdc5 4cbd e950 bbbc
00000060: 2729 03bd 0bae c1bd 80c8 abbd 4435 90be
00000070: eacd d6bc 6505 08bd e076 d33c 8faa e5bc
00000080: 9329 c9bd 4fc8 e5be 5951 a4bc 342e 0abe
00000090: 9b5d 003f 988a 803e 69b8 7d3e 843f b63d
000000a0: 6b77 ad3d cbfd 4f3e 4d4b 7e3d b848 1b3f
000000b0: 699d 513f f708 57bd d106 0bbe 9663 e03e
000000c0: f1b8 bfbd b099 c9bd 03f7 193e b10c 6dbd
000000d0: 5701 853e fd26 1bbd 2c50 df3d f1ff f1ba
000000e0: 618b a83e b7ad d03d 0d29 96bd 2685 593f
000000f0: 5abd 76be a545 ea3e fdb8 6a3d 8bd3 433c
00000100: 4622 413e cc18 d03c 1cf5 7bbe 56d4 3abe
00000110: 35b1 9f3b 77a2 d8bc daf4 183e dd9f 87bd
00000120: 648d d33e b03f 3b3d 154f a2bc 6e07 323f
00000130: 25a1 e63d b8c5 2e3e 36bb 173e 21d7 43be
00000140: 4dbd ffbd 0292 08be b6b9 493f bdb1 1e3e
00000150: 96af 87bc 0546 fcbd 459f fe3e 5dbb 183d
00000160: dc38 5fba f330 ab3e 04b4 013f 6e77 f0bd
00000170: ad8c a93b 209c 15bd 01c3 81bd 520f ffbd
00000180: fbe1 443c 4e30 083d 8d3f 443c f814 5fbb
00000190: 5068 82bd ae00 06be 333c 143e 62b4 10be
000001a0: 6880 453e ad6d 6cbe 6066 cfbc 9a61 163e
000001b0: 5a22 323c ad9d 173f 1cc6 223e 62fc 583c
000001c0: 2d87 4f3d 17ea 6b3e 4f28 f23c ab1c 7fbd
000001d0: 0a9f 4f3d b27f b9bc ddff 12be a754 88bd
000001e0: 1547 563e b161 903d 75fd a7bd 4bab 943d
000001f0: a751 10bd 7081 cf3a af6a f73d eb74 113d
-0.11770278 0.045038123 0.27485514 0.06551423 0.65394527 -0.09021988 -0.25814915 0.15341243
-0.123763196 0.0037109936 -0.03971752 -0.053663943 0.5159806 -0.2832328 -0.13240789 -0.12822132
-0.072153166 0.0032809863 -0.13849123 0.034195837 0.043903854 0.32654527 -0.049993325 -0.02286573
-0.032021668 -0.09457024 -0.08387852 -0.28165638 -0.026221234 -0.03320827 0.02581352 -0.02803543
-0.09822383 -0.44879386 -0.02005832 -0.13494188 0.5014283 0.2510574 0.24777378 0.088988334
0.08470043 0.20311658 0.06208353 0.60657835 0.81880814 -0.052498784 -0.13576819 0.43825978
-0.09361447 -0.09843767 0.15035634 -0.05787343 0.25977585 -0.03787898 0.109039634 -0.0018463117
0.32918838 0.101893835 -0.073320486 0.84968793 -0.2409567 0.4575626 0.057305325 0.011952291
0.1886073 0.02540245 -0.2460522 -0.18245062 0.0048734196 -0.026444657 0.14937153 -0.066222884
0.4131881 0.045715034 -0.0198131 0.69542587 0.11261205 0.17067611 0.14817509 -0.19125034
-0.12487278 -0.13336948 0.78799 0.1549749 -0.016563218 -0.12318043 0.49730888 0.03728806
-0.00085152476 0.33435783 0.5066531 -0.117415294 0.0051742406 -0.036525846 -0.06336022 -0.12454094
0.012016769 0.033249192 0.011978042 -0.0034039598 -0.06367552 -0.13086197 0.14476089 -0.1413131
0.19287264 -0.23088713 -0.02531737 0.1468567 0.010872448 0.5922497 0.15895885 0.0132437665
0.050666023 0.23038517 0.029560236 -0.0622832 0.05068878 -0.022643898 -0.14355417 -0.06656771
0.20925553 0.07049883 -0.0820264 0.07259234 -0.03523412 0.0015831422 0.12080895 0.035511892

_impl.final_layer.linear.weight f4 [1, 128]
00000000: 58f1 2d3f 4cf1 11bf aff3 9c3e 2430 1dbf
00000010: 0d81 003e 6851 f23e b715 353f 4da5 0fbf
00000020: 975c 233f f1bd 4abf 1694 11bf 5914 5cbf
00000030: 958b 5d3f f34a 95bf 2cbd 94bf 5aca 5fbf
00000040: 87f2 68bf 12f3 023f 3f7f 81bf c86d fb3e
00000050: b555 2bbf b580 d23e 681b 45bf b94d be3e
00000060: 1eb4 4cbf f278 7cbf 736a eb3e 651f 9d3f
00000070: 0dc9 58bf 56f3 66bf 8789 f23e 2f1a cb3e
00000080: 17a2 82bf 411a f5bf 30ea 56bf 2f71 f53e
00000090: 32ab 543e 6c1f a03e c239 bc3e 88e0 ab3e
000000a0: 031d e13e 601d a03e c78f 1dbf 2437 453e
000000b0: 01a8 873e afec 77bf e346 83bf 1c29 b73e
000000c0: 5c44 5bbf b39f 6bbf 93d9 503e 4dda 77bf
000000d0: 7cf4 423e e288 70bf f398 22bf ffaa 52bf
000000e0: 616e 963e 6ea5 503e e67c 243f affa 773e
000000f0: 4459 95bf ad0f 5b3e 42a3 1ebf 0a62 66bf
00000100: 619c b33e df5c 50bf ad84 8bbf a324 053f
00000110: 8f11 633e 3aae 57bf fab1 c33e f4be 61bf
00000120: dc68 2fbf 1518 3fbf 5750 72bf 8453 8d3e
00000130: e29d 53bf 54e1 923e f5d3 b63e 1d01 88bf
00000140: 8b01 2a3f 61e0 1a3f a0b7 a93e 8a3d 1d3e
00000150: 54ae f53e 3837 67bf 55d7 973e 84c0 59bf
00000160: 984d e03e 4149 163e f681 083e 2597 9cbf
00000170: 16ea 1abf 131c f13e 6c6a 58bf c9ed 263f
00000180: c131 fc39 e3b4 42bf 8561 13bf 5f04 62bf
00000190: 0fa5 013f 0b08 013f 3c4c bf3e 4ffe 93bf
000001a0: 9148 963e 1e14 5c3f 3dc4 50bf 0ace c73e
000001b0: 6de1 073f 08bb a53e 4a48 55bf 7a26 6bbf
000001c0: e38a 32bf 827b 103e 8536 ccbe bd33 6fbf
000001d0: 48b2 4abf 6b53 5cbf 4d62 113f 561c 41bf
000001e0: 6256 5f3e 1169 ba3e 31ad 64bf df71 37bf
000001f0: 079f bf3e 3cb7 24bf e711 0d3a eb25 32bf
0.67946386 -0.57008815 0.30654666 -0.6140158 0.12549229 0.47327733 0.7073626 -0.56111604
0.63813156 -0.7919608 -0.56866586 -0.8596855 0.8654111 -1.1663498 -1.1620231 -0.8741814
-0.9099507 0.51152146 -1.0116957 0.49107194 -0.66927654 0.4111382 -0.76994944 0.37168673
-0.79962337 -0.9862205 0.45979652 1.2275206 -0.8468178 -0.9021505 0.4737055 0.39668414
-1.0205716 -1.9148637 -0.8395109 0.47937915 0.20768431 0.31273973 0.36762816 0.3356974
0.43967447 0.3127241 -0.6154751 0.19259316 0.26495364 -0.96845526 -1.0256008 0.3577355
-0.85651183 -0.92040557 0.20395498 -0.96817476 0.19038576 -0.93958867 -0.6351463 -0.8229217
0.29381087 0.20375606 0.6425308 0.24216722 -1.1667867 0.21392699 -0.6196786 -0.89993346
0.35080245 -0.8139171 -1.0899864 0.5200903 0.22174667 -0.84250224 0.38221723 -0.88181996
-0.6851938 -0.7464612 -0.9465384 0.2760278 -0.82662785 0.28687537 0.35708585 -1.062534
0.66408604 0.60498625 0.33147907 0.15355507 0.47984564 -0.9031863 0.29656473 -0.8505938
0.438092 0.14676382 0.13330826 -1.2233626 -0.60513437 0.4709173 -0.84537387 0.6520658
0.00048102255 -0.7605726 -0.5757068 -0.8828792 0.50642484 0.504029 0.3736285 -1.1561984
0.2935224 0.85968196 -0.81549436 0.39024383 0.5307835 0.32369256 -0.8331343 -0.91855586
-0.69743174 0.14109614 -0.39885345 -0.9343832 -0.79178286 -0.86064786 0.5679062 -0.7543386
0.21810296 0.36408284 -0.8932677 -0.7165813 0.37426016 -0.64342093 0.0005381391 -0.6958911
