heat_eq_2d/outputs/silu_interior_2000_arch_128x3/heat_network.0.pth (torch, 140446 bytes, 10 tensors)

_impl.layers.0.linear.weight f4 [128, 2]
-0.3965946 0.01459193 0.003943755 0.8712595 0.0011009191 -1.0468315 0.0005980894 -0.6603886
0.015656587 -0.5770633 -0.52838755 -0.00791043 0.0016161324 0.6327461 -0.8409433 0.006600261
-0.58110374 0.008736021 -0.42320383 0.012484314 1.1606162 0.0073116487 0.020910146 0.42127767
0.020568922 -0.4309548 0.0072352174 0.6701817 -1.5916674 0.0049567884 -0.3941451 -0.026125722
-1.0256493 0.009719411 0.024389803 0.4052659 0.06110174 0.32914054 -0.75908536 0.008584472
-0.37271115 0.010183885 -0.72087675 -0.0038038571 0.020184163 0.5449535 0.022711575 -0.56800324
0.023715027 0.41447097 0.06289104 -0.13852546 -0.38760316 0.013585776 -1.3145827 0.011393696
-0.7494466 -0.003873291 0.3956991 0.009869158 0.044682615 0.29882658 1.5412319 -0.0023025498
0.016859295 0.5172201 -0.4205323 0.014183168 0.018452058 -0.50224304 0.37208518 -0.011120191
-0.35780826 0.019682975 1.092947 0.017180936 -0.58224064 0.0077676987 0.005122177 1.3788677
-0.3630264 0.01762965 0.017227134 0.41113302 0.032987252 -0.40060213 0.032421343 -0.5120011
-3.1729875 0.00029646137 1.3755251 -0.00015906263 -1.6752422 0.0049924413 0.023903478 0.4125806
-1.6150393 0.004853273 0.02579454 0.38749206 0.0054853726 0.8956801 0.01399415 -0.56681705
0.87951684 -0.0003714667 -0.2864956 0.014074134 1.6107817 -0.0015990052 -0.13312705 -0.07938216
-0.7957897 -0.003745849 -0.4126262 0.01896769 0.906655 0.007955633 -2.4807913 0.002719882
-0.3808761 -0.017723707 0.02962687 -0.41579962 -1.4659433 0.006729612 0.010876188 0.7561219
0.008761957 0.8812605 0.27061948 0.017579706 -0.31490663 0.02327874 -0.010484301 0.42939883
0.005551455 0.6219268 1.1253972 0.014611877 -0.32186845 -0.045597624 -0.8062586 0.0070673227
0.014848264 -0.5523353 2.036947 0.0009985109 0.005638709 0.6757184 0.023060052 0.5622049
0.033036653 -0.3223399 -0.23220825 -0.05234116 -1.0900819 0.01061484 0.43541402 0.014780038
-2.8912835 0.0015340247 0.02538946 0.542844 0.4914104 0.011823241 -1.1601796 0.005292893
0.0873659 -0.22649911 -0.33796677 0.012804405 -0.44861543 -0.0074837804 -0.4969413 0.012789652
0.012821142 -0.53132164 -0.92304873 -0.0025536804 0.41413993 0.009421723 0.018161785 -0.5860519
0.239378 0.017460022 -1.264153 0.006797024 0.009630916 0.5115968 0.015860645 -0.5157041
-0.2787977 0.030220963 -0.41381016 0.011882926 0.06191465 0.22693403 0.08987115 0.29414335
-3.5803027 0.0005780819 0.043397766 0.37793782 -2.146012 0.0035226818 0.028147113 -0.35608268
0.5343268 0.009686794 -0.405167 0.036036264 0.024168553 -0.37791598 0.053391986 0.26867518
-0.012602423 0.37421113 -0.047196735 -0.31321186 -0.72681034 0.008178696 -0.27031758 0.035077464
-1.1882586 0.0081578735 0.050153926 0.35282633 0.0070106094 0.7736166 0.058040656 0.32908472
0.01594104 0.50435495 0.0798875 -0.27728477 0.010395467 -0.5614153 0.067762196 -0.3812037
-1.6749388 0.0003314989 0.01746297 -0.4748104 -0.004894256 -0.3190247 -2.9247224 -9.1252004e-05
0.038190454 0.32192916 0.024846861 -0.52267754 -1.5553412 0.004834393 -0.17956497 0.13194901
00000000: 730e cbbe fe12 6f3c 9d3a 813b dd0a 5f3f
00000010: b74c 903a 93fe 85bf 1ac9 1c3a 3a0f 29bf
00000020: 3e42 803c 6cba 13bf 6844 07bf c09a 01bc
00000030: 68d4 d33a a6fb 213f 0f48 57bf 0147 d83b
00000040: 37c3 14bf 8721 0f3c 2cae d8be 028b 4c3c
00000050: 128f 943f 8e96 ef3b c14b ab3c b5b1 d73e
00000060: 2880 a83c 1ca6 dcbe 6715 ed3b 0791 2b3f
00000070: c2bb cbbf 8e6c a23b 63cd c9be 9c05 d6bc
00000080: 7a48 83bf 2a3e 1f3c 20cd c73c 037f cf3e
00000090: d145 7a3d 1c85 a83e 6b53 42bf e3a5 0c3c
000000a0: ffd3 bebe 4fda 263c 618b 38bf 224a 79bb
000000b0: 4259 a53c 1382 0b3f a00d ba3c a968 11bf
000000c0: 0446 c23c 8a35 d43e 05cd 803d 9ed9 0dbe
000000d0: ec73 c6be e096 5e3c 3f44 a8bf a0ac 3a3c
000000e0: bbdb 3fbf 0ad7 7dbb 1399 ca3e 40b2 213c
000000f0: 1e05 373d ccff 983e 1647 c53f 60e6 16bb
00000100: 811c 8a3c 8968 043f 0250 d7be 8560 683c
00000110: c528 973c 0093 00bf f381 be3e 7631 36bc
00000120: a532 b7be 313e a13c b0e5 8b3f 09bf 8c3c
00000130: b90d 15bf 2e88 fe3b efd7 a73b bd7e b03f
00000140: 99de b9be 0e6c 903c eb1f 8d3c 0780 d23e
00000150: a41d 073d b91b cdbe 3ecc 043d 8112 03bf
00000160: 3a12 4bc0 5f6e 9b39 3511 b03f 0dca 26b9
00000170: 566e d6bf a297 a33b 3ad1 c33c c43d d33e
00000180: 9cb9 cebf 3408 9f3b 124f d33c 5c65 c63e
00000190: a4be b33b 4b4b 653f b847 653c ec1a 11bf
000001a0: 0428 613f 6bc1 c2b9 8daf 92be 3297 663c
000001b0: 182e ce3f b695 d1ba 7552 08be 1d93 a2bd
000001c0: e0b8 4bbf eb7c 75bb be43 d3be 2162 9b3c
000001d0: 8b1a 683f 5858 023c 49c5 1ec0 0c40 323b
000001e0: 3102 c3be 4f31 91bc 0db4 f23c b0e3 d4be
000001f0: 08a4 bbbf 1484 dc3b 0a32 323c 3491 413f
00000200: 508e 0f3c 4a9a 613f a38e 8a3e 5103 903c
00000210: 713b a1be 0eb3 be3c 58c6 2bbc 2ada db3e
00000220: fbe8 b53b 9836 1f3f 040d 903f a766 6f3c
00000230: f1cb a4be 93c4 3abd f766 4ebf 0095 e73b
00000240: 2246 733c d965 0dbf 575d 0240 77e0 823a
00000250: ebc4 b83b e2fb 2c3f 6fe8 bc3c a9ec 0f3f
00000260: 7151 073d bc09 a5be 00c8 6dbe af63 56bd
00000270: ce87 8bbf dee9 2d3c 96ee de3e f927 723c
00000280: ca0a 39c0 5411 c93a 8ffd cf3c d3f7 0a3f
00000290: 259a fb3e 44b6 413c c480 94bf 0170 ad3b
000002a0: e5ec b23d 62ef 67be fb09 adbe 91c9 513c
000002b0: ecb0 e5be 803a f5bb 176f febe b08b 513c
000002c0: c40f 523c b204 08bf ec4c 6cbf a65b 27bb
000002d0: 260a d43e 925d 1a3c 06c8 943c 7f07 16bf
000002e0: 821f 753e 5208 8f3c c4cf a1bf 92b9 de3b
000002f0: fdca 1d3c 02f8 023f 2fee 813c 2f05 04bf
00000300: 92be 8ebe f491 f73c edde d3be 9bb0 423c
00000310: 379a 7d3d 6561 683e 5e0e b83d f599 963e
00000320: ae23 65c0 6b8a 173a dbc1 313d 1181 c13e
00000330: 4358 09c0 cbdc 663b c694 e63c 7850 b6be
00000340: a4c9 083f 5cb5 1e3c 0d72 cfbe c39a 133d
00000350: 21fd c53c 347e c1be 8eb1 5a3d cb8f 893e
00000360: 657a 4ebc 9a98 bf3e 5d51 41bd 4e5d a0be
00000370: 3e10 3abf f0ff 053c 1167 8abe 63ad 0f3d
00000380: dc18 98bf 9aa8 053c 346e 4d3d a7a5 b43e
00000390: 41b9 e53b bd0b 463f 0abc 6d3d cb7d a83e
000003a0: c996 823c 681d 013f 0f9c a33d 45f8 8dbe
000003b0: c051 2a3c eab8 0fbf e8c6 8a3d 222d c3be
000003c0: 6564 d6bf 07cd ad39 810e 8f3c 591a f3be
000003d0: ff5f a0bb 3557 a3be a72e 3bc0 8c5e bfb8
000003e0: 986d 1c3d e6d3 a43e a58b cb3c 32ce 05bf
000003f0: 6c15 c7bf d469 9e3b e1df 37be a41d 073e

_impl.layers.0.linear.weight_g f4 [128, 1]
1.3681695 1.226847 2.0933309 1.3214071 2.4846864 2.212478 1.8914853 1.4836541
2.2482376 1.3657181 2.0551913 1.5301803 1.342492 1.268097 1.6402026 1.478424
1.4534831 1.6698915 1.4805998 2.0995748 1.3421026 1.601599 1.3474568 1.5191737
1.4936756 1.2581713 1.3783967 1.5939407 1.5618337 2.1364536 1.3675932 1.289519
1.4802601 1.8167014 1.3794813 1.4306166 1.405383 1.9250467 1.7959112 1.5218964
1.4416409 1.5655704 1.876541 1.4817998 1.6645476 1.3040969 1.5143241 1.3971413
1.4930344 1.4231777 1.2555405 1.3132553 1.3611032 1.421278 1.3230807 1.9336464
1.7214112 1.3667328 2.1018856 1.5856464 1.5628326 2.3246746 1.6036007 1.3705289
1.4018872 1.7524818 2.3591516 1.3984778 1.6540706 1.7443867 1.4354247 1.6754336
1.7557151 2.1061049 1.9275568 1.34205 1.284817 2.0923574 1.3617421 2.0162358
1.9301525 1.4472643 2.0227666 1.5059249 1.1120178 2.2555587 1.7572311 1.4734427
1.2772955 1.6225897 1.9254047 1.3047825 1.7059691 1.3878787 1.459165 1.3702383
1.4492564 2.197529 1.1987553 1.8086188 1.525267 1.6063701 1.4544535 1.4214195
1.9998684 1.476436 2.4602568 1.2479013 1.223963 1.3605901 2.0297282 1.2446296
1.6031686 1.7378154 1.4005792 1.4272109 1.4369383 1.594246 2.2545376 1.1384261
1.4266009 1.344011 1.2658849 1.4619923 1.217155 1.3291229 1.5602118 1.1327791
00000000: 2e20 af3f 5309 9d3f 22f9 0540 de23 a93f
00000010: 1a05 1f40 3d99 0d40 311c f23f 61e8 bd3f
00000020: 20e3 0f40 dacf ae3f 4188 0340 f3dc c33f
00000030: c7d6 ab3f 0151 a23f 29f2 d13f ff3c bd3f
00000040: bc0b ba3f 01bf d53f 4b84 bd3f 6f5f 0640
00000050: 05ca ab3f 3201 cd3f 7779 ac3f 4974 c23f
00000060: c330 bf3f c20b a13f 4e6f b03f 4006 cc3f
00000070: 2bea c73f a8bb 0840 4b0d af3f f50e a53f
00000080: 2a79 bd3f ac89 e83f d892 b03f 721e b73f
00000090: 97e3 b33f ee67 f63f 6be0 e53f 80cd c23f
000000a0: b087 b83f 9c64 c83f 7f32 f03f 9eab bd3f
000000b0: e50f d53f a6ec a63f 5fd5 c13f 87d5 b23f
000000c0: c01b bf3f b02a b63f 8db5 a03f c018 a83f
000000d0: a138 ae3f 70ec b53f b55a a93f ba81 f73f
000000e0: 3457 dc3f 1af1 ae3f 4b85 0640 76f6 ca3f
000000f0: e60a c83f 78c7 1440 ca42 cd3f 7e6d af3f
00000100: 0a71 b33f 5351 e03f 57fc 1640 5201 b33f
00000110: 96b8 d33f 1048 df3f ffbb b73f 9c74 d63f
00000120: 46bb e03f 6cca 0640 2eba f63f 4bc8 ab3f
00000130: e274 a43f 2fe9 0540 914d ae3f 020a 0140
00000140: 3d0f f73f f53f b93f 0275 0140 26c2 c03f
00000150: 9956 8e3f 135b 1040 f3ec e03f c599 bc3f
00000160: 6b7e a33f 05b1 cf3f a973 f63f 1d03 a73f
00000170: 325d da3f 02a6 b13f ebc5 ba3f f863 af3f
00000180: 3c81 b93f 51a4 0c40 d070 993f d280 e73f
00000190: f33b c33f 899d cd3f 882b ba3f 13f1 b53f
000001a0: b0fb ff3f dbfb bc3f d974 1d40 3bbb 9f3f
000001b0: d2aa 9c3f d127 ae3f 11e7 0140 0650 9f3f
000001c0: a134 cd3f bc70 de3f 2e46 b33f d9ae b63f
000001d0: 98ed b73f 4110 cc3f 584a 1040 f2b7 913f
000001e0: dc9a b63f 8d08 ac3f 8408 a23f 9022 bb3f
000001f0: bccb 9b3f b320 aa3f 05b5 c73f e8fe 903f

_impl.layers.0.linear.bias f4 [128]
-0.27523375 -0.31591552 -0.42300072 -0.3740998 -0.30963102 -0.7869179 -0.4706508 -0.6049201
-0.80864084 -0.42167208 -0.34375817 -0.31472588 -0.27312642 -0.25007352 -0.6512481 -0.46668836
-0.41142622 -0.2829962 0.58992285 -0.7738293 -0.42116404 -0.6380872 -0.24279463 -0.2616778
-0.27686024 0.42456287 -0.1791326 -0.55659354 -0.6151852 -0.43149558 0.20857067 0.3963246
-0.28284767 -0.49816182 -0.36557454 0.2927257 -0.40658164 -0.20252234 -0.7273319 -0.37884173
-0.49376604 -0.30390158 0.14723183 -0.28769007 -0.68308675 0.4300925 -0.59633374 -0.34793383
-0.5711173 -0.3015136 -0.34226733 -0.2532304 0.2783758 -0.44405746 0.38449943 -0.441143
-0.693169 -0.3752119 -0.43145356 -0.6428802 -0.2613765 -0.20688355 -0.50949824 -0.37072372
-0.4121203 -0.6485403 -0.7819287 -0.5100147 -0.44335422 -0.13334826 -0.28781074 -0.6198694
-0.28486165 -0.37224144 -0.38624626 -0.18224257 0.19535844 -0.3532575 -0.4151568 -0.29104063
-0.72869414 -0.237626 -0.33102632 -0.61045796 0.64155674 -0.7178543 -0.6630824 -0.3719625
-0.31469053 -0.64546615 -0.5315422 -0.29769596 -0.56978637 -0.33208656 -0.37579593 -0.38411292
-0.2835749 -0.7549382 0.38355193 -0.107944444 -0.59525436 0.47559622 -0.5089835 -0.19672279
-0.3351792 -0.44839674 -0.2491093 0.27967042 -0.4053929 -0.24506444 -0.7574723 -0.29211724
-0.32614616 0.37844145 -0.3659779 0.46128064 -0.33419788 -0.06938274 -0.3667455 0.44321826
-0.49003878 -0.2679109 -0.2363644 -0.5156752 0.34570274 -0.26221517 -0.6373166 -0.19338381
00000000: 70eb 8cbe aebf a1be 8d93 d8be 028a bfbe
00000010: f587 9ebe 7473 49bf 24f9 f0be 0bdc 1abf
00000020: 1603 4fbf 67e5 d7be 1201 b0be c023 a1be
00000030: 3ad7 8bbe a309 80be 32b8 26bf c7f1 eebe
00000040: 75a6 d2be e1e4 90be 2f05 173f ad19 46bf
00000050: d0a2 d7be af59 23bf 289f 78be a2fa 85be
00000060: a0c0 8dbe 4e60 d93e 896e 37be ea7c 0ebf
00000070: c77c 1dbf fdec dcbe 8d93 553e 0feb ca3e
00000080: 69d1 90be 110f ffbe 962c bbbe 25e0 953e
00000090: 782b d0be 0462 4fbe 6c32 3abf 8bf7 c1be
000000a0: e7ce fcbe fd98 9bbe f1c3 163e 1d4c 93be
000000b0: c6de 2ebf 1635 dc3e 54a9 18bf 6224 b2be
000000c0: be34 12bf fe5f 9abe aa3d afbe 6aa7 81be
000000d0: 4687 8e3e 805b e3be 1cdd c43e 7fdd e1be
000000e0: 8673 31bf c61b c0be 7be7 dcbe cc93 24bf
000000f0: 24d3 85be 48d9 53be 7a6e 02bf 80cf bdbe
00000100: 6f01 d3be bd06 26bf 7b2c 48bf 5390 02bf
00000110: 53ff e2be 728c 08be ee5b 93be c3af 1ebf
00000120: 63d9 91be 6e96 bebe 12c2 c5be cc9d 3abe
00000130: 0b0c 483e 2bde b4be 6f8f d4be 4703 95be
00000140: b38b 3abf 3b54 73be 487c a9be f946 1cbf
00000150: 103d 243f 4dc5 37bf c5bf 29bf de71 bebe
00000160: 1e1f a1be 453d 25bf 2613 08bf 9b6b 98be
00000170: 85dd 11bf 4007 aabe 5368 c0be 73aa c4be
00000180: bb30 91be a143 41bf eb60 c43e fa11 ddbd
00000190: 9762 18bf 5981 f33e be4c 02bf b371 49be
000001a0: 9c9c abbe 4294 e5be 8216 7fbe f630 8f3e
000001b0: a88f cfbe 2cf2 7abe b4e9 41bf 6490 95be
000001c0: a1fc a6be 14c3 c13e 7561 bbbe fa2c ec3e
000001d0: fc1b abbe 8a18 8ebd 11c6 bbbe 81ed e23e
000001e0: 5de6 fabe 9e2b 89be 8209 72be 4a03 04bf
000001f0: f3ff b03e 1141 86be 2e27 23bf 6806 46be

_impl.layers.1.linear.weight f4 [128, 128]
0.12688069 0.036649596 -0.04600513 -0.07898118 -0.12744616 0.1442798 -0.08014005 0.17483649
0.26186413 0.08328633 0.15339497 -0.0036494334 -0.1402519 -0.06639028 0.08623121 -0.006589786
0.0428908 -0.10451273 -0.13008837 0.26608667 0.14077242 0.18833159 -0.05737993 -0.09114512
-0.079968795 -0.06617072 0.07098938 0.14978868 0.14291881 0.09146082 -0.06290828 0.023051357
-0.026014026 0.11000637 -0.09725432 0.103740886 0.17046137 0.12597051 0.20692855 -0.025235226
0.15789053 -0.112090915 -0.1192611 -0.026314262 0.18566465 -0.009177264 0.19765353 -0.020130737
0.13507311 -0.08029994 0.05006051 -0.05934414 0.04254451 0.09910921 0.09514324 0.0027757792
0.09297699 0.11823601 0.1599012 0.20467529 0.10290743 -0.06906703 0.10626245 -0.10682601
-0.03689436 0.04134737 0.21227406 -0.0058939303 -0.10316719 0.12933579 0.07798957 0.14882511
-0.103043914 0.16550645 -0.05542037 -0.082935415 -0.10209447 -0.0035006218 0.1445279 0.13334657
0.1561921 -0.012916363 0.122689106 0.09031545 -0.06317802 0.060365938 0.09820379 0.040163588
-0.048078265 0.1661937 0.070807 -0.15375526 0.050153058 0.12589434 -0.119466975 -0.056993842
0.095937416 0.19930638 -0.027343858 -0.096835665 0.0734262 -0.1494215 0.17287959 -0.07666435
0.15723774 0.123250134 -0.0063609793 -0.090816855 0.004866125 -0.07451003 0.27364123 0.09013953
0.12563781 -0.1398086 0.042424724 -0.048411634 -0.13140287 -0.02379337 -0.09597925 -0.080540076
0.12537377 0.006090317 -0.03160252 0.17288135 -0.1493222 -0.07217585 0.13132311 0.071763225
-0.0035853907 0.2697667 0.14388193 0.05798558 0.14982004 0.03751933 0.339154 0.051674362
0.09457096 0.024072321 0.09784803 0.28371054 0.059173606 0.25825813 0.05923067 -0.029548507
0.011367672 0.27835867 0.062003385 0.10176425 0.023676896 0.046828147 0.24825463 0.06998234
0.272964 -0.103893615 -0.020484354 0.038763873 0.03313522 0.1056435 0.121411555 -0.035571218
0.27493292 0.056917872 0.08535688 -0.0047568427 0.03008182 0.07182002 0.1000094 0.3257004
0.0489521 0.29059294 -0.031550683 0.07618994 0.059915144 -0.0412565 0.045559973 0.2852291
0.03748917 0.27317545 0.27885938 0.049615633 -0.006933917 0.051223062 -0.03315139 -0.18290141
0.06150326 0.030549807 0.11522505 0.07255125 -0.07912707 0.13372932 0.025521161 0.30512512
0.31512204 0.10974559 0.23021539 0.30864295 0.36539644 0.05994147 -0.09506108 0.05103209
0.08685239 0.11053565 0.36088505 0.24191225 -0.08726533 -0.21331322 0.0116489045 0.0801927
0.10979892 0.26088524 0.09201824 0.048432954 -0.21222459 0.12710747 0.02093626 0.012039622
0.059409216 0.049546186 0.1165175 0.0619649 0.09776879 -0.006151332 0.31783673 0.08560359
0.054062743 0.14027931 0.06099717 0.1162978 0.039942544 0.11191313 0.026373357 0.0558694
0.094219275 0.064355865 0.14953488 0.09965417 0.27234316 -0.024562443 0.12287673 0.04617067
-0.017699853 0.10345767 0.30779105 0.045551658 0.2974624 0.08292171 0.14607659 -0.18675254
0.0170962 0.057524364 0.0074890093 0.022100696 0.09715652 0.054086696 0.06681442 0.12533863
00000000: 03ed 013e e31d 163d e06f 3cbd e3c0 a1bd
00000010: 3f81 02be 15be 133e 7720 a4bd 5608 333e
00000020: 0e13 863e 0692 aa3d 9213 1d3e 552b 6fbb
00000030: 329e 0fbe a1f7 87bd fd99 b03d 22ef d7bb
00000040: 43ae 2f3d c50a d6bd e335 05be 833c 883e
00000050: a526 103e ffd9 403e 3807 6bbd 4baa babd
00000060: aec6 a3bd 8484 87bd e162 913d 3462 193e
00000070: 4f59 123e cf4f bb3d 0ed6 80bd 33d6 bc3c
00000080: 5e1b d5bc 054b e13d 462d c7bd 1a76 d43d
00000090: 6d8d 2e3e 6afe 003e 14e5 533e 1bba cebc
000000a0: 0eae 213e ec8f e5bd 2a3f f4bd 0291 d7bc
000000b0: e01e 3e3e 3c5c 16bc b065 4a3e 37e9 a4bc
000000c0: 9b50 0a3e 4c74 a4bd 400c 4d3d d712 73bd
000000d0: 2743 2e3d c5f9 ca3d 76da c23d d9e9 353b
000000e0: b86a be3d b925 f23d 24bd 233e 6696 513e
000000f0: 21c1 d23d 0473 8dbd 21a0 d93d 98c7 dabd
00000100: 8a1e 17bd dc5b 293d 5f5e 593e df21 c1bb
00000110: 5249 d3bd 9a70 043e ffb8 9f3d 9c65 183e
00000120: b008 d3bd 867a 293e 7800 63bd 0bda a9bd
00000130: e816 d1bd b06a 65bb 1fff 133e 018c 083e
00000140: d2f0 1f3e 279f 53bc 6d44 fb3d 4ff7 b83d
00000150: 7a63 81bd 4642 773d 121f c93d 9382 243d
00000160: b7ed 44bd ae2e 2a3e 4303 913d 0572 1dbe
00000170: 4b6d 4d3d 72ea 003e 1aab f4bd 6072 69bd
00000180: d67a c43d f916 4c3e 3a00 e0bc c751 c6bd
00000190: 7a60 963d f301 19be 5907 313e 3302 9dbd
000001a0: ee02 213e 916a fc3d c36f d0bb 30fe b9bd
000001b0: 0474 9f3b b798 98bd b41a 8c3e 139b b83d
000001c0: 33a7 003e fc29 0fbe 8cc5 2d3d 474b 46bd
000001d0: 798e 06be 50ea c2bc c590 c4bd 32f2 a4bd
000001e0: fb61 003e 4891 c73b a571 01bd cf07 313e
000001f0: ebe7 18be efd0 93bd 9179 063e 99f8 923d
00000200: e0f8 6abb dc1e 8a3e c955 133e 4a82 6d3d
00000210: 6d6a 193e dead 193d 98a5 ad3e 7fa8 533d
00000220: 6bae c13d 5133 c53c 8c64 c83d 8242 913e
00000230: 0660 723d 693a 843e dc9b 723d b60f f2bc
00000240: 793f 3a3c 0785 8e3e 43f7 7d3d c669 d03d
00000250: 0df6 c13c dfce 3f3d 7636 7e3e e752 8f3d
00000260: f0c1 8b3e 2dc6 d4bd cece a7bc dec6 1e3d
00000270: ccb8 073d 9f5b d83d 9fa6 f83d 20b3 11bd
00000280: 02c4 8c3e b722 693d 97cf ae3d 4adf 9bbb
00000290: 266e f63c 6016 933d bad1 cc3d 34c2 a63e
000002a0: ff81 483d 99c8 943e 4a3b 01bd 7909 9c3d
000002b0: 9569 753d 93fc 28bd 189d 3a3d 8c09 923e
000002c0: 3e8e 193d a7dd 8b3e a8c6 8e3e c339 4b3d
000002d0: e935 e3bb 46cf 513d c0c9 07bd 824a 3bbe
000002e0: d8ea 7b3d 9743 fa3c 1cfb eb3d c095 943d
000002f0: 600d a2bd 57f0 083e c111 d13c 5c39 9c3e
00000300: ad57 a13e 4cc2 e03d 95bd 6b3e 7306 9e3e
00000310: 3e15 bb3e 3085 753d 62af c2bd 0607 513d
00000320: aadf b13d 8460 e23d edc5 b83e d8b7 773e
00000330: 2ab8 b2bd c86e 5abe 0cdb 3e3c 123c a43d
00000340: 42de e03d c092 853e 0f74 bc3d a261 463d
00000350: 6751 59be 7628 023e 8582 ab3c d641 453c
00000360: 1457 733d f1f0 4a3d baa0 ee3d e8ce 7d3d
00000370: 013b c83d 1d91 c9bb 7fbb a23e ef50 af3d
00000380: e570 5d3d 61a5 0f3e 2bd8 793d 8a2d ee3d
00000390: cb9a 233d b632 e53d f00c d83c 50d7 643d
000003a0: 09f6 c03d 02cd 833d ac1f 193e 7c17 cc3d
000003b0: 9070 8b3e 2d37 c9bc cca6 fb3d 751d 3d3d
000003c0: 48ff 90bc 9de1 d33d ca96 9d3e 6094 3a3d
000003d0: fe4c 983e dcd2 a93d 1a95 153e 0f3c 3fbe
000003e0: 540d 8c3c ab9e 6b3d 5d66 f53b 850c b53c
000003f0: fff9 c63d 038a 5d3d 00d6 883d c558 003e

_impl.layers.1.linear.weight_g f4 [128, 1]
1.340273 1.9079603 1.4999046 1.611392 1.3619605 1.066262 1.3253856 2.4214432
1.5491802 1.059664 2.1803472 1.7882771 1.3803546 1.3598396 1.4856644 1.5426983
1.6728985 1.4828197 1.697524 1.4633379 1.1578456 1.1509141 1.4844285 1.2709476
1.2907151 1.5091734 1.3709078 1.098207 1.1119432 1.7289894 1.727417 1.2228658
1.6306323 2.577387 2.631697 1.6440263 1.4148896 1.3474596 1.1988719 1.3793424
1.4935919 1.1247058 0.9661165 1.7279954 1.1041836 1.2623754 1.5930966 1.3446194
1.4685386 1.2169349 1.590456 2.3400726 1.0272828 1.1608478 1.2428792 1.8268138
1.3204029 1.2658658 1.1188542 1.49182 1.3717854 2.4295237 0.99159104 1.5075047
1.2736903 1.3765142 1.7118012 1.2027608 1.9984176 1.723306 1.2746004 1.3068386
1.3658923 1.1026775 1.5686274 2.0347605 1.2477356 1.161744 1.1646078 1.2972836
1.3052557 1.4665192 1.1580753 1.3193309 1.2361748 1.0914125 1.6384449 1.2545052
1.4956633 1.624677 1.1755993 1.3310229 1.570819 2.174994 1.1683095 1.6065131
1.2976303 1.094156 1.0572834 1.3879346 1.3162934 1.1090903 1.3351976 1.3955504
2.353499 1.3094498 1.3074148 1.6535572 1.2644469 1.0648335 1.3448762 1.2774215
1.2151741 1.4173591 1.4704195 2.2120154 1.1442608 1.3229895 1.0690402 1.5918183
1.3409905 1.3770555 1.5143424 1.2743329 3.3059242 1.1576355 1.5743264 1.9673458
00000000: 118e ab3f 0b38 f43f e0fc bf3f 1842 ce3f
00000010: b954 ae3f 467b 883f 3ca6 a93f edf8 1a40
00000020: 894b c63f 12a3 873f cf8a 0b40 44e6 e43f
00000030: 76af b03f 390f ae3f 402a be3f 2377 c53f
00000040: 8a21 d63f 09cd bd3f 7748 d93f a84e bb3f
00000050: 4934 943f 2751 933f c101 be3f 69ae a23f
00000060: 2736 a53f 982c c13f e879 af3f 0c92 8c3f
00000070: 2854 8e3f 864f dd3f 001c dd3f de86 9c3f
00000080: 8fb8 d03f e9f3 2440 b96d 2840 746f d23f
00000090: 1a1b b53f 8e79 ac3f a274 993f 4b8e b03f
000000a0: 052e bf3f 5cf6 8f3f 6953 773f f42e dd3f
000000b0: e355 8d3f 8495 a13f 97ea cb3f 7d1c ac3f
000000c0: 13f9 bb3f 86c4 9b3f 1094 cb3f c0c3 1540
000000d0: 017e 833f a996 943f aa16 9f3f 09d5 e93f
000000e0: f602 a93f e407 a23f 9d36 8f3f f5f3 be3f
000000f0: aa96 af3f 517d 1b40 e9d8 7d3f eaf5 c03f
00000100: 4908 a33f 9e31 b03f 4d1c db3f 11f4 993f
00000110: 26cc ff3f 4a95 dc3f 1b26 a33f 7d46 a73f
00000120: 8fd5 ae3f 8924 8d3f c8c8 c83f 8439 0240
00000130: cdb5 9f3f 07b4 943f de11 953f 640d a63f
00000140: 9e12 a73f e7b6 bb3f d03b 943f d6df a83f
00000150: fa3a 9e3f 68b3 8b3f 90b8 d13f a093 a03f
00000160: e571 bf3f 6af5 cf3f 0a7a 963f f55e aa3f
00000170: 9910 c93f 1a33 0b40 2a8b 953f 39a2 cd3f
00000180: c018 a63f 4e0d 8c3f 1055 873f d7a7 b13f
00000190: 4d7c a83f acf6 8d3f c1e7 aa3f 65a1 b23f
000001a0: ba9f 1640 0d9c a73f 5e59 a73f c3a7 d33f
000001b0: 65d9 a13f 774c 883f e724 ac3f 8c82 a33f
000001c0: d38a 9b3f 066c b53f b536 bc3f a991 0d40
000001d0: 2377 923f b857 a93f 4fd6 883f b4c0 cb3f
000001e0: 94a5 ab3f 5b43 b03f f9d5 c13f 571d a33f
000001f0: 4394 5340 662d 943f 8783 c93f fdd1 fb3f

_impl.layers.1.linear.bias f4 [128]
-0.05970362 -0.9758753 0.012242934 0.06663059 -0.05916042 -0.20086227 -0.094129905 0.7267995
0.08689504 -0.16915214 0.11182095 0.15272756 0.111687966 -0.28037173 -0.3638898 -0.119687386
0.8117333 0.13933027 0.50892437 0.11525662 -0.16065954 0.093636625 0.18615557 -0.09469972
0.2355628 0.11927791 0.35617724 0.14997178 -0.09398843 -0.035329625 -0.61177266 -0.46149713
0.028629256 0.2288609 0.22882551 0.0032507216 -0.2096535 -0.0352942 -0.25883928 -0.46832725
-0.082736656 -0.115365244 0.120154195 -0.9799615 -0.26941398 -0.0795404 0.041154854 -0.11410456
-0.00038756555 0.054856613 0.2544827 0.11174229 0.17490405 0.18949509 0.0073526474 -0.8580915
-0.3209541 -0.2919375 -0.32449105 -0.11851656 -0.0126599865 -1.4335986 -0.15851425 0.3303427
-0.5080043 -0.26571503 -0.04759296 -0.1613858 -0.62412214 -0.098329455 -0.13518733 0.13651986
-0.21618174 -0.24446924 0.0314143 -0.40300393 -0.07764718 0.15415567 -0.11457347 -0.2612637
-0.2855931 -0.25668797 -0.38052094 -0.38377035 -0.1021493 0.09170446 -0.3933668 0.065840445
0.24756087 0.1458184 -0.0577898 -0.30225015 0.078198105 -0.6111308 -0.09375815 0.06545076
-0.39361838 0.0059107244 -0.20975143 -0.69484067 7.109056e-05 -0.30470866 -0.1490186 -0.2839896
-0.5257089 -0.30058753 -0.5423812 -0.43533093 -0.40178344 -0.20456353 -0.14849226 -0.20687523
-0.26249972 0.55240595 -0.16947652 -0.6063096 -0.09753624 -0.17398673 -0.14662059 -0.4272283
-0.5613262 -0.31953734 0.29513747 -0.066744074 0.5718233 -0.23879634 0.3272383 -1.040656
00000000: c88b 74bd f7d2 79bf 9696 483c 9e75 883d
00000010: 3252 72bd d7ae 4dbe 2ec7 c0bd 880f 3a3f
00000020: 07f6 b13d 3836 2dbe 6202 e53d 9d64 1c3e
00000030: a9bc e43d e28c 8fbe c44f babe a91e f5bd
00000040: c1cd 4f3f 98ac 0e3e de48 023f aa0b ec3d
00000050: ef83 24be 8fc4 bf3d 919f 3e3e edf1 c1bd
00000060: 6037 713e fa47 f43d dd5c b63e 3492 193e
00000070: 027d c0bd ccb5 10bd 229d 1cbf 5a49 ecbe
00000080: e787 ea3c 835a 6a3e 3c51 6a3e 0f0a 553b
00000090: 68af 56be a790 10bd 9586 84be 97c8 efbe
000000a0: d671 a9bd 9d44 ecbd 6713 f63d c2de 7abf
000000b0: a1f0 89be 14e6 a2bd fe91 283d a7af e9bd
000000c0: 2b32 cbb9 54b1 603d 8e4b 823e 24d9 e43d
000000d0: 0c1a 333e 000b 423e 7aee f03b e2ab 5bbf
000000e0: 1954 a4be d578 95be b123 a6be cfb8 f2bd
000000f0: d56b 4fbc 2980 b7bf 8f51 22be ae22 a93e
00000100: 920c 02bf cd0b 88be d6f0 42bd 5242 25be
00000110: 78c6 1fbf f460 c9bd 8c6e 0abe ddcb 0b3e
00000120: bf5e 5dbe 2556 7abe 48ac 003d 8856 cebe
00000130: 7c05 9fbd fcda 1d3e 7fa5 eabd 5bc4 85be
00000140: 4239 92be 9b6c 83be a4d3 c2be 8c7d c4be
00000150: a733 d1bd 8ccf bb3d 6067 c9be 5bd7 863d
00000160: 9980 7d3e 6b51 153e ffb4 6cbd 88c0 9abe
00000170: 5426 a03d 1173 1cbf 4604 c0bd 0c0b 863d
00000180: 5988 c9be c0ae c13b 14c9 56be 14e1 31bf
00000190: 7416 9538 c602 9cbe 5598 18be 1667 91be
000001a0: dc94 06bf 9ce6 99be 7fd9 0abf b2e3 debe
000001b0: 8fb6 cdbe 1a79 51be 5b0e 18be 1ad7 53be
000001c0: 5d66 86be 7a6a 0d3f 418b 2dbe 1b37 1bbf
000001d0: 15c1 c7bd 9429 32be b523 16be abbd dabe
000001e0: 13b3 0fbf 669a a3be 421c 973e 1eb1 88bd
000001f0: 0363 123f 0787 74be c78b a73e 3734 85bf

_impl.layers.2.linear.weight f4 [128, 128]
0.1713319 0.029181132 -0.23549898 0.07881911 -0.012050775 0.09649975 0.051592648 0.13571751
-0.0826682 0.054589443 -0.048024278 -0.13262933 0.03104813 0.12187778 -0.09357573 0.3766092
0.036081914 0.05602378 0.02183045 -0.08435664 0.12791255 0.14851855 -0.023747144 -0.011550517
0.024309097 -0.08645971 0.070570916 -0.07666148 0.18882114 -0.03739464 0.018909661 0.13910884
-0.12837157 -0.031032898 0.015906729 -0.11136559 0.2541918 0.1150163 -0.057533354 0.23296997
-0.09463218 -0.0046206797 0.032919966 -0.07408011 0.014980125 0.2214307 -0.0041884677 0.056265812
0.072572015 0.10777043 0.04106756 -0.12722242 0.09859607 -0.034205582 -0.14082895 0.15313695
0.10698876 0.120301425 -0.093920134 -0.22160533 -0.13324267 0.033275627 0.07089398 0.07657524
-0.093345396 -0.21723172 0.37519917 0.12932068 0.018501665 -0.015016121 0.0837663 0.06161162
-0.08651043 0.013117943 0.10061575 0.108938314 -0.045997027 0.05581872 0.023018997 -0.10844044
0.10668459 0.016258713 0.10490928 0.036656093 -0.08550445 0.15878962 -0.18579946 -0.10568323
0.051590223 -0.0043582176 0.014903813 0.075012356 -0.0659544 -0.047199983 0.24909881 1.0067276e-06
-0.2316622 0.16432445 -0.09982778 0.22506526 -0.0060245497 0.13833472 0.07302332 0.15019602
-0.016453978 -0.0950061 0.16504848 -0.127724 -0.024796046 0.01106707 -0.032429315 -0.018786533
-0.041163914 0.025182966 -0.1911381 0.1405532 0.18544126 -0.09586724 -0.054384347 0.096440695
-0.04047721 0.13136312 -0.14437352 0.112816595 0.024546858 0.08651827 -0.03014194 0.11132439
0.16187187 0.10764791 -0.12269145 -0.014777255 0.030325737 -0.04641596 0.082167104 0.2162082
0.085564554 0.10887273 -0.1233795 -0.13515107 -0.07075231 0.040138964 -0.085984014 0.2226641
-0.008462074 -0.03470087 -0.16586608 -0.03321007 -0.07917061 -0.05062058 0.06718093 0.22857954
-0.006736757 -0.03180284 0.016204296 -0.08388038 0.21758251 -0.038113706 0.1575031 0.11071247
0.10743013 -0.11382928 -0.09220015 0.05382803 0.21184675 0.03861561 0.2150905 0.12347349
-0.07078102 0.1387388 -0.07138447 0.21420445 0.07894611 0.052825343 -0.0031949994 0.24624896
-0.020297514 0.010407118 0.048576336 -0.12871367 -0.0313896 0.011579839 0.00930466 0.14971915
0.21346503 0.050403055 0.023763714 -0.28506234 -0.1962108 0.14030181 0.06637154 -0.12041063
0.16041696 -0.055970263 0.29457727 0.2885924 -0.012469518 0.057728864 0.011446005 -0.0875312
-0.010212496 -0.052525163 -0.09204922 0.1481585 0.1521507 0.045355696 0.029641388 -0.0041014603
0.28199035 0.08448127 0.008121983 0.36068827 -0.035821754 -0.06821062 -0.22359572 0.022271592
-0.050965097 -0.023667403 0.22202356 0.02534867 -0.004772134 0.15351513 0.03085482 -0.020861417
-0.012831756 0.017274473 -0.034039002 0.010235818 0.0015706384 0.07841707 0.11589243 0.13515763
0.1426096 0.08839688 0.10950071 0.1356895 -0.09049135 -0.030848473 -0.19701478 0.136844
0.19377403 -0.14973825 -0.10678671 0.12927328 0.078950964 -0.12320291 0.0022005313 0.06783995
0.02768307 0.18602727 0.008354129 0.095476314 0.23849557 -0.20593634 -0.022029566 0.11803413
00000000: a171 2f3e 450d ef3c a526 71be ea6b a13d
00000010: 9d70 45bc a9a1 c53d d052 533d 88f9 0a3e
00000020: f24d a9bd 2e99 5f3d 1bb5 44bd fccf 07be
00000030: a658 fe3c 0f9b f93d a2a4 bfbd ecd2 c03e
00000040: a1ca 133d 3179 653d c6d5 b23c 2dc3 acbd
00000050: 82fb 023e 3f15 183e 5f89 c2bc 613e 3dbc
00000060: df23 c73c ca11 b1bd 7c87 903d b200 9dbd
00000070: 545a 413e 1f2b 19bd 6fe8 9a3c 8c72 0e3e
00000080: d673 03be b438 febc d44e 823c a413 e4bd
00000090: 6d25 823e aa8d eb3d 18a8 6bbd ae8f 6e3e
000000a0: 84ce c1bd 1269 97bb 16d7 063d 50b7 97bd
000000b0: 336f 753c bbbe 623e 6a3f 89bb fb76 663d
000000c0: a3a0 943d beb6 dc3d 7536 283d 9846 02be
000000d0: bdec c93d 271b 0cbd 7735 10be efcf 1c3e
000000e0: ec1c db3d 9860 f63d 3359 c0bd 82ec 62be
000000f0: c470 08be 064c 083d dd30 913d 7bd3 9c3d
00000100: df2b bfbd fe71 5ebe 1b1a c03e a46c 043e
00000110: ce90 973c 2d06 76bc aa8d ab3d 775c 7c3d
00000120: 612c b1bd a4ec 563c a10f ce3d 0d1b df3d
00000130: 6167 3cbd 2ca2 643d 5692 bc3c 0516 debd
00000140: 737d da3d fe30 853c adda d63d b324 163d
00000150: f51c afbd bf99 223e 3742 3ebe 7370 d8bd
00000160: 4550 533d 61cf 8ebb 1f2f 743c 14a0 993d
00000170: 1a13 87bd c554 41bd c213 7f3e e61e 8735
00000180: db38 6dbe ab44 283e 8272 ccbd 8277 663e
00000190: 9669 c5bb 9ea7 0d3e 408d 953d fccc 193e
000001a0: 7eca 86bc 8f92 c2bd 7802 293e 15ca 02be
000001b0: 1421 cbbc a852 353c 9ad4 04bd 37e6 99bc
000001c0: 7e9b 28bd 824c ce3c b5b9 43be 2eed 0f3e
000001d0: 50e4 3d3e 0b56 c4bd 1fc2 5ebd b382 c53d
000001e0: 6ecb 25bd 0e84 063e a7d6 13be 630c e73d
000001f0: 7e16 c93c 7e30 b13d 3bec f6bc 0bfe e33d
00000200: bdc1 253e 8276 dc3d a845 fbbd 4d1c 72bc
00000210: ae6d f83c a91e 3ebd 3a47 a83d af65 5d3e
00000220: 783c af3d aaf8 de3d 64ae fcbd 0b65 0abe
00000230: 96e6 90bd c168 243d 6318 b0bd 0f02 643e
00000240: 83a4 0abc 8022 0ebd ccd8 29be 4807 08bd
00000250: 3324 a2bd 8657 4fbd 2896 893d c110 6a3e
00000260: 03c0 dcbb b243 02bd dfbe 843c 7ac9 abbd
00000270: f3cd 5e3e 1e1d 1cbd 7e48 213e 38bd e23d
00000280: 5404 dc3d 531f e9bd 6fd3 bcbd c87a 5c3d
00000290: 5bee 583e 672b 1e3d af40 5c3e abdf fc3d
000002a0: a4f5 90bd 8b11 0e3e 0532 92bd 6958 5b3e
000002b0: 80ae a13d 635f 583d 3263 51bb b028 7c3e
000002c0: f946 a6bc 9e82 2a3c fbf7 463d 84cd 03be
000002d0: 6292 00bd 5db9 3d3c 9372 183c fa4f 193e
000002e0: 9496 5a3e 6f73 4e3d 1fac c23c b1f3 91be
000002f0: 7ceb 48be 47ab 0f3e cded 873d d999 f6bd
00000300: 5844 243e 1341 65bd d5d2 963e 62c2 933e
00000310: f34c 4cbc 1a75 6c3d 0688 3b3c 8f43 b3bd
00000320: 5052 27bc a024 57bd 4d84 bcbd ddb6 173e
00000330: 65cd 1b3e e5c6 393d 7fd2 f23c 8b65 86bb
00000340: 0a61 903e 8404 ad3d 1112 053c 22ac b83e
00000350: d5b9 12bd 02b2 8bbd 47f6 64be ea72 b63c
00000360: c7c0 50bd 24e2 c1bc 255a 633e 04a8 cf3c
00000370: 905f 9cbb 1233 1d3e 3fc3 fc3c 90e5 aabc
00000380: 493c 52bc 3283 8d3c 7b6c 0bbd 22b4 273c
00000390: e1dd cd3a 2199 a03d 0359 ed3d c366 0a3e
000003a0: 4008 123e 6c09 b53d e941 e03d 30f2 0a3e
000003b0: 8753 b9bd f0b5 fcbc 3ebe 49be d520 0c3e
000003c0: b36c 463e fc54 19be feb2 dabd 3760 043e
000003d0: 0bb1 a13d cf51 fcbd ca36 103b acef 8a3d
000003e0: 9bc7 e23c ef7d 3e3e c2df 083c 1689 c33d
000003f0: 2f38 743e fae0 52be 5977 b4bc e1bb f13d

_impl.layers.2.linear.weight_g f4 [128, 1]
1.2072657 1.2800224 1.4002507 1.1863894 2.0335016 1.7403136 1.6035806 1.4052984
1.2998085 1.8597566 1.5853275 0.96175253 1.3195878 1.4431698 1.2020541 1.4603035
1.5901523 1.1255293 1.4190903 1.8818431 1.0638337 1.4003547 1.2575461 1.4666436
2.6925912 4.5214286 1.3790407 1.2936246 1.3458276 1.7533815 1.1712121 1.2147058
1.3363656 1.2317097 1.6401323 1.5946486 1.1991801 1.7333046 1.5208477 1.3403119
1.4932154 1.2585789 1.4699239 2.1492023 1.4065337 1.6668924 1.7744925 0.92409694
2.4698105 1.6633319 1.1214834 2.0517259 0.9994672 1.3089287 1.1618527 1.0785745
1.3161036 1.9452615 1.3942224 1.3515189 1.9173346 1.9033264 1.9345345 1.3889129
1.5933547 0.911658 2.6031964 3.3946314 2.7027748 1.9742084 2.8829362 1.2235588
2.062836 1.7626362 1.0215317 1.4730898 1.4891226 1.3261647 1.3445998 1.6878803
1.6376512 1.5383067 1.5342093 2.1417449 1.0776956 1.5535597 1.5243863 1.1707553
1.4337115 1.4276509 1.4948764 2.2395966 1.452609 1.1100711 3.4813986 1.7163836
1.148862 1.1002153 2.038225 1.1318134 1.5978152 1.4297426 1.6080316 1.3212457
1.5244547 1.6664032 1.5913407 2.014229 2.062999 1.4112006 1.1565067 1.1185445
1.4418374 1.5275879 1.3835112 1.220827 1.8521667 1.6427456 1.4593061 1.634397
1.4057546 1.5065926 1.3232039 1.1675025 1.3736284 1.438728 0.88167536 1.0115948
00000000: af87 9a3f c6d7 a33f 6a3b b33f 9cdb 973f
00000010: e424 0240 99c2 de3f 2142 cd3f d1e0 b33f
00000020: 2060 a63f 810c ee3f 03ec ca3f 6a35 763f
00000030: 41e8 a83f cab9 b83f e9dc 993f 3aeb ba3f
00000040: 1c8a cb3f 5811 903f c0a4 b53f 3ce0 f03f
00000050: b42b 883f d33e b33f 45f7 a03f faba bb3f
00000060: 6a53 2c40 8baf 9040 6884 b03f 7e95 a53f
00000070: 1444 ac3f ce6e e03f 47ea 953f 7b7b 9b3f
00000080: 070e ab3f aaa8 9d3f dbef d13f 721d cc3f
00000090: bc7e 993f eddc dd3f 23ab c23f 578f ab3f
000000a0: af21 bf3f 1d19 a13f 7726 bc3f 888c 0940
000000b0: 4c09 b43f bb5c d53f 9222 e33f 9e91 6c3f
000000c0: 6011 1e40 0fe8 d43f c58c 8f3f 7a4f 0340
000000d0: 15dd 7f3f fa8a a73f 97b7 943f bb0e 8a3f
000000e0: 1576 a83f 54fe f83f e175 b23f 92fe ac3f
000000f0: 386b f53f 33a0 f33f d49e f73f e6c7 b13f
00000100: 0cf3 cb3f 6b62 693f c59a 2640 a441 5940
00000110: 43fa 2c40 dcb2 fc3f 0782 3840 939d 9c3f
00000120: 8105 0440 109e e13f 8dc1 823f 358e bc3f
00000130: 929b be3f c4bf a93f d91b ac3f 760c d83f
00000140: 8e9e d13f 3ce7 c43f f860 c43f 5912 0940
00000150: eef1 893f 0bdb c63f 171f c33f 4fdb 953f
00000160: dc83 b73f 44bd b63f 1c58 bf3f 8d55 0f40
00000170: 17ef b93f cf16 8e3f 3ccf 5e40 75b2 db3f
00000180: e90d 933f dbd3 8c3f 4772 0240 43df 903f
00000190: 3585 cc3f ce01 b73f fbd3 cd3f 941e a93f
000001a0: 5521 c33f b34c d53f 0db1 cb3f 21e9 0040
000001b0: 2d08 0440 39a2 b43f 6908 943f 772c 8f3f
000001c0: 218e b83f 0088 c33f e516 b13f 0f44 9c3f
000001d0: cc13 ed3f 7d45 d23f 8bca ba3f ec33 d13f
000001e0: c4ef b33f 07d8 c03f bf5e a93f b970 953f
000001f0: 0ed3 af3f 3d28 b83f 7ab5 613f f07b 813f

_impl.layers.2.linear.bias f4 [128]
0.3696351 0.063659444 0.049205337 0.16005313 -0.16605161 0.2836397 -0.53033847 0.09422057
0.43064383 -0.21234216 -0.15127105 0.29975003 0.04019211 -0.010983226 0.40555447 0.10778062
0.2498279 0.23222773 -0.029639425 -0.10175196 0.24812233 0.035192475 0.16855508 -0.026426991
-0.17302029 -0.54681 0.09640238 -0.0007985578 0.27299994 -0.17189728 0.14224873 -0.0036098585
0.018692674 0.74334246 -0.0724332 -0.049990628 0.4557089 -0.07681864 -0.004312913 0.08164283
0.03099825 0.2738055 -0.020615753 -0.22753903 -0.1961298 -0.08036237 -0.12769651 0.20277233
-0.18895154 -0.11085088 0.6756138 -0.17162393 0.48013204 -0.0040100766 0.3892152 0.15205057
0.26442593 -0.09080333 -0.037990876 0.008186732 0.4854093 -0.12463084 -0.104854815 0.053364247
-0.06301306 0.20513788 -0.21314606 -0.3712258 -0.30794924 -0.152391 -0.32388207 0.36718225
-0.08200501 0.27114353 0.32085407 -0.0069493693 0.018718218 -0.035269596 0.036178313 -0.06888595
0.020159557 0.14704852 -0.15798633 -0.1256712 0.20635581 -0.055654924 -0.03921904 0.37368473
-0.0005818285 0.30454656 -0.19177999 -0.16365469 0.06991989 0.6321292 -0.3999925 0.33501756
0.36470783 0.41757596 -0.22673675 0.31418365 0.30621454 0.05774437 -0.014697274 0.044005305
0.17238908 -0.12685399 -0.02528481 -0.13035394 -0.1227683 -0.08276202 0.1287138 0.26859924
0.037894636 0.15780705 -0.08725241 0.21554187 -0.107681 -0.098840624 -0.039079167 -0.03757961
-0.055259686 -0.032450613 -0.0026913693 0.024928153 0.0064098504 -0.1380145 0.24140501 0.3471764
00000000: d040 bd3e e25f 823d 898b 493d f8e4 233e
00000010: 6f09 2abe 3939 913e 43c4 07bf b7f6 c03d
00000020: 597d dc3e 3970 59be cce6 1abe d678 993e
00000030: 7ba0 243d fdf2 33bc d6a4 cf3e 16bc dc3d
00000040: e3d2 7f3e 1bcd 6d3e 61ce f2bc 5563 d0bd
00000050: c813 7e3e fc25 103d b499 2c3e 6b7d d8bc
00000060: 3b2c 31be bdfb 0bbf 9c6e c53d 4f56 51ba
00000070: a6c6 8b3e d705 30be a7a9 113e 6093 6cbb
00000080: 6121 993c b14b 3e3f dc57 94bd f9c2 4cbd
00000090: ad52 e93e 1753 9dbd 5653 8dbb 5b34 a73d
000000a0: 0bf0 fd3c 3c30 8c3e 5ee2 a8bc feff 68be
000000b0: 40d6 48be 0795 a4bd e0c2 02be 8da3 4f3e
000000c0: 837c 41be c905 e3bd 07f5 2c3f 2fbe 2fbe
000000d0: ded3 f53e f666 83bb 3747 c73e 25b3 1b3e
000000e0: d662 873e 19f7 b9bd 529c 1bbd a521 063c
000000f0: 9187 f83e 743e ffbd 1fbe d6bd 7894 5a3d
00000100: fe0c 81bd aa0f 523e f642 5abe 4f11 bebe
00000110: 86ab 9dbe 630c 1cbe dfd3 a5be 50ff bb3e
00000120: 3ef2 a7bd 53d3 8a3e fc46 a43e 89b7 e3bb
00000130: f356 993c da76 10bd b62f 143d 1414 8dbd
00000140: a825 a53c e393 163e 2bc7 21be f3af 00be
00000150: f04e 533e 6bf6 63bd 25a4 20bd 9b53 bf3e
00000160: da85 18ba 87ed 9b3e f961 44be 1895 27be
00000170: 2932 8f3d 38d3 213f d1cb ccbe 6c87 ab3e
00000180: fcba ba3e 84cc d53e ae2d 68be aedc a03e
00000190: 27c8 9c3e 5c85 6c3d d6cc 70bc e83e 343d
000001a0: c386 303e 03e6 01be 1722 cfbc 817b 05be
000001b0: f26d fbbd 227f a9bd 8dcd 033e d785 893e
000001c0: 6837 1b3d 2c98 213e 64b1 b2bd 02b7 5c3e
000001d0: db87 dcbd f46c cabd 7a11 20bd 14ed 19bd
000001e0: fb57 62bd efea 04bd af61 30bb 2036 cc3c
000001f0: b909 d23b ac53 0dbe e032 773e 1bc1 b13e

_impl.final_layer.linear.weight f4 [1, 128]
0.4238241 0.5271383 0.43165874 0.23306212 -0.9134473 0.22044943 0.40132907 -0.5756805
0.50050175 0.58039415 0.53016466 0.12420519 0.30862376 -0.83150226 0.25946063 -0.6568346
0.6276547 0.39231375 0.55643296 -0.95265853 0.122242466 -0.908236 0.28922698 -0.827019
-1.1100769 -1.9676969 -0.7840684 0.48400673 0.102547266 0.68879074 0.32359415 -0.5809768
0.45112562 0.27394715 -0.8222389 -0.69157577 0.37663034 -0.92414856 -0.8774539 0.3847605
-0.7319047 0.04314917 0.50248694 0.8487592 -0.49872866 -0.7911661 -0.798577 0.00012899534
-1.0336374 0.58909243 0.23609944 -0.9018019 0.262795 0.33006325 0.31329805 0.2928997
0.48361772 -0.9825715 0.38995525 -0.72939444 -0.69814426 -0.91594064 -0.9890803 -0.84474283
-0.7114443 0.12590626 -0.9892115 -1.2382214 -1.0119032 -0.81558836 -1.1477815 0.37109414
-0.7176107 0.29813772 0.16953993 -0.8499689 -0.6231377 0.38675395 -0.7682583 -0.84061545
-0.64927363 0.31284973 0.62839574 -0.89571494 0.133455 0.48765647 -0.7923977 0.2853928
-0.7473463 0.100437246 0.27210227 -1.0146939 -0.7902206 0.3065253 1.7240624 -0.91066664
0.38896507 0.1364703 0.6900795 0.121029 0.25173652 -0.68422496 -0.8379424 -0.7701112
0.3031098 0.5956128 -0.8762974 -0.9042289 -0.9800559 0.18668278 0.36757538 0.30383524
0.47416878 0.47574714 0.57790846 0.41936874 -0.8195657 -0.8728041 0.53235143 -0.5697766
0.51197875 -0.74587023 -0.6088081 0.28727508 -0.89967126 -0.6764273 0.15108682 0.32210496
00000000: 79ff d83e 89f2 063f 6002 dd3e d6a7 6e3e
00000010: afd7 69bf 7fbd 613e 017b cd3e cc5f 13bf
00000020: e220 003f b694 143f dfb8 073f 4a5f fe3d
00000030: ef03 9e3e 55dd 54bf 06d8 843e 5026 28bf
00000040: faad 203f 59dd c83e 6472 0e3f 6ee1 73bf
00000050: 425a fa3d 2882 68bf 8f15 943e 84b7 53bf
00000060: 0017 8ebf 7edd fbbf b5b8 48bf bbcf f73e
00000070: 4d04 d23d 9754 303f 22ae a53e e5ba 14bf
00000080: f0f9 e63e cd42 8c3e 407e 52bf 1c0b 31bf
00000090: b1d5 c03e 0095 6cbf d2a0 60bf 54ff c43e
000000a0: 1b5e 3bbf 2fbd 303d fca2 003f 4848 593f
000000b0: 5d59 ffbe dd89 4abf 8b6f 4cbf ec42 0739
000000c0: 3b4e 84bf c3ce 163f 0dc4 713e 7ddc 66bf
000000d0: 118d 863e 0dfe a83e 9a68 a03e f3f6 953e
000000e0: be9c f73e ce89 7bbf 37a8 c73e 98b9 3abf
000000f0: 95b9 32bf 167b 6abf 5e34 7dbf 1141 58bf
00000100: 3721 36bf 92ed 003e f73c 7dbf 0a7e 9ebf
00000110: 0b86 81bf 66ca 50bf 81ea 92bf 0d00 be3e
00000120: 56b5 37bf 82a5 983e e09b 2d3e 9097 59bf
00000130: f485 1fbf 9d04 c63e 93ac 44bf 9332 57bf
00000140: cc36 26bf d72d a03e 8bde 203f 934d 65bf
00000150: 6da8 083e 1cae f93e 93da 4abf 011f 923e
00000160: 1652 3fbf 0bb2 cd3d fd50 8b3e 7de1 81bf
00000170: e64b 4abf e2f0 9c3e 14ae dc3f 7321 69bf
00000180: 6e26 c73e dfbe 0b3e 0da9 303f 0dde f73d
00000190: 9ce3 803e 5e29 2fbf 6583 56bf 0226 45bf
000001a0: 3531 9b3e 157a 183f 0755 60bf 8c7b 67bf
000001b0: f2e4 7abf c529 3f3e d732 bc3e 4b90 9b3e
000001c0: 40c6 f23e 2195 f33e cff1 133f 80b7 d63e
000001d0: 0fcf 51bf 1770 5fbf 2f48 083f e1dc 11bf
000001e0: 0a11 033f 5af1 3ebf d9da 1bbf b815 933e
000001f0: db50 66bf 572a 2dbf 81b6 1a3e f1ea a43e
