heat_eq_2d/outputs/sigmoid_interior_2000_arch_128x2/heat_network.0.pth (torch, 72852 bytes, 7 tensors)

_impl.layers.0.linear.weight f4 [128, 2]
0	0xbe334c19	-0.17509498
1	0xbdd641ce	-0.1046177
2	0xbe2911b9	-0.16510667
3	0x3d8b34e5	0.06797198
4	0x3e9905b9	0.2988718
5	0xbcdb0469	-0.026735501
6	0xbdbe1b0b	-0.09282502
7	0xbdfcf1f6	-0.12350838
8	0x3e4da5da	0.20082799
9	0x3d645bf5	0.05575176
10	0xbe2c1faa	-0.16808954
11	0x3d8dfd55	0.06933085
12	0x3e574425	0.21022089
13	0xbcca5d52	-0.024702702
14	0xbd90b58d	-0.07065878
15	0xbe0f3fe0	-0.1398921
16	0xbe4b01b6	-0.19824871
17	0x3da7d635	0.081951536
18	0x3e67e4bf	0.22645853
19	0x3cc6768b	0.024226448
20	0x3efe47f0	0.4966426
21	0x3b0db4dc	0.0021622693
22	0xbe3799d6	-0.17929778
23	0xbdb35aa0	-0.0875752
24	0x3e954081	0.29150775
25	0xbc86a207	-0.016434683
26	0x3e4ec3e7	0.20191918
27	0x3ca36365	0.019944856
28	0xbdc66db8	-0.09688896
29	0xbe19591f	-0.14975403
30	0xbe156d37	-0.14592443
31	0xbd6e3586	-0.058156513
32	0xbdcc5311	-0.09976781
33	0x3da649c0	0.081195354
34	0x3e5e600e	0.2171633
35	0x3c8ae4ae	0.016954746
36	0xbe24332b	-0.16035144
37	0x3d86ec1d	0.06588004
38	0xbe11c87e	-0.14236638
39	0xbd5cea39	-0.05393431
40	0xbd84757b	-0.0646772
41	0xbe15d87a	-0.1463336
42	0x3e054504	0.13014609
43	0x3e4ecf77	0.20196329
44	0xbdb47c92	-0.088128224
45	0x3e02a06e	0.12756512
46	0xbe0f5ccd	-0.14000244
47	0xbd6e6ec1	-0.058211092
48	0x3e6a8cf0	0.22905326
49	0x3c9ea5ad	0.01936611
50	0x3ea53a61	0.32271102
51	0xbc1881fa	-0.009308333
52	0xbdb6c661	-0.089245565
53	0xbe292817	-0.165192
54	0xbd893199	-0.06698913
55	0x3e0a822c	0.13526219
56	0xbd9aeaf2	-0.075643435
57	0x3e00142a	0.12507692
58	0xbd75f2a5	-0.060045857
59	0x3e0999cc	0.13437575
60	0xbdb13eb8	-0.08654541
61	0xbe1e133f	-0.1543703
62	0x3ef06d5b	0.46958432
63	0x3b0b49da	0.0021253736
64	0xbdae09b7	-0.08497947
65	0xbe2bc99b	-0.16776125
66	0xbd6625a6	-0.056188248
67	0xbe4bd071	-0.19903733
68	0xbda82478	-0.08210081
69	0x3e06690a	0.13126007
70	0x3e8f87a5	0.28033176
71	0x3c19c5ff	0.009385585
72	0xbe01d73d	-0.12679763
73	0xbde73eb7	-0.11291259
74	0xbdb1710b	-0.08664139
75	0xbe0ce113	-0.13757734
76	0xbe0e245d	-0.13881059
77	0xbd557328	-0.052111775
78	0xbdd5fb7b	-0.10448357
79	0x3d3966f2	0.045264192
80	0xbe11b1a6	-0.14227924
81	0xbdacba6c	-0.08433995
82	0x3e930df2	0.28721577
83	0x3c7d8c41	0.015475334
84	0xbe16f634	-0.14742357
85	0xbd8b59ba	-0.06804223
86	0xbde2d598	-0.11075896
87	0x3deced46	0.11568694
88	0xbe3f6e80	-0.18694496
89	0x3d9ecc31	0.0775379
90	0xbe39cab2	-0.18143728
91	0xbdcd0fb9	-0.100127645
92	0xbe0359e6	-0.12827262
93	0xbd4af22c	-0.04954736
94	0xbe2352ba	-0.15949526
95	0x3d9e46cf	0.077283494
96	0x3e5d5200	0.21613312
97	0x3ccc0f44	0.024909623
98	0x3e938765	0.28814235
99	0xbd28753b	-0.041127425
100	0x3e890f6e	0.26769584
101	0xbcb63d3e	-0.022246
102	0xbda3f9f8	-0.08006662
103	0x3e069e80	0.131464
104	0xbe100551	-0.14064528
105	0x3d6ddde5	0.058072943
106	0xbdca13b7	-0.098670416
107	0xbe2b04bc	-0.16701025
108	0x3e841db6	0.25803918
109	0x3ca0462d	0.019564712
110	0x3ed6d04f	0.41955802
111	0xbbee353a	-0.0072695287
112	0xbde4d0e4	-0.11172655
113	0xbe3f4f52	-0.18682602
114	0xbde3ced7	-0.11123436
115	0x3d966a6f	0.07344519
116	0xbe056a91	-0.13028933
117	0x3d8b08e1	0.06788803
118	0xbe245bf7	-0.16050707
119	0x3d81c80f	0.06336986
120	0xbe01079f	-0.12600563
121	0x3d620747	0.05518272
122	0xbd9c3db7	-0.07628959
123	0x3e2defd8	0.16986024
124	0x3e0fff19	0.14062156
125	0xbdab38be	-0.08360432
126	0x3e71677b	0.23574631
127	0xbcb4cf74	-0.022071578
128	0xbe346f99	-0.17620696
129	0xbdf3172f	-0.11869656
130	0xbe001518	-0.12508047
131	0x3dae0d43	0.08498623
132	0xbd8d6fc6	-0.06906085
133	0xbe23c41e	-0.15992782
134	0x3e6db757	0.2321447
135	0xbcddd8cc	-0.027080916
136	0x3e661295	0.22468026
137	0xbcb82726	-0.022479605
138	0xbe11af92	-0.14227131
139	0x3dcf38bf	0.10118245
140	0xbdea3fac	-0.11437926
141	0x3e2f39cf	0.17111896
142	0xbda7f27e	-0.082005486
143	0x3e54e598	0.20790708
144	0xbd846409	-0.06464393
145	0x3e12f558	0.14351404
146	0xbe00e0b2	-0.12585714
147	0xbdc2aefc	-0.09506032
148	0xbdba2ec0	-0.09090948
149	0x3db0db0b	0.08635529
150	0x3e8158e1	0.25263122
151	0xbc81a456	-0.015825432
152	0x3e671add	0.22568841
153	0x3c9a8018	0.018859908
154	0xbdb11c5c	-0.08647987
155	0xbe25691d	-0.16153379
156	0xbde5bae7	-0.112172894
157	0xbd447a2c	-0.047968075
158	0x3e916f28	0.28405118
159	0x3c9360ad	0.017990435
160	0x3e8fff25	0.28124347
161	0x3c9c5ed6	0.01908819
162	0xbdc180ec	-0.09448418
163	0x3df29ebb	0.11846682
164	0x3e7d7a4e	0.24753687
165	0x3c9a5a4a	0.018841881
166	0x3ea410d4	0.3204409
167	0xbc743c21	-0.014906914
168	0x3e0d37cf	0.1379082
169	0x3e35b74b	0.17745702
170	0xbe30eecb	-0.17278592
171	0xbd98380c	-0.07432565
172	0x3ea0c54b	0.31400523
173	0xbc62392f	-0.013807579
174	0xbddaf8c5	-0.1069198
175	0x3d4d3b71	0.050105516
176	0xbe499192	-0.19684437
177	0x3dd93f4e	0.106077775
178	0xbe151707	-0.14559565
179	0x3de44cc3	0.11147454
180	0x3ea1a631	0.31572106
181	0x3cbf685c	0.023365192
182	0xbe042620	-0.12905169
183	0x3d663d56	0.05621084
184	0x3e724a24	0.23661095
185	0x3ca80290	0.020509034
186	0xbe13e80e	-0.1444399
187	0xbda0882a	-0.07838471
188	0x3eb74589	0.3579524
189	0x3c3b98bb	0.011449988
190	0x3e88738c	0.26650655
191	0xbcbb200b	-0.022842428
192	0xbe307a0c	-0.17234057
193	0xbd85dc67	-0.06536179
194	0xbe0bec34	-0.13664323
195	0xbdb310c8	-0.08743435
196	0xbdff35fe	-0.1246147
197	0xbd8d5d1e	-0.06902526
198	0xbe0b70d5	-0.13617261
199	0xbd7f0137	-0.062257018
200	0x3ebd557c	0.36979282
201	0x3bcbb82a	0.0062170224
202	0xbe1abf2f	-0.15111993
203	0x3d913858	0.07090825
204	0xbdfeee92	-0.124478474
205	0xbe2a3209	-0.1662065
206	0xbe37d070	-0.17950606
207	0x3d9b7961	0.075915106
208	0xbe1e6613	-0.15468626
209	0x3df19dfd	0.11797712
210	0xbe53081b	-0.2060856
211	0xbdab85ec	-0.08375153
212	0xbe25e51c	-0.1620068
213	0xbdd3a09f	-0.103333704
214	0xbdafff7d	-0.085936524
215	0x3deee09f	0.11663937
216	0xbdff69d0	-0.12471354
217	0xbd3abcab	-0.045590084
218	0xbe3c260f	-0.18373893
219	0x3da51346	0.08060317
220	0xbe4b0a6d	-0.19828196
221	0x3dafafd9	0.08578462
222	0x3e904dbc	0.28184307
223	0x3ca0a04e	0.01960769
224	0xbe1ef51e	-0.15523192
225	0xbd6f2e46	-0.05839374
226	0x3e926153	0.28589877
227	0xbce5bfed	-0.028045619
228	0x3e85468f	0.26030394
229	0xbcd58948	-0.026066437
230	0x3edb4408	0.4282534
231	0xbbc926ca	-0.006138657
232	0xbdb8cb45	-0.090231456
233	0xbe1306b3	-0.14358024
234	0xbdc0cb76	-0.09413807
235	0x3df1cde3	0.11806848
236	0x3e814ede	0.25255483
237	0xbca9b86d	-0.020717824
238	0x3e8a313f	0.26990697
239	0xbd088c41	-0.03333688
240	0xbdcfb925	-0.101427354
241	0xbe382f00	-0.17986679
242	0x3eab1744	0.33416188
243	0x3c896e4d	0.016776228
244	0x3e640ea8	0.22271216
245	0x3ca9a167	0.020706845
246	0x3e5f51a7	0.21808492
247	0x3d907db1	0.07055224
248	0x3e8114c7	0.25211164
249	0xbca9a02b	-0.020706257
250	0xbe12c26e	-0.14331982
251	0x3d7728fa	0.060341813
252	0xbe444f39	-0.19170846
253	0xbd97852a	-0.07398446
254	0x3ebab296	0.36464375
255	0xbc49f662	-0.012326809

_impl.layers.0.linear.weight_g f4 [128, 1]
0	0x40aeb8de	5.460067
1	0x40a63d6c	5.194998
2	0x408ad1ce	4.338111
3	0x409e4b40	4.946686
4	0x408f2b28	4.474018
5	0x40a93698	5.2879143
6	0x408a88d7	4.329204
7	0x40a4d3f3	5.1508727
8	0x40a96d22	5.294572
9	0x4094c64a	4.649205
10	0x409e05ca	4.9382067
11	0x40a392d5	5.111674
12	0x40a0742d	5.0141816
13	0x408f3986	4.475772
14	0x40a54d49	5.165684
15	0x40938688	4.6101723
16	0x4096f4f0	4.7173996
17	0x409408a8	4.6260567
18	0x40a9f11f	5.3106837
19	0x409b82a1	4.859696
20	0x409ec68a	4.9617357
21	0x40e42d98	7.1305656
22	0x4095013c	4.6564007
23	0x409f5510	4.9791336
24	0x409d525f	4.916305
25	0x40a0e5b4	5.02804
26	0x40a506e4	5.157091
27	0x40b82a45	5.75516
28	0x40944a07	4.6340365
29	0x40b84304	5.7581806
30	0x40a33f94	5.101511
31	0x409307e6	4.594714
32	0x409ff4eb	4.998647
33	0x40c0f9a9	6.030476
34	0x4098ccd6	4.7750044
35	0x40a5f75e	5.186446
36	0x40b297fe	5.5810537
37	0x40a490c1	5.14267
38	0x4098001d	4.750014
39	0x40b1543f	5.541534
40	0x40a87bda	5.2651186
41	0x408ee39a	4.4652834
42	0x409c656e	4.8873816
43	0x409741b2	4.7267694
44	0x40b6ae94	5.708811
45	0x40a9ce19	5.3064084
46	0x40986cdc	4.7632885
47	0x40b5a904	5.676882
48	0x4093d5ab	4.6198325
49	0x408c3587	4.381534
50	0x407c6c3c	3.944106
51	0x40966808	4.700199
52	0x40a8d17b	5.2755713
53	0x40a46c37	5.13821
54	0x408cb2a0	4.396805
55	0x4094e380	4.652771
56	0x409d678e	4.918891
57	0x409781b9	4.7345853
58	0x40aae1d7	5.3400683
59	0x40a9301f	5.287124
60	0x40a39677	5.1121173
61	0x41017f3d	8.093564
62	0x406d64ce	3.7092776
63	0x408b4016	4.351573
64	0x40aa9592	5.330758
65	0x409b5ce1	4.8550878
66	0x40a8d24a	5.27567
67	0x408ef19b	4.466993
68	0x408b320d	4.3498597
69	0x409a4f4b	4.8221793
70	0x40965e57	4.699016
71	0x40ec696e	7.38787
72	0x40fe8d0b	7.954717
73	0x40a79a1b	5.2375617
74	0x408ab284	4.3342915
75	0x40885841	4.260773
76	0x408c7596	4.3893538
77	0x40b74ab1	5.7278676
78	0x40a19c5d	5.0503373
79	0x40a7e6e3	5.2469344
80	0x40a5ed1f	5.1851954
81	0x409e49ca	4.9465075
82	0x4096eba1	4.7162633
83	0x40924768	4.5712166
84	0x405b11eb	3.4229686
85	0x40a54fb6	5.1659803
86	0x40a6fabd	5.2181077
87	0x40ade041	5.4336247
88	0x40b1b4be	5.5533133
89	0x409a2a02	4.817628
90	0x408cdc1c	4.401869
91	0x40aeae68	5.45879
92	0x40926bf9	4.5756803
93	0x40a44735	5.1336923
94	0x40a51b6d	5.159598
95	0x408b1aa3	4.3470016
96	0x40a45dc4	5.136446
97	0x40a9120b	5.2834525
98	0x40a5a856	5.176799
99	0x40b4249c	5.629469
100	0x409f7289	4.9827313
101	0x40b57b1e	5.671279
102	0x40a80311	5.2503743
103	0x40a9394c	5.2882442
104	0x40996ac1	4.7942815
105	0x4092d75d	4.5887895
106	0x40a7bbf0	5.2416916
107	0x4092e308	4.590214
108	0x40996611	4.7937093
109	0x40b26881	5.575257
110	0x40ad1cf6	5.4097853
111	0x409fa146	4.9884367
112	0x409d64ad	4.9185395
113	0x408a8d63	4.329759
114	0x40925dc4	4.573946
115	0x409d1090	4.908272
116	0x40b78d3f	5.735992
117	0x40941292	4.627267
118	0x408aacc4	4.3335896
119	0x408c255b	4.37956
120	0x40aa5129	5.3224072
121	0x40a7d061	5.244187
122	0x40911507	4.533817
123	0x405a6d18	3.4129086
124	0x4087ec76	4.247615
125	0x40a79c0b	5.237798
126	0x409ca775	4.8954415
127	0x408ebdcc	4.4606686

_impl.layers.0.linear.bias f4 [128]
0	0xbfe83ed1	-1.814417
1	0xc014d2a7	-2.3253572
2	0x3fd0cff6	1.6313465
3	0xbea411b7	-0.32044765
4	0x3ff27168	1.8940859
5	0xc0160e1f	-2.344612
6	0x3fd92313	1.6963829
7	0x3efe1ead	0.4963278
8	0xc0159775	-2.3373692
9	0x3fdd8770	1.7306957
10	0x3f8f2d89	1.1185771
11	0xbffd6f1d	-1.9799534
12	0x3fcf3241	1.6187211
13	0x3fd4f94f	1.6638583
14	0x3cd52a17	0.026021047
15	0xc002326c	-2.0343275
16	0xbfaec22a	-1.3653004
17	0x3fd2a48e	1.6456468
18	0xc016972a	-2.3529763
19	0xc00934ba	-2.1438432
20	0x3f2b4b14	0.66911435
21	0xbe9aea95	-0.30257097
22	0xbeacc36f	-0.33742854
23	0xc007ad73	-2.1199615
24	0x3fdda5e8	1.7316256
25	0x3f943281	1.1577913
26	0x3ec0c4c8	0.37650132
27	0x3f0ff41a	0.56231844
28	0xbdd3ddcc	-0.10345039
29	0x3f3f3be0	0.74700737
30	0x3e93cd4f	0.28867576
31	0x3f4876bd	0.7830618
32	0x3ee5743c	0.44815242
33	0x3fc36d15	1.5267664
34	0xbe050628	-0.1299063
35	0x3fac0922	1.3440287
36	0xbf8e80a2	-1.1133006
37	0x3d9659d1	0.0734135
38	0xc006f3e9	-2.108637
39	0xc0171660	-2.3607407
40	0xbfeb5b4f	-1.838724
41	0x3fbad819	1.4597198
42	0xc0009d00	-2.0095825
43	0xbf689f59	-0.90868145
44	0xc01a95b0	-2.4153862
45	0xbff325c0	-1.8995895
46	0xc00774fb	-2.116515
47	0xc00de435	-2.2170537
48	0x3fe11c35	1.7586733
49	0x3fe040b8	1.751975
50	0x3f07c693	0.53037375
51	0xbdcbef3c	-0.0995774
52	0xc016713f	-2.350662
53	0x3e4cdcc6	0.20006093
54	0x3fc684bb	1.5509256
55	0x3fb0b8f1	1.380644
56	0x3e01008d	0.12597866
57	0xbfdf5b4c	-1.7449737
58	0xc0065c73	-2.0993927
59	0xc01880ae	-2.382854
60	0xc010edc6	-2.2645125
61	0x3f9d34be	1.2281721
62	0x3fcd1e14	1.6024804
63	0x3fd543db	1.6661333
64	0xbfd25278	-1.6431417
65	0xbfd6ec9d	-1.6790959
66	0x3f4d876c	0.8028476
67	0x3fdf62ab	1.7451986
68	0x3fd6b0db	1.6772722
69	0xbfcc77b2	-1.5974028
70	0xbe8816e1	-0.26579955
71	0x3faa592c	1.3308463
72	0x3f995371	1.1978589
73	0xbfbcc103	-1.4746403
74	0xbf932a90	-1.1497364
75	0x3fc7f205	1.5620733
76	0x3fcabfe5	1.5839812
77	0x3f03e935	0.5152772
78	0xc009222a	-2.1427102
79	0x3fcb748e	1.5894945
80	0x3fcf90fd	1.6216122
81	0xbf0b34d9	-0.54377514
82	0x3fd0907a	1.6294091
83	0x3f4e6807	0.80627483
84	0x3e8b0d23	0.2715846
85	0xc007cfd5	-2.12206
86	0x3fc578be	1.5427473
87	0xc0102a18	-2.2525692
88	0xc00316a3	-2.0482566
89	0xbfbb9208	-1.465394
90	0x3fc4ae02	1.5365603
91	0xc014a0aa	-2.3223062
92	0x3fd36e4a	1.6518033
93	0xbff3e801	-1.9055177
94	0x3fb1d156	1.3892009
95	0x3fd1044f	1.632944
96	0xc00e2870	-2.221218
97	0xbfde753f	-1.7379531
98	0xbff7ebb5	-1.9368807
99	0xc00c01c1	-2.187607
100	0x3f9f1f13	1.2431358
101	0xc0105d0f	-2.2556798
102	0xbe7e717c	-0.24847978
103	0xc0143ada	-2.316092
104	0xbfbc9c97	-1.4735287
105	0xc0005f09	-2.0058005
106	0xbfdcf3d2	-1.7261908
107	0xbef1e36b	-0.4724382
108	0xc008ef4f	-2.1396062
109	0xc0147a9c	-2.3199835
110	0xc0138899	-2.3052123
111	0x3fd373fe	1.6519773
112	0xc00a2913	-2.158757
113	0x3fd340d8	1.6504164
114	0x3fdcac29	1.7240039
115	0x3faf3938	1.3689337
116	0x3e347eb2	0.17626455
117	0xbf19e919	-0.60121304
118	0x3fd21f95	1.6415888
119	0x3fdbfc92	1.7186453
120	0x3eacb71f	0.3373346
121	0x3fbbe122	1.467808
122	0x3fd4aca2	1.6615183
123	0x3f1dfae0	0.6171093
124	0x3fcb743e	1.5894849
125	0xc0148712	-2.320744
126	0xc008c3f9	-2.1369612
127	0x3fbdc79b	1.482654

_impl.layers.1.linear.weight f4 [128, 128]
0	0x3df49fe7	0.119445615
1	0x3daadf33	0.08343353
2	0xbdeff551	-0.11716712
3	0x3e002d0f	0.12517188
4	0xbe2ad25f	-0.16681813
5	0x3da736c6	0.08164744
6	0xbdf442f4	-0.11926833
7	0x3e045ef4	0.12926847
8	0x3da8c0d8	0.08239907
9	0xbe2e63eb	-0.17030303
10	0xbd9b9569	-0.07596857
11	0x3de2fc79	0.110833116
12	0xbdbf3f11	-0.09338201
13	0xbe2937cb	-0.1652519
14	0x3e094984	0.1340695
15	0x3ddef244	0.10886052
16	0x3b5b5e48	0.0033472944
17	0xbe210498	-0.15724409
18	0x3da77269	0.08176119
19	0x3dea2ab9	0.1143393
20	0x3de9de79	0.114193864
21	0xbea8ea95	-0.32991472
22	0xbc9c8e05	-0.019110689
23	0x3de4c42e	0.11170231
24	0xbe275ccb	-0.16343991
25	0xbd2cb362	-0.04216326
26	0x3e07b987	0.13254367
27	0xbd1a04ca	-0.037602223
28	0xbcee78ac	-0.029110275
29	0xbd6c42ba	-0.057680823
30	0x3e060080	0.13086128
31	0xbd559b38	-0.05214998
32	0x3df96528	0.12177497
33	0x3d94c6e3	0.07264497
34	0xbcbc807f	-0.02301049
35	0xbde5b247	-0.11215644
36	0x3e0e6d29	0.13908829
37	0x3e09e617	0.13466679
38	0x3de9c866	0.11415176
39	0x3d7f460f	0.062322672
40	0x3dec9676	0.11552136
41	0xbe0fc59f	-0.1404023
42	0x3dda728d	0.1066638
43	0xbbb62906	-0.0055590896
44	0x3da771e1	0.081760176
45	0x3dea790d	0.1144887
46	0x3de2aedb	0.11068507
47	0x3d430479	0.047611687
48	0xbe341a48	-0.1758815
49	0xbe0128fc	-0.1261329
50	0xbc41601e	-0.011802701
51	0xbcd307ba	-0.02576052
52	0x3da13121	0.07870699
53	0x3e0871d9	0.1332468
54	0xbe1cf85e	-0.1532912
55	0xbdcf9866	-0.101364896
56	0x3dfe8adf	0.12428831
57	0x3c2842cd	0.010269833
58	0x3d0852da	0.03328214
59	0x3dbf5675	0.09342662
60	0x3d86bb24	0.06578663
61	0xbd995f60	-0.074888945
62	0xbda31138	-0.079622686
63	0xbdf5af0e	-0.1199628
64	0x3df06194	0.117373616
65	0x3c3b1221	0.0114178965
66	0x3df74fe4	0.12075785
67	0xbdf3099a	-0.11867066
68	0xbdf9fde8	-0.12206632
69	0x3c0c899a	0.008577729
70	0xbca3665c	-0.01994627
71	0xbd930fd8	-0.07180756
72	0xbda7903c	-0.081818074
73	0x3dfd66ed	0.12373147
74	0xbbcd55b7	-0.0062663215
75	0xbded4ad3	-0.11586537
76	0xbe20f962	-0.15720132
77	0x3e1ca196	0.15296015
78	0x3de23944	0.11046079
79	0xbe114861	-0.14187767
80	0xbe150eb9	-0.14556397
81	0xbc687323	-0.014187607
82	0xbe1b7faa	-0.15185419
83	0xbc51f5ea	-0.012814978
84	0xbe460500	-0.19337845
85	0x3de6686b	0.11250385
86	0xbdaadc7b	-0.083428346
87	0x3d408042	0.046997316
88	0x3d0a8859	0.033821438
89	0x3ba28803	0.0049600615
90	0xbe19b488	-0.15010273
91	0x3d84704d	0.06466732
92	0xbe268a0f	-0.16263603
93	0x3de13299	0.10995979
94	0xbded6245	-0.11591009
95	0xbdeb8c34	-0.11501351
96	0x3df133e0	0.117774725
97	0x3df4a352	0.119452134
98	0x3de75b67	0.112967305
99	0x3e045009	0.12921156
100	0xbdcc86ee	-0.09986673
101	0x3d5ab3df	0.053394195
102	0x3e0e650e	0.13905737
103	0x3d9a0aa6	0.07521562
104	0x3b6746f9	0.0035290106
105	0x3ddda24b	0.108219706
106	0x3dea95ef	0.11454379
107	0xbc9b9afb	-0.018994799
108	0x3dec48f7	0.115373544
109	0x3d84b673	0.06480112
110	0x3d8ea5e8	0.06965238
111	0xbe1af478	-0.1513232
112	0x3defe314	0.117132336
113	0xbdf0475b	-0.1173236
114	0xbde38538	-0.11109394
115	0xbdbfebfb	-0.093711816
116	0x3e203652	0.15645722
117	0xbc6b4f8c	-0.014362227
118	0xbdf74b25	-0.120748796
119	0xbdf63960	-0.12022662
120	0x3e1057d1	0.14096
121	0xbe05cd15	-0.13066514
122	0xbe27c017	-0.1638187
123	0xbe2652da	-0.16242543
124	0xbdeb9f1b	-0.11504956
125	0x3d9bc148	0.07605225
126	0x3dea06fe	0.11427115
127	0xbddf4e51	-0.109036095
128	0xbbbd1da9	-0.005771358
129	0xbe35ef62	-0.17767099
130	0x3e108779	0.14114179
131	0x3d647e5b	0.055784564
132	0x3c07112f	0.008243843
133	0xbe41ea51	-0.18937041
134	0x3e190c62	0.1494613
135	0x3d90ce9d	0.07070658
136	0xbe403e34	-0.18773729
137	0x3da0c8aa	0.07850774
138	0x3db20ef5	0.08694259
139	0xbc18c391	-0.00932397
140	0x3e244fd4	0.16046077
141	0x3da065a9	0.0783189
142	0x3d610422	0.054935582
143	0xbd1fe9a8	-0.03904119
144	0xbe4d8986	-0.20071992
145	0x3db1523d	0.08658264
146	0xbe47ada3	-0.19499831
147	0xbd5320f4	-0.0515451
148	0x3dca6f3a	0.09884496
149	0xbde8e8c1	-0.11372519
150	0xbe5b7345	-0.2143069
151	0xbd06224c	-0.03274755
152	0x3db03542	0.08603908
153	0x3e12d91b	0.14340632
154	0x3d8b6ed7	0.068082504
155	0xbe6312b2	-0.221751
156	0xbe5ac2bd	-0.2136335
157	0xbe588083	-0.21142773
158	0x3d8972d5	0.067113556
159	0xbc134542	-0.00898868
160	0x3d9f46bb	0.07777163
161	0x3e14548c	0.14485377
162	0xbe60426e	-0.21900341
163	0x3d2ef0ee	0.042710237
164	0x3c72024f	0.014771058
165	0x3d6880aa	0.05676333
166	0xbd528658	-0.05139765
167	0xbe60e44c	-0.21962088
168	0xba03e737	-0.0005031707
169	0x3da75680	0.081707954
170	0xbc5eceeb	-0.013599138
171	0xbe539b0d	-0.20664616
172	0xbe59b960	-0.21262121
173	0xbb74e8f3	-0.0037370294
174	0xbd274905	-0.04084112
175	0xbe5ba89a	-0.21451035
176	0x3dacf6b4	0.084454924
177	0x3e1c2af8	0.15250766
178	0x3e316713	0.17324476
179	0xbe60fcb8	-0.21971405
180	0xbe44fd83	-0.19237332
181	0x3d80f1a3	0.062960885
182	0x3d9ebde0	0.077510595
183	0x3e025def	0.12731145
184	0x3d8f5f69	0.0700062
185	0xbe4b9b81	-0.19883539
186	0xbe582670	-0.21108413
187	0xbe33816c	-0.1752984
188	0xbe4b67c1	-0.19863798
189	0xbe522a9b	-0.20524065
190	0x3e0c89d5	0.13724454
191	0x3e15312c	0.14569539
192	0x3c3ab122	0.011394771
193	0xbe4e224c	-0.2013027
194	0x3dc3e802	0.09565736
195	0x3e24c17d	0.16089435
196	0x3e16af55	0.14715321
197	0xbe4db520	-0.20088625
198	0xbe5e2d7c	-0.21697038
199	0xbe523e99	-0.20531692
200	0xbe4405a4	-0.19142777
201	0x3c8e388f	0.017360954
202	0xbe49949e	-0.19685599
203	0x3e11aeca	0.14226833
204	0x3da0d8e0	0.078538656
205	0x3d3b9f41	0.045806173
206	0xbcd456e9	-0.025920348
207	0x3d733b36	0.05938264
208	0x3d7bead1	0.061503235
209	0xbe5806ad	-0.21096297
210	0x3d92893e	0.07155083
211	0x3e199394	0.14997703
212	0xbd9efb9b	-0.07762834
213	0xbd08db47	-0.033412244
214	0x3e2aade8	0.16667902
215	0xbe5e078f	-0.21682571
216	0xbe56de71	-0.20983292
217	0xbe4f6b8e	-0.20255873
218	0x3db649cf	0.089007966
219	0xbe5bb214	-0.2145465
220	0x3dba1a03	0.090869926
221	0x3b52066f	0.0032047292
222	0x3d9b79b4	0.075915724
223	0x3e148471	0.14503647
224	0xbd8097f9	-0.062789865
225	0x3be71da9	0.0070530963
226	0xbb3ee558	-0.0029128399
227	0xbd99878d	-0.074965574
228	0x3db473ae	0.08811127
229	0xbe5cee8c	-0.21575373
230	0x3d3efdd7	0.0466288
231	0xbe495ef8	-0.19665134
232	0xbe4e2cdb	-0.20134299
233	0xbd185e3f	-0.037199255
234	0x3c62310d	0.01380564
235	0xbe579b51	-0.21055342
236	0xbd68fe5a	-0.056883194
237	0xbe57d577	-0.21077524
238	0xbe515106	-0.20441064
239	0x3daf3e1d	0.08556769
240	0xbd705f50	-0.058684647
241	0x3e166f10	0.14690804
242	0x3e2962a9	0.16541542
243	0x3df4b6e3	0.119489454
244	0x3cf370b5	0.029716829
245	0xbe5743bf	-0.21021937
246	0x3e13713a	0.14398661
247	0x3e1d1bbf	0.15342616
248	0x3d68dbec	0.05685036
249	0x3d4b4cc3	0.049633753
250	0x3da22fd7	0.07919281
251	0xbd74147b	-0.059589844
252	0x3e1174d9	0.1420473
253	0xbe48c4b9	-0.19606294
254	0xbd567fa9	-0.05236784
255	0x3e05cc45	0.13066204

_impl.layers.1.linear.weight_g f4 [128, 1]
0	0x402c69f1	2.6939662
1	0x401f819b	2.4922855
2	0x4095d8da	4.682721
3	0x40b45b96	5.63618
4	0x4047cdef	3.1219442
5	0x4030d507	2.7630022
6	0x408fb4d5	4.490824
7	0x404e9298	3.2276974
8	0x404bfda0	3.187355
9	0x40378701	2.867615
10	0x40a2d457	5.0884204
11	0x404cc519	3.19953
12	0x40aacf33	5.337793
13	0x40876661	4.2312474
14	0x4056f1dc	3.358512
15	0x40838cf0	4.1109543
16	0x4035b2d1	2.839039
17	0x40f66108	7.6993446
18	0x404cf77a	3.2026048
19	0x40270102	2.6094365
20	0x40ad0329	5.4066358
21	0x40a37223	5.1076827
22	0x40d2a94f	6.5831676
23	0x40c325f0	6.098381
24	0x404a6535	3.1624272
25	0x3ff59a3b	1.9187692
26	0x40f689b5	7.70431
27	0x40c7898e	6.2355413
28	0x40223946	2.5347457
29	0x40928c2b	4.5796103
30	0x4087f5e0	4.248764
31	0x40a41be7	5.128406
32	0x40ad59f1	5.417229
33	0x40de520a	6.9475145
34	0x40321404	2.7824717
35	0x4094a10d	4.6446595
36	0x40e4e1e4	7.1525745
37	0x40891536	4.283839
38	0x404b4b0a	3.176455
39	0x4023f83a	2.5620255
40	0x403deeba	2.9676957
41	0x409dd8d2	4.9327173
42	0x404caf85	3.1982129
43	0x4022eb00	2.5455933
44	0x404b54f4	3.1770601
45	0x409e12cd	4.939795
46	0x407730d6	3.8623557
47	0x40951ecf	4.660011
48	0x4084c4ce	4.149024
49	0x40c3a022	6.1132975
50	0x40a5ed51	5.1852193
51	0x400ddfbb	2.2167804
52	0x40512930	3.268139
53	0x409dbea4	4.9295216
54	0x4028303f	2.6279447
55	0x409f17ba	4.9716463
56	0x40cc23dd	6.379378
57	0x402d315d	2.706138
58	0x40baf379	5.842221
59	0x4078ff69	3.890589
60	0x403af138	2.9209728
61	0x3fe11950	1.758585
62	0x406bf285	3.6866772
63	0x40909c8f	4.519111
64	0x406bf9ed	3.6871293
65	0x4090e0ac	4.527426
66	0x401c6a9e	2.4440074
67	0x4099d7a0	4.8075714
68	0x4016f5cb	2.358752
69	0x41187e18	9.530785
70	0x40bd2855	5.9111733
71	0x4119fb77	9.623893
72	0x404a8259	3.1642058
73	0x4094493c	4.6339397
74	0x40b2680f	5.5752025
75	0x40a3e03e	5.1211233
76	0x405c5250	3.442524
77	0x4069c3b4	3.6525698
78	0x403554bb	2.8332965
79	0x40998233	4.7971435
80	0x403319e8	2.7984562
81	0x40a2399f	5.069534
82	0x4036f136	2.8584723
83	0x40859816	4.174815
84	0x3fff838b	1.9962019
85	0x3ff441c0	1.9082565
86	0x40c1dd66	6.058276
87	0x40983bbe	4.7572927
88	0x407c3c0c	3.941165
89	0x4030bdd6	2.7615867
90	0x40bdd584	5.932314
91	0x409a677d	4.825133
92	0x4069e22a	3.654429
93	0x4077f613	3.8743942
94	0x4035428e	2.8321872
95	0x408dc114	4.429819
96	0x408e50f6	4.447383
97	0x404973ca	3.1476922
98	0x409404c5	4.625582
99	0x409c85a0	4.8913116
100	0x406172e6	3.5226378
101	0x4122d3b0	10.1766815
102	0x40329756	2.7904868
103	0x40b3a436	5.6137953
104	0x40b18114	5.5470066
105	0x405a8110	3.4141273
106	0x40403254	3.0030718
107	0x4018bf7a	2.3866868
108	0x40ee3bf8	7.4448204
109	0x40866476	4.1997633
110	0x4124a310	10.28981
111	0x4048eecf	3.1395757
112	0x4052af29	3.291941
113	0x402b4d5b	2.6765964
114	0x4054c0a1	3.3242571
115	0x40998a01	4.798096
116	0x41062970	8.385117
117	0x4088db35	4.2767587
118	0x40c52e48	6.1618996
119	0x40843e9a	4.132642
120	0x41263202	10.387209
121	0x4097b3c0	4.740692
122	0x40c2dcc4	6.089449
123	0x40942b68	4.6302986
124	0x40cb5b35	6.3548837
125	0x404e177e	3.2201838
126	0x4099fa4c	4.811804
127	0x410264f5	8.149648

_impl.layers.1.linear.bias f4 [128]
0	0xbe4503a5	-0.19239672
1	0x3d84f1b2	0.06491412
2	0xbe431986	-0.19052705
3	0xbe054c45	-0.13017376
4	0x3de67f07	0.11254697
5	0x3dba8309	0.09107024
6	0xbe55768e	-0.20846006
7	0xbe27ff1f	-0.16405915
8	0xbdce2ce4	-0.10067156
9	0xbe9e626b	-0.30934462
10	0x3e1ee9a6	0.15518817
11	0xbdbe638f	-0.09296333
12	0xbe48da47	-0.19614516
13	0x3e2136ff	0.15743636
14	0xbdca92c9	-0.09891278
15	0x3e2546a7	0.16140233
16	0x3dc7a0cf	0.09747469
17	0xbe9ab3b1	-0.3021522
18	0xbdec4ef6	-0.11538498
19	0x3e26295d	0.16226716
20	0xbe925614	-0.28581297
21	0x3e3b738f	0.18305801
22	0xbe1d8b2e	-0.15385124
23	0xbe7e667a	-0.24843779
24	0xbdfd2ea8	-0.123624146
25	0xbe099639	-0.13436212
26	0xbe7ac63e	-0.24489686
27	0xbe67cdf6	-0.22637162
28	0xbde79c15	-0.11309067
29	0xbe1438e8	-0.14474833
30	0x3e19fd76	0.15038094
31	0x3e17546d	0.147783
32	0xbe6d66ba	-0.23183718
33	0xbe85d3f0	-0.26138258
34	0x3de3a30c	0.11115083
35	0xbe55fbc0	-0.20896816
36	0xbe94c817	-0.29058906
37	0xbe37b5a9	-0.17940392
38	0xbe6eb17e	-0.23309895
39	0xbdfdb49e	-0.123879656
40	0xbdffab12	-0.12483801
41	0xbe10fe21	-0.14159442
42	0xbde014fd	-0.10941503
43	0xbe0df64e	-0.13863489
44	0xbcd384b4	-0.025820114
45	0xbe5f77da	-0.21823063
46	0x3e237749	0.15963472
47	0x3e453376	0.19257912
48	0xbe3b979e	-0.18319556
49	0xbe890c15	-0.2676703
50	0xbe3cdb93	-0.18443136
51	0xbe41a7c4	-0.18911654
52	0xbe1ced4f	-0.15324901
53	0x3e4e805b	0.20166151
54	0x3dc6e71b	0.097120486
55	0x3e2f7f1c	0.17138332
56	0xbe9c6ec3	-0.30553254
57	0x3e6578a3	0.224093
58	0xbe90cccb	-0.28281245
59	0x3e453370	0.19257903
60	0x3e14d2c7	0.1453353
61	0x3c651ed1	0.013984398
62	0x3d05978a	0.032615222
63	0xbe299665	-0.16561277
64	0xbe478eb7	-0.19488035
65	0xbe59acb7	-0.21257292
66	0x3e045c8d	0.1292593
67	0x3d30b143	0.0431378
68	0x3df67e38	0.12035793
69	0xbec18df6	-0.3780362
70	0xbe9ac937	-0.3023164
71	0xbeb1b585	-0.347088
72	0xbe1eaded	-0.15496035
73	0x3da711ab	0.08157667
74	0xbe73190c	-0.23740023
75	0x3e285c14	0.16441375
76	0x3e159a0b	0.14609544
77	0x3c8afdcc	0.016966723
78	0x3e2ec9cf	0.17069171
79	0xbe3c2f85	-0.18377502
80	0xbea62ed2	-0.32457596
81	0xbe49218b	-0.19641702
82	0xbbb367ef	-0.0054750363
83	0x3d6bdaea	0.05758182
84	0xbe5cdc47	-0.21568404
85	0xbde08252	-0.109623566
86	0xbe2944f5	-0.16530211
87	0xbe33cb29	-0.17557968
88	0xbe2844cf	-0.16432498
89	0x3dafdf15	0.085874714
90	0xbe7c38aa	-0.2463099
91	0xbe64e432	-0.22352675
92	0xbe56673a	-0.20937815
93	0xbe2910e6	-0.16510352
94	0xbea6284a	-0.32452613
95	0xbe32ffe8	-0.17480433
96	0xbe33bfec	-0.17553681
97	0xbdc778de	-0.097398505
98	0xbe435a17	-0.19077335
99	0xbe7a4bb3	-0.2444294
100	0x3e892132	0.2678314
101	0xbed9c2db	-0.42531475
102	0x3e1a520b	0.1507036
103	0xbe0f0147	-0.13965331
104	0xbe392ba0	-0.18083048
105	0xbe2891d9	-0.16461886
106	0x3d40a038	0.047027797
107	0xbd81bedc	-0.06335232
108	0xbe89248c	-0.26785696
109	0x3dd95a87	0.1061297
110	0xbe7c4be6	-0.24638328
111	0x3e080c94	0.13286048
112	0x3e60ea37	0.21964346
113	0xbd24827d	-0.040163506
114	0x3e3ba78d	0.18325634
115	0x3d386bc0	0.045024633
116	0xbea32262	-0.3186217
117	0x3d4c02f4	0.049807504
118	0x3e1d74b5	0.15376551
119	0x3e96ce69	0.29454353
120	0xbead9157	-0.33899948
121	0xbe5d7279	-0.21625699
122	0xbe62da84	-0.2215367
123	0xbe594178	-0.2121638
124	0xbe7da729	-0.24770798
125	0xbe194fa2	-0.14971784
126	0x3db86093	0.09002795
127	0xbe97e8e8	-0.2966988

_impl.final_layer.linear.weight f4 [1, 128]
0	0x3f53fc9e	0.8280734
1	0xbf8af76b	-1.0856756
2	0x4004de59	2.076071
3	0xc023b09b	-2.5576541
4	0xbf6d2f80	-0.92650604
5	0xbfb82e03	-1.4389042
6	0xbff1e965	-1.8899351
7	0x3f8be1d9	1.0928298
8	0x3f9b980d	1.2155777
9	0x3f6931d5	0.9109166
10	0x3fcc0c09	1.5941173
11	0x3f94a1e5	1.1611906
12	0xbfd5d775	-1.6706377
13	0xbf9eaf60	-1.239727
14	0xbf9e4707	-1.2365426
15	0x3fcfb6ae	1.6227624
16	0xbf87a3ca	-1.059686
17	0xc046e662	-3.1078115
18	0x3f8edf0b	1.1161817
19	0xbf2947bf	-0.661251
20	0xc007ba1c	-2.1207342
21	0x3fc89052	1.5669043
22	0xbff3c8f8	-1.9045706
23	0xc033427f	-2.8009336
24	0x3febb14a	1.8413479
25	0x3f3fe350	0.74956226
26	0xc049a821	-3.1508868
27	0xc00ce0a4	-2.201211
28	0x3f8e9006	1.1137702
29	0x4004cc0e	2.0749545
30	0xbf8643af	-1.0489405
31	0x3fd6a701	1.6769716
32	0xc00d0499	-2.2034056
33	0xc0568b0e	-3.3522372
34	0xbf3f71c9	-0.74783
35	0x3ff9a837	1.950446
36	0xc0566b46	-3.3502975
37	0x3fe4ec90	1.7884693
38	0x3f888a13	1.0667137
39	0xbfa58bc3	-1.2933277
40	0xbfcf345a	-1.6187851
41	0xc012c43f	-2.293228
42	0xbfc132af	-1.5093592
43	0xc0263e1b	-2.5975406
44	0xbf91a6a4	-1.137898
45	0x400e1e93	2.220616
46	0x3fcc4789	1.5959331
47	0x3f9c7563	1.2223324
48	0xbfd9269e	-1.696491
49	0xc031b821	-2.7768633
50	0xc00f13b7	-2.2355783
51	0x3f57e25f	0.8432979
52	0x3f992f13	1.1967491
53	0x3fcd4de3	1.6039394
54	0xbf3d2114	-0.738786
55	0x3fc9e90d	1.5774246
56	0xc024d90e	-2.575748
57	0x40102213	2.2520797
58	0xc0219c24	-2.525155
59	0xbf8d1ea5	-1.1024977
60	0xbf85682c	-1.0422416
61	0xbf6c80ea	-0.9238421
62	0x3fc8543d	1.5650707
63	0x3ff95c5f	1.9481314
64	0xbfc5f449	-1.5465175
65	0x3ff2f06c	1.8979621
66	0xc003504c	-2.051776
67	0x3fba19dc	1.4539142
68	0x401328cb	2.2993648
69	0xc0775808	-3.864748
70	0x4036f97f	2.858978
71	0xc07ad3c5	-3.9191754
72	0x3f891852	1.0710547
73	0x3fbe992c	1.4890494
74	0xc01b68d8	-2.4282742
75	0x3fd7ce7b	1.6859888
76	0xbf72c23e	-0.9482764
77	0x3fdca70d	1.723848
78	0xbf175514	-0.59114194
79	0x40098f3f	2.149368
80	0x3f674f76	0.9035562
81	0xc0025044	-2.036149
82	0xbfa8575a	-1.3151658
83	0x3fce0b73	1.6097244
84	0x3f39a0a2	0.7251073
85	0x3f4baecc	0.79563594
86	0xc02c9c3e	-2.6970363
87	0x40098e27	2.1493013
88	0x400abdc8	2.1678333
89	0xbfbfdf68	-1.4990053
90	0xc02fa4a6	-2.7444243
91	0x400541e1	2.082146
92	0xc0073822	-2.112801
93	0x400f102e	2.2353625
94	0x3f6b39bb	0.91884965
95	0xbff106d8	-1.8830214
96	0xbfe0957c	-1.7545619
97	0x3f9e512b	1.236852
98	0x4001c141	2.0274203
99	0xc015100f	-2.3291051
100	0xbf294ed4	-0.6613591
101	0xc089fdbd	-4.312224
102	0xbf8388e9	-1.0276157
103	0xbfe78835	-1.8088442
104	0xc019ad93	-2.4012191
105	0x3fe78868	1.8088503
106	0xbfc2d9bb	-1.5222696
107	0xbf96cb55	-1.1780802
108	0x4063670a	3.553164
109	0x3fc941cc	1.5723205
110	0xc086003a	-4.1875277
111	0xbf334354	-0.7002461
112	0xbf3a6e75	-0.72824794
113	0x3fc7a07e	1.5595853
114	0xbf361e86	-0.71140325
115	0x3fb73bd2	1.4315131
116	0xc05c305d	-3.4404519
117	0x3fafafd5	1.3725535
118	0x4000f0e4	2.0147028
119	0x4008d159	2.1377776
120	0xc08e8a29	-4.4543653
121	0x4002595c	2.036704
122	0xc02ad485	-2.6692212
123	0x3ffb3da3	1.9628185
124	0x404bcf49	3.1845267
125	0x3f9088f6	1.1291797
126	0x3fb78d08	1.4339914
127	0x406efc6b	3.7341564
