heat_eq_2d/outputs/sigmoid_interior_2000_arch_128x3/heat_network.0.pth (torch, 140446 bytes, 10 tensors)

_impl.layers.0.linear.weight f4 [128, 2]
0.06455613 -0.11785621 0.26048714 0.049976062 -0.09126472 -0.12472008 -0.06666426 0.23302096
0.10275748 0.19492353 -0.012822472 -0.5466071 -0.10388782 -0.1594216 0.42712453 -0.016878983
-0.08904311 0.2914557 -0.074528866 0.17756307 -0.69879276 0.01802328 -0.028610287 -0.29701468
0.6710151 -0.012622724 -0.038446207 -0.17838274 -0.13338076 -0.126181 0.1122561 -0.25777188
-0.027068008 -0.21633047 0.3296742 0.060353875 0.2958532 -0.023290532 0.25052544 -0.020550346
-0.082638636 -0.124689884 -0.024044434 -0.35327002 0.067700185 -0.123699434 -0.08263207 -0.17471308
0.3765015 0.026756817 0.29942256 -0.02968203 0.24861762 -0.02093135 0.33138597 0.017826937
-0.02015376 -0.27706462 -0.1126411 -0.11592759 -0.03592614 -0.19258109 -0.43238333 0.028979274
0.054116942 -0.14456196 1.2916676 0.0014698317 -0.032455854 0.18119153 -0.035046116 -0.2669741
0.065829426 -0.2080519 -0.07556804 0.1330435 0.43139726 0.01637675 -0.07591555 0.16720219
0.066122755 0.2344878 -0.06365609 0.17774728 -0.1256703 -0.14767423 -0.40346342 0.022930354
-0.2878711 0.035055682 -0.14182022 -0.10497746 -0.028941592 -0.21898098 -0.059890676 -0.11217729
0.28744417 -0.01852884 0.36622638 0.019628512 -0.08654652 -0.25469953 -0.16882716 0.1517118
0.3368049 -0.017111616 -0.09712674 0.23613715 0.31170303 0.03312745 0.29083174 -0.018738423
-0.029165326 -0.22904179 0.17175935 0.036281902 -0.09596006 0.12599228 0.22078021 0.047923952
-0.13885306 0.16304897 -0.080906354 0.17268622 0.07854821 0.2092395 -0.08912406 0.19249049
0.18650989 -0.025134506 0.29799792 -0.085289225 -0.03114409 -0.26075798 -0.05023238 0.16559212
-0.12242943 -0.14146245 0.16334842 0.1711422 -0.038485777 0.15993369 1.3480673 0.0022287525
0.17244564 0.04891747 0.14471835 0.20728126 0.28991145 0.01752349 0.21092494 -0.029598204
0.30231217 -0.019948507 0.26899993 0.022318376 -0.13165417 -0.061849643 -0.05002871 0.1812194
0.25359556 -0.019641317 -0.04698604 0.20028313 -0.049495056 0.22833091 0.7347867 0.0061884127
-0.124804966 0.13653772 2.8620815 -0.001899531 0.08313388 0.22603676 -0.08074559 -0.14891738
0.06284897 0.18403947 0.26246053 -0.02714 -0.09135846 0.252616 0.32217088 -0.042905297
0.07058016 -0.25243202 0.2844687 -0.023073444 -0.040049985 0.16206731 0.07332499 0.20527504
0.25053763 0.043514997 -0.0695842 0.22381207 0.11341193 -0.056459483 3.225091 -0.001052043
0.5975262 0.009368166 0.20839632 0.034307033 0.067242265 -0.21133217 -0.08306212 -0.15332192
0.06134708 -0.22660792 0.06645233 0.22315976 0.08599482 0.18874441 -0.021723337 -0.352695
0.39643916 -0.016671063 0.07506442 -0.16446562 0.073416285 0.2235616 -0.21968201 0.058608864
-0.26659432 -0.020899381 0.2958723 0.031401645 -0.22420037 -0.019517336 0.055223957 0.17565173
-0.1870367 -0.12460732 0.30948612 -0.028600069 1.2881252 0.0018133 0.3619645 0.01743906
-0.037064474 0.29966724 0.093746625 0.22300997 -0.02442017 -0.3017121 0.12193374 -0.19494395
0.27069834 -0.026866864 -0.10136951 -0.14242497 0.07213473 -0.22704795 -0.021612057 0.28967735
00000000: 0136 843d 995e f1bd 925e 853e b3b3 4c3d
00000010: ffe8 babd 3e6d ffbd 4687 88bd 0c9d 6e3e
00000020: 8472 d23d 099a 473e 5815 52bc 71ee 0bbf
00000030: 23c3 d4bd 6a3f 23be 11b0 da3e cb45 8abc
00000040: 3c5c b6bd ae39 953e 97a2 98bd 18d3 353e
00000050: 15e4 32bf 8fa5 933c 1f60 eabc 4f12 98be
00000060: a5c7 2b3f 8bcf 4ebc c579 1dbd f7a9 36be
00000070: f794 08be 9835 01be 87e6 e53d adfa 83be
00000080: babd ddbc bc85 5dbe 0fcb a83e a035 773d
00000090: 127a 973e c9cb bebc df44 803e 3359 a8bc
000000a0: 723e a9bd 695d ffbd d5f8 c4bc cfdf b4be
000000b0: 65a6 8a3d 2156 fdbd 013b a9bd fce7 32be
000000c0: cec4 c03e 1d31 db3c ea4d 993e bb27 f3bc
000000d0: 9e95 7e3e 3978 abbc 6cab a93e cc09 923c
000000e0: 8019 a5bc 6adb 8dbe 61b0 e6bd 726b edbd
000000f0: 4a27 13bd fa33 45be 5961 ddbe f165 ed3c
00000100: baa9 5d3d 0d08 14be 5d55 a53f 5ea7 c03a
00000110: 6ef0 04bd 468a 393e 848c 0fbd d4b0 88be
00000120: 94d1 863d 8f0b 55be 6bc3 9abd 8e3c 083e
00000130: 1ae0 dc3e 8928 863c 9d79 9bbd 0d37 2b3e
00000140: 5e6b 873d 921d 703e 205e 82bd 6203 363e
00000150: b7af 00be ea37 17be c292 cebe 70d8 bb3c
00000160: d763 93be 8c96 0f3d 5239 11be 6cfe d6bd
00000170: eb16 edbc 8d3c 60be ed4f 75bd 35bd e5bd
00000180: e22b 933e cbc9 97bc 0682 bb3e f9cb a03c
00000190: 4d3f b1bd fa67 82be 07e1 2cbe 575a 1b3e
000001a0: b171 ac3e a92d 8cbc 62ea c6bd f0cd 713e
000001b0: 8a97 9f3e a6b0 073d e6e7 943e 5281 99bc
000001c0: 1fec eebc ee89 6abe afe1 2f3e 559c 143d
000001d0: b586 c4bd 1f04 013e 3514 623e e84b 443d
000001e0: 7f2f 0ebe 4ff6 263e 3bb2 a5bd a8d4 303e
000001f0: e2dd a03d e142 563e ad86 b6bd 3a1c 453e
00000200: 73fc 3e3e e1e6 cdbc 2f93 983e 1eac aebd
00000210: e421 ffbc 1282 85be 78c0 4dbd fb90 293e
00000220: 48bc fabd 88db 10be cf44 273e e73f 2f3e
00000230: 43a3 1dbd a8c5 233e 788d ac3f 4310 123b
00000240: 9795 303e af5d 483d 0c31 143e 8a41 543e
00000250: 466f 943e 6c8d 8f3c b5fc 573e ef77 f2bc
00000260: a9c8 9a3e 0d6b a3bc 5cba 893e 07d5 b63c
00000270: 5ad0 06be 0d56 7dbd e8ea 4cbd 9491 393e
00000280: 47d7 813e d4e6 a0bc 6f74 40bd 0517 4d3e
00000290: 54bb 4abd 94cf 693e fb1a 3c3f 2bc8 ca3b
000002a0: bf99 ffbd 8bd0 0b3e 582c 3740 aff9 f8ba
000002b0: 1842 aa3d 2e76 673e f25d a5bd cc7d 18be
000002c0: f6b6 803d d874 3c3e 3a61 863e b554 debc
000002d0: 251a bbbd e256 813e 95f3 a43e 77bd 2fbd
000002e0: 558c 903d c53e 81be e2a5 913e 8504 bdbc
000002f0: 740b 24bd f9f4 253e 6a2b 963d 9f33 523e
00000300: 7846 803e c83c 323d 2982 8ebd fe2e 653e
00000310: 8444 e83d 0f42 67bd e467 4e40 b5e4 89ba
00000320: 7af7 183f f07c 193c d865 553e 8885 0c3d
00000330: 50b6 893d 7667 58be 791c aabd 6c00 1dbe
00000340: 1347 7b3d e80b 68be 2918 883d fe83 643e
00000350: 0d1e b03d 3746 413e 24f5 b1bc 7094 b4be
00000360: 13fa ca3e c191 88bc 60bb 993d ad69 28be
00000370: 475b 963d 55ed 643e 52f4 60be d90f 703d
00000380: 0d7f 88be 2e35 abbc 937c 973e 039f 003d
00000390: c894 65be d2e2 9fbc 8432 623d 0cde 333e
000003a0: 8c86 3fbe 1f32 ffbd f774 9e3e b14a eabc
000003b0: 49e1 a43f 40ac ed3a 6953 b93e 5cdc 8e3c
000003c0: ebd0 17bd fc6d 993e 3bfe bf3d ba5c 643e
000003d0: cf0c c8bc 027a 9abe 66b8 f93d 639f 47be
000003e0: f998 8a3e e617 dcbc d19a cfbd dad7 11be
000003f0: 60bb 933d 427f 68be c50b b1bc 9750 943e

_impl.layers.0.linear.weight_g f4 [128, 1]
3.446418 2.991409 3.0527632 2.848841 3.3272934 2.57416 3.0620165 3.0841286
2.957814 2.9318206 3.1826 2.6338394 2.9699724 2.554009 3.7468188 3.1269782
2.5742712 3.0180671 2.9972432 3.1160865 2.9810452 2.5277402 3.507468 2.6940176
2.9880047 3.1181421 3.0612347 2.9880304 2.4416966 3.6231675 2.5348704 3.0924683
3.0306358 3.0355182 2.7907007 2.5209496 2.9214013 3.0913534 2.98629 3.0466354
2.74939 2.9190795 3.4259124 3.3008173 3.1941597 3.8312283 2.5074043 2.7917452
3.0797276 3.111967 2.7281337 3.8830388 3.04566 3.0514085 3.0381606 3.0840511
2.5907376 3.028406 3.3461199 3.0469255 3.373251 3.0199528 2.9633653 3.007215
3.0118635 3.0318382 2.5102336 2.924653 3.2886467 3.8655832 2.7857904 3.0276036
3.010574 3.7372139 3.0108352 3.0706053 3.1324174 3.0688207 3.7841268 2.8480062
3.0765893 2.8364391 2.8994563 2.9034667 3.5717444 3.06232 2.8866735 2.8581493
2.8721654 3.090112 2.9498775 3.1201417 2.912642 3.1451807 2.7821536 2.8484855
3.0161214 2.9138381 3.2165966 3.043926 2.996658 3.0323024 2.929049 2.83325
2.8274732 2.770819 3.2060566 2.6798103 3.0995684 3.2309713 2.8471959 3.562727
3.1055791 3.049058 3.0744765 2.8426816 3.891038 3.0794034 3.0262785 3.0947123
2.8584757 3.0910015 2.504401 3.6555808 3.1024137 3.0658972 2.928601 2.7696462
00000000: 1d92 5c40 3f73 3f40 7960 4340 6953 3640
00000010: 60f2 5440 0abf 2440 14f8 4340 5d62 4540
00000020: d34c 3d40 f3a2 3b40 b8af 4b40 d390 2840
00000030: 0714 3e40 e274 2340 e1cb 6f40 6920 4840
00000040: dcc0 2440 0328 4140 d5d2 3f40 f66d 4740
00000050: 72c9 3e40 7fc6 2140 5b7a 6040 c96a 2c40
00000060: 783b 3f40 a48f 4740 45eb 4340 e43b 3f40
00000070: c244 1c40 fae1 6740 513b 2240 00eb 4540
00000080: f0f5 4140 ee45 4240 d79a 3240 3d57 2140
00000090: 3df8 3a40 bcd8 4540 601f 3f40 13fc 4240
000000a0: 01f6 2f40 33d2 3a40 2642 5b40 9740 5340
000000b0: 1d6d 4c40 d832 7540 5079 2040 f4ab 3240
000000c0: 421a 4540 782a 4740 be99 2e40 b583 7840
000000d0: 18ec 4240 474a 4340 3971 4240 1861 4540
000000e0: a5ce 2540 67d1 4140 d426 5640 d400 4340
000000f0: 58e3 5740 e846 4140 c7a7 3d40 3676 4040
00000100: 5fc2 4040 a309 4240 aba7 2040 842d 3b40
00000110: 3079 5240 b765 7740 644a 3240 42c4 4140
00000120: 3fad 4040 832e 6f40 86b1 4040 cc84 4440
00000130: 8779 4840 8f67 4440 222f 7240 bc45 3640
00000140: d7e6 4440 3888 3540 b190 3940 66d2 3940
00000150: 7697 6440 0dfd 4340 42bf 3840 ebeb 3640
00000160: 8fd1 3740 65c4 4540 cbca 3c40 67b0 4740
00000170: ba68 3a40 a44a 4940 ce0e 3240 964d 3640
00000180: 2208 4140 537c 3a40 b8dc 4d40 afcf 4240
00000190: 3fc9 3f40 3e11 4240 8a75 3b40 f853 3540
000001a0: 52f5 3440 1955 3140 0830 4d40 0382 2b40
000001b0: 545f 4640 3cc8 4e40 7538 3640 b803 6440
000001c0: cfc1 4640 c423 4340 39c4 4440 7fee 3540
000001d0: c406 7940 f214 4540 8cae 4140 c40f 4640
000001e0: 44f1 3640 f8d2 4540 1b48 2040 09f5 6940
000001f0: f28d 4640 a937 4440 336e 3b40 e241 3140

_impl.layers.0.linear.bias f4 [128]
-0.42845565 0.9389013 -0.27259904 0.48757613 -0.4321242 0.7435714 -0.13640417 1.0886781
0.5472776 0.23498699 -0.9149612 0.69927126 1.0145216 0.2912633 -0.49001074 -0.59868884
0.5355042 0.9692628 1.0199945 1.093507 -0.22996153 0.59948456 -0.44260687 -0.09956634
1.0380092 1.088147 1.0430077 1.0405993 0.44850007 -0.39492646 0.26110995 -0.92829126
-0.64777535 1.0528806 0.6369649 0.45780635 -0.7530559 0.029728984 1.0450838 0.25482386
-0.7114216 0.3842944 -0.29700062 -0.97799075 -1.1363314 -0.70912343 0.36807084 -0.12185458
1.0816861 1.1270149 0.2502469 -0.45849848 1.0659041 0.35570723 1.0542257 1.077012
0.5408096 0.9199363 -0.1629826 0.92578167 -0.26795232 0.20716235 -0.617819 0.2139043
0.92501324 0.78318274 0.4686419 0.49093413 -0.3754004 0.11656283 0.5220294 1.0611724
0.79805267 -0.2019691 1.0534945 0.97929597 1.1111068 1.0868587 -1.1688914 0.4966959
1.0706165 0.5697457 0.67350805 0.9809459 -0.2889425 1.0633589 -0.5992766 -0.060067084
-0.63605094 1.0615308 0.4062923 1.0580226 -0.8066757 1.1149758 0.4880297 -0.603051
0.9634741 0.483902 0.47520944 1.0702983 1.0463014 0.99203426 -0.748798 -0.10305128
-0.81521285 -0.6746572 -0.5354615 0.84777486 1.0973887 -0.55855876 -0.66662437 -1.3451577
-1.1005356 1.0656708 -1.1068277 -0.6801521 -0.8268933 1.0697557 1.059498 1.11648
0.8932371 -0.57261014 0.5097836 -0.35526213 1.0713103 -0.23579319 -0.75466365 0.947262
00000000: 8a5e dbbe d65b 703f 1a92 8bbe 94a3 f93e
00000010: 623f ddbe b25a 3e3f 89ad 0bbe ce59 8b3f
00000020: 631a 0c3f 6ea0 703e e63a 6abf 7103 333f
00000030: d8db 813f 7720 953e b0e2 fabe ac43 19bf
00000040: ce16 093f 9b21 783f 2e8f 823f 0af8 8b3f
00000050: 097b 6bbe d277 193f 5e9d e2be 70e9 cbbd
00000060: 7cdd 843f 6748 8b3f 4781 853f 5c32 853f
00000070: cda1 e53e cd33 cabe 34b0 853e 7fa4 6dbf
00000080: 9bd4 25bf cbc4 863f 2210 233f 9865 ea3e
00000090: 45c8 40bf 338a f33c 4ec5 853f 4678 823e
000000a0: ba1f 36bf 3cc2 c43e 7710 98be 9a5d 7abf
000000b0: 4f73 91bf 1d89 35bf c873 bc3e e58e f9bd
000000c0: b174 8a3f 0642 903f 5d20 803e 50c0 eabe
000000d0: 8c6f 883f 421f b63e def0 863f 87db 893f
000000e0: 7f72 0a3f f280 6b3f e9e4 26be 0700 6d3f
000000f0: 0c31 89be 5e22 543e 6329 1ebf bb09 5b3e
00000100: abcd 6c3f aa7e 483f d5f1 ef3e b85b fb3e
00000110: 7b34 c0be 7eb8 ee3d b8a3 053f 7fd4 873f
00000120: 2e4d 4c3f fdd0 4ebe e8d8 863f 24b3 7a3f
00000130: bf38 8e3f 301e 8b3f 3c9e 95bf ed4e fe3e
00000140: f609 893f dbda 113f 066b 2c3f 451f 7b3f
00000150: 45f0 93be 251c 883f 316a 19bf e708 76bd
00000160: 3cd4 22bf 3ee0 873f 8b05 d03e 496d 873f
00000170: 4c82 4ebf 87b7 8e3f 07df f93e 8d61 1abf
00000180: 3da6 763f 01c2 f73e a74e f33e 89ff 883f
00000190: 34ed 853f f5f5 7d3f 3ab1 3fbf 8d0c d3bd
000001a0: cab1 50bf 56b6 2cbf 0114 09bf c607 593f
000001b0: 3c77 8c3f b5fd 0ebf e5a7 2abf 212e acbf
000001c0: 5ade 8cbf e767 883f 88ac 8dbf 731e 2ebf
000001d0: 48af 53bf c1ed 883f a19d 873f d1e8 8e3f
000001e0: 30ab 643f 9496 12bf 2e81 023f ebe4 b5be
000001f0: b220 893f c573 71be a331 41bf c37f 723f

_impl.layers.1.linear.weight f4 [128, 128]
-0.056193884 -0.1573742 0.0931232 0.09948065 -0.02511291 0.07339105 0.10103007 -0.1699113
0.10180742 0.080134735 0.28781378 0.057817135 -0.19329149 0.07657061 0.12303438 -0.02902329
0.06476537 -0.16390353 -0.17693506 -0.18461008 0.101830706 0.053076636 -0.050811 0.08381249
-0.1613119 -0.17603764 -0.1899058 -0.14628567 0.065047584 0.09923262 0.07731281 0.26880664
-0.03647959 -0.1760506 0.10221377 0.07301311 -0.040726062 0.09953191 -0.17397726 0.071872525
-0.039651062 0.10067013 0.088719174 0.25761262 0.26606646 0.15052556 0.0764711 0.100793414
-0.18775597 -0.14826247 0.08786982 0.11128499 -0.1937296 0.09372267 -0.14465693 -0.17372824
0.089175396 -0.13988261 0.103219636 -0.14006218 0.08229575 0.07447587 -0.031948566 0.08840539
-0.16775687 -0.12394645 0.088917434 0.10300682 0.11706039 -0.07340102 0.09094619 -0.2080544
-0.12486164 -0.03068631 -0.14988512 -0.15922096 -0.16046791 -0.15747409 0.123328544 0.071306735
-0.15454064 0.08911853 0.09461906 -0.1962684 0.11610945 -0.2111736 -0.017524108 0.093064725
-0.033069633 -0.17522998 0.10321585 -0.14969268 -0.01264057 -0.18598452 0.09904641 -0.016573716
-0.12886089 0.09589675 -0.11692472 -0.19779672 -0.15640509 -0.15931574 -0.030872138 0.07186959
-0.03279862 -0.023066856 -0.047441103 0.055940196 -0.20516445 -0.056720767 -0.03672407 0.20924832
0.25390506 -0.1604074 0.23543166 -0.045865767 0.14638446 -0.15908708 -0.20709579 -0.14955127
0.09739705 -0.039368365 0.08330096 -0.07472143 -0.14235139 0.098495014 -0.02607806 0.076953724
0.03852601 -0.13518007 0.07844178 0.036689244 0.055740777 0.0028491186 0.06858797 -0.17127158
0.029064683 0.047998175 0.25099635 0.0075034276 -0.16505556 0.03326106 0.09798619 0.05938923
0.018140087 -0.13248527 -0.16112038 -0.16779517 0.07324599 0.006256567 0.039276183 0.054628067
-0.16481313 -0.16097839 -0.15824442 -0.15831272 0.022349123 0.08752095 0.03321622 0.25138366
0.057758734 -0.17499325 0.026820846 0.023475366 0.07205343 0.06851542 -0.16801316 0.052448362
0.07746286 0.04455825 0.08307001 0.25922725 0.2442012 0.11417947 0.026010498 0.06881973
-0.16931178 -0.16816184 0.032751493 0.10892076 -0.16837788 0.044033222 -0.15523612 -0.16599439
0.016626012 -0.12876537 0.083784826 -0.12678592 0.0886974 0.056981612 0.07073097 0.057091657
-0.14063805 -0.12528566 0.019583361 0.040132284 0.08662219 -0.0066855163 0.038687415 -0.17054053
-0.1116187 0.039489154 -0.159907 -0.14387928 -0.17068785 -0.16118059 0.14313786 0.035575643
-0.16653645 0.03321685 0.019582482 -0.16254939 0.09011723 -0.17132641 0.06797113 0.05964854
0.07013446 -0.15690663 0.040933337 -0.14953178 0.08161295 -0.17295834 0.035892714 0.06644957
-0.13862489 0.032401245 -0.08898195 -0.17605701 -0.17263097 -0.13930857 0.07207321 0.06142494
0.076363824 0.076674744 0.065461345 -0.0041338243 -0.1803002 0.054372974 0.07452068 0.1959118
0.22498676 -0.15176715 0.21755676 0.07268001 0.12323457 -0.1649804 -0.17311305 -0.1673994
-0.000581892 0.06894843 0.01711655 0.03745677 -0.1635302 0.0746864 0.07340691 0.00090953585
00000000: 8f2b 66bd b426 21be 60b7 be3d 83bc cb3d
00000010: 97b9 cdbc 0c4e 963d dae8 ce3d 3afd 2dbe
00000020: 6980 d03d ae1d a43d 545c 933e a9d1 6c3d
00000030: 34ee 45be 0dd1 9c3d 73f9 fb3d 40c2 edbc
00000040: b5a3 843d 54d6 27be 772e 35be 6d0a 3dbe
00000050: 9e8c d03d e366 593d 321f 50bd e2a5 ab3d
00000060: f22e 25be 3643 34be ab76 42be e9cb 15be
00000070: ab37 853d 793a cb3d 2e56 9e3d 06a1 893e
00000080: 9f6b 15bd 9c46 34be 7455 d13d e687 953d
00000090: 5fd0 26bd 63d7 cb3d 1827 32be e731 933d
000000a0: 2769 22bd 242c ce3d 66b2 b53d cde5 833e
000000b0: dd39 883e 5f23 1a3e e19c 9c3d c76c ce3d
000000c0: 1a43 40be 1ed2 17be 18f5 b33d 63e9 e33d
000000d0: 0d61 46be acf1 bf3d f220 14be d1e5 31be
000000e0: 97a1 b63d 633d 0fbe d164 d33d 766c 0fbe
000000f0: ad8a a83d ce86 983d 80dc 02bd e30d b53d
00000100: 75c8 2bbe a3d7 fdbd 581a b63d 3df5 d23d
00000110: 5cbd ef3d 4653 96bd ff41 ba3d 360c 55be
00000120: 76b7 ffbd db61 fbbc 7c7b 19be d20a 23be
00000130: b351 24be e340 21be ad93 fc3d 4409 923d
00000140: e73f 1ebe c783 b63d a3c7 c13d 95fa 48be
00000150: cbca ed3d e43d 58be b88e 8fbc b898 be3d
00000160: 0674 07bd 7d6f 33be d562 d33d 0a49 19be
00000170: 651a 4fbc ba72 3ebe d8d8 ca3d 9ac5 87bc
00000180: 1cf4 03be 8465 c43d 3a76 efbd 398b 4abe
00000190: a828 20be aa23 23be 91e7 fcbc 5d30 933d
000001a0: d957 06bd b4f6 bcbc 9a51 42bd 8c21 653d
000001b0: a116 52be 0954 68bd fa6b 16bd 3145 563e
000001c0: d8ff 813e d641 24be ff14 713e bedd 3bbd
000001d0: cfe5 153e b9e7 22be eb10 54be f823 19be
000001e0: 1b78 c73d b940 21bd b299 aa3d 8d07 99bd
000001f0: 90c4 11be c1b7 c93d a8a1 d5bc ea99 9d3d
00000200: 73cd 1d3d a56c 0abe 15a6 a03d 7647 163d
00000210: 7150 643d 47b8 3a3b da77 8c3d d161 2fbe
00000220: 0f19 ee3c bc99 443d 9882 803e 50df f53b
00000230: 5304 29be c03c 083d fcac c83d 1f42 733d
00000240: 859a 943c 38aa 07be befc 24be 7fd2 2bbe
00000250: fe01 963d e303 cd3b 10e0 203d aec1 5f3d
00000260: c6c4 28be 85d7 24be d30a 22be bb1c 22be
00000270: 8215 b73c 2f3e b33d bb0d 083d 5cb5 803e
00000280: 6c94 6c3d 6e31 33be 64b7 db3c 694f c03c
00000290: c090 933d d051 8c3d a40b 2cbe 18d4 563d
000002a0: d9a4 9e3d b682 363d 9c20 aa3d 6fb9 843e
000002b0: e10f 7a3e edd6 e93d f813 d53c 5cf1 8c3d
000002c0: 1160 2dbe 9e32 2cbe 6e26 063d d911 df3d
000002d0: 406b 2cbe 2e5c 343d 38f6 1ebe 6ffa 29be
000002e0: 4633 883c 12db 03be 6197 ab3d 2bd4 01be
000002f0: fca6 b53d 8d65 693d 66db 903d f1d8 693d
00000300: 6c03 10be e24a 00be 496d a03c c061 243d
00000310: fa66 b13d 2d12 dbbb b276 1e3d 2da2 2ebe
00000320: 5898 e4bd 61bf 213d a9be 23be 1755 13be
00000330: ccc8 2ebe 860c 25be bb92 123e c4b7 113d
00000340: 8888 2abe 640e 083d 716b a03c 5973 26be
00000350: 628f b83d 3170 2fbe 7334 8b3d 0752 743d
00000360: a8a2 8f3d 22ac 20be b7a9 273d dc1e 19be
00000370: b124 a73d fe1b 31be 3d04 133d b616 883d
00000380: aff3 0dbe 2bb7 043d 2b3c b6bd 4a48 34be
00000390: 2cc6 30be e8a6 0ebe 1e9b 933d b898 7b3d
000003a0: a364 9c3d a607 9d3d 9910 863d 0875 87bb
000003b0: 9ea0 38be 32b6 5e3d 4c9e 983d 1a9d 483e
000003c0: ee62 663e d968 1bbe 33c7 5e3e 42d9 943d
000003d0: 6862 fc3d 9ff0 28be 8c44 31be c06a 2bbe
000003e0: 1c8a 18ba d634 8d3d 0238 8c3c 456c 193d
000003f0: 7674 27be 2ff5 983d 5d56 963d eb6d 6e3a

_impl.layers.1.linear.weight_g f4 [128, 1]
2.1401021 2.419566 1.8192326 3.0023525 1.7747376 3.0540316 2.7250803 1.9205803
2.844805 2.530518 7.351873 2.176084 2.1980615 2.8810604 2.4704595 2.7556903
4.800493 2.1095457 2.3437831 1.7709583 3.1033416 2.9580512 2.7122636 1.4696612
2.7071285 2.4660826 2.8017302 3.2788405 2.156077 3.3539214 2.6267323 2.9345753
1.4414514 3.001286 2.9671454 2.7909286 3.085807 2.2621195 2.3261285 2.7628846
2.2444236 2.9169354 2.697474 2.4497087 2.2602863 2.8061569 2.591914 3.4750679
5.011188 3.2616813 2.9073792 2.3376942 2.6407597 1.9102094 2.9215713 2.2703953
2.0417638 2.9348512 1.9926852 2.569544 2.7671692 3.937308 2.230677 2.7740715
1.3632817 1.3951739 2.8457828 2.2762303 1.4661738 2.5604146 2.5110254 2.916764
2.8145742 2.9794438 2.2575104 3.5511832 4.0222216 2.924162 2.375269 3.6603088
2.7560167 4.332457 2.452972 3.6504982 2.1316583 1.9144723 1.3766885 3.1296709
2.469942 3.5601666 2.3879955 1.43492 2.6162553 3.1082509 2.3560138 3.4076488
2.3037343 3.6679277 2.5904005 2.3385017 3.0950994 3.91624 2.8511212 2.6418457
2.2668073 2.5738044 3.0288284 2.663773 4.5049567 2.8301256 1.9433436 2.6792216
2.6757395 3.0434937 1.8148017 1.9068125 2.5720017 2.482592 1.4363743 2.4610844
2.1817653 2.6750984 2.7462583 3.1677036 7.386213 2.5229208 2.917235 2.1664011
00000000: 6ff7 0840 2bda 1a40 9ddc e83f 8b26 4040
00000010: 9a2a e33f 4175 4340 b767 2e40 93d5 f53f
00000020: 4911 3640 02f4 2140 8b42 eb40 f644 0b40
00000030: 0aad 0c40 4b63 3840 021c 1e40 3b5d 3040
00000040: a39d 9940 cc02 0740 8b00 1640 c3ae e23f
00000050: 269d 4640 b650 3d40 ba95 2d40 dc1d bc3f
00000060: 9841 2d40 4cd4 1d40 8c4f 3340 86d8 5140
00000070: 2afd 0940 a6a6 5640 621c 2840 15d0 3b40
00000080: 7b81 b83f 1215 4040 b6e5 3d40 939e 3240
00000090: dd7d 4540 91c6 1040 4adf 1440 1ad3 3040
000000a0: a3a4 0f40 12af 3a40 6aa3 2c40 07c8 1c40
000000b0: 88a8 1040 1398 3340 ebe1 2540 8367 5e40
000000c0: a75b a040 63bf 5040 8012 3a40 c89c 1540
000000d0: 3502 2940 be81 f43f 06fb 3a40 284e 1140
000000e0: 42ac 0240 9ad4 3b40 4f10 ff3f 6973 2440
000000f0: 4d19 3140 dbfc 7b40 69c3 0e40 638a 3140
00000100: 0480 ae3f 0f95 b23f 4e21 3640 c2ad 1140
00000110: 95ab bb3f d5dd 2340 a4b4 2040 43ac 3a40
00000120: fc21 3440 35af 3e40 0d7b 1040 9646 6340
00000130: 0ab6 8040 7825 3b40 6804 1840 8042 6a40
00000140: 9462 3040 7da3 8a40 7efd 1c40 c3a1 6940
00000150: 176d 0840 6e0d f53f 5437 b03f 874c 4840
00000160: 8813 1e40 c5d9 6340 ebd4 1840 75ab b73f
00000170: ba70 2740 95ed 4640 eec8 1640 eb16 5a40
00000180: 6270 1340 54bf 6a40 1fc9 2540 03aa 1540
00000190: 1c16 4640 ada3 7a40 c578 3640 0014 2940
000001a0: 5f13 1140 36b9 2440 53d8 4140 427b 2a40
000001b0: 9b28 9040 c720 3540 7cbf f83f 5e78 2b40
000001c0: 513f 2b40 9ac8 4240 6c4b e83f 6f12 f43f
000001d0: ad9b 2440 cae2 1e40 1ddb b73f 6882 1d40
000001e0: 0ba2 0b40 d034 2b40 b2c2 2f40 a8bb 4a40
000001f0: db5b ec40 8977 2140 fab3 3a40 51a6 0a40

_impl.layers.1.linear.bias f4 [128]
0.031718154 0.09788518 -0.03236988 -0.10169809 0.080130585 -0.08562519 -0.103107326 -0.08527954
0.012279153 -0.003506913 0.12352357 0.09700324 -0.06569427 -0.09556298 0.032494437 -0.0715422
0.18928564 0.094753675 -0.001597986 -0.013315719 0.070814386 -0.15973464 -0.05117937 0.043302584
-0.07200148 -0.059579022 -0.07757395 -0.11145716 -0.028858332 0.050595593 -0.07078953 -0.16012032
0.034095943 -0.06812492 -0.12029285 -0.06926933 -0.14119229 0.049172435 -0.0614075 -0.15290034
0.029520746 -0.10871049 0.034978375 -0.056509826 -0.07151619 -0.07517417 -0.06626331 -0.03164972
0.10645289 0.08950434 -0.16567148 0.093568906 -0.09553086 0.05231181 -0.12699856 -0.05175874
0.108273216 -0.0843322 0.18885803 -0.11752906 -0.0992728 0.15375656 -0.053468496 -0.092709824
0.024231011 0.03621862 0.053248744 0.05555592 -0.26630762 -0.051123988 -0.06428728 -0.1655471
-0.062476713 -0.079711944 -0.046962135 0.14120618 0.19217883 -0.08492048 -0.09761757 -0.12467343
-0.07264439 0.09883068 0.0023543078 -0.1975222 -0.08094049 0.07571354 0.04325259 -0.16312179
-0.06925623 -0.12476069 0.11115696 0.037486542 -0.11835169 0.2684989 0.11512496 -0.059424866
0.10730113 -0.18697357 -0.06882991 -0.070988245 -0.11618239 0.13159715 0.27331215 -0.09861578
0.20587508 0.016586155 -0.1204572 0.14031284 0.032991357 0.053344656 -0.038723134 -0.074585564
-0.060319107 -0.12228026 0.047571007 0.07769622 -0.06406776 -0.009702012 0.060978997 -0.038694832
0.0372281 -0.06057698 0.24666093 -0.12184477 0.21130097 -0.13035056 -0.13028261 -0.005078923
00000000: e5ea 013d 0678 c83d 4796 04bd 1747 d0bd
00000010: 811b a43d 425c afbd ef29 d3bd 0aa7 aebd
00000020: 802e 493c 3dd4 65bb edf9 fc3d a2a9 c63d
00000030: b88a 86bd 86b6 c3bd e318 053d b884 92bd
00000040: 18d4 413e 370e c23d 8373 d1ba 2c2a 5abc
00000050: 2207 913d 7a91 23be 76a1 51bd 0d5e 313d
00000060: 8375 93bd 2209 74bd 17df 9ebd a743 e4bd
00000070: 4f68 ecbc 533d 4f3d 1afa 90bd 95f6 23be
00000080: 30a8 0b3d 1485 8bbd 195c f6bd 14dd 8dbd
00000090: b694 10be 0969 493d 6e86 7bbd e891 1cbe
000000a0: 7ed5 f13c 9ba3 debd 7c45 0f3d d976 67bd
000000b0: 1577 92bd eaf4 99bd 0fb5 87bd 23a3 01bd
000000c0: f903 da3d 0d4e b73d c9a5 29be 0ea1 bf3d
000000d0: afa5 c3bd e944 563d e90b 02be f900 54bd
000000e0: 59be dd3d 5cb6 acbd 0064 413e 13b3 f0bd
000000f0: 8a4f cbbd 5c72 1d3e c801 5bbd a6de bdbd
00000100: 1d80 c63c fa59 143d 5b1b 5a3d 9b8e 633d
00000110: 7959 88be 6367 51bd 0da9 83bd 2e85 29be
00000120: 95e7 7fbd 0440 a3bd 5e5b 40bd 5a98 103e
00000130: 87ca 443e caea adbd b8eb c7bd c954 ffbd
00000140: 95c6 94bd bd67 ca3d bb4a 1a3b 4243 4abe
00000150: 21c4 a5bd b30f 9b3d a129 313d 6609 27be
00000160: 36d6 8dbd 8882 ffbd 43a6 e33d 7d8b 193d
00000170: 5f62 f2bd b078 893e a3c6 eb3d 7d67 73bd
00000180: b2c0 db3d 0076 3fbe b2f6 8cbd 4962 91bd
00000190: 08f1 edbd 67c1 063e 92ef 8b3e 12f7 c9bd
000001a0: ebd0 523e b0df 873c 44b2 f6bd 2bae 0f3e
000001b0: f221 073d ed7f 5a3d 269c 1ebd 51c0 98bd
000001c0: 2b11 77bd 136e fabd d1d9 423d 321f 9f3d
000001d0: f535 83bd 30f5 1ebc 1dc5 793d 797e 1ebd
000001e0: 7e7c 183d 911f 78bd af94 7c3e c089 f9bd
000001f0: 485f 583e 9e7a 05be ce68 05be 186d a6bb

_impl.layers.2.linear.weight f4 [128, 128]
-0.0638791 -0.0872094 -0.01852485 0.07912912 -0.11282484 0.081500106 0.074906886 0.05054446
-0.05197378 0.12194514 0.1797662 -0.12311092 0.06768648 0.079847544 -0.06855102 0.083324924
0.19898957 -0.11268754 0.14327632 0.007634917 0.15036123 0.08167844 0.06764513 -0.060632527
0.08009037 0.07175516 0.081495464 0.08325195 0.06014909 -0.03774 0.07520831 0.08198368
-0.05228525 0.08141186 -0.22864805 0.07679701 0.08453228 -0.07911118 0.06973046 0.08114622
-0.05994488 0.08033129 0.17571738 0.06763559 0.07464056 0.08074267 0.07492792 0.08425693
0.17977327 0.13998973 0.082265995 -0.12204578 0.07334691 -0.11253439 0.07952242 0.05788974
-0.12420332 0.079005346 -0.07285299 0.069468394 0.075082734 0.16099095 0.062130827 0.0819331
-0.050952382 -0.06069967 -0.056123015 -0.081109464 -2.750911e-05 0.0633073 0.07663694 0.081358306
0.07082973 0.08309569 0.055341393 0.17403357 0.19816923 0.079730526 0.06021046 -0.3011626
0.084365845 0.13909613 0.16063955 -0.32436696 0.07097742 -0.123904236 -0.04354094 0.08374848
0.078908905 -0.2716701 -0.12540911 -0.05433104 0.074959844 -0.095071726 -0.1253726 0.08321753
-0.1202665 -0.3372199 0.07240696 0.0747997 0.08130814 0.14738604 -0.10567546 0.07067756
-0.08334761 0.17132352 0.0797201 -0.13788906 -0.019830354 0.15101123 0.15332678 0.06972365
0.076149575 0.08337922 -0.09554278 -0.052545443 0.07683077 0.15869676 -0.04864144 0.049270194
-0.06996879 0.07475448 -0.09200089 0.08300061 0.20583613 0.07003126 0.07844296 -0.04416063
-0.16784295 -0.19029121 -0.09734938 0.080049045 -0.058450814 0.088786915 0.0570208 0.02823895
-0.19492915 0.19046094 0.24403283 -0.061780155 0.035762712 0.07087409 -0.1712811 0.06675915
0.20194073 -0.052061528 0.22005716 -0.10512321 0.18686274 0.08282289 0.045340694 -0.029639069
0.06099104 0.041904636 0.067022786 0.11019303 0.096087664 -0.1892112 0.05276495 0.08123263
-0.024169596 0.08089359 -0.09240642 0.06340345 0.09658708 -0.18422014 0.03753001 0.0668873
-0.18231665 0.07618852 0.21783552 0.03692263 0.04322387 0.068413906 0.04925865 0.13374227
0.17968641 0.22569694 0.078132115 -0.062545754 0.049810234 -0.03971437 0.078300305 0.021058574
-0.056798007 0.07470211 -0.030378863 0.041149896 0.06065465 0.12455784 0.02885538 0.06510647
-0.028683962 -0.031835012 -0.18144466 -0.1590798 -9.021095e-05 0.03092995 0.047474537 0.078606516
0.05684299 0.082090475 0.012959342 0.10473122 0.16933502 0.07448565 0.020812519 -0.12445143
0.06595683 0.13504483 0.22326556 -0.12093215 0.043265153 -0.06507945 -0.027936814 0.09947886
0.048197933 -0.0971727 -0.07180654 -0.025579996 0.050577015 -0.045968678 -0.065469794 0.121393554
-0.06982935 -0.123021334 0.046410263 0.042190243 0.09162599 0.11535436 -0.03718176 0.046392765
-0.039904386 0.22683439 0.08249758 -0.07210466 -0.19083261 0.21790674 0.15423551 0.046763677
0.05595726 0.0900222 -0.031445768 -0.104820006 0.049874105 0.23113407 -0.028471481 7.710575e-05
-0.17788637 0.05333193 -0.04480448 0.10339796 0.26380286 0.039511755 0.07320348 -0.12674783
00000000: 0cd3 82bd d89a b2bd 6dc1 97bc 730e a23d
00000010: b610 e7bd 87e9 a63d c868 993d b507 4f3d
00000020: 75e2 54bd 60be f93d a114 383e 9421 fcbd
00000030: 369f 8a3d 1c87 a33d 7a64 8cbd 42a6 aa3d
00000040: ecc3 4b3e bac8 e6bd 07b7 123e 532e fa3b
00000050: 4bf8 193e 0747 a73d 8889 8a3d d059 78bd
00000060: 6b06 a43d 5ff4 923d 18e7 a63d 0080 aa3d
00000070: e45e 763d 4295 1abd d006 9a3d 0fe7 a73d
00000080: 0f29 56bd 43bb a63d b722 6abe c047 9d3d
00000090: 431f ad3d 0b05 a2bd d8ce 8e3d fd2f a63d
000000a0: c388 75bd bb84 a43d 42ef 333e 8784 8a3d
000000b0: 26dd 983d 6a5c a53d cf73 993d e68e ac3d
000000c0: 7c16 383e 7859 0f3e 137b a83d 23f3 f9bd
000000d0: e836 963d 6e78 e6bd a7dc a23d cb1d 6d3d
000000e0: 4f5e febd 8ecd a13d f333 95bd 7245 8e3d
000000f0: fac4 993d d0da 243e e57c 7e3d 8bcc a73d
00000100: 72b3 50bd 38a0 78bd 3fe1 65bd b81c a6bd
00000110: 5dc3 e6b7 42a7 813d d4f3 9c3d 2f9f a63d
00000120: 2d0f 913d 132e aa3d a8ad 623d db35 323e
00000130: e0ec 4a3e c249 a33d 3e9f 763d fc31 9abe
00000140: 00c8 ac3d 376f 0e3e b27e 243e 6d13 a6be
00000150: 9c5c 913d 81c1 fdbd fc57 32bd 5384 ab3d
00000160: fe9a a13d 5818 8bbe 3f6b 00be 398a 5ebd
00000170: 8c84 993d f7b4 c2bd ad61 00be f46d aa3d
00000180: 484e f6bd 16a8 acbe 1a4a 943d 9630 993d
00000190: e284 a63d 5eec 163e 606c d8bd 66bf 903d
000001a0: 27b2 aabd 6f6f 2f3e 4b44 a33d ca32 0dbe
000001b0: 4473 a2bc b0a2 1a3e b201 1d3e 46cb 8e3d
000001c0: 4ff4 9b3d b9c2 aa3d efab c3bd e439 57bd
000001d0: 7359 9d3d 6781 223e 3f3c 47bd 8bcf 493d
000001e0: cc4b 8fbd e018 993d f66a bcbd 39fc a93d
000001f0: b5c6 523e 8d6c 8f3d b4a6 a03d c7e1 34bd
00000200: 06df 2bbe b3db 42be 1d5f c7bd c1f0 a33d
00000210: 1f6a 6fbd ead5 b53d a48e 693d 5f55 e73c
00000220: 829b 47be 3108 433e bee3 793e 300d 7dbd
00000230: ec7b 123d 6f26 913d 5064 2fbe 05b9 883d
00000240: 8dc9 4e3e 783e 55bd aa56 613e d64a d7bd
00000250: f258 3f3e 0c9f a93d 2ab7 393d a2cd f2bc
00000260: bed1 793d 32a4 2b3d 3e43 893d e2ac e13d
00000270: 9cc9 c43d 95c0 41be 0f20 583d 4b5d a63d
00000280: 51ff c5bc 8aab a53d 943f bdbd abd9 813d
00000290: 72cf c53d 34a4 3cbe 11b9 193d 35fc 883d
000002a0: 37b1 3abe ba08 9c3d 4610 5f3e 2f3c 173d
000002b0: 830b 313d 971c 8c3d 70c3 493d bcf3 083e
000002c0: b7ff 373e 191d 673e bb03 a03d fd17 80bd
000002d0: d105 4c3d 89ab 22bd e95b a03d 0883 ac3c
000002e0: 07a5 68bd 6bfd 983d 18dd f8bc cb8c 283d
000002f0: 0371 783d 2e18 ff3d 1e62 ec3c 8a56 853d
00000300: a1fa eabc 6e65 02bd a1cc 39be d1e5 22be
00000310: a32f bdb8 ce60 fd3c a974 423d 74fc a03d
00000320: 32d4 683d 0d1f a83d 6c53 543c 527d d63d
00000330: 2966 2d3e ef8b 983d 047f aa3c 64e0 febd
00000340: 6014 873d 3149 0a3e ba9f 643e 46ab f7bd
00000350: cd36 313d 6048 85bd bfdb e4bc 93bb cb3d
00000360: 326b 453d 7b02 c7bd 4f0f 93bd 248d d1bc
00000370: d829 4f3d a749 3cbd 0715 86bd 2f9d f83d
00000380: b102 8fbd 9cf2 fbbd b018 3e3d adcf 2c3d
00000390: 68a6 bb3d e83e ec3d e74b 18bd 5706 3e3d
000003a0: c872 23bd 4647 683e 7ef4 a83d 9cab 93bd
000003b0: a069 43be f222 5f3e eaef 1d3e 458b 3f3d
000003c0: 7133 653d 8f5d b83d 47cd 00bd dfab d6bd
000003d0: ca48 4c3d 69ae 6c3e 063d e9bc d6b3 a138
000003e0: d827 36be 9572 5a3d e784 37bd 4fc2 d33d
000003f0: 2b11 873e 14d7 213d b5eb 953d 2fca 01be

_impl.layers.2.linear.weight_g f4 [128, 1]
2.6627796 3.83771 4.7295094 6.385891 2.7255342 3.4829035 3.3116288 4.564036
3.2114787 2.867713 2.332567 7.321623 2.988225 2.209576 2.4773471 3.7748146
3.111779 3.7535536 3.928607 3.848831 3.4618897 3.5832243 2.4892805 3.5988066
3.3878212 2.589812 3.9800377 3.173267 2.209942 5.5307765 5.4020133 3.4135423
3.5914836 2.9721525 5.339622 2.7759235 4.6186113 3.6214192 2.466255 2.1376781
5.1020994 2.4247053 2.6874766 2.2358758 4.4583373 3.026271 2.4725318 2.7521374
2.8048842 3.2576926 3.6191418 2.3625054 2.6845458 5.235125 6.4828043 1.9980074
3.9088585 3.0406065 6.580149 2.3256443 2.3324244 2.9416847 2.5089664 2.841044
4.5228333 2.1796327 2.810307 2.8814754 2.477198 2.8118749 3.933954 2.6931877
3.6518724 2.6947362 3.6653256 2.4651608 3.153634 3.9188583 3.7538524 2.797383
3.12928 2.6096814 3.05561 2.2132301 3.0418432 4.235402 3.8253183 3.1865733
2.2416828 7.859941 3.9016652 2.7997396 2.9117076 3.320303 2.9975865 4.5078306
2.6288545 2.5682032 2.5295305 2.4801896 3.1830144 2.8435564 2.2610753 2.7108836
2.4301043 2.9560823 3.1712224 2.8323922 6.387925 3.9335618 2.5580487 7.437965
3.161832 2.8063042 2.4815392 4.1464996 4.699644 2.3740911 5.534039 2.7343016
6.9467926 3.0281937 3.664677 6.5029807 2.4093852 2.5877469 2.7328565 3.651
00000000: fb6a 2a40 0a9d 7540 2458 9740 3859 cc40
00000010: 276f 2e40 e4e7 5e40 baf1 5340 950c 9240
00000020: de88 4d40 9c88 3740 c748 1540 bc4a ea40
00000030: 143f 3f40 b169 0d40 db8c 1e40 9096 7140
00000040: 6327 4740 393a 7040 4c6e 7b40 3f53 7640
00000050: 9a8f 5d40 8c53 6540 5f50 1f40 d952 6640
00000060: 10d2 5840 7bbf 2540 f0b8 7e40 ce16 4b40
00000070: b16f 0d40 1ffc b040 4bdd ac40 7a77 5a40
00000080: deda 6540 bf37 3e40 2fde aa40 bba8 3140
00000090: aacb 9340 55c5 6740 1fd7 1d40 b8cf 0840
000000a0: 6644 a340 5f2e 1b40 9eff 2b40 9718 0f40
000000b0: b3aa 8e40 6dae 4140 f63d 1e40 0523 3040
000000c0: 3983 3340 097e 5040 05a0 6740 4a33 1740
000000d0: 99cf 2b40 2586 a740 2273 cf40 b5be ff3f
000000e0: bd2a 7a40 4c99 4240 9590 d240 5bd7 1440
000000f0: 7146 1540 9044 3c40 e892 2040 aad3 3540
00000100: 0dbb 9040 1a7f 0b40 12dc 3340 186a 3840
00000110: 698a 1e40 c2f5 3340 e7c5 7b40 305d 2c40
00000120: 47b8 6940 8f76 2c40 b294 6a40 32c5 1d40
00000130: 24d5 4940 93ce 7a40 1e3f 7040 5308 3340
00000140: 2046 4840 0505 2740 1d8f 4340 90a5 0d40
00000150: 8fad 4240 6a88 8740 04d2 7440 d1f0 4b40
00000160: bb77 0f40 a384 fb40 e2b4 7940 ef2e 3340
00000170: 6b59 3a40 d87f 5440 75d8 3f40 2640 9040
00000180: 273f 2840 715d 2440 d4e3 2140 6dbb 1e40
00000190: 82b6 4b40 d4fc 3540 75b5 1040 1e7f 2d40
000001a0: d486 1b40 7430 3d40 4ff5 4a40 ea45 3540
000001b0: e269 cc40 7abf 7b40 12b7 2340 cf03 ee40
000001c0: 755b 4a40 7d9a 3340 8ad1 1e40 20b0 8440
000001d0: 7c63 9640 1cf1 1740 d916 b140 ccfe 2e40
000001e0: 204c de40 edcd 4140 118a 6a40 6b18 d040
000001f0: 5e33 1a40 a59d 2540 1fe7 2e40 fca9 6940

_impl.layers.2.linear.bias f4 [128]
-0.15521073 -0.24350971 0.13644734 0.18397537 0.20349003 -0.16396965 -0.22542706 -0.307299
-0.18367726 -0.19745453 -0.17338523 0.24878938 -0.21245825 -0.17295031 -0.19441757 -0.21538621
-0.16071613 0.099385366 -0.23917872 0.1712726 -0.109129645 0.18854833 0.19144182 0.16083477
0.1796641 -0.2030602 -0.26258558 0.25735712 -0.19761045 0.18393704 0.2117085 0.18833861
-0.23124245 -0.32539812 0.201885 -0.30339158 0.2669119 -0.30831692 -0.22709797 -0.18297635
0.29681528 -0.1826207 0.2059302 0.18273742 0.17345592 -0.1455273 -0.19256547 -0.18782634
-0.18392067 -0.11457123 -0.2296509 -0.18528363 -0.19466823 0.18684575 0.2628794 -0.1639262
0.24068172 0.2496662 0.2765738 -0.19101907 0.306963 -0.17083809 -0.20654498 0.212142
-0.26207322 -0.17333958 -0.19286664 -0.1797404 -0.20441808 -0.27760053 -0.23169307 -0.21499005
0.21513294 0.2267483 0.15842925 -0.21149425 0.17153098 -0.026458869 -0.2511353 -0.21911374
-0.163525 0.1954488 -0.25791463 -0.151832 -0.17961788 0.1437176 0.17512067 0.16721894
-0.18593575 0.2145832 0.1755174 -0.18894003 -0.25364026 -0.13398457 -0.2046657 -0.20368099
-0.1773269 0.22137897 -0.21411876 -0.22338142 -0.11742536 0.21945569 -0.18313293 -0.270413
-0.191077 -0.2418432 -0.18846516 -0.1918008 0.3322802 0.16714998 -0.18992911 0.2339583
-0.19202459 -0.19471814 -0.20457967 0.14720842 0.17983402 -0.16994144 -0.28563163 -0.18241727
0.22118959 0.16681771 -0.19866528 0.30103174 -0.18480857 -0.21079941 -0.2771759 0.1720767
00000000: 90ef 1ebe 9c5a 79be dab8 0b3e 0a64 3c3e
00000010: b15f 503e a9e7 27be 5ad6 66be 4b56 9dbe
00000020: e415 3cbe 8531 4abe e68b 31be a5c2 7e3e
00000030: a88e 59be e319 31be 6615 47be 348e 5cbe
00000040: c592 24be 8e8a cb3d 44eb 74be 1662 2f3e
00000050: 5d7f dfbd d012 413e 5309 443e dfb1 243e
00000060: def9 373e 03ef 4fbe 9e71 86be 50c4 833e
00000070: 655a 4abe fe59 3c3e 1dca 583e d6db 403e
00000080: d2ca 6cbe 959a a6be f1ba 4e3e 2456 9bbe
00000090: ada8 883e b7db 9dbe 5f8c 68be 275e 3bbe
000000a0: 2cf8 973e ec00 3bbe 5edf 523e 851f 3b3e
000000b0: 6e9e 313e 1c05 15be e22f 45be 8c55 40be
000000c0: b355 3cbe 52a4 eabd 9b29 6bbe feba 3dbe
000000d0: 1c57 47be 7e54 3f3e 2198 863e 45dc 27be
000000e0: 4575 763e 7fa8 7f3e 159b 8d3e 819a 43be
000000f0: 412a 9d3e 2ef0 2ebe 8780 53be c13b 593e
00000100: 762e 86be ee7f 31be d57e 45be de0d 38be
00000110: f952 51be a821 8ebe f340 6dbe 5a26 5cbe
00000120: cf4b 5c3e b530 683e 473b 223e f391 58be
00000130: d1a5 2f3e 45c0 d8bc ce94 80be 5a5f 60be
00000140: 1973 27be bb23 483e 630d 84be d979 1bbe
00000150: c0ed 37be b52a 133e d552 333e 713b 2b3e
00000160: f165 3ebe b3bb 5b3e d5ba 333e 7f79 41be
00000170: 23dd 81be 4033 09be e393 51be c091 50be
00000180: 2f95 35be 2bb1 623e f341 5bbe 19be 64be
00000190: b57c f0bd feb8 603e 3387 3bbe 9373 8abe
000001a0: b0a9 43be bea5 77be 03fd 40be 6e67 44be
000001b0: a120 aa3e 5d29 2b3e c77c 42be c492 6f3e
000001c0: 18a2 44be 3164 47be 557d 51be cebd 163e
000001d0: 6926 383e 2105 2ebe 4f3e 92be 98cb 3abe
000001e0: 867f 623e 43d2 2a3e e96e 4bbe d520 9a3e
000001f0: 753e 3dbe cddb 57be 00ea 8dbe e034 303e

_impl.final_layer.linear.weight f4 [1, 128]
0.39568698 0.6408904 -1.7447217 -2.1218061 -0.786507 1.3729577 0.5164464 1.592337
0.4948125 0.40797755 0.36183688 -2.7444215 0.44225186 0.32173517 0.40324625 1.3573396
0.5171854 -1.9881697 1.3944645 -1.6331378 1.6070739 -1.4992936 -0.85892284 -1.4793131
-1.346416 0.3756509 1.394027 -1.0760819 0.26992506 -2.0285494 -1.89581 -1.324242
0.67363995 0.5451106 -2.0728931 0.6329637 -2.0700758 0.587569 0.34421003 0.34393546
-2.2023365 0.36347154 -0.8812186 -0.69503593 -1.8732896 0.52243215 0.29718605 0.38122144
0.5061061 1.4313098 0.5925453 0.36872363 0.4742779 -1.9136368 -2.5597115 0.36859885
-1.3299555 -0.96295774 -2.569661 0.29912135 -0.7276338 0.46656567 0.3829545 -0.9741195
1.6510504 0.2728549 0.43381628 0.4859964 0.35662797 0.5817182 1.4004189 0.37508062
-1.5769347 -0.79571646 -1.4622989 0.35667965 -1.1198763 2.0283222 0.6272848 0.47224203
0.5063909 -0.87745327 0.48526034 0.3900356 0.4750188 -1.7289741 -1.6393745 -1.1438199
0.30395105 -2.7344067 -1.6842169 0.49278057 0.55329955 1.3755288 0.40527838 1.5997319
0.4940156 -0.94868845 0.3597001 0.34143415 1.4901626 -0.95679516 0.3669556 0.3780486
0.49877533 0.54936504 0.9967038 0.39846846 -2.5573268 -1.6603355 0.3802 -2.68036
0.46568078 0.49051732 0.29735023 -1.6442711 -1.9001852 0.31575006 1.9370196 0.4064744
-2.5518656 -1.151435 1.3501129 -2.6031578 0.36345625 0.36550975 0.62742144 -1.4817677
00000000: 7c97 ca3e 6511 243f 0a53 dfbf accb 07c0
00000010: 8658 49bf 14bd af3f d535 043f b3d1 cb3f
00000020: 1058 fd3e 6fe2 d03e af42 b93e 9aa4 2fc0
00000030: d66e e23e 79ba a43e 4b76 ce3e 4ebd ad3f
00000040: 4366 043f 587c febf d07d b23f a90a d1bf
00000050: 99b4 cd3f dae8 bfbf 5ee2 5bbf 225a bdbf
00000060: 5c57 acbf 5155 c03e 7a6f b23f 0dbd 89bf
00000070: 9e33 8a3e c1d3 01c0 e7a9 f2bf c380 a9bf
00000080: ab73 2c3f 5e8c 0b3f 48aa 04c0 e909 223f
00000090: 1f7c 04c0 ec6a 163f 4c3c b03e 4f18 b03e
000000a0: 15f3 0cc0 f118 ba3e 8b97 61bf e0ed 31bf
000000b0: f4c7 efbf 1dbe 053f c528 983e 752f c33e
000000c0: 2b90 013f 2935 b73f 0cb1 173f 58c9 bc3e
000000d0: 8ed4 f23e 0df2 f4bf 50d2 23c0 fdb8 bc3e
000000e0: fb3b aabf 6684 76bf 5375 24c0 6f26 993e
000000f0: 3546 3abf b2e1 ee3e 9d12 c43e e55f 79bf
00000100: 9f55 d33f a3b3 8b3e 2b1d de3e 85d4 f83e
00000110: f197 b63e 7ceb 143f ed40 b33f 910a c03e
00000120: ffd8 c9bf 13b4 4bbf 9c2c bbbf b79e b63e
00000130: 1b58 8fbf 08d0 0140 bd95 203f b5c9 f13e
00000140: d6a2 013f c7a0 60bf 0b74 f83e bfb2 c73e
00000150: aa35 f33e 064f ddbf 06d7 d1bf b168 92bf
00000160: 799f 9b3e 8500 2fc0 6b94 d7bf bc4d fc3e
00000170: 0aa5 0d3f 5411 b03f a680 cf3e 04c4 cc3f
00000180: 9def fc3e 3fdd 72bf 9d2a b83e 75d0 ae3e
00000190: a6bd be3f 87f0 74bf 9be1 bb3e 968f c13e
000001a0: 7b5f ff3e 30a3 0c3f fb27 7f3f 0f04 cc3e
000001b0: 3eab 23c0 e085 d4bf 93a9 c23e 058b 2bc0
000001c0: b66d ee3e 1625 fb3e 4a3e 983e 7a77 d2bf
000001d0: 4539 f3bf fea9 a13e 42f0 f73f 6a1d d03e
000001e0: c451 23c0 3962 93bf 80d0 ac3f 239a 26c0
000001f0: f016 ba3e 1824 bb3e b19e 203f 90aa bdbf
