3d_solid_solid/outputs/testfourier_net_128_silu/heat_net.0.pth (torch, 374754 bytes, 20 tensors)

fourier_layer_xyzt.frequencies f4 [3, 30]
0	0x00000000	0.0
1	0x00000000	0.0
2	0x00000000	0.0
3	0x3f800000	1.0
4	0x00000000	0.0
5	0x00000000	0.0
6	0x40000000	2.0
7	0x00000000	0.0
8	0x00000000	0.0
9	0x40400000	3.0
10	0x00000000	0.0
11	0x00000000	0.0
12	0x40800000	4.0
13	0x00000000	0.0
14	0x00000000	0.0
15	0x40a00000	5.0
16	0x00000000	0.0
17	0x00000000	0.0
18	0x40c00000	6.0
19	0x00000000	0.0
20	0x00000000	0.0
21	0x40e00000	7.0
22	0x00000000	0.0
23	0x00000000	0.0
24	0x41000000	8.0
25	0x00000000	0.0
26	0x00000000	0.0
27	0x41100000	9.0
28	0x00000000	0.0
29	0x00000000	0.0
30	0x00000000	0.0
31	0x00000000	0.0
32	0x00000000	0.0
33	0x00000000	0.0
34	0x3f800000	1.0
35	0x00000000	0.0
36	0x00000000	0.0
37	0x40000000	2.0
38	0x00000000	0.0
39	0x00000000	0.0
40	0x40400000	3.0
41	0x00000000	0.0
42	0x00000000	0.0
43	0x40800000	4.0
44	0x00000000	0.0
45	0x00000000	0.0
46	0x40a00000	5.0
47	0x00000000	0.0
48	0x00000000	0.0
49	0x40c00000	6.0
50	0x00000000	0.0
51	0x00000000	0.0
52	0x40e00000	7.0
53	0x00000000	0.0
54	0x00000000	0.0
55	0x41000000	8.0
56	0x00000000	0.0
57	0x00000000	0.0
58	0x41100000	9.0
59	0x00000000	0.0
60	0x00000000	0.0
61	0x00000000	0.0
62	0x00000000	0.0
63	0x00000000	0.0
64	0x00000000	0.0
65	0x3f800000	1.0
66	0x00000000	0.0
67	0x00000000	0.0
68	0x40000000	2.0
69	0x00000000	0.0
70	0x00000000	0.0
71	0x40400000	3.0
72	0x00000000	0.0
73	0x00000000	0.0
74	0x40800000	4.0
75	0x00000000	0.0
76	0x00000000	0.0
77	0x40a00000	5.0
78	0x00000000	0.0
79	0x00000000	0.0
80	0x40c00000	6.0
81	0x00000000	0.0
82	0x00000000	0.0
83	0x40e00000	7.0
84	0x00000000	0.0
85	0x00000000	0.0
86	0x41000000	8.0
87	0x00000000	0.0
88	0x00000000	0.0
89	0x41100000	9.0

fc.layers.0.linear.weight f4 [128, 63]
0	0xbe3ce1d3	-0.1844552
1	0x3e1691db	0.14704077
2	0xbc42a6e9	-0.011880615
3	0x3e5dfca8	0.21678412
4	0xbe5cdcd8	-0.2156862
5	0xbdd35883	-0.10319617
6	0xbf276c09	-0.65399224
7	0x3d9afe43	0.07568028
8	0xbd6c12dd	-0.057635177
9	0xbf16d5b7	-0.5891985
10	0xbd73baac	-0.059504196
11	0x3de5f15b	0.112276755
12	0xbeb6aa54	-0.35676825
13	0xbe2b0489	-0.16700949
14	0x3e8b6ffb	0.27233872
15	0xbe4be222	-0.19910482
16	0xbd920960	-0.071306944
17	0x3cc74d30	0.024328798
18	0xbf14e741	-0.58165365
19	0x3d263aaa	0.04058329
20	0x3dd36237	0.10321467
21	0xbede7890	-0.43451357
22	0x3dac8a7c	0.08424851
23	0x3e874ae7	0.26424333
24	0xbf2a7a8d	-0.6659325
25	0xbd20db63	-0.039271723
26	0x3de74105	0.11291698
27	0xbf51ffc1	-0.82030874
28	0x3db93cce	0.09044801
29	0xbe099cee	-0.1343877
30	0xbef3cb5e	-0.47616094
31	0x3cc5bddb	0.024138382
32	0x3e4c6d0c	0.19963473
33	0xbec9febe	-0.39452165
34	0xbecc843a	-0.3994463
35	0xbe49ba1f	-0.19699906
36	0xbe701979	-0.23447217
37	0xbec99bee	-0.39376777
38	0xbdb30fc6	-0.08743243
39	0xbe5af629	-0.21382965
40	0xbe3d24a6	-0.18471012
41	0xbd533bc2	-0.05157066
42	0xbd1855b9	-0.037191126
43	0xbdb7ce65	-0.089749135
44	0xbe1bbabb	-0.15207951
45	0xbe9b7abc	-0.30367076
46	0xbc2cc103	-0.010544064
47	0x3c04c526	0.0081036445
48	0x3dea7810	0.11448681
49	0x3dd85591	0.105631955
50	0xbe68a7bb	-0.22720234
51	0x3dda03db	0.106452666
52	0x3e4923b5	0.19642527
53	0xbdcfdc57	-0.10149448
54	0x3bba59ff	0.005686998
55	0xbe04f940	-0.12985706
56	0xbdc4970f	-0.09599125
57	0x3e986f4c	0.29772413
58	0xbe2b6b26	-0.16740093
59	0xbd94c171	-0.072634585
60	0x3c8f1c7d	0.017469639
61	0x3d912de9	0.07088835
62	0xbd9660a1	-0.07342649
63	0xbb8226cc	-0.00397191
64	0xbd0068ec	-0.03135006
65	0x3c9ccddd	0.019141132
66	0x8000151e	-7.575e-42
67	0x858f8eea	-1.3500154e-35
68	0x813565e1	-3.3317544e-38
69	0xbc9238ed	-0.01784941
70	0xbec1f490	-0.378819
71	0x3c450cab	0.012026946
72	0xbc95a1b8	-0.01826559
73	0xbed52da2	-0.41636378
74	0xbd056ba3	-0.032573353
75	0xbc7a1d04	-0.015265707
76	0xbea2f19a	-0.31824952
77	0x3bd1b12f	0.0063992958
78	0xbc90a4b9	-0.01765667
79	0xbdea3a16	-0.1143686
80	0x3d164a4c	0.03669195
81	0xbc69e1a8	-0.014274992
82	0x3e88af8b	0.2669643
83	0x3da5b274	0.08090678
84	0x3a9257f1	0.0011165125
85	0x3f284af6	0.6573938
86	0x3dd1c60f	0.10242855
87	0x3b00eab2	0.001967114
88	0x3f732b28	0.94987726
89	0x3d58f089	0.052963767
90	0x3c6f767f	0.014615654
91	0x3f8b504a	1.0883877
92	0xbd286136	-0.041108333
93	0x3b714ab4	0.0036818208
94	0x3f39f614	0.7264111
95	0xbe75e554	-0.24013263
96	0xbe011236	-0.12604603
97	0xbe10b10c	-0.14130038
98	0xbe1890d7	-0.14899002
99	0xbdbfe674	-0.09370127
100	0xbe17a49a	-0.14808884
101	0xbd9d22b9	-0.076726384
102	0xbd5e2fd5	-0.054244835
103	0xbe9198ee	-0.2843699
104	0xbdafd603	-0.08585741
105	0xbdcc84fc	-0.09986302
106	0xbeb69cea	-0.3566659
107	0xbcc710ac	-0.024299942
108	0xbd48afd5	-0.04899581
109	0xbf042ce7	-0.51631016
110	0x3d96945b	0.07352515
111	0x3bef7e0d	0.0073087276
112	0xbf1f0ed8	-0.62132025
113	0x3d727684	0.059195057
114	0x38cd2dd5	9.7836986e-05
115	0xbefb2673	-0.49052772
116	0x3dc8ae6b	0.097988926
117	0x3bdb9772	0.0067014033
118	0xbebee940	-0.3728733
119	0x3e0f5f7d	0.1400127
120	0x3d0edb53	0.034877133
121	0xbec68792	-0.38775307
122	0x3e716e26	0.23577175
123	0x3dba7dc3	0.091060184
124	0xbe9c949f	-0.3058214
125	0x3ec78f4f	0.38976523
126	0xbc764aeb	-0.01503251
127	0x3a8d883e	0.001079805
128	0xbdefa67a	-0.11701675
129	0x3505722b	4.97125e-07
130	0x2f8e5ae9	2.5894245e-10
131	0x80001f39	-1.12e-41
132	0xbd97d4c8	-0.07413632
133	0x3d81465f	0.0631225
134	0xbec6a8dc	-0.38800704
135	0xbdab8901	-0.08375741
136	0x3d01419e	0.031556718
137	0xbe85049d	-0.25980082
138	0xbe015488	-0.12629902
139	0xbd7eea4b	-0.062235158
140	0xbeac4087	-0.3364298
141	0x3d66aa9c	0.05631505
142	0x3d04e576	0.032445394
143	0xbeb4ab94	-0.35287154
144	0xbc3b8f0c	-0.011447679
145	0xbba9cce3	-0.005181895
146	0xbf008685	-0.5020526
147	0xbd0eded0	-0.03488046
148	0xbb923643	-0.004462035
149	0xbf26a015	-0.65088016
150	0x3d432c3e	0.047649615
151	0x3d7db64f	0.06194144
152	0xbeec0385	-0.46096435
153	0x3ded68a0	0.11592221
154	0xbd01ef7f	-0.031722542
155	0xbe9620a0	-0.29321766
156	0xbdae57fc	-0.085128754
157	0x3c0cc04c	0.008590769
158	0xbb713583	-0.0036805577
159	0x3e6548fa	0.2239112
160	0x3e85f73c	0.26165187
161	0x3d8618cb	0.06547698
162	0x3e41d550	0.18929029
163	0x3e5e0d30	0.21684718
164	0x3e44aef8	0.1920737
165	0xbe93acf4	-0.2884289
166	0xbe109ee4	-0.14123112
167	0x3f09b437	0.5379061
168	0xbf320d37	-0.69551414
169	0xbe1933fd	-0.14961238
170	0x3ec39d6f	0.3820605
171	0xbfa7780e	-1.3083513
172	0xbda496bd	-0.080365635
173	0x3eaca65b	0.3372067
174	0xc007bae6	-2.1207824
175	0xbe48fcd4	-0.19627696
176	0x3d91e819	0.07124347
177	0xbfd361bf	-1.6514205
178	0xbd5822d6	-0.052767597
179	0x3d214063	0.039368045
180	0xbf1a4207	-0.60257
181	0xbd0b3c32	-0.033992954
182	0x3d8bacc0	0.06820059
183	0x3e7d811f	0.24756287
184	0x3d87d51d	0.06632445
185	0xbe7a64c2	-0.24452499
186	0x3f4d8b08	0.8029027
187	0xbba5c9ad	-0.005059442
188	0xbdc8013a	-0.09765859
189	0xbb3cd7af	-0.002881508
190	0xbb443160	-0.0029936656
191	0xbd3c0f2d	-0.04591291
192	0x3d3e54de	0.046467654
193	0xa992843a	-6.50664e-14
194	0x3d180c08	0.03712085
195	0x3b64961a	0.0034879507
196	0x3d9e2084	0.077210456
197	0xbd83cb1c	-0.064352244
198	0xbd159969	-0.036523256
199	0x3e2c0ae4	0.1680103
200	0x3ea48900	0.32135773
201	0x3c9156b3	0.017741537
202	0x3d2b5942	0.04183317
203	0x3e1014d1	0.14070441
204	0xbd812e11	-0.063076146
205	0xbc79cc9d	-0.0152465375
206	0x3eb090a5	0.34485355
207	0x3cf48eec	0.029853307
208	0x3d8fe1e2	0.070255056
209	0x3e850cd7	0.2598636
210	0x3cbe3089	0.023216503
211	0xbd8d2c73	-0.06893244
212	0x3e0728c1	0.1319914
213	0x3d99df22	0.07513262
214	0xbd8aa039	-0.06768841
215	0xbcb3b7d1	-0.021938236
216	0x3dc38ae1	0.095479734
217	0xbc52f9bd	-0.012876925
218	0xbbac3433	-0.005255246
219	0xbe2692ac	-0.16266888
220	0xbcf7e38b	-0.030259868
221	0xbe2cc244	-0.16870981
222	0xbe4ff906	-0.20309839
223	0xbe4a2c6b	-0.19743507
224	0xbebd7408	-0.37002587
225	0xbe201901	-0.15634538
226	0xbec42c90	-0.38315248
227	0xbeb5117c	-0.35364902
228	0xbe6d7b2d	-0.23191519
229	0xbf1b5c7c	-0.60687995
230	0xbe1a9357	-0.15095268
231	0xbef0beb6	-0.470205
232	0xbf3cfe81	-0.7382584
233	0xbcec144a	-0.028818268
234	0xbefeb11e	-0.49744505
235	0xbf29b4bb	-0.662914
236	0x3e7b7870	0.24557662
237	0xbed7ec79	-0.42172602
238	0xbf087f4a	-0.5331923
239	0x3ea7f10d	0.32801095
240	0xbe7d323b	-0.24726193
241	0xbf128ef1	-0.5724936
242	0x3eac4eb8	0.33653808
243	0xbcd05afe	-0.025434013
244	0xbf206de0	-0.62667656
245	0x3ec2110e	0.37903637
246	0xbdd97c99	-0.10619468
247	0xbecc435b	-0.39895138
248	0x3e9dcdde	0.30821127
249	0x3de5078d	0.11183081
250	0xbe6841f7	-0.22681414
251	0x3eba4fa2	0.3638888
252	0xbc0d4cb5	-0.008624245
253	0x3d05693d	0.032571066
254	0x3dc6a361	0.09699131
255	0xb9044fb5	-0.00012618194

fc.layers.0.linear.weight_g f4 [128, 1]
0	0x3f6e743e	0.9314612
1	0x400acbe4	2.1686945
2	0x3fcf47a7	1.6193742
3	0x3f927a6a	1.1443608
4	0x3fdea381	1.7393647
5	0x3ebc1121	0.36731818
6	0x3fab5e13	1.3388084
7	0x3ee97be2	0.45602328
8	0x40180682	2.3753972
9	0x3f219654	0.6312001
10	0x3f5569c8	0.83364534
11	0x40585190	3.3799782
12	0x3f63498b	0.8878409
13	0x3eda9c07	0.42697164
14	0x3ef8f77e	0.48626322
15	0x3f72e6da	0.948835
16	0x3f7dd96e	0.99159896
17	0x3f1ba11f	0.60792726
18	0x3f165f22	0.5873891
19	0x40f2a371	7.5824513
20	0x3f0166b0	0.50547314
21	0x3f9e1e95	1.2353083
22	0x3fda88c3	1.7072986
23	0x3f8edcf5	1.1161181
24	0x3fe5bdcb	1.7948545
25	0x3fa410f7	1.2817677
26	0x3fa460ad	1.2842003
27	0x3f832887	1.0246743
28	0x3fbb6aad	1.464193
29	0x3f5a935f	0.8538112
30	0x3f87bb64	1.0604062
31	0x3fdb55b1	1.7135526
32	0x402e1fb9	2.7206862
33	0x3f02bf30	0.5107298
34	0x3ef36e08	0.47544885
35	0x3f862bf1	1.048216
36	0x3f28ce83	0.6594011
37	0x3f9f4f8b	1.244615
38	0x3f0e968e	0.5569848
39	0x3fffe21e	1.999088
40	0x3f7c1ece	0.98484504
41	0x3f8f5c63	1.1200069
42	0x4060d395	3.512914
43	0x3ee16b87	0.4402735
44	0x3eb526ad	0.3538107
45	0x3f1fb05c	0.6237848
46	0x3f43f6e8	0.76548624
47	0x3f637704	0.8885348
48	0x3f52eb93	0.8239071
49	0x40260333	2.5939453
50	0x3f00f3bd	0.50371915
51	0x3e0df959	0.1386465
52	0x4063b136	3.557691
53	0x3e8111bc	0.25208843
54	0x3f8acae0	1.0843163
55	0x3e057298	0.13031995
56	0x3f85c5ff	1.0451049
57	0x3f1e99fb	0.61953706
58	0x3f2fb188	0.68630266
59	0x3ec8ec62	0.39242846
60	0x3f928690	1.1447315
61	0x3fc3dccf	1.530176
62	0x406ee381	3.7326357
63	0x3f44aace	0.7682313
64	0x4099a61b	4.8015265
65	0x3ff53513	1.9156822
66	0x3e535528	0.20637953
67	0x3fe425af	1.7824
68	0x3ea610d6	0.3243472
69	0x3f5534d5	0.8328374
70	0x3f234099	0.63770443
71	0x3e979a43	0.2960988
72	0x401c8e62	2.4461904
73	0x3ed6ce24	0.41954148
74	0x3f2fb6ef	0.6863851
75	0x3ee7d21b	0.45277485
76	0x3edd6ed5	0.4324862
77	0x3f911368	1.1334047
78	0x3f4112bd	0.7541922
79	0x3ee05020	0.4381113
80	0x3faf5f8a	1.3701031
81	0x4006e3a5	2.1076443
82	0x3f17a947	0.5924267
83	0x3fb7e32d	1.4366204
84	0x3f9e0e76	1.2348163
85	0x3f5c82da	0.86137164
86	0x3e9d8d30	0.3077178
87	0x3f4cdd01	0.80024725
88	0x3f26f6b0	0.65220165
89	0x3eb99a94	0.36250746
90	0x4098a796	4.7704573
91	0x3ed7ec50	0.4217248
92	0x400ac50e	2.1682773
93	0x3f8738d6	1.056422
94	0x3fd6da39	1.6785346
95	0x3f41702d	0.7556179
96	0x3f13540b	0.57550114
97	0x3f93d114	1.154818
98	0x40727e9b	3.7889774
99	0x3ebcf99c	0.36909187
100	0x3f30944c	0.68976283
101	0x3f4a1acb	0.7894713
102	0x3f871318	1.0552702
103	0x3f28363a	0.65707743
104	0x3f1f9da5	0.6234992
105	0x40171de5	2.3611996
106	0x3f201534	0.62532353
107	0x3fb430ae	1.4077356
108	0x3e499ad5	0.1968797
109	0x4019f037	2.4052866
110	0x3f929a6b	1.1453375
111	0x3f5b3a06	0.8563541
112	0x3f214a48	0.6300397
113	0x3f2ed2e6	0.68290555
114	0x3f145280	0.57938385
115	0x3eee0589	0.46488598
116	0x3f63a566	0.88924253
117	0x3f132ac6	0.5748714
118	0x3f8126e9	1.009
119	0x3f44950c	0.7678993
120	0x40311a89	2.7672446
121	0x3ead8037	0.33886883
122	0x3fe79b25	1.8094221
123	0x3ed36f77	0.41295978
124	0x40025eb7	2.037031
125	0x3e81459c	0.2524842
126	0x3e905ccd	0.281958
127	0x3ebbe74c	0.36699903

fc.layers.0.linear.bias f4 [128]
0	0xbeb07786	-0.3446619
1	0xbe2f0e89	-0.17095388
2	0x3e34a1a1	0.17639782
3	0xbeb4882d	-0.35260144
4	0xbf05cdca	-0.52267134
5	0x38582978	5.1537034e-05
6	0xbea1d3eb	-0.31606993
7	0xbde581c0	-0.112063885
8	0xbe1931a2	-0.1496034
9	0x3d81194f	0.06303655
10	0xbe66df79	-0.22546186
11	0xbebb167d	-0.36540595
12	0xbde1f387	-0.11032777
13	0x3d10ba01	0.035333637
14	0xbe5967e7	-0.21231042
15	0x3ecb3720	0.39690495
16	0x3d3b4210	0.0457173
17	0xbe08a5b5	-0.13344462
18	0xbec0c23a	-0.37648183
19	0xbbeb434a	-0.0071796523
20	0xbcd037f6	-0.02541731
21	0x3dd3480a	0.10316475
22	0xbeb3bd28	-0.35105252
23	0x3eeb1dbc	0.45921123
24	0xbf131a5f	-0.57462114
25	0xbe8566e9	-0.26055077
26	0xbe8e9d95	-0.278546
27	0xbebc2788	-0.3674891
28	0xbeebd81e	-0.46063322
29	0x3e80e6b2	0.25176007
30	0xbab5c6f5	-0.0013868498
31	0xbe60c1bf	-0.21948908
32	0xbe34884d	-0.1763012
33	0x3d066ae6	0.03281679
34	0xbe6af1ed	-0.2294385
35	0x3ef6b82e	0.48187393
36	0xbea9316f	-0.33045527
37	0x3e8bf402	0.273346
38	0x3df7a28a	0.12091549
39	0x3b82aadb	0.0039876527
40	0xbe3f9cc2	-0.18712142
41	0xbd8dc4f2	-0.0692233
42	0xbef3fe12	-0.47654778
43	0xbd62d640	-0.055380106
44	0x3d38f3a2	0.04515422
45	0xbe5b710a	-0.2142984
46	0x3cb2d692	0.02183083
47	0xbe919760	-0.28435802
48	0x3e7a10bb	0.24420445
49	0xbdfdac7c	-0.123864144
50	0xbc6dc5cf	-0.014512493
51	0xbccb6c7a	-0.024832
52	0xbee9311e	-0.45545286
53	0x3a41049a	0.00073630514
54	0xbec66155	-0.38746133
55	0xbc9c7b96	-0.0191019
56	0xbe527b7c	-0.20554918
57	0xbc82b9c8	-0.015957728
58	0x3e9effae	0.31054443
59	0xbdeba0d0	-0.11505282
60	0xbed46327	-0.41481897
61	0xbd2818e5	-0.041039366
62	0xbe08025f	-0.13282155
63	0xbe29c1e5	-0.16577871
64	0xbf13d538	-0.5774722
65	0xbe243203	-0.16034703
66	0x3da7c11a	0.08191128
67	0xbd05f9a2	-0.03270877
68	0xbdd7ce47	-0.10537391
69	0x3d62403d	0.055237044
70	0xbe90a4fd	-0.28250876
71	0xbe03dc1b	-0.12876932
72	0x3f2e40ba	0.68067515
73	0x3c687a18	0.014189266
74	0xbe7fa8ea	-0.2496678
75	0xbe5b0a8b	-0.2139074
76	0x3e7a3552	0.24434403
77	0x3dd5ab02	0.10433008
78	0xbe95f699	-0.29289702
79	0xbdbe3bdd	-0.09288762
80	0x3d1c6c14	0.03818901
81	0x3e0ea205	0.13928993
82	0x3d298326	0.04138484
83	0xbeca62cd	-0.39528504
84	0xbeb92dbf	-0.36167714
85	0xbecb4e27	-0.39708063
86	0xbdd4e654	-0.10395494
87	0xbd5d7b4b	-0.05407266
88	0xbe992d29	-0.29917267
89	0xbe60acc7	-0.2194091
90	0xbe3ef5fb	-0.18648522
91	0x3e5f58a4	0.21811157
92	0xbdf4fa26	-0.119617745
93	0x3e87ecca	0.26547843
94	0x3ee8db4b	0.45479807
95	0xbdf7e35d	-0.12103913
96	0xbcfff334	-0.031243898
97	0xbdf2dc74	-0.11858454
98	0xbe2e5b70	-0.17027068
99	0xbe04bd33	-0.12962799
100	0xbe68b0f0	-0.22723746
101	0xbe8bb92f	-0.2728972
102	0x3cf96021	0.030441346
103	0xbe9b1fe1	-0.3029776
104	0xbea256b4	-0.31706774
105	0xbe074b10	-0.13212228
106	0xbdfb847f	-0.12281131
107	0xbe82d10a	-0.2555011
108	0x3d50597e	0.050866596
109	0x3f131584	0.57454705
110	0xbe2d46ea	-0.16921583
111	0x3da7fb56	0.082022354
112	0xbe922b0d	-0.2854847
113	0xbddb5e30	-0.10711324
114	0xbc9f3b58	-0.019437477
115	0xbe02eaab	-0.12784831
116	0xbe701ae7	-0.23447762
117	0xbe839484	-0.25699246
118	0x3ea8c732	0.32964474
119	0xbe32db2d	-0.17466421
120	0xbe11c1e8	-0.14234126
121	0xbd803646	-0.06260352
122	0xbdfce1cb	-0.12347754
123	0xbe283ec2	-0.1643019
124	0xbebfa53f	-0.3743076
125	0x3c872442	0.016496781
126	0x3df7afd8	0.120940864
127	0xbd4879bd	-0.048944224

fc.layers.1.linear.weight f4 [128, 128]
0	0x3d143eb5	0.036192615
1	0x3e647176	0.22308907
2	0x3db0d42b	0.08634218
3	0x3df26d1a	0.11837216
4	0x3af90586	0.0018998838
5	0x3bdd06f3	0.006745213
6	0x3df32cd3	0.11873784
7	0x3e8ef7b3	0.27923355
8	0xbd9a0794	-0.07520977
9	0xbdd62f26	-0.104582116
10	0x3d597148	0.05308655
11	0x3dbc7fab	0.09204038
12	0x3e88d759	0.26726797
13	0x3df70c54	0.12062898
14	0xbcc496bc	-0.023997657
15	0xbe9b2248	-0.30299592
16	0xbd939a52	-0.07207169
17	0xbdfec1a2	-0.12439276
18	0x3e953b91	0.29147008
19	0x3e0b3439	0.1359414
20	0x3e0e52d1	0.1389878
21	0x3f1b7fa3	0.60741633
22	0x3e5c511f	0.2151532
23	0x3e71f84f	0.23629878
24	0x3da60806	0.08106999
25	0x3d2eb7b4	0.04265566
26	0x3dd98ca7	0.106225304
27	0x3d44c04e	0.04803496
28	0x3ce6eae5	0.028188178
29	0x3cfc5a6d	0.030804837
30	0xbf966929	-1.1750842
31	0xbe9da477	-0.3078954
32	0x3ef363a5	0.4753696
33	0x3dd46f26	0.103727624
34	0xbd573801	-0.052543644
35	0xbe01c9e3	-0.1267467
36	0x3ec28f20	0.3799982
37	0xbcc8cf5b	-0.024512937
38	0x3b397868	0.0028300527
39	0xbe774ef8	-0.24151218
40	0x3e896f13	0.26842555
41	0xbf8a57ba	-1.0808022
42	0x3e9516c0	0.2911892
43	0x3d84bfb7	0.06481879
44	0xbaf16e00	-0.0018419623
45	0x3ed95780	0.4244957
46	0xbe29429f	-0.1652932
47	0x3d5d2486	0.05398991
48	0x3d606217	0.054781046
49	0xbe838363	-0.25686178
50	0x3eace87e	0.33771127
51	0xbe0687f5	-0.13137801
52	0xbc566318	-0.013085149
53	0xbdc7c723	-0.09754779
54	0xbe92f5a0	-0.28703022
55	0xbd1a4e74	-0.037672475
56	0x3f35f54e	0.7107743
57	0xbdfd435d	-0.12366364
58	0x3d135fba	0.035979964
59	0x3dea8a96	0.114522144
60	0x3d9f4df4	0.0777854
61	0x3e805c99	0.25070646
62	0xbede7fbf	-0.43456838
63	0x3d9c4a3e	0.07631348
64	0xbe3eca36	-0.18631825
65	0xbf24637f	-0.6421432
66	0xbcd249fb	-0.025670042
67	0x3e072f42	0.13201621
68	0xbe2017a8	-0.15634024
69	0x3da0d69c	0.078534335
70	0x3e447adc	0.19187492
71	0xbd7f9d8f	-0.06240612
72	0xbed97ffb	-0.42480454
73	0x3e3e357b	0.18575089
74	0x3dab7282	0.0837145
75	0xbe6b8ea4	-0.23003632
76	0xbd7db6d0	-0.06194192
77	0xbd977aa2	-0.07396437
78	0xbd0e201d	-0.034698594
79	0xbe5a0572	-0.2129114
80	0x3e55a0f3	0.20862179
81	0x3e65c327	0.22437726
82	0x3e38e847	0.18057357
83	0xbd84d18a	-0.06485279
84	0x3e70fbf4	0.23533612
85	0xbe97695d	-0.29572573
86	0x3e34a828	0.17642272
87	0xbbeca860	-0.0072222203
88	0x3d35ad24	0.044354573
89	0x3dde55c8	0.10856205
90	0xbf4ac4ec	-0.7920673
91	0xbe4bc806	-0.19900522
92	0x3e2ac8c2	0.16678146
93	0x3cfb666b	0.030688485
94	0x3d635137	0.055497374
95	0x3e8c081f	0.27349946
96	0x3cd04654	0.02542416
97	0xbd74d69c	-0.05977498
98	0xbeda9360	-0.42690563
99	0x3d0f4536	0.034978114
100	0x3d146bf1	0.036235753
101	0xbd374883	-0.044746887
102	0x3d861a15	0.065479435
103	0x3e30f5f7	0.17281328
104	0x3e4e23da	0.20130864
105	0x3ef7a90d	0.48371163
106	0x3ca11d7a	0.019667376
107	0x3f055176	0.52077425
108	0xbd2bf1c7	-0.041978624
109	0xbe8835a8	-0.26603436
110	0xbedf13ac	-0.43569696
111	0x3d5ba70f	0.053626116
112	0x3e852bc9	0.26009968
113	0x3d682451	0.05667526
114	0xbe176998	-0.14786375
115	0x3e31601e	0.17321822
116	0x3b48c12f	0.0030632725
117	0x3d9c768c	0.076397985
118	0xbdcbe660	-0.0995605
119	0x3e97b1ae	0.29627746
120	0xbe1935fe	-0.14962003
121	0x3cc18ba9	0.023626165
122	0x3e8033fc	0.2503966
123	0xbc927ec5	-0.017882714
124	0x3be2d96e	0.0069228923
125	0xbd1aa409	-0.037754092
126	0x3ceb4790	0.028720647
127	0x3d6264ed	0.05527203
128	0xbbe0e0d8	-0.006862741
129	0x3c83b82f	0.016079037
130	0x3c1dbb96	0.0096272435
131	0x3e424dbd	0.18974967
132	0xbbaf195e	-0.0053436
133	0x3d6818a8	0.05666414
134	0x3eba2238	0.36354232
135	0x3dfb512c	0.12271342
136	0xbe573e1a	-0.21019784
137	0xbe010b9f	-0.1260209
138	0x3d820daf	0.06350266
139	0xbd701afe	-0.05861949
140	0xba9a677d	-0.001178011
141	0xbdc003ad	-0.09375701
142	0x3dab5baf	0.08367097
143	0xbd862af0	-0.065511584
144	0xbeae5a3b	-0.34053215
145	0xbe105355	-0.14094289
146	0x3e737ba6	0.23777637
147	0xbc45a6ab	-0.0120636625
148	0xbd7f1b61	-0.06228197
149	0x3d751896	0.0598379
150	0x3d3e5849	0.046470914
151	0x3e9bc0ca	0.30420524
152	0xbc66ae9f	-0.014079719
153	0x3dbe748d	0.09299574
154	0xbc81da4e	-0.015851166
155	0xbdec2cda	-0.11531992
156	0x3bea86e7	0.007157195
157	0xbb492968	-0.0030694846
158	0x3dce6fa1	0.10079885
159	0xbe576bff	-0.21037291
160	0xbdbbd9a7	-0.09172373
161	0x3d040a47	0.032236364
162	0xbda74864	-0.08168104
163	0xbe457129	-0.19281448
164	0xbcf0c3e2	-0.02939028
165	0xbea58ab0	-0.32332373
166	0xbcd36165	-0.025803277
167	0xbd0ae3a1	-0.03390849
168	0x3cab677e	0.020923372
169	0xbeb4c154	-0.35303748
170	0xbd18fa0f	-0.03734785
171	0xbdf46f53	-0.11935296
172	0x3e356fb1	0.17718388
173	0x3ec88fba	0.39172155
174	0xbeba6aa9	-0.364095
175	0x3d03a87f	0.032143112
176	0xbe62c4c8	-0.22145379
177	0x3ccc2344	0.02491916
178	0x3e95682b	0.29181036
179	0x3deec69f	0.11658978
180	0xbd6c9612	-0.057760306
181	0x3d2a68ac	0.04160373
182	0x3d832ee8	0.06405431
183	0xbdf3e8db	-0.11909648
184	0x3dfb5cce	0.122735605
185	0xbd51526f	-0.051104005
186	0xbdd55ef0	-0.104184985
187	0xbdb2e5d6	-0.08735244
188	0x3e9691a0	0.29407978
189	0x3eaf41bd	0.34229842
190	0xbe191519	-0.14949454
191	0xbdb3a79b	-0.087722026
192	0xbe734fda	-0.2376093
193	0x3e1cf599	0.15328063
194	0x3ce5ea9d	0.028065974
195	0x3e4d7f7d	0.20068164
196	0x3d15eca2	0.036602624
197	0xbe768f35	-0.24078067
198	0x3e4e984d	0.20175286
199	0xbd1dbc36	-0.03850957
200	0xbc34d283	-0.011036518
201	0x3de25c20	0.11052728
202	0x3ea46daf	0.32114932
203	0x3d0432d1	0.032275025
204	0x3ddcc66c	0.107800335
205	0xbe805949	-0.2506812
206	0x3e1b649b	0.15175097
207	0xbe1b05e6	-0.15138969
208	0x3e970ac0	0.2950039
209	0x3efe4e34	0.4966904
210	0x3d84c90b	0.064836584
211	0x3e3523b8	0.17689407
212	0x3e22412d	0.15845175
213	0x3ea14225	0.31495777
214	0x3d5217c6	0.051292203
215	0xbe75a4fc	-0.23988718
216	0x3eb814c8	0.35953355
217	0xbcfdc4d3	-0.030977642
218	0x3eca1903	0.39472207
219	0x3ba0413d	0.0048905895
220	0x3d2d118a	0.042253055
221	0xbe12ef09	-0.14348997
222	0xbe01e7ca	-0.12686077
223	0xbd88d2f7	-0.06680863
224	0xbc4de66b	-0.012567143
225	0xbe2df239	-0.16986932
226	0xbeaaa0bc	-0.33325756
227	0x3e60f4a5	0.21968324
228	0xbdf644c4	-0.12024835
229	0xbe026d80	-0.12737083
230	0x3c14121f	0.0090375235
231	0x3e48fa7e	0.19626805
232	0x3e0a1888	0.1348592
233	0xbe305af1	-0.17222191
234	0x3e2a9c58	0.16661203
235	0xbe281269	-0.16413273
236	0xbd9f2116	-0.077699825
237	0x3e6015f5	0.21883376
238	0xbe19827c	-0.14991182
239	0x3d50237b	0.050815087
240	0xbdbcf8d4	-0.09227148
241	0x3eb6c671	0.35698274
242	0xbe289350	-0.16462445
243	0x3cd70f01	0.026252272
244	0xbd475f58	-0.04867491
245	0x3d3df03f	0.046371695
246	0xbdb75fe5	-0.08953837
247	0x3eae9c58	0.34103656
248	0xbe3782a7	-0.17920934
249	0x3d490d10	0.049084723
250	0xbda68f68	-0.08132821
251	0x3e3543ca	0.1770164
252	0x3e8e5cfb	0.27805313
253	0x3d1b3752	0.037894554
254	0x3de982e3	0.11401918
255	0xbde65a33	-0.11247673

fc.layers.1.linear.weight_g f4 [128, 1]
0	0x3f824d6e	1.017988
1	0x3f74d0b1	0.9563094
2	0x3f905146	1.1274803
3	0x3f5fe8de	0.874647
4	0x3f472cf5	0.77802974
5	0x3f8259c0	1.018364
6	0x3f7d3648	0.9891095
7	0x3f76b2d6	0.9636663
8	0x3f7f0a90	0.9962549
9	0x3f7d1464	0.9885924
10	0x3efd79c9	0.49506977
11	0x3f37e0e4	0.7182753
12	0x3f252efa	0.64524806
13	0x3f8717ed	1.0554177
14	0x3f9cef0a	1.2260449
15	0x3e8d158b	0.27555498
16	0x3f2a8a55	0.6661733
17	0x3f7fa10f	0.9985513
18	0x3f0d5ba7	0.55217975
19	0x3f8b78fa	1.0896294
20	0x3f7d0213	0.9883129
21	0x3f47c3a9	0.7803293
22	0x3ed622b4	0.4182335
23	0x3fb56ad7	1.417323
24	0x3f0c1ab2	0.54728234
25	0x3f0e9c0c	0.5570686
26	0x3f6b9bf4	0.9203484
27	0x3f495a3b	0.78653306
28	0x3f504e30	0.81369305
29	0x3f6e7964	0.9315398
30	0x3f9b1149	1.211465
31	0x3fc285de	1.5197103
32	0x3fe539b1	1.7908231
33	0x3f8f8d10	1.1214924
34	0x3f9efea1	1.2421457
35	0x3f149c4b	0.58050984
36	0x3f9c23d8	1.2198439
37	0x3f0a581d	0.540407
38	0x3fbb8fb2	1.4653227
39	0x3e885adb	0.26631817
40	0x3fbc29a0	1.4700203
41	0x3f7ac366	0.97954404
42	0x3f9edd4f	1.2411288
43	0x3f46d9e9	0.77676255
44	0x3f8a4c28	1.0804491
45	0x3ffd9aaa	1.9812825
46	0x3f25733d	0.64628965
47	0x3f419545	0.7561839
48	0x3f650002	0.89453137
49	0x3f9333df	1.1500205
50	0x3f4f8649	0.8106428
51	0x3f94ebb0	1.1634426
52	0x3f5a9832	0.8538848
53	0x3f2f8caa	0.6857401
54	0x3fb33959	1.4001876
55	0x3f6bfb55	0.9218038
56	0x3f76b33b	0.96367234
57	0x3f7dbffc	0.9912107
58	0x3fbe2ef0	1.4858074
59	0x3f926237	1.1436223
60	0x3f77f0ed	0.96852
61	0x3f5e6257	0.86868805
62	0x3f6a57f9	0.91540486
63	0x3f61fa22	0.882723
64	0x3f938ef0	1.1527996
65	0x3f995880	1.1980133
66	0x3e909d7b	0.28245148
67	0x3f5c6cca	0.861035
68	0x3f6c0a5a	0.92203295
69	0x3fb4c14d	1.4121491
70	0x40073b0e	2.1129794
71	0x3f49c3fe	0.78814685
72	0x3f9e0801	1.2346193
73	0x3f74d3ef	0.95635885
74	0x3ef38e9b	0.47569737
75	0x3f578b96	0.84197366
76	0x3ff21487	1.8912514
77	0x3f92f17c	1.1479945
78	0x3f541c94	0.82856107
79	0x3f5f732b	0.8728511
80	0x3f0e6990	0.55629826
81	0x3f89b2bd	1.0757672
82	0x40476512	3.1155438
83	0x3f764a2e	0.9620694
84	0x3f1e85fa	0.6192318
85	0x3f81c7b7	1.0139073
86	0x3f9ddf84	1.2333837
87	0x3f5e8f7a	0.8693768
88	0x3f6594a4	0.8967993
89	0x3f9b6c05	1.214234
90	0x3f0293ad	0.51006585
91	0x3f5e680d	0.8687752
92	0x3f0c90dd	0.54908544
93	0x401159eb	2.2711132
94	0x3fab1ab7	1.3367528
95	0x3f2be7a1	0.6715031
96	0x3f8b7e6d	1.0897957
97	0x3f849a65	1.0359617
98	0x402c9650	2.6966743
99	0x3f7ad8da	0.9798714
100	0x3f48acd5	0.7838872
101	0x3fc5a220	1.5440102
102	0x3f74fc10	0.95697117
103	0x3f15432a	0.5830561
104	0x3f7a42c7	0.97758144
105	0x3f205722	0.62632954
106	0x3f998ded	1.1996437
107	0x3f194026	0.5986351
108	0x3f7b9448	0.98273134
109	0x3f2bc51e	0.6709765
110	0x3eeed744	0.4664861
111	0x3f51d431	0.81964403
112	0x3eea58d0	0.45770884
113	0x3f557b88	0.8339162
114	0x3f21bf63	0.6318266
115	0x3f71aa1e	0.94400203
116	0x40515041	3.2705233
117	0x3f564338	0.8369632
118	0x3f1e9be3	0.61956614
119	0x3f011827	0.5042748
120	0x3f5ac41b	0.85455483
121	0x3f93afc0	1.153801
122	0x3e7a1904	0.24423605
123	0x3f68789e	0.9080905
124	0x3fa73512	1.3063071
125	0x3f7a9ea6	0.9789833
126	0x3eecbe4a	0.4623893
127	0x3fbb25d5	1.462092

fc.layers.1.linear.bias f4 [128]
0	0xbeb7f070	-0.35925627
1	0xbea3dc4f	-0.3200402
2	0xbf16040d	-0.5859993
3	0xbf142c5d	-0.57880193
4	0xbe9f8e1e	-0.31163114
5	0xbe50e570	-0.20400023
6	0xbe9e0771	-0.30865052
7	0xbe97ca01	-0.29646304
8	0xbe8d579a	-0.27605897
9	0xbf1911cb	-0.59792775
10	0xbf168d4d	-0.5880936
11	0x3e392d4b	0.18083684
12	0x3d2dfce5	0.042477507
13	0xbecf9345	-0.40542045
14	0xbf28e40e	-0.65972984
15	0xbe8fd1c4	-0.28089726
16	0x3cbb7cbb	0.022886625
17	0xbea4e6ce	-0.3220734
18	0xbeda3acd	-0.42622986
19	0xbed687b5	-0.4190041
20	0x3f02c049	0.51074654
21	0xbeddd7f6	-0.43328828
22	0xbe23fe61	-0.16015007
23	0xbf150d1e	-0.5822314
24	0xbd9a770b	-0.07542237
25	0xbd80fc23	-0.06298091
26	0xbf0175dd	-0.5057047
27	0x3e6a1e0e	0.22863027
28	0xbebbb2d3	-0.3665987
29	0xbf007bde	-0.50189006
30	0xbeb851b4	-0.35999835
31	0xbeb13b49	-0.34615543
32	0xbe53336f	-0.20625089
33	0xbe2fec70	-0.17180037
34	0xbf111602	-0.56674206
35	0x3e245bdd	0.16050668
36	0xbe19a2e9	-0.15003552
37	0x3cd7ae38	0.026328191
38	0xbe8aa6ac	-0.27080286
39	0xbe32e94f	-0.17471813
40	0xbe981cd4	-0.29709494
41	0xbf077cfb	-0.5292508
42	0xbee1a0e8	-0.44068074
43	0xbe5dd17d	-0.21661945
44	0xbef88df2	-0.48545796
45	0xbeade405	-0.33963028
46	0xbea524de	-0.3225469
47	0x3f54e8ac	0.8316753
48	0xbe989f43	-0.29809007
49	0xbf00122d	-0.50027734
50	0xbeb6161e	-0.3556375
51	0xbed46c54	-0.41488898
52	0xbe9d151b	-0.30680165
53	0x3e3d5099	0.18487777
54	0xbeb972d2	-0.36220413
55	0xbea4f701	-0.322197
56	0xbed4d793	-0.4157072
57	0xbeb60525	-0.355508
58	0xbf037776	-0.5135416
59	0xbed27f46	-0.41112727
60	0xbeef08b1	-0.4668632
61	0xbe86b056	-0.2630641
62	0xbeeb9d09	-0.46018246
63	0xbec2c238	-0.38038802
64	0x3ce0634d	0.0273911
65	0xbeb16743	-0.34649095
66	0xbd17c36b	-0.0370516
67	0xbeb07206	-0.34461993
68	0xbeec1f7f	-0.4611778
69	0xbf00c504	-0.5030062
70	0xbe37495f	-0.17899083
71	0xbd82849f	-0.06372952
72	0xbeb17b24	-0.3466426
73	0xbe1702f1	-0.14747216
74	0xbd947ffc	-0.072509736
75	0xbede2646	-0.43388575
76	0xbf191bed	-0.59808236
77	0xbe28baac	-0.1647746
78	0xbef3050e	-0.47464794
79	0xbeb1b1e3	-0.3470603
80	0xbe32c3f9	-0.1745757
81	0xbee8edf6	-0.4549405
82	0xbea00bce	-0.31259006
83	0xbea466fb	-0.32109818
84	0xbd029cf4	-0.031887963
85	0xbe8f0fa5	-0.27941623
86	0xbf075233	-0.528598
87	0xbd991253	-0.07474198
88	0xbed8892b	-0.4229215
89	0xbf05a7e0	-0.5220928
90	0xbe62ca63	-0.22147517
91	0xbe4c78e9	-0.19967999
92	0xbcf5e3b6	-0.030015808
93	0xbda07da2	-0.078364626
94	0xbeeb3b4b	-0.45943674
95	0x3d3aa55e	0.045567863
96	0xbea58d51	-0.32334378
97	0xbef9ff7d	-0.48827735
98	0xbe9bac23	-0.30404767
99	0xbe7a3ff4	-0.24438459
100	0xbe84bf4b	-0.25927195
101	0xbf01677a	-0.5054852
102	0xbe6a123a	-0.22858515
103	0xbdfbff1c	-0.123045176
104	0xbf035d9d	-0.5131472
105	0xbed555fb	-0.4166716
106	0xbe8a4d61	-0.2701216
107	0x3e9d691c	0.30744255
108	0xbf052383	-0.5200731
109	0x3e9bbc4a	0.3041709
110	0xbe8ab37e	-0.27090067
111	0xbea46aae	-0.3211264
112	0xbda1a413	-0.07892623
113	0xbef35278	-0.47523856
114	0x3e50c8e6	0.20389137
115	0xbede11ca	-0.43372947
116	0xbf1a0cec	-0.6017597
117	0x3d585f5d	0.05282532
118	0xbdde8f57	-0.10867184
119	0xbe615c2c	-0.22007817
120	0xbe656d74	-0.22405034
121	0xbec4b162	-0.38416582
122	0xbed69202	-0.4190827
123	0xbe9197e9	-0.2843621
124	0xbedda6f1	-0.4329143
125	0xbec47656	-0.38371533
126	0xbe5dbe4b	-0.21654622
127	0xbed4a1eb	-0.41529784

fc.layers.2.linear.weight f4 [128, 128]
0	0x3dcb8917	0.09938257
1	0x3ded0762	0.11573674
2	0xbd3af3fd	-0.04564284
3	0xbdaeff06	-0.085447356
4	0xbd6b9801	-0.05751801
5	0x3e08b6e1	0.13351013
6	0x3e0bb5bb	0.13643543
7	0x3d2c734f	0.042102154
8	0xbabea75a	-0.0014545724
9	0x3e39f81c	0.18161052
10	0x3ea9187d	0.33026496
11	0x3d189f88	0.037261516
12	0xbe2644db	-0.16237204
13	0xbb01ab43	-0.0019785918
14	0x3e293a93	0.1652625
15	0xbd3bcac6	-0.045847677
16	0xbdbd68c3	-0.09248497
17	0x3e99c153	0.30030307
18	0xbc187ace	-0.009306623
19	0xbe45e677	-0.19326197
20	0xbc9a44af	-0.018831579
21	0x3e9f0d4a	0.31064826
22	0x3e0559e7	0.13022576
23	0xbdce7e05	-0.1008263
24	0x3e87abcb	0.26498255
25	0x3d546984	0.05185844
26	0x3e8f0fe4	0.2794181
27	0x3e1ccbec	0.15312165
28	0x3d2b73d3	0.041858505
29	0xbaf88636	-0.0018960896
30	0xbd3c7c70	-0.04601711
31	0x3e0a8086	0.1352559
32	0xbd501726	-0.050803326
33	0x3e3a0412	0.18165615
34	0x3e806536	0.25077218
35	0xbddd6d00	-0.10811806
36	0xbd409880	-0.047020435
37	0xbd2e9cb8	-0.042629927
38	0x3e202d4c	0.1564228
39	0x3daf832b	0.0856994
40	0xbbb421b1	-0.0054971804
41	0x3e8012ce	0.25014347
42	0x3e5427ec	0.20718354
43	0x3e96a903	0.2942582
44	0xbc98cea4	-0.018653221
45	0xbd8e8c84	-0.06960395
46	0x3e87bea1	0.26512626
47	0xbe93f018	-0.28894114
48	0xbc3f9c8c	-0.0116950385
49	0x3e98fa5f	0.29878518
50	0x3dae6f41	0.08517314
51	0x3e202006	0.15637216
52	0x3d97a2fc	0.07404134
53	0x3e02c870	0.12771773
54	0xbc9ced7a	-0.019156206
55	0x3d9e772f	0.07737576
56	0x3e242170	0.1602838
57	0xbd78d126	-0.060746334
58	0x3d00ea1f	0.031473275
59	0xbed16d3b	-0.4090365
60	0x3e1ec3e2	0.15504411
61	0x3dff05ba	0.12452264
62	0x3e32fccb	0.17479245
63	0x3e2dedbb	0.16985218
64	0xbd410d1e	-0.04713165
65	0xbd36bde1	-0.044614676
66	0xbd65641e	-0.056003682
67	0x3ea3ec1a	0.3201607
68	0x3dc3f8cd	0.09568939
69	0x3da8f138	0.08249134
70	0x3bc25cb6	0.005931462
71	0x3b72683b	0.0036988396
72	0x3dc12faa	0.09432919
73	0xbe5e02a8	-0.21680701
74	0x3cc874da	0.024469782
75	0x3e0e8551	0.13918044
76	0x3dbcb381	0.09213925
77	0x3d7d70b6	0.061875068
78	0x3e042c18	0.12907445
79	0x3d94904a	0.072540835
80	0x3e1e37cd	0.15450974
81	0x3cfbdbee	0.03074452
82	0x3d53613d	0.051606406
83	0xbe4a6c90	-0.19767976
84	0x3de12114	0.10992637
85	0x3c52adaa	0.012858788
86	0x3d3e6a6a	0.046488203
87	0xbd024e2c	-0.03181283
88	0x3e3784b7	0.1792172
89	0x3d21e057	0.039520588
90	0x3c1d4686	0.009599334
91	0x3d5e26f2	0.05423636
92	0xbdee36eb	-0.116315685
93	0xbe14af2d	-0.1451995
94	0x3e6bb50f	0.23018287
95	0x3d86e71c	0.06587049
96	0xbd358ee6	-0.04432573
97	0x3cb8d0aa	0.022560436
98	0x3bc1d99a	0.0059158327
99	0x3e73ec44	0.23820597
100	0xbcc2264e	-0.023699906
101	0x3d035065	0.032059092
102	0x3d5155cb	0.05110721
103	0x3e234007	0.15942393
104	0x3e625be8	0.22105372
105	0x3d8b287d	0.06794832
106	0x3cdb0991	0.02673796
107	0xbda924ae	-0.08258949
108	0x3e71fd98	0.23631895
109	0xbe8baefe	-0.27281946
110	0xbdb8f1fc	-0.0903053
111	0x3e2efd3a	0.17088786
112	0xbdcafeee	-0.09911905
113	0xbc4f3708	-0.012647398
114	0x3e1f60e9	0.15564312
115	0xbdf98399	-0.121833034
116	0x3c76edb8	0.015071325
117	0xbe35b4f4	-0.1774481
118	0xbd50c92f	-0.050973114
119	0xbde22cd7	-0.11043709
120	0x3e936dd6	0.28794736
121	0x3e1c3adf	0.15256833
122	0x3e2a2381	0.16615106
123	0x3e106abb	0.14103214
124	0x3dbc2f3d	0.091886975
125	0x3e0a9d72	0.13536623
126	0x3cefe98f	0.029286174
127	0x3c8d91a1	0.017281355
128	0x3dca2afb	0.09871479
129	0x3e00d34b	0.12580602
130	0x3e7e2acd	0.24821015
131	0x3e06e834	0.13174516
132	0xbe5edb88	-0.21763432
133	0x3ebf0a71	0.37312654
134	0xbc38d3e9	-0.011280992
135	0xbe3568bd	-0.17715736
136	0x3f2c2d17	0.672563
137	0x3ea07371	0.31338075
138	0x3eb3f866	0.3515045
139	0x3aea5b96	0.0017880078
140	0x3eba6b7c	0.3641013
141	0x3c99cab4	0.018773414
142	0x3e475933	0.1946762
143	0x3eacbaea	0.33736354
144	0xbe944dcd	-0.28965607
145	0x3ecfea62	0.40608507
146	0x3f2bc04a	0.67090285
147	0x3ea83cf8	0.32859015
148	0xbf38e3d5	-0.72222644
149	0x3e259b26	0.16172466
150	0x3e1f762c	0.15572423
151	0xbdcad1b5	-0.0990328
152	0xbd8e725b	-0.06955405
153	0xbe0f1f39	-0.13976754
154	0x3eca997e	0.3957023
155	0x3db7320f	0.08945095
156	0x3e9c7e64	0.30565178
157	0x3d944a4a	0.07240732
158	0x3e32487d	0.17410465
159	0xbd515e09	-0.05111507
160	0xbdd5163e	-0.10404633
161	0x3d1d2a5e	0.038370483
162	0x3f24e3d6	0.6441015
163	0x3d2948a3	0.041329037
164	0x3c44f401	0.012021066
165	0x3ab013f7	0.0013433684
166	0xbce363c2	-0.02775753
167	0x3d11be13	0.03558166
168	0x3dcffcaf	0.101556174
169	0xbe622256	-0.2208341
170	0x3d84d555	0.06486002
171	0x3e78d8d0	0.24301457
172	0x3ebbf389	0.3670924
173	0x3d2b655e	0.04184472
174	0x3dc760e5	0.09735278
175	0xbd45e550	-0.048314393
176	0x3e5d5e89	0.21618094
177	0x3e92fa53	0.28706607
178	0x3e9d68ce	0.30744022
179	0x3d447e17	0.04797181
180	0x3ec3f18c	0.38270223
181	0x3db142a6	0.0865529
182	0x3ed7bae8	0.42134786
183	0x3ef8028b	0.4843944
184	0x3e9efb5b	0.31051144
185	0x3e3e1d5b	0.18565886
186	0x3c9b7521	0.01897675
187	0x3ef9cacf	0.48787543
188	0x3e26b267	0.16278993
189	0x3db0e4a9	0.086373635
190	0x3ea4f22a	0.32216007
191	0x3eab4859	0.33453634
192	0x3f1743bc	0.5908773
193	0xbd31f184	-0.043443218
194	0x3dd98a19	0.10622043
195	0x3f10a6ca	0.565045
196	0x3e96271f	0.29326722
197	0x3e00104c	0.12506217
198	0xbe2ec251	-0.17066313
199	0xbe6c1c32	-0.2305763
200	0xbe16cea5	-0.14727266
201	0x3e27995a	0.16367093
202	0xbe6c811c	-0.23096126
203	0x3f12f206	0.5740055
204	0x3d9fa987	0.07796007
205	0xbd8f0340	-0.06983042
206	0x3e9c85ce	0.30570835
207	0x3f06ab82	0.5260545
208	0x3d28c5d6	0.041204296
209	0x3e77370b	0.24142091
210	0xbd45dd41	-0.048306707
211	0xbd8c439c	-0.06848833
212	0xbe5174c8	-0.20454705
213	0x3dc1288d	0.094315626
214	0x3dc66899	0.09687919
215	0xbed5a1e7	-0.41725084
216	0x3eb804ae	0.3594107
217	0x3de145ea	0.10999663
218	0xbc93183f	-0.017955897
219	0x3e24bed7	0.16088425
220	0xbe355f27	-0.17712079
221	0x3f7537cf	0.9578828
222	0x3d8740c3	0.06604149
223	0xbccaa66e	-0.024737563
224	0x3ea174be	0.3153438
225	0xbd533667	-0.051565554
226	0x3f17b251	0.59256464
227	0x3ec60bfe	0.38681024
228	0x3df5eb3d	0.12007759
229	0xbdae1d1e	-0.085016474
230	0x3d88d5b4	0.06681386
231	0xbe10074a	-0.1406528
232	0x3ec4a4ff	0.38407132
233	0x3e3ad72d	0.18246146
234	0x3e33b0dd	0.17547937
235	0xbeec32c5	-0.46132484
236	0x3e867665	0.26262203
237	0x3e7d5ae7	0.24741708
238	0x3e20148a	0.15632835
239	0x3e1f8b3b	0.15580456
240	0xbd453cd3	-0.04815371
241	0x3eb4c47d	0.3530616
242	0xbe9a4556	-0.30131024
243	0x3e30339e	0.1720719
244	0xbbb17cce	-0.005416489
245	0xbd66915e	-0.056290977
246	0xbe151756	-0.14559683
247	0x3e10d973	0.1414545
248	0xbdf56dd9	-0.119838424
249	0x3e3021d1	0.172004
250	0x3e4a3f94	0.19750816
251	0x3dd7f89e	0.10545467
252	0x3e30ede0	0.17278242
253	0x3eb494d6	0.35269803
254	0x3e8b35ae	0.27189392
255	0x3defddf8	0.11712259

fc.layers.2.linear.weight_g f4 [128, 1]
0	0x3f30024a	0.6875349
1	0x3f7e7b6c	0.99407077
2	0x3f5c238b	0.85991734
3	0x3ea3316e	0.3187365
4	0x3f1212f8	0.57060194
5	0x3f524f55	0.821523
6	0x3f544284	0.82913995
7	0x3f63ba72	0.8895637
8	0x3ee1b95f	0.4408674
9	0x3f818d6c	1.0121284
10	0x3f42a0fa	0.7602688
11	0x3ef58de1	0.47959808
12	0x3f36f37d	0.71465284
13	0x3f5a64f6	0.85310304
14	0x3eb6dcd6	0.3571536
15	0x3f4fdd21	0.8119679
16	0x3f35df51	0.7104388
17	0x3f4a5240	0.79031754
18	0x3e8a9841	0.27069286
19	0x3f2a4378	0.665092
20	0x3f557f75	0.8339761
21	0x3f489083	0.7834551
22	0x3f6b47cc	0.9190643
23	0x3f44ea4d	0.76920015
24	0x3ec9cd8b	0.3941463
25	0x3f2e937d	0.681938
26	0x3f3d9295	0.7405179
27	0x3f375383	0.71611804
28	0x3f7a8834	0.9786408
29	0x3f51f7e1	0.8201886
30	0x3e8824d6	0.26590604
31	0x3f3a34b1	0.7273665
32	0x3e140216	0.1445392
33	0x3f264972	0.6495582
34	0x3f5da395	0.8657773
35	0x3f755ca6	0.95844495
36	0x3f472191	0.77785593
37	0x3f387204	0.72048974
38	0x3f2e74e0	0.6814709
39	0x3f11c316	0.569383
40	0x3f2c6b6c	0.6735141
41	0x3e256f9a	0.16155854
42	0x3f412295	0.75443393
43	0x3f334ce7	0.7003922
44	0x3f70c8f8	0.94056654
45	0x3f5c37f4	0.8602288
46	0x3f470aa7	0.7775063
47	0x3dd1468a	0.102185324
48	0x3f60d3dd	0.8782328
49	0x3f42b343	0.7605478
50	0x3f1d5233	0.6145355
51	0x3f2288ca	0.63489974
52	0x3f31ca32	0.6944915
53	0x3f2724e5	0.6529067
54	0x3f270ffc	0.65258765
55	0x3f5cdfa7	0.86278766
56	0x3f8303b5	1.0235506
57	0x3f164a13	0.5870678
58	0x3f377c50	0.7167406
59	0x3f4c051e	0.7969531
60	0x3f456f70	0.77123165
61	0x3f11815f	0.5683803
62	0x3f38d3ff	0.7219848
63	0x3f69660c	0.91171336
64	0x3f33944d	0.70148164
65	0x3f4dfd73	0.8046486
66	0x3f452e28	0.77023554
67	0x3f5f6815	0.8726819
68	0x3f1c6236	0.6108736
69	0x3e80914f	0.25110862
70	0x3ef3afe5	0.47595134
71	0x3f5771ed	0.8415821
72	0x3f39059d	0.7227419
73	0x3f3a137c	0.7268598
74	0x3f17d89d	0.593149
75	0x3f952fe4	1.165524
76	0x3f41c3eb	0.7568957
77	0x3f5ca12e	0.8618344
78	0x3f9a45c3	1.205254
79	0x3f2bf2a1	0.671671
80	0x3f54fccb	0.8319823
81	0x3f5c6e2f	0.86105627
82	0x3f519f2a	0.8188349
83	0x3e306eda	0.17229787
84	0x3eee06b7	0.46489498
85	0x3ed2b0a4	0.4115039
86	0x3f797d47	0.97456783
87	0x3f34878f	0.70519346
88	0x3f0424b3	0.516185
89	0x3f6dbdd8	0.92867804
90	0x3f03df64	0.5151274
91	0x3f5d6d5c	0.86494994
92	0x3f56f23e	0.8396338
93	0x3ea1c952	0.31598908
94	0x3f2d1dd4	0.6762364
95	0x3f515da2	0.817835
96	0x3f57e45a	0.8433281
97	0x3f55702d	0.8337429
98	0x3f3f9810	0.74841404
99	0x3f470f5c	0.7775781
100	0x3f334d55	0.70039874
101	0x3f79d013	0.9758312
102	0x3f604b76	0.87615144
103	0x3f5d117e	0.86354816
104	0x3f6a5d90	0.91549015
105	0x3e98d8cd	0.29852906
106	0x3f5d1125	0.86354285
107	0x3f878003	1.0585941
108	0x3eee3f8c	0.46532857
109	0x3f455369	0.770804
110	0x3f5434fd	0.82893354
111	0x3f354e9e	0.70823085
112	0x3f792525	0.97322303
113	0x3f5c5727	0.86070484
114	0x3f5a5f94	0.8530209
115	0x3f63e680	0.8902359
116	0x3f010947	0.5040478
117	0x3f60bbe2	0.87786686
118	0x3f6caa62	0.92447484
119	0x3f47b2e1	0.7800732
120	0x3f3109a6	0.6915535
121	0x3e5217d1	0.20516898
122	0x3f560f29	0.8361688
123	0x3d80c462	0.06287457
124	0x3f5db78f	0.86608213
125	0x3f4682b2	0.77543175
126	0x3f34a7b6	0.70568407
127	0x3eb6b1c9	0.35682514

fc.layers.2.linear.bias f4 [128]
0	0xbe267f6e	-0.16259548
1	0xbed3d1ab	-0.413709
2	0xbeb587e2	-0.35455233
3	0x3db2d370	0.08731735
4	0x3e6388ca	0.2222015
5	0xbe7a95a6	-0.24471149
6	0xbe99568f	-0.2994885
7	0xbe416e9d	-0.18889852
8	0xbe9e990f	-0.3097615
9	0xbedb533d	-0.42836943
10	0xbe4150c8	-0.18878472
11	0xbe53be79	-0.20678128
12	0xbe65fe54	-0.224603
13	0xbe2e5002	-0.17022708
14	0xbe203ff6	-0.15649399
15	0xbec43c30	-0.3832717
16	0xbe8c37f5	-0.27386442
17	0xbe13e8d3	-0.14444284
18	0xbe66e7e6	-0.225494
19	0xbe9e5b81	-0.30929187
20	0xbe061f2b	-0.13097827
21	0xbe6aa6ea	-0.22915235
22	0xbe5d1087	-0.21588336
23	0xbe11a421	-0.14222766
24	0xbe672f9a	-0.22576752
25	0xbea2d60b	-0.31803927
26	0xbe893fde	-0.2680654
27	0xbeb08816	-0.34478825
28	0xbef6b2f1	-0.48183396
29	0xbe85cc44	-0.26132405
30	0xbe212f6c	-0.15740746
31	0xbe840f88	-0.257931
32	0xbe882896	-0.26593465
33	0xbe61764f	-0.22017787
34	0xbe7284b2	-0.23683432
35	0xbe2f09db	-0.17093603
36	0xbe845370	-0.25844908
37	0xbe809ff0	-0.25122023
38	0xbe99804e	-0.299807
39	0xbdd25a47	-0.10271125
40	0xbe897086	-0.2684366
41	0xbe733fc1	-0.23754789
42	0xbe790e02	-0.2432175
43	0xbe831171	-0.25599244
44	0x3d377f77	0.044799294
45	0xbe2d5630	-0.16927409
46	0xbe690001	-0.22753908
47	0xbd92d54b	-0.07169589
48	0xbe5338de	-0.20627162
49	0xbe97bed1	-0.2963777
50	0xbeb10d0f	-0.34580275
51	0x3e93b6ea	0.2885049
52	0xbe9b4976	-0.30329484
53	0xbe997630	-0.29972982
54	0xbe97f26c	-0.2967714
55	0xbe44fc05	-0.19236763
56	0xbe7d8d60	-0.24760962
57	0xbecf1aa4	-0.40450013
58	0xbe74693c	-0.23868269
59	0xbe73d53a	-0.23811808
60	0xbeb786f1	-0.3584514
61	0x3bc2c116	0.005943428
62	0xbe86f7ee	-0.2636103
63	0xbe90062f	-0.28129718
64	0xbe8ab3a3	-0.27090177
65	0xbe688baa	-0.22709528
66	0xbe809e5d	-0.25120822
67	0xbe51effc	-0.20501703
68	0xbe957a3b	-0.29194817
69	0x3c96892b	0.018375954
70	0xbe9820b2	-0.29712445
71	0xbe32b240	-0.1745081
72	0xbe922a96	-0.28548115
73	0xbe71f388	-0.23628056
74	0xbe89de6b	-0.26927504
75	0xbe4a9bf6	-0.19786057
76	0xbe765401	-0.24055482
77	0xbe39a33b	-0.18128674
78	0xbf360b41	-0.7111092
79	0xbe8f3af1	-0.27974656
80	0xbeaa732f	-0.33291003
81	0xbe99d3f3	-0.30044517
82	0xbe399aa2	-0.18125394
83	0xbe7c7db5	-0.24657328
84	0x3edfd48c	0.43716848
85	0xbecd282d	-0.40069714
86	0xbee72b10	-0.45150042
87	0xbec07ba7	-0.3759434
88	0xbe8fe69b	-0.28105626
89	0xbe7f3345	-0.24921902
90	0xbe8cd165	-0.27503505
91	0xbe7e2a04	-0.24820715
92	0xbe90b9ab	-0.28266653
93	0xbdb43740	-0.087996006
94	0xbea5f6f4	-0.32414973
95	0xbe2d6e7d	-0.16936679
96	0xbe9f5819	-0.311219
97	0xbe5318bb	-0.20614903
98	0xbe8fd48d	-0.2809185
99	0xbe892b56	-0.26790875
100	0xbec9401a	-0.39306718
101	0xbe6982a8	-0.22803748
102	0xbe821e2d	-0.25413647
103	0xbe8c1012	-0.2735601
104	0xbe875552	-0.26432282
105	0xbbe62bd1	-0.0070242663
106	0xbe52b9b0	-0.20578647
107	0xbe8c5f05	-0.27416244
108	0xbebb2756	-0.36553448
109	0xbeb1ab40	-0.34700966
110	0xbe84d99d	-0.25947276
111	0xbe85f3b8	-0.26162505
112	0xbec239f2	-0.37934834
113	0xbe22292e	-0.15836021
114	0x3e02aa9d	0.12760396
115	0xbe8258e8	-0.25458455
116	0xbe863ca3	-0.26218137
117	0xbe57f9ff	-0.2109146
118	0xbeb204c4	-0.3476926
119	0xbe874319	-0.2641838
120	0xbe82f41b	-0.25576863
121	0xbc670190	-0.014099494
122	0xbe6b3b5b	-0.22971861
123	0xbdfee09d	-0.12445185
124	0xbeb21437	-0.34781048
125	0xbe51bbc2	-0.2048178
126	0xbe8637e1	-0.26214507
127	0x3d95e622	0.07319285

fc.layers.3.linear.weight f4 [128, 128]
0	0xbd9e327c	-0.07724473
1	0x3d91d4dc	0.07120678
2	0x3e5f7fbe	0.21826074
3	0xbdc1fbed	-0.09471879
4	0x3dcc446e	0.099739894
5	0xbe61b318	-0.22040975
6	0xbe29e24f	-0.16590236
7	0x3e0be09a	0.13659897
8	0x3e040afc	0.12894815
9	0x3e13bad1	0.14426734
10	0x3e072ef7	0.1320151
11	0xbe060cc3	-0.13090806
12	0xbc9ba1f4	-0.018998124
13	0xbe1a59f6	-0.1507338
14	0xbe3f5252	-0.18683746
15	0xbe65f272	-0.22455767
16	0x3dd006b3	0.10157528
17	0xbe017e38	-0.12645805
18	0x3ddae1a8	0.10687572
19	0x3e4f8ade	0.20267817
20	0x3e8bff78	0.27343345
21	0xbe353750	-0.17696881
22	0x3df7720e	0.12082301
23	0x3e05a6df	0.13051938
24	0xbdc91c17	-0.09819811
25	0xbd876d60	-0.066126585
26	0x3d1cff1a	0.03832922
27	0xbd86a457	-0.06574314
28	0x3d4aa13e	0.04947018
29	0x3e2a5aaf	0.16636156
30	0xbdbd724b	-0.09250315
31	0xbd837586	-0.064189
32	0x3d5ae313	0.05343921
33	0xbd03ad9b	-0.032147985
34	0x3c482ece	0.01221819
35	0x3e94380c	0.2894901
36	0x3e84a7b8	0.2590921
37	0xbe085f7e	-0.13317677
38	0x3db8c061	0.09021068
39	0x3d9ee8f9	0.0775928
40	0xbe030002	-0.12792972
41	0xbdf4d081	-0.119538315
42	0x3e296df7	0.16545855
43	0x3c6197d8	0.0137691125
44	0xbc4ca6c5	-0.012490933
45	0x3d728b27	0.059214737
46	0xbd7ae19d	-0.061250318
47	0x3d83f6f6	0.064435884
48	0xbdc8a405	-0.09796909
49	0x3e944f1f	0.28966615
50	0x3dd83237	0.10556453
51	0xbafa53b8	-0.0019098436
52	0xbdebb837	-0.115097456
53	0x3e52441a	0.20533791
54	0xbe241e89	-0.16027273
55	0xbdd2bd5b	-0.10290023
56	0xbcd9d1d6	-0.026589315
57	0xbe0ce595	-0.13759454
58	0xbdace2ce	-0.08441697
59	0x3e08e04a	0.1336681
60	0x3e92d711	0.28679708
61	0x3d845f6d	0.064635135
62	0x3d5bf39b	0.053699117
63	0xbe332d36	-0.17497715
64	0xbdb75957	-0.08952587
65	0xbd5bddb7	-0.05367824
66	0xbdc67440	-0.09690142
67	0x3ce66a81	0.028126957
68	0x3d03bcd0	0.032162488
69	0xbd376402	-0.04477311
70	0x3dd18185	0.10229782
71	0xbe59c1fb	-0.21265404
72	0x3dec9b55	0.11553065
73	0xbdd704ea	-0.10498984
74	0xbd6666a4	-0.05625023
75	0xbdffe546	-0.12494902
76	0x3e375c08	0.17906201
77	0xbe653e40	-0.22387028
78	0xbee87ae6	-0.45406264
79	0x3e409e0d	0.18810292
80	0x3dd02c78	0.10164732
81	0x3e5906d5	0.21194012
82	0x3deb88e5	0.1150072
83	0x3e221887	0.15829669
84	0xbd6762fe	-0.05649089
85	0xbd3192f7	-0.043353047
86	0x3e2e86b4	0.17043573
87	0xbc94d157	-0.018166227
88	0xbe2428c9	-0.16031183
89	0xbd48fd2f	-0.04906958
90	0xbe3e0b77	-0.18559061
91	0xbe0996c2	-0.13436416
92	0xbe36ab20	-0.17838717
93	0x3d618166	0.055055045
94	0x3e662f62	0.22479013
95	0x3e7ec82e	0.2488105
96	0xbe7a2edc	-0.24431938
97	0xbb2c6a09	-0.002630832
98	0xbc8d8cef	-0.017279116
99	0xbd1faf56	-0.038985573
100	0x3e4a45fd	0.19753261
101	0x3dc02bc8	0.093833506
102	0x3dc9f64f	0.09861433
103	0xbe826b17	-0.25472328
104	0xbe63e85d	-0.22256608
105	0x3ccf8df4	0.025336243
106	0xbe1f6212	-0.15564755
107	0xbde04588	-0.10950762
108	0x3de0c6d3	0.10975423
109	0xbe17cadc	-0.14823478
110	0x3e35b704	0.17745596
111	0xbe131c86	-0.1436635
112	0x3e315e2c	0.1732108
113	0x3da19466	0.07889633
114	0xbc7a01a7	-0.015259183
115	0xbeaf9a81	-0.34297565
116	0xbd57a95e	-0.052651756
117	0x3e2cc3b2	0.16871527
118	0xbe448e33	-0.1919487
119	0xbd523ec5	-0.051329393
120	0x3d177986	0.03698113
121	0xbddd7c26	-0.10814695
122	0x3d03c9f6	0.032175027
123	0xbda7797f	-0.081774704
124	0x3df1d8a0	0.11808896
125	0xbe0cb42e	-0.13740608
126	0x3e03c33e	0.12867448
127	0x3c607ace	0.013701154
128	0xbe2fb264	-0.17157894
129	0x3e000c42	0.12504676
130	0x3e94c081	0.2905312
131	0xbd8ac6e6	-0.06776218
132	0x3d4066e0	0.04697311
133	0x3d6aa568	0.05728665
134	0x3d5746c7	0.052557733
135	0xbe463abc	-0.19358343
136	0x3db44730	0.088026404
137	0x3e0d8815	0.13821442
138	0x3daa97a5	0.08329705
139	0xbd4eb056	-0.050461136
140	0x3f15fc37	0.58587974
141	0xbd94791e	-0.07249664
142	0x3d916d2c	0.07100901
143	0xbd2442de	-0.040102832
144	0xbdd748f8	-0.105119646
145	0x3d2172af	0.03941601
146	0x3e00fbc6	0.12596044
147	0x3dfbf773	0.123030566
148	0x3e2009e2	0.1562877
149	0x3d1edc69	0.03878442
150	0x3e58727d	0.21137424
151	0x3e853b4d	0.26021805
152	0xbda54360	-0.080694914
153	0xbdaed42f	-0.085365646
154	0xbe2287e6	-0.15872154
155	0x3f08e9d1	0.53481776
156	0x3e9e09d2	0.30866867
157	0x3d9ae22b	0.07562669
158	0xbdaa5879	-0.08317656
159	0x3e041ea3	0.12902312
160	0x3c8c8956	0.01715533
161	0xbd0f6274	-0.035006
162	0xbd7821e6	-0.060579203
163	0x3de5ab28	0.11214286
164	0x3e92d049	0.28674534
165	0x3e34abc7	0.17643653
166	0xbd7cbddc	-0.0617045
167	0x3e179180	0.14801598
168	0x3c7880c4	0.015167419
169	0xbe1285d3	-0.14308862
170	0x3e27a9c3	0.16373353
171	0x3e209f22	0.15685704
172	0xbd4c1ca2	-0.049831994
173	0x3e11a78d	0.14224072
174	0x3e6bd95d	0.23032136
175	0xbdcd8acf	-0.10036241
176	0x3e7be656	0.24599585
177	0x3e5c7743	0.2152987
178	0xbad0e4f0	-0.0015937369
179	0x3d39383b	0.04521964
180	0xbdf0c411	-0.11756147
181	0x3e817d59	0.25290945
182	0x3ecb56f8	0.3971479
183	0xbca11097	-0.019661231
184	0xbd98e5ba	-0.07465692
185	0x3e65c941	0.22440054
186	0xbd8da752	-0.069166794
187	0xbd16868c	-0.036749408
188	0x3f1c26da	0.6099678
189	0x3e5f23bf	0.2179098
190	0x3ec216cc	0.37908018
191	0x3dbd34db	0.09238597
192	0x3e96c80f	0.29449508
193	0xbc529009	-0.0128517235
194	0xba409e30	-0.00073477905
195	0x3eae0082	0.33984762
196	0xbe00a3fd	-0.12562557
197	0x3dbb0f58	0.09133786
198	0xbe17f782	-0.1484051
199	0x3e5a3a71	0.21311356
200	0x3eb3ce0e	0.35118145
201	0xbdce6a2d	-0.10078845
202	0x3cb3ea77	0.021962387
203	0xbde36110	-0.111024976
204	0xbdaff3de	-0.08591436
205	0xbd86b98b	-0.06578358
206	0x3cc19299	0.023629474
207	0x3efe67e6	0.49688643
208	0x3efa031b	0.48830494
209	0xbd693222	-0.056932576
210	0xbd126b06	-0.035746597
211	0xbd326250	-0.04355079
212	0xbe1629ef	-0.14664434
213	0xbd1a45e0	-0.037664294
214	0x3d8e8e3a	0.06960721
215	0x3edf71b5	0.4364144
216	0x3ed7ceb9	0.42149904
217	0x3e6d9439	0.23201074
218	0xbd408958	-0.04700598
219	0x3caf32fc	0.021386616
220	0x3eb2c058	0.34912372
221	0xbe83f8c3	-0.25775728
222	0xbc74317d	-0.014904377
223	0x3d33d67c	0.04390572
224	0xbdcb667e	-0.09931658
225	0x3c7dceb2	0.0154911745
226	0x3d2fddd1	0.04293615
227	0x3e558a80	0.20853615
228	0x3e3e1f1f	0.1856656
229	0xbdd82ba3	-0.10555198
230	0x3d6a337d	0.05717801
231	0x3d5438fd	0.05181216
232	0xbd80bb62	-0.062857404
233	0xbd857191	-0.06515802
234	0x3b3636a8	0.0027803574
235	0xbdee2c6a	-0.11629565
236	0x3db02cf6	0.086023256
237	0x3e81ce78	0.25352836
238	0x3e8cb0e3	0.27478704
239	0x3e43fe79	0.19140042
240	0xbd17c28c	-0.03705077
241	0xbd90637d	-0.07050226
242	0xbd369f53	-0.044585537
243	0xbd23f9e1	-0.040033225
244	0xbdcdb013	-0.10043349
245	0x3e3bebb8	0.18351638
246	0x3caff433	0.021478748
247	0x3d5a3b5f	0.053279277
248	0x3e36abea	0.17839018
249	0xbd805f77	-0.062682085
250	0x3e97f26e	0.29677147
251	0xbd76db1e	-0.06026756
252	0x3ea9a806	0.33136004
253	0xbdc74583	-0.09730055
254	0x3ea85988	0.32880807
255	0xbd186b73	-0.037211847
